NCC_Code/models/2022-08-25_23-16-48_model.pt (torch, 115275 bytes, 50 tensors)

conv1.weight f4 [8, 2, 5, 5]
0.005743742 0.066941656 0.063526824 -0.13499863 0.16025428 -0.11932693 -0.5148403 -0.624191
-0.29506683 -0.76386476 0.93088746 1.8410457 1.8125981 2.266653 1.2672963 -0.6912477
-0.8409008 -0.7942959 -0.86889535 -0.71260655 0.17807059 -0.16972966 -0.46854427 -0.2250895
-0.16188253 0.33602098 -0.34054258 -0.1636288 -0.21887024 -0.09867745 -0.25793403 -0.27446562
-0.40189573 -0.70323354 -0.532133 0.9560511 1.7896419 1.564675 1.9218142 1.7486042
-0.35278773 -0.7696856 -0.875421 -0.93873227 -0.476649 0.08444555 -0.20096083 -0.2812729
-0.20208979 -0.019087737 0.40894505 0.36320496 0.98274535 0.8233484 -0.09549316 1.5325296
1.7551827 1.4412096 1.1651859 0.33352888 0.025637683 -0.42362332 0.1277976 -0.14502263
-0.2602519 -0.51591915 -1.2344258 -0.9766076 -1.084657 -0.39706784 0.3110353 -0.17615773
-0.18770894 -0.26135698 -0.7056613 0.2535356 0.6493259 0.42911536 0.5837499 0.30332857
0.85059786 1.3972512 1.7303696 1.2456831 0.5358406 -0.11839012 -0.15296942 -0.34500095
-0.4243701 -0.26661533 -0.44130796 -0.712644 -1.2221334 -1.1329033 -1.1130294 0.13710912
0.16046153 -0.12289366 -0.49466616 -0.71853673 0.29875398 -0.22952268 0.046248734 -0.17745577
-0.107049406 -0.7886382 -1.287938 -0.8218008 -1.1554852 -1.3549014 0.58765703 1.1081629
1.1925623 1.1728419 0.6737639 -0.034879506 0.31882238 0.29528564 0.4370728 -0.47441062
0.5880635 0.45749617 0.6215205 0.7284125 -0.4473374 0.4319553 0.2928348 0.050216455
-0.12167331 -0.08128505 -1.1679338 -1.0563604 -1.3632433 -1.2277484 -1.1382118 0.82897145
1.176031 0.8417626 0.85601354 0.4565632 0.21238238 0.5480559 0.50322074 0.36483732
0.025832945 0.6678211 0.6333677 0.59906054 0.83839476 -0.3253628 -0.1137176 -0.7109227
-0.5863225 -0.60611093 0.39456174 0.34407955 -0.15192716 -0.27337041 -0.7491421 -1.2425033
1.9944911 1.6953484 1.2710248 0.28882992 -0.41716257 0.05796906 -0.3242491 -0.16895184
-0.93010974 -0.9160932 0.14523494 -0.03304104 0.278109 -0.20747067 -0.16009197 -0.04524749
-0.6322699 -0.3071607 -0.42058608 -0.096341506 -0.27890486 -0.18415226 -0.49803862 -1.0043392
-1.473894 2.139328 1.8000281 1.178663 0.66959596 -0.3808227 0.5034781 -0.15709132
-0.25437725 -0.30227917 -0.87262774 0.23731142 0.120734885 0.20047824 -0.059159044 -0.21066894
-1.2287656 -1.4495342 -0.83605963 -1.4740801 -0.8968741 -0.9266386 -0.5562421 -0.8128758
-1.2368485 -0.9128482 0.4555547 0.6377201 0.45491928 0.3862745 0.37611568 -0.107964166
0.48532897 0.23712482 0.26769662 0.43895653 -0.60806865 -0.62281245 -0.08004886 -0.2946512
-0.033347633 -1.361464 -1.5796293 -1.236477 -1.2947631 -1.0519518 -0.97997326 -0.9319314
-0.7300683 -1.3555846 -1.0720377 0.3535484 0.37906766 -0.00886377 0.52536756 0.23519878
0.49464718 0.4072022 0.33604997 0.47484457 -0.05880661 -0.2054048 -0.4875104 -0.7612778
-0.682462 0.27696982 0.32261485 0.34340593 0.3320601 0.15245922 0.049640454 -0.4846973
00000000: 0036 bc3b b518 893d 5a1a 823d 153d 0abe
00000010: b319 243e ad61 f4bd 93cc 03bf fbca 1fbf
00000020: 0013 97be a48c 43bf a44e 6e3f 63a7 eb3f
00000030: 3703 e83f d810 1140 c436 a23f 9cf5 30bf
00000040: 4645 57bf fa56 4bbf ed6f 5ebf 626d 36bf
00000050: 2358 363e 9dcd 2dbe 09e5 efbe dd7d 66be
00000060: 89c4 25be f10a ac3e 995b aebe 4f8e 27be
00000070: 851f 60be 6717 cabd ee0f 84be c286 8cbe
00000080: 47c5 cdbe 1d07 34bf de39 08bf c4bf 743f
00000090: fc12 e53f 4547 c83f 02fe f53f 43d2 df3f
000000a0: 98a0 b4be 1e0a 45bf 971b 60bf c250 70bf
000000b0: 560b f4be caf1 ac3d adc8 4dbe 0003 90be
000000c0: a0f0 4ebe e35d 9cbc 3f61 d13e 00f6 b93e
000000d0: 3395 7b3f f6c6 523f eb91 c3bd ee29 c43f
000000e0: d4a9 e03f 8e79 b83f d024 953f 4cc4 aa3e
000000f0: 1e06 d23c 28e5 d8be 60dd 023e d080 14be
00000100: bd3f 85be 4713 04bf aa01 9ebf f502 7abf
00000110: 0ad6 8abf 7a4c cbbe 0540 9f3e b162 34be
00000120: c636 40be 95d0 85be 38a6 34bf 6bcf 813e
00000130: 393a 263f 02b5 db3e a270 153f e24d 9b3e
00000140: c8c0 593f 21d9 b23f c07c dd3f 8b72 9f3f
00000150: d92c 093f 8576 f2bd 04a4 1cbe f7a3 b0be
00000160: 0a47 d9be ce81 88be 1ef3 e1be d66f 36bf
00000170: de6e 9cbf fa02 91bf bf77 8ebf 5566 0c3e
00000180: 0750 243e acaf fbbd e244 fdbe 06f2 37bf
00000190: 48f6 983e fe07 6bbe 506f 3d3d f7b6 35be
000001a0: b83c dbbd 31e4 49bf 27db a4bf 8a61 52bf
000001b0: f0e6 93bf 696d adbf b170 163f 48d8 8d3f
000001c0: e2a5 983f af1f 963f ca7b 2c3f d0dd 0ebd
000001d0: b03c a33e ae2f 973e 02c8 df3e f3e5 f2be
000001e0: 548b 163f f03c ea3e f81b 1f3f 3e79 3a3f
000001f0: 6809 e5be 3f29 dd3e 71ee 953e c5af 4d3d
00000200: db2f f9bd c778 a6bd db7e 95bf d136 87bf
00000210: c27e aebf dc26 9dbf edb0 91bf 7937 543f
00000220: 2f88 963f c17d 573f b423 5b3f a7c2 e93e
00000230: c47a 593e 644d 0c3f 13d3 003f f5cb ba3e
00000240: 9d9f d33c 53f6 2a3f 6324 223f 085c 193f
00000250: 0aa1 563f f495 a6be c6e4 e8bd 08ff 35bf
00000260: 3b19 16bf 162a 1bbf ff03 ca3e 322b b03e
00000270: cb92 1bbe 35f7 8bbe c7c7 3fbf 590a 9fbf
00000280: 7c4b ff3f 2d01 d93f f1b0 a23f 84e1 933e
00000290: 5596 d5be f770 6d3d fa03 a6be b601 2dbe
000002a0: ac1b 6ebf 1585 6abf 78b8 143e 0b56 07bd
000002b0: 4e64 8e3e 3173 54be 26ef 23be 6f55 39bd
000002c0: 71dc 21bf 2b44 9dbe 0f57 d7be b24e c5bd
000002d0: 9ecc 8ebe 6992 3cbe ebfe febe 308e 80bf
000002e0: 8fa8 bcbf c0ea 0840 5267 e63f 6ede 963f
000002f0: a46a 2b3f 31fb c2be f1e3 003f 8cdc 20be
00000300: bc3d 82be 56c4 9abe 8864 5fbf c401 733e
00000310: da43 f73d 2b4a 4d3e c150 72bd 99b9 57be
00000320: 3148 9dbf 568a b9bf 0108 56bf a8ae bcbf
00000330: 8b99 65bf 3038 6dbf e265 0ebf a118 50bf
00000340: 0d51 9ebf 6bb0 69bf 773e e93e a041 233f
00000350: 2eeb e83e c5c5 c53e 3c92 c03e 511c ddbd
00000360: 0a7d f83e d9d0 723e 880f 893e e9be e03e
00000370: 63aa 1bbf a370 1fbf a8f0 a3bd 86dc 96be
00000380: 8797 08bd 7444 aebf 4b31 cabf e144 9ebf
00000390: ccba a5bf 5ba6 86bf 87df 7abf 0e93 6ebf
000003a0: c2e5 3abf cc83 adbf 8838 89bf 4c04 b53e
000003b0: 2815 c23e 5939 11bc 7d7e 063f f3d7 703e
000003c0: 6542 fd3e cf7c d03e be0e ac3e d41e f33e
000003d0: 33df 70bd a355 52be f79a f9be 1ae3 42bf
000003e0: d4b5 2ebf fdce 8d3e c62d a53e e7d2 af3e
000003f0: c803 aa3e 451e 1c3e ca53 4b3d 3f2a f8be

conv1.bias f4 [8]
0.88387966 0.15141577 -1.5522718 -0.48728544 0.61377776 1.522363 1.7474743 -1.3604548
00000000: f045 623f bc0c 1b3e d8b0 c6bf 7a7d f9be
00000010: 8a20 1d3f cadc c23f 3dad df3f 6223 aebf

bn1.weight f4 [8]
1.1803532 2.3814504 0.96883667 0.68422365 1.1596615 1.4541919 0.9903806 1.5141144
00000000: d015 973f af69 1840 ae05 783f 4829 2f3f
00000010: ca6f 943f f622 ba3f 9589 7d3f 80ce c13f

bn1.bias f4 [8]
-0.24220411 0.31691036 -0.111605234 0.07037257 -0.009986625 -0.13701579 -0.44975078 -0.097363584
00000000: 5b04 78be 1342 a23e 4991 e4bd 7e1f 903d
00000010: f19e 23bc de4d 0cbe bc45 e6be 8f66 c7bd

bn1.running_mean f4 [8]
1.5404272 2.4996858 0.88226897 1.5596567 6.172913 2.519999 4.691494 8.041532
00000000: b82c c53f dafa 1f40 61dc 613f d5a2 c73f
00000010: 8188 c540 aa47 2140 b820 9640 1daa 0041

bn1.running_var f4 [8]
6.0890346 23.430935 6.9439826 8.407362 35.25069 28.830492 16.268475 250.06425
00000000: 5fd9 c240 8e72 bb41 1b35 de40 8e84 0641
00000010: b500 0d42 d9a4 e641 d625 8241 7310 7a43

conv2.weight f4 [16, 8, 3, 3]
-0.18456423 -0.82917243 -1.3949549 -0.054055065 -0.24625821 -0.56660455 0.21965297 0.7437545
1.5237706 -0.25058696 -0.82918555 -0.6441227 -1.2384944 -0.6570844 -0.13827898 -0.118334755
-0.6088979 -0.8374814 0.84064865 0.88663584 0.5358132 0.99994 0.80819994 0.44363225
0.23405182 0.8403395 0.6936073 -0.2918698 0.06656791 -0.28977752 -0.50586104 0.29748535
0.16131069 -0.62190735 0.46737754 0.58915895 -0.07011037 0.10802649 -0.2555749 0.4174257
0.15369125 -0.43785596 0.40910262 0.18520257 -0.65125114 1.4510278 1.6080729 2.5671742
-0.9984966 -1.0072743 -0.951995 -0.25640088 -0.28029913 0.072936475 0.040181477 -0.25714698
-0.39771447 1.050256 0.7932562 0.3679691 -0.2533727 -0.102262944 -0.026661893 -0.13907062
-0.34830984 0.24165577 0.8390438 0.44723254 1.038493 1.1526332 1.2862947 1.6600857
0.3975797 0.35165203 -0.38403004 -0.052535094 0.56411034 0.8760115 -0.37644008 -1.1406311
-0.51332814 0.3303956 0.2533001 0.08594939 -0.12924278 -0.90083766 -1.0091 1.4285315
0.9161227 0.6138555 0.0968049 -0.30587235 -0.07833078 0.86246955 1.0955769 1.0286961
-0.407529 -0.82911384 -0.78716075 0.09843055 -0.16638096 -0.46080455 0.28412765 -0.19455062
0.4357583 -0.15453425 -0.728141 -0.5980454 -0.12945537 0.50656116 0.4110888 -0.45411232
0.4172356 -0.17725128 0.9887794 1.2999 0.49947995 0.49977213 0.040204577 -0.23131308
0.11516217 -0.30763918 0.037065208 0.38980076 1.0129476 0.88361734 0.18799704 0.6881393
0.038188107 1.3745271 1.8299167 1.2226856 -0.22595139 -0.1268963 -0.48221838 1.0066738
1.0040879 1.2409691 1.2970175 0.8061361 1.9971569 0.46040022 0.24415755 1.223112
-0.60500246 -0.36052424 -0.3213824 1.5724177 0.96730804 0.47979674 0.023384035 0.43873352
0.10793787 -0.16926463 -0.3263451 -0.4734222 -0.3978183 0.116023526 0.08678526 0.9210729
0.591148 0.2619694 -0.12954576 -0.42090404 -0.7005995 0.915103 0.16862802 -0.24642293
-0.89732265 -1.7154751 -1.4448367 -0.85277367 -0.8644578 0.014533343 1.2097323 1.4956189
1.7719554 -0.35707408 -0.5124348 0.43163097 -1.6183419 -1.6158218 -1.4757739 -0.60174227
-0.25444546 -0.512925 -0.65314716 -0.35175177 -0.18034273 -0.21106271 -0.05984314 0.39445817
-0.21441072 -0.6473728 -0.663995 -0.19938256 -0.3731769 -0.59015626 -0.8001181 -1.0709608
-0.72275126 -0.8191789 -0.5345669 -0.18269798 0.6761254 1.0196894 0.6476652 0.11157571
-0.5147721 -1.5829543 0.4548982 -0.70137066 -1.5247682 -0.34331188 -1.4105635 -2.2939785
0.27915618 -0.29282603 -0.99173003 -1.2272127 -1.1870006 -1.2761924 1.3596325 0.972027
0.9581253 -0.3526194 -0.75876385 -0.7408362 1.1290336 1.3529476 1.7083135 0.2901174
-0.080512546 0.2373704 0.17756705 0.3485981 0.16402793 -0.7002431 -1.0399265 -1.2230409
0.034822527 -0.3081046 0.76227486 0.25997105 0.23869684 0.26801127 -1.4574984 -1.5997608
-0.9262208 0.12401523 0.25181538 0.41529945 0.24599192 0.35259962 0.3766963 0.7564332
00000000: 68fe 3cbe a544 54bf e28d b2bf d868 5dbd
00000010: 1d2b 7cbe ff0c 11bf b5ec 603e b266 3e3f
00000020: ea0a c33f ef4c 80be 8145 54bf 3ae5 24bf
00000030: fc86 9ebf af36 28bf 0199 0dbe 7e59 f2bd
00000040: bce0 1bbf 2e65 56bf c034 573f 91fa 623f
00000050: 0e2b 093f 11fc 7f3f 31e6 4e3f c423 e33e
00000060: 48ab 6f3e 7d20 573f 3f90 313f f56f 95be
00000070: c254 883d b85d 94be 1c80 01bf 0050 983e
00000080: a12e 253e 5235 1fbf 1c4c ef3e 1fd3 163f
00000090: 0796 8fbd fe3c dd3d b7da 82be d2b8 d53e
000000a0: 3d61 1d3e a82e e0be e675 d13e bea5 3d3e
000000b0: 65b8 26bf 47bb b93f 55d5 cd3f 954c 2440
000000c0: 799d 7fbf 5dee 80bf f2b5 73bf fa46 83be
000000d0: 5e83 8fbe b85f 953d 5595 243d c5a8 83be
000000e0: 3ba1 cbbe ca6e 863f d712 4b3f 7266 bc3e
000000f0: 11ba 81be 3c6f d1bd 0b6a dabc 8768 0ebe
00000100: ab55 b2be 9c74 773e 93cb 563f aafb e43e
00000110: 57ed 843f 7c89 933f 4ea5 a43f b07d d43f
00000120: 918f cb3e bc0b b43e 969f c4be 0a2f 57bd
00000130: 8969 103f 4a42 603f c1bc c0be 3300 92bf
00000140: 7969 03bf 9d29 a93e 8db0 813e 3c06 b03d
00000150: 3858 04be 4c9d 66bf 302a 81bf 1fda b63f
00000160: 0487 6a3f a225 1d3f a641 c63d 4d9b 9cbe
00000170: e36b a0bd ceca 5c3f dd3b 8c3f 50ac 833f
00000180: a4a7 d0be ce40 54bf 5e83 49bf f595 c93d
00000190: c55f 2abe 93ee ebbe 2e79 913e 4738 47be
000001a0: b61b df3e 3a3e 1ebe 7367 3abf 8119 19bf
000001b0: f38f 04be fead 013f 3b7a d23e 6981 e8be
000001c0: e89f d53e 5c81 35be a620 7d3f 2063 a63f
000001d0: d6bb ff3e 22e2 ff3e 8ead 243d 56dd 6cbe
000001e0: 25da eb3d e282 9dbe b0d1 173d f793 c73e
000001f0: 44a8 813f bf34 623f 4c82 403e e629 303f
00000200: 226b 1c3d 81f0 af3f b63a ea3f f680 9c3f
00000210: cd5f 67be 1bf1 01be 54e5 f6be b0da 803f
00000220: f485 803f 13d8 9e3f ab04 a63f ef5e 4e3f
00000230: d6a2 ff3f 94b9 eb3e 7004 7a3e ef8e 9c3f
00000240: 71e1 1abf a296 b8be 3c8c a4be fc44 c93f
00000250: 80a1 773f eba7 f53e e08f bf3c aea1 e03e
00000260: 880e dd3d b553 2dbe b416 a7be 6564 f2be
00000270: d7ae cbbe be9d ed3d 78bc b13d 6fcb 6b3f
00000280: 7a55 173f da20 863e a5a7 04be bc80 d7be
00000290: 7d5a 33bf 3144 6a3f d3ac 2c3e 4b56 7cbe
000002a0: f0b6 65bf b094 dbbf 69f0 b8bf 604f 5abf
000002b0: 1b4d 5dbf 421d 6e3c 82d8 9a3f 7170 bf3f
000002c0: 6fcf e23f 6ad2 b6be ed2e 03bf bcfe dc3e
000002d0: d425 cfbf 40d3 cebf 29e6 bcbf c80b 1abf
000002e0: ad46 82be 0e4f 03bf a734 27bf cf18 b4be
000002f0: c4ab 38be d320 58be 151e 75bd 6cf6 c93e
00000300: 7c8e 5bbe 39ba 25bf 94fb 29bf f12a 4cbe
00000310: 0b11 bfbe 7b14 17bf 8ad4 4cbf 3e15 89bf
00000320: 3a06 39bf b5b5 51bf 60d9 08bf 2e15 3bbe
00000330: 8e16 2d3f 2f85 823f 63cd 253f ce81 e43d
00000340: 1bc8 03bf 3f9e cabf 6be8 e83e 078d 33bf
00000350: 9b2b c3bf 93c6 afbe 588d b4bf 8bd0 12c0
00000360: 8fed 8e3e 4bed 95be 05e2 7dbf 4e15 9dbf
00000370: a3ef 97bf 465a a3bf 7008 ae3f c3d6 783f
00000380: b347 753f 888a b4be 593e 42bf 71a7 3dbf
00000390: 2c84 903f 632d ad3f 04aa da3f 458a 943e
000003a0: c3e3 a4bd 3a11 733e 23d4 353e 737b b23e
000003b0: f0f6 273e 2243 33bf 501c 85bf 9b8c 9cbf
000003c0: 11a2 0e3d e3bf 9dbe 7224 433f ed1a 853e
000003d0: f26c 743e c638 893e 4f8f babf f6c4 ccbf
000003e0: ce1c 6dbf b2fb fd3d f2ed 803e 21a2 d43e
000003f0: 4ee5 7b3e f087 b43e 56de c03e 9ba5 413f

conv2.bias f4 [16]
-1.8748798 -1.9944518 -0.642138 -1.4950433 -1.1276709 1.0610427 0.23262696 0.26013923
-0.509266 -1.0837183 -0.35500768 0.34088787 -1.7597067 -0.5962948 -1.0336819 -0.043552388
00000000: 10fc efbf 324a ffbf 2863 24bf 945d bfbf
00000010: 8557 90bf 3fd0 873f c335 6e3e f830 853e
00000020: 425f 02bf 48b7 8abf 91c3 b5be db88 ae3e
00000030: 123e e1bf c7a6 18bf b04f 84bf fd63 32bd

bn2.weight f4 [16]
1.4782739 2.0487409 1.2116383 1.2292548 1.0843527 1.3810103 1.4878595 1.978962
1.2902813 1.2066135 1.7906251 1.3481157 0.9554219 0.49215263 0.99339235 1.0401887
00000000: 1438 bd3f 921e 0340 f716 9b3f 3958 9d3f
00000010: 12cc 8a3f f2c4 b03f 2e72 be3f a04e fd3f
00000020: f027 a53f 5072 9a3f 3433 e53f 0e8f ac3f
00000030: 8896 743f 6efb fb3e f64e 7e3f e724 853f

bn2.bias f4 [16]
0.2663935 0.12014887 -0.3540108 0.7608873 0.23367003 -0.33580193 0.8111091 0.5201827
-0.4377466 0.40164065 0.8957688 -0.08538994 0.33113796 0.3357859 0.35296133 0.40680227
00000000: bb64 883e 9c10 f63d e740 b5be 83c9 423f
00000010: 3247 6f3e 3bee abbe d9a4 4f3f b22a 053f
00000020: 5320 e0be d8a3 cd3e 1b51 653f ece0 aebd
00000030: ea8a a93e 21ec ab3e 59b7 b43e 6348 d03e

bn2.running_mean f4 [16]
1.607653 3.3003783 5.9736147 3.19806 3.692827 7.2076087 5.976688 5.526761
9.858594 5.390303 6.1706905 7.4867344 2.0595615 5.838673 3.920832 1.8432907
00000000: 93c7 cd3f 6639 5340 da27 bf40 04ad 4c40
00000010: 4757 6c40 bba4 e640 0741 bf40 3adb b040
00000020: cdbc 1d41 5d7d ac40 4c76 c540 5493 ef40
00000030: dbcf 0340 69d6 ba40 e9ee 7a40 f3f0 eb3f

bn2.running_var f4 [16]
37.74434 81.564 70.39801 64.17676 36.683453 82.818794 53.896564 91.2018
54.876724 45.98023 121.73408 82.322975 23.773638 59.437546 106.01557 24.398642
00000000: 34fa 1642 c520 a342 c8cb 8c42 805a 8042
00000010: dbbb 1242 39a3 a542 1596 5742 5267 b642
00000020: c481 5b42 c1eb 3742 d977 f342 5da5 a442
00000030: 6930 be41 0cc0 6d42 f907 d442 6b30 c341

conv3.weight f4 [32, 16, 3, 3]
0.87023735 0.9188951 0.9398684 0.10090561 0.18813023 0.13647802 -0.5613232 -1.0654827
-0.40338963 0.74200624 0.6944578 0.43777996 -0.54068136 -0.85196006 -1.2685176 0.7402575
1.6111728 1.2279238 -0.36440945 -0.08843717 -0.105262615 -0.60464376 -1.230662 -1.7748264
1.4426793 1.3623215 0.5553615 0.70799863 0.9519563 0.60263526 -0.10256811 0.6670116
0.5301258 -1.5689815 -1.6130925 -1.8975068 0.18266083 0.035114665 -0.2892744 0.18021268
0.7608148 0.70950997 0.5274128 0.7046575 0.4099501 0.25912765 0.31339705 -0.28321004
-0.18435252 0.04558701 0.3816251 -0.9258263 -1.0970831 -0.4902117 -1.2351882 -0.69827086
-0.98528075 -0.00781667 -0.18795833 -0.19718665 -0.50460374 -1.0566725 0.31763878 0.6775158
1.117412 0.89178437 0.4250617 0.59624493 0.76747686 0.9387877 0.04038051 -0.5075615
-0.18408789 -0.16697004 -0.6681563 0.35960877 0.6345396 0.4161112 0.2886574 0.8326545
1.1753033 -0.5898926 -0.5578209 -1.1156992 -1.4049248 -0.9462123 -0.45702428 0.6859182
0.54377323 0.18951005 0.14906517 0.25535402 0.4207509 -0.09678611 -0.43783683 -0.37217623
-0.4674897 -0.70314115 -1.0502974 -0.68161464 0.047358565 0.6403471 0.6353997 1.2095587
1.1280854 -0.9023424 -1.2511066 -1.1853757 0.1756165 -0.14594781 -0.41661033 0.3651724
-0.005268311 0.6555948 0.12026672 0.5818758 0.6677131 0.040305246 -0.16233394 -0.09521135
-0.77805454 -0.79169875 -1.2874855 0.1184353 -0.28399906 -0.17041217 0.669041 0.42475626
0.20269302 -0.20825678 -0.4133387 -1.5269505 0.98667914 0.836144 0.9916004 0.59101135
0.9212689 0.67186606 -0.73628855 -0.56997895 -1.0852408 0.9666488 1.0050416 1.219516
-0.46689 -0.2633616 0.48496842 1.313174 1.4278843 0.7326051 0.32352307 0.47632638
0.4751525 -0.64267814 -0.7324755 0.009687331 -0.24784805 -0.9140776 -1.9241676 0.54360235
0.023761904 0.1491765 -0.17407803 -0.6375173 -1.3329654 -0.10525638 0.36165512 0.029165633
0.29485685 -0.76012766 -1.0374253 0.3367444 0.5353034 0.8375182 -0.9058461 -0.22550191
0.19791971 0.24984255 0.6286998 -0.35253984 0.5032927 0.5519705 0.55234706 0.639796
0.8059337 0.9962952 -1.049383 -0.7337669 -0.4790035 -0.011699422 0.36764944 1.0009586
1.2376822 1.713528 1.2745992 0.76740974 0.86945647 0.592537 -1.7276733 -2.4146664
-1.2487482 0.65534204 0.4706811 0.25160542 0.967524 1.3926718 1.2926688 1.0658641
1.1584878 0.91249007 -0.1291804 -0.6419123 -0.3398968 -0.3478727 -0.045464702 0.15377624
0.67985994 0.8218266 0.47936186 1.0927712 0.34541178 -0.37832776 0.86903244 0.08478623
-0.93740016 -0.09159773 0.18266371 -0.030232035 -0.18118192 -0.06453155 0.19490273 -0.36473414
0.053732943 -0.018804165 -0.4663875 -0.14275393 0.14281076 -2.2267308 -2.277119 -0.72609776
-0.5837474 -1.6049166 -1.6012894 -0.002229398 0.6103776 0.19485158 -0.2381137 -0.18241572
-0.5386247 0.3077367 0.12494223 0.6562997 -1.1887208 -0.47361577 -0.45639706 -0.7806188
00000000: e0c7 5e3f b63c 6b3f 379b 703f 9aa7 ce3d
00000010: 36a5 403e e5c0 0b3e e1b2 0fbf bd61 88bf
00000020: 1689 cebe 1ff4 3d3f fdc7 313f b224 e03e
00000030: 186a 0abf 0e1a 5abf c95e a2bf 8481 3d3f
00000040: e93a ce3f 9b2c 9d3f e093 babe 8c1e b5bd
00000050: ed93 d7bd efc9 1abf 5586 9dbf 832d e3bf
00000060: b7a9 b83f 8d60 ae3f 2c2c 0e3f 663f 353f
00000070: 68b3 733f 4e46 1a3f 3b0f d2bd 46c1 2a3f
00000080: 53b6 073f 63d4 c8bf d179 cebf 81e1 f2bf
00000090: 710b 3b3e 65d4 0f3d c61b 94be ac89 383e
000000a0: c2c4 423f 72a2 353f 8604 073f 6f64 343f
000000b0: fbe4 d13e 61ac 843e 9475 a03e e800 91be
000000c0: e8c6 3cbe 72b9 3a3d 5d64 c33e f402 6dbf
000000d0: 386d 8cbf 07fd fabe a61a 9ebf e1c1 32bf
000000e0: 5c3b 7cbf 7e11 00bc 2678 40be 4ceb 49be
000000f0: b62d 01bf 0b41 87bf 8da1 a23e ad71 2d3f
00000100: 5b07 8f3f fb4b 643f b0a1 d93e 82a3 183f
00000110: 5d79 443f 6454 703f 0966 253d 8def 01bf
00000120: 8981 3cbe 32fa 2abe 4b0c 2bbf a41e b83e
00000130: 3071 223f 870c d53e e7ca 933e d828 553f
00000140: 5770 963f 3403 17bf 5acd 0ebf 3bcf 8ebf
00000150: 93d4 b3bf f83a 72bf 16ff e9be 5698 2f3f
00000160: b934 0b3f ec0e 423e 8aa4 183e c3bd 823e
00000170: a96c d73e cc37 c6bd 262c e0be e28d bebe
00000180: cf5a efbe 0f01 34bf 2570 86bf 4c7e 2ebf
00000190: 0efb 413d caed 233f 8ea9 223f d2d2 9a3f
000001a0: 1a65 903f e9ff 66bf 4324 a0bf 64ba 97bf
000001b0: d0d4 333e 5873 15be f34d d5be e0f7 ba3e
000001c0: cca1 acbb 10d5 273f 664e f63d d0f5 143f
000001d0: 3fef 2a3f 1d17 253d de3a 26be 2bfe c2bd
000001e0: 952e 47bf c5ac 4abf 53cc a4bf 358e f23d
000001f0: 5368 91be 8780 2ebe 4546 2b3f a779 d93e
00000200: c28e 4f3e 4441 55be 21a1 d3be 1d73 c3bf
00000210: 0197 7c3f 880d 563f 86d9 7d3f 854c 173f
00000220: 47d8 6b3f 6aff 2b3f 687d 3cbf 24ea 11bf
00000230: 2ce9 8abf 4c76 773f 34a5 803f 1a19 9c3f
00000240: 350c efbe 55d7 86be c84d f83e 1616 a83f
00000250: eac4 b63f 028c 3b3f d1a4 a53e 0de1 f33e
00000260: 3047 f33e 8e86 24bf 8483 3bbf 9cb7 1e3c
00000270: e1cb 7dbe fd00 6abf 204b f6bf 8629 0b3f
00000280: 53a8 c23c b9c1 183e 8341 32be 5534 23bf
00000290: 9c9e aabf a890 d7bd dc2a b93e c4ec ee3c
000002a0: 7af7 963e ba97 42bf 5aca 84bf c369 ac3e
000002b0: a509 093f 9867 563f 88e5 67bf f9e9 66be
000002c0: 77ab 4a3e bad6 7f3e 78f2 203f 1a80 b4be
000002d0: cad7 003f f04d 0d3f 9e66 0d3f acc9 233f
000002e0: ac51 4e3f 340d 7f3f 2f52 86bf 26d8 3bbf
000002f0: f23f f5be efae 3fbc 8c3c bc3e 691f 803f
00000300: 5f6c 9e3f e354 db3f 1126 a33f f774 443f
00000310: b394 5e3f 81b0 173f 6624 ddbf e589 1ac0
00000320: fbd6 9fbf 7fc4 273f 1dfd f03e 6dd2 803e
00000330: a7af 773f 1243 b23f 2c76 a53f 3c6e 883f
00000340: 5449 943f f398 693f de47 04be 5d54 24bf
00000350: f406 aebe 5f1c b2be 3239 3abd 8577 1d3e
00000360: 4d0b 2e3f 3a63 523f eb6e f53e eddf 8b3f
00000370: d0d9 b03e 2db4 c1be e978 5e3f 67a4 ad3d
00000380: 75f9 6fbf 9797 bbbd 320c 3b3e 2ca9 f7bc
00000390: c187 39be 1e29 84bd 9594 473e 6fbe babe
000003a0: 1317 5c3d 310b 9abc 58ca eebe 162e 12be
000003b0: fc3c 123e c282 0ec0 51bc 11c0 8be1 39bf
000003c0: 7870 15bf e86d cdbf 0df7 ccbf 171b 12bb
000003d0: b541 1c3f 2c87 473e 14d4 73be 30cb 3abe
000003e0: 4fe3 09bf aa8f 9d3e b6e1 ff3d 4203 283f
000003f0: 0128 98bf c47d f2be e0ac e9be a2d6 47bf

conv3.bias f4 [32]
-1.8205975 -2.6822968 -1.154876 0.13825218 -1.0548096 0.3430273 -0.8199119 -1.356537
-1.0783088 -0.8619442 -0.65901375 -0.72773683 -1.0873594 -0.88019925 -0.5937204 0.28015906
-1.3659776 -0.8580061 -0.0955289 -1.8367512 -0.62962085 -1.9328254 -1.7805198 -0.67021775
-1.8810371 -1.8205166 0.4641964 0.013458909 -0.757343 -0.46316054 -0.23123787 0.36534014
00000000: 5709 e9bf c0aa 2bc0 fad2 93bf fb91 0d3e
00000010: 0004 87bf 46a1 af3e bfe5 51bf 01a3 adbf
00000020: 0606 8abf 60a8 5cbf 20b5 28bf f64c 3abf
00000030: 982e 8bbf bd54 61bf 0ffe 17bf 0271 8f3e
00000040: 5bd8 aebf 4aa6 5bbf a8a4 c3bd aa1a ebbf
00000050: d52e 21bf d366 f7bf 13e8 e3bf 6493 2bbf
00000060: d3c5 f0bf b006 e9bf 27ab ed3e c182 5c3c
00000070: 3be1 41bf 6123 edbe 9fc9 6cbe dd0d bb3e

bn3.weight f4 [32]
1.7542508 1.3429347 1.734753 1.4383005 1.2374599 1.1624027 1.1383839 0.897999
1.4475001 1.5090882 1.8598487 1.4883825 1.4851207 1.3568025 1.2534231 1.3339523
0.8724879 1.1162975 1.0870786 1.8761246 1.868057 1.5968028 1.2689122 1.2426901
1.1446562 1.3134164 1.5463018 1.4568467 1.2347007 1.3931857 0.97334313 1.7988683
00000000: 4a8b e03f 49e5 ab3f 630c de3f 3b1a b83f
00000010: 1665 9e3f 9dc9 943f 90b6 913f 43e3 653f
00000020: af47 b93f cd29 c13f 860f ee3f 5183 be3f
00000030: 6f18 be3f b4ab ad3f 2b70 a03f f3be aa3f
00000040: 5e5b 5f3f d6e2 8e3f 6425 8b3f da24 f03f
00000050: 7e1c ef3f 0964 cc3f b76b a23f 7810 9f3f
00000060: 1884 923f 071e a83f 38ed c53f f479 ba3f
00000070: ac0a 9e3f e953 b23f 042d 793f 5141 e63f

bn3.bias f4 [32]
0.3572086 0.2766876 0.5516978 0.42930403 0.42417958 0.8276849 0.5538362 -0.29587287
0.04817094 0.4939041 0.86570144 0.72535807 0.45242447 0.5213184 0.53100705 -0.11603687
-0.6777816 -0.05160029 0.44772986 0.5858265 0.593903 -0.20025137 0.58816016 0.2366845
0.08795145 0.23621763 0.43807796 1.011367 0.52045953 0.28851855 -0.38796 0.7617423
00000000: 0ce4 b63e ffa9 8d3e 113c 0d3f bdcd db3e
00000010: 112e d93e 28e3 533f 36c8 0d3f a67c 97be
00000020: e44e 453d 00e1 fc3e 9c9e 5d3f 11b1 393f
00000030: 2ea4 e73e 1f75 053f 14f0 073f bda4 edbd
00000040: 1883 2dbf d35a 53bd d93c e53e baf8 153f
00000050: 070a 183f b20e 4dbe aa91 163f 6c5d 723e
00000060: e41f b43d 09e3 713e c14b e03e 7974 813f
00000070: d63c 053f b4b8 933e b1a2 c6be 8b01 433f

bn3.running_mean f4 [32]
4.558649 1.9038705 2.4008574 5.928436 1.4657938 8.868063 2.6173444 2.1500616
2.0111206 5.0458903 8.404968 5.458347 1.540989 5.449399 1.8141624 2.8673737
2.5062137 0.7819583 4.8483076 4.9433336 3.135781 1.1146872 2.6045134 4.5022593
1.188144 1.6065584 3.2103324 3.867753 2.008814 2.3414817 2.4765418 3.698362
00000000: 74e0 9140 07b2 f33f a6a7 1940 bfb5 bd40
00000010: 229f bb3f 96e3 0d41 9282 2740 9c9a 0940
00000020: 33b6 0040 ef77 a140 c07a 0641 c7aa ae40
00000030: 213f c53f 7a61 ae40 7936 e83f 0d83 3740
00000040: ce65 2040 6b2e 483f 5625 9b40 ca2f 9e40
00000050: a3b0 4840 12ae 8e3f 59b0 2640 8212 9040
00000060: 1a15 983f b5a3 cd3f 1676 4d40 4489 7740
00000070: 6990 0040 d6da 1540 a97f 1e40 f7b1 6c40

bn3.running_var f4 [32]
130.50658 38.062885 45.292843 68.40964 47.520016 229.14934 39.55497 42.519108
41.44447 110.94283 235.43643 83.71409 17.445852 124.16999 23.049349 42.505283
55.605278 14.116536 58.681522 201.37018 61.994946 22.17471 74.94988 83.97676
20.161095 26.264164 53.486084 65.88297 38.98321 46.985832 48.439316 65.97581
00000000: af81 0243 6540 1842 df2b 3542 bcd1 8842
00000010: 7f14 3e42 3b26 6543 4a38 1e42 9113 2a42
00000020: 23c7 2542 bbe2 dd42 ba6f 6b43 9d6d a742
00000030: 1b91 8b41 0957 f842 1165 b841 6905 2a42
00000040: ce6b 5e42 55dd 6141 e1b9 6a42 c45e 4943
00000050: d3fa 7742 ce65 b141 57e6 9542 1af4 a742
00000060: ec49 a141 021d d241 c0f1 5542 15c4 8342
00000070: cfee 1b42 7ef1 3b42 dcc1 4142 9df3 8342

conv4.weight f4 [64, 32, 3, 3]
0.82701105 0.12138949 -0.20542493 -0.9296699 -1.4299176 -1.0374132 0.13756523 0.42778835
-0.81281716 0.2162393 0.5679694 0.3380749 0.12622073 0.25271493 -0.042187396 -0.52514213
-0.81181157 -2.6582935 -0.025660476 -0.12257275 -0.17387716 -0.13604364 0.48349392 0.8436036
-1.0680755 -2.6219976 -1.0424778 -0.17165914 0.7335188 1.1171023 0.20935568 0.7019165
1.3444073 -0.52810514 0.32582644 0.25649402 0.9399924 0.45457503 -0.024173187 -0.07516106
0.90336084 -0.301692 -1.0876819 1.0850182 0.4758902 0.34568048 -0.59187174 -1.4784712
-1.2986088 -0.87994903 -1.0376172 -0.19339888 0.19735935 -0.28334838 -1.5792893 -0.84505033
-0.3742735 -0.47514755 0.3603382 -0.3606751 0.6782412 -0.7640582 -1.3405228 0.025684366
1.1038473 1.4319135 0.9059655 0.43749958 0.9915102 -0.0048885895 0.15074617 -0.7472075
0.3253846 -0.058821153 -0.03700729 -0.3938678 -0.20785065 -1.1330297 -0.2810593 0.4058336
-0.9831748 0.18808888 0.31803194 1.0371462 -0.21633044 0.37479585 -0.6540101 -2.817583
-1.9148897 -1.5130719 0.5613731 1.2991908 1.6558233 -0.992977 0.092959344 0.06429742
-0.7830346 -1.4834502 -0.6418839 -0.21770084 -1.2388315 -1.0304282 -1.916445 -1.4705993
-0.32448015 0.8924942 1.090818 0.84326947 -0.54857475 -0.57002133 -0.79002076 -1.1254176
-0.7514735 -0.24247716 0.6371064 0.52628314 1.0573845 0.24619639 0.064351894 0.8127941
0.5747007 0.07613385 -0.8423891 -0.6761365 -0.40651625 0.24245179 -0.3347801 -0.30957663
-0.33813846 -1.2616602 -0.5069544 0.6803225 -0.021818953 -0.9855663 -0.51991993 -0.1262295
0.55775136 0.4113386 -0.21398363 -0.03702524 0.76474863 0.81334627 -0.17480938 -0.28324696
0.15598603 0.27923954 0.45695305 0.4847529 0.34837735 0.3627022 2.13473 1.6485264
-0.27133766 0.019143285 -0.60760057 0.47834972 -0.3654797 0.4621491 0.9019835 0.14095563
0.27525222 -1.1453826 -0.23307177 -0.33831936 -0.9954217 0.34158176 0.12338996 0.70618814
0.4960722 -0.48385626 -0.4743294 -1.5105689 -0.13978983 -0.93384004 -0.026555654 -0.7281506
-1.3987132 -0.53066057 -0.6366838 -0.91804767 -0.019984797 0.092084974 0.14917403 0.69418496
0.23087788 -0.2554884 -0.24694891 -1.8350979 -1.8676754 0.75736225 1.1253291 -0.053481713
0.41699854 0.29908678 -0.09781698 -0.6532648 0.18965556 0.48055774 -0.58783084 -0.2442344
-0.2520358 0.8666771 0.7742776 0.18166591 -1.2735559 -1.5949981 -1.5797049 0.007491346
-0.15576582 -0.73802483 -0.0030282107 0.31190863 0.3985467 1.2907935 0.7902676 -0.0364456
0.3286504 0.5521529 -0.65293235 -0.32585388 -0.39121673 0.2230027 0.9372486 0.5854565
0.22915463 -0.35644376 -0.69529855 -0.38861328 -0.022360392 -0.706457 -0.85040045 0.9336304
0.4247924 0.5503683 -0.16085397 0.22737893 -0.08840457 0.3310922 -0.81156653 -0.3863811
-0.36937192 -1.7918266 -0.6534731 -0.5787349 -0.24013144 -0.2410685 -0.5391445 -1.4139555
-1.6988127 -0.9068026 -2.1056573 -1.7822365 0.35126197 0.046449933 0.11424182 0.12899409
00000000: ffb6 533f 0e9b f83d ea5a 52be d9fe 6dbf
00000010: 8a07 b7bf f5c9 84bf e6dd 0c3e 1307 db3e
00000020: c914 50bf d66d 5d3e 7166 113f 2718 ad3e
00000030: 0240 013e da63 813e b1cc 2cbd b76f 06bf
00000040: e2d2 4fbf 7b21 2ac0 eb35 d2bc 6c07 fbbd
00000050: db0c 32be 064f 0bbe 848c f73e 68f6 573f
00000060: b3b6 88bf cfce 27c0 ea6f 85bf 6ac7 2fbe
00000070: e3c7 3b3f 35fd 8e3f 5661 563e cdb0 333f
00000080: 8a15 ac3f e631 07bf b9d2 a63e 2f53 833e
00000090: 58a3 703f 0fbe e83e d906 c6bc 0bee 99bd
000000a0: a842 673f 6077 9abe 2939 8bbf e0e1 8a3f
000000b0: e1a7 f33e 08fd b03e e884 17bf 8b3e bdbf
000000c0: d038 a6bf 5744 61bf a4d0 84bf 5b0a 46be
000000d0: 9218 4a3e 0a13 91be 2726 cabf 3855 58bf
000000e0: c7a0 bfbe 8a46 f3be 407e b83e 68aa b8be
000000f0: 37a1 2d3f 5199 43bf 4096 abbf 0568 d23c
00000100: de4a 8d3f f148 b73f 5bed 673f f2ff df3e
00000110: 9dd3 7d3f 7630 a0bb 345d 1a3e fe48 3fbf
00000120: cf98 a63e 73ee 70bd f594 17bd 0aa9 c9be
00000130: cdd6 54be 1e07 91bf 01e7 8fbe 6cc9 cf3e
00000140: 58b1 7bbf 5f9a 403e 15d5 a23e 35c1 843f
00000150: ba85 5dbe 3ee5 bf3e 356d 27bf 4853 34c0
00000160: 1b1b f5bf 57ac c1bf 26b6 0f3f e24b a63f
00000170: 05f2 d33f be33 7ebf 7861 be3d 5eae 833d
00000180: f574 48bf b2e1 bdbf 8152 24bf f8ec 5ebe
00000190: 0892 9ebf 12e5 83bf 124e f5bf 993c bcbf
000001a0: 4322 a6be 807a 643f ed9f 8b3f 82e0 573f
000001b0: 656f 0cbf ebec 11bf cd3e 4abf af0d 90bf
000001c0: 9160 40bf ef4b 78be 6819 233f 7eba 063f
000001d0: 6058 873f e81a 7c3e edca 833d 4613 503f
000001e0: 961f 133f 10ec 9b3d d0a6 57bf 4817 2dbf
000001f0: e622 d0be 4845 783e 4c68 abbe d480 9ebe
00000200: 7c20 adbe 157e a1bf c3c7 01bf 9e29 2e3f
00000210: a9bd b2bc 134e 7cbf 7919 05bf 4e42 01be
00000220: cbc8 0e3f f99a d23e 861e 5bbe c7a7 17bd
00000230: 91c6 433f 7637 503f 3b01 33be bf05 91be
00000240: cdba 1f3e 7cf8 8e3e c0f5 e93e 8831 f83e
00000250: 845e b23e 1ab4 b93e 6b9f 0840 ea02 d33f
00000260: c5ec 8abe 61d2 9c3c b68b 1bbf 41ea f43e
00000270: 2820 bbbe cf9e ec3e 64e8 663f ac56 103e
00000280: dced 8c3e e69b 92bf 5eaa 6ebe 3238 adbe
00000290: f5d3 7ebf cee3 ae3e e0b3 fc3d bfc8 343f
000002a0: 2dfd fd3e 02bc f7be 4edb f2be 525a c1bf
000002b0: 1125 0fbe 2410 6fbf 3e8b d9bc 1468 3abf
000002c0: 0909 b3bf 5fd9 07bf b6fd 22bf 2c05 6bbf
000002d0: 28b7 a3bc 0c97 bc3d 14c1 183e 1bb6 313f
000002e0: 406b 6c3e 60cf 82be 2de0 7cbe 7de4 eabf
000002f0: fd0f efbf 7ee2 413f c90a 903f a40f 5bbd
00000300: d580 d53e e721 993e 4554 c8bd 5d3c 27bf
00000310: 1135 423e aa0b f63e 157c 16bf 9518 7abe
00000320: d60a 81be 8dde 5d3f 0f37 463f a106 3a3e
00000330: e103 a3bf e628 ccbf c533 cabf f779 f53b
00000340: 1381 1fbe 32ef 3cbf f274 46bb 7db2 9f3e
00000350: 500e cc3e b938 a53f fa4e 4a3f fb47 15bd
00000360: dd44 a83e e459 0d3f 9326 27bf 52d6 a6be
00000370: 8f4d c8be d25a 643e 86ef 6f3f 7ae0 153f
00000380: 83a7 6a3e cc7f b6be 16ff 31bf 52f8 c6be
00000390: 242d b7bc 5eda 34bf d8b3 59bf 6702 6f3f
000003a0: 647e d93e f0e4 0c3f e7b6 24be 06d6 683e
000003b0: 750d b5bd eb84 a93e d3c2 4fbf bed3 c5be
000003c0: 511e bdbe 935a e5bf 034a 27bf f827 14bf
000003d0: 04e5 75be a9da 76be 6005 0abf 7efc b4bf
000003e0: b272 d9bf 3724 68bf 17c3 06c0 5320 e4bf
000003f0: 9cd8 b33e 4942 3e3d 9ef7 e93d 0717 043e

conv4.bias f4 [64]
-2.3015974 -0.84123486 -2.3025167 -0.55084306 -0.87917316 -0.15544523 -0.9871909 -0.99427384
-2.2407577 -1.1257437 0.32610926 -1.8489821 -0.3688989 -0.018815879 -0.27382573 -0.6930772
-0.87921995 -0.9723255 0.40038526 -0.40891695 -0.32128546 0.16417821 0.31954622 -0.43139407
-1.56835 0.01599877 0.27799392 -1.9722282 -1.0424271 -0.8431117 -1.925945 -0.5483277
-0.5621543 -1.3777934 -1.5678713 -1.2396721 -1.4802537 -0.8005821 -1.0355313 -0.82619715
-1.3069016 -1.1152898 0.08468936 -0.6845177 -1.0128652 -0.04588519 -1.1176828 -0.9463633
-1.9525825 -1.5620426 -0.29109743 -1.3209649 -1.222513 -0.761808 -1.2424852 -0.14089513
-0.61427677 -0.0013935105 0.15669474 -0.37743276 -0.7353005 0.11337807 -0.795858 -0.8056295
00000000: 5f4d 13c0 2b5b 57bf 6f5c 13c0 0d04 0dbf
00000010: 7e11 61bf 092d 1fbe 8bb8 7cbf bb88 7ebf
00000020: 9368 0fc0 5f18 90bf cbf7 a63e 72ab ecbf
00000030: 51e0 bcbe c223 9abc e332 8cbe 826d 31bf
00000040: 8f14 61bf 53ea 78bf 4cff cc3e 905d d1be
00000050: 877f a4be 551e 283e 909b a33e afdf dcbe
00000060: b1bf c8bf da0f 833c 3855 8e3e f971 fcbf
00000070: 406e 85bf 2bd6 57bf 5e85 f6bf 345f 0cbf
00000080: 58e9 0fbf 895b b0bf 02b0 c8bf 93ad 9ebf
00000090: f478 bdbf f3f2 4cbf 4a8c 84bf a881 53bf
000000a0: 8d48 a7bf d1c1 8ebf 9d71 ad3d 8d3c 2fbf
000000b0: 91a5 81bf 1cf2 3bbd 3b10 8fbf dd44 72bf
000000c0: 39ee f9bf 03f1 c7bf b90a 95be 6115 a9bf
000000d0: 4e7b 9cbf d905 43bf c109 9fbf d046 10be
000000e0: 3e41 1dbf 74a6 b6ba 9674 203e de3e c1be
000000f0: a73c 3cbf c332 e83d 5abd 4bbf bc3d 4ebf

bn4.weight f4 [64]
4.5654864 5.0930834 4.0330706 4.1828175 4.1534038 3.3606327 4.124378 5.04589
4.1986 3.532014 3.5085058 4.2952075 4.3943315 3.1114488 3.840076 5.2147965
4.5051293 2.9059513 2.3976653 3.0202937 4.662438 4.2911296 2.4194188 5.0448785
4.5422 3.1241658 4.0442824 3.785553 3.779819 4.2518296 4.305822 3.682118
3.6242423 3.6077013 4.5519314 4.0074315 4.4805675 5.187744 3.8096545 4.4236374
4.638039 3.827165 3.990065 3.449271 3.860987 5.3285937 3.5986807 4.419528
4.0009646 4.022001 4.7617335 5.333973 3.5134785 4.7871614 3.4478695 4.69721
4.3608494 3.2871916 3.356302 2.9608822 3.7278855 5.0977497 4.4949 3.8253133
00000000: 7718 9240 8afa a240 ea0e 8140 a4d9 8540
00000010: afe8 8440 9b14 5740 e8fa 8340 ee77 a140
00000020: ee5a 8640 840c 6240 5c8b 6040 5772 8940
00000030: 5d9e 8c40 fa21 4740 cec3 7540 9ddf a640
00000040: 052a 9040 1bfb 3940 5973 1940 7e4c 4140
00000050: b132 9540 ef50 8940 c2d7 1a40 a56f a140
00000060: b459 9140 55f2 4740 c36a 8140 8046 7240
00000070: 8ee8 7140 fd0e 8840 4bc9 8940 d2a7 6b40
00000080: 96f3 6740 94e4 6640 6ca9 9140 e13c 8040
00000090: cf60 8f40 0002 a640 61d1 7340 708e 8d40
000000a0: d16a 9440 45f0 7440 3a5d 7f40 dbc0 5c40
000000b0: 691a 7740 d783 aa40 c950 6640 c66c 8d40
000000c0: e707 8040 3bb4 8040 1f60 9840 e8af aa40
000000d0: d5dc 6040 6d30 9940 e5a9 5c40 8b4f 9640
000000e0: 148c 8b40 5961 5240 a7cd 5640 187f 3d40
000000f0: ad95 6e40 c420 a340 39d6 8f40 efd1 7440

bn4.bias f4 [64]
-0.10945953 0.13476773 0.019913582 0.2025177 0.24217 -0.014109288 0.017557992 -0.055921625
0.07928173 -0.05872418 -0.14258614 0.05779221 0.10388573 0.21859112 -0.043829262 0.1615771
2.8203533e-06 -0.026980367 -0.064919464 0.27134278 -0.13547374 -0.10816414 -0.08472354 0.15290003
-0.08174014 0.12667143 0.08597663 0.034842484 0.32462612 0.10533682 0.1493189 0.07475742
-0.11390982 0.057497036 0.1300316 -0.002325821 -0.019367289 0.14440913 -0.15314703 0.24298222
0.10966798 0.05963541 -0.15072662 -0.04725345 -0.026524073 0.057921458 0.06991852 -0.07947582
0.03703796 0.13069919 0.2472723 0.06370983 0.11248333 -0.11028356 0.19936515 0.28735423
-0.052006423 0.22097476 0.015234645 0.21412496 0.039168525 0.08060438 -0.031755704 0.17136341
00000000: 512c e0bd 8d00 0a3e cf21 a33c cd60 4f3e
00000010: 6afb 773e a52a 67bc c7d5 8f3c 130e 65bd
00000020: 765e a23d c488 70bd 1a02 12be 86b7 6c3d
00000030: 0bc2 d43d 5ad6 5f3e 5086 33bd 7874 253e
00000040: 4d45 3d36 ee05 ddbc 7ff4 84bd 71ed 8a3e
00000050: a1b9 0abe 2985 ddbd 8983 adbd d391 1c3e
00000060: 6067 a7bd 28b6 013e 8414 b03d feb6 0e3d
00000070: 6535 a63e d5ba d73d 0ee7 183e 6b1a 993d
00000080: 8d49 e9bd 0382 6b3d 0127 053e cd6c 18bb
00000090: 26a8 9ebc fddf 133e 93d2 1cbe 55d0 783e
000000a0: 9b99 e03d 4244 743d 1458 1abe d58c 41bd
000000b0: 0349 d9bc 0d3f 6d3d 7131 8f3d 38c4 a2bd
000000c0: 1eb5 173d 02d6 053e f334 7d3e 4d7a 823d
000000d0: a95d e63d 59dc e1bd 6126 4c3e 1820 933e
000000e0: b004 55bd 3547 623e bc9a 793c 9343 5b3e
000000f0: 2d6f 203d e913 a53d 4512 02bd e479 2f3e

bn4.running_mean f4 [64]
0.36779374 2.0861871 0.7821074 0.29807386 1.3204829 0.7560189 0.2846835 0.9127267
1.2002583 0.70159435 5.3898115 0.47131014 4.068652 4.0237784 0.51523364 0.57110417
0.7213354 0.6705236 7.9793 3.265666 1.9035239 1.5369785 7.5033884 1.3635509
1.0441942 3.519025 1.6036993 0.74914294 2.1155832 0.4692753 1.0414151 1.9608883
1.1864722 0.84884065 0.8336282 1.6334604 1.1189157 1.1341072 0.58314764 2.47205
0.8417905 0.33722448 1.9187098 1.0957539 2.3459585 0.6130913 0.53945786 0.86284155
0.88213515 1.0691388 1.2146982 0.5987885 2.2147555 0.5798452 3.216198 1.3177758
1.3869247 2.2032266 1.8377515 4.3161407 0.6904032 0.93955225 0.58754677 0.9143455
00000000: 764f bc3e 1784 0540 3138 483f 239d 983e
00000010: 9505 a93f 748a 413f 09c2 913e 75a8 693f
00000020: 10a2 993f b09b 333f 5679 ac40 904f f13e
00000030: 6632 8240 cbc2 8040 5ae6 033f e233 123f
00000040: 70a9 383f 6fa7 2b3f 6d56 ff40 ac00 5140
00000050: aca6 f33f b6bb c43f c21b f040 d688 ae3f
00000060: 28a8 853f b537 6140 0546 cd3f d5c7 3f3f
00000070: b765 0740 da44 f03e 174d 853f 63fe fa3f
00000080: 52de 973f 9f4d 593f a868 553f 3b15 d13f
00000090: a138 8f3f 6d2a 913f 2a49 153f 1136 1e40
000000a0: 957f 573f b0a8 ac3e 4898 f53f aa41 8c3f
000000b0: 2f24 1640 8df3 1c3f e919 0a3f 2fe3 5c3f
000000c0: 9cd3 613f 8ad9 883f 3b7b 9b3f 344a 193f
000000d0: 8ebe 0d40 bc70 143f 30d6 4d40 e1ac a83f
000000e0: c086 b13f aa01 0d40 713b eb3f d31d 8a40
000000f0: 44be 303f 7f86 703f 7769 163f 8c12 6a3f

bn4.running_var f4 [64]
12.884076 65.32047 30.607134 8.73889 49.917736 15.43408 8.370987 32.233223
45.030804 21.612469 94.16915 14.361519 84.09104 107.824646 11.3253975 14.717458
20.927652 14.317463 161.22667 106.29542 54.841072 34.055546 117.42834 31.86815
26.924303 64.723694 40.783607 32.024162 67.24665 15.086104 37.658413 56.691418
30.064316 26.48101 27.75661 37.83223 28.94517 17.98963 14.230603 70.63697
21.977987 6.6621056 48.641975 35.674324 64.984566 17.859215 12.659926 26.71194
28.51454 26.414745 31.901716 16.341106 72.34687 13.326881 108.014496 42.7316
41.426086 75.155045 24.428335 140.0377 19.63041 19.00496 18.96863 25.076605
00000000: 2d25 4e41 15a4 8242 69db f441 7ed2 0b41
00000010: c3ab 4742 fef1 7641 90ef 0541 d2ee 0042
00000020: 8b1f 3442 56e6 ac41 9b56 bc42 c8c8 6541
00000030: 9d2e a842 38a6 d742 d434 3541 b57a 6b41
00000040: d56b a741 5414 6541 073a 2143 4197 d442
00000050: 425d 5b42 e138 0842 4fdb ea42 f9f1 fe41
00000060: f964 d741 8872 8142 6a22 2342 be18 0042
00000070: 497e 8642 af60 7141 37a2 1642 03c4 6242
00000080: b883 f041 1cd9 d341 8a0d de41 3454 1742
00000090: b58f e741 c3ea 8f41 8db0 6341 2146 8d42
000000a0: ebd2 af41 f82f d540 6291 4242 82b2 0e42
000000b0: 19f8 8142 acdf 8e41 0f8f 4a41 0eb2 d541
000000c0: c71d e441 6651 d341 b736 ff41 96ba 8241
000000d0: 99b1 9042 e83a 5541 6c07 d842 29ed 2a42
000000e0: 50b4 2542 624f 9642 3b6d c341 a709 0c43
000000f0: 140b 9d41 280a 9841 c1bf 9741 e39c c841

lin.weight f4 [10, 64]
-0.75537777 0.52943987 1.2873945 0.5400879 1.2626574 -0.31190923 -1.2094787 0.5753065
0.054572318 -0.13498229 -0.92154604 0.9615367 1.1449202 0.106995866 -0.95718235 0.60861266
-1.7729748 -0.6416273 -0.12459004 0.92031145 -1.8184558 -0.84066135 -0.23811366 -1.4130375
-1.5928642 0.7107281 0.41651267 -1.2962401 0.91272265 0.07219761 1.5055422 0.5821474
-1.0825015 -0.5460773 0.480854 0.32196638 0.79286057 -0.66499513 -0.44998497 1.1799716
1.1609563 1.058684 -1.4283154 -0.17165007 0.5216461 0.8591207 1.0066222 -1.5221324
-0.7785626 0.897317 1.0314206 -0.26359916 0.8857996 -0.8887602 1.1774657 -0.12672243
-0.69999236 -0.16671678 -0.16773646 0.54231507 -0.8240143 -1.0629475 -0.5269694 1.2979094
-1.4099681 -2.2716925 -1.0094485 1.0932235 0.4432697 -0.11646047 0.8124866 -1.5562006
1.4099711 -0.40859282 -0.51519215 -1.1782701 0.22553201 0.43475196 0.33866417 -1.040525
1.7381477 -0.3920841 -0.5512126 0.54090935 0.32239506 -0.2305995 -0.6536386 1.7208341
0.59045494 0.6789775 -0.4756203 1.4586338 0.871028 1.8691955 -1.1821073 -0.9256111
0.13717076 1.3244795 -1.8805323 0.3795704 -0.96790105 -0.13562392 -1.0996373 -0.54641986
-1.5122304 0.041289844 1.536825 -1.0631516 -1.3496013 -0.37972426 -0.65241516 0.22908828
1.625834 -2.2012913 1.0766174 -0.7246474 -2.2147439 -0.95127666 -0.5469647 0.24834073
0.42418358 0.831631 -0.77661604 0.45139894 1.5955554 1.6838272 -0.6950312 0.090477325
0.1109336 -1.2873265 -0.016051713 -1.7076563 -0.60967124 2.2174804 0.377268 0.9179289
0.63041764 -0.31652263 1.437842 0.017004432 -0.21834482 -2.0713222 2.1198018 0.5542472
-0.42440438 1.874304 0.81433576 -0.5038947 0.16039889 -1.089387 1.4003315 -2.0413744
0.68812335 -0.7567522 -3.3364148 -0.114014804 -0.6030569 -0.7049087 0.71239537 -0.0015286356
-1.4103261 -0.38428712 -0.6225804 0.33782476 -1.085846 -2.5383754 -0.801619 -1.9004242
-1.5855333 -0.34245604 0.87033725 1.0183251 1.8680277 1.9439284 0.389608 -0.25297967
0.5941481 -0.5909004 -3.206511 0.9740599 0.88287014 2.1797342 0.0045220656 -2.488959
2.0300605 -1.061345 1.3776542 -1.864321 -0.5541741 0.6263142 3.1885154 -0.81727874
1.1190614 1.7673359 -1.0320114 -1.5486233 -1.9075826 -0.8400373 1.3297019 -0.78664404
-1.4078108 -0.8134749 -0.2973945 0.5404066 -2.6847124 0.8853712 0.10542905 1.5301288
0.5835199 0.1842335 -0.7104868 -0.58648837 0.9035731 0.4652272 -0.63142425 0.18530394
1.3974642 -0.9347278 0.98185307 0.16559319 -2.4809096 -1.3122427 -0.93122643 -1.397025
0.7262507 -0.76285595 1.6815861 -1.9475021 1.2967087 1.9833643 2.1973767 1.0352038
-0.62310416 -1.8021725 -0.47036958 -0.36128053 0.38349688 -1.2743486 -0.40805 1.6266356
-0.78970486 0.87146986 -1.4796661 1.532948 0.12748334 1.4281663 -0.9693888 1.7022504
-1.5222639 0.5816226 -0.5309879 0.45009428 -1.0014969 -1.5187585 -0.44218943 -0.9379653
00000000: 7060 41bf 5f89 073f 58c9 a43f 3343 0a3f
00000010: c29e a13f 91b2 9fbe 33d0 9abf 4947 133f
00000020: 3987 5f3d cc38 0abe 71ea 6bbf 4527 763f
00000030: bf8c 923f a620 db3d e709 75bf 0ace 1b3f
00000040: d7f0 e2bf b041 24bf 1029 ffbd 8899 6b3f
00000050: 29c3 e8bf 9535 57bf 11d4 73be 6ade b4bf
00000060: f9e2 cbbf 47f2 353f 2641 d53e 32eb a5bf
00000070: 31a8 693f 57dc 933d 9bb5 c03f 9d07 153f
00000080: 698f 8abf b9cb 0bbf 7f32 f63e c7d8 a43e
00000090: e9f8 4a3f 1f3d 2abf 6e64 e6be 4f09 973f
000000a0: 379a 943f f582 873f 0ad3 b6bf 09c5 2fbe
000000b0: 998a 053f 56ef 5b3f ffd8 803f 3cd5 c2bf
000000c0: e14f 47bf 91b6 653f 9705 843f 78f6 86be
000000d0: c3c3 623f ca85 63bf 32b7 963f 86c3 01be
000000e0: b332 33bf ceb7 2abe 1bc3 2bbe 29d5 0a3f
000000f0: 9af2 52bf aa0e 88bf 77e7 06bf e521 a63f
00000100: d679 b4bf 6963 11c0 9c35 81bf bfee 8b3f
00000110: 3ff4 e23e d482 eebd 1fff 4f3f 9531 c7bf
00000120: ef79 b43f 1433 d1be a2e3 03bf 8ed1 96bf
00000130: ddf1 663e cf97 de3e 6465 ad3e ec2f 85bf
00000140: a07b de3f 3fbf c8be 451c 0dbf 0979 0a3f
00000150: f710 a53e 4622 6cbe dc54 27bf 4b44 dc3f
00000160: 0e28 173f 78d1 2d3f 8184 f3be 83b4 ba3f
00000170: b1fb 5e3f cc41 ef3f 4b4f 97bf d9f4 6cbf
00000180: 7e76 0c3e 8b88 a93f 48b5 f0bf 0d57 c23e
00000190: 5dc8 77bf ffe0 0abe eac0 8cbf 2ce2 0bbf
000001a0: c490 c1bf 8a1f 293d aeb6 c43f 5a15 88bf
000001b0: bcbf acbf 386b c2be ae04 27bf 1e96 6a3e
000001c0: 541b d03f f5e1 0cc0 99ce 893f 7e82 39bf
000001d0: 5dbe 0dc0 de86 73bf e105 0cbf 084d 7e3e
000001e0: 972e d93e c5e5 543f 4fd0 46bf c31d e73e
000001f0: 293b cc3f a687 d73f 91ed 31bf 2d4c b93d
00000200: 2831 e33d 1dc7 a4bf e27e 83bc 7b94 dabf
00000210: 6a13 1cbf 33eb 0d40 4529 c13e 63fd 6a3f
00000220: 0d63 213f 410f a2be 350b b83f e14c 8b3c
00000230: c995 5fbe 8b90 04c0 d5aa 0740 25e3 0d3f
00000240: 884b d9be 32e9 ef3f 4f78 503f 3eff 00bf
00000250: 9b3f 243e 0971 8bbf 103e b33f e1a5 02c0
00000260: da28 303f 83ba 41bf d287 55c0 9880 e9bd
00000270: f061 1abf e674 34bf 8b5f 363f 805c c8ba
00000280: 9185 b4bf 48c1 c4be 6e61 1fbf 5ef7 ac3e
00000290: 00fd 8abf be74 22c0 e736 4dbf 1a41 f3bf
000002a0: c1f2 cabf 6656 afbe 6cce 5e3f 7a58 823f
000002b0: 881b ef3f a5d2 f83f b37a c73e 8d86 81be
000002c0: 171a 183f 4045 17bf 7a37 4dc0 fd5b 793f
000002d0: c703 623f c480 0b40 d62d 943b 1b4b 1fc0
000002e0: 83ec 0140 27da 87bf f956 b03f 12a2 eebf
000002f0: 5bde 0dbf 2156 203f a310 4c40 2e39 51bf
00000300: 673d 8f3f 1038 e23f f318 84bf 4a39 c6bf
00000310: ab2b f4bf af0c 57bf ac33 aa3f 8161 49bf
00000320: 2533 b4bf e43f 50bf 1844 98be 1658 0a3f
00000330: 54d2 2bc0 b0a7 623f 30eb d73d 43db c33f
00000340: 8f61 153f b5a7 3c3e 77e2 35bf 1a24 16bf
00000350: 9150 673f 4232 ee3e 05a5 21bf 51c0 3d3e
00000360: 1be0 b23f 524a 6fbf b95a 7b3f 4391 293e
00000370: 39c7 1ec0 92f7 a7bf db64 6ebf b7d1 b2bf
00000380: 91eb 393f 874a 43bf 373e d73f c047 f9bf
00000390: 8dfa a53f e2de fd3f d2a1 0c40 8f81 843f
000003a0: c183 1fbf 97ad e6bf 48d4 f0be c3f9 b8be
000003b0: b459 c43e db1d a3bf eeeb d0be 9835 d03f
000003c0: 192a 4abf a618 5f3f b365 bdbf a437 c43f
000003d0: fe8a 023e 27ce b63f dd29 78bf 57e3 d93f
000003e0: 8bd9 c2bf 38e5 143f d3ee 07bf c272 e63e
000003f0: 0d31 80bf ae66 c2bf a766 e2be 7e1e 70bf

lin.bias f4 [10]
0.14576967 0.37490553 -0.15010943 0.05454589 -0.204495 -2.557563 -2.6081543 -2.550362
-2.5353122 -2.6825454
00000000: a544 153e 9ef3 bf3e 49b6 19be 836b 5f3d
00000010: 2367 51be 1daf 23c0 00ec 26c0 2239 23c0
00000020: 8e42 22c0 d3ae 2bc0
