NCC_Code/models/2022-08-08_21-18-51_model.pt (torch, 115275 bytes, 50 tensors)

conv1.weight f4 [8, 2, 5, 5]
00000000: e687 b9bc 0194 8abe 3f7d e33d 88a5 09be
00000010: 7f5e ffbd 5f92 553e b912 b33e 4c77 713e
00000020: aac8 553e 62a1 9b3e e515 8f3d 8a26 3e3e
00000030: 2bdc 043e 13ac 55be e60e ee3e ded1 bb3b
00000040: 3402 0fbe 0709 bcbd 2b39 993d cce2 813e
00000050: f5bd 103d e4ac 09bf e0d2 173e bcf6 74be
00000060: cb86 863e 0168 a43e 269d e5bb 3dad acbe
00000070: fc98 b4bc 824f 90be 8911 3ebc 5b6a 7ebe
00000080: 617d 37be 1b45 6bbe 1dd8 91bd d56c f83c
00000090: 155a 2ebd 5c68 6cbe 5c7e 943c 54a0 a63e
000000a0: bec6 10bc c5e7 863c 25f0 58bc 7348 203e
000000b0: 4cee e73e b130 90bd fb56 b23e 4b66 1bbe
000000c0: 9708 2bbd ab1b 753e 99b2 e1bc 2457 70be
000000d0: ad5c 143e eb72 ea3d 1445 d43d bcfd 763e
000000e0: 6de8 973e 7250 753d de00 7f3c 6c00 bd3d
000000f0: f7a7 94bd 0a27 5abe 27f9 8fbd c3c7 6abd
00000100: edf5 6ebe bd37 893e 2cd1 41be 309d 13be
00000110: bbee 3d3e 44c2 8bbd ea75 033e 458b 0dbe
00000120: 81e5 623d 8959 7f3e da4b b7be e582 bc3d
00000130: 49bc 113e f18e 0a3e 768a c43d 1444 cf3e
00000140: dfd6 b2bd 41dd 8b3d 2416 02bf 11f0 e4bc
00000150: 1959 773e b760 50be 3cc9 0ebe 5b34 53be
00000160: f5e3 29be 42f9 81bd 5eb7 d2be 819d 813e
00000170: 9f5a e53d d6f6 913e 6b77 98be 05f3 643e
00000180: 838c 2ebe 8026 2cbd 2db2 a2be 6098 55be
00000190: 0e6a 8f3e 425e 243e a7f7 733e a6e9 503e
000001a0: 791f af3d 294c febd 71c4 3d3e a717 a43e
000001b0: 25ec 153d 59dc 2cbe f0a9 95bd 2c23 8d3e
000001c0: 5c6a babe 4b95 0a3d 3cd7 3d3e 4cb5 59be
000001d0: c168 593d 1680 b9be 623f 9dbd 996e 17be
000001e0: b889 df3d c89d f03d 235d 11be 837c cd39
000001f0: dbb8 88be 5b1c d13d 23aa fbbd 028d 2ebd
00000200: 3b50 0a3e 8859 1fbe fdac 06bd ca5a 3abd
00000210: 6fbb e13e d0ca c53d 4e2e 043d 28f4 03be
00000220: 1532 e5bb e62b 61be 62dd 77be bd1f 9a3d
00000230: bb8c 84bd 6681 263e bd7d cf3d 10ed 20be
00000240: 37ce 37bd 7c77 32be 5f43 8dbd 0cac c43d
00000250: eb69 893e 0b4b 6c3e 99a5 453e b246 3f3e
00000260: c4bc 2a3e 6fba cabd e18f e6be 6b6a 4e3e
00000270: 8450 11bf c849 423b 8615 04be 6ddb 02be
00000280: 5814 e63c 3088 453c 49c0 f53d 643d 90bc
00000290: 0372 83be 89cf c53d 96ed 9bbe 158e b93d
000002a0: 8ae3 8bbe e584 203e 3a0c c6bc 3947 753e
000002b0: 206b 4d3c 0dde dbbe d719 333e 7412 a3be
000002c0: 57da 103e 50b7 84bd 77fa c43c 5129 633d
000002d0: b988 3ebd 145b e53b ba9c 87bd b891 4ebe
000002e0: 9fae aebe e417 d93d cf96 4c3d b2d3 f1bd
000002f0: 7efb b4be 2d43 103e c7da 053e 9e50 8cbe
00000300: f1ea f2be 6d26 31bd b921 ea3d 914d 30bd
00000310: 88fe 353e 8c5f 4dbe 67c9 173e 3b2d 6c3e
00000320: 212a 8fbe 2978 11be cd48 49bd f096 823e
00000330: 7e5f 6e3d 4b67 6dbe ac52 623e cbde a53d
00000340: 1552 fb3d 07a1 98bc bf9a 49bd 1031 6ebd
00000350: e599 d23d b967 b8be bca2 abbe 7132 3abe
00000360: eee1 6dbe 1281 e63d 4627 5dbe e53f 9e3d
00000370: 9be3 a93e 3974 e6bc f8ba 03be 8f52 7abd
00000380: e0c7 e0bd 477d 29be dbe8 2d3e a6b0 2abe
00000390: 1670 033e a0b5 f73b 3943 ac3e df5b 963e
000003a0: 0df7 23bd ae0e c4bd 59e7 033d c9e3 ebbd
000003b0: 3bb5 7cbe b8af a23d 9375 853e b58a f6bd
000003c0: 2300 e4be 79a3 80be e234 8fbe 2f20 cf3d
000003d0: 38fc 3bbe 4992 87be 634b 84be 7e40 5e3d
000003e0: fdb1 7b3e a0f6 113e 5a1d ddbd 8c47 a0be
000003f0: a5d4 d4bd 7abc 26be 566c 3c3e 42c9 263e
-0.02264781 -0.27066043 0.11107873 -0.13442051 -0.124691956 0.20856617 0.34975222 0.23580664
0.20877329 0.30396563 0.06986598 0.18569389 0.12974612 -0.20866422 0.46495742 0.005731805
-0.13965684 -0.09181409 0.07481607 0.25368345 0.035337407 -0.53779435 0.14826536 -0.23922247
0.26274714 0.321106 -0.007007259 -0.3372592 -0.022045605 -0.2818566 -0.01160086 -0.24845259
-0.17918922 -0.2297558 -0.071212985 0.030325333 -0.042566378 -0.23086685 0.01812666 0.32544196
-0.008836446 0.016467938 -0.013240849 0.15652637 0.45298994 -0.07040537 0.34831986 -0.1517574
-0.04175624 0.23936336 -0.027550982 -0.23470742 0.14488478 0.114477 0.10364738 0.2412023
0.29669514 0.05989117 0.015564172 0.09228596 -0.07258599 -0.21303955 -0.07029944 -0.057319414
-0.23336 0.26800337 -0.18927449 -0.14415431 0.185481 -0.068241626 0.1283795 -0.13822658
0.055394653 0.24936499 -0.35800058 0.09204654 0.14231981 0.1353109 0.09596722 0.40481627
-0.0873239 0.0682931 -0.50815034 -0.027946504 0.24155082 -0.20349394 -0.13943952 -0.20625441
-0.16590865 -0.0634637 -0.41155523 0.25315478 0.11198925 0.28508633 -0.2977861 0.2235833
-0.17045788 -0.042028904 -0.31776562 -0.20858908 0.280106 0.16051582 0.2382494 0.2040163
0.08550925 -0.1241687 0.18531968 0.32049295 0.036602158 -0.16880931 -0.07307804 0.27565897
-0.3640927 0.033833783 0.18539137 -0.21260566 0.053078417 -0.36230534 -0.07678105 -0.14788283
0.1091494 0.117488444 -0.14195685 0.00039193415 -0.26703534 0.102104865 -0.122883104 -0.042614944
0.13507168 -0.15561497 -0.03287982 -0.04549674 0.44088313 0.09657824 0.032270722 -0.12886107
-0.0069944956 -0.21989402 -0.24205545 0.07525585 -0.06472155 0.16260299 0.101314045 -0.15715432
-0.044874396 -0.17428392 -0.06897616 0.09603128 0.26838621 0.23075502 0.19301452 0.18679312
0.16673571 -0.09898841 -0.45031646 0.20157783 -0.5676348 0.0029646028 -0.12898836 -0.12779017
0.028085873 0.012056395 0.11999566 -0.017607398 -0.25672922 0.09658725 -0.304547 0.09060303
-0.27322036 0.15675695 -0.024175752 0.2395295 0.012537748 -0.4294285 0.17490326 -0.31850016
0.1414579 -0.064802766 0.024045212 0.055459324 -0.046517108 0.0069993827 -0.0662169 -0.20172775
-0.341176 0.1060026 0.04994851 -0.11807956 -0.35348123 0.14088126 0.13071738 -0.27405256
-0.4744487 -0.043249536 0.11432213 -0.043042723 0.17772877 -0.2005598 0.14822923 0.23064129
-0.2796183 -0.14205994 -0.049141694 0.2550578 0.058196537 -0.23183934 0.2210185 0.08099135
0.12271515 -0.018631471 -0.049219843 -0.05815226 0.10283259 -0.36016634 -0.33522594 -0.18183304
-0.23230717 0.11255087 -0.21597013 0.07727031 0.33181462 -0.028131591 -0.12864292 -0.06111389
-0.10975623 -0.16551696 0.16983359 -0.16668949 0.12835726 0.007559493 0.33645037 0.29366967
-0.040030528 -0.095731124 0.032203052 -0.11518056 -0.24678509 0.07943672 0.26066265 -0.12038175
-0.44531354 -0.2512472 -0.27970034 0.101135604 -0.18357933 -0.26478794 -0.25838766 0.054260723
0.24579616 0.14254236 -0.10796614 -0.31304586 -0.10392121 -0.16282836 0.18400702 0.16287711

conv1.bias f4 [8]
00000000: 17b3 eb39 3691 f9bc b83f a33c 2bdf 6a3d
00000010: 82f5 073d d831 71bc 8aef bebc 7592 8dbd
0.00044956125 -0.03046475 0.019927844 0.057341736 0.03319312 -0.014721356 -0.02330758 -0.069127

bn1.weight f4 [8]
00000000: 4a3a 7c3f 159a 7e3f 4c75 7f3f 73b4 803f
00000010: 888b 833f 7c37 7d3f a187 7e3f 88d6 813f
0.9852644 0.9945386 0.99788356 1.0055069 1.0276957 0.9891279 0.99425703 1.0143595

bn1.bias f4 [8]
00000000: e031 103d 9249 f0bb d43c c1bc 5aff b8bc
00000010: 5636 aebb b671 88bc 2e27 9d3c 8c59 cebc
0.035203815 -0.007332989 -0.023588575 -0.022582699 -0.005316536 -0.016655784 0.019183721 -0.025189184

bn1.running_mean f4 [8]
00000000: 4f83 063f da3f b13e 8187 993e 6fab 373f
00000010: 246b 173f 9167 f53e f9d5 103f f431 253f
0.5254411 0.34619027 0.29986194 0.7174596 0.5914786 0.47930577 0.56576496 0.6452935

bn1.running_var f4 [8]
00000000: 524a e03f 7611 a83e 55fb af3e cf15 f53e
00000010: 3164 b53e 0c45 e43f 30e0 a53f 1ca2 0140
1.7522681 0.32825822 0.3437144 0.478682 0.35428002 1.7833571 1.2959042 2.0255194

conv2.weight f4 [16, 8, 3, 3]
00000000: 8f81 233d d5ff bebc 06db 8abd 0950 bcbd
00000010: 37da 7e3c 08f7 aa3a cd39 74be c730 f93d
00000020: de2b bdba c3f4 54be aafd 98bd 1740 513c
00000030: 84a5 e13d 6bbd 1ebd babf 383c a3c0 053d
00000040: a0fd 78bd c06e b4bd b4c4 8e3a 0337 ecbc
00000050: 77dd adbd 1afd 94bc 1c20 debc ade3 4fbe
00000060: 7978 45bd 1d60 633d bc74 51be 2021 bf3c
00000070: 59bd cc3d 2232 fa3d e8ee 103e d5c8 fc3d
00000080: 11ba 84bd 706b ca3e 634b 7e3e d11d 823d
00000090: 85f6 fd3d 8ea0 933e 1369 77be c659 913e
000000a0: dfd1 853d 489d b83d d7e4 7fbe 5af6 0abe
000000b0: 46e5 8d3e 8885 a23d 95f8 ecbd 7ce4 ba3d
000000c0: 708a eb3d f40e 0a3e 41cb 1b3e b51b a83e
000000d0: 1765 213c bcc4 92bd 4b13 3e3d 2d2f 4a3e
000000e0: 5f66 033f fcd7 1d3e 5eaf 8b3c 967a fd3d
000000f0: 72bd 7f3e 1d04 72be 9ac9 83bd 4065 943d
00000100: 2332 2a3d cc65 0dbc 6d1f 123e 75c5 8b3e
00000110: c0dd b63e 69cd 0a3e 72b2 68bd aaa0 80bd
00000120: e210 83bd 0832 50be 8c44 8abd ce0f 9bbd
00000130: 7cca 25be 4428 0d3e 5828 323e b6e1 80be
00000140: 4497 8dbe 6e63 7cbe 63b3 98bd 8ef9 b13d
00000150: 75e8 96be 3182 0a3e 4df3 56be a12a 16be
00000160: 82cf 3bbd 8ae4 533d 6679 e9bd 76f5 9f3e
00000170: 4ebc 853e fe97 98be ac02 28bd ede6 06be
00000180: c58c ef3d 5fde 69bd 5b75 cf3a a4fa 4f3e
00000190: ce7c 03bd 125d d13a ea21 d3bd 9487 e2bd
000001a0: 725e dbba b8ad 0c3e ebbf 4fbe 83f0 493d
000001b0: cad2 653c 9095 393c 4ba7 8fbd c18e 5e3c
000001c0: d705 5f3e a735 3cbe d06e 86bd 0d24 b2be
000001d0: 9030 b739 bfa8 30bb 7a2b f4bd c00a cb3d
000001e0: 5ea6 36bd 9cc4 9ebd eba7 0ebe 1b05 023d
000001f0: fe3e 253d d43d 00be 0c7d 653d 5079 a03e
00000200: b27d 03bc c16b 893e b2ed 4cbd 6031 17bd
00000210: fdb4 cabd dc14 9d3c a854 39be b706 cf3c
00000220: 8485 08be 07fa 093c 6f3a 32bd 2083 9bbd
00000230: eab9 36be cd16 103e 58d4 1ebe 0d33 80bc
00000240: 6593 023d cec5 53be f915 5c3e c9a6 26be
00000250: dd22 03bd d61c 1bbe 718c d3bd 3ae7 f4bd
00000260: 6706 d0bd 819f f23e 5e81 543e 3ece 223d
00000270: b589 b5bc 7a3e 8d3d df45 27bd 6f6b 80bd
00000280: 7d0b b6bc 93f9 603d af96 2c3e 8e68 243e
00000290: 4a4c 5a3e 91c4 b83d 38e9 823d be9c a53e
000002a0: 622c c63d f742 8a3e 74b5 963d 7008 933d
000002b0: 5a6d d1bc fc6e 3ebd a858 17be 98b3 533e
000002c0: 9d49 73be 85d6 62be c547 ac3e b5c5 f93c
000002d0: a403 883e 609a 48be 6554 2cbe 4e4a 51be
000002e0: ae55 aabe 4ff6 0bbd abce 05be 2d02 ec3c
000002f0: 804a 96bb adfc 50be 2f9d f03d 249c 3bbe
00000300: 425a 84bd 5765 0bbe a203 5fbe d60d debd
00000310: 7d3f a63c b645 bcbc 2f93 a5bd 52ec b8bd
00000320: e959 603e 89ff 9bbd 6105 f9bd 9632 28bd
00000330: 5b50 593b 614a 09be e274 65be 0769 6e3c
00000340: d609 7fbe 81fa 8a3e 7113 933e eab5 263e
00000350: ec12 08be 55b1 713d 2323 833e 0f10 05be
00000360: 7564 75bc 28f7 e4bd c390 af3d 1c81 9c3e
00000370: 0e92 9fbc 2698 56bc 8673 e6bd fb7c 943c
00000380: ee9b c83c 650f ed3d dda8 98bc 1a45 39be
00000390: dec7 013e 0ffe 9cbd 0306 7c3c e64f b23d
000003a0: ead2 7d3e e2cf 57be 72d0 883c 90fe ac3e
000003b0: bb61 90bd 5913 49bd 3823 ec3d 3b70 62be
000003c0: 9db6 36bd 4c33 21bd 77ad aa3e 1674 5dbe
000003d0: 66cf 893c 1a55 fcbe bfb8 3dbe c299 76bd
000003e0: e887 e13b 18bf e7bd 8bd2 7c3e 9255 b7bd
000003f0: 699f 8ebb 8c4c 1bbe 6f77 80be 4b28 663e
0.03991848 -0.02331535 -0.06780057 -0.09194953 0.015554956 0.0013043592 -0.23850174 0.12167507
-0.0014432629 -0.20796494 -0.074702576 0.012771628 0.11017898 -0.03875486 0.01127618 0.032654416
-0.06078875 -0.088101864 0.0010892362 -0.028834825 -0.08489507 -0.018187094 -0.02711492 -0.20301695
-0.048210595 0.055511583 -0.20454687 0.023331225 0.09997053 0.12216593 0.14153636 0.12342993
-0.06480802 0.39535093 0.24833445 0.06353343 0.124005355 0.2883343 -0.24161176 0.28388804
0.0653417 0.09014374 -0.24989639 -0.13570538 0.27713984 0.07935625 -0.11570851 0.09125611
0.11501014 0.13482267 0.15214254 0.3283364 0.009850762 -0.0716643 0.046405118 0.19744559
0.5132808 0.15414423 0.017051395 0.12376897 0.24974611 -0.23634382 -0.06434937 0.072458744
0.04155172 -0.008630227 0.142698 0.27299085 0.35716057 0.1355492 -0.056810804 -0.06280644
-0.063997045 -0.20331585 -0.067513555 -0.07571374 -0.16190523 0.13784891 0.17398202 -0.25172204
-0.2765447 -0.24647304 -0.0745609 0.08690177 -0.29474226 0.13526227 -0.2099125 -0.14664699
-0.04585219 0.051731624 -0.11400108 0.3124196 0.26120228 -0.2980346 -0.041018173 -0.13174029
0.116967715 -0.057096835 0.0015827821 0.20310456 -0.032101445 0.0015973172 -0.10309203 -0.11061016
-0.0016736521 0.13738143 -0.20288055 0.049301635 0.014027307 0.011327162 -0.070143305 0.01358384
0.21779571 -0.18379842 -0.065641046 -0.3479313 0.00034940662 -0.002695605 -0.11922355 0.0991416
-0.044592254 -0.07752344 -0.13931243 0.03174315 0.040343277 -0.12523586 0.056027457 0.31342554
-0.008025574 0.26840022 -0.05003137 -0.036912322 -0.09897802 0.019174986 -0.180987 0.025271757
-0.13332182 0.008421428 -0.043512758 -0.075933695 -0.17844358 0.14071198 -0.1551069 -0.015649343
0.031878848 -0.20680925 0.21492757 -0.16274561 -0.03201567 -0.15147719 -0.103295214 -0.119581655
-0.10157471 0.47387317 0.20752475 0.03974747 -0.02216039 0.06896682 -0.04083812 -0.06270491
-0.022222275 0.054925513 0.16854356 0.1605551 0.21318164 0.09021867 0.06392139 0.32346147
0.09676434 0.27004215 0.07358828 0.07179344 -0.025564838 -0.04649256 -0.14779913 0.20673978
-0.2375855 -0.22152145 0.33648506 0.030489782 0.26565278 -0.1959014 -0.16829069 -0.20438501
-0.33268493 -0.034170445 -0.13067119 0.028809631 -0.004586518 -0.20408888 0.117487304 -0.18321282
-0.06462528 -0.13612877 -0.2177873 -0.10842483 0.020293945 -0.02298246 -0.08084714 -0.090294495
0.21909298 -0.07617099 -0.12159229 -0.041063868 0.0033159468 -0.1340728 -0.22407869 0.014551408
-0.24906096 0.27144244 0.2872577 0.16280332 -0.13288468 0.059007008 0.25612745 -0.12994407
-0.014977564 -0.11179954 0.08572533 0.30567253 -0.019478824 -0.013097798 -0.11252503 0.018126002
0.024488416 0.11575202 -0.018635208 -0.18092766 0.126739 -0.07665645 0.015382293 0.08706646
0.24787489 -0.21075395 0.016700957 0.33787966 -0.070498906 -0.049090717 0.11530155 -0.22113125
-0.044607747 -0.03935556 0.33335468 -0.21626315 0.016822528 -0.49283677 -0.18527506 -0.06020523
0.0068826564 -0.11315745 0.24689691 -0.08951868 -0.0043524993 -0.15165919 -0.2509112 0.22476308

conv2.bias f4 [16]
00000000: f6a6 c2bc 9f62 21bc 70cc a8bc 1b70 843c
00000010: 0460 d13c 532b a6bc 54ba 05bb 71fe 2a3d
00000020: c28c ecbb 9ae0 b2bc 7ca8 a1bb ff5e 81bc
00000030: 57ed 743c a28e 05bd d601 de3c c944 10bd
-0.023761254 -0.009850173 -0.020605296 0.016166737 0.02555848 -0.02028433 -0.002040525 0.04174656
-0.007218928 -0.021835614 -0.004933415 -0.015792368 0.014949164 -0.03260673 0.027100485 -0.03522185

bn2.weight f4 [16]
00000000: e7d6 803f ea06 7a3f 3b6e 7d3f 4247 783f
00000010: 938a 853f d03f 783f 94c9 813f 3778 723f
00000020: af05 833f 7423 843f e182 763f fefa 7a3f
00000030: 3df5 723f bde1 843f 5510 7c3f fffe 8a3f
1.0065583 0.976668 0.98996323 0.9698373 1.0432914 0.9697237 1.0139642 0.94714683
1.023611 1.032332 0.96293455 0.98039234 0.94905454 1.038139 0.9846242 1.0859069

bn2.bias f4 [16]
00000000: 1448 23bd 6c42 9ebc 07f9 ddbb 3ebb 87bb
00000010: ff73 b539 54ee 78bc a346 92bb 0eda a63b
00000020: c597 e0ba 0d1f 633b 6dbc e43c 4bb3 e03c
00000030: d18f c4bc 6798 443c 0ced f33c 7638 18bc
-0.03986366 -0.019318782 -0.006774071 -0.004142194 0.00034609434 -0.015193541 -0.004463987 0.005091912
-0.0017135075 0.003465596 0.02792188 0.027429244 -0.023994358 0.011999226 0.029776119 -0.009290805

bn2.running_mean f4 [16]
00000000: 9357 033f 128f e53e cb2d e33e b74e 2f3f
00000010: 039b 093f ad69 bc3e 5d21 ff3e 3559 0e3f
00000020: 8419 603f 70f7 293f 7149 ce3e 1c81 0a3f
00000030: 69ea b83e f47a d43e 2144 2d3f 6603 b73e
0.513055 0.44835716 0.44370875 0.68479484 0.53752154 0.36799374 0.49830142 0.5560487
0.87538934 0.66393185 0.40290406 0.54103255 0.3611634 0.41500056 0.6768208 0.3574478

bn2.running_var f4 [16]
00000000: dd28 2e3f 1178 8c3e 483e 453f 815f 8a3f
00000010: fa74 593f dab6 183f fa3c 083f 8fac 0a3f
00000020: 8b15 4b3f 317b 7a3f 5a09 4d3f c049 793f
00000030: 8439 cf3e 32fb 5f3f b725 443f fcc1 6b3e
0.680311 0.27435353 0.7704816 1.0810395 0.8494412 0.5965401 0.5321804 0.54169554
0.79329747 0.97844225 0.80092394 0.9737816 0.40473568 0.8749267 0.7662005 0.23023218

conv3.weight f4 [32, 16, 3, 3]
00000000: 1b08 c93b c483 9abd 8e36 98bc 7488 0cbd
00000010: 49ac 803d a18d e7bd 9e92 003e 7f01 a93d
00000020: 6536 7c3d 7b2f 323e 8b68 153e bb1f 573e
00000030: 2ba8 b63c ece8 34be 6069 debd ff23 0bbe
00000040: 6372 1e3e 2bd7 10be a872 173e 5d2d 713e
00000050: d883 7bbe ff85 27bd 5397 593e f623 b53d
00000060: f93b 6cbe 2a53 203e e688 223d 8abd 23bd
00000070: 1ff6 58bc 4972 803d ae53 413d ef5c c7bd
00000080: 61ac 513e c027 67bd 8d6b 04bd 26d2 4b3c
00000090: f61b b6bd 94c2 8ebc f57a 1dbe 4512 663e
000000a0: bf17 313e 7c6b 27be c066 ef3d ef0d f0bb
000000b0: 25e6 013e d937 b33c 811a 303e b8cd 1dbe
000000c0: daf2 29bb fb42 4e3e 64a9 b1bd 41bc e03d
000000d0: b3e2 54bd a9bc b43d c634 4bbd a1a2 5c3d
000000e0: b562 213e 440d 203e d9d3 24be eb6e 33be
000000f0: 2f81 0e3d b2ca c2bd 3b5e 66be 42d1 fabd
00000100: da05 983e 6f0c 763c 7129 60bd e4fc fc3c
00000110: b950 03be 7048 a23d 75a0 14be b8aa b6bc
00000120: 15ee 9dbd 01cb 953d 2a86 8d3d 41b9 d73d
00000130: 8bd7 bfbd 862b 3c3e 1067 99bd 2a17 843d
00000140: 848b b63d 0d85 8e3d 9895 ca3d 542b 343d
00000150: 95d2 fe3d 1da2 be3d 8963 3bbd 5310 753d
00000160: b18e 5ebe 57cf eebb 89a9 37bd f913 cbbd
00000170: 534a 95be 1f65 fe3c a05d 2d3d 79dd 873d
00000180: 3a10 a93b 4ea8 aebd e139 a0bd 0bd1 8bbd
00000190: e308 80bc 500e 1f3e 171e 39bd 56c4 35bd
000001a0: 1347 5dbd d04a 1abe 92b4 e3bd 8bb3 2d3c
000001b0: 98f6 38bc dda9 d1bc abfb e7bd 9da1 2b3d
000001c0: d10e 2f3d 3939 64be 2989 413e 982e 063d
000001d0: 8f8c 523e 2248 bc3d af4a b33e 8547 24be
000001e0: 6ef1 443e 52fe d73d 2816 123d a875 d6bd
000001f0: adbd 043e 530c 31be b434 c2bd abc4 803d
00000200: 89b3 5d3e 478b 3d3e 4c96 18bc 6d1f 183e
00000210: 8c06 f93d 38a5 f13d 5b0e fabd 4a31 87bc
00000220: d8d5 913c d8fc 89bc 2571 4bbe ef42 b5bd
00000230: 2e0c 9f3c a044 0a3d 1443 e4bd 6f1a b83d
00000240: eea5 51bd 785a 573d 212c de3d 35b6 05bc
00000250: 2ffb 593d b08e 48bd b332 c33d 448c f13d
00000260: 7304 9c3d d3d9 393e 9b83 50be 30a8 8d3d
00000270: ecda 7a3c 5806 883d d439 2a3e 9738 a5be
00000280: 168f b13d dcc1 633d 09c8 8fbd 6c60 d4bc
00000290: 12a3 ce3a c210 f7bd 8b97 cebc 59a8 6e3b
000002a0: 035b 163e df18 3d3d 01b8 30bd b4ba 00be
000002b0: 5c0a 4dbd f260 56be 111a 0abe 089e 0a3d
000002c0: 063b 61bd 7fdd 113e 0ec1 423c 83ba 24bd
000002d0: 3b89 d8bd b0a6 58bc e909 653e c848 b7bc
000002e0: 078d 543e 2c4a 363e fbb0 143e 90ef f03d
000002f0: ee63 a9bd 5a73 0fbd f5e6 c938 5801 a1bd
00000300: c8ba 1bbd 7c3c 3d3c 1739 76bd 6926 4f3e
00000310: 7c1f 233e 03ae 3bbe 231f 123e 8f1c a3bd
00000320: 13bc 81ba 868c d33c 016d ab3d b98f f2bd
00000330: 5bfb 293a 7d76 cfbc 0d3a d4bd adc8 863c
00000340: fa60 613d 3f5d 01be 05c3 22bd 2647 0d3e
00000350: e47a a9bc 9fb0 e0bb 77e4 84bd cfe9 583d
00000360: 3701 88bd c235 4c3d 0a16 11be c73f 873e
00000370: a042 883d 9dcb 9f3d c2be d63d 8b4e ae3b
00000380: 5067 df3c cbfe 50be 6c04 3839 b1ec 1b3d
00000390: c109 133e 3a86 093d 3fca 443e 7d8a bebc
000003a0: 42f4 043e 69e9 17be de90 41be 5c88 a83e
000003b0: b0e0 cb3d 23e5 d3bd 6f9c debd 022a 173d
000003c0: 4d27 233e 347f 46bd c133 2bbd c648 9c3d
000003d0: 4269 3cbd a6fd 8f3d f37f 7f3d 2690 f9bd
000003e0: a257 383d e3a9 48bd 7c83 1d3d a91b cdbd
000003f0: 7982 383e e709 363e cb05 1abd 9e61 183e
0.0061349995 -0.075446635 -0.018580701 -0.03430982 0.06282861 -0.113063104 0.1255593 0.082522385
0.061575312 0.17400925 0.14590661 0.21008198 0.022296986 -0.17666978 -0.108599424 -0.1358795
0.15473323 -0.1414458 0.14789832 0.23552461 -0.24562013 -0.040899273 0.21249132 0.0884475
-0.23069753 0.15656725 0.039681338 -0.03997568 -0.013242274 0.06271798 0.047198944 -0.097345226
0.20475914 -0.056434393 -0.03232913 0.01244024 -0.08892052 -0.017426766 -0.15378936 0.22467907
0.17294215 -0.16349596 0.1168952 -0.0073258798 0.1268545 0.021877216 0.1719761 -0.15410507
-0.0025932104 0.20142739 -0.08674887 0.109734066 -0.05197401 0.088250466 -0.049610876 0.053866033
0.1576031 0.1563006 -0.16096438 -0.1752278 0.034791168 -0.09511317 -0.22496884 -0.12246944
0.29691964 0.015017613 -0.05472702 0.030882306 -0.12823762 0.079239726 -0.14514334 -0.022298202
-0.07711426 0.073141105 0.069103554 0.10533381 -0.093672834 0.18375978 -0.07490361 0.06449731
0.08913329 0.06958971 0.09891814 0.043986633 0.12442509 0.093082644 -0.04574922 0.05983002
-0.2173412 -0.0072879004 -0.044839416 -0.09915919 -0.29158267 0.031054078 0.042325616 0.066340394
0.005159405 -0.08528195 -0.078235395 -0.06826981 -0.015629238 0.15532804 -0.04519471 -0.044376694
-0.05402286 -0.15067601 -0.111184254 0.010601888 -0.011289261 -0.025593692 -0.11327299 0.041902173
0.04273874 -0.22287454 0.18899979 0.03275928 0.20561431 0.09193446 0.35017917 -0.16042908
0.19232723 0.105465546 0.03566566 -0.1047166 0.1296298 -0.17289858 -0.094827086 0.062875114
0.21650518 0.18510161 -0.009313177 0.14855738 0.12159452 0.11799091 -0.12209769 -0.016502995
0.017802164 -0.016844198 -0.1986738 -0.08850657 0.019414987 0.033756852 -0.11145607 0.08989417
-0.051183634 0.052576512 0.10848261 -0.008161117 0.053218063 -0.048964202 0.095311545 0.11794332
0.07618036 0.181495 -0.20362704 0.06916845 0.015310984 0.06641835 0.16623622 -0.32269737
0.086698696 0.0556048 -0.070205756 -0.025924884 0.0015765151 -0.12063743 -0.025218746 0.003641626
0.14683156 0.046166297 -0.04314423 -0.12571222 -0.050058708 -0.20935419 -0.13486506 0.033842117
-0.05498793 0.1424465 0.011886848 -0.040216934 -0.1057305 -0.013223335 0.22367062 -0.022373572
0.20756923 0.17801732 0.14520638 0.11764443 -0.08271013 -0.035022117 9.627446e-05 -0.078615844
-0.038019925 0.011550065 -0.06011304 0.20229496 0.15929979 -0.18328099 0.1426969 -0.079644315
-0.000989797 0.025823843 0.083704 -0.11843819 0.0006484293 -0.025325054 -0.10362635 0.016453112
0.055024125 -0.12633227 -0.039736766 0.13796672 -0.020688482 -0.0068569924 -0.06488889 0.052957352
-0.06640857 0.049855955 -0.14168563 0.26415846 0.06653333 0.07802508 0.10485603 0.0053194216
0.027270943 -0.20409696 0.00017549255 0.038067523 0.1435919 0.033575274 0.19217776 -0.023259396
0.12983802 -0.14835133 -0.18902919 0.32916534 0.09954965 -0.10346439 -0.10869681 0.036905296
0.15932961 -0.048461154 -0.041797403 0.07631068 -0.04599882 0.070308015 0.06237788 -0.12185697
0.04500545 -0.04899014 0.03845547 -0.100150414 0.18018521 0.17777215 -0.03760318 0.14880988

conv3.bias f4 [32]
00000000: c918 19bc c85f 8f3c ad78 b2bc f9e3 bbba
00000010: 5f35 ef3b 75be e8bc cb9d 783c 51cf 273d
00000020: b7d0 4c3c 0bb8 0fbc 489e 633b d92d 0d3c
00000030: 8447 31bd c03d 943b 0d08 043c 9e04 0ebd
00000040: a3d0 533c 081e 1ebc 08aa 823c 8104 09bd
00000050: 1d75 11b9 abc6 c5bb 125f 1d3b 6d22 35bc
00000060: 4e54 3bbc 6c9d 4e3c 33ea 293c 2d62 8fbc
00000070: 5aed 68bc 2ce8 cbbc 1bc1 0cbd aa31 9cbc
-0.009344288 0.017501727 -0.021786058 -0.0014334909 0.0073000635 -0.02841113 0.0151743395 0.040969197
0.012500933 -0.008771907 0.0034731794 0.008616888 -0.043281093 0.0045239627 0.00805856 -0.034672372
0.012928161 -0.009650715 0.015950218 -0.03345156 -0.00013871906 -0.006035646 0.0024012965 -0.011055571
-0.011433674 0.0126107745 0.010370779 -0.017502869 -0.014216745 -0.024890982 -0.034363847 -0.01906665

bn3.weight f4 [32]
00000000: a2f6 763f b2a0 783f 9ad0 783f e842 7a3f
00000010: cf85 773f 7884 7d3f 8f62 6c3f 3ffe 7c3f
00000020: 2c48 833f 752d 813f d89d 723f a03c 823f
00000030: b6a7 843f 02c1 783f 85fd 833f 2d90 853f
00000040: c1d0 793f ad41 843f 464b 763f 596b 893f
00000050: 0c15 873f dbfa 7c3f e0b5 7e3f fcde 783f
00000060: cc7d 763f 9be7 793f 252b 7c3f 15da 793f
00000070: faed 7f3f 16b4 783f 419c 883f e07a 823f
0.9647008 0.971202 0.971933 0.9775834 0.9668855 0.99030256 0.9233789 0.9882545
1.02564 1.0091997 0.947721 1.0174751 1.0363681 0.97169507 1.0311743 1.0434624
0.9758416 1.0332543 0.9620861 1.0735885 1.0553298 0.98820275 0.9949627 0.9721525
0.962857 0.97619027 0.98503333 0.9759839 0.999725 0.9714979 1.0672685 1.0193748

bn3.bias f4 [32]
00000000: a728 873b 7f9b d33c 8acc adbc 8b5c ddbc
00000010: b44b c7bb 7e99 8dbd c3f8 afbb bf26 47bc
00000020: 90ba 513b e16e 5c3c 23a7 893c ece7 e83b
00000030: d095 a43c cf34 d5bb d0fd 13bd ff82 1c3c
00000040: ee90 f3bb 501b 5a3c b18f 89bc 7b07 59bc
00000050: d965 23bd c8ba b43b 6dfd 40bc a52c a4bb
00000060: 715a 013d 8c08 b3bc f7e3 35bc a6fa cfbc
00000070: 4b2c 6cbc 1f25 9c3c 43c5 9ab9 14b2 88bc
0.004124719 0.025830982 -0.021215696 -0.027021667 -0.0060820226 -0.06914042 -0.005370231 -0.012155234
0.003200207 0.01345417 0.01680333 0.0071077254 0.020090967 -0.0065065394 -0.036130726 0.009552716
-0.0074330484 0.013312176 -0.01679215 -0.013246412 -0.03989205 0.00551543 -0.011779171 -0.005010205
0.031580392 -0.021854661 -0.011101714 -0.025388073 -0.014414857 0.01906067 -0.0002952014 -0.016686477

bn3.running_mean f4 [32]
00000000: 0b65 0a3f 2aa8 083f 6f9d 1a3f 2df9 013f
00000010: 2070 f53e 9c61 0e3f 5b11 193f 7614 4b3f
00000020: b037 173f ac9a e13e 198d 343f d7aa 093f
00000030: cb85 f63e 7825 de3e 13e1 0a3f 92b5 133f
00000040: 3b18 543f d6fa 093f 6581 413f e9ac e93e
00000050: 8b96 ec3e 599b 233f 1132 4b3f b519 ce3e
00000060: 21ae 613f a3d0 0f3f 2a93 bf3e 86d7 d73e
00000070: 2c5d 0a3f 4f75 0e3f db63 e63e 6c29 113f
0.5406043 0.533816 0.60396475 0.5077084 0.47937107 0.5561769 0.5979211 0.79328096
0.5906935 0.44063318 0.705278 0.53776306 0.4814895 0.4338796 0.54249686 0.5769893
0.8284947 0.5389837 0.75588065 0.45639732 0.46208605 0.63908917 0.7937327 0.40253988
0.88156325 0.5617773 0.37416965 0.4215662 0.5404842 0.5564775 0.4499806 0.5670383

bn3.running_var f4 [32]
00000000: 3967 2b3f e226 9e3f af84 393f 5f56 5e3f
00000010: fd4b db3e 59bb 4b3f 7c4b 313f 8e26 823f
00000020: efa0 9a3f cd5d 0e3f 30e2 2c3f 3a29 023f
00000030: 3194 0b3f e8a3 c43e b2c6 1a3f 1d61 5b3f
00000040: f3fa 503f dc1b 4a3f b995 c33f 6104 133f
00000050: 5655 063f 8642 923f f907 0540 a317 cd3e
00000060: 9a13 7c3f 8885 693f 3f13 dd3e 9000 1d3f
00000070: eb05 963f 8e45 5f3f 5395 083f a625 973f
0.6695438 1.2355616 0.72468084 0.8685054 0.42831412 0.79582745 0.69255805 1.0168016
1.2080363 0.5561188 0.67532635 0.50844157 0.54523 0.384063 0.60459435 0.8569506
0.8163292 0.7894876 1.5280067 0.57428557 0.5247396 1.1426551 2.0786116 0.40057096
0.9846741 0.9121938 0.43178746 0.61328983 1.1720556 0.8721551 0.5335285 1.1808364

conv4.weight f4 [64, 32, 3, 3]
00000000: 69fc 16bd 27b2 ea3d 4615 6fbd 7e5a 613c
00000010: 9dae 713c d64d 153d 54ae a93d 7f0b be3d
00000020: 5e7e a3bd 49ae 9f3d b37d acbd 9d1e 1c3d
00000030: 5a9e 02be 13d1 8ebc 69c7 d7bd 48c0 a6bd
00000040: 798b 0c3d 76f6 fbbd 0e91 c83c 9ea2 993c
00000050: 8965 cdbd c315 9dbd 2a17 4dbb 4b8f 073e
00000060: 9937 92bd bca3 713c 7c0b 7ebd 1a84 d03d
00000070: 1e62 82bd 854f 0d3d 6f49 183e ff60 5a3c
00000080: 8639 bbbc ce77 0bbd a7ae c93c 12e6 b23c
00000090: 1a83 f4bc 49fe 033d 6458 5e3d f454 883d
000000a0: de9c 363c bce4 c6bb 4c7e d63d 4c1c e5bd
000000b0: d376 cb3d 4835 16be 1a20 c4bd ec5e 37bd
000000c0: 5125 78bd 3a6b 443d 8ebf 93bd 6881 a3bc
000000d0: e63c fc3d d258 a9bd 91cb 203d 3dfc 19bc
000000e0: 6cad 21be a5f9 e43d 9a04 3b3c 588d 4e3c
000000f0: 647e 6bbd 63ff e9bd 008f 9e3c 3156 9b3d
00000100: 54c1 8a3d 210a 383d b9df a43c b342 55bd
00000110: 3b32 9b3d 8bc3 043e 5f67 fc3d 81e2 063e
00000120: 371e a13c f60f debd 9e8e 8fbd a686 e53d
00000130: 532c 313c 7833 5f3c 9871 cebc edc5 b5bd
00000140: da5d b5bb 1451 6dbd dbeb b23d a870 24be
00000150: 19b7 6d3d d57c bb3d 5154 c13d 6ee1 fcbd
00000160: 6f2e be3c f91c 98bc 0484 b73c 2ea1 c43c
00000170: e496 0f3d 78eb 3bbd 745e 6d3d bf1d 683d
00000180: a3cc 99bd d40b 1b3e d2e0 e0ba 827c 033e
00000190: 27da 8f3d 6411 5cbd 16ae a0bc 667b 7b3d
000001a0: bccb 673d d8d5 dabd 6f70 8b3d 601e aabc
000001b0: 964a 94be e55f 26bd 5fd5 dd3c 4be1 743b
000001c0: 1c6a b1bc 208e 45be a0fb bebb 7908 2dbd
000001d0: 4636 d53d 3899 d9bd a333 0b3d acf1 2a3b
000001e0: 54ab 3bbe d128 c1bd 588f e5bb 883d 13be
000001f0: 9bb6 6b3d ab99 fc3c a721 03be bf4c 01be
00000200: 0a33 893b 26b1 f6bb 1afa 8d3c e3bb f83d
00000210: 3d6f 963d 8ea8 c53b 6013 963d 6e49 48be
00000220: d49a 4fbc 1270 6ebd ec0b 90bd 206c 813d
00000230: 22a9 63bd 481f 593c 1342 a3bd eda2 23bd
00000240: 5910 943d 00db 10bd 57bd 093e 6927 cfbd
00000250: 5190 32bc beb9 e3bc 4f8e 8f3c b167 d83d
00000260: 8448 e9bb a96f 17be e8e0 dbbb 11ff 8abd
00000270: 54ca e43c a8da e43c 3393 be3d a46c 96bc
00000280: 0bd6 55bd cde7 07bc f9c6 31bd 5509 34bd
00000290: 7577 acbd b7d3 133e 708d 813d 3abf b4bd
000002a0: 1f0a 7a3d f5d3 3bbd 0631 52bd c952 823d
000002b0: 8497 1d3e 6058 1e3e 5baa bcbd 3082 eebd
000002c0: 90e6 b03d 2329 1e3e f4b9 083e 2fef 253e
000002d0: c06a 5b3d 1255 c63d 6641 16bd 7c90 6d3d
000002e0: a395 21bb 0b8f 80be 823c 58bd ca51 7c3d
000002f0: cc36 6dbc ba55 e83d 0fb7 9dbc c9e2 933d
00000300: b930 0abd 7a15 e23d 3e63 e43c 9b4c dfbd
00000310: 70e9 a2bd d59a 16be 4ecb cf3c b680 133e
00000320: fb96 753b 02d2 43bd ae04 e13d d901 a1bd
00000330: 24dd efbd a0f1 3c3d dc04 8b3d 8056 873d
00000340: ea01 8d3d 86a2 65bd 2ae1 acbd 038c b13d
00000350: 345e 6b3d 9e2b 473d b0de a93d 296f c7bd
00000360: ea7b 6a3d ca0c 733d 1dc9 563d 9360 d93c
00000370: 2755 8abc 6fbf 2ebd 6312 9c3d a937 213d
00000380: 4715 d73d 0fa1 fbbd d0bc 6cbb a0a7 14bd
00000390: ad70 e1bc 6653 0a3e cdd6 a0bc 80f2 5bbd
000003a0: c632 8c3d 8189 f9bc e242 4bbd 2d99 b03d
000003b0: 3b00 273c 2f24 223e 3397 4b3d c725 75bd
000003c0: 2605 67bd a4f5 67bc d6a8 073d e3b6 f23d
000003d0: 6d8c 2cbd ac49 8abb d193 2cbd 978d 67bd
000003e0: 0778 c3bc 99f8 6ebd 27e6 273d 4594 543c
000003f0: 771e a4bd bc4e c93c 3830 a73c fc90 bcbd
-0.03686181 0.11459761 -0.058369897 0.013754485 0.014751104 0.036451183 0.082852036 0.092795365
-0.07983087 0.07796914 -0.08422413 0.038115133 -0.12755719 -0.017433679 -0.10536081 -0.081421435
0.0343127 -0.12302868 0.02448323 0.0187543 -0.10029132 -0.07670166 -0.0031294324 0.13238256
-0.07139511 0.01474851 -0.06202267 0.101814464 -0.063663706 0.034499664 0.14871763 0.01332879
-0.022854578 -0.0340498 0.024619414 0.021838222 -0.02984767 0.032224927 0.054283515 0.066568285
0.0111457985 -0.0060697477 0.10473308 -0.11187038 0.09934773 -0.14668763 -0.095764354 -0.04476826
-0.060582463 0.04795382 -0.072142705 -0.019959167 0.12316303 -0.08268894 0.039256636 -0.009398517
-0.15788811 0.111804284 0.011414671 0.012606941 -0.057493582 -0.11425664 0.019355297 0.07584799
0.06775156 0.044931535 0.02012621 -0.052065562 0.0757794 0.12965219 0.12324404 0.13172342
0.019667728 -0.10842888 -0.07009624 0.11207323 0.01081379 0.013623111 -0.02520065 -0.08875642
-0.0055348696 -0.05793865 0.08736392 -0.160586 0.058035944 0.09154669 0.0943991 -0.12347685
0.0232155 -0.018568503 0.022401817 0.024002638 0.03505601 -0.045878857 0.057951406 0.056668993
-0.075097345 0.15141231 -0.0017156845 0.12840465 0.07024031 -0.053727522 -0.01961426 0.06139698
0.05659078 -0.10685319 0.068085544 -0.020766437 -0.28963155 -0.040618796 0.027079282 0.003736573
-0.021657042 -0.19292498 -0.005828336 -0.04224441 0.104107425 -0.10624927 0.03398479 0.002608399
-0.18327075 -0.09431613 -0.0070056133 -0.14378941 0.057547193 0.030834993 -0.12805806 -0.12626933
0.0041869925 -0.007528442 0.017331172 0.121452115 0.07345436 0.006032056 0.07327914 -0.19559261
-0.012671191 -0.058212347 -0.07033524 0.06319451 -0.05558122 0.013252087 -0.07971587 -0.0399503
0.072296806 -0.035365105 0.13451134 -0.10114939 -0.0108986655 -0.02779853 0.017523913 0.105666526
-0.0071192402 -0.14788689 -0.0067101605 -0.06786931 0.027928509 0.027936295 0.0930542 -0.01836235
-0.05220608 -0.008295012 -0.043402646 -0.043954212 -0.08421222 0.14436232 0.06325805 -0.08825536
0.06104481 -0.045856435 -0.051316284 0.06363446 0.1538983 0.154634 -0.0921218 -0.11645925
0.08637726 0.1544538 0.13352185 0.16204523 0.0535686 0.096841946 -0.036683463 0.05799912
-0.002465584 -0.25109133 -0.05279208 0.061601438 -0.014478397 0.11344476 -0.019252328 0.0722099
-0.03373787 0.110392526 0.027879354 -0.10903283 -0.07954681 -0.14707501 0.025365498 0.14404568
0.0037474025 -0.0478077 0.10987221 -0.078616805 -0.11712101 0.04612887 0.06788036 0.066082954
0.06885131 -0.056063198 -0.08441384 0.08669283 0.057462886 0.04862558 0.082944274 -0.09737999
0.05724708 0.05933837 0.05243789 0.026535308 -0.016886307 -0.042663034 0.076206945 0.039359722
0.10502105 -0.12286579 -0.0036123283 -0.036292672 -0.027519548 0.13508376 -0.019633675 -0.053698063
0.06845622 -0.030461075 -0.04962433 0.08622966 0.010192926 0.15834115 0.04970474 -0.05985048
-0.056401394 -0.014157686 0.03312 0.11851289 -0.042126108 -0.004220208 -0.042133156 -0.056531515
-0.023860944 -0.05834255 0.040990975 0.012974803 -0.08013623 0.024573676 0.020408735 -0.09207341

conv4.bias f4 [64]
00000000: 8128 b93c 8c1d 773b 5826 e7ba c390 11bb
00000010: 7a4d fb3b 736f 0c3c dab1 833c bc9f c63c
00000020: e83a 33ba 14ec 063d 5245 97bb 90b0 8a3c
00000030: 5071 96bc 77f1 1cbc 9f4c 0e3d ba38 9a3b
00000040: a3e6 0bbd 21ae 30bc c36c 863c 954a 1d3c
00000050: 820d 533d da63 a43b 9209 c4bc 35b9 c03c
00000060: 6630 043d 9a06 f03b 7a4a 2fbd 1116 873a
00000070: 264a 953c 50fa 96bc b8a1 dbbb 01d1 1cbb
00000080: a1df 273d 354d 573d 5321 a23b 00bc 73bc
00000090: 3487 003d 3832 0d3d 1e0b 693d 54b6 1b3d
000000a0: 154d bd3c ad27 e2bc 0841 ac3a e48c 2f3d
000000b0: f0f9 83bc b8da 943b 6983 d3bc bc58 693d
000000c0: 6757 13bc 868b c9bc 10a1 363b 0895 ad3c
000000d0: bf7a 9dbb 335d 293d 6690 bd3c 883d 1dbb
000000e0: 625e 813c 31c2 323c 3848 66bc ecf7 4e3d
000000f0: 44db 3e3d 14b3 3bbc af03 383d daf9 9d3c
0.022602322 0.003770682 -0.0017635329 -0.002221153 0.007669148 0.008571493 0.016076017 0.02424609
-0.0006837086 0.032939985 -0.004616418 0.016929895 -0.018364578 -0.009579054 0.03474104 0.0047064694
-0.0341555 -0.010783703 0.016409284 0.009600301 0.051526554 0.005016786 -0.023930345 0.023525814
0.03227272 0.0073250057 -0.042795636 0.0010306259 0.018223833 -0.018429905 -0.006702628 -0.0023928287
0.040984754 0.052563865 0.00494782 -0.014876366 0.03137894 0.03447172 0.056895368 0.03801568
0.023108045 -0.02760681 0.0013141939 0.042858973 -0.01611039 0.004542675 -0.025819497 0.05696939
-0.008993006 -0.024602663 0.0027866997 0.021189228 -0.0048058922 0.041348647 0.023140144 -0.0023992974
0.015792076 0.010910557 -0.014055304 0.050529405 0.046595827 -0.01145627 0.044925388 0.019284178

bn4.weight f4 [64]
00000000: 0a15 8a3f 6978 893f 56dd 823f 631f 863f
00000010: c5d8 833f 12fe 883f 2960 873f 9ffa 853f
00000020: 7527 853f 3075 8c3f b902 863f 68be 863f
00000030: 534a 833f 31a2 823f b3e6 893f c4c3 7e3f
00000040: f481 843f 7a9c 813f 19de 873f 0ec0 8b3f
00000050: dfe8 843f cfad 813f 7e10 843f 6195 8c3f
00000060: 48f1 883f f455 7f3f ae19 863f 8eae 893f
00000070: 489e 8c3f f731 833f 78df 853f 09e4 813f
00000080: 52c6 893f 0112 8b3f 22b7 843f 30fb 833f
00000090: ba5d 863f cdbc 813f 3dc9 8b3f c2b3 8b3f
000000a0: 6902 843f e78c 843f 3a71 863f 1f45 8b3f
000000b0: 3d64 853f 9118 873f 3819 823f 1938 8b3f
000000c0: fa47 833f 1f18 8a3f cc13 833f 4d48 8e3f
000000d0: b47e 823f 4e89 863f 0ddb 7c3f 2692 873f
000000e0: 05fa 893f 5294 893f 9097 813f fc41 8a3f
000000f0: abd6 8c3f 1256 883f 7c72 8f3f eeec 863f
1.0787671 1.0739871 1.0223796 1.0478328 1.0300528 1.0702536 1.0576221 1.0467108
1.0402666 1.0973263 1.0469581 1.0526857 1.0257057 1.0205747 1.0773529 0.99517465
1.0352159 1.0125878 1.0614654 1.0917985 1.0383567 1.0131167 1.0317533 1.0983087
1.0698633 0.9974053 1.0476587 1.0756395 1.0985804 1.0249623 1.0458822 1.0147716
1.0763648 1.0864869 1.0368388 1.0311031 1.0497353 1.0135742 1.0920788 1.0914233
1.0313236 1.03555 1.0503304 1.0880469 1.0421215 1.0554372 1.0163946 1.0876495
1.025634 1.0788611 1.0240417 1.1115814 1.0194917 1.0510652 0.98771745 1.0591476
1.0779425 1.0748389 1.0124378 1.0801387 1.1003011 1.0651267 1.1206813 1.0541055

bn4.bias f4 [64]
00000000: 3c31 fdbd 4314 e13d 3a4e e7bd 4603 fcbd
00000010: c844 fdbd 2ed4 00be 0541 dcbd 6740 0a3e
00000020: b2ab 0c3e 45f6 e63d 9dde ddbd 9cdc f9bd
00000030: 495a fe3d 26f4 ed3d 581c 023e f3dc 98bd
00000040: f4be c7bd e8a5 b83d 9ed5 c9bd 52d2 fdbd
00000050: 8b5a ff3d 7279 fe3d 32d3 f4bd cdb1 0e3e
00000060: cdbb f13d b7aa ecbd df7d e1bd 3668 bcbd
00000070: 2eb2 04be 7f14 043e 4c1c 0c3e 7589 f7bd
00000080: 8ca7 023e 9f31 053e b4a1 f5bd 0019 f33d
00000090: 8a7b b93d d8cd 0d3e 8e4f e7bd 8bdf cebd
000000a0: 8345 f3bd 133c cabd 5d25 9a3d 5ef6 fb3d
000000b0: 57d2 abbd 7392 f8bd 2d07 09be 8412 033e
000000c0: 6697 e2bd f4e7 fbbd 5287 d83d b74f 063e
000000d0: f224 ff3d fd23 0f3e f85c 05be 687b ad3d
000000e0: 765e e5bd 588d 093e 535b fb3d 494f eb3d
000000f0: c258 913d a17f f6bd e222 04be d22d f83d
-0.12362906 0.10990193 -0.112942174 -0.12305312 -0.123666346 -0.1258094 -0.10754589 0.1350113
0.13737372 0.11277441 -0.10833476 -0.12200281 0.12419564 0.11618833 0.12706125 -0.07464018
-0.09753218 0.09016019 -0.09855197 -0.12393631 0.124684416 0.124255076 -0.11954345 0.13935013
0.11803398 -0.11555999 -0.11010336 -0.09199564 -0.12958595 0.12898444 0.1368267 -0.12086765
0.12759227 0.1300721 -0.11993733 0.11870003 0.09056766 0.13848054 -0.11294471 -0.10101231
-0.11878493 -0.098747395 0.07526658 0.1230285 -0.083897285 -0.12137308 -0.13381644 0.12800032
-0.11064033 -0.12300101 0.10572685 0.13116346 0.12458219 0.13978572 -0.13023746 0.084708035
-0.111996576 0.13432825 0.12273278 0.11489732 0.07097007 -0.12036062 -0.12903932 0.121181145

bn4.running_mean f4 [64]
00000000: 71ee 503f 95cd 1b3f 42a3 e33e 51a1 443f
00000010: f551 293f 8e70 183f c844 1a3f fe15 093f
00000020: d325 363f db18 4a3f ae0e dc3e 2ff2 263f
00000030: 7347 023f 5a39 0e3f 0789 263f aed9 ef3e
00000040: d874 053f f947 053f 5965 173f 450f 543f
00000050: ea15 2d3f 152a db3e 2199 de3e d270 213f
00000060: 61b6 0b3f 5c19 0e3f 98da f63e d427 fa3e
00000070: 6590 633f 3bd3 f13e c5e0 1d3f 5fd0 1f3f
00000080: ee38 2d3f adb2 1b3f ba65 3b3f 3803 073f
00000090: 6a37 373f 9031 0c3f a2c9 2a3f 6822 0a3f
000000a0: ff27 083f 129e b93e 9e5e 0d3f 14cc 2c3f
000000b0: cc62 303f 47e1 233f a025 1b3f 65e9 0c3f
000000c0: 02cf 063f 2a07 7d3f f1de 523f d465 0b3f
000000d0: 3d5c 0c3f bf33 463f 281e 1b3f fc3e 263f
000000e0: c5bf 813f 1534 1f3f 08af 0f3f af8d 463f
000000f0: 94ce 633f 5ca5 163f 3ed9 613f 7aa5 263f
0.8161383 0.6086057 0.44460493 0.7680865 0.6614068 0.59546745 0.602612 0.5354918
0.71151465 0.78944176 0.4297995 0.6521329 0.5089027 0.5555626 0.6505284 0.46845764
0.52131414 0.52062947 0.5913902 0.828358 0.67611563 0.42805544 0.43476203 0.63062775
0.54575163 0.55507445 0.4821365 0.4885851 0.88892204 0.4723147 0.61671096 0.62427324
0.6766499 0.6081951 0.732021 0.52739286 0.7156893 0.54763126 0.6671392 0.5395875
0.5318603 0.3625341 0.552225 0.674989 0.6890075 0.6401562 0.60604286 0.5504363
0.5265962 0.98839056 0.8237143 0.5445225 0.54828244 0.7742271 0.6059289 0.64939857
1.0136648 0.62188846 0.5612645 0.7755994 0.8898709 0.5884607 0.8822211 0.6509625

bn4.running_var f4 [64]
00000000: 2cb1 983f 230a 803f bb32 2f3f c79a 933f
00000010: 16b5 723f dc1e 4b3f db2b 903f f4b0 4a3f
00000020: 376a 563f fb4e a43f 131e 3b3f d3ae 3a3f
00000030: 9ada 223f bec2 333f cb56 863f 5a2f 3a3f
00000040: 2e1f 543f 2711 5f3f 8cf1 233f 74b5 8a3f
00000050: 6b35 673f f22e e23e 48f1 2b3f ecc8 7b3f
00000060: 247c 4a3f c3e4 663f 950f 303f 1e8b 493f
00000070: 4441 9c3f 2f79 523f 9a11 8c3f 273f be3f
00000080: 3d48 893f 8cc4 763f 44c5 4a3f 3f1c 353f
00000090: a594 443f 5672 123f 1068 943f 3025 6c3f
000000a0: d133 133f e8cd e33e d71c 633f 215f 933f
000000b0: ed0e a63f dcb1 6a3f 5479 a13f 97dc 313f
000000c0: bea0 393f b1fe d23f 6aff 953f eb7c 623f
000000d0: c036 513f 3e26 683f e57e 233f 5ef4 2c3f
000000e0: 3826 b73f 04f9 8d3f cb30 a63f d4a0 8c3f
000000f0: 0faa a13f 5118 773f 0db9 a13f 50a2 8b3f
1.1929069 1.0003093 0.68436784 1.1531609 0.94807565 0.7934396 1.1263384 0.7917626
0.8375582 1.2836603 0.73092765 0.7292301 0.6361481 0.7021903 1.0495237 0.727285
0.82860076 0.8713555 0.64040446 1.0836625 0.90315884 0.4417644 0.6716504 0.9835346
0.79095674 0.9019281 0.68773776 0.787279 1.2207417 0.8221616 1.0942872 1.4863023
1.072517 0.96393657 0.79207253 0.70746225 0.76789314 0.5720571 1.1594257 0.92244244
0.5750094 0.44493032 0.8871588 1.1513406 1.2973305 0.9167764 1.2615151 0.6947722
0.725109 1.6483976 1.1718571 0.8847186 0.81724167 0.9068335 0.638655 0.67560375
1.4308538 1.1091619 1.298364 1.0986581 1.2630023 0.9652148 1.2634598 1.0908909

lin.weight f4 [10, 64]
00000000: a678 14be 36f8 4a3e 81ac 47be 0adc 2abc
00000010: 019d ddbd aaaf b3bd aa5d c4bd dd56 df3d
00000020: 32ba 943d f433 993d 88ed dbbd e727 2dbe
00000030: 8e5c 353e 02f0 4a3e 1e4a 323e dbec c4bd
00000040: 6939 47be e5df ef3d e087 4cbe 20fc 2ebe
00000050: 4bf9 c5bc dda4 bf3d 22e6 60bb 4ea4 c93d
00000060: c30f 843d 5946 02be 497c 413c 1868 973d
00000070: 15d3 3bbe 1df9 2b3e 477b 123e 5f63 24be
00000080: 137b 3d3e a5e1 0d3e 1d8e 3dbe dc9d 543e
00000090: a7d1 2ebb 4e3e c03d 9836 d7bd a8d7 973a
000000a0: f4cc 37be ca7e 2cbe c2bf ccbd e84a 2b3e
000000b0: d65d adbd 3304 48bd 89de bdbd 1e7a 423e
000000c0: c32a 8ebd 7903 20be 6849 be3d 99b2 4a3e
000000d0: 26db 483e f6c0 cabb 258f dabd 94ae af3d
000000e0: f95a a0bd 6e26 50bc 67bc c23d 2bbf d53d
000000f0: 9dee cf3c 95d9 b6bd a89e 3abe 750e 4c3e
00000100: 9b21 32be 67ec a9bd 2fe9 b63d b49f 12be
00000110: 7287 f4bd 4113 35be 8e6f 653d f47a 3fba
00000120: 5094 f6bc 1118 24bd f2a8 ba3d d2ac c0bc
00000130: db9c c0bb 1789 b9bd 1782 693d f982 b73d
00000140: bbb7 9f3d 6704 783d 0b0a 03be b057 33be
00000150: 23f4 2e3e b703 0ebc 1978 fabd 3e94 42bd
00000160: f166 093e 9f93 c33d 6df3 3cbe 8064 893c
00000170: 2ff7 4cbd fdf1 8ebc 858b a93c 6749 86bc
00000180: 9e48 323e 7842 0f3e dcc9 0ebe d98c 2fbd
00000190: 723d 1ebd ee68 1a3e 6456 fabc 055d 953d
000001a0: 0aff 14be 2c93 f53d 06c0 3d3e 85c4 843b
000001b0: 88bb f43d 25c1 af3d ad95 83bd 76a3 223e
000001c0: 0a97 df3d 92d4 27be 42fb a3bd 2faf 8b3c
000001d0: bea2 ebbb 58a4 da3d a802 08be 6d0a e5bd
000001e0: d3de 03bd 57ba e53d c891 163e cd3c b43d
000001f0: 583a 663d 6641 483d 080f c7bd 35d1 df3d
00000200: 4236 463e 6160 4bbe f481 c4bd 76bc ecbb
00000210: 9604 c23d fa74 443e 5829 a5bc 678b 87bd
00000220: 9175 093d b6fc 203e d525 8bbd 3f32 5f3d
00000230: b882 1bbd c209 533d beb4 bcbd 113f 96bd
00000240: 5d1b b73d f36f 0a3b 4a63 543e d1fb 423e
00000250: d116 b53d b5c7 27be 692c 20be d4a2 113e
00000260: cbd1 e7bd 9d60 713c 014c 8d3d bce4 24be
00000270: c554 213e 5b09 8abd 5947 a5bd 0004 0bbd
00000280: 5261 2bbc 05de 04be 07b6 c73d d581 033c
00000290: 966d 923d 0ed6 753d 5c04 2dbe bdd9 aabd
000002a0: f3ef cb3d 875a 063e 22da 0d3d 4cf0 53be
000002b0: ccf6 7f3d 039d b1bd eec3 9bbd 7647 74bd
000002c0: f8c3 cdbd 3ae7 383d 1834 043e b7b8 1fbe
000002d0: c24d a7bc ace2 f63c 3b7b 9bbd 9e9a 72bd
000002e0: 2cec 3c3e ddb1 09be 1be3 01be e5d9 1b3e
000002f0: 1f6d 393e e9aa 92bd c07a 0e3e 07ac 1cbd
00000300: ae47 c03c 5831 7abd d1aa 9fbc 86ad c7bd
00000310: 8b9b a53d 8fd8 543d 37e1 3e3d e25b 63bc
00000320: 1d9e a7bd 6578 c6bc 810a a13c 68c8 e0bd
00000330: 10a1 76bd 32d1 e63d 6229 02bd 33b8 cf3d
00000340: 65f1 373d cd9f b4bd 6e64 763d 80d2 273c
00000350: 8896 0c3d 33d6 bbbd ad34 c5bd 1713 c13a
00000360: 9393 113d 7cb0 70bd e74c 603c 891a 44bd
00000370: 2e27 cfbd 6e17 cd3b 310c 9c3d 145b b53c
00000380: 78ad 203d 952e d6bb 678e 2e3d 32b7 d93d
00000390: bc8e fabd b3ec bf3d 6bec a53c 9563 813c
000003a0: c086 9a3d 7bcb 003d 4f59 123e 727f 163e
000003b0: e8f2 e13d 016a efbd a302 403d 4adc e93d
000003c0: 341f f4bd b381 12be d13e b83d 5cfe da3d
000003d0: be0d e4bb 8b24 cdbb a9a6 b5bd 4fc4 283c
000003e0: 4212 29be 8b03 17bc 0151 043e ec0c 0bbd
000003f0: fb49 02be 6921 bebd d78a 22bd e247 3a3c
-0.14499149 0.19821247 -0.19499399 -0.010428438 -0.10820962 -0.0877374 -0.095881775 0.1090524
0.072620764 0.074806124 -0.10738665 -0.16909753 0.17711088 0.19818118 0.17411086 -0.09615489
-0.19455494 0.11712626 -0.19973707 -0.17088366 -0.024166724 0.09357617 -0.0034316857 0.09845792
0.06448319 -0.12722148 0.011809417 0.07392901 -0.1834224 0.16794248 0.14304839 -0.16053532
0.1850398 0.13855608 -0.18511243 0.20763344 -0.0026675256 0.09386884 -0.1050846 0.0011584656
-0.17949277 -0.16845241 -0.099975124 0.16727793 -0.084651634 -0.04883213 -0.09270961 0.18991897
-0.0694175 -0.15626325 0.09291345 0.19794692 0.19614848 -0.0061875535 -0.10671834 0.0857822
-0.07829852 -0.012704475 0.09508591 0.10436853 0.025382334 -0.08928219 -0.18224585 0.1992739
-0.17395632 -0.08297043 0.08931195 -0.14318734 -0.11939897 -0.17683126 0.05601459 -0.0007304393
-0.030100018 -0.040062014 0.09114255 -0.023519907 -0.0058780736 -0.09059351 0.05700883 0.08960528
0.07798716 0.060551073 -0.127968 -0.17513919 0.17085318 -0.008667878 -0.12229938 -0.047504656
0.13418175 0.09549641 -0.18452235 0.016771555 -0.05004042 -0.017449373 0.02069641 -0.016392423
0.17410514 0.139902 -0.1394419 -0.042858932 -0.038632818 0.1507909 -0.030558772 0.07293133
-0.14550415 0.119909614 0.18530282 0.0040517473 0.11949831 0.08581761 -0.06425033 0.15882668
0.1091748 -0.16389683 -0.08006908 0.017051307 -0.0071910312 0.10675877 -0.13282263 -0.11183629
-0.032194924 0.11217182 0.14704049 0.08800659 0.056207985 0.048890494 -0.09719664 0.10928575
0.19356635 -0.19860984 -0.09595099 -0.0072246147 0.09473531 0.19185248 -0.020161316 -0.06618386
0.033559386 0.15721402 -0.06794325 0.054491278 -0.03796646 0.051522978 -0.09214161 -0.07336248
0.08940766 0.0021123856 0.20741001 0.19041373 0.088422425 -0.16384776 -0.15641941 0.1422227
-0.11319312 0.014732507 0.06899262 -0.1610288 0.15754993 -0.06740066 -0.08070249 -0.03393936
-0.010460215 -0.12975319 0.09751516 0.00802656 0.07149808 0.06001859 -0.16896194 -0.083423115
0.09957876 0.13120471 0.034631856 -0.20697135 0.062491223 -0.08672526 -0.0760573 -0.059638463
-0.10047144 0.04514239 0.12910497 -0.15597807 -0.02042282 0.030137382 -0.07591864 -0.059229486
0.18449467 -0.13446756 -0.1268429 0.15219839 0.18108033 -0.07161505 0.13914013 -0.038249996
0.02347168 -0.061082214 -0.019490631 -0.09749894 0.08086308 0.05196434 0.0466015 -0.013876887
-0.081844546 -0.02422733 0.019658329 -0.109757245 -0.060212195 0.112703696 -0.031777747 0.10142555
0.044907946 -0.08819542 0.06015437 0.010243058 0.034323245 -0.09171715 -0.09629188 0.0014730421
0.03554113 -0.05876206 0.01369021 -0.04787687 -0.10114895 0.0062588966 0.07619513 0.022138156
0.039227933 -0.0065363147 0.042616274 0.10630645 -0.12234256 0.09371319 0.020254334 0.015794555
0.07545233 0.031444054 0.14291881 0.14697054 0.11032659 -0.116901405 0.046877515 0.1141897
-0.11920014 -0.14307289 0.08996356 0.106930465 -0.006959646 -0.00626046 -0.088696785 0.01030071
-0.16510871 -0.009217153 0.12921526 -0.03394787 -0.12723534 -0.09283716 -0.03968319 0.011369677

lin.bias f4 [10]
00000000: c03e 063e fdae 133e e6f9 d13c 1fdf da3d
00000010: 0266 ae3d ca2f fcbc af10 293c 36ed 52be
00000020: 5dd5 00be 98a6 04bd
0.13109875 0.14422221 0.025631856 0.10687088 0.0851555 -0.030784506 0.010318919 -0.20598301
-0.12581392 -0.03238544
