NCC_Code/models/2022-08-14_17-20-44_model.pt (torch, 115275 bytes, 50 tensors)

conv1.weight f4 [8, 2, 5, 5]
0	0x3ebd2765	0.36944118
1	0x3e77d4ff	0.24202345
2	0xbe321b98	-0.17393339
3	0xbe2ec505	-0.17067344
4	0xbdb5773f	-0.08860635
5	0x3ceee701	0.029162886
6	0xbe16e87a	-0.1473712
7	0xbdb61197	-0.08890074
8	0xbe1054e8	-0.14094889
9	0xbdc96372	-0.09833421
10	0x3da514a8	0.080605805
11	0x3eb1ba5e	0.347125
12	0xbd3e2827	-0.04642501
13	0xbe8e58c3	-0.27802095
14	0x3e42d389	0.19026007
15	0x3e2605fe	0.16213223
16	0x3e88d1ad	0.2672247
17	0x3ef12211	0.47096303
18	0x3d50ecec	0.051007196
19	0xbea64d3e	-0.32480806
20	0x3e464eba	0.1936597
21	0x3e2b4789	0.16726507
22	0x3e8d6c88	0.27621865
23	0x3eb04e9f	0.34434983
24	0xbcdc0e4d	-0.026862288
25	0x3d98bf84	0.07458404
26	0x3d95c239	0.07312436
27	0xbdeaa4c9	-0.114572115
28	0xbe7fe04f	-0.2498791
29	0xbeafe662	-0.34355456
30	0xbe4e148b	-0.20125024
31	0xbd534c8b	-0.05158667
32	0x3d79a54d	0.06094866
33	0xbed412da	-0.41420633
34	0xbf1283ef	-0.57232565
35	0x3ec72dd6	0.38902158
36	0x3e3046af	0.17214464
37	0xbd76cf15	-0.060256083
38	0x3e944de4	0.28965676
39	0x3ac938df	0.0015352032
40	0x3d816451	0.06317962
41	0x3e193724	0.1496244
42	0x3e1fb8ad	0.15597792
43	0xbe8f169b	-0.27946934
44	0xbe048eb0	-0.12945056
45	0x3ecc4b50	0.3990121
46	0x3eaa11d6	0.33216733
47	0x3e1ab55b	0.15108244
48	0xbd92bf92	-0.071654454
49	0xbe256483	-0.16151623
50	0xbdfa9337	-0.1223511
51	0xbd831a5c	-0.06401512
52	0xbde9e281	-0.11420155
53	0xbec1c291	-0.37843755
54	0x3d519f7c	0.051177487
55	0xbde11953	-0.10991158
56	0xbe656b8b	-0.22404306
57	0x3e3fffe4	0.18749958
58	0x3de6b687	0.11265283
59	0xbea644b4	-0.3247429
60	0x3e3b6cd9	0.18303241
61	0x3ceac801	0.028659822
62	0xbd00a814	-0.03141029
63	0xbe531a55	-0.20615514
64	0x3e42af6d	0.19012232
65	0x3df67049	0.120331354
66	0x3e9688ee	0.29401344
67	0x3e218485	0.15773208
68	0xbddc3dd1	-0.10753978
69	0x3e4fcc36	0.20292744
70	0x3da627ed	0.08113084
71	0x3f27353a	0.6531559
72	0x3f453614	0.7703564
73	0x3f1c8329	0.61137635
74	0xbe0d870c	-0.13821048
75	0x3d7db723	0.06194223
76	0xbe977b05	-0.29586044
77	0xbeaf6425	-0.34256092
78	0xbccd1d15	-0.025038281
79	0xbeed84a4	-0.4639026
80	0xbc5d1f00	-0.0134961605
81	0x3d21e2d5	0.039522965
82	0xbdbc7861	-0.09202648
83	0xbeafea19	-0.3435829
84	0x3d1d8b20	0.038462758
85	0xbe0141af	-0.12622713
86	0x3c4d07fc	0.012514111
87	0xbe12ee96	-0.14348826
88	0x3e1a0768	0.15041888
89	0xbe6a9a8d	-0.22910519
90	0xbdd1f95b	-0.10252639
91	0xbd88b5a5	-0.06675271
92	0x3e71391b	0.2355694
93	0x3ebe9cf2	0.37229115
94	0x3ddab979	0.10679907
95	0x3e4e7fc6	0.20165929
96	0x3e797a29	0.24363007
97	0xbe23c41e	-0.15992782
98	0x3e788628	0.24269927
99	0x3f250d89	0.6447378
100	0xbefd031b	-0.49416432
101	0xbf027356	-0.5095724
102	0xbe0648fc	-0.13113779
103	0x3e047482	0.12935069
104	0x3ed8e0bb	0.42358956
105	0xbddfd6ce	-0.109296426
106	0xbec60117	-0.38672706
107	0x3eaafa59	0.33394125
108	0xbcdf57c4	-0.02726353
109	0x3dc61253	0.09671464
110	0x3d10b3bc	0.035327658
111	0xbe1bf26a	-0.15229192
112	0xbe464b91	-0.19364764
113	0xbce88fdc	-0.02838891
114	0xbe4bd0b3	-0.19903831
115	0xbf085e53	-0.5326893
116	0xbe247018	-0.16058385
117	0x3e05f5d1	0.13082053
118	0x3e8c06a8	0.27348828
119	0x3df79afd	0.120901085
120	0xbea3519c	-0.318982
121	0xbe383adf	-0.17991208
122	0xbe145e9d	-0.14489217
123	0x3e0acaac	0.13553876
124	0x3ed840ec	0.4223703
125	0xbe411c05	-0.18858345
126	0xbd3cd6d8	-0.04610333
127	0x3dbaa33b	0.09113165
128	0x3cb166db	0.02165549
129	0xbc91d628	-0.017802313
130	0xbef5688c	-0.47931325
131	0xbd149e7c	-0.036283955
132	0x3e1371d6	0.14398894
133	0x3eb3b5d1	0.35099652
134	0x3de1da3a	0.110279515
135	0xbf2c32dc	-0.67265105
136	0xbed9daf1	-0.42549852
137	0xbd976344	-0.0739198
138	0xbe561077	-0.20904718
139	0x3e94277e	0.2893638
140	0xbda2bc1a	-0.07946034
141	0xbe984396	-0.29739064
142	0xbe3e3165	-0.1857353
143	0x3e421ca8	0.18956244
144	0xbcd4a314	-0.025956668
145	0x3e0bcca9	0.1365229
146	0xbe59c850	-0.2126782
147	0xbe34d64d	-0.17659874
148	0x3d5c70bb	0.053818446
149	0x3e4e4752	0.20144394
150	0xbe56dca2	-0.20982602
151	0xbdfc7ef8	-0.12328905
152	0x3e678f4b	0.22613256
153	0x3de1252e	0.109934196
154	0x3c937e35	0.018004516
155	0x3d9ec9c6	0.07753329
156	0x3ee87332	0.45400387
157	0x3e03e792	0.12881306
158	0x3ed5a17a	0.4172476
159	0x3e766cfe	0.24065015
160	0xbe88ac0e	-0.26693767
161	0x3e32bcbf	0.17454813
162	0x3b362f6c	0.0027799262
163	0xbe29b6aa	-0.16573587
164	0x3ce695ed	0.028147662
165	0xbcf38169	-0.029724794
166	0xbe04b0c3	-0.12958054
167	0xbe43bc8e	-0.19114897
168	0xbde7c0ff	-0.11316108
169	0xbe85ec71	-0.26156953
170	0xbe00e535	-0.12587436
171	0xbe01c617	-0.12673222
172	0x3c7a7d08	0.015288599
173	0x3d33bea7	0.043882992
174	0x3e51fc65	0.20506437
175	0x3dee1dec	0.11626801
176	0x3e05472a	0.13015428
177	0xbe2c6c06	-0.16838083
178	0xbd9b1ce8	-0.07573873
179	0xbb91d63a	-0.0044505866
180	0x3edb6b2b	0.428552
181	0x3e606355	0.21912892
182	0x3efd7efa	0.49510938
183	0x3e92ba24	0.2865764
184	0x3cb22960	0.021748245
185	0x3e2c21ae	0.16809723
186	0xbe35ac27	-0.17741452
187	0xbd0bcf55	-0.034133274
188	0x3d98c696	0.07459752
189	0xbdcb2cd4	-0.0992066
190	0xbd5728de	-0.05252921
191	0xbd97690b	-0.07393082
192	0x3c3dae6e	0.011577232
193	0xbe2f5e2b	-0.17125766
194	0x3d5c193c	0.053735003
195	0x3d3339cc	0.04375629
196	0x3b6c99db	0.0036102447
197	0xbdc12c98	-0.09432334
198	0xbe54a07b	-0.20764343
199	0xbecbf057	-0.39831802
200	0xbd821811	-0.063522466
201	0xbd895c83	-0.06707098
202	0xbda165d0	-0.07880747
203	0x3cb89589	0.022532241
204	0xbeb25093	-0.34827098
205	0xbe473dfb	-0.19457237
206	0xbd20e6b0	-0.0392825
207	0xbdcb9879	-0.09941191
208	0xbec97765	-0.39348903
209	0xbef7517d	-0.48304358
210	0xbe12db5a	-0.14341488
211	0xbdb6217b	-0.08893105
212	0xbe461794	-0.19344932
213	0xbe8cf683	-0.27531824
214	0x3dcd3390	0.100196004
215	0xbe139636	-0.1441277
216	0xbcdc5bf4	-0.026899315
217	0xbd04352c	-0.03227727
218	0xbd9dbe8b	-0.07702359
219	0x3d1ec071	0.038757745
220	0xbe87d8fe	-0.2653274
221	0x3e160e84	0.14653975
222	0xbcd653b1	-0.026162954
223	0xbd158f6e	-0.03651374
224	0xbe2db03c	-0.1696176
225	0x3d6173f3	0.05504222
226	0xbe8f21ac	-0.27955377
227	0xbeabc9f6	-0.3355252
228	0xbeda602c	-0.42651498
229	0x3e59220a	0.21204391
230	0x3e1bd966	0.1521965
231	0xbe1b487d	-0.15164371
232	0xbe84f98f	-0.25971648
233	0x3c469ff1	0.012123094
234	0x3dd465b1	0.103709586
235	0x3e2263e5	0.15858419
236	0xbd36291d	-0.044472802
237	0xbd4dafe8	-0.050216585
238	0xbd7a4ac2	-0.06110645
239	0xbe1a6483	-0.15077405
240	0x3e313e68	0.17308962
241	0xbe62c4ab	-0.22145335
242	0xbde2db47	-0.1107698
243	0xbcd23c33	-0.02566347
244	0xbe803281	-0.2503853
245	0x3de9f274	0.114231974
246	0xbeaed45a	-0.34146386
247	0xbe2d9d81	-0.16954614
248	0xbe1ca06b	-0.1529557
249	0xbcd65b9a	-0.026166726
250	0x3f0cf3e9	0.5505968
251	0x3f20dd6c	0.6283786
252	0x3ebde874	0.3709141
253	0x3eb728e4	0.35773385
254	0x3e102eca	0.14080349
255	0xbce28610	-0.027651817

conv1.bias f4 [8]
0	0xbd53ff1c	-0.051756963
1	0xbe6083c7	-0.21925269
2	0x3bf3563d	0.007426052
3	0xbf12c409	-0.57330376
4	0x3eccf1c9	0.40028217
5	0xbec94b0d	-0.39315072
6	0xbe6c4ec8	-0.23076928
7	0xbedb3771	-0.42815736

bn1.weight f4 [8]
0	0x3f376dac	0.7165172
1	0x3f835930	1.0261593
2	0x3f09fe12	0.53903306
3	0x3f9c90bf	1.2231673
4	0x3f5fb018	0.8737807
5	0x3f840013	1.0312523
6	0x3f82c132	1.0215209
7	0x3f94238b	1.1573347

bn1.bias f4 [8]
0	0xbe4a5071	-0.19757248
1	0xbe801e20	-0.25022984
2	0xbeaf1519	-0.34195784
3	0xbe8718bf	-0.26386067
4	0xbde3c054	-0.11120668
5	0xbd3d7d14	-0.046261862
6	0xbd9965c9	-0.07490117
7	0xbe70250a	-0.2345163

bn1.running_mean f4 [8]
0	0x3f3f93f0	0.7483511
1	0x3f0b10b8	0.54322386
2	0x3f8c166e	1.0944345
3	0x3e7a02da	0.2441515
4	0x3fbbf719	1.4684783
5	0x3ee65486	0.4498636
6	0x3f24af55	0.64330035
7	0x3ef77d90	0.48337984

bn1.running_var f4 [8]
0	0x402a1411	2.6574748
1	0x40043481	2.0657046
2	0x400f2307	2.236513
3	0x3ef93dc9	0.4867995
4	0x3fa45b21	1.284031
5	0x3fac647a	1.3468163
6	0x4031f644	2.7806559
7	0x3fdbc170	1.7168407

conv2.weight f4 [16, 8, 3, 3]
0	0x3e4478bd	0.19186683
1	0x3ce77c12	0.028257404
2	0x3d023b01	0.03179455
3	0xbe66bc67	-0.22532807
4	0x3e4ee3d8	0.20204103
5	0xbcd25905	-0.025677213
6	0x3e8fc271	0.28078035
7	0x3e926664	0.28593743
8	0x3deab2ea	0.114599064
9	0xbd88a9e3	-0.06673028
10	0x3dfa682e	0.12226902
11	0x3cf0aefe	0.029380318
12	0xbe0e6683	-0.13906293
13	0xbe52a35e	-0.20570132
14	0xbe4fda35	-0.20298083
15	0x3dd73353	0.10507836
16	0x3c7c3b63	0.015395018
17	0x3e6e1161	0.23248817
18	0xbe312e4a	-0.17302814
19	0xbe0c1cee	-0.13682911
20	0x3d534ac4	0.051584974
21	0x3e708705	0.23489006
22	0x3e120540	0.14259815
23	0xbc6b0249	-0.014343807
24	0xbe5e7aba	-0.21726504
25	0xbd19bbe5	-0.037532706
26	0xbe5dedcc	-0.21672744
27	0xbc847ed3	-0.016173756
28	0xbda31cbb	-0.07964464
29	0xbe02bd97	-0.12767635
30	0x3e8ef719	0.27922896
31	0x3e5abeb5	0.21361811
32	0x3e97c269	0.2964051
33	0xbf01cf74	-0.50707173
34	0xbe828582	-0.25492483
35	0xbe885fd0	-0.266356
36	0xbe36a66a	-0.1783692
37	0xbb89097a	-0.004182038
38	0x3d77e2f2	0.060519166
39	0x3cab3e99	0.020903872
40	0xbc968e27	-0.01837833
41	0xbe8caf93	-0.27477702
42	0xbde00e36	-0.109402105
43	0xbd9c92b4	-0.07645169
44	0xbec0c51e	-0.37650388
45	0x3cb1deca	0.02171268
46	0xbdb61655	-0.08890978
47	0x3d32fa06	0.043695472
48	0x3c421780	0.011846423
49	0xbe205a16	-0.15659365
50	0xbdfc9a2e	-0.12334095
51	0x3dbd6ab5	0.092488684
52	0xbd582823	-0.052772652
53	0x3ea78192	0.32716042
54	0x3d17f2ed	0.037096906
55	0x3d3e1ee8	0.046416193
56	0x3dcd2cb2	0.100182906
57	0x3e4a57a5	0.19759996
58	0x3dc36c11	0.095420964
59	0xbde05f18	-0.10955638
60	0xbd15d660	-0.036581397
61	0xbdec2527	-0.11530524
62	0xbe967779	-0.29388025
63	0x3e3faec6	0.18719015
64	0xbdb57680	-0.08860493
65	0x3cbcc8c3	0.02304495
66	0xbd133521	-0.03593934
67	0x3d6a2b5a	0.05717025
68	0x3e34ae23	0.17644553
69	0x3e36d836	0.17855915
70	0x3ea879bc	0.32905376
71	0x3e0d5277	0.13800989
72	0xbca297fe	-0.019847866
73	0xbe312043	-0.17297463
74	0xbd7d7525	-0.061879296
75	0xbe03fb02	-0.1288872
76	0x3e106612	0.14101437
77	0x3d4703c4	0.048587576
78	0xbc8fff57	-0.01757781
79	0xbd6048d2	-0.054756947
80	0xbd3ca1f1	-0.046052877
81	0xbea06dd6	-0.31333798
82	0xbe6c2e92	-0.2306464
83	0xbe272f6a	-0.16326681
84	0xbdcf1490	-0.10111344
85	0xbe87be8f	-0.26512572
86	0xbd3cd194	-0.046098307
87	0x3e70f60e	0.23531362
88	0x3d9ffc33	0.07811775
89	0x3e11022f	0.14160989
90	0x3df025e2	0.117259756
91	0xbeb7bae1	-0.35884765
92	0x3c990998	0.018681332
93	0xbe811645	-0.25212303
94	0x3d99330e	0.07480441
95	0x3d137941	0.03600431
96	0x3d4f47e3	0.050605666
97	0x3d85d0e2	0.06533982
98	0xbdc389d3	-0.09547772
99	0xbdb699a6	-0.08916025
100	0xbe5f4cac	-0.21806592
101	0xbe67facd	-0.22654267
102	0xbeb98055	-0.36230722
103	0xbede69f4	-0.4344021
104	0xbf1267fa	-0.57189906
105	0x3cdc5da9	0.02690013
106	0xbbf5f780	-0.007506311
107	0x3d2fe2f5	0.042941052
108	0xbd8ec66a	-0.06971438
109	0xbeae5b15	-0.34053865
110	0xbe82a764	-0.25518334
111	0x3d98cf10	0.07461369
112	0xbe34628e	-0.1761572
113	0x3e387ee5	0.18017156
114	0x3d3f18d8	0.046654552
115	0x3ee699fd	0.4503936
116	0xbe4cfa8a	-0.20017448
117	0xbcfa45ac	-0.0305508
118	0xbd62ce6d	-0.055372644
119	0xbe6cad0f	-0.23112892
120	0xbdf5fa63	-0.12010648
121	0xbc057a81	-0.008146883
122	0xbc9c1829	-0.01905449
123	0x3e1c99ea	0.15293089
124	0xbd76b7d6	-0.060233913
125	0x3ba9933e	0.0051750233
126	0xbe1d0bea	-0.15336576
127	0xbe89e8b2	-0.26935345
128	0xbcd04ba9	-0.025426703
129	0xbe208c39	-0.1567849
130	0xbe355619	-0.17708625
131	0xbe5516a2	-0.20809415
132	0x3e539616	0.20662722
133	0xbe892302	-0.2678452
134	0xbd500517	-0.050786104
135	0xbe20a43c	-0.1568765
136	0xbe7ef75e	-0.2489905
137	0xbdccab6c	-0.09993634
138	0xbe997617	-0.29972908
139	0xbe8de922	-0.2771693
140	0xbdce9f0d	-0.1008893
141	0x3e11b3cc	0.14228743
142	0x3d270b03	0.040781986
143	0xbd7c7d9c	-0.061643228
144	0xbce5dd78	-0.028059706
145	0x3dc48e66	0.09597473
146	0x3d486a73	0.048929643
147	0xbd84737b	-0.06467339
148	0x3d571538	0.05251047
149	0x3e148046	0.14502057
150	0x3e83cc1e	0.25741667
151	0x3edd12f6	0.4317853
152	0x3de89f06	0.11358456
153	0xbb1a3536	-0.0023530251
154	0xbe4c71eb	-0.19965331
155	0xbebfcd5f	-0.37461373
156	0x3df729fb	0.12068554
157	0x3dc55e38	0.096371114
158	0xbd923b9f	-0.07140278
159	0x3e9f266b	0.31083998
160	0x3dd0b814	0.1019136
161	0x3ea00d3d	0.312601
162	0xbdb54dd8	-0.08852738
163	0xbdef56ee	-0.116865024
164	0xbe246e38	-0.1605767
165	0xbd19bbee	-0.03753274
166	0x3dc25390	0.094885945
167	0xbdfae4a0	-0.12250638
168	0xbec1b4c1	-0.37833217
169	0xbeb339d7	-0.35005066
170	0xbe386ebc	-0.18010992
171	0xbddf7dfe	-0.10912703
172	0xbe669a62	-0.2251983
173	0xbe89ee61	-0.2693968
174	0xbdca0975	-0.09865085
175	0xbbb2aa88	-0.005452458
176	0xbdc46b00	-0.09590721
177	0xbe95e059	-0.29272726
178	0xbe3e8f2a	-0.186093
179	0xbe9f521d	-0.31117335
180	0xbe9442e8	-0.28957295
181	0xbe9ef3a5	-0.3104526
182	0xbe88cafa	-0.2671736
183	0xbe13f719	-0.14449729
184	0x3e4efd65	0.2021385
185	0x3d567138	0.052354068
186	0xbed67514	-0.418862
187	0x3d163fc8	0.03668192
188	0x3d8cf598	0.06882781
189	0x3e197593	0.14986257
190	0x3e0df985	0.13864715
191	0xbe89903a	-0.2686785
192	0xbe07358e	-0.13204023
193	0xbe021b30	-0.12705684
194	0xbe6f5e3e	-0.23375794
195	0x3e1958e7	0.1497532
196	0xbdac2769	-0.084059544
197	0xbd2e8c88	-0.04261449
198	0x3e265d1a	0.16246453
199	0xbbc8e3c4	-0.0061306674
200	0xbeb3daba	-0.35127813
201	0xbde891d6	-0.11355941
202	0xbec01758	-0.3751781
203	0xbe8304ff	-0.2558975
204	0x3decbaf8	0.11559099
205	0xbdb1ad38	-0.08675617
206	0x3d755532	0.0598957
207	0xbc95da21	-0.018292489
208	0x3c0071a6	0.007839596
209	0xbe7b7440	-0.24556065
210	0x3c21b846	0.009870594
211	0xbe09e6ed	-0.13466997
212	0xbe51eb6a	-0.2049996
213	0xbd19c221	-0.03753865
214	0xbdf5b55f	-0.119974844
215	0xbe2112a0	-0.15729761
216	0xbd608822	-0.054817326
217	0xbe02287c	-0.12710756
218	0x3e77d0f7	0.24200808
219	0x3dd8fb8c	0.10594854
220	0xbe4cc486	-0.19996843
221	0xbe71409a	-0.235598
222	0xbe5736b9	-0.21016969
223	0xbe18b005	-0.14910896
224	0x3d968d88	0.07351214
225	0xbe89dc29	-0.2692578
226	0x3dab7148	0.08371216
227	0x3db2ef2f	0.08737027
228	0x3e8751ad	0.264295
229	0x3e8e5e21	0.2780619
230	0x3cbc1688	0.022959962
231	0xbd6eb209	-0.058275256
232	0xbccd3688	-0.025050417
233	0xbd245994	-0.04012449
234	0xbe70e58b	-0.23525064
235	0xbe7c3591	-0.24629809
236	0x3dd0f137	0.10202258
237	0x3d105753	0.03523953
238	0x3dcf6053	0.10125794
239	0xbe1976e4	-0.1498676
240	0xbe6be3d9	-0.23036136
241	0xbcf1a12e	-0.029495802
242	0x3eba3480	0.3636818
243	0x3d016eb2	0.031599708
244	0x3dcdc787	0.100478224
245	0x3d05a496	0.032627665
246	0x3e6f5b38	0.23374641
247	0x3e5808c9	0.21097101
248	0x3dfcd168	0.123446286
249	0xbd355049	-0.04426602
250	0xbd885b1c	-0.06658003
251	0xbe361e7a	-0.17785063
252	0x3dac57b4	0.084151655
253	0xbe18bd02	-0.14915851
254	0x3dd5aba1	0.10433126
255	0xbd17452e	-0.03693121

conv2.bias f4 [16]
0	0xbd5fb00e	-0.05461126
1	0x3e4d2f6e	0.20037624
2	0x3e4080f3	0.1879919
3	0xbe4383f9	-0.19093312
4	0xbac94a3a	-0.0015357204
5	0x3e948466	0.29007262
6	0xbed5cc66	-0.41757506
7	0x3cbee4d1	0.023302468
8	0x3db197d0	0.08671534
9	0xbe99e60f	-0.30058333
10	0xbe2ab356	-0.16669974
11	0xbea7770e	-0.3270802
12	0xbecee6e7	-0.4041054
13	0xbe930fba	-0.28722936
14	0xbeda578d	-0.4264492
15	0xbdef4553	-0.116831444

bn2.weight f4 [16]
0	0x3f783029	0.96948487
1	0x3f4f51db	0.80984277
2	0x3f76fd3d	0.9648016
3	0x3f5f49cd	0.87221986
4	0x3f78f53b	0.9724919
5	0x3f26d5f0	0.6517019
6	0x3f506145	0.8139842
7	0x3f930a89	1.148759
8	0x3f2f5a78	0.6849742
9	0x3f866724	1.0500226
10	0x3f62e6c9	0.886334
11	0x3f8f320b	1.1187147
12	0x3f659c78	0.8969188
13	0x3f952ea5	1.165486
14	0x3f720ce1	0.945509
15	0x3f8121ca	1.0088437

bn2.bias f4 [16]
0	0xbc179ac7	-0.00925321
1	0x3f2d766e	0.67758834
2	0x3e8952bc	0.26820934
3	0xbd15969a	-0.036520578
4	0x3e797b19	0.24363364
5	0xbe84b311	-0.25917867
6	0xbefd9520	-0.49527836
7	0x3ec86c1d	0.39144984
8	0x3f2dd975	0.6790994
9	0xbdbe5f4a	-0.09295519
10	0xbea18947	-0.31550047
11	0xbeb0f2ae	-0.3456015
12	0x3e3f1e65	0.18663938
13	0xbe901410	-0.28140306
14	0xbc900901	-0.017582418
15	0x3e658b93	0.22416525

bn2.running_mean f4 [16]
0	0x3f117a5b	0.56827325
1	0x401c82f8	2.4454937
2	0x3fe79caf	1.8094691
3	0x3e819d6a	0.2531541
4	0x3fa860ca	1.3154538
5	0x3fd00316	1.6250942
6	0x3dfc5eff	0.123228066
7	0x3f1453a5	0.5794013
8	0x400450c5	2.0674298
9	0x3ea87bb7	0.32906887
10	0x3f63044a	0.8867842
11	0x3e4ed92b	0.2020003
12	0x3e9e0161	0.30860427
13	0x3f1057ef	0.56384176
14	0x3e22b95b	0.1589102
15	0x3e3b921f	0.1831746

bn2.running_var f4 [16]
0	0x40072091	2.1113627
1	0x3fbf1db1	1.4930936
2	0x3fbebea3	1.4901928
3	0x3f1b1746	0.6058239
4	0x3fd0cf99	1.6313354
5	0x3f755062	0.9582578
6	0x3e64087e	0.22268865
7	0x40903b6b	4.507253
8	0x3fdce253	1.7256569
9	0x3fee9178	1.8638144
10	0x4114bcd6	9.296103
11	0x3faa77de	1.331783
12	0x3f6145e9	0.879973
13	0x3fe0171a	1.750705
14	0x3ee7bf65	0.4526321
15	0x3f57f513	0.8435833

conv3.weight f4 [32, 16, 3, 3]
0	0x3d01a44c	0.031650826
1	0x3d4b75c2	0.04967285
2	0x3d97554d	0.07389317
3	0x3d875e4e	0.06609784
4	0x3cbc037c	0.02295088
5	0xbc227f87	-0.0099181
6	0xbe04d9b0	-0.12973666
7	0xbd91888d	-0.07106123
8	0xbd720a9a	-0.05909214
9	0x3de5a573	0.112131976
10	0x3de82d2f	0.11336743
11	0xbcf0776f	-0.029353825
12	0xbd858efa	-0.06521411
13	0xbe5038c6	-0.20334157
14	0xbe75f055	-0.2401746
15	0xbe0fc2c1	-0.14039136
16	0xbd6bb17c	-0.05754231
17	0xbe7e9855	-0.24862798
18	0xbe196333	-0.14979248
19	0x3b890de7	0.0041825655
20	0xbd4fb004	-0.05070497
21	0x3d0b5efc	0.03402613
22	0x3def8316	0.116949245
23	0x3e4cb84f	0.19992183
24	0xbead5d3b	-0.33860192
25	0xbc97444b	-0.018465182
26	0xbe432204	-0.19055945
27	0xbd66a60b	-0.056310695
28	0xbe088cd1	-0.13334967
29	0xbe062c59	-0.13102855
30	0xbdd4dd32	-0.10393752
31	0x3df2aa74	0.118489176
32	0xbdcb13ea	-0.09915908
33	0x3dbce21d	0.09222815
34	0xbe26290b	-0.16226594
35	0xbdedaacd	-0.11604843
36	0xbdd65edc	-0.10467312
37	0xbe2b31df	-0.16718243
38	0xbe2870ad	-0.16449232
39	0xbc91ecd4	-0.017813124
40	0xbe544c67	-0.2073227
41	0x3987cc5c	0.00025901466
42	0xbe23400f	-0.15942405
43	0xbecd71b2	-0.40125805
44	0xbe406690	-0.18789124
45	0xbd8987d2	-0.06715359
46	0xbe1f574c	-0.15560645
47	0xbd729d88	-0.059232265
48	0x3c9e1689	0.019297855
49	0xbd8d16c5	-0.068891086
50	0xbdba94a8	-0.09110385
51	0xbda3c75a	-0.07997008
52	0xbde78ed8	-0.11306542
53	0xbdf04406	-0.117317244
54	0x3d6a5f34	0.0572197
55	0x3d95edde	0.0732076
56	0x3e28b650	0.16475797
57	0xbd4994f8	-0.049214333
58	0xbea734a0	-0.32657337
59	0xbe629033	-0.2212532
60	0x3d94b4ae	0.072610244
61	0xbd824c5c	-0.06362221
62	0xbe204960	-0.1565299
63	0xbe8a4f9d	-0.27013865
64	0xbe823534	-0.25431216
65	0xbe06ae14	-0.13152343
66	0xbc39c03c	-0.011337336
67	0xbe71489d	-0.23562856
68	0x3d8a329e	0.06747936
69	0x3e53eff7	0.20697008
70	0x3df41a9b	0.11919137
71	0x3e6e420e	0.23267385
72	0xbded2b69	-0.115805455
73	0xbdb0651d	-0.08613036
74	0xbe9e5bf1	-0.3092952
75	0xbd557448	-0.052112848
76	0xbcf2e636	-0.029650789
77	0xbd8ce9b4	-0.06880513
78	0xbdddd6d0	-0.10831988
79	0x3d2eb040	0.042648554
80	0xbe0e2a99	-0.13883437
81	0xbeb30eee	-0.34972328
82	0xbdbb6d89	-0.091517515
83	0x3e07e71f	0.1327176
84	0xbce889cf	-0.028386025
85	0xbde91b92	-0.11382212
86	0x3cee9c99	0.029127406
87	0x3dad0a97	0.084492855
88	0x3e1601e0	0.14649153
89	0x3e307c1d	0.17234845
90	0xbda7f443	-0.08200886
91	0xbe0765c8	-0.1322242
92	0xbd3cd7e8	-0.04610434
93	0xbe9eddcd	-0.31028596
94	0xbe2e8d8d	-0.17046185
95	0xba282f81	-0.000641577
96	0xbba54a66	-0.0050442694
97	0x3c334f42	0.0109441895
98	0x3c73cc99	0.014880323
99	0x3d13e462	0.036106475
100	0xbc9a146f	-0.018808572
101	0xbc4a2965	-0.012338971
102	0x3ed1f188	0.41004586
103	0x3ea6cde2	0.3257895
104	0x3e4fa469	0.20277561
105	0xbc4b3112	-0.012401836
106	0x3ebfe12a	0.37476474
107	0x3e9b8887	0.303776
108	0x3e7c39e3	0.24631457
109	0x3e1de0f5	0.15417846
110	0xbc9c22d8	-0.019059584
111	0x3e033d0a	0.12816253
112	0xbd21c98b	-0.039498847
113	0x3db66749	0.08906419
114	0xbe3a1dc1	-0.18175413
115	0xbe4856ed	-0.1956441
116	0xbe6f5ea8	-0.23375952
117	0xbc8c0cec	-0.017096005
118	0x3d9f81d2	0.07788433
119	0x3d901bbb	0.07036539
120	0xb7b39f02	-2.1412507e-05
121	0x3d0d96f7	0.0345678
122	0x3ea76e30	0.32701254
123	0x3d94ad1b	0.0725958
124	0xbcb5c61e	-0.022189196
125	0xbd105e4e	-0.035246186
126	0xbeeeca21	-0.46638587
127	0x3c245497	0.010029933
128	0x3d8eb654	0.0696837
129	0xbe521bad	-0.2051837
130	0xbde3e592	-0.111277714
131	0x3ba84895	0.0051356056
132	0x3b764f31	0.0037583823
133	0x3df30cc1	0.11867667
134	0x3cc74574	0.02432511
135	0xbc1a0d04	-0.009402517
136	0x3e1f78d6	0.15573439
137	0x3cb4c18e	0.02206495
138	0xbe5cbe2f	-0.21556924
139	0xbe2d9dbb	-0.169547
140	0xbd98df3f	-0.07464456
141	0x3d45ad52	0.048260994
142	0xbe38e658	-0.18056619
143	0xbe1284ba	-0.14308444
144	0x3dc4c269	0.09607393
145	0xbdb492fc	-0.088170975
146	0x3c090ed4	0.008365352
147	0xbdc814d5	-0.097695984
148	0x3c7ec27d	0.015549299
149	0xbd6f367e	-0.058401577
150	0xbd83011a	-0.063966945
151	0xbdfebc7f	-0.124382965
152	0xbe0837c4	-0.13302523
153	0xbb9c2249	-0.0047648293
154	0xbdfb71c5	-0.12277559
155	0xbe7cf274	-0.24701864
156	0x3d3ef1dd	0.046617378
157	0x3d90df7b	0.070738755
158	0x3a4cfea7	0.00078199286
159	0x3dc57950	0.09642279
160	0x3e18d86e	0.14926311
161	0x3c5c2f68	0.013439037
162	0xbd9cfbb0	-0.07665193
163	0xbe9c97bc	-0.30584514
164	0xbe939fb0	-0.2883277
165	0x3e5a9652	0.21346405
166	0x3e301e51	0.17199065
167	0x3d1145ed	0.035467077
168	0xbc07d723	-0.008291039
169	0xbcea2c01	-0.028585436
170	0x3def1fb9	0.116759725
171	0xbe95ad74	-0.29233897
172	0xbe690a6b	-0.2275788
173	0xbe4f8191	-0.2026427
174	0xbd09e3e5	-0.033664603
175	0xbcb5606d	-0.022140706
176	0xbe24f4e0	-0.16109037
177	0x3e8833c7	0.26602003
178	0x3e95ceb9	0.2925928
179	0x3eb83919	0.35981062
180	0x3e4398d4	0.19101268
181	0x3d135d6a	0.03597776
182	0xbe5b0a61	-0.21390678
183	0xbc5c8e24	-0.013461623
184	0xbe17cf21	-0.14825107
185	0xbe69ff0b	-0.22851197
186	0x3e568123	0.20947699
187	0x3e699891	0.22812106
188	0xbcf1091c	-0.029423289
189	0x3dd675e8	0.104717076
190	0x3dd84a37	0.1056103
191	0xbd3fa3d7	-0.04678711
192	0xbcd83902	-0.026394371
193	0x3d8957b2	0.0670618
194	0x3e2378bd	0.15964027
195	0x3dcc34de	0.09971021
196	0x3db4909e	0.08816646
197	0x3e3ca19b	0.18421023
198	0xbd352664	-0.044226065
199	0x3db6b6c2	0.08921577
200	0x3e049a31	0.12949444
201	0xbdf50b90	-0.11965096
202	0x3d127ad9	0.035761688
203	0x3e11269d	0.14174886
204	0x3d0222e1	0.031771544
205	0xbba64fd8	-0.005075436
206	0xbd88bfba	-0.06677194
207	0x3c730ce9	0.014834621
208	0xbd670ed0	-0.05641061
209	0x3e67f7b4	0.22653085
210	0x3e3e8936	0.1860703
211	0x3d978fd2	0.074004784
212	0xbd632efa	-0.055464722
213	0x3e1d1a21	0.15341999
214	0x3dc0e70d	0.094190694
215	0xbe09fdac	-0.13475674
216	0xbe8597e0	-0.26092434
217	0x3c99e7ec	0.018787347
218	0xbe63d42d	-0.22248907
219	0x3d00780a	0.03136448
220	0xbdf64bce	-0.12026177
221	0xbd072ab0	-0.032999694
222	0x3d31c6a3	0.043402325
223	0xbdce82bf	-0.100835316
224	0x3da58531	0.08082045
225	0xbe6bfd55	-0.23045857
226	0x3dd275ae	0.10276352
227	0x3c3ba93c	0.011453923
228	0x3e1221e9	0.14270748
229	0x3e186a26	0.14884242
230	0x3e5aa5d3	0.2135232
231	0xbe87fc66	-0.26559752
232	0xbe9868b6	-0.29767388
233	0xbeab90c3	-0.33508882
234	0x3df78f25	0.120878495
235	0xbd0f0d50	-0.034924805
236	0xbd58c6e4	-0.052924052
237	0x3e28235b	0.16419737
238	0x3d0a7a97	0.033808317
239	0xbd57787e	-0.052605145
240	0x3dab0cfc	0.08352086
241	0x3c909240	0.017647862
242	0x3ceb18b5	0.028698305
243	0x3d982863	0.07429578
244	0xbcd99f3c	-0.026565187
245	0x3ca13ee8	0.019683316
246	0x3cb2cd41	0.021826388
247	0x3e03dcb1	0.12877156
248	0xbc9b4d80	-0.018957853
249	0x3e009a9d	0.1255898
250	0x3df9a4dc	0.121896476
251	0x3eb8a0dd	0.3606023
252	0xbe4dfeae	-0.20116684
253	0xbe3c5bac	-0.18394345
254	0xbebcd3a8	-0.3688023
255	0xbe46fbb4	-0.19431955

conv3.bias f4 [32]
0	0x3d1e3c56	0.03863176
1	0xbe389a63	-0.18027644
2	0xbe649164	-0.22321087
3	0x3d4f1e72	0.050566144
4	0xbe430c12	-0.19047573
5	0xbed8cd56	-0.4234416
6	0xbe9db7c1	-0.30804256
7	0xbecf9727	-0.40545008
8	0xbecfcbd0	-0.40585184
9	0xbe66ca2b	-0.22538058
10	0xbd94fb32	-0.07274474
11	0xbe7a5403	-0.2444611
12	0xbe4b6ca1	-0.19865657
13	0xbd932d16	-0.07186334
14	0xbe7fccf5	-0.24980529
15	0x3d85628e	0.065129384
16	0xbe68dc1d	-0.22740217
17	0xbd98e507	-0.074655585
18	0xbd715e54	-0.05892785
19	0xbe86b511	-0.26310018
20	0xbec1106e	-0.37707847
21	0xbeafd20a	-0.34339935
22	0xbf2ae1c9	-0.6675077
23	0x3da95ced	0.08269677
24	0xbe9ff71f	-0.31243226
25	0xbea4cecb	-0.3218902
26	0xbeaff232	-0.34364468
27	0xbdb4ffcc	-0.08837852
28	0xbde360fd	-0.111024834
29	0xbe5f88fc	-0.21829599
30	0xbe4dd176	-0.20099434
31	0xbec0e31c	-0.3767327

bn3.weight f4 [32]
0	0x3f748308	0.9551244
1	0x3f6d8548	0.92781496
2	0x3f693975	0.911033
3	0x3f7cec47	0.9879803
4	0x3f5c5da2	0.8608037
5	0x3f8b63fd	1.0889889
6	0x3f84636f	1.0342845
7	0x3f8aec21	1.0853311
8	0x3f6d7327	0.92753834
9	0x3f8209f1	1.0159284
10	0x3f56afb3	0.83861846
11	0x3f6a4812	0.9151622
12	0x3f87ec95	1.0619074
13	0x3f4f6ce1	0.8102551
14	0x3f70d4e2	0.94074833
15	0x3f7292c3	0.9475519
16	0x3f668c0e	0.90057456
17	0x3f5d6e43	0.8649637
18	0x3f58ac99	0.84638363
19	0x3f61dfb8	0.8823199
20	0x3f7bea2b	0.98404187
21	0x3f8af03a	1.0854561
22	0x3f8538d0	1.0407963
23	0x3f57251d	0.84041005
24	0x3f79124c	0.97293544
25	0x3f8ac1cd	1.0840393
26	0x3f699315	0.91240054
27	0x3f772b00	0.9654999
28	0x3f846f8a	1.0346539
29	0x3f7e368c	0.9930198
30	0x3f6b2421	0.91852003
31	0x3f91eb5c	1.1399951

bn3.bias f4 [32]
0	0x3e823c6b	0.2543672
1	0x3e0ba004	0.1363526
2	0x3a4721aa	0.0007596264
3	0x3d2b7d3d	0.041867483
4	0xbf0950d0	-0.53638935
5	0x3e19bd9c	0.15013736
6	0x3e9b4202	0.30323797
7	0x3eef9096	0.46789998
8	0xbdf618b2	-0.12016429
9	0x3da7ca94	0.081929356
10	0x3ef7328c	0.48280752
11	0x3e5aae9e	0.21355674
12	0xbc8df193	-0.017327106
13	0xbdd2498f	-0.102679364
14	0x3e2f400d	0.17114277
15	0x3e378629	0.17922272
16	0x3ebcdc86	0.36886996
17	0x3ae1f530	0.0017239209
18	0xbe90e5d5	-0.28300348
19	0x3e465ecc	0.193721
20	0x3e77ef24	0.24212319
21	0x3dad55fc	0.08463666
22	0x3dc3f21f	0.09567665
23	0x3ef94ebb	0.4869288
24	0xbe0dada9	-0.13835777
25	0x3efad1b3	0.48988113
26	0xbd72e056	-0.059295975
27	0x3df7d356	0.12100856
28	0xbb361951	-0.0027786086
29	0x3e3ca1f6	0.18421158
30	0x3bc06d54	0.005872408
31	0x3df73407	0.1207047

bn3.running_mean f4 [32]
0	0x3e5d0643	0.2158442
1	0x3e045d6b	0.12926261
2	0x3f27a1fc	0.65481544
3	0x402ad40d	2.6691926
4	0x3ebf725c	0.37391937
5	0x3cf148e9	0.029453712
6	0x3dea23e5	0.114326276
7	0x3e7b2460	0.24525595
8	0x3e35ce22	0.17754415
9	0x3e7b8dfb	0.2456588
10	0x3f8a4069	1.0800906
11	0x3da469f6	0.08028023
12	0x3e20a9a5	0.15689714
13	0x3deccefb	0.11562916
14	0x3ea29b86	0.3175928
15	0x3f98342f	1.1890925
16	0x3da5351f	0.08066773
17	0x3edfae4e	0.4368767
18	0x3e86fe93	0.263661
19	0x3e89819d	0.268567
20	0x3e1e189f	0.1543908
21	0x3eec4797	0.4614837
22	0x3d8fd820	0.070236444
23	0x3effbb7e	0.49947733
24	0x3e920878	0.28522086
25	0x3e924248	0.28566194
26	0x3e37bafc	0.17942423
27	0x3f0d9b77	0.55315346
28	0x3ebef5dc	0.3729695
29	0x3e907408	0.28213525
30	0x3e09223d	0.13391967
31	0x3e65b7c0	0.22433376

bn3.running_var f4 [32]
0	0x3f4d9aac	0.80314136
1	0x3ef18faa	0.4717992
2	0x40a154d1	5.0416036
3	0x3fdfe351	1.7491246
4	0x3fb43004	1.4077153
5	0x3d952e60	0.07284236
6	0x3ea8ec8e	0.32992977
7	0x3feb36f3	1.8376144
8	0x3f4406ae	0.7657269
9	0x3f79d08e	0.97583854
10	0x3fc17459	1.5113631
11	0x3e8a7449	0.27041844
12	0x3f1ab43c	0.60431266
13	0x3e8318bc	0.25604808
14	0x3faaed98	1.3353758
15	0x3f2c1639	0.6722141
16	0x3e51f4e5	0.20503576
17	0x3fbe052f	1.4845332
18	0x3f73df3f	0.9526252
19	0x3f276635	0.6539033
20	0x3f41e64e	0.7574204
21	0x406076a3	3.507241
22	0x3e5ee174	0.21765691
23	0x3f446aa8	0.76725245
24	0x3f9b4a32	1.2132018
25	0x3fa81e36	1.313422
26	0x3f37e224	0.7182944
27	0x3f42de5b	0.7612054
28	0x40075955	2.1148274
29	0x3f87a950	1.0598545
30	0x3f1413d2	0.57842743
31	0x3f216b4b	0.6305434

conv4.weight f4 [64, 32, 3, 3]
0	0xbc632a05	-0.013864999
1	0xbde73dad	-0.112910606
2	0xbe753e9e	-0.23949668
3	0xbd8a4d9f	-0.06753086
4	0xbc60c114	-0.013717908
5	0x3d59ca74	0.05317159
6	0xbd8f8f09	-0.07009704
7	0xbdf694ab	-0.12040075
8	0xbdeb006d	-0.114746906
9	0xbcc9ad05	-0.024618635
10	0xbc985d83	-0.018599277
11	0xbd7f9ec3	-0.062407266
12	0x3c7e9129	0.015537539
13	0xbc231c5d	-0.009955493
14	0xbd06587d	-0.032799233
15	0x3b496792	0.0030731899
16	0x3d27e80d	0.040992785
17	0x3d95383f	0.07286119
18	0x3e09a13d	0.13440414
19	0x3d35823e	0.04431366
20	0x3c81020a	0.015748043
21	0xbd8c1046	-0.068390414
22	0x3cb2857c	0.021792166
23	0x3a2e10f6	0.00066401006
24	0x3daee7f6	0.08540337
25	0xbd00908b	-0.031387847
26	0xbc600601	-0.013673306
27	0xbe336ea3	-0.17522673
28	0xbe4680a8	-0.19385016
29	0xbe5a7b37	-0.21336065
30	0xbcd43a77	-0.025906784
31	0x3d09e58f	0.03366619
32	0x3d126683	0.035742294
33	0xbc439413	-0.011937159
34	0xbca83773	-0.020534253
35	0xbdd22f2f	-0.10262906
36	0xbd24171a	-0.040061094
37	0x3dabe091	0.08392442
38	0x3d5ce780	0.053931713
39	0x3d0babf6	0.03409954
40	0x3d8f2ffc	0.06991574
41	0x3e41c478	0.18922603
42	0x3e3c07aa	0.18362299
43	0x3e549f62	0.20763925
44	0x3d6856d7	0.056723442
45	0x3dba9997	0.09111326
46	0x3c335fce	0.010948135
47	0x3baaec40	0.0052161515
48	0xbcd440f3	-0.025909876
49	0x3dccc1fb	0.09997936
50	0x3da19829	0.0789035
51	0xbd169df4	-0.03677173
52	0xbd9c56bf	-0.07633733
53	0xbdea6d0a	-0.11446579
54	0x3ccdc27d	0.025117153
55	0x3cf2b1fc	0.029625885
56	0x3db47b41	0.08812571
57	0x3df965cf	0.121776216
58	0x3d77d453	0.060505223
59	0x3d04e311	0.03244311
60	0xbe025371	-0.12727143
61	0xbe6c0078	-0.23047054
62	0xbe76a2a4	-0.2408548
63	0x3d09d5a3	0.033651005
64	0x3bf448f0	0.007454984
65	0xbd1014a6	-0.035175942
66	0xbe9a5823	-0.30145368
67	0xbe896898	-0.2683761
68	0xbe457399	-0.19282378
69	0xbeab02c4	-0.33400548
70	0xbe8c2c1a	-0.27377397
71	0xbe2f3faf	-0.17114137
72	0x3d93aa12	0.07210173
73	0x3c811925	0.01575906
74	0x3dcdebe2	0.10054757
75	0x3b4c179d	0.0031142004
76	0x3cdeac38	0.02718173
77	0xbe1966ba	-0.14980593
78	0x3df2d013	0.11856093
79	0x3e65a3af	0.22425722
80	0x3d9ca891	0.07649339
81	0xbd6bda9b	-0.057581525
82	0x3d388992	0.045053072
83	0xbb5bdac5	-0.0033547145
84	0x3dcaf81d	0.09910605
85	0x3dd26556	0.102732345
86	0x3e02d8c2	0.12777999
87	0xbd29c902	-0.04145146
88	0x3daaca05	0.083393134
89	0x3d23d477	0.039997544
90	0xbe689fe6	-0.22717246
91	0xbe999118	-0.2999351
92	0xbea80ab1	-0.32820657
93	0x3d4fbdeb	0.05071823
94	0x3db5bf40	0.08874369
95	0x3df16a4e	0.11787854
96	0xbd560aaf	-0.052256282
97	0xbca5cf48	-0.020240441
98	0xbe70a455	-0.23500188
99	0xbda5ff07	-0.08105283
100	0xbdab685c	-0.08369514
101	0xbe8b5770	-0.27215147
102	0xbde6332e	-0.112402305
103	0xbdd22d8d	-0.10262594
104	0xbd5a9e15	-0.053373415
105	0x3d9b2d6b	0.07577022
106	0x3de9411c	0.11389372
107	0x3de554f9	0.11197848
108	0x3e434194	0.19067985
109	0x3e82595b	0.25458798
110	0x3e4fd456	0.20295843
111	0xbdb9362a	-0.09043534
112	0xbe0d64c6	-0.13807973
113	0xbe9567cb	-0.2918075
114	0x3c0f6d3b	0.00875407
115	0xbe04dcb3	-0.12974815
116	0xbc67f1b8	-0.014156751
117	0x3d8d4fbd	0.068999745
118	0x3e97ef3c	0.2967471
119	0x3e8d149c	0.27554786
120	0x3e5edf24	0.21764809
121	0x3e0f8a68	0.14017642
122	0x3d288c81	0.04114962
123	0x3e032899	0.12808456
124	0x3e3bb674	0.18331319
125	0x3d9376a1	0.07200361
126	0xbde287d8	-0.110610664
127	0xbda34d9e	-0.07973789
128	0xbd3beeb6	-0.04588195
129	0x3c49a522	0.012307437
130	0x3c8c583d	0.017131919
131	0x3d57c465	0.05267753
132	0xbd95e304	-0.073186904
133	0xbdaad646	-0.08341651
134	0x3caeca1d	0.02133661
135	0x3def11b5	0.11673299
136	0xbcb03da8	-0.021513775
137	0xbc1ca90b	-0.009561787
138	0x3d21609f	0.039398786
139	0xbdb2594b	-0.087084375
140	0xbd8267d5	-0.06367461
141	0x3de0becf	0.10973894
142	0x3d6cacd3	0.057782006
143	0x3d7a803d	0.061157454
144	0xbe6d1473	-0.23152332
145	0xbe726911	-0.23672892
146	0xbe2c6cd4	-0.1683839
147	0xbda07bee	-0.07836138
148	0xbdfd970d	-0.12382326
149	0xbdb228d8	-0.086991966
150	0xbd4219d6	-0.04738792
151	0x3cef1d64	0.02918882
152	0xbdcafe01	-0.09911729
153	0xbdef96af	-0.116986625
154	0x3dac4e4f	0.08413374
155	0x3d7b3b0b	0.061335605
156	0x3db18df4	0.086696535
157	0x3d702fb6	0.05863925
158	0x3dcc9d3d	0.09990928
159	0xbdaca11c	-0.08429167
160	0xbc1480ce	-0.009063913
161	0x3e465f3c	0.19372267
162	0x3b913994	0.0044319127
163	0x3d821995	0.06352536
164	0x3db88984	0.09010604
165	0x3d9759a3	0.07390144
166	0x3d086cb8	0.033306807
167	0xbd7f0a8b	-0.062265914
168	0xbd244483	-0.0401044
169	0xbd98b274	-0.07455912
170	0xbd3cd225	-0.046098847
171	0xbe9b1eae	-0.30296844
172	0xbe6f17f3	-0.2334898
173	0xbe272840	-0.16323948
174	0x3dd3e185	0.10345749
175	0x3cba554e	0.022745755
176	0xbbac9d47	-0.0052677724
177	0xbe526f86	-0.20550355
178	0xbe36dfee	-0.1785886
179	0xbd8c7cbe	-0.0685973
180	0x3e38d6c7	0.18050681
181	0x3cbfa09d	0.023392016
182	0x3cb1f6c5	0.021724114
183	0x3df15005	0.11782841
184	0x3dbdfe7a	0.09277053
185	0xbc43c94d	-0.011949849
186	0x3e1909e8	0.14945185
187	0x3e1b635a	0.15174618
188	0x3e1fdce4	0.15611607
189	0xbdbb33df	-0.09140753
190	0xbd390542	-0.04517103
191	0xbdca4d20	-0.09877992
192	0x3e247c62	0.16063073
193	0x3e71894b	0.2358753
194	0x3e819ab2	0.25313336
195	0x3e162714	0.14663345
196	0x3d6b65d6	0.057470165
197	0xbcd5b181	-0.026085617
198	0x3d1b563f	0.037924048
199	0xbd00636a	-0.03134481
200	0xbe2a3113	-0.16620283
201	0xbda48f04	-0.080350906
202	0xbe154b65	-0.14579542
203	0xbd85f12f	-0.06540143
204	0xbc67922d	-0.014133972
205	0x3c3b40da	0.011429036
206	0xbc038cec	-0.008029204
207	0xbeecf1b7	-0.46278164
208	0xbed2d1b5	-0.4117562
209	0xbec1497d	-0.3775138
210	0xbe700906	-0.23440942
211	0xbe0b078d	-0.13577099
212	0xbe1dcef5	-0.15410979
213	0xbdf8188d	-0.12114058
214	0xbe41332c	-0.18867177
215	0xbe5c5168	-0.21515429
216	0xbcf31a58	-0.029675648
217	0xbe4ac86b	-0.19803016
218	0xbe28b935	-0.16476901
219	0x3e945a46	0.28975123
220	0x3e8a1401	0.26968387
221	0x3e2f33a7	0.17109548
222	0x3ab6be7b	0.0013942266
223	0xbdeaef91	-0.11471475
224	0x3d16936c	0.036761686
225	0x3d4078e7	0.0469903
226	0x3db4f270	0.08835304
227	0x3bb14127	0.005409378
228	0x3e496218	0.19666326
229	0x3e07b641	0.13253118
230	0x3e0db87f	0.13839911
231	0xbe0f0113	-0.13965254
232	0xbe30806c	-0.17236489
233	0xbda1aa2e	-0.07893787
234	0x3d0552fc	0.032549843
235	0xbdfae4d1	-0.122506745
236	0xbd085641	-0.033285383
237	0xbd37477c	-0.044745907
238	0xbda2a096	-0.079407856
239	0xbe64aa1d	-0.22330518
240	0x3d713c9d	0.058895696
241	0x3d9b966e	0.075970516
242	0x3d83188f	0.064011686
243	0x3d342aa3	0.043985974
244	0xbdfaca3e	-0.12245606
245	0xbe1eff67	-0.15527116
246	0xbd6248fd	-0.05524539
247	0x3cf70c30	0.030157179
248	0xbd739270	-0.059465826
249	0x3e2a9581	0.16658594
250	0x3da2a114	0.079408795
251	0x3dee2f31	0.11630095
252	0xbe32da0f	-0.17465995
253	0xbd9a0ff3	-0.07522573
254	0x3d99c3ac	0.075080246
255	0xbd12c09c	-0.035828218

conv4.bias f4 [64]
0	0xbe83e829	-0.25763062
1	0x3de0a578	0.10969061
2	0xbe4beb66	-0.19914016
3	0xbe5ae906	-0.21377954
4	0xbe750528	-0.23927748
5	0xbeb836b8	-0.35979247
6	0xbe39fc1b	-0.18162577
7	0xbea62083	-0.3244668
8	0xbe162262	-0.14661554
9	0xbe3931c2	-0.18085387
10	0xbe27a96f	-0.16373228
11	0xbd6056d0	-0.05477029
12	0xbc94d439	-0.018167602
13	0xbea6cc04	-0.32577527
14	0xbe7a945d	-0.24470659
15	0xbe3c5097	-0.18390118
16	0xbe9b3f50	-0.3032174
17	0xbe1ce23d	-0.15320678
18	0xbdbe5f6a	-0.092955425
19	0xbe7dc4cf	-0.24782108
20	0x3caec8a9	0.021335917
21	0xbecb9a0a	-0.3976596
22	0xbef8ac87	-0.48569128
23	0xbd9dc312	-0.07703222
24	0xbcc1da21	-0.023663582
25	0xbd990d87	-0.07473283
26	0xbe488503	-0.1958199
27	0xbd8b4535	-0.068003096
28	0xbeb98a54	-0.36238348
29	0xbca7a3bc	-0.020463817
30	0x3cec8836	0.028873544
31	0xbebffa0d	-0.3749546
32	0xbe4b9997	-0.19882809
33	0xbe39c032	-0.18139723
34	0xbeae2731	-0.34014276
35	0xbe797802	-0.24362186
36	0xbddc828e	-0.10767089
37	0x3e6553a5	0.22395189
38	0x3dc13d71	0.09435547
39	0xbe0e8249	-0.13916887
40	0xbcf3ce04	-0.029761322
41	0xbe182335	-0.1485718
42	0xbe1f881b	-0.15579264
43	0xbe7e57fe	-0.24838254
44	0xbd076964	-0.033059493
45	0xbec7ade7	-0.38999864
46	0xbe9a55b8	-0.30143523
47	0xbe87e435	-0.26541296
48	0xbb4f7583	-0.0031655736
49	0xbea281a7	-0.31739542
50	0xbed90d6c	-0.42393053
51	0xbe6c0da4	-0.23052078
52	0x3dc49866	0.0959938
53	0x3d5d5387	0.054034736
54	0xbd23356e	-0.039845876
55	0xbe186906	-0.14883813
56	0xbe7da887	-0.2477132
57	0xbeb9d93a	-0.36298543
58	0xbe005210	-0.12531304
59	0xbe266d15	-0.16252549
60	0xbf009a53	-0.5023548
61	0xbeb96fa4	-0.36217988
62	0xbeb5d7a3	-0.3551608
63	0x3e267ada	0.16257802

bn4.weight f4 [64]
0	0x4024f00e	2.5771518
1	0x401a27ad	2.4086716
2	0x4054bb03	3.3239143
3	0x407459eb	3.8179882
4	0x3fd33c2c	1.6502738
5	0x408c53cb	4.3852286
6	0x403cf046	2.9521651
7	0x407e5e7d	3.974517
8	0x4040dd64	3.0135126
9	0x404f2889	3.236849
10	0x404dfd6f	3.2185934
11	0x4063317c	3.5498953
12	0x40297230	2.6475945
13	0x40744581	3.8167422
14	0x403a9fab	2.9159954
15	0x40448f39	3.0712416
16	0x4087ef02	4.2479258
17	0x40892a82	4.286439
18	0x408a1f5d	4.3163285
19	0x405f22c2	3.4864964
20	0x400eb400	2.2297363
21	0x4076f0ac	3.8584394
22	0x407f3d1c	3.9881048
23	0x403572dc	2.8351355
24	0x40572acc	3.361987
25	0x404210d8	3.032278
26	0x406db20c	3.713992
27	0x406454b6	3.5676703
28	0x408a040a	4.312993
29	0x3ffe0a98	1.9846983
30	0x4011fb15	2.2809498
31	0x408bd069	4.3691907
32	0x4064ebca	3.5768914
33	0x407d6960	3.9595566
34	0x40815c6d	4.0425324
35	0x409677df	4.7021327
36	0x405e19cc	3.4703245
37	0x401279ec	2.2886915
38	0x40190e57	2.3915002
39	0x401ab17c	2.4170828
40	0x40348503	2.8206184
41	0x402175b3	2.5228088
42	0x4047073f	3.1098173
43	0x40836055	4.1055093
44	0x401fb058	2.4951382
45	0x407ac47f	3.9182432
46	0x40860fe4	4.18944
47	0x404dc339	3.2150404
48	0x40151fcd	2.330066
49	0x40907c9a	4.51521
50	0x4073ed9f	3.8113782
51	0x4060b2b6	3.5109076
52	0x401a7da3	2.4139183
53	0x402c3080	2.6904602
54	0x4019e469	2.404566
55	0x402ba3f7	2.6818826
56	0x4060b3d3	3.5109756
57	0x4084bbeb	4.147939
58	0x4039e1e8	2.9044132
59	0x403bd80b	2.9350612
60	0x407e0762	3.9692006
61	0x40800e5a	4.001752
62	0x4073abd1	3.8073618
63	0x4032f50e	2.796207

bn4.bias f4 [64]
0	0xbe0b7e9c	-0.13622516
1	0x3e92bd66	0.28660125
2	0x3e28c9ca	0.16483226
3	0x3e53ad24	0.20671517
4	0x3e15774a	0.14596286
5	0xbe3f1797	-0.18661343
6	0x3e50cbeb	0.20390289
7	0xbeb9d1d0	-0.36292887
8	0x3e4e02ce	0.20118257
9	0x3e36607f	0.17810248
10	0xbec1082d	-0.3770155
11	0xbe49f32e	-0.19721672
12	0x3e3555a5	0.17708452
13	0x3e66ea8c	0.2255041
14	0x3e9552dd	0.29164782
15	0x3e10aa24	0.14127403
16	0xbe21fdc1	-0.15819456
17	0x3e921b30	0.28536367
18	0xbe5b23c7	-0.21400367
19	0xbe94c301	-0.29055026
20	0x3e3fd50a	0.18733612
21	0xbe9b5d2b	-0.3034452
22	0xbe6737de	-0.22579905
23	0x3e53f450	0.20698667
24	0x3e16eb13	0.14738111
25	0x3e0986c5	0.13430317
26	0xbe662ecf	-0.22478794
27	0x3ea246ea	0.31694728
28	0xbe300c1b	-0.17192118
29	0x3e2be330	0.16785884
30	0xbe23e72e	-0.16006157
31	0xbe35a733	-0.17739563
32	0x3e342cb0	0.17595172
33	0x3e7f9db2	0.249625
34	0xbe48c0ca	-0.19604793
35	0xbe16ff25	-0.14745767
36	0x3e30dfbc	0.17272848
37	0x3e844be4	0.2583915
38	0x3e5915ef	0.21199773
39	0x3e1e753a	0.15474406
40	0x3e5e5bb4	0.2171467
41	0x3e2a6f01	0.16643907
42	0x3e4fa14e	0.20276377
43	0x3e8c7332	0.27431637
44	0x3e3d6259	0.18494548
45	0xbe3f2f6a	-0.18670431
46	0x3e211af8	0.15732944
47	0x3e3fd80f	0.18734764
48	0x3e576660	0.21035147
49	0xbe4627a7	-0.19351064
50	0xbe8bad83	-0.27280816
51	0xbe8f9b94	-0.28048384
52	0x3ec78ebb	0.38976082
53	0xbe2ab96b	-0.16672294
54	0x3e472bf7	0.19450365
55	0xbe1ba5ed	-0.15200014
56	0x3ded665c	0.11591789
57	0xbe562663	-0.20913081
58	0x3e28305f	0.16424702
59	0x3e290a0e	0.16507742
60	0xbe367b75	-0.17820533
61	0xbe5ee61d	-0.21767469
62	0xbe472978	-0.19449413
63	0x3e5763fa	0.21034232

bn4.running_mean f4 [64]
0	0x3ce3d79b	0.02781277
1	0x3ef7fd30	0.48435354
2	0x3e0123ed	0.12611361
3	0x3d29057b	0.041264992
4	0x3d97170a	0.07377441
5	0x3c8abcb3	0.016935682
6	0x3de9344a	0.113869265
7	0x3d095c0f	0.03353506
8	0x3e1dd1b2	0.15412024
9	0x3db8096b	0.08986171
10	0x3d4e3bc4	0.050349966
11	0x3c31f8fb	0.010862584
12	0x3e078df7	0.13237749
13	0x3d480085	0.04882862
14	0x3d993f4c	0.07482776
15	0x3dc86f35	0.09786836
16	0x3d4090ef	0.04701322
17	0x3cec47b0	0.028842777
18	0x3c946f57	0.018119497
19	0x3d896f05	0.067106284
20	0x3ee04656	0.43803662
21	0x3cedcf50	0.029029518
22	0x3d1d0aba	0.038340308
23	0x3e263d6e	0.16234371
24	0x3d674d58	0.056470245
25	0x3d9e6539	0.077341504
26	0x3d7c3456	0.06157335
27	0x3cf2bcce	0.029631045
28	0x3d0e4e89	0.034742866
29	0x3e034adf	0.1282153
30	0x3f7e504f	0.9934129
31	0x3d02cb13	0.031931948
32	0x3de0f5be	0.109843716
33	0x3d71765c	0.058950767
34	0x3d6b1252	0.05739052
35	0x3d119958	0.03554663
36	0x3d2fc449	0.0429118
37	0x3f6809c6	0.90639913
38	0x3fa0ca49	1.2561733
39	0x3e0b0e28	0.13579619
40	0x3c8cde5b	0.017195871
41	0x3f220b72	0.63298714
42	0x3e2c9858	0.1685499
43	0x3d446519	0.047947977
44	0x3e8231c7	0.25428602
45	0x3cd1b666	0.02559967
46	0x3d1f947d	0.03895997
47	0x3d4d608e	0.05014091
48	0x3ea8da3c	0.32979
49	0x3ca92df0	0.020651788
50	0x3c34ca0c	0.0110345
51	0x3d2ddfa1	0.042449597
52	0x3f8f44f0	1.1192913
53	0x3dacd519	0.08439083
54	0x3f1c611e	0.6108569
55	0x3e9a64b8	0.30154967
56	0x3d80477e	0.06263636
57	0x3d02c39f	0.03192484
58	0x3d9e9b4d	0.07744465
59	0x3dae76c0	0.085187435
60	0x3cc3ad74	0.02388642
61	0x3d730047	0.059326436
62	0x3d44e2be	0.0480678
63	0x3f353510	0.7078409

bn4.running_var f4 [64]
0	0x3dc94d30	0.098291755
1	0x3f4dd7aa	0.804072
2	0x3ed23a5d	0.41060153
3	0x3e02b573	0.1276453
4	0x3e4a3add	0.19749017
5	0x3d349bcb	0.04409389
6	0x3eaedbdc	0.34152114
7	0x3de74d30	0.11294019
8	0x3eeb076b	0.45904097
9	0x3e75a202	0.23987582
10	0x3e34e291	0.17664553
11	0x3ca31560	0.019907653
12	0x3ef2ba21	0.4740763
13	0x3e2d1bd9	0.16905154
14	0x3e78be19	0.24291267
15	0x3ebf4c46	0.3736288
16	0x3e2273cb	0.15864484
17	0x3dc31931	0.09526289
18	0x3d77d766	0.060508154
19	0x3e4774e6	0.19478187
20	0x3fa8e3d5	1.3194529
21	0x3dc5bc96	0.096551105
22	0x3de92885	0.113846816
23	0x3ef4d59f	0.4781923
24	0x3e47cd7d	0.19511981
25	0x3e96d052	0.2945581
26	0x3e8c316e	0.27381462
27	0x3db20417	0.08692186
28	0x3e2158fc	0.15756601
29	0x3ec77715	0.3895804
30	0x3f6e13c3	0.92998904
31	0x3dd30a63	0.103047155
32	0x3eb4b5dd	0.35295
33	0x3e1fdfc6	0.15612707
34	0x3e23bde2	0.15990403
35	0x3e0a7e61	0.13524772
36	0x3df06925	0.11738805
37	0x3fff7f9f	1.9960822
38	0x402422b2	2.5646176
39	0x3f16224c	0.5864608
40	0x3d29a228	0.04141441
41	0x3fa85173	1.3149856
42	0x3ef601cc	0.48048246
43	0x3e45f297	0.19330822
44	0x3f563efe	0.8368987
45	0x3d909d42	0.070612445
46	0x3e1a1d9b	0.15050356
47	0x3e462c62	0.19352868
48	0x3f74d7f3	0.9564201
49	0x3db007eb	0.0859526
50	0x3ccf9283	0.025338417
51	0x3dd41f72	0.1035756
52	0x3f6b2955	0.9185994
53	0x3e84e635	0.25956884
54	0x3fd2bff1	1.6464826
55	0x3edafd49	0.42771366
56	0x3e5c5906	0.21518335
57	0x3de1e86b	0.11030658
58	0x3e7d6d25	0.24748667
59	0x3e6fe6f0	0.2342794
60	0x3d953f19	0.072874255
61	0x3e44b890	0.1921103
62	0x3e24c7f0	0.16091895
63	0x3f88e5ce	1.0695131

lin.weight f4 [10, 64]
0	0xbf86eef0	-1.0541668
1	0x3dc0d30d	0.09415255
2	0x3f8f41a1	1.1191903
3	0xbf3a6ba3	-0.7282049
4	0x3f180737	0.5938601
5	0xbf38bf4e	-0.7216691
6	0x3efb2707	0.49053213
7	0x3f6eb6a3	0.9324743
8	0x3d037331	0.032092277
9	0xbd517db4	-0.05114527
10	0x3ed95dff	0.42454526
11	0xbecb8a89	-0.3975413
12	0x3f3e0c63	0.7423765
13	0xbf281455	-0.65656024
14	0x3df34dba	0.118800595
15	0x3ee7f157	0.45301315
16	0xbfa747b9	-1.3068763
17	0xbf957e18	-1.1679106
18	0xbf83d23d	-1.0298535
19	0x3f855a34	1.0418153
20	0x3e6bd514	0.23030502
21	0x3f7ac050	0.97949696
22	0x3da88950	0.08229315
23	0x3f410eea	0.7541338
24	0x3f6c51fa	0.92312586
25	0x3f5c0a7a	0.85953486
26	0x3ea1e917	0.31623146
27	0xbf7ff81b	-0.99987954
28	0xbfb4cf93	-1.4125847
29	0x3eacd19c	0.3375367
30	0xbee21506	-0.44156665
31	0xbf7be0b2	-0.9838973
32	0x3f4425eb	0.7662036
33	0xbf8a01e1	-1.0781823
34	0xbea41fbb	-0.32055458
35	0xbfd5b259	-1.6695052
36	0x3f4da6e8	0.80332804
37	0x3ed0c636	0.40776223
38	0x3f23782f	0.6385526
39	0x3f4f9b24	0.810961
40	0x3e039a91	0.12851931
41	0x3f5a215d	0.8520716
42	0xbe5bd86a	-0.21469274
43	0xbf732264	-0.9497435
44	0x3f0a6215	0.5405591
45	0xbf3ee388	-0.74565935
46	0x3ee6d82e	0.45086807
47	0x3f6109ed	0.8790577
48	0x3ef2115d	0.47278872
49	0xbf85195e	-1.0398366
50	0x3f8c92f2	1.0982344
51	0x3e5ee792	0.21768025
52	0xbdf11c4c	-0.11772975
53	0xbe6d2116	-0.23157153
54	0x3e5c3829	0.21505798
55	0xbf395358	-0.723928
56	0x3fccbfe2	1.5996058
57	0xbfa31bcb	-1.2742857
58	0x3f80532e	1.0025384
59	0x3f151c5b	0.5824639
60	0xbf73270a	-0.94981444
61	0xbd76591a	-0.060143568
62	0xbe8e0e5a	-0.27745324
63	0x3f0ff867	0.56238407
64	0x3f0ca6b4	0.5494187
65	0x3d97de9d	0.07415507
66	0xbdff58b1	-0.124680884
67	0x3e2cbec3	0.16869645
68	0x3d1d2543	0.038365614
69	0xbea7ff7b	-0.32812104
70	0xbf005b65	-0.50139457
71	0xbeaa3c0e	-0.33248943
72	0x3f4c4cd0	0.79804707
73	0x3e39e85e	0.18155047
74	0xbef93b4d	-0.48678055
75	0x3de082c6	0.10962443
76	0x3e93abbf	0.2884197
77	0x3efaac63	0.48959646
78	0xbf80ec7f	-1.0072173
79	0x3f71f104	0.94508386
80	0x3e8a2ada	0.26985818
81	0x3fa5b02f	1.2944392
82	0x3fd8ce37	1.6937932
83	0xbf3a8a73	-0.72867507
84	0x3e812fb2	0.252317
85	0xbf32accf	-0.69794935
86	0xbf80c7a0	-1.0060921
87	0xbed964ca	-0.42459708
88	0x3f3504f1	0.70710665
89	0x3f30555e	0.6888026
90	0x3fb8827b	1.441482
91	0x3e4ba86f	0.19888471
92	0x3f8b5aa5	1.0887038
93	0x3d833f21	0.06408525
94	0xbed71aa4	-0.42012513
95	0xbf0391f1	-0.51394564
96	0xbefc3e94	-0.49266493
97	0x3f5005b8	0.81258726
98	0xbf2cb75f	-0.674673
99	0x4023aa5d	2.5572731
100	0x3f38fe9a	0.7226349
101	0xbf407f4c	-0.7519424
102	0xbf06ec07	-0.527039
103	0xbeb289c7	-0.3487074
104	0x3f3a1356	0.72685754
105	0xbf6527b3	-0.895137
106	0x3f32c063	0.6982481
107	0x3f381245	0.7190288
108	0xbeae65e5	-0.34062114
109	0xbf8e44ff	-1.1114806
110	0x3fcbb8f2	1.5915816
111	0xbf81faf3	-1.0154709
112	0xbdab4750	-0.08363211
113	0x4011436d	2.2697403
114	0xbeaa3ed9	-0.33251074
115	0xbf648443	-0.89264315
116	0xbe1f3681	-0.15548135
117	0xbd8f123f	-0.06985902
118	0x3e84ad33	0.2591339
119	0xbeb0db69	-0.34542397
120	0xbe33a0d0	-0.17541814
121	0x3fe8aadb	1.8177141
122	0xbe696d1b	-0.22795527
123	0xbf15cd44	-0.58516335
124	0xbed7ef0d	-0.4217457
125	0xbfa26826	-1.2688034
126	0xbedcbfb4	-0.43115008
127	0x3e90f866	0.28314513
128	0xbea8dab7	-0.32979366
129	0xbc8197cc	-0.015819453
130	0xbf8e5877	-1.1120747
131	0xbed8b5fa	-0.42326337
132	0xbf015704	-0.505234
133	0xbf437a08	-0.7635808
134	0xc00aa8f0	-2.1665611
135	0x3e7e558c	0.24837321
136	0xbfdc965d	-1.7233387
137	0xbfbc26c8	-1.4699335
138	0xbee1563c	-0.44011104
139	0x400146f6	2.019956
140	0xc029d08e	-2.6533542
141	0xbfc45e8d	-1.5341355
142	0x3f127cb2	0.5722152
143	0xbfc11d8f	-1.5087146
144	0xbed25965	-0.41083828
145	0x3d81fb8b	0.06346806
146	0x3f1a37a8	0.60241175
147	0xbdff9886	-0.124802634
148	0xc01a0b97	-2.4069574
149	0xbeb5b5a1	-0.35490134
150	0xbebd8af5	-0.37020078
151	0x3e8b7930	0.27240896
152	0xc000c55c	-2.0120459
153	0xbfb8f8ff	-1.4450988
154	0xbee11350	-0.43960047
155	0x3deb3cee	0.11486231
156	0xbecf68fd	-0.40509787
157	0xbfe6f5d4	-1.8043771
158	0x3f11ff0d	0.570298
159	0xbf36fc75	-0.7147897
160	0xbf7ac812	-0.97961533
161	0x3f29132d	0.66044885
162	0x401de6a8	2.4672031
163	0xbe12c277	-0.14331995
164	0x3ec615c0	0.3868847
165	0x3efda8f9	0.49542978
166	0x3f06a66c	0.5259769
167	0xc003741a	-2.0539613
168	0x3ea223c6	0.31667918
169	0x3f4f2b68	0.8092561
170	0xbfe876c9	-1.816125
171	0xbe4e0b24	-0.20121437
172	0xc003f05b	-2.0615451
173	0xbeb83a0a	-0.3598178
174	0xbf8a2bb5	-1.0794588
175	0x3e238bd7	0.15971313
176	0xc01a2bc1	-2.4089205
177	0xbef373af	-0.47549197
178	0xbebaa468	-0.36453557
179	0xbf08b2c0	-0.5339775
180	0xbde631ec	-0.112399906
181	0x3fe1e718	1.7648649
182	0xc013779c	-2.3041754
183	0x3f1d9601	0.6155701
184	0xbf5521c3	-0.8325464
185	0xbd15e065	-0.036590952
186	0xbfeab599	-1.8336669
187	0xbfcf3952	-1.6189368
188	0x3c617fb7	0.01376336
189	0xbee584cc	-0.44827878
190	0x40247c29	2.5700781
191	0x3f5c261b	0.85995644
192	0x3ed4d4aa	0.415685
193	0xbf197ac8	-0.59952974
194	0x3d5e15cc	0.054220006
195	0x3fbd9751	1.4811803
196	0xbe81d2d5	-0.25356165
197	0xbec86a5c	-0.39143646
198	0x3f573f77	0.84081215
199	0xbf2a97ef	-0.6663808
200	0x3e50c01d	0.20385785
201	0x3f7dc7fa	0.99133265
202	0x3e025a83	0.1272984
203	0xbea3190a	-0.3185504
204	0xbdfb6149	-0.12274415
205	0x3f916172	1.1357863
206	0x3f4b2220	0.79348946
207	0xbe98898f	-0.2979245
208	0x3ebddefd	0.3708419
209	0x3ec8b0e9	0.39197472
210	0xbf04a8a0	-0.518198
211	0xbe781a5f	-0.2422881
212	0x3e33ad45	0.17546566
213	0xbea7e885	-0.32794586
214	0xbd03a120	-0.032136083
215	0xbf9e7e7a	-1.2382348
216	0xbfd21aa6	-1.6414382
217	0xbf7cd2ee	-0.98759353
218	0xbf9278f8	-1.1443167
219	0x3ef2ff8e	0.47460598
220	0x3faa637d	1.3311611
221	0xbd7fa35e	-0.06241166
222	0xbe987fa6	-0.29784888
223	0xbdd2adcf	-0.102870576
224	0x3f6f7280	0.9353409
225	0x3f4ffef9	0.8124843
226	0x3f084dec	0.532439
227	0xbe204f7a	-0.15655318
228	0xbfff822f	-1.9961604
229	0xbe6e81db	-0.23291723
230	0xbf48bc16	-0.78411996
231	0x3d39daf2	0.04537482
232	0xbf891a16	-1.0711086
233	0x3cd3afe8	0.025840715
234	0x3f12a8fc	0.572891
235	0x3f6c57ba	0.9232136
236	0x3f045a83	0.5170061
237	0x4010f93a	2.2652116
238	0xc00ea73f	-2.228958
239	0xbf92ae77	-1.1459492
240	0x3e9d6b77	0.30746052
241	0xbf5be51f	-0.85896486
242	0xbf761ceb	-0.96137875
243	0x3f9aaef8	1.2084646
244	0xbc3dc1ad	-0.01158182
245	0xbf19855f	-0.59969133
246	0xbdc6f2ee	-0.09714304
247	0x3e2c51fd	0.16828151
248	0xbf808603	-1.0040897
249	0xbe71acfa	-0.23601142
250	0xbd80f5f5	-0.062969126
251	0x3f5940ef	0.84864706
252	0x4001ac7e	2.026153
253	0x3fe64ae7	1.7991608
254	0xbc8e73dc	-0.01738923
255	0xbfb90c2c	-1.445684

lin.bias f4 [10]
0	0xbd1ff659	-0.039053295
1	0x3dc7e490	0.09760392
2	0xbb952ffc	-0.0045528393
3	0x3d168cc8	0.036755353
4	0xbd07b5e9	-0.033132467
5	0xbebb8a31	-0.3662887
6	0xbe3c2128	-0.18372023
7	0xbe72689a	-0.23672715
8	0xbe747dfb	-0.23876183
9	0xbe536bb0	-0.20646548
