NCC_Code/models/2022-08-25_15-37-48_model.pt (torch, 115275 bytes, 50 tensors)

conv1.weight f4 [8, 2, 5, 5]
-0.31249106 -0.108828396 0.060854714 -0.09946671 -0.11113216 -0.55529225 -0.35276675 -0.13523537
-0.20028268 -0.14914563 1.4341749 2.2108397 1.284807 0.13715592 -0.22459885 -0.12603374
0.10509939 -0.066510975 -0.39821646 -0.50158286 -0.39705208 -0.75751036 -0.53035784 -0.63162243
-0.18690084 0.22122309 -0.073201746 -0.5009399 -0.24315657 -0.030964937 0.14309543 -0.33812287
-0.16036387 -0.49686334 -0.25789732 1.6755486 2.5697293 1.5375406 0.27175096 -0.27793446
0.33970022 0.0066991914 0.2455496 -0.17125653 -0.19550681 -0.42201152 -0.30092046 -0.76838344
-0.29501575 -0.14768174 -0.034001265 -0.84255505 -0.57644683 -0.7003875 -0.58254397 0.68707377
1.7448384 1.4720838 1.872798 1.8220583 -0.098618604 -0.077033624 -0.18959008 -0.044878732
-0.12766054 -0.5614789 -0.7904556 -0.40987003 -0.2667222 -0.46367162 0.45620784 0.16691117
0.41718444 0.9930877 1.3901633 -0.21943615 -0.9938864 -0.47311935 -0.857067 -0.3166002
0.67296845 1.4944707 1.3645655 1.7163424 2.1804261 0.095943816 -0.010563854 -0.067109406
-0.017277235 -0.50242174 -0.460041 -0.2995821 -0.28245497 -0.72018903 -0.35931537 0.43999332
0.53453815 0.40876776 0.4083483 1.1382518 -0.02265737 -0.4763225 0.015168854 0.23947024
0.08396701 0.20021662 -0.6167327 -0.6302069 -0.3593535 -0.25831416 0.17224495 -0.6194784
-0.4626993 -0.81158775 -0.38369942 0.40104526 -0.17725092 0.022585308 -0.17570749 -0.44879535
1.0481834 1.739837 1.5053014 1.9940723 1.0890667 0.08493423 -0.14502679 -0.613615
-0.22781676 -0.33606878 0.041189265 -0.32937565 -0.0578071 -0.41852516 -0.47858283 -0.026470615
-0.23314643 -0.6965442 -0.28448153 -0.5262257 -0.1848773 -0.09622208 0.063895345 -0.32566246
0.033653013 1.2795354 1.9531423 1.7782997 1.8736258 0.9804025 0.09160615 0.24194433
0.26220393 -0.30572492 -0.5077289 1.1187003 1.9137383 2.1488152 1.6359547 -0.27745536
-0.21619311 -0.16849658 0.16078234 -0.3067313 -0.72486585 -0.17399395 -0.5024555 -0.7043957
-0.96290904 -0.16737781 0.09785101 -0.6176125 -0.46453863 -0.5802182 -0.7454755 0.50245136
0.24035265 0.040110383 -0.107485056 -1.036886 1.5569332 2.0749967 1.9348847 1.544591
-0.15873596 0.013884047 -0.03192217 -0.03450632 -0.4595584 -0.7898468 -0.17645217 -0.5055849
0.00086056744 -0.412525 0.04885333 -0.1572712 -0.2246835 -0.68321615 -0.8336522 -0.48513576
-0.5140431 -0.94007444 -1.4246216 0.34631777 0.5299158 0.18561876 -0.57220685 -0.35735488
0.71879494 0.3586729 -0.00023993081 -0.16008775 0.024750587 0.42296463 -0.00942407 -0.3928646
-0.31528005 0.03237491 0.83893305 -0.22025779 -1.3340605 -2.2261605 -1.3307761 -0.17479618
-0.12102743 -0.71623147 -0.9139303 -0.79324627 0.040987 0.6153765 0.20806982 -0.6626074
-0.1489359 0.50877684 0.29924297 0.008398289 -0.3246581 0.018385671 0.32591325 -0.13996729
-0.15555099 -0.076963395 0.041020878 0.4316317 -0.23675814 -1.5086683 -2.0986595 -1.7406696
-0.111975156 0.004987031 -0.50391716 -0.8753025 -1.3581113 -1.0714542 -0.7675512 -0.20271885
00000000: d4fe 9fbe 6ce1 debd cb42 793d 34b5 cbbd
00000010: 4299 e3bd a227 0ebf d89d b4be 247b 0abe
00000020: e716 4dbe a2b9 18be 0b93 b73f 667e 0d40
00000030: 8e74 a43f 9a72 0c3e 3efd 65be fd0e 01be
00000040: 593e d73d e836 88bd 07e3 cbbe bc67 00bf
00000050: 694a cbbe 33ec 41bf 88c5 07bf 02b2 21bf
00000060: ef62 3fbe 4e88 623e ccea 95bd 993d 00bf
00000070: 09fe 78be 2eaa fdbc 9c87 123e 711e adbe
00000080: 6d36 24be df64 febe 1e0b 84be 6078 d63f
00000090: 7276 2440 21ce c43f f122 8b3e 6d4d 8ebe
000000a0: 30ed ad3e e484 db3b 5b71 7b3e df5d 2fbe
000000b0: f032 48be e511 d8be 3f12 9abe c7b4 44bf
000000c0: 4e0c 97be e239 17be e944 0bbd b0b1 57bf
000000d0: 0592 13bf 984c 33bf 9a21 15bf 11e4 2f3f
000000e0: dd56 df3f 3e6d bc3f d8b7 ef3f 3539 e93f
000000f0: 8df8 c9bd cec3 9dbd e723 42be c3d2 37bd
00000100: 72b9 02be 15bd 0fbf 4c5b 4abf 7cda d1be
00000110: d08f 88be 5e66 edbe 1394 e93e c3ea 2a3e
00000120: 3399 d53e ff3a 7e3f dff0 b13f dfb3 60be
00000130: 576f 7ebf b33c f2be be68 5bbf 6c19 a2be
00000140: a947 2c3f d14a bf3f 15aa ae3f 1cb1 db3f
00000150: 1a8c 0b40 317e c43d 0414 2dbc a870 89bd
00000160: fd88 8dbc b69e 00bf 7e8a ebbe d362 99be
00000170: f09d 90be 4f5e 38bf 2ff8 b7be ce46 e13e
00000180: 7ed7 083f 024a d13e 0713 d13e 3cb2 913f
00000190: f39b b9bc 8be0 f3be c986 783c b037 753e
000001a0: e5f6 ab3d 9605 4d3e 32e2 1dbf 3d55 21bf
000001b0: 2ffd b7be c141 84be fb60 303e 2396 1ebf
000001c0: ece6 ecbe 37c4 4fbf 4074 c4be ce55 cd3e
000001d0: 4481 35be d304 b93c aaec 33be 81c8 e5be
000001e0: e02a 863f fbb2 de3f b7ad c03f c33d ff3f
000001f0: 8a66 8b3f fff1 ad3d e781 14be df15 1dbf
00000200: cc48 69be 3511 acbe 13b6 283d eda3 a8be
00000210: 23c7 6cbd ee48 d6be cf08 f5be e7d8 d8bc
00000220: f0bd 6ebe b850 32bf 90a7 91be bab6 06bf
00000230: 7a50 3dbe 1510 c5bd 90db 823d 3bbd a6be
00000240: bed7 093d d1c7 a33f 9100 fa3f 539f e33f
00000250: f8d2 ef3f a9fb 7a3f 019c bb3d 41c0 773e
00000260: 983f 863e fa87 9cbe 85fa 01bf 9231 8f3f
00000270: 60f5 f43f 3086 0940 f766 d13f a10e 8ebe
00000280: ba61 5dbe 5e8a 2cbe 20a4 243e e30b 9dbe
00000290: cf90 39bf 782b 32be eca0 00bf 4753 34bf
000002a0: 3581 76bf 1765 2bbe 1c66 c83d da1b 1ebf
000002b0: 02d8 edbe 2e89 14bf 7bd7 3ebf a7a0 003f
000002c0: 011f 763e c94a 243d 2021 dcbd aeb8 84bf
000002d0: 9649 c73f bfcc 0440 4daa f73f 28b5 c53f
000002e0: ae8b 22be ea79 633c d2c0 02bd 8056 0dbd
000002f0: 3d4b ebbe 6633 4abf e1af 34be 036e 01bf
00000300: b497 613a 7a36 d3be 6e1a 483d b40b 21be
00000310: 6e13 66be 41e7 2ebf 3b6a 55bf b763 f8be
00000320: 5498 03bf b8a8 70bf 005a b6bf 9050 b13e
00000330: 90a8 073f d812 3e3e 267c 12bf 38f7 b6be
00000340: f202 383f f9a3 b73e f095 7bb9 0bee 23be
00000350: bec1 ca3c d28e d83e 6a67 1abc 8d25 c9be
00000360: 636c a1be 8e9b 043d 51c4 563f 428b 61be
00000370: 7fc2 aabf 6a79 0ec0 df56 aabf c5fd 32be
00000380: 3bdd f7bd f25a 37bf 56f7 69bf 3012 4bbf
00000390: fce1 273d 5089 1d3f 4110 553e a3a0 29bf
000003a0: a782 18be 333f 023f 6036 993e fa98 093c
000003b0: 9639 a6be 8c9d 963c 1ade a63e 9653 0fbe
000003c0: c248 1fbe fc9e 9dbd 8205 283d d5fe dc3e
000003d0: ba70 72be 0b1c c1bf 7050 06c0 43ce debf
000003e0: 3b53 e5bd 406a a33b b700 01bf d313 60bf
000003f0: 97d6 adbf 6925 89bf 3c7e 44bf 8895 4fbe

conv1.bias f4 [8]
-3.9207125 -1.305515 -2.4796681 -1.6980639 0.24230172 0.55439276 -1.2622445 -0.5843338
00000000: f4ec 7ac0 1e1b a7bf e2b2 1ec0 285a d9bf
00000010: f11d 783e afec 0d3f 3a91 a1bf e696 15bf

bn1.weight f4 [8]
1.9516019 1.1270168 1.6047099 1.5520151 0.20020819 0.773397 1.5924853 1.0310537
00000000: 17ce f93f 1642 903f 2267 cd3f 6ea8 c63f
00000010: 6003 4d3e 59fd 453f 8fd6 cb3f 91f9 833f

bn1.bias f4 [8]
-0.4113212 -1.0442295 -0.32414111 -0.20684454 0.17054865 0.7331484 -0.36608973 -0.03388724
00000000: b198 d2be 50a9 85bf d3f5 a5be 0ecf 53be
00000010: 4ea4 2e3e 9daf 3b3f 1d70 bbbe 59cd 0abd

bn1.running_mean f4 [8]
0.63291866 2.3715727 1.3496307 1.766276 4.129891 7.7225356 2.8640003 6.466655
00000000: f506 223f d9c7 1740 b3c0 ac3f 5515 e23f
00000010: 1128 8440 031f f740 c84b 3740 d6ee ce40

bn1.running_var f4 [8]
4.6694655 36.102535 15.504523 12.955052 19.831083 39.56321 49.222008 275.2807
00000000: 436c 9540 ff68 1042 8712 7841 e547 4f41
00000010: 0fa6 9e41 ba40 1e42 56e3 4442 eea3 8943

conv2.weight f4 [16, 8, 3, 3]
-0.96252894 -1.376142 -0.23044449 0.48224857 -0.014454401 0.37660235 0.8020058 0.23056097
0.70222443 -0.51276535 -0.7775048 -0.76906466 -0.76122123 -0.970804 -1.1062771 -0.7277344
-0.39145696 -0.5094533 1.1708513 0.44063112 0.37406364 0.86164427 0.30493042 -0.13149035
-0.08201167 -0.6105807 -0.4767156 -0.46525106 -0.0007051877 -0.082433246 -0.29640117 -0.44095725
-0.57415795 0.63287777 0.018558081 0.18225007 -0.020701071 0.5136635 0.1863781 -0.6345816
-0.07823294 -0.2564743 -0.37194145 0.109227784 -0.37058347 -0.07616985 0.32811534 0.5381936
0.37440026 0.09808344 0.56662226 0.06656387 0.17781429 -0.08581086 -0.34510127 -0.8801836
-1.3690213 -0.16107029 -0.9507627 -0.5309091 0.20546865 -0.4416668 -1.1024218 -1.9332131
-3.7096682 -3.5647383 -0.8838521 -2.9290123 -2.964007 -0.49724334 -1.6669934 -2.1743605
-0.5790201 -0.32255176 0.22725938 -0.8845425 -0.9312362 -0.6754366 -0.7550626 -1.6588517
-1.3851187 -0.20942104 -0.3024092 -0.3893518 -1.1091776 -1.1097865 -1.0860168 0.2660408
0.08171121 0.31979144 -0.26470888 -0.20738849 -0.1467691 -0.7265951 -0.34444904 -0.53901327
-0.76062024 -0.43108058 -0.5546353 -1.5989099 -1.5779686 -1.9884474 -1.4477402 -1.5232378
-2.1014817 0.058457352 -0.14433831 -0.2326842 -0.14357793 -0.4198557 -0.62633985 -0.30383006
-0.6987156 -0.58687395 0.033207525 -0.329757 -0.16338453 -0.73555785 -0.36270764 -0.12960498
-0.40772232 -0.40737405 -0.033342354 -0.14856845 -0.23677741 0.09641572 -0.7038756 -0.38930485
-0.7739588 -0.79054826 -0.7691436 -1.0413784 0.28927985 0.19783878 0.33006555 -0.110560074
-0.47193673 -0.24202059 0.18592706 0.10645683 -0.22052397 0.8914378 0.72226954 0.56105024
1.1914855 1.1804727 0.9111528 -0.61031073 -0.124732524 -0.22228444 -0.21915348 -0.6815162
-0.33194655 0.7160732 0.8558146 0.076722264 0.091060765 0.35718438 -0.19326362 0.3392136
1.0395373 0.5902908 -0.66975653 -0.47036037 -0.5480428 -0.590976 -0.08778015 -0.4271956
1.5767066 1.3785398 1.702721 0.95548415 1.181013 0.9490025 0.01820937 0.21058206
0.18512307 -1.3468281 -0.8769238 -1.2187055 0.22584648 0.082513556 -0.19904259 0.41055545
0.7457061 -0.58050025 0.11095769 0.61857015 0.19883722 -0.36011922 -0.3932926 0.32402483
-0.060969025 0.5349124 0.7484655 0.23875138 0.82696575 0.90883285 0.82326794 0.599404
0.35064667 0.24386077 0.40993646 -0.18922186 -0.95383614 -0.5266784 -1.1163456 0.100586124
0.0025032917 -0.28947538 -0.40067637 -0.2760637 -0.6334595 -0.068532646 0.2521959 0.0076791476
0.1259777 0.11283767 0.13964444 -1.6279104 -1.997466 -0.98557335 1.0187544 1.0956118
0.721085 0.31122717 0.5275516 0.22592218 -0.25801906 0.19520058 0.11052725 1.0024465
0.59620535 0.45330918 -0.37539348 -0.30782753 -0.7971231 1.356483 0.77010983 1.5134294
-0.07479581 -0.13567151 -0.5888626 0.828253 0.53107196 0.4258991 -1.4584266 -1.120924
-1.2579596 -0.116107956 -0.28179762 -0.42901003 -0.24837108 -0.34282842 -0.8706408 0.110227115
00000000: 4c68 76bf 6c25 b0bf a4f9 6bbe 49e9 f63e
00000010: 27d2 6cbc 06d2 c03e 4150 4d3f 2d18 6c3e
00000020: fbc4 333f 9744 03bf 8e0a 47bf 6ce1 44bf
00000030: 65df 42bf 9c86 78bf 7d9a 8dbf cd4c 3abf
00000040: 0c6d c8be 886b 02bf 75de 953f 679a e13e
00000050: 4585 bf3e b894 5c3f d71f 9c3e 68a5 06be
00000060: bcf5 a7bd 044f 1cbf 1114 f4be 6335 eebe
00000070: 58dc 38ba c3d2 a8bd e5c1 97be 26c5 e1be
00000080: 04fc 12bf 4704 223f 1e07 983c c39f 3a3e
00000090: 4b95 a9bc 737f 033f e7d9 3e3e f173 22bf
000000a0: 9738 a0bd 9950 83be 1c6f bebe d1b2 df3d
000000b0: 1ebd bdbe f0fe 9bbd bcfe a73e 0ec7 093f
000000c0: 64b1 bf3e f8df c83d 280e 113f a352 883d
000000d0: f314 363e 9bbd afbd 1db1 b0be b653 61bf
000000e0: 173c afbf 9cef 24be 2f65 73bf a9e9 07bf
000000f0: 6066 523e 2722 e2be 281c 8dbf 8773 f7bf
00000100: 346b 6dc0 ac24 64c0 2244 62bf f074 3bc0
00000110: 4ab2 3dc0 ae96 febe 0a60 d5bf b928 0bc0
00000120: a93a 14bf 8125 a5be afb6 683e 6171 62bf
00000130: 7f65 6ebf 6ae9 2cbf c84b 41bf 4155 d4bf
00000140: 924b b1bf 7872 56be 61d5 9abe 1e59 c7be
00000150: 88f9 8dbf 7c0d 8ebf 9902 8bbf 8036 883e
00000160: 3558 a73d b4bb a33e ec87 87be a65d 54be
00000170: a44a 16be 2302 3abf a05b b0be c6fc 09bf
00000180: 02b8 42bf 98b6 dcbe 94fc 0dbf 14a9 ccbf
00000190: e0fa c9bf 7285 febf 8d4f b9bf 75f9 c2bf
000001a0: ad7e 06c0 fa70 6f3d 6ccd 13be c444 6ebe
000001b0: 1806 13be 54f7 d6be cf57 20bf 9d8f 9bbe
000001c0: 07df 32bf 5f3d 16bf 9d04 083d e9d5 a8be
000001d0: 464e 27be 854d 3cbf d1b4 b9be 2bb7 04be
000001e0: fbc0 d0be 5593 d0be fe91 08bd 5422 18be
000001f0: c775 72be 9b75 c53d 3131 34bf f752 c7be
00000200: 2a22 46bf 5f61 4abf 98e6 44bf e34b 85bf
00000210: 7d1c 943e 4096 4a3e 5afe a83e 526d e2bd
00000220: b1a1 f1be 3fd4 77be aa63 3e3e 0a06 da3d
00000230: 09d1 61be 4535 643f a8e6 383f fda0 0f3f
00000240: 9982 983f bb19 973f 4f41 693f 533d 1cbf
00000250: c473 ffbd 889e 63be c569 60be d877 2ebf
00000260: e6f4 a9be 9350 373f aa16 5b3f 9020 9d3d
00000270: 117e ba3d dfe0 b63e e6e6 45be 68ad ad3e
00000280: 8f0f 853f 4c1d 173f 2a75 2bbf 13d3 f0be
00000290: 884c 0cbf 344a 17bf 14c6 b3bd 62b9 dabe
000002a0: 86d1 c93f fe73 b03f c3f2 d93f 9c9a 743f
000002b0: 6f2b 973f d4f1 723f d12b 953c d3a2 573e
000002c0: e790 3d3e dd64 acbf 147e 60bf 8bfe 9bbf
000002d0: 4d44 673e defc a83d d2d1 4bbe 5334 d23e
000002e0: 98e6 3e3f aa9b 14bf c93d e33d 9d5a 1e3f
000002f0: fc9b 4b3e 8c61 b8be a65d c9be 95e6 a53e
00000300: a8ba 79bd 05f0 083f 6f9b 3f3f 3e7b 743e
00000310: 07b4 533f 45a9 683f b0c1 523f 8a72 193f
00000320: f687 b33e a3b6 793e 31e3 d13e 60c3 41be
00000330: 9b2e 74bf 65d4 06bf 6ae4 8ebf 1900 ce3d
00000340: 440e 243b 1e36 94be 7425 cdbe 3958 8dbe
00000350: 672a 22bf d85a 8cbd d21f 813e 5ca1 fb3b
00000360: 4c00 013e 7017 e73d f4fe 0e3e 5e5f d0bf
00000370: f7ac ffbf 894e 7cbf 8b66 823f 023d 8c3f
00000380: 0799 383f 2b59 9f3e 9f0d 073f 2558 673e
00000390: 131b 84be a9e2 473e 1c5c e23d 2b50 803f
000003a0: eaa0 183f 2418 e83e 9333 c0be 929b 9dbe
000003b0: 4210 4cbf 3ca1 ad3f eb25 453f 0eb8 c13f
000003c0: 8c2e 99bd 79ed 0abe b3bf 16bf 6308 543f
000003d0: 55f4 073f 720f da3e b9ad babf 707a 8fbf
000003e0: d204 a1bf 02ca edbd c747 90be 34a7 dbbe
000003f0: fd54 7ebe 3587 afbe 51e2 5ebf c1be e13d

conv2.bias f4 [16]
-0.24397373 1.0427421 -2.115456 -0.2538073 -0.35884842 -1.0556341 -0.16621567 -0.8080694
0.29050246 -0.72646433 -1.9053844 -0.17639247 -0.67269504 -1.8602318 -0.81983083 -0.33250198
00000000: 40d4 79be 9378 853f a263 07c0 08f3 81be
00000010: fbba b7be 051f 87bf 7134 2abe a3dd 4ebf
00000020: bdbc 943e 91f9 39bf a3e3 f3bf 3aa0 34be
00000030: be35 2cbf 131c eebf 6fe0 51bf b33d aabe

bn2.weight f4 [16]
1.1770922 1.0104712 1.6045545 1.7373666 0.5304584 1.1711311 0.9656316 1.416873
1.6769744 1.5525064 1.3729148 1.3947146 1.1454351 1.2207339 1.2694851 1.583747
00000000: f5aa 963f 1f57 813f 0b62 cd3f 0762 de3f
00000010: 1fcc 073f a0e7 953f a233 773f 185c b53f
00000020: 19a7 d63f 88b8 c63f acbb af3f 0286 b23f
00000030: 9e9d 923f 0241 9c3f 7d7e a23f 39b8 ca3f

bn2.bias f4 [16]
1.2923948 -0.29405987 0.16353318 -0.7825394 0.42627737 -0.5731241 1.1813127 0.09975663
-0.013753762 -0.46626022 -0.18032339 0.30392605 0.064166054 0.4995741 -0.68375325 0.4900228
00000000: 316d a53f 048f 96be 3e75 273e 8154 48bf
00000010: 0741 da3e 43b8 12bf 4135 973f 344d cc3d
00000020: 7557 61bc a9b9 eebe b2a6 38be 329c 9b3e
00000030: 7e69 833d 2dc8 ff3e 740a 2fbf 45e4 fa3e

bn2.running_mean f4 [16]
18.639624 15.984299 2.034225 1.9899039 8.876829 3.3239388 10.098408 1.3742057
2.834242 1.9813107 1.4632874 4.085873 2.2616332 1.8272069 2.7662005 4.743014
00000000: f31d 9541 b0bf 7f41 be30 0240 2cb5 fe3f
00000010: 7e07 0e41 6abb 5440 1493 2141 f9e5 af3f
00000020: 3964 3540 979b fd3f 004d bb3f 79bf 8240
00000030: 99be 1040 eae1 e93f 6e09 3140 c5c6 9740

bn2.running_var f4 [16]
95.38398 75.39406 59.454323 57.356857 30.480555 152.88844 41.541203 22.307901
76.13887 59.350735 37.537914 234.91887 79.46634 59.461334 24.460241 275.03836
00000000: 99c4 be42 c2c9 9642 3ad1 6d42 6c6d 6542
00000010: 2dd8 f341 71e3 1843 312a 2642 9576 b241
00000020: 1a47 9842 2767 6d42 d326 1642 3beb 6a43
00000030: c4ee 9e42 68d8 6d42 93ae c341 e984 8943

conv3.weight f4 [32, 16, 3, 3]
-0.29393047 -0.86361814 -0.7518254 0.6340775 0.37575322 0.3693627 -0.059765857 -0.30463374
-0.66294307 0.29850972 -0.14248253 -1.143904 0.49199855 -0.013997712 -0.5317975 0.73032135
0.1989051 -0.009928949 1.0734438 0.8497882 1.2642367 -0.6768248 -0.81686246 0.28496176
-0.22864805 0.45074093 -0.13989618 0.6626806 0.49992365 0.6877224 0.41202688 0.597975
0.32217014 -2.5140958 -1.2733386 -1.2731549 0.65735114 0.6115268 0.658081 -0.28416547
-0.25130448 -0.07214864 0.8136365 0.645551 0.77744126 -0.8171235 -0.19971742 -0.22385226
-0.22234748 -1.1531318 -0.9785026 -0.8757833 -1.5132645 -1.4842697 -0.38990125 -0.67109174
-0.9463839 1.3247372 0.7122868 0.46078095 -0.18449077 -1.2194692 -0.9972655 -0.24928968
-0.8819068 -0.96668357 0.5631447 -0.02778563 -0.4138816 -0.02854642 -0.1254527 -0.11049243
0.66042066 0.4975826 0.48226327 0.013129218 0.6274934 0.86421263 0.40803584 0.21296796
0.17572874 -1.6248696 -1.4941394 -1.413699 -0.52158123 -0.41498205 0.21264677 0.63865274
1.301178 1.1993245 -0.18703945 -0.3398465 -0.31147215 -0.3436648 0.14960246 0.26930356
-0.2139081 0.012312393 -0.013715417 0.5120119 1.0377983 0.8249347 -0.7971909 -0.9348902
-0.26146188 -1.0215129 -1.7608296 -1.8280017 -0.6909945 -0.78086966 -1.1036805 0.2573864
-0.71099657 -1.2092972 -1.0336639 -1.2972238 -1.1147326 -0.04148948 0.30974126 0.96798635
-0.41708428 -0.47839263 0.1681889 -1.781816 -1.6626055 -0.29778662 0.27326673 1.0166724
0.22159839 -0.37139985 0.47926447 -0.09789314 0.14857863 0.36530784 0.025206257 -1.2037861
-0.6827183 0.01741838 -1.0093597 -1.1210376 -1.1687067 -1.071077 -1.967513 -1.6372529
0.23094815 0.5759608 1.2999074 0.627069 1.4538664 1.6190436 -0.38606822 -0.9136516
-0.92492026 -0.8053729 -0.087067686 0.122914225 0.46517333 0.4138437 0.5589215 -0.1490345
-0.9035191 -0.9059108 0.5379072 0.4257198 0.21837737 0.10696836 0.6274207 0.83775246
-0.43192852 0.16559264 0.13720353 -0.8267122 -0.9480916 -0.7324778 -0.27624288 0.26643023
0.5913136 0.35108316 0.2949527 0.50916755 -0.19209667 -0.09798339 -0.100703456 -1.3401371
-0.69095176 -0.3166509 -1.1541325 -0.39264923 -0.48512334 0.48853022 0.60715675 0.18522102
0.048777252 0.4102882 0.22756349 1.8253998 1.8864981 1.4404848 0.014135475 1.4397848
1.0596557 -0.13152696 0.18601578 -0.008669465 -0.06437965 -0.32850215 -0.18538852 0.21542646
1.1553671 0.71008086 -0.11822423 0.68210113 1.0182738 0.713068 0.7807405 0.6699281
0.1903906 0.32137525 0.10820149 -1.4636967 -1.2048651 -1.4754536 -0.5516419 -0.011715056
0.13296112 0.39983892 0.7244618 1.0260429 -0.06606266 -0.5470977 -0.2020732 -0.1274095
-0.49731934 -0.13519105 0.105399184 -0.18776686 -0.11311486 -0.04696221 0.053664826 0.6065877
0.27896616 0.61435986 0.4003743 -1.020865 -1.7222422 -2.2143328 -0.44539204 -0.443824
-0.7434013 0.02150204 -0.06496627 -0.45429707 0.85029364 1.1869013 0.7734262 0.29659113
00000000: 0e7e 96be 1416 5dbf a177 40bf e752 223f
00000010: ba62 c03e 1c1d bd3e 0bcd 74bd f4f8 9bbe
00000020: a3b6 29bf 44d6 983e f1e6 11be 726b 92bf
00000030: 3ce7 fb3e a956 65bc e223 08bf 57f6 3a3f
00000040: c7ad 4b3e 08ad 22bc 9b66 893f b88b 593f
00000050: 82d2 a13f 6444 2dbf e61d 51bf 82e6 913e
00000060: b722 6abe 84c7 e63e f240 0fbe 70a5 293f
00000070: fef5 ff3e 930e 303f 30f5 d23e e414 193f
00000080: 7cf3 a43e f2e6 20c0 c2fc a2bf bdf6 a2bf
00000090: 2a48 283f 058d 1c3f ff77 283f 237e 91be
000000a0: fbaa 80be abc2 93bd 7b4a 503f d542 253f
000000b0: 6406 473f 012f 51bf b982 4cbe 8739 65be
000000c0: 0faf 63be d399 93bf 257f 7abf 5633 60bf
000000d0: a7b2 c1bf 8dfc bdbf 23a1 c7be abcc 2bbf
000000e0: 3746 72bf fd90 a93f 6d58 363f 7beb eb3e
000000f0: 26eb 3cbe 9117 9cbf cb4c 7fbf cb45 7fbe
00000100: a5c4 61bf 9378 77bf 402a 103f b19e e3bc
00000110: 4ae8 d3be 2fda e9bc ac76 00be db49 e2bd
00000120: 5411 293f 26c3 fe3e 36eb f63e ee1b 573c
00000130: 68a3 203f 0a3d 5d3f 13ea d03e 4614 5a3e
00000140: 3cf2 333e bafb cfbf f63f bfbf 17f4 b4bf
00000150: 5986 05bf 8778 d4be 13c0 593e bf7e 233f
00000160: 008d a63f 7783 993f 4587 3fbe 5c00 aebe
00000170: 4779 9fbe d5f4 afbe 6331 193e 28e2 893e
00000180: ba0a 5bbe ebb9 493c a1b6 60bc 3613 033f
00000190: 93d6 843f ec2e 533f b414 4cbf f754 6fbf
000001a0: 55de 85be efc0 82bf dd62 e1bf f6fb e9bf
000001b0: 04e5 30bf 13e7 47bf 6745 8dbf 26c8 833e
000001c0: df03 36bf 40ca 9abf 194f 84bf 6e0b a6bf
000001d0: 8faf 8ebf dff0 29bd 6896 9e3e f4cd 773f
000001e0: 128c d5be e1ef f4be b639 2c3e 8c12 e4bf
000001f0: 42d0 d4bf 7d77 98be 9ee9 8b3e 5222 823f
00000200: b0ea 623e 1f28 bebe 2762 f53e 337c c8bd
00000210: ff24 183e a109 bb3e 5a7d ce3c aa15 9abf
00000220: a0c6 2ebf feb0 8e3c b332 81bf 297e 8fbf
00000230: 2e98 95bf 0d19 89bf 77d7 fbbf 8191 d1bf
00000240: ac7d 6c3e 2b72 133f 5e63 a63f 9887 203f
00000250: 4b18 ba3f d23c cf3f bcaa c5be 12e5 69bf
00000260: 93c7 6cbf eb2c 4ebf 8b50 b2bd 74ba fb3d
00000270: 332b ee3e 52e3 d33e 7b15 0f3f 809c 18be
00000280: 074d 67bf c5e9 67bf 49b4 093f f2f7 d93e
00000290: 519e 5f3e 3a12 db3d a59e 203f f276 563f
000002a0: bc25 ddbe 1e91 293e 157f 0c3e 69a3 53bf
000002b0: 22b6 72bf aa83 3bbf b56f 8dbe 8b69 883e
000002c0: 5460 173f 2cc1 b33e 0a04 973e ce58 023f
000002d0: fdb4 44be 84ab c8bd 9d3d cebd 9d89 abbf
000002e0: 37e2 30bf 1120 a2be 9dba 93bf 5209 c9be
000002f0: 1662 f8be a220 fa3e a06e 1b3f 94aa 3d3e
00000300: a8ca 473d 4c11 d23e 6706 693e b3a6 e93f
00000310: c578 f13f ce61 b83f 7b98 673c de4a b83f
00000320: cca2 873f 01af 06be ec7a 3e3e 5f0a 0ebc
00000330: 7ad9 83bd 6f31 a8be 7dd6 3dbe c198 5c3e
00000340: 12e3 933f dcc7 353f 8c1f f2bd 2e9e 2e3f
00000350: cc56 823f a08b 363f 9cde 473f 6880 2b3f
00000360: c1f5 423e 4c8b a43e be98 dd3d 6a5a bbbf
00000370: 0539 9abf aadb bcbf 6738 0dbf 82f0 3fbc
00000380: f626 083e b0b7 cc3e 5476 393f 6055 833f
00000390: dc4b 87bd 980e 0cbf 47ec 4ebe a377 02be
000003a0: a4a0 febe 866f 0abe 87db d73d f545 40be
000003b0: c4a8 e7bd 725b 40bd a6cf 5b3d 5549 1b3f
000003c0: a7d4 8e3e b046 1d3f dcfd cc3e b4ab 82bf
000003d0: 6f72 dcbf a1b7 0dc0 6d0a e4be e63c e3be
000003e0: 8c4f 3ebf 0c25 b03c 090d 85bd a099 e8be
000003f0: d8ac 593f 62ec 973f 42ff 453f cbda 973e

conv3.bias f4 [32]
0.21513917 -1.297989 -0.5922953 -0.58285576 2.2580564 -0.4088458 -0.6316292 0.0025562064
-0.6535755 -0.08759836 -0.70014006 0.5441987 -0.14267577 -1.6505041 -0.30310562 -2.3060217
-1.3202316 -0.4383285 -1.6990763 -0.58675003 -1.1906062 -0.7491462 -0.8615868 0.035442956
-1.9782245 -0.7325737 -1.1116341 -0.03734056 -0.2299776 -2.0568845 -1.3196251 -0.52592874
00000000: 714d 5c3e 8124 a6bf aaa0 17bf 0936 15bf
00000010: ff83 1040 3d54 d1be 74b2 21bf 0786 273b
00000020: b950 27bf c566 b3bd 613c 33bf 9b50 0b3f
00000030: 9919 12be b843 d3bf a930 9bbe dc95 13c0
00000040: 59fd a8bf 986c e0be 557b d9bf 4035 16bf
00000050: c965 98bf 0cc8 3fbf f490 5cbf a22c 113d
00000060: 7636 fdbf f389 3bbf 074a 8ebf 6af2 18bd
00000070: 3f7f 6bbe ffa3 03c0 7ae9 a8bf 44a3 06bf

bn3.weight f4 [32]
1.3970826 1.2518404 1.4814945 1.3606936 1.1679322 1.2274171 1.2491025 1.3820992
1.3219545 1.6045662 1.4188347 1.5878191 1.0988569 1.3933929 1.3311934 1.2356656
1.2911931 1.3242413 1.5634838 1.665727 1.0268512 1.3971101 1.3439722 1.0144194
1.3897702 1.6060712 1.1504256 0.7525246 2.2260673 1.7892509 1.3564608 1.2237878
00000000: 9ad3 b23f 4e3c a03f 9da1 bd3f 352b ae3f
00000010: cd7e 953f 011c 9d3f 97e2 9f3f a0e8 b03f
00000020: ce35 a93f 6d62 cd3f 609c b53f a83d cb3f
00000030: 58a7 8c3f b35a b23f 8c64 aa3f 4a2a 9e3f
00000040: d145 a53f bd80 a93f 3d20 c83f 8b36 d53f
00000050: dc6f 833f 81d4 b23f 4807 ac3f 7fd8 813f
00000060: fde3 b13f be93 cd3f 2541 933f 74a5 403f
00000070: e377 0e40 2c06 e53f 82a0 ad3f 14a5 9c3f

bn3.bias f4 [32]
0.45773366 -0.21520515 0.64505535 0.67165416 0.37003788 0.54370093 0.091568135 0.4384326
-0.41591248 0.24312419 0.20928378 1.1933167 -0.553144 0.44829372 -0.016257767 0.2665116
0.6366173 -0.105839774 0.98535144 0.5441444 -0.5844571 0.47255605 0.8988393 0.46648663
-0.06559175 -0.30783665 0.27188668 0.8889183 0.91586965 0.50713825 0.40606967 0.14342886
00000000: 115c ea3e bd5e 5cbe 5922 253f 87f1 2b3f
00000010: 9b75 bd3e fc2f 0b3f 1388 bb3d 3d7a e03e
00000020: 7bf2 d4be 8cf5 783e 7d4e 563e 9abe 983f
00000030: d89a 0dbf c186 e53e 022f 85bc 3574 883e
00000040: 5af9 223f 86c2 d8bd fe3f 7c3f 0c4d 0b3f
00000050: fb9e 15bf def2 f13e 551a 663f 56d7 ee3e
00000060: f854 86bd c49c 9dbe bb34 8b3e 2690 633f
00000070: 6f76 6a3f d0d3 013f 5de8 cf3e 04df 123e

bn3.running_mean f4 [32]
5.3437634 4.0759344 2.9231598 2.1172438 18.50482 1.6452382 1.0867538 0.78958476
1.2624578 1.0326788 1.6604801 2.6077783 1.6430159 1.1530858 2.0598254 1.3274904
0.52669084 3.0321784 1.1140237 1.100714 1.4838343 1.5248914 1.0611917 3.2647796
0.45983356 2.7536054 0.78581536 21.054714 1.0628424 1.3286054 1.4001907 2.5005481
00000000: 1c00 ab40 0e6e 8240 0d15 3b40 ec80 0740
00000010: df09 9441 2a97 d23f c01a 8b3f 3a22 4a3f
00000020: 3898 a13f d22e 843f 9d8a d43f d7e5 2640
00000030: 584e d23f 5198 933f 2ed4 0340 35eb a93f
00000040: 36d5 063f 360f 4240 5498 8e3f 32e4 8c3f
00000050: 48ee bd3f a42f c33f 21d5 873f 26f2 5040
00000060: 4e6f eb3e 123b 3040 322b 493f 0e70 a841
00000070: 380b 883f be0f aa3f 7339 b33f fb08 2040

bn3.running_var f4 [32]
39.850956 89.61077 143.05489 36.489655 83.56916 68.21964 40.00114 15.693457
20.214144 28.420948 58.29422 75.32871 26.659101 45.46896 62.4777 56.575165
21.954767 160.51306 44.27685 26.872229 70.21719 56.331383 38.61416 44.349182
11.813167 102.228836 13.030324 136.63147 39.061996 83.59094 38.825222 87.71723
00000000: 6167 1f42 b738 b342 0d0e 0f43 68f5 1142
00000010: 6923 a742 7570 8842 2b01 2042 6618 7b41
00000020: 91b6 a141 1a5e e341 482d 6942 4da8 9642
00000030: d745 d541 37e0 3542 2ae9 7942 f84c 6242
00000040: 5da3 af41 5883 2043 7f1b 3142 53fa d641
00000050: 346f 8c42 5653 6142 e674 1a42 9065 3142
00000060: bb02 3d41 2a75 cc42 357c 5041 a8a1 0843
00000070: 7c3f 1c42 902e a742 074d 1b42 396f af42

conv4.weight f4 [64, 32, 3, 3]
-1.0658014 0.55181074 0.4354155 -2.5744371 -1.101348 0.16825776 0.06747437 -0.662289
-1.1540035 0.34943706 0.016842224 0.41800305 -0.023091655 -0.5020477 0.09900908 -0.52642107
-0.16352314 -0.11352419 -1.9096094 -0.22641526 0.90440124 -1.779055 -0.7846004 -0.87976205
-0.43490922 0.017909467 -0.4581406 -0.9087171 -2.8162248 -0.553697 -0.96740353 -1.8953631
-0.97368324 0.63558835 0.26759654 -0.44563803 0.66632926 0.38225144 0.41433993 -0.25086406
0.10715751 -0.20999339 -0.27657014 1.0323495 0.895698 -0.7322405 -0.639528 -0.95322955
-1.8072051 -1.2819782 -0.61414456 0.48876888 -0.17364277 -0.43713003 -0.18155396 -1.5562528
-1.9057446 0.6025651 0.13256897 -0.042193525 -0.8516032 -0.079253316 0.5246896 -1.0353634
-0.37119946 -0.7164792 -0.18243913 1.041978 1.4309498 -1.2932441 -3.121268 -1.4071102
-0.086786576 0.35952547 1.1675621 0.27723435 -0.0030645065 0.5219311 -0.07635631 0.86755174
0.66465914 -0.8238322 -0.67276824 -0.352939 -0.9000807 0.61857414 0.35389587 -0.15358539
0.8207784 0.009221186 -0.6958951 -1.5056468 -1.5728477 0.93208134 -0.11429819 -0.40137598
-1.0813284 -0.08288296 0.29788792 1.0326345 0.26978207 0.3785213 -1.1681951 -1.7971307
-1.3901694 -0.20970471 -0.2690794 0.070678346 -1.3195721 -0.91134477 0.6012064 -0.4238807
-0.9271892 -0.49264732 0.050203368 -0.79760075 -0.7302373 -0.15869614 0.15861228 -0.6521676
-1.8499725 -0.6055049 0.20157614 -0.06919647 -1.8524687 -1.4168181 -0.21135294 -1.0662262
-1.4661927 -0.8101669 -0.22149952 0.66199386 -1.1229513 -0.15301676 1.1674293 0.5355102
0.26294377 0.5346895 0.25609186 -0.21513814 0.6048433 -0.13714099 -1.1770747 -0.2671765
-0.64343476 -0.02510702 -1.1386554 0.08390303 -0.70890784 -1.4348792 0.5178582 0.25983074
-0.79518807 -0.57668215 -0.513571 0.062403753 0.8046624 -0.32363525 0.42239657 0.59351474
0.22010624 0.20493029 0.9457344 0.19926606 -0.5843338 0.581544 0.54257387 0.6558754
-1.3719252 -1.5854886 -0.8011926 -0.22147794 -0.79212725 -0.92330074 -0.5898411 0.5314593
1.1997907 -1.721226 -0.6887279 0.6731291 -0.63946694 -0.14990155 -0.03859012 -0.2407549
0.13668606 0.685535 0.38201848 0.49811658 1.0942534 0.04683842 0.14410187 -0.54983246
-0.13074043 0.19656761 1.2697784 0.015981257 -0.9447056 -0.80179054 -0.51961744 1.044431
0.35402596 0.21017326 0.8255042 -0.19243397 -0.29824257 0.48808825 -0.46793023 -0.4041532
-1.1128975 -2.2255607 1.4966961 -1.1047348 -1.0974861 0.09976493 -0.2876944 0.2446061
0.4320664 1.7880907 0.9114932 0.931205 0.37150994 0.22151646 1.0300497 0.92213744
0.07631909 -0.20547307 -0.1921896 1.0234667 1.0395135 0.3173658 -0.81254274 1.5491674
0.65119714 -0.8304839 0.8196199 -0.8042666 -1.4755864 0.23658395 0.5992241 1.071763
-1.7099906 -0.7457426 -0.10745234 0.6235503 0.91277623 0.89461106 0.23799095 0.24891387
-0.3525911 -0.11537455 -0.44009063 -0.7412003 -1.0230722 0.4760795 1.1358595 -0.4243438
00000000: 2e6c 88bf 7843 0d3f c8ee de3e 94c3 24c0
00000010: f9f8 8cbf c34b 2c3e 0130 8a3d c68b 29bf
00000020: 63b6 93bf 6ae9 b23e b4f8 893c 7f04 d63e
00000030: b62a bdbc 3386 00bf 46c5 ca3d 88c3 06bf
00000040: 9c72 27be 5f7f e8bd 156e f4bf 67d9 67be
00000050: d786 673f 13b8 e3bf 92db 48bf 1638 61bf
00000060: 6cac debe e0b6 923c 6891 eabe afa1 68bf
00000070: 073d 34c0 16bf 0dbf c2a7 77bf 429b f2bf
00000080: 4e43 79bf ebb5 223f 6a02 893e ab2a e4be
00000090: 8e94 2a3f 76b6 c33e 5d24 d43e 4171 80be
000000a0: 6675 db3d 8208 57be 9a9a 8dbe 0724 843f
000000b0: 774c 653f 1d74 3bbf 1bb8 23bf da06 74bf
000000c0: 7f52 e7bf dd17 a4bf 9438 1dbf ea3f fa3e
000000d0: 69cf 31be 82cf dfbe 48e9 39be 4b33 c7bf
000000e0: 70ef f3bf b541 1a3f 29c0 073e 1ed3 2cbd
000000f0: ab02 5abf 904f a2bd 0f52 063f ca86 84bf
00000100: db0d bebe 2e6b 37bf 53d1 3abe 895f 853f
00000110: 5d29 b73f 0689 a5bf dbc2 47c0 301c b4bf
00000120: 29bd b1bd b913 b83e ad72 953f a9f1 8d3e
00000130: e3d5 48bb 479d 053f b260 9cbd df17 5e3f
00000140: 1a27 2a3f abe6 52bf 8a3a 2cbf 6cb4 b4be
00000150: b06b 66bf e05a 1e3f d731 b53e 7d45 1dbe
00000160: 891e 523f 7514 173c 2e26 32bf 09b9 c0bf
00000170: 1353 c9bf e29c 6e3f 2b15 eabd 2781 cdbe
00000180: f868 8abf 8bbe a9bd c484 983e 5e2d 843f
00000190: e020 8a3e 8bcd c13e 6b87 95bf 6108 e6bf
000001a0: 12f1 b1bf d5bc 56be c6c4 89be cfbf 903d
000001b0: bde7 a8bf e44d 69bf aae8 193f e406 d9be
000001c0: 455c 6dbf 453c fcbe 0ca2 4d3d 902f 4cbf
000001d0: d5f0 3abf 3e81 22be 426b 223e 75f4 26bf
000001e0: e6cb ecbf 5e02 1bbf fa69 4e3e e1b6 8dbd
000001f0: b21d edbf 4c5a b5bf e86c 58be 1a7a 88bf
00000200: 34ac bbbf 1967 4fbf c5d0 62be 6e78 293f
00000210: debc 8fbf 6db0 1cbe 536e 953f 3217 093f
00000220: 91a0 863e 69e1 083f 791e 833e 2c4d 5cbe
00000230: 03d7 1a3f b06e 0cbe 62aa 96bf 5ccb 88be
00000240: 24b8 24bf 3dad cdbc 76bf 91bf 5ad5 ab3d
00000250: fc7a 35bf 1faa b7bf 5b92 043f 8908 853e
00000260: 7291 4bbf 71a1 13bf 6479 03bf 149b 7f3d
00000270: 5bfe 4d3f 85b3 a5be 5d44 d83e 95f0 173f
00000280: 8863 613e 3fd9 513e a61b 723f 670c 4c3e
00000290: e696 15bf 11e0 143f 1fe6 0a3f 73e7 273f
000002a0: 3f9b afbf 4af1 cabf f51a 4dbf 1dcb 62be
000002b0: dac8 4abf 705d 6cbf d4ff 16bf b70d 083f
000002c0: be92 993f 2251 dcbf 7950 30bf 3052 2c3f
000002d0: 1bb4 23bf cb7f 19be ac10 1ebd 7488 76be
000002e0: 6ef7 0b3e 397f 2f3f ed97 c33e 2309 ff3e
000002f0: 7f10 8c3f a5d9 3f3d 718f 133e d2c1 0cbf
00000300: d2e0 05be 0549 493e 1988 a23f 20eb 823c
00000310: 3ad8 71bf 2542 4dbf a605 05bf eaaf 853f
00000320: e442 b53e a937 573e 3e54 533f 690d 45be
00000330: 40b3 98be b4e6 f93e 8d94 efbe 2bed cebe
00000340: 6d73 8ebf 966f 0ec0 bd93 bf3f f367 8dbf
00000350: 6d7a 8cbf 8e51 cc3d ae4c 93be 057a 7a3e
00000360: cf37 dd3e 28e0 e43f 9e57 693f 7363 6e3f
00000370: 8d36 be3e 36d5 623e abd8 833f 3311 6c3f
00000380: 2f4d 9c3d 8867 52be 5acd 44be f500 833f
00000390: c70e 853f c57d a23e cd02 50bf 1e4b c63f
000003a0: dbb4 263f 989a 54bf 9cd2 513f 6ae4 4dbf
000003b0: 04e0 bcbf 1043 723e c066 193f 882f 893f
000003c0: f9e0 dabf fde8 3ebf f90f dcbd fea0 1f3f
000003d0: b4ab 693f 3b05 653f e6b3 733e 47e3 7e3e
000003e0: d286 b4be 7e49 ecbd 8f53 e1be 4ebf 3dbf
000003f0: 08f4 82bf b1c0 f33e d863 913f 9743 d9be

conv4.bias f4 [64]
-1.2070274 -1.0164729 -0.3950442 -0.71110964 -0.15113837 -0.43727386 -2.2475457 -0.91751665
-0.3255285 -0.6780955 -0.91038096 -0.7567508 -0.7564317 -0.93526685 -0.8375549 -0.11436838
-1.4703742 0.16987038 -0.51343364 -0.46348843 -0.014826016 -1.4383003 -0.9036024 -0.93687737
-0.747247 -0.31675276 0.26835448 -0.65937406 -0.1346719 -1.2723148 -0.23369563 0.5162353
-0.8918423 -0.7882179 -1.780846 0.33191913 -0.55414075 -1.5079893 -1.3402289 -1.7426167
-0.021345535 -0.012124992 0.41631082 -0.743848 -0.5923294 -0.07041338 -1.0422955 -1.6223928
-0.8201608 -0.8230094 -1.0805273 0.19664869 -1.0616137 -0.69968647 -1.7457229 -0.55396765
0.35517904 -0.36760008 -1.5935607 -0.31422514 -1.2409365 0.004496513 -1.0199585 -1.5086266
00000000: e07f 9abf c91b 82bf 3c43 cabe 480b 36bf
00000010: 04c4 1abe 5ce2 dfbe cad7 0fc0 5fe2 6abf
00000020: acab a6be ab97 2dbf ba0e 69bf 6cba 41bf
00000030: 82a5 41bf a66d 6fbf ff69 56bf f839 eabd
00000040: 3935 bcbf 80f2 2d3e 6370 03bf 5b4e edbe
00000050: d1e8 72bc 391a b8bf 7d52 67bf 32d7 6fbf
00000060: 944b 3fbf 6b2d a2be c265 893e bdcc 28bf
00000070: 6ee7 09be 36db a2bf e84d 6fbe ff27 043f
00000080: c74f 64bf a6c8 49bf c3f2 e3bf 4ef1 a93e
00000090: 2bdc 0dbf cb05 c1bf 9f8c abbf 100e dfbf
000000a0: d5dc aebc e7a7 46bc b126 d53e d36c 3ebf
000000b0: e6a2 17bf e434 90bd f069 85bf 91aa cfbf
000000c0: 0ff6 51bf beb0 52bf b84e 8abf 465e 493e
000000d0: f5e2 87bf a71e 33bf d973 dfbf d3d0 0dbf
000000e0: 07da b53e 1436 bcbe ccf9 cbbf 1ee2 a0be
000000f0: 02d7 9ebf 7c57 933b 008e 82bf ad1a c1bf

bn4.weight f4 [64]
6.043337 7.151588 6.4348 6.894056 5.2229757 4.67587 7.393066 6.8706155
6.6560893 6.0278645 8.519912 5.08602 6.0492225 6.4973326 6.5645356 1.4214985
7.2186785 3.0905917 4.756624 6.1924987 3.5413923 6.5583153 6.5091453 6.7569113
5.6591706 5.6012287 1.9458898 5.8543386 7.8117366 5.7043858 5.7329454 1.8644073
6.2779827 6.6192102 7.768586 2.7720482 0.121018976 7.716627 6.058763 6.2656393
4.551594 7.198364 2.2820866 5.4978085 5.943376 3.119066 5.771653 7.304624
6.4474325 6.532343 6.0958567 1.7962501 7.4047375 6.5988092 5.0369434 4.7128534
1.8566617 5.9456177 6.544363 6.9204373 8.875477 1.0555379 6.637526 6.728913
00000000: 0463 c140 cfd9 e440 e2e9 cd40 1b9c dc40
00000010: 9e22 a740 baa0 9540 ff93 ec40 15dc db40
00000020: affe d440 44e4 c040 8f51 0841 adc0 a240
00000030: 3b93 c140 26ea cf40 ad10 d240 aaf3 b53f
00000040: 6aff e640 41cc 4540 4436 9840 f328 c640
00000050: 2ca6 6240 b8dd d140 eb4a d040 9e38 d840
00000060: ed17 b540 443d b340 eb12 f93f be56 bb40
00000070: bff9 f940 548a b640 4a74 b740 e6a4 ee3f
00000080: 3ce5 c840 92d0 d340 4298 f840 3d69 3140
00000090: ccd8 f73d 9cee f640 63e1 c140 1e80 c840
000000a0: a8a6 9140 ff58 e640 b50d 1240 0cee af40
000000b0: 2330 be40 c79e 4740 62b1 b840 7bbf e940
000000c0: 5e51 ce40 f408 d140 4211 c340 86eb e53f
000000d0: 9cf3 ec40 7229 d340 a42e a140 b2cf 9640
000000e0: 17a7 ed3f 8042 be40 6c6b d140 3974 dd40
000000f0: f401 0e41 de1b 873f 9d66 d440 4153 d740

bn4.bias f4 [64]
0.115634084 -0.033431996 -0.10966898 0.115715206 0.18803342 0.028177375 -0.06501934 0.17390785
0.20337811 0.1320195 -0.06468703 -0.08128995 0.070130065 0.15882474 0.14746958 0.00027472453
0.04230028 0.1343114 0.046523124 0.1799867 0.014328016 0.023620814 0.06063586 0.09460245
0.16969083 0.14274444 -0.010245455 0.07156082 -0.12771752 0.21144772 0.12178222 -0.03404345
-0.071944736 0.17852588 -0.06908862 -0.043511305 -0.0028413583 0.054297388 -0.036356844 -0.046556722
0.030464105 0.052738935 0.019233475 0.20166975 -0.06548797 0.17183886 -0.05703013 -0.0453127
-0.041131787 0.0965798 -0.032098513 0.013677362 -0.106394604 -0.049518056 0.08606706 0.13733268
-0.04560059 0.1282279 -0.048430495 0.009706177 0.057739295 0.025734136 0.11572683 0.17592685
00000000: 90d1 ec3d fdef 08bd 219a e0bd 18fc ec3d
00000010: d58b 403e 3dd4 e63c dc28 85bd e614 323e
00000020: 5a42 503e 1f30 073e a27a 84bd 587b a6bd
00000030: 5aa0 8f3d f4a2 223e 4402 173e e708 9039
00000040: 0f43 2d3d ed88 093e 088f 3e3d 6f4e 383e
00000050: 0ec0 6a3c 7080 c13c 4f5d 783d eebe c13d
00000060: 6fc3 2d3e 992b 123e 8edc 27bc 7b8e 923d
00000070: 62c8 02be c085 583e f568 f93d 2571 0bbd
00000080: c357 93bd 7dcf 363e 567e 8dbd e938 32bd
00000090: 1536 3abb f066 5e3d eaea 14bd 43b2 3ebd
000000a0: dc8f f93c c804 583d 858f 9d3c 8482 4e3e
000000b0: 8f1e 86bd 87f6 2f3e 6d98 69bd cf99 39bd
000000c0: ce79 28bd a1cb c53d bb79 03bd 0417 603c
000000d0: 6ae5 d9bd 72d3 4abd ed43 b03d f0a0 0c3e
000000e0: afc7 3abd 2d4e 033e 0e5f 46bd a806 1f3c
000000f0: 0a80 6c3d 65d0 d23c 3002 ed3d 2b26 343e

bn4.running_mean f4 [64]
0.29004872 0.101284645 0.14430681 1.0142541 1.8482773 0.11911981 0.24508496 0.70108336
0.93526906 0.95338607 0.5183993 0.61829317 0.24627727 0.36160326 0.37374195 3.1900508e-22
0.3930348 8.083095 0.9609202 1.0708933 3.5239873 0.19064282 0.6922145 0.17434894
1.1755836 1.3078947 13.6848135 0.768 0.49297023 0.92267203 0.743859 7.7798014
0.25866106 1.4275669 0.3350869 7.0270724 8.20938 0.4949244 0.45046622 0.29640403
0.41311225 0.2806866 0.02433811 1.4257611 0.43261892 17.073006 0.37870345 0.5573878
0.32044476 0.31507152 0.12455488 13.4623575 0.95649767 0.40534088 6.74726e-07 1.3563615
13.318062 0.4745923 0.17255032 0.44069937 0.23418936 1.1701 0.62765384 0.39973596
00000000: 4481 943e 536e cf3d 2ac5 133e 14d3 813f
00000010: 5a94 ec3f 16f5 f33d 8df7 7a3e 337a 333f
00000020: cb6d 6f3f 1c11 743f d1b5 043f 7648 1e3f
00000030: 1c30 7c3e 1024 b93e 1b5b bf3e a5d3 c01b
00000040: db3b c93e 5b54 0141 defe 753f 0813 893f
00000050: 0289 6140 df37 433e f834 313f 8788 323e
00000060: 8679 963f 1869 a73f fff4 5a41 a69b 443f
00000070: 9866 fc3e 3c34 6c3f 8b6d 3e3f 22f4 f840
00000080: 396f 843e 83ba b63f 8390 ab3e c7dd e040
00000090: 9f59 0341 bb66 fd3e 82a3 e63e 45c2 973e
000000a0: 7383 d33e 27b6 8f3e b760 c73c 577f b63f
000000b0: 3a80 dd3e 8495 8841 6be5 c13e f8b0 0e3f
000000c0: 5611 a43e 0e51 a13e a116 ff3d d165 5741
000000d0: 08dd 743f d788 cf3e d11e 3535 419d ad3f
000000e0: c816 5541 c3fd f23e 08b1 303e 59a3 e13e
000000f0: 56cf 6f3e d6c5 953f ecad 203f 31aa cc3e

bn4.running_var f4 [64]
11.822915 4.4267116 5.6587434 33.952206 108.56386 6.5166984 14.536464 38.104954
38.818768 51.9929 30.394773 24.388048 10.543584 14.427591 15.186028 2.800092e-23
21.928432 248.69052 31.816689 51.082478 63.930065 9.748163 21.60644 8.303665
51.83906 58.09167 146.61893 30.726097 19.715786 38.075897 22.499067 72.94993
9.992019 75.21766 12.987163 104.58167 519.6489 32.220314 18.942886 11.180519
13.860557 9.857922 0.7956855 46.92563 19.730213 589.2861 13.587056 23.942062
17.028093 15.204211 6.100974 255.99838 36.365757 14.668982 5.373372e-07 73.03128
90.01314 16.634615 9.136024 23.751001 9.974007 50.095142 26.888329 28.039677
00000000: a92a 3d41 9fa7 8d40 6d14 b540 0fcf 0742
00000010: b220 d942 cb88 d040 5b95 6841 796b 1842
00000020: 6b46 1b42 bbf8 4f42 7f28 f341 b91a c341
00000030: 85b2 2841 6ad7 6641 f8f9 7241 7667 071a
00000040: 6e6d af41 c6b0 7843 9488 fe41 7554 4c42
00000050: 63b8 7f42 7af8 1b41 fdd9 ac41 d0db 0441
00000060: 335b 4f42 df5d 6842 729e 1243 0ccf f541
00000070: eeb9 9d41 b84d 1842 17fe b341 5de6 9142
00000080: 4fdf 1f41 716f 9642 6bcb 4f41 d129 d142
00000090: 88e9 0144 9ae1 0042 088b 9741 68e3 3241
000000a0: d7c4 5d41 0cba 1d41 0cb2 4b3f d8b3 3b42
000000b0: 7ad7 9d41 4f52 1344 9564 5941 5889 bf41
000000c0: 8939 8841 7344 7341 2e3b c340 96ff 7f43
000000d0: 8976 1142 26b4 6a41 883d 1035 0410 9242
000000e0: ba06 b442 b113 8541 282d 1241 0d02 be41
000000f0: 8895 1f41 6d61 4842 4c1b d741 4251 e041

lin.weight f4 [10, 64]
-1.063682 2.1289449 -1.2516338 1.3578702 0.31446525 -0.33555633 -2.0041456 1.1283334
0.9007348 0.020319715 0.21653658 0.03281201 -1.7185872 1.7072723 1.9257723 -0.020639677
2.0090468 0.031866346 1.2014092 1.2844248 -0.5689555 1.9729186 -1.0022644 -1.1457841
0.8541682 0.46958402 -0.4325441 1.0197238 -1.0132289 0.6067407 -0.8699543 0.051949516
-1.1442364 1.8541985 -1.506494 -0.99122787 -0.031317525 -1.4764491 -2.1930816 -0.17178842
-1.2339597 0.8594794 -0.15975294 1.7476616 -1.4178605 0.43308097 -1.3616225 -0.7302919
-0.41783217 0.23079665 -1.4166139 -0.014209081 -1.7347579 -0.77451366 0.9930069 0.71090746
-0.4994366 0.48495245 -2.1803677 2.1183586 -0.1892494 0.10366246 2.4502254 1.1207428
2.0653958 -0.92196405 -0.30673212 0.7837755 1.2091417 0.69777036 2.6278164 1.0983979
-0.024359118 1.1495465 -1.3396701 -1.2036299 1.8643012 -0.77771354 -0.8863396 -0.046493784
-0.35887235 0.38750282 -1.1011766 0.6657279 0.62619835 -1.0900517 -0.5659547 1.0239658
0.9053222 1.7048422 0.023878591 -2.285738 -2.2976534 1.6333783 1.1928444 -0.35871723
-1.2713733 -3.5634947 2.4280925 0.4945638 -0.02826839 -1.0302501 1.7317171 -1.7547046
0.46328038 -0.3864458 -0.21346836 0.5935509 2.1137013 0.13211116 -0.3334691 2.83163
-1.3714955 -1.181276 -0.5624547 0.10332379 -1.3096498 0.8912766 -0.40124416 0.40497422
-0.26953566 -2.0653825 0.07421573 -1.3528662 -2.1079965 0.069254324 -2.0059988 1.7913507
0.07160878 1.5567884 3.054476 0.38868266 -2.9847417 1.4845471 0.58787227 1.3887001
-4.4748006 -2.0692198 2.6060708 -1.049398 -1.3713565 2.2211692 1.9093541 -0.029817982
0.0492476 -2.403608 -0.69408417 -4.4247675 -0.6028481 -0.06863573 -2.4922643 1.7293507
-2.292362 0.09076255 0.05801969 -1.0545236 3.119106 -3.2870493 -3.0408826 1.1191882
2.5436764 1.046097 -0.72622097 0.37862608 -0.027941752 -1.5702748 -0.5952798 -1.1240805
0.5611149 2.3675976 0.7487636 -1.1451364 2.0233622 -2.6205 -0.5401893 0.34610403
0.9582375 0.9225394 -0.6275137 -0.74966097 0.14964603 0.04628651 -2.346849 -2.7389
0.70191675 -3.3422036 0.06387966 -0.57656395 1.4311326 0.17243099 0.8727791 -1.3495022
-1.4278722 -1.5655897 1.3908992 -3.4323597 0.3897367 -1.0241956 -1.3798459 -2.45391
1.8376765 1.2418365 -2.5848887 2.161484 1.0202543 -0.7748169 -2.0944028 -0.0373566
-2.1541004 0.32100987 0.7096334 -1.8436499 -0.42098686 -1.5077804 2.636694 0.82928276
0.6964883 -1.3074653 -0.2157074 1.9961871 1.9910185 -0.7378385 1.2253925 -0.28387573
1.3398073 -0.2619084 -1.7802691 0.30927268 -0.013290713 2.1728039 1.0673653 2.6822512
0.5662239 -2.6264806 -0.35256776 -2.0997276 -0.9485733 0.5345334 2.9900854 -1.6599219
2.6452436 -1.8865327 0.24571677 0.59550107 1.2728306 2.0943806 0.47840747 0.8833623
-0.46622694 1.3060389 2.157114 0.28519288 2.848231 -0.13918962 0.047729876 -2.6524894
00000000: bb26 88bf a240 0840 8935 a0bf b1ce ad3f
00000010: 9701 a13e 0ace abbe ec43 00c0 3b6d 903f
00000020: 8e96 663f 8875 a63c c4bb 5d3e e365 063d
00000030: aafa dbbf e687 da3f b57f f63f 8a14 a9bc
00000040: 3994 0040 4986 023d c7c7 993f 0868 a43f
00000050: 11a7 11bf 9988 fc3f 334a 80bf 0ea9 92bf
00000060: c4aa 5a3f 516d f03e 6c76 ddbe 4f86 823f
00000070: 7cb1 81bf 5c53 1b3f 53b5 5ebf 04c9 543d
00000080: 5776 92bf 6056 ed3f ccd4 c0bf 1cc1 7dbf
00000090: ce46 00bd 49fc bcbf 735b 0cc0 4ee9 2fbe
000000a0: 64f2 9dbf d806 5c3f 4696 23be 60b3 df3f
000000b0: 747c b5bf cabc dd3e a549 aebf 69f4 3abf
000000c0: 19ee d5be f555 6c3e 9b53 b5bf 35cd 68bc
000000d0: 8c0c debf 8746 46bf b335 7e3f 08fe 353f
000000e0: 27b6 ffbe b04b f83e 258b 0bc0 3093 0740
000000f0: 98ca 41be fc4c d43d 7ed0 1c40 8074 8f3f
00000100: 722f 0440 d605 6cbf fe0b 9dbe 83a5 483f
00000110: 28c5 9a3f 14a1 323f 252e 2840 4d98 8c3f
00000120: c68c c7bc 5724 933f 4f7a abbf 8b10 9abf
00000130: 6ca1 ee3f 3c18 47bf 27e7 62bf 4470 3ebd
00000140: 1ebe b7be c566 c63e 5bf3 8cbf 256d 2a3f
00000150: 894e 203f d086 8bbf 68e2 10bf 5011 833f
00000160: 32c3 673f 4538 da3f 099d c33c 8849 12c0
00000170: c10c 13c0 8a12 d13f 20af 983f c9a9 b7be
00000180: 5cbc a2bf 4c10 64c0 de65 1b40 7737 fd3e
00000190: 1c93 e7bc 3cdf 83bf e8a8 dd3f 299a e0bf
000001a0: 1633 ed3e 39dc c5be 7397 5abe f4f2 173f
000001b0: e246 0740 2648 073e 76bc aabe 6d39 3540
000001c0: 2a8d afbf 0d34 97bf 08fd 0fbf 6c9b d33d
000001d0: 9ba2 a7bf b42a 643f e06f cdbe c858 cf3e
000001e0: 9400 8abe 3a2f 04c0 6bfe 973d b82a adbf
000001f0: 6ae9 06c0 36d5 8d3d 4962 00c0 fb4a e53f
00000200: a0a7 923d d844 c73f 897c 4340 6a01 c73e
00000210: 0206 3fc0 a405 be3f cc7e 163f edc0 b13f
00000220: 9131 8fc0 196e 04c0 ddc9 2640 ac52 86bf
00000230: 9c88 afbf a327 0e40 b765 f43f d744 f4bc
00000240: dab7 493d b7d4 19c0 80af 31bf b297 8dc0
00000250: 4154 1abf e490 8cbd 4281 1fc0 5d5b dd3f
00000260: 0fb6 12c0 b7e1 b93d 0ea6 6d3d a1fa 86bf
00000270: 6f9f 4740 045f 52c0 d29d 42c0 8f41 8f3f
00000280: 98cb 2240 82e6 853f 9ee9 39bf 47db c13e
00000290: 1ae6 e4bc c4fe c8bf 4264 18bf dfe1 8fbf
000002a0: 3aa5 0f3f b886 1740 f9ae 3f3f d493 92bf
000002b0: c47e 0140 46b6 27c0 d949 0abf 8c34 b13e
000002c0: 0e4f 753f 8b2b 6c3f bda4 20bf c8e9 3fbf
000002d0: cf3c 193e ec96 3d3d c632 16c0 234a 2fc0
000002e0: d1b0 333f aae6 55c0 57d3 823d b299 13bf
000002f0: 5a2f b73f c091 303e 736e 5f3f 7dbc acbf
00000300: 84c4 b6bf 3e65 c8bf fc08 b23f c8ab 5bc0
00000310: 928b c73e d718 83bf ca9e b0bf dd0c 1dc0
00000320: fc38 eb3f 80f4 9e3f d16e 25c0 c155 0a40
00000330: b197 823f 665a 46bf b20a 06c0 3c03 19bd
00000340: c8dc 09c0 685b a43e 89aa 353f b8fc ebbf
00000350: 978b d7be f3fe c0bf 98bf 2840 e04b 543f
00000360: 0f4d 323f 065b a7bf 67e2 5cbe 0f83 ff3f
00000370: b2d9 fe3f fce2 3cbf a9d9 9c3f 2958 91be
00000380: ce7e ab3f dc18 86be dcdf e3bf fd58 9e3e
00000390: 4ac1 59bc 380f 0b40 6d9f 883f 01aa 2b40
000003a0: 0df4 103f 4218 28c0 c383 b4be f061 06c0
000003b0: b3d5 72bf 2ed7 083f 8f5d 3f40 5278 d4bf
000003c0: ac4b 2940 e779 f1bf 2d9d 7b3e c272 183f
000003d0: 1dec a23f 550a 0640 d3f1 f43e 0824 623f
000003e0: 4cb5 eebe 482c a73f 280e 0a40 cd04 923e
000003f0: 6b49 3640 b987 0ebe 6780 433d 63c2 29c0

lin.bias f4 [10]
0.2439445 0.26817685 -0.06115527 0.04073618 0.003596715 -2.778314 -2.7373233 -2.7344716
-2.8236587 -2.8932426
00000000: 96cc 793e 7a4e 893e f37d 7abd fbda 263d
00000010: ddb6 6b3b e6cf 31c0 4e30 2fc0 9501 2fc0
00000020: d3b6 34c0 e32a 39c0
