NCC_Code/models/2022-07-12_20-16-57_model.pt (torch, 115275 bytes, 50 tensors)

conv1.weight f4 [8, 2, 5, 5]
00000000: 2183 703c edc7 b83e 865e 4ebd 847e 97be
00000010: 70e5 9c3c e75f 513c 4c65 07be e568 f23c
00000020: 7528 d23c 2f48 1dbe e560 b73c 3a21 50bc
00000030: d04b ef3c ac14 60bd 1720 f13d 0987 ce3d
00000040: c2b6 c9bd 99c9 643d 99e4 673e 0e6b f43d
00000050: 9a66 6a3d f451 983c 93a0 21be 6a2d 14be
00000060: 4f33 2d3d 5d58 e73d 0d29 53be 0d6d 26be
00000070: ea09 0fbe bef7 ec3d 9013 0a3e b025 8bbb
00000080: 0aa8 a73d aebd 6d3e 4293 b43d 320d e83d
00000090: 370a 9dbe 8d77 673d 8fdd d6bd e924 ca3e
000000a0: 4235 d1bd 7717 103e ed8e e0bd 1000 afbd
000000b0: a36c 3dbe edba 1e3e f400 91be 8c4f 6e3d
000000c0: b53a 81bd 3115 ff3d 6550 8b3e e2e5 09be
000000d0: 18dc d13d 955b 05be d764 0ebf 65a4 743e
000000e0: d4f9 273e 0cea a83b 51a7 80be 758a aabe
000000f0: 30bb 59be ce7c 63be 4651 c83d a6ab f2bd
00000100: 0e11 ae3e 246c cdbd e06f 1e3e 3808 a23e
00000110: 32f5 a43e 5518 bb3d bc9b 7ebd abfe d2bd
00000120: ebb7 9cbc bebc cbbe 5c48 62be 213d 923e
00000130: 7563 8a3a dc43 8fbe 1f2d 1cbe b515 acbd
00000140: b723 813e ef34 133d 7c43 ef3d 8b98 42bd
00000150: 92c1 263d 2c8d 253e 8659 573e 2d87 5d3e
00000160: 3064 b03d a90a ad3e a45e a83e 3dd5 7dbe
00000170: e58d b33e ecfc ef3e 3d52 cfbd 3951 a9be
00000180: bb79 acbe a404 833e 66bf 2cbd 8da0 b9bd
00000190: 785e 45be e661 4e3d 014a b5bd d647 47be
000001a0: 3c04 52be 339f 5a3d 0e51 8dbe a77e bf3e
000001b0: fca9 e0be 196e 563e 0173 80bc 63ad c73d
000001c0: 32ec c4bc 678d de3d ec2a 793e f184 9d3e
000001d0: 7220 8c3d 4e39 373e 3ea9 a23e e48f a53d
000001e0: 75f6 e0be 61f6 18be cc16 9a3d 26e1 93be
000001f0: 83ca 40be c638 84be 6188 b33e e02d 2f3d
00000200: 0de9 d43c d3f9 863e 46fa 2bbe f526 7dbe
00000210: d77f 43be fa37 08be b99f 953e 421e 23be
00000220: 033b 963e 0fd8 9d3c a943 01bd 190e 50bd
00000230: ab4f 003c 8fb0 3d3e 5c24 2dbd 7694 f43d
00000240: dcac 62be c884 b53d 7067 1f3e ed1a 8d3e
00000250: 7949 b0be 0234 dfbc c756 493e febd 613e
00000260: 0dbd 91bd 1a40 ed3d d098 18bb b0af 85be
00000270: 5dca 8e3e 6df5 bd3e e8b3 803d 3d10 34be
00000280: 9000 413e 9733 933e fb3c ecbd 9179 633e
00000290: 03bb b53e d7bf 9abe 7509 743e d6d9 553d
000002a0: c831 773d a4aa e93d 3bed 3e3e 59f9 27bf
000002b0: 70a0 173e 5b2a 223e 5a97 b7be f1ba b83c
000002c0: 5783 1dbe 5d36 3e3e ab74 fcbe 9c30 583d
000002d0: 517a 98be baec 2bbe b347 833e 5d44 1fbe
000002e0: dba0 ed3d 6815 733e 2888 2ebe 6526 12be
000002f0: bf23 ddbd 62b7 153e db80 1bbe fe3a 2c3e
00000300: e976 e9bd 686f 1fbe 6940 b4be afb8 b33e
00000310: add1 cc3d 23c2 40be 5b0c 0a3f 1b82 cbbe
00000320: de79 2b3e 604c 69bc e31e e1bc f502 363e
00000330: 6a92 e4bd cc14 5e3d 8908 93bd 65b2 a3be
00000340: ed19 053f 3e45 bdbd cef8 e43b 7816 e2be
00000350: 2334 33bd 0c6f e13d 688b 3cbe 737f 953e
00000360: 9ebc 9c3c 6282 f33e 9ba6 c33c 1918 5f3e
00000370: 23c8 9e3d f707 f93d f429 9f3c 9edd a7bd
00000380: dced 44bd 2055 b7be eeba e5be 1696 993d
00000390: e139 d03d 3b7c bf3d 9ef1 fa3e c531 65be
000003a0: 4c22 44be a26a ae3e edd5 e3bc 3b5a 29be
000003b0: 6f3b ac3d a90f 713d 2719 91be 649e 85be
000003c0: 081b a63e 261a 01be de71 513d fe72 5dbd
000003d0: 4fe1 c53d e6d2 b1bd 3fb5 3abe 1034 05bf
000003e0: 460d 013d c0f1 163d d408 65bc 4cec 373e
000003f0: 9dcb 3d3d 6b97 adbd bc1d 05be 1bd9 76be
0.014679701 0.3609003 -0.050383113 -0.2958871 0.019152373 0.012779213 -0.13222235 0.029591033
0.025654057 -0.15359567 0.02238507 -0.012703234 0.029210955 -0.054707214 0.11773699 0.1008435
-0.098493114 0.05585632 0.22645797 0.119344816 0.057226755 0.018593766 -0.1578391 -0.14470449
0.04228526 0.11296151 -0.20621128 -0.16252537 -0.13968626 0.115706906 0.13484025 -0.004246436
0.08186348 0.23216888 0.0881715 0.11330642 -0.30671856 0.056510497 -0.10491478 0.39481285
-0.10215236 0.14071451 -0.10964761 -0.08544934 -0.18498473 0.15500994 -0.2832104 0.05818133
-0.063100256 0.12455214 0.27209774 -0.134666 0.10247058 -0.13023217 -0.5562262 0.23890837
0.16403896 0.0051548537 -0.25127652 -0.3330876 -0.21262813 -0.22215578 0.09781127 -0.118491456
0.33997387 -0.10030392 0.15472364 0.31646895 0.3221832 0.091355 -0.06216024 -0.1030248
-0.019130668 -0.39792436 -0.22097915 0.28562263 0.0010558205 -0.2798146 -0.15251587 -0.08402578
0.2522256 0.035939153 0.116827935 -0.047508758 0.040711947 0.16167134 0.21030244 0.21633597
0.08612859 0.33797196 0.32884705 -0.24788375 0.35069194 0.46872652 -0.101231076 -0.3306978
-0.33686623 0.25589478 -0.04217472 -0.09063826 -0.19274318 0.050386332 -0.08852006 -0.19460997
-0.20509428 0.05337448 -0.27600902 0.37401316 -0.43879688 0.20940436 -0.015679838 0.09749868
-0.024038408 0.10866814 0.2433278 0.3076549 0.06842126 0.17892954 0.31769747 0.080840856
-0.43938032 -0.14937736 0.075238794 -0.28882712 -0.18827252 -0.25824565 0.35064986 0.04276836
0.025990034 0.26362476 -0.1679469 -0.24721892 -0.19091736 -0.13302603 0.2922342 -0.15929511
0.29341897 0.019268064 -0.031558666 -0.050794695 0.007831494 0.18524383 -0.042271003 0.11942379
-0.22136253 0.08863217 0.15566802 0.27559605 -0.34431055 -0.027246479 0.19662009 0.22045133
-0.07116137 0.11584492 -0.0023284443 -0.261106 0.27888766 0.37101308 0.062843144 -0.1758432
0.18847871 0.28750297 -0.115350686 0.22214343 0.3549424 -0.30224487 0.23831733 0.052209698
0.06035021 0.114095 0.18645184 -0.6561485 0.14807296 0.1583647 -0.3585766 0.022550078
-0.15382133 0.18575425 -0.4930776 0.052780733 -0.2978082 -0.16789523 0.2564064 -0.15553422
0.11602946 0.23738635 -0.17044127 -0.14272459 -0.10797834 0.14620736 -0.15185873 0.16819379
-0.113996334 -0.15569842 -0.3520539 0.3510184 0.1000093 -0.18824057 0.539251 -0.397477
0.16745707 -0.014239401 -0.027480548 0.17774566 -0.11160739 0.054219052 -0.07179362 -0.31972042
0.51992685 -0.092417225 0.0069876676 -0.44157767 -0.043750893 0.11007509 -0.18412554 0.291988
0.019132908 0.47560412 0.023883155 0.21786536 0.07753017 0.12159722 0.019429184 -0.08196567
-0.048078403 -0.35807133 -0.4486918 0.0749933 0.101672895 0.09349867 0.49012464 -0.22382267
-0.19153708 0.3406573 -0.027811969 -0.16538326 0.084097736 0.058852825 -0.28339502 -0.26097405
0.32442498 -0.12607631 0.051133983 -0.054064743 0.09662115 -0.08682804 -0.18233202 -0.52032566
0.0315068 0.036851645 -0.013979156 0.17961234 0.04633676 -0.08476146 -0.12999624 -0.24106257

conv1.bias f4 [8]
00000000: 84fa 07bc d217 b2bc bd03 0f3c f038 a33b
00000010: 84d6 2d3b 140f 2a3c 2349 823b 545f 783c
-0.008299474 -0.021739874 0.008728919 0.0049811527 0.0026525566 0.0103795715 0.0039760037 0.015159447

bn1.weight f4 [8]
00000000: a626 783f d00a 843f 0003 7f3f d6ee 7d3f
00000010: 2ee3 803f 4631 803f 2b22 803f ba4f 803f
0.9693397 1.03158 0.9961395 0.9919256 1.006933 1.0015037 1.0010427 1.0024331

bn1.bias f4 [8]
00000000: 3aa8 c3bc 29ea 5dbc fbf2 9aba b781 dcbc
00000010: 1d98 13bc 8535 383b bcdd bc3c 73c2 703c
-0.023883928 -0.013544598 -0.0011821681 -0.026917322 -0.009008435 0.0028108072 0.02305495 0.014694798

bn1.running_mean f4 [8]
00000000: bc5f 493e 87f3 f23e beca 823e d03b 893e
00000010: d745 d83e 5a06 0e3f de67 043f 30e7 1a3f
0.19665426 0.47451422 0.25545305 0.26803446 0.42240784 0.5547844 0.5172099 0.60509014

bn1.running_var f4 [8]
00000000: 899a 313e 672d 883f 4388 433e 8d21 6b3e
00000010: 8e76 453f a40d 9c3f 3def c53e b043 c33e
0.17344107 1.0638856 0.19094948 0.22962017 0.77134025 1.2191663 0.38659087 0.3813758

conv2.weight f4 [16, 8, 3, 3]
00000000: d48a d93b e358 de3d 1366 00be 7469 1d3e
00000010: a1c9 73be ed7d dd3c 9a7c 653e 0daa 1dbe
00000020: b458 4a3d 1e16 523d 5974 b93c 994d 453e
00000030: 6902 2dbd 4715 e93e 6945 afbd d8a2 d23d
00000040: 1a76 d83d f27f 54be 5b60 9dbd 9d9a 3bbe
00000050: 9c56 f33c 5caf 1e3e c332 203e 9ba5 3abe
00000060: 7c7c 31be e560 8ebe f082 babd 3513 71be
00000070: b923 44be 385c d5bd b177 90bd 63db dd3d
00000080: 9915 1abd 8599 0a3e f32a a5bd eba2 d53b
00000090: 1e72 44bd 995e d1bd ab12 2c3e c6be ae3d
000000a0: 4fc2 e93d 5ae7 613e d8f1 1e3d 5780 19be
000000b0: aafc 4abe c4c5 77ba 1452 933c e785 bcbc
000000c0: 6ae8 743e 6cd3 08be 42e3 823e 88ff d3bd
000000d0: e19d debc bb8d 27be db4c 73be f056 293e
000000e0: 14c2 47be 91ab 78be 241b 27bd bde6 3cbd
000000f0: 404c a43d c47a 123e c36e f5bc dffa 063e
00000100: f561 d33d 7aca 01be 519d adbd f222 37be
00000110: 53eb 463e dda2 c7bd ed7a a4be b07e 84bd
00000120: 766c 52be b91b 4c3e 8c28 d63d a129 053e
00000130: 09fe efbd 3765 b03e ab06 acbe 5e2f 053e
00000140: 2f1b 32be 39b4 babd 105b 09be ef04 1cbd
00000150: 6538 0e3e 583e 24bd 0b14 b5bc da37 cebe
00000160: 6e5d 15be a949 8fbc 6a2c 683d 0924 f93d
00000170: a95d 79be adab 7e3e ee22 06be 8f48 91ba
00000180: 578a 8cbd a9dd bbbd ae81 5bbe 6f1d 74be
00000190: d86e 69bd ca21 39bd ed9d 18be 812d 463e
000001a0: b9b7 233e 677a 2b3e 3250 cf3e c456 68be
000001b0: 19b0 9b3b 1858 4a3e ede3 df3d cbb3 4fbd
000001c0: 7384 203d 075d 3ebd 06d7 803d 632c 26be
000001d0: f976 6f3d 9042 b7bd 2f8e 00be aa68 3e3c
000001e0: 5256 d43d 93d4 433e 99cb d43d 6c70 d13d
000001f0: 59bb c53d 8b27 6b3e a954 033e d4db e63c
00000200: 17db 6bbe 99ba 193d 2bd1 c23d 7f12 da3c
00000210: 077a 6b3e 2af3 593d 3e49 e7bd 5219 8abc
00000220: 0339 e8bd 9c6c c0be 1a0c 03be d99b 50be
00000230: 11bb 2d3d 895c ce3b b01d 3abe dd98 aebd
00000240: 0367 73be 3627 923d 5362 60be eeac fb3d
00000250: d44d 293e 55d9 413e 0b93 7b3d 3e3a 7cbd
00000260: 21ad 39bc a8ac 263e 50fd debd aef9 57bd
00000270: ac1a 873c 767d 5d3d 67e8 acbd 1aed 85be
00000280: 1636 fc3b a29f 14bd 06b1 8abd 5018 68be
00000290: d799 99bd a80d 293e 33ab a2bd c0eb 7abe
000002a0: 2ba1 fbbd 6cc7 d0bd 63db 57be 4a8e 76bd
000002b0: d427 173e ed23 6bbe 2124 e3bd d3af febd
000002c0: c78e 043d 7ca8 55bd 7b81 5fbe 5399 91be
000002d0: d91a 1dbe be1d 043d e22c 19bd ae0e cdbc
000002e0: 6582 8cbd 935e b13d 0211 fb3d 5a69 76be
000002f0: b89f 78bd a44f 7fbd 7a92 6e3d 6380 3f3d
00000300: 9b47 7fbe 2ca2 21be 6b70 453e 2bfb 1d3e
00000310: fa57 9cbd b775 143e 05cf 0fbe 56da bd3b
00000320: cbc2 cd3e 92b7 613c d663 113d 1396 acbe
00000330: 0bfe 843d 59eb 0dbd e71e 033e f20a f3bd
00000340: c46e 8dbd e362 a93c 7faa 2d3e 290c c13c
00000350: d902 0e3e 4cd1 abbd d9a0 a43d aadf 6bbc
00000360: a636 e4bc 6b71 2c3e a62c a63b c9a4 9f3e
00000370: db19 0c3c 2c09 21be a259 02be 18d9 603e
00000380: d337 aabd b71d fcbd c0be d2bd 72ab 8f3e
00000390: 8bf7 6dbe 4d17 553e 2a67 2e3e a158 a6bd
000003a0: 5e56 f9bd 34b1 e73d 54de 25be dca3 693e
000003b0: 68bc 84bc 8cfc d5bd 2245 6c3d 01d8 19be
000003c0: fa3f 7d3d f071 ef3c 8bef a6bd e93e 01be
000003d0: 8c5e 5abe add1 7b3e ccd2 84bc 5461 0dbe
000003e0: 653d 6a3d 29f8 9bbe d5c8 603d f51b fabd
000003f0: d52b abbe e3f6 83bd 72f1 29be b782 11be
0.006638864 0.108567975 -0.12538938 0.15372258 -0.23807384 0.027037585 0.22410813 -0.153969
0.049401 0.051290624 0.022638487 0.19267882 -0.042238627 0.45524046 -0.08558161 0.10284966
0.10569401 -0.20751932 -0.07684394 -0.18320699 0.029704385 0.15496582 0.15644364 -0.18227236
-0.17332643 -0.278083 -0.091070056 -0.23542483 -0.19154252 -0.1041798 -0.07054079 0.1083286
-0.037618253 0.13535126 -0.080648325 0.0065196655 -0.047960393 -0.10223121 0.16803996 0.08532481
0.114140145 0.2206091 0.03880486 -0.14990364 -0.19822946 -0.00094517716 0.017983474 -0.023013068
0.23916784 -0.13361901 0.2556401 -0.10351473 -0.027174892 -0.1636266 -0.23759787 0.1653707
-0.19507629 -0.24284197 -0.040797368 -0.046118487 0.08022356 0.14304644 -0.029960042 0.13181637
0.10321418 -0.12674895 -0.08477271 -0.17884424 0.19425707 -0.097478606 -0.32125035 -0.06469476
-0.20549187 0.1993245 0.104569525 0.13004161 -0.11718375 0.3445222 -0.33598837 0.1300635
-0.17393182 -0.09116406 -0.13413644 -0.038090643 0.138887 -0.040098518 -0.022104284 -0.40276986
-0.14586422 -0.017491179 0.05668298 0.12165076 -0.24352135 0.24870177 -0.13099262 -0.0011084246
-0.06862324 -0.09173138 -0.21436188 -0.23839353 -0.056990474 -0.04519824 -0.14903994 0.19353296
0.15988053 0.16745912 0.40490872 -0.22689348 0.004751217 0.19760168 0.10932145 -0.050708573
0.039188813 -0.046475437 0.062910125 -0.1622787 0.05846307 -0.08948243 -0.12554239 0.011621634
0.10368027 0.1912406 0.10390396 0.10226521 0.09654874 0.22964303 0.12825264 0.028180994
-0.23032795 0.03753147 0.09512552 0.026620148 0.22995768 0.053210415 -0.11293267 -0.016857777
-0.11338999 -0.37582862 -0.12797585 -0.20371951 0.04241473 0.006297652 -0.18175387 -0.0852525
-0.23769765 0.07136385 -0.21912508 0.12288843 0.16533595 0.18930562 0.061419528 -0.06157898
-0.011332781 0.162768 -0.10888159 -0.052728347 0.01649221 0.054074727 -0.08442765 -0.26157457
0.0076968772 -0.03628505 -0.06772046 -0.22665524 -0.07500046 0.16509116 -0.0794281 -0.24503994
-0.122866 -0.10194287 -0.21079783 -0.06019429 0.14761287 -0.22962923 -0.110908754 -0.124358796
0.032362726 -0.052162632 -0.21826737 -0.2843729 -0.15342273 0.032254927 -0.03739632 -0.025031414
-0.06860808 0.08660617 0.12259103 -0.24063626 -0.060699195 -0.06233181 0.05824516 0.0467533
-0.24929659 -0.1578452 0.19281165 0.15427844 -0.07633968 0.1449803 -0.14043815 0.00579385
0.40187678 0.013776677 0.0354956 -0.33708248 0.06493767 -0.034648273 0.12804757 -0.11867322
-0.069058925 0.020677036 0.1695957 0.023565369 0.13868274 -0.083895296 0.08038492 -0.014396587
-0.02785809 0.1684014 0.0050712405 0.3118041 0.008551086 -0.15726155 -0.12729505 0.21957815
-0.08311429 -0.12310355 -0.10290289 0.2806049 -0.23238961 0.2080967 0.17031541 -0.08122373
-0.12174676 0.11313096 -0.16198093 0.22816414 -0.01620312 -0.1044856 0.057683118 -0.15023805
0.06182859 0.029229134 -0.08151158 -0.12621655 -0.2132513 0.24591704 -0.016213797 -0.13806659
0.057187457 -0.3046277 0.05487903 -0.12212364 -0.3343188 -0.06443574 -0.1659601 -0.1421002

conv2.bias f4 [16]
00000000: 248e 98bc 48ea e23b 6f55 bd3c 822f 3e3c
00000010: 0c45 df3b 2c1c 973c 4af5 ecb8 92a7 253b
00000020: 2c7c 563c 759d d3bb 19fc 603c ce14 753b
00000030: 4d24 803b 6869 dc3c e4a6 dd3a 58ee 7c3c
-0.018622465 0.006924901 0.023112027 0.011608006 0.006813651 0.01844605 -0.000112990456 0.0025276882
0.013091128 -0.0064579793 0.01373198 0.0037396434 0.0039105774 0.02690573 0.0016910699 0.015437685

bn2.weight f4 [16]
00000000: 61b1 833f 8451 7d3f 5906 803f f9c5 7c3f
00000010: eb7f 803f 307c 803f cce6 7f3f d436 7c3f
00000020: 95b4 7b3f 93aa 803f 0b07 803f 67d1 803f
00000030: 07c9 813f 5854 813f 9111 7c3f b3e9 7b3f
1.0288507 0.9895251 1.0001937 0.9873958 1.0039037 1.0037899 0.99961543 0.9852116
0.9832242 1.0052055 1.0002149 1.0063905 1.0139474 1.0103865 0.98464304 0.9840347

bn2.bias f4 [16]
00000000: f8fe 46bc 766f 713b 2e59 8ab9 76dc 0cbb
00000010: 3890 84ba f432 1c3c 2f74 e53b 9925 cd3b
00000020: aac3 08bb 5872 28bc affe 0a3c 19ab a4bb
00000030: b0e3 1cbb 7172 b9bc 71c7 a63b f5b2 8d3b
-0.01214575 0.0036840118 -0.00026387855 -0.002149371 -0.0010113781 0.009533633 0.0070023756 0.0062605855
-0.0020868578 -0.010281168 0.008483573 -0.0050252792 -0.0023939423 -0.022637578 0.0050896932 0.004324312

bn2.running_mean f4 [16]
00000000: d85b e83e 1bb1 e63e cb72 083f 4ba9 dc3e
00000010: dc69 b73e a903 1f3f 8c9a 373f da31 e93e
00000020: 9689 e73e 3d86 9c3e bbb1 563f 4b3a ed3e
00000030: 5770 043f 0087 203f a8ba d43e 8bc3 b53e
0.4538257 0.45056996 0.5330016 0.4309791 0.35822952 0.6211496 0.71720195 0.45545846
0.45222157 0.30571166 0.83864945 0.46333537 0.51733917 0.62705994 0.41548657 0.3550075

bn2.running_var f4 [16]
00000000: a455 0a3f eb35 373f 9803 a33e c8be c43e
00000010: f325 ec3e 4d2d 3f3f af46 713f 7d12 b93e
00000020: 484d c53e af04 dd3e 6baf 6a3f 4cc7 2d3f
00000030: 1920 293f d9d8 033f 5e0f 6b3f 8204 623e
0.5403693 0.7156665 0.3183868 0.38426805 0.46122703 0.746785 0.9424848 0.36146918
0.38535523 0.43167636 0.91673917 0.6788223 0.660646 0.5150276 0.91820323 0.22072032

conv3.weight f4 [32, 16, 3, 3]
00000000: 5598 cb3d c723 2e3e f406 44bd a9d6 8b3e
00000010: e4c6 853e 0ce8 453e 3373 043e ed13 753c
00000020: b3df db3c e1d6 1bbd 3d48 983d fbc4 0dbd
00000030: 694b 183e 398c 293c 5fd1 49be 466d 14be
00000040: 1ea0 0fbd fcb4 5abd abfe bf3d b316 8b3e
00000050: 31d8 24bb 5e72 8fbd aa2b f9bc 08d3 7cbc
00000060: 5984 97bd cfe5 a2bd c391 a2bd 6d34 183c
00000070: 56c7 4bbe 02f0 c5bc 1a3c 82bd cce0 b93d
00000080: 5034 b93c f140 4cbd 2072 063d 7237 30bd
00000090: 4e60 2bbd ba53 79bd ad63 32be 9f44 0abe
000000a0: 8691 07be 565b 883e e48c d6bc 5513 c33c
000000b0: eaed 163d 4067 5dbe 3afb 66bd baff 663d
000000c0: 9b43 bf3d 3951 e9bc 4612 8ebd e0d3 a0bd
000000d0: fd72 25be d3b7 b33d b8ee bbbd 9008 053e
000000e0: e821 b4be 2f71 8f3d 6bd4 9dbc 293f afbc
000000f0: 67e9 a93a 0a1d e13c 7c78 ef3c a7ef 813d
00000100: b6dd d63d 0559 4c3d cf54 39be 03a4 43be
00000110: 95be ff3c 6675 4c3e 7021 c5bd 0509 1dbd
00000120: a845 1c3e 472b 1dbd 4047 8abe 2625 b0bd
00000130: 04ec fe3c 20dc 59be c27a 563e 59a8 853d
00000140: 82cf 20be 742d 1ebe b3ce e13d 0f4c bfbd
00000150: bae2 523e bd96 1bbe 6fac 7bbd d1da 263e
00000160: 4ae6 65bc 9a92 9dbd 55fc 403c f58b 1f3e
00000170: 1be0 0b3e 9c47 033e 137f abbc ad4b cdbd
00000180: 9c9a febd ae2a 803e a320 ac3d c977 15be
00000190: c778 693d a812 1a3d a3d2 dabc 1f50 a4bb
000001a0: b396 ccbb 99f8 123d 14ae 8d3d 367d afbb
000001b0: fe82 a93d bd82 9c3d 0d7b c83d a4cc 303d
000001c0: 25d3 1cbc f7d8 f93d 5388 4c3d 4ddb 42be
000001d0: 9654 dabb c41d 47be 2a9d cfbd 27bb fdbb
000001e0: 604b b63d 6093 243d 378e 053e 257c cc3c
000001f0: da07 0dbd 3028 a2bd fe72 2ebe 97be 193d
00000200: 7a2d 76bc 96f6 d8bd 2e08 243d 1eb0 a1bd
00000210: 2062 6ebd 544d 02be 41ef 10be d017 a83c
00000220: e674 75be 072c 5dbd d2d1 c23d 9808 083e
00000230: bf7b 59be 34cd c6bc b5e3 07ba 6733 88bd
00000240: 01b1 df3c da71 663e 2195 5e3d 70ca 0abe
00000250: f3f2 f5bd 35dd 57bd 9882 26bd 39be 623d
00000260: 7b9c 943c e8ba ecbd 34ce 2b3e 1459 d7bd
00000270: 8de0 7fbd e391 1d3e 7f07 9fbe 9dea 283e
00000280: fa7a 113d 8388 26bd 9ba4 95be 4c03 8b3a
00000290: c2c4 a4bd c290 25bd 5042 30be 4a90 20bd
000002a0: 621e b2bd e242 38bd d2fa 263d 0423 93bb
000002b0: d4a1 28bd dce4 eb3d 6366 01bd 4fd0 54bc
000002c0: 3d37 a6bd b5b8 8bbd bb26 d43c 852a 5f3d
000002d0: efcc 0c3e 37ff 2a3c ec94 ebbd 7438 14bd
000002e0: e3a8 03bd 0e75 2bbc 4fea 5d3d 8b34 023e
000002f0: dd9a 243e 8109 9f3d 820a e8bd f696 3dbe
00000300: 6d8f b13e ac6e f53c 3d59 c13b fcd4 72bd
00000310: 45a7 13be e62b 21be a915 383e 917f c93c
00000320: ea6a acbd 27bc f93c 0f7e 5d3e b015 c63d
00000330: 1903 abbd bb1c 453e 7a15 8e3d 8c50 e63d
00000340: 5e55 fe3d 26ac 8fbd 22c7 e23d a479 ab3b
00000350: 98a8 99bd ee7e 97bd fad0 2fbe af07 19bc
00000360: 413e 4fbe 71f2 9abd 0c65 03bc 04c9 c5bd
00000370: e75a 89bd 98e9 fdbd fef7 a2bd e9fa a83d
00000380: 7f6f 223e e9d2 9e3d 64de 99bd 67a8 c3bd
00000390: e07c 06bd d3f7 243e 9521 4bbd c03e 62bd
000003a0: 7267 55be 6ce9 d23d eaec 52bd 2569 b63d
000003b0: 6666 0cbd 7cb2 78bd 90d6 beba 6370 8e3e
000003c0: 838c ebbd e182 063e 57f6 f937 9832 30be
000003d0: bbe9 78be 0b2b ff3b 7957 143e 3498 053d
000003e0: ba70 18bc bf22 773e 8045 10bb ab59 b7bc
000003f0: 2bbe 7a3d c359 f4bb bd6e d53d 8753 cd3d
0.099411644 0.17005835 -0.047858194 0.2731221 0.26128304 0.193268 0.1293457 0.014958364
0.026840067 -0.03804672 0.07435653 -0.034611683 0.14872517 0.010348373 -0.19708775 -0.1449481
-0.03506481 -0.053395256 0.09374746 0.27165756 -0.0025153274 -0.07004236 -0.030416328 -0.015431173
-0.0739829 -0.07953989 -0.07937958 0.009289843 -0.1990026 -0.024162296 -0.0635912 0.0907608
0.022607952 -0.04986662 0.03282368 -0.043021627 -0.04183989 -0.060870863 -0.17420836 -0.1350274
-0.13239107 0.26632184 -0.026190229 0.02381293 0.036847986 -0.21621418 -0.056391932 0.056396224
0.093390666 -0.028481113 -0.06937079 -0.07852912 -0.16157146 0.08775296 -0.09176391 0.12991548
-0.35182118 0.0700401 -0.019266328 -0.021392422 0.0012963236 0.027479667 0.029232256 0.06344538
0.10491507 0.049889583 -0.18098758 -0.19105534 0.031218806 0.19966659 -0.09625518 -0.03833868
0.15260947 -0.03837135 -0.27007484 -0.086008355 0.0311184 -0.21275377 0.20945266 0.065262504
-0.15704158 -0.15447026 0.11025753 -0.09340679 0.20594302 -0.15194221 -0.061443742 0.1629441
-0.014031956 -0.07693978 0.011778911 0.15580733 0.13659708 0.12820286 -0.020934617 -0.100242
-0.12431833 0.25032562 0.084046625 -0.14596476 0.056999948 0.03761545 -0.026711768 -0.005014434
-0.0062435507 0.035881612 0.069179684 -0.0053555025 0.08276938 0.07642124 0.09789095 0.04316391
-0.009571825 0.12199586 0.049934696 -0.19028969 -0.0066629155 -0.19444948 -0.101373985 -0.0077432576
0.089010954 0.04017961 0.13042532 0.02496154 -0.034431316 -0.079178214 -0.17036054 0.037535276
-0.015025491 -0.105939075 0.040046863 -0.0789492 -0.058199048 -0.12724811 -0.14153768 0.020519167
-0.23970374 -0.053997066 0.09512676 0.13284528 -0.21238612 -0.02426777 -0.00051837723 -0.06650429
0.027306082 0.22504368 0.05434144 -0.13553786 -0.120092295 -0.052701194 -0.040651888 0.05535719
0.018141022 -0.11559087 0.16777879 -0.10515037 -0.062470008 0.15387683 -0.31060407 0.16495748
0.03551767 -0.04065753 -0.29227147 0.0010605841 -0.08045341 -0.040421255 -0.17212796 -0.039200105
-0.08697201 -0.04498566 0.040766545 -0.004490258 -0.041169956 0.11518261 -0.031591784 -0.012989118
-0.081160046 -0.068223394 0.025897374 0.05448391 0.13750051 0.0104368245 -0.11503014 -0.03618665
-0.032143485 -0.01046492 0.054178532 0.12715356 0.160747 0.077654846 -0.11330129 -0.18514618
0.34679738 0.029959999 0.0059005306 -0.05928515 -0.14419277 -0.15739402 0.17977013 0.024596961
-0.0841883 0.030485226 0.21630119 0.09672105 -0.083502 0.19249241 0.0693769 0.11245832
0.12418626 -0.070152566 0.11073138 0.0052330066 -0.0750286 -0.07397257 -0.17169562 -0.009340211
-0.20238592 -0.07565773 -0.008019697 -0.09657481 -0.06706791 -0.1239807 -0.07957457 0.08250982
0.15862845 0.07755072 -0.07513121 -0.095536046 -0.032833934 0.16110162 -0.049592573 -0.055235624
-0.20840243 0.10298428 -0.05149547 0.089067735 -0.034277342 -0.06071709 -0.0014559794 0.2782012
-0.1150141 0.13135864 2.9797824e-05 -0.172068 -0.24307911 0.0077871135 0.14486493 0.032615855
-0.00930422 0.24134348 -0.0022014081 -0.022381624 0.061216515 -0.0074569895 0.10421512 0.10025697

conv3.bias f4 [32]
00000000: 227a 88ba 615a 13bb a580 903b 214c 553c
00000010: b0df 9e3c 6d3d ceba 5b93 d3bb 7bb5 513c
00000020: ce5d f9bb 6753 373c bebd 683c 22c6 d33a
00000030: dc32 bd3b 859a 92bc eb4e 5ebb d4dc 3dbc
00000040: 09ef 5fbb 782d 563c 6cf8 e93b 645e 8a3c
00000050: 259c 2bbb b33e 953b 8bbc cab9 cc23 a7ba
00000060: 521f e33a 0bf0 363c 456b 00bb 1e1a e0b9
00000070: 7743 a5bb dc34 ceba eda7 a0bb 5372 7639
-0.0010412375 -0.002248429 0.004409867 0.013018639 0.019393772 -0.0015734859 -0.006456775 0.012799616
-0.0076100593 0.011189318 0.014205394 0.0016157071 0.005773885 -0.017895946 -0.003392155 -0.011588294
-0.0034169576 0.013072364 0.00714021 0.016890712 -0.0026185599 0.0045545935 -0.00038668918 -0.0012751757
0.001732806 0.011165629 -0.0019595188 -0.00042744068 -0.005043443 -0.0015732306 -0.004902831 0.00023502977

bn3.weight f4 [32]
00000000: ba4c 7e3f 23b3 7e3f c6e4 803f f815 7e3f
00000010: 1908 813f c450 7a3f 3c8e 803f d169 7b3f
00000020: 3f76 823f 6f62 7b3f b2ac 7d3f 97e5 7c3f
00000030: cb3c 7f3f b1bc 813f de3f 7f3f d9d5 843f
00000040: b08a 7c3f 0271 833f db10 833f b207 7e3f
00000050: ed31 7f3f 054d 7c3f e588 803f 4985 7f3f
00000060: 5905 813f 68e4 7b3f fab5 803f be41 7b3f
00000070: e102 803f 2f29 7f3f ff1d 823f 9542 7e3f
0.99335825 0.9949209 1.0069816 0.9925227 1.0080596 0.9777949 1.0043406 0.9820834
1.0192336 0.9819707 0.9909164 0.98787826 0.9970214 1.0135709 0.9970683 1.0377761
0.9864912 1.0268862 1.0239519 0.9923049 0.99685556 0.9855502 1.0041777 0.9981275
1.0079757 0.98395395 1.0055535 0.9814719 1.0000879 0.99672216 1.0165404 0.99320346

bn3.bias f4 [32]
00000000: 89d7 24bc 4702 8ebc 4439 63bc 6b84 d9ba
00000010: 1d05 ff3b e318 843c bbe9 b7bc 99f0 363b
00000020: 7d81 f23b 9417 d7ba 4e56 563c 29b4 c73c
00000030: 12cc 1dbc 983d 8fbb 81bc 15bc 8666 063c
00000040: 4c5e 69ba 10da 91bb fbff 9fbc 99dc 453b
00000050: 166b 63bc 027a 393b 4a49 65bb 5555 94bc
00000060: fe83 4c3c 36a2 2abc 5713 a4bc 41d5 923c
00000070: 13f1 3f3c 755a e63b 2823 a1bc aaad 323c
-0.010061153 -0.01733507 -0.013868634 -0.001659525 0.007782592 0.016125148 -0.022450319 0.0027914403
0.00740069 -0.0016410225 0.0130821 0.0243779 -0.009631174 -0.004371356 -0.009139181 0.008203154
-0.0008902296 -0.004451044 -0.01953124 0.00301913 -0.013880512 0.0028301482 -0.003498631 -0.018107096
0.012482641 -0.010414651 -0.020028753 0.017923953 0.011715191 0.0070298263 -0.019670084 0.010905663

bn3.running_mean f4 [32]
00000000: 23c3 e33e 7215 fb3e 1393 173f c143 533f
00000010: a555 533f 96a7 183f 4552 103f 00a6 f53e
00000020: 1397 2c3f 740f 333f d9fc 1b3f a0e9 1c3f
00000030: de17 d53e f266 053f 43bf ee3e 256b 083f
00000040: 1ef0 cf3e ae8f 553f 8a6c 1f3f acef 333f
00000050: 9fff 0e3f 9f95 fc3e 7068 243f e329 2c3f
00000060: 138d 263f a801 1e3f 24cb 113f 0781 2a3f
00000070: 99a6 203f b89f 253f 18ef 073f f871 293f
0.44484815 0.490398 0.5920879 0.8252526 0.8255256 0.59630716 0.56375533 0.4797821
0.6741802 0.69945455 0.6093269 0.61293983 0.41619772 0.5211021 0.46630296 0.5328849
0.40612882 0.8342236 0.6227499 0.70287585 0.55858797 0.49332902 0.6422186 0.67251414
0.6505901 0.6172128 0.56950593 0.6660313 0.6275421 0.64696836 0.53099203 0.6618953

bn3.running_var f4 [32]
00000000: e00f f63e 1990 193f c925 5c3f 39a0 ba3f
00000010: 86c5 be3f 01aa 1c3f 3236 6d3f b4af 033f
00000020: fff1 853f fcb2 5a3f 04e3 4b3f 0770 893f
00000030: c63b db3e 6f01 243f d130 003f 3aa7 573f
00000040: cf45 c23e fc99 883f 5949 3e3f 5544 703f
00000050: cad5 343f 7d2e 173f 7336 4f3f 8378 6a3f
00000060: ce6d 9b3f 2438 153f 8e88 343f b9bb 7a3f
00000070: 024f 9c3f 2584 903f f1c9 6a3f b49e 533f
0.48058987 0.599855 0.85995156 1.4580146 1.4904029 0.61196905 0.9266082 0.51439977
1.0464476 0.8542936 0.79643273 1.0737313 0.4281904 0.6406469 0.5007449 0.8423954
0.37943885 1.0671992 0.7433067 0.93854266 0.70638716 0.5905531 0.8094246 0.91590136
1.2142885 0.5828879 0.70520866 0.9794269 1.2211611 1.1290327 0.9171439 0.82664037

conv4.weight f4 [64, 32, 3, 3]
00000000: 64dd 19be a9be 283c 2539 e83d 6693 033e
00000010: c0fa 043d 014a 0e3e 9bee 2ebc d72f b0bc
00000020: f36c 453d f5de 433c 845b bf3c e7c4 813d
00000030: 14e0 2b3c 4161 82bd 2823 f43c e089 adbd
00000040: ffa5 e9bc 32d3 a73d e804 b3bd 16f2 a73d
00000050: 1333 953d 1823 cfbc 2f9c 3fbd d912 a7bd
00000060: 5bc9 ddbc 21be ad3d 831e cd3d 78d5 afbd
00000070: f65a 8ebb 2998 f7bd 349b bd3b b05a c53d
00000080: 0ac8 66bc ca85 28be 5d2f bcbc 3434 ca3c
00000090: 14c1 9bbd c049 aabb 18b4 53bd 4395 0abe
000000a0: 4c00 bbbc a1f3 52bc 7107 bd3d 6bc4 343d
000000b0: 1b04 17bb 0942 30bd a78e 5cbd e1cc 003d
000000c0: f10f 00bd 0377 9abc 6d59 d8bc 373c bc3c
000000d0: 23d5 22bd 72be 80bd 616e 29bd a303 8ebd
000000e0: be62 2f3c c18c 573d 3d78 60bd 04c5 5d3d
000000f0: fb61 15bd 3a64 7b3d 1ce4 0bbd f63d c63d
00000100: b45e bc3d 8437 ac3d 1642 91be 4aa8 a3bc
00000110: 8db0 cfbc 52a9 29bc 5be7 263d 9b0f a63d
00000120: 0cc1 d03d b8cd d4bd 6a88 e2bd cf07 a3bc
00000130: 98ca 1ebd 2269 81bd 6c4e ac3c 1077 15be
00000140: 710e e3bd df19 c63d 240a 1d3d b24d 4dbd
00000150: 27e0 443d c454 6bbd 12ba a03d 4ee2 afbc
00000160: dacd eebc f7b7 8dbd de6b 5bbd b700 863d
00000170: cb74 37bd 6a90 f43c 6798 d93d ca7a ce3d
00000180: 9437 d1bc 785d ddbd abc6 dc3d 4b3b bfbc
00000190: 4ae3 cd3d 4ad5 4abc ba5e 093d b013 1bbd
000001a0: 26b4 123d 98ed 563d a883 c63d 534b 02be
000001b0: 66ae bc3d edc1 953c d044 03bd 2a65 f63c
000001c0: 1e3e 9abd 160a 51bd 6667 b8bb 7ac7 98bd
000001d0: 2030 0c3d 503a 0d3d 3c71 553d 6d98 16be
000001e0: 349b 4cbd 4dbe 0e3e 4e7d 8fbc 85e1 c2bd
000001f0: 736a fbbc 51bf f0bd 06c6 483c f65f 9ebd
00000200: b55a 923d 1f0c 17be 3a84 f9bc 7d12 e4bd
00000210: 395a 0f3d 9c11 b03d 7dbc 8bbd fc75 383d
00000220: 8785 ca3d 0bc3 9abd a8a0 70bc 3dd1 1fbd
00000230: 8a83 96bd d2c4 d83c b248 d0bd 392b fdbd
00000240: 04cd d03c e746 613b ef08 c73c b1df a3bc
00000250: 3206 3ebd 44ea 6c3c 8bbf aa3d 92d1 023e
00000260: 00b2 853d 034d 303d ab1d b8bc 1645 3a3e
00000270: 3f63 003d 50c8 873d f4d8 d4bc 16e5 fd3d
00000280: 2e48 92bc fae7 ebbd 9a12 343d e074 223e
00000290: 4500 80bd a80f e0bd 44f8 2e3d eab9 d0bc
000002a0: 52aa 013d acb0 8bbe f1fe 253e 78f3 1cbd
000002b0: 740b 12be c970 303d 851e c73c ee8e 80bd
000002c0: 7c97 50bc 7c3f bcbd 53dc 763c c3de cfbc
000002d0: 0d35 4fbd ace2 dd3d 953b 55bc 9fe1 d6bc
000002e0: 48dd 373d f937 1fbe 0d2c 173e a2fc a5bd
000002f0: 2bba b8bd 2c6b 2e3d 5514 513c f3b1 37be
00000300: 74ba d6ba 4620 ef3c a91e babd 8a8f 34bd
00000310: 082e d13d f9d5 edbc c2f5 a43c c04a b83c
00000320: cbe4 a93d aefe aebd 9e0f c2bd 3f95 833d
00000330: 98ef 043e fb15 f03c 07ef 95bc 2750 babd
00000340: 083a bebd 6ff0 f53d 418e 5b3d 4a2d 1d3d
00000350: dc8f 393d 0abf 603d ba31 df3d 3ef3 b23d
00000360: 5318 933d 93ca 96bd 5739 003e f151 113d
00000370: 45ab d33d 565f de3d 7154 043e a545 c6bc
00000380: 0cce d63d 0fe4 2c3d 7910 44bd 25b1 a93c
00000390: cf46 b1bd 3f61 043c 1d7f 95bd 2746 14bd
000003a0: 9db5 92bd 4b53 1f3e 639e 8fbe cf01 b4bd
000003b0: 6f5d 1c3a 4661 5d3c 04f3 b5bd 308c f8bb
000003c0: 385f adbb 7774 893d 35b8 ae3d 904a 30bd
000003d0: 55cd c6bc 9bfe 903c 3907 963d 7985 d33d
000003e0: 22af a0bc 315f 2b3e 3e76 fd3d 37be a43d
000003f0: 69cc 7fbe f307 013d 0875 fb3b 72b3 0e3e
-0.1502586 0.010299363 0.113390245 0.12849197 0.032465696 0.13895418 -0.010677005 -0.021507187
0.048199605 0.011955013 0.023359068 0.06336384 0.010490436 -0.06366206 0.02980192 -0.08473563
-0.028521536 0.08194579 -0.0874117 0.08200471 0.07285132 -0.025285289 -0.046779808 -0.08157892
-0.027073553 0.0848353 0.10015585 -0.08585638 -0.0043443395 -0.12089569 0.005786324 0.09636438
-0.014085779 -0.16457286 -0.022971803 0.024683096 -0.07605186 -0.00519678 -0.051685423 -0.13533501
-0.02282729 -0.0128754685 0.09229935 0.04413263 -0.0023043219 -0.043031726 -0.05384698 0.031445388
-0.031265203 -0.018855577 -0.026409829 0.022977931 -0.039754044 -0.062863246 -0.04136503 -0.069342874
0.010704694 0.052624468 -0.05480217 0.054142967 -0.036470395 0.06137488 -0.03415309 0.09679787
0.09197751 0.08409026 -0.28370732 -0.019977707 -0.02535274 -0.0103553105 0.04074798 0.08108445
0.10193071 -0.103908 -0.11061175 -0.019901184 -0.038767427 -0.063188806 0.021033488 -0.145962
-0.11086739 0.09672903 0.03833975 -0.050122924 0.04806533 -0.057453886 0.0784799 -0.021470215
-0.029150892 -0.06919854 -0.053569667 0.06543105 -0.044789117 0.029854018 0.106247716 0.10082014
-0.025539197 -0.108088434 0.107800804 -0.023343703 0.100531176 -0.012379954 0.033537604 -0.037860572
0.035816334 0.05247268 0.0969308 -0.12724046 0.09212951 0.018280948 -0.032048047 0.030077536
-0.07531379 -0.05103501 -0.0056275604 -0.07459922 0.034225583 0.03447944 0.05210994 -0.14706583
-0.0499527 0.13939781 -0.017515805 -0.09515671 -0.030690407 -0.11755241 0.012254244 -0.07733147
0.07146207 -0.14750718 -0.030458558 -0.11136339 0.034998152 0.08597109 -0.06823061 0.045034394
0.098887496 -0.07556733 -0.014686741 -0.039017905 -0.07349308 0.026461039 -0.101701155 -0.1236176
0.025488384 0.0034374536 0.024296252 -0.020004125 -0.046392627 0.01446015 0.08337315 0.12775257
0.065280914 0.043042194 -0.022475084 0.18190417 0.03134465 0.066300035 -0.025982358 0.1239721
-0.017856684 -0.115188554 0.043963052 0.15864897 -0.062500514 -0.10940486 0.042717233 -0.025479276
0.03165657 -0.27283227 0.16210534 -0.038318127 -0.14262182 0.04307631 0.024306545 -0.06277262
-0.012731429 -0.09191796 0.015067178 -0.025374776 -0.050587703 0.1083425 -0.013014694 -0.026230631
0.044888765 -0.15548696 0.14762898 -0.081048265 -0.09019884 0.042582676 0.012761195 -0.17938976
-0.0016382472 0.029190194 -0.09087879 -0.044082202 0.10213858 -0.029032694 0.020136718 0.022496581
0.08295592 -0.0854467 -0.09475635 0.06424951 0.12982023 0.029307356 -0.018302454 -0.09097319
-0.09288412 0.1200875 0.05360246 0.03837327 0.04530321 0.05486969 0.108981565 0.08737801
0.07182374 -0.07362857 0.12521873 0.035478536 0.103354014 0.10858028 0.12922837 -0.024203131
0.10488519 0.04220968 -0.047867272 0.020714352 -0.08656084 0.008079826 -0.072996356 -0.036199715
-0.07163546 0.15559117 -0.28050527 -0.087894075 0.00059648504 0.013511961 -0.08884242 -0.007585071
-0.005290892 0.06711667 0.085312285 -0.04303986 -0.024267832 0.01769953 0.07325596 0.10328192
-0.01961476 0.16735531 0.123760685 0.08044093 -0.2498032 0.03150172 0.0076738633 0.1393564

conv4.bias f4 [64]
00000000: d7e0 7f3c 3dba efba 1c11 cbbc 4f99 883c
00000010: 4202 f4bb 7f1a 513b 62ce fb3b 3499 513c
00000020: 0087 2fbc e338 573c 42db 22bc 759c 2ebc
00000030: f847 2dbc 500e 783c 86bf 9c3c d789 5a3b
00000040: f2b8 38bc dd5a 883c 4ce3 24bb bfa0 e73b
00000050: b1d9 733c f80b 573c 422c 383c d567 2539
00000060: c5d0 a3bc 2511 973a 4367 67bc 6eb5 e7ba
00000070: ca45 aabb 1792 59bc d431 07bc 4601 0b3c
00000080: 9b04 793a 339c 723c ae1d 08bb 3afa b3bb
00000090: a838 c53c d273 523c 132b 8a3b a33b 2dbc
000000a0: 39dd 733c eeef 37bb 500e 6e3c aa0a 533a
000000b0: f1e9 053c d462 a13c afe3 123c a943 cebb
000000c0: 449f 563c eb65 ddbb 4cd0 023c d793 113c
000000d0: 8b7f 8f3b 1f38 acbb d119 d13b 9604 06bc
000000e0: 95cf 1e3c 3193 6bbb 3287 373a ea60 37bc
000000f0: 8d3d 3cbc 9c91 76bb 4934 6c3c 6be6 94bc
0.015617571 -0.0018289756 -0.024788432 0.016674666 -0.007446558 0.0031906662 0.007684515 0.012792874
-0.010713339 0.013136121 -0.00993997 -0.010657419 -0.010576241 0.015140131 0.019134294 0.003334632
-0.011274563 0.01664489 -0.0025159894 0.007068723 0.014883445 0.013125412 0.011241021 0.00015774307
-0.01999701 0.0011525495 -0.014123741 -0.0017677972 -0.005196308 -0.013279459 -0.008251626 0.00848419
0.00094992825 0.014807749 -0.0020769644 -0.005492476 0.024074867 0.0128449965 0.0042165606 -0.0105733005
0.014884287 -0.0028066593 0.01452978 0.00080506003 0.008173452 0.019700445 0.008965417 -0.006294687
0.013099495 -0.0067565343 0.007984232 0.008885345 0.004379218 -0.0052557136 0.0063812514 -0.008179804
0.009693046 -0.0035945887 0.00070010417 -0.01119254 -0.011489284 -0.003762341 0.014416763 -0.018176278

bn4.weight f4 [64]
00000000: cb9f 833f 7f60 7e3f d573 813f e930 823f
00000010: c57e 813f 8413 853f 96db 7e3f f6ba 823f
00000020: 326c 813f b5b8 853f c14f 803f a2cd 823f
00000030: 8d2e 823f 0f1a 803f 3432 823f d650 7d3f
00000040: 49ba 833f 71d4 833f a366 803f fb6f 833f
00000050: c3d0 833f b637 843f 33f9 7f3f a0a6 813f
00000060: ea60 7f3f 4254 803f f9e9 813f f536 833f
00000070: 0625 803f 4d14 803f 051c 813f 9672 813f
00000080: f201 803f b1f3 813f 5d4c 813f 72ae 7f3f
00000090: e752 843f 9e17 803f 2b9d 7c3f b164 823f
000000a0: eb07 833f f440 7f3f 3ff2 823f 5d62 833f
000000b0: 9d93 843f e384 833f 1f4d 833f 180f 803f
000000c0: bf5b 823f 9737 7f3f f22b 7e3f ff0d 7f3f
000000d0: 20f3 803f a91d 803f b98d 843f d204 813f
000000e0: ced9 803f 044c 823f 92cf 803f 2e3b 813f
000000f0: e344 7e3f 57ab 843f f64d 813f e3b9 813f
1.028314 0.9936599 1.0113474 1.0171176 1.0116812 1.0396581 0.9955381 1.0213306
1.0111144 1.0446993 1.0024339 1.0219004 1.0170456 1.0007952 1.0171571 0.9895147
1.0291225 1.0299207 1.0031322 1.0268549 1.0298084 1.0329502 0.9998962 1.0128975
0.99757254 1.0025713 1.0149528 1.0251147 1.0011299 1.0006195 1.0086676 1.0113094
1.0000594 1.0152494 1.0101429 0.9987556 1.03378 1.0007207 0.9867732 1.0186979
1.0236791 0.99708486 1.0230178 1.0264393 1.0357548 1.0274929 1.025791 1.0004606
1.0184249 0.996942 0.99285805 0.9963073 1.0074196 1.0009052 1.035575 1.0079596
1.0066469 1.0179448 1.0063345 1.0096185 0.9932386 1.0364789 1.0101917 1.0134853

bn4.bias f4 [64]
00000000: ccce 6e3d 8d86 77bd 96dc 84bd 70bc 4abd
00000010: 4a12 853d beaa 53bd abc2 7cbd a336 83bd
00000020: fc2b 76bd c1db 763d 14fb 2f3d f7bc 873d
00000030: 8455 853d b44d 6a3d 2643 85bd e16b 88bd
00000040: 71f2 7f3d aeb2 713d f624 7f3d c8cb aaba
00000050: ecab 79bd f17c 6dbd f582 683d ac08 84bd
00000060: e801 77bd 2e48 543d 029b 843d f0a0 883d
00000070: 487b 423d 43e6 32bd 43ea 7fbd a957 73bd
00000080: f9b1 7b3d 2f60 84bd 0dc9 b8bc 5099 7cbd
00000090: 24d9 453d 2057 5b3c e204 883d fd64 833d
000000a0: 8d5b 7bbd bd1a 4c3d 449f 75bd a302 8a3d
000000b0: 7480 28bd 26fa 62bd d7aa 80bd a719 86bd
000000c0: b7f6 3c3d 7ec5 44bd 8515 7ebd 8d4e 833d
000000d0: 2505 893d 4165 7f3d 6c09 83bd 63a2 6b3d
000000e0: 4d9d 87bd 217f 813d cb7a 023d 9618 e3bb
000000f0: 8f84 7abd aadb 7d3d 7ae2 4abd 6f82 3a3d
0.058302686 -0.060431052 -0.06487386 -0.049496114 0.06497629 -0.051676504 -0.061709087 -0.064069055
-0.06010054 0.060268167 0.042964056 0.06627839 0.065104514 0.05720301 -0.06506948 -0.06661201
0.06248707 0.059008293 0.062291108 -0.0013030702 -0.060954973 -0.05798048 0.056765515 -0.064469665
-0.060304552 0.05182665 0.06474878 0.066713214 0.04748085 -0.043676626 -0.06247927 -0.05940977
0.061449025 -0.06463658 -0.022556806 -0.061669648 0.048302785 0.013387471 0.06641556 0.06415746
-0.061366607 0.049830187 -0.05996634 0.06738784 -0.041138127 -0.05541434 -0.06282585 -0.065478615
0.046133723 -0.048039906 -0.06203224 0.06411467 0.06690434 0.062352423 -0.063982815 0.05752791
-0.066217996 0.06323076 0.031855386 -0.006930421 -0.061161574 0.061977066 -0.04953239 0.045534547

bn4.running_mean f4 [64]
00000000: 8ff2 0c3f 586d f13e 43f8 163f f2b3 093f
00000010: 94b3 2d3f 1c1e 103f 4847 033f 4a4f 1c3f
00000020: c6b5 0b3f a9b2 4f3f 9d0e 3d3f f985 163f
00000030: 6f91 0c3f 23b7 113f 0e78 213f 5508 fb3e
00000040: 850e cd3e d35b 233f 7d25 f73e ff39 153f
00000050: b08a 243f f7e5 373f ca0d 1f3f a5dd 193f
00000060: f391 723f d84e d83e 3980 133f 6f20 c53e
00000070: 65a2 413f 0606 013f 360b 003f 240c 0d3f
00000080: 4962 2e3f f53c 263f 1bd4 093f ffa9 103f
00000090: 37e0 393f 03c2 073f 452b fd3e 1303 393f
000000a0: f6ee 1d3f 5754 ff3e 570d 073f 3401 2b3f
000000b0: 6e96 1d3f d729 343f c9d6 353f 6d4c f43e
000000c0: 13d4 213f 1feb 023f df0c 1a3f 9722 173f
000000d0: d351 1a3f 8ae1 373f 83a3 233f 31c0 013f
000000e0: 48a5 313f c00f 043f 564b 383f 6e69 2f3f
000000f0: b231 2c3f 45cb 213f 1e57 1a3f a953 053f
0.55057615 0.47153735 0.5897257 0.537902 0.6785214 0.56295943 0.5128064 0.61058486
0.5457424 0.8113199 0.73850423 0.58798176 0.54909414 0.5692007 0.63073814 0.49029794
0.4005014 0.6381199 0.4827079 0.5829162 0.6427412 0.71835274 0.62130415 0.6010383
0.9475395 0.42247653 0.5761753 0.38501307 0.7563842 0.50399816 0.50017107 0.5509665
0.6811872 0.64936763 0.5383927 0.56509393 0.7260775 0.53030413 0.49447075 0.72270316
0.6169275 0.49869034 0.5275473 0.6679871 0.6155766 0.7037634 0.7103086 0.47714558
0.63214225 0.51140016 0.6017589 0.59037155 0.60281104 0.7182852 0.63921374 0.50683886
0.69392824 0.5158653 0.71989954 0.6852025 0.6726333 0.6320079 0.6028918 0.5208078

bn4.running_var f4 [64]
00000000: 06a7 523f 059e 073f 70b7 4f3f 42df 153f
00000010: 17b6 a73f 4a7a 473f c69f 1a3f 5915 493f
00000020: 22da 3d3f 4e23 bc3f 5c84 893f de46 573f
00000030: 3a59 643f 57b7 363f 9abc 2f3f 935b 133f
00000040: d3d2 e33e d46f 4e3f 6f54 223f a6ac 5f3f
00000050: abc5 313f 117c 5f3f 989e 4d3f 4b5f 4d3f
00000060: 947c ff3f b19f f23e 68e4 723f a304 cd3e
00000070: 7260 853f c480 103f 1881 143f bf8c 483f
00000080: 4103 6f3f 031d 6d3f 55e0 293f 73e2 553f
00000090: 20d3 723f b040 0b3f 50a3 013f 63d8 b03f
000000a0: f783 883f 00dd e73e 91a1 3c3f 82fb 7d3f
000000b0: 6211 6a3f 5ad5 4a3f f476 5f3f 1a8f 0e3f
000000c0: fc5b 443f 1b1e 283f f61d 333f e616 6f3f
000000d0: 0320 1d3f 81ce 973f 67ea 973f 6d59 2e3f
000000e0: bba4 863f b13e 313f 9998 853f 496e 613f
000000f0: 2419 8f3f ae37 543f 1bbe 443f 44b5 163f
0.8228611 0.52975494 0.8113928 0.5854379 1.3102444 0.77920973 0.60400045 0.785482
0.7416097 1.4698274 1.0743518 0.8409251 0.8919865 0.71373504 0.6864716 0.57561606
0.44496784 0.80639386 0.63410085 0.87372816 0.6944224 0.87298685 0.8032012 0.8022353
1.9959893 0.4738746 0.9487977 0.400426 1.0420058 0.5644648 0.5800948 0.7833976
0.9336434 0.92622393 0.6635793 0.8354866 0.948534 0.5439558 0.5063982 1.3816036
1.0665272 0.45285797 0.7368403 0.99211895 0.91432774 0.792318 0.87290883 0.55687106
0.76702857 0.6567094 0.6996759 0.93394315 0.6137697 1.1859895 1.1868409 0.681052
1.0519022 0.69236284 1.0437194 0.88058907 1.1179547 0.8289746 0.7685258 0.5887034

lin.weight f4 [10, 64]
00000000: aeda 4b3d 8d5c 8fbd 3167 74bd 60a7 edbd
00000010: 843e fd3d 4e7b 2dbd 40e7 fcbd c865 1ebe
00000020: 4aaf 5e3c e75d 1a3d cf04 f43c 4207 ba3d
00000030: b88e 893d 2dc1 773c 800a 86bd 7319 dbbd
00000040: ce17 ef3d ebba c73d f6e0 ec3d e481 95bc
00000050: ae8c 23be 7be4 52bd 4652 b83b ed06 27be
00000060: 65cc d9bd c096 32bd 4462 053e beba 043e
00000070: a3ce 95bd ef08 193c 5076 cdbd ff8f cebd
00000080: 0e1e 0a3d a70c 84bd bb58 c83d 95f9 ebbd
00000090: ba68 2e3d 6295 1fbd 3c27 9d3d a395 b53d
000000a0: bc63 5eba 539b 663d 5a48 d1bd 0405 ae3c
000000b0: 2548 a0bd 4c1f bdbd 6f96 febd 274e babd
000000c0: e3db 0c3e 8664 643d ebe5 e2bd 46e3 df3c
000000d0: c528 4d3d dfb0 de3d b271 3fbd 9792 c93d
000000e0: 2030 0bbe 3e68 063e 09b1 e23d f1c9 a73c
000000f0: cb45 04be 22e1 303e a5c7 56bd a35b 733d
00000100: 2e34 0b3e 3220 08be 3c9d 18be 1317 ad3d
00000110: 837f 1cbd a78d 6f3d 3da6 abbd 7282 42bd
00000120: 92b0 b9bc f5e9 c83d 6e11 a7bd 1f85 8fbc
00000130: a4b7 963d 37b3 f93c 3d91 dcbd dfbe 88bd
00000140: dcfe 803d 5b81 a3bd 1859 ce3d 4cd5 e7bd
00000150: d355 44bc 23ed e63c 081e 003e ceaa 3abd
00000160: 636e e7bd a2a2 0c3e 8a56 003d 8b44 04bc
00000170: 8aac 013e 16e9 02be b628 04be 5363 c53d
00000180: 933b e63d fb05 0cbe 4d51 203c 0498 e2bc
00000190: 3a95 c6bd 3cca b8bb 22ff 543d 92f8 1bbd
000001a0: 9473 28bd 4773 14b9 8349 693d 28e1 773c
000001b0: 333e 063e d6b3 a2bd 453f f1bd ab4d a9bd
000001c0: f3e5 f9bd 5cd2 9dbd 6d75 c13d fc20 183d
000001d0: e75a 75bd 25ca 48bc fc33 d2bc 9240 3d3d
000001e0: 5cc2 87bd 1cd5 083e e2bd dcbd a2af 003d
000001f0: 3ed3 12be 237c df3a 9f31 fd3d d4cd 0abe
00000200: 11c9 e7bd fc95 6fbd 5d1a b6bd b5d4 083e
00000210: 4923 863d 3ff3 223e df09 393b d5a2 bfbc
00000220: e3d0 cdbd f7c0 3dbd aaab 2fbd 5a02 523d
00000230: 0a36 08be 4b5b efbb c13e 263d 8829 1fbd
00000240: d21d 7fbd aab0 ca3d 1e12 e8bd 664d 163d
00000250: f01f b73d 0693 d53d b96b 1cbc ab4a ad3c
00000260: 3cd0 ae3d 8079 e3bd 3b95 8b3c 0247 72bb
00000270: 44a5 3e3d fdc9 913d b73f 43bd 4922 aebd
00000280: 59a4 963c 16d9 7dbd 058a 333d 17a9 0ebd
00000290: 07a2 163e 3b72 fbbd 9695 a13d 831f dbbc
000002a0: 4ee6 c4bd e631 da3d 8546 1cbe 41ab e43d
000002b0: ebc8 853c 891b a63d 9db8 66bd 077b 4ebd
000002c0: 2d30 d8bc 949f 68bd 90d8 f3bc 89fa 93bd
000002d0: 3557 763d 9a7f a63d b38f 88bd d03b f2bd
000002e0: f56c 67bd ee5b 7cbd 7b21 8e3d d329 743d
000002f0: 17b3 4abd ec57 1dbe 840e 833d 16de f23c
00000300: 3586 813d 2899 be3d 2341 d0bd fbc3 bcbd
00000310: b683 af3d 2d3d b9bd 1e9a c63d 40fb 4ebd
00000320: 7bb8 793d 0164 cbbb 5670 963d d73d 963d
00000330: 64c4 9abc 3324 8b3c b8ee 2ebd 3790 d1bc
00000340: 1337 f83d a685 f23d 074f e5bc b105 5fbc
00000350: e4bb debd 52c9 f1bd 2863 7bbd 7802 a83c
00000360: 9949 d7bd 040b b53a b823 7cbd 59c0 97bc
00000370: ba13 3c3d 93b7 e2bd af78 143d ca62 81bc
00000380: c319 53bd 1e66 b23b 6411 a03d 9187 c93d
00000390: b9f3 b83d d2e0 b2bd b18b 6f3d 71ef ea3c
000003a0: de6a d7bd 5bae d3bd 7227 fc3d a4e2 623d
000003b0: 24ca a63d c66d bc3d 7f1b 86bb 6155 503d
000003c0: 07ac b33d 822b a5bb 2937 57bd 1f80 9fbd
000003d0: 9a98 603d 0386 053e 7c7e d3ba 5666 55bd
000003e0: 2645 e5bd ff68 a8bd 7eab c3bd a9dc b5bd
000003f0: e05a 4f3d c5a5 39bd 8494 c43d 5b78 953d
0.049769096 -0.070000745 -0.059668723 -0.1160419 0.123654395 -0.04235392 -0.12348795 -0.15468514
0.013591597 0.03768721 0.02978745 0.090834156 0.067166746 0.01512174 -0.065449715 -0.106982134
0.11674462 0.09752449 0.115663454 -0.018250413 -0.15971634 -0.051487427 0.005625042 -0.16311236
-0.10634688 -0.043600798 0.13025767 0.12961861 -0.073148035 0.009340509 -0.10032332 -0.10086059
0.03372007 -0.06447726 0.09782549 -0.11522213 0.042580344 -0.038960822 0.07673499 0.088664316
-0.00084834895 0.056300472 -0.10218878 0.021242626 -0.078262605 -0.09234485 -0.12431037 -0.090969376
0.13755755 0.05575993 -0.110790096 0.027330052 0.05008771 0.10873579 -0.046739288 0.09842413
-0.13592577 0.13125703 0.11068923 0.020482035 -0.12917249 0.17273381 -0.05243649 0.059413563
0.13594124 -0.13293532 -0.1490373 0.08451667 -0.038207542 0.0584847 -0.08381317 -0.047487684
-0.022667203 0.09810249 -0.08157621 -0.017519532 0.073592454 0.030480964 -0.107698895 -0.06677031
0.062986106 -0.07983657 0.10075587 -0.1131998 -0.011983353 0.028189247 0.12511456 -0.04557305
-0.113003515 0.13733914 0.03133253 -0.008072983 0.12663475 -0.12784228 -0.12906155 0.09638085
0.11241832 -0.13674156 0.009785009 -0.027660377 -0.096964315 -0.0056393426 0.052001126 -0.038078852
-0.04112585 -0.00014157324 0.056954872 0.015129365 0.13109665 -0.07944457 -0.11779646 -0.08266767
-0.122020625 -0.077061385 0.09446225 0.03714083 -0.059901144 -0.012255226 -0.025659554 0.046204157
-0.06628868 0.13362545 -0.10778405 0.031417497 -0.14338395 0.0017050545 0.1236298 -0.1355508
-0.11317647 -0.058492646 -0.08891747 0.13362391 0.06549699 0.15913104 0.0028234643 -0.023393074
-0.100496076 -0.046326604 -0.04288832 0.051271774 -0.13301864 -0.007304584 0.04058719 -0.038857967
-0.0622843 0.09896977 -0.113315806 0.036694907 0.089416385 0.10428433 -0.009547167 0.021153769
0.08535811 -0.11107159 0.017038932 -0.0036968593 0.04654433 0.07118604 -0.047668185 -0.08502633
0.018388914 -0.061974607 0.043832798 -0.034829225 0.14710246 -0.12277647 0.078898594 -0.026748424
-0.0961424 0.106540486 -0.15261276 0.111654766 0.016331157 0.08110721 -0.056328405 -0.050410297
-0.02639016 -0.05679281 -0.029766351 -0.0722552 0.06014176 0.08129807 -0.066680335 -0.118278146
-0.056500394 -0.06161111 0.0693998 0.0596102 -0.0494872 -0.15365571 0.06399253 0.029646914
0.06324426 0.09306556 -0.10168674 -0.09217068 0.08570044 -0.090448715 0.09697364 -0.05053258
0.06096695 -0.0062069898 0.07345645 0.07336014 -0.018892474 0.016985035 -0.04270813 -0.025581462
0.121198796 0.11841898 -0.027991785 -0.013612197 -0.10875681 -0.11805977 -0.06137386 0.02050899
-0.105120845 0.0013812487 -0.0615575 -0.018524336 0.04591725 -0.1107017 0.036247905 -0.015794177
-0.05153824 0.005444302 0.07815817 0.0984031 0.090308614 -0.08734287 0.05848283 0.028678628
-0.1051843 -0.1033599 0.12312211 0.055391923 0.08144024 0.09200625 -0.0040926333 0.050862674
0.08773046 -0.005040587 -0.05254284 -0.07788109 0.054833032 0.13039403 -0.0016135718 -0.05209955
-0.1119483 -0.082231514 -0.09554194 -0.08879978 0.050623775 -0.045324106 0.095986396 0.072983466

lin.bias f4 [10]
00000000: 57d1 f73d 9ff4 29bc 866c 833d 6d48 ca3c
00000010: 0c1f 163c da37 1c3c 565e 50bd 63aa 53bc
00000020: 1dee 0cbd 5a57 19be
0.12100475 -0.010373264 0.064171836 0.024692738 0.009162676 0.0095348 -0.050871216 -0.012919041
-0.03440677 -0.14974728
