NCC_Code/models/2022-08-25_17-48-25_model.pt (torch, 115275 bytes, 50 tensors)

conv1.weight f4 [8, 2, 5, 5]
00000000: 19ec c540 9fd3 2c41 86c2 ef40 55ba c740
00000010: f8ae 2240 8ad2 0a40 8339 5540 b5b2 913f
00000020: d6ed c93f d9ad 3ebf d932 a0bf 6b80 47c0
00000030: 2756 35c0 489a 7bc0 3565 19c0 6a7f 98bf
00000040: 03d5 d3bf a6d1 1ac0 47d1 46c0 b3f9 c5bf
00000050: f7fd 16bf 41a1 d0bf d8e2 3abf 2398 54c0
00000060: 0ce4 05c0 a896 d440 15b2 3041 2c68 f940
00000070: f541 c340 1798 2740 b4d4 eb3f c2b7 4a40
00000080: bb28 b33f 6b06 a93f f0a7 46bf 6bc9 8bbf
00000090: 9a58 3cc0 6a10 2ec0 2d90 7ac0 7e3c 2ec0
000000a0: 7f43 f1be 0499 d1bf f0d0 1ec0 79b1 43c0
000000b0: 0338 a1bf df3f 30bf 64ba c0bf 37ad 50bf
000000c0: a1d7 42c0 fcd1 05c0 e2e6 eabf d19a 25c0
000000d0: 6a71 65c0 e8f1 47c0 5c27 c2bf 45b2 4040
000000e0: 8305 0941 ebc1 e140 1627 2741 422e 1141
000000f0: 541a 59be e0b2 40be dca6 9d3d 532c b53e
00000100: 1e28 18bf 6fbd afbf a354 50c0 7375 44c0
00000110: 7e93 54c0 3389 3ac0 5be1 9b3f 54f9 a93e
00000120: b495 05be 9e7f babc e75d fa3d 8310 dcbf
00000130: 7ee9 2bc0 ca70 53c0 ba7c 68c0 c965 d7bf
00000140: 2121 3d40 2f64 0841 09c0 d840 bec2 2941
00000150: a8a1 0d41 f55d 86be a6e5 fdbe b50a 6e3e
00000160: 1d60 173d cd94 0dbe 3298 f0bf ee39 48c0
00000170: 65ba 4cc0 2a6e 47c0 5401 31c0 e53d 9e3f
00000180: 39ca 313f 2612 e1bd 49ba 163d 66c9 fa3e
00000190: 7743 bfbf f9f6 57c0 78d9 73c0 2b0d 19c0
000001a0: ef04 cdbf de98 fd3f 9955 243f 09ef dc3f
000001b0: 6d57 7c40 7417 d340 21d0 ecbf 3dac cebd
000001c0: b3ef 8d3e 2e7e 2041 53ef 0341 f7c6 b3be
000001d0: 4402 6fbd ccb2 7e3f 1ac5 8440 fac0 ff40
000001e0: 517e b3be 7cb7 f3bf d914 ebbf f746 1dbe
000001f0: 4c3b 1940 b9ca bbbf 9516 50c0 e89c 75c0
00000200: 8e27 2dc0 9d99 cebf e059 e93f 37c1 363f
00000210: 5fe0 0b40 daaa 8440 8f46 db40 6554 f5bf
00000220: acc1 a03e 273c 353e c2d0 2341 ad79 0a41
00000230: 2789 28bf 670f 75bd 9470 693f 9bc8 9240
00000240: af4e f240 b3ce bbbe c505 e3bf 9254 0dc0
00000250: 2fc5 fcbe 018f 2740 77c7 96be 28e1 19c0
00000260: 8867 21c0 60d6 4dc0 7815 13c0 4197 c7bf
00000270: b3e1 2cc0 e1b8 45c0 b33a 4dc0 ddec 47c0
00000280: 09ff 0b40 8990 8440 f1b9 6840 67a3 0540
00000290: 08d5 9dbf 1473 f93f 371a 9e40 6eb7 5040
000002a0: 6199 8140 07e1 15c0 84a3 563f 1697 5940
000002b0: a839 f93f 6b15 af3f 49b8 1dc0 6da1 b5be
000002c0: 7ecb 06c0 4d36 2fc0 4377 45c0 374c e7bf
000002d0: 609f f6bf b727 36c0 6361 42c0 1f26 4dc0
000002e0: 8cb0 25c0 b6e0 1140 9ea0 7c40 43d2 6a40
000002f0: 0a6f ee3f 0167 84bf 096c 0040 6516 a240
00000300: bc5c 6c40 4ca3 8040 475e 0dc0 dfda e93e
00000310: 3a4a 5c40 b93d f03f e8ec a93f d762 21c0
00000320: f3f5 bc3f dd0f 22be 0c73 45bf 6679 a93d
00000330: e531 99be 053b bfbf 821a 7fc0 4e21 64c0
00000340: b809 03c0 c128 90bf 6c4c 83bf c83e 2dc0
00000350: cab7 24c0 7526 5bc0 34ba c3bf fbec 2440
00000360: 3c74 0d40 9102 c03e 7ee4 a13f a113 743f
00000370: f137 e040 da3e 1f41 6ce8 0b41 bb6c 2141
00000380: 72d5 b140 b9dd c93f c262 6b3e a2b6 49bf
00000390: 8a96 383e e8d6 43be 498d 04c0 3569 61c0
000003a0: 33af 68c0 9651 e4bf c6d1 6abf 3f84 99bf
000003b0: 1e0f 2bc0 c9e2 49c0 c07d 59c0 562f d5bf
000003c0: b7cf 3440 a9b1 0040 a4a5 ba3e 40bb d63f
000003d0: ea9d fd3e e908 e640 b5ea 1c41 dfc5 0941
000003e0: 3a07 1e41 6385 ae40 fa8a 1940 994b b8be
000003f0: 656f c9bf df3a 11c1 18b2 5dc0 48a6 df3f
6.1850705 10.801665 7.4924955 6.2414956 2.5419292 2.1691003 3.3316352 1.1382662
1.5775707 -0.7448402 -1.2515517 -3.117213 -2.8333833 -3.9312916 -2.3968022 -1.1913884
-1.6549381 -2.419046 -3.1065233 -1.5466827 -0.5898127 -1.6299211 -0.73002386 -3.3217857
-2.0920439 6.6433907 11.043477 7.7939663 6.1018014 2.6186578 1.8424287 3.1674657
1.3996805 1.3205084 -0.776 -1.0920843 -2.9429078 -2.7197518 -3.9150498 -2.7224422
-0.47121808 -1.6374822 -2.4815025 -3.057707 -1.2595218 -0.6884746 -1.5056882 -0.81514305
-3.044411 -2.0909414 -1.835171 -2.5875742 -3.5850472 -3.1241398 -1.5168262 3.0108807
8.563846 7.0549216 10.447042 9.073793 -0.2120145 -0.18818235 0.076978415 0.3538538
-0.59436214 -1.3729686 -3.2551658 -3.0696685 -3.3215022 -2.914624 1.2178148 0.33198035
-0.13045388 -0.02276593 0.12224942 -1.7192539 -2.6861262 -3.303759 -3.6326127 -1.6827937
2.955147 8.524459 6.773442 10.6100445 8.851967 -0.2624356 -0.4958927 0.23246272
0.036956895 -0.13826294 -1.8796446 -3.1285357 -3.1988766 -3.1160989 -2.765706 1.2362639
0.6944919 -0.1098979 0.03679875 0.4898178 -1.4942464 -3.374449 -3.8101482 -2.3914287
-1.6017131 1.9812276 0.6419311 1.7260448 3.942836 6.596613 -1.8501016 -0.100914456
0.27721938 10.030806 8.245929 -0.35112736 -0.05835177 0.9949157 4.1490602 7.9923067
-0.3505731 -1.904037 -1.8365737 -0.15359102 2.3942442 -1.4671241 -3.2513783 -3.8377018
-2.7055392 -1.6140629 1.8230553 0.7138857 2.1855695 4.145856 6.852363 -1.916638
0.3139776 0.17698728 10.238466 8.654706 -0.6583428 -0.059829142 0.91187406 4.586988
7.572105 -0.36681136 -1.7736136 -2.2082868 -0.4936919 2.6181033 -0.29449055 -2.4043674
-2.521944 -3.2162094 -2.2981853 -1.5593034 -2.7012756 -3.089409 -3.2067077 -3.123832
2.187441 4.1426435 3.636349 2.0880983 -1.2330637 1.9488244 4.9407 3.2611957
4.049973 -2.3418596 0.83843255 3.3998466 1.947072 1.3678411 -2.4643729 -0.3547472
-2.1061702 -2.7376893 -3.0854042 -1.8070134 -1.9267387 -2.846174 -3.037194 -3.2054517
-2.5889006 2.2793403 3.9473033 3.6690834 1.8627636 -1.0343934 2.006594 5.0652337
3.69316 4.0199337 -2.2088792 0.45674798 3.4420304 1.8768836 1.3275423 -2.5216577
1.4762558 -0.15826364 -0.7712867 0.08275108 -0.2992088 -1.4939886 -3.985993 -3.5645328
-2.0474682 -1.1262437 -1.0257697 -2.7069569 -2.5737176 -3.4242222 -1.52912 2.5769641
2.2102194 0.37501958 1.2647855 0.9534245 7.006829 9.952845 8.744244 10.089046
5.5573053 1.5770789 0.22986892 -0.787943 0.18026176 -0.19124949 -2.0711234 -3.5220463
-3.6356933 -1.7837398 -0.9172634 -1.1993483 -2.6727977 -3.1544669 -3.3983002 -1.6655071
2.825178 2.0108435 0.364545 1.6775894 0.4953454 7.1885877 9.8073015 8.610808
9.876764 5.4537826 2.3991075 -0.35995176 -1.573712 -9.076873 -3.463995 1.747262

conv1.bias f4 [8]
00000000: 69c1 f1bf bef2 d7c0 001e 05c1 6400 7f3f
00000010: caa5 4ac1 35cb 65c0 1c9c ab3f 8f26 ecc0
-1.8887149 -6.7483816 -8.319824 0.9960997 -12.665476 -3.5905278 1.3407016 -7.379707

bn1.weight f4 [8]
00000000: 487c dd40 6339 bd40 fea1 ca3f 097c c43e
00000010: 6208 a240 e7f0 b43d 53d1 f43f 698a dabe
6.921421 5.913255 1.5830686 0.3837588 5.0635233 0.08835011 1.9126381 -0.42683724

bn1.bias f4 [8]
00000000: 9fd3 a9c0 8eb0 f8bf 3da1 13c0 d3c4 04bf
00000010: ee7b 92c0 1903 84c0 9aea 1540 408b eabe
-5.3070827 -1.942888 -2.3067162 -0.5186283 -4.577628 -4.125378 2.342444 -0.45809364

bn1.running_mean f4 [8]
00000000: 6f5f 4241 9920 fb40 9aea 7f41 e47f 1c41
00000010: 35e8 2b41 9de6 3041 4ab0 b141 091a a040
12.148299 7.847729 15.994776 9.781223 10.744191 11.056302 22.211079 5.003178

bn1.running_var f4 [8]
00000000: 4f83 0a44 8dd4 9f43 3561 f444 1f26 c643
00000010: 0571 6644 1fda bb43 e48d 1144 82de ae42
554.0517 319.66055 1955.0377 396.29782 921.7659 375.70407 582.21704 87.434586

conv2.weight f4 [16, 8, 3, 3]
00000000: 75f4 65bf 2195 ebbf c59f 20c0 f959 803f
00000010: 9629 80bf 3ba3 0bbf 663b 9a3f 5022 a93e
00000020: 1847 673f 74c8 8ac0 9887 7fc0 48d3 c3c0
00000030: 1d7b ca40 f681 0d41 29de 0d41 af7f 8ac0
00000040: afa9 8cc0 8175 b8c0 01fa 103e bd86 b23e
00000050: 6e5a cabd bd48 fb3f eadf 3940 f8d4 0740
00000060: 4f1d df3f 2c49 7f3f d296 763f 9849 4540
00000070: bd9e c13f e40c 1f40 86f1 50be fcb2 d1be
00000080: c529 69bf bafc 8c3f fde5 973e c0db 8c3c
00000090: df4d 8340 e40b 7040 124a 2840 803f 513e
000000a0: 271e e53f 61f5 833f 950a 9440 cb76 3740
000000b0: a654 313f ed51 c040 bcec b240 7d43 d540
000000c0: 3965 b240 98f9 a640 c659 af40 3a7c 8640
000000d0: 774c 6340 73a8 8b40 e05a 9cbf f579 1f40
000000e0: 2121 1f40 6d75 82c0 7536 d8bf 035e fcbe
000000f0: 116e 06c0 f3ec 983d 4c8c b2bf dc6f febe
00000100: 62e1 9ebf bb4b ff3e 2983 46bc 59b3 9e3e
00000110: a296 1c40 b853 bc3d 558c d0bf 2677 9d3f
00000120: 2a00 db3f 6126 30c0 fb52 b0c0 0426 9ebf
00000130: c7c6 35c0 d161 81c0 97eb f4bf dc09 88c0
00000140: 9fd1 33c0 d411 01c0 894a 15c0 9e5b 1dbf
00000150: a7c0 a9bf 9a7d d9be 6c92 8cbf bbd4 533e
00000160: 5157 ca3e a5a6 d43f f793 2ac0 1b3c f0bf
00000170: 6b0e 0740 b035 04bd 5d42 1a40 3bdf 7a40
00000180: 74de 5a40 8353 c340 8de4 0841 1b33 0840
00000190: 8e3d 913f 2fd9 3040 0430 5f3f 9d1e 1f3f
000001a0: 0cf8 2d3f 8e8a cc3f b1b6 1240 ef9f 0740
000001b0: e754 e840 06b6 0641 7da1 1941 0935 8440
000001c0: 9fa2 d040 8e98 c140 19ed c840 7bb4 af40
000001d0: 1476 9040 ea17 9bbf 86bd a6be 19aa f4be
000001e0: b50e 1f40 9cb1 1440 cb47 3040 c4f8 3040
000001f0: bebd e73f de05 2840 18f8 afc0 6d5a 393f
00000200: fbe6 9c40 083b b9c0 044b 20c0 08a3 b93f
00000210: c3e8 e9c0 d93d 8ac0 3291 89bf 3bac da3f
00000220: 65e5 0b40 246c 533f 7265 ae3f 9c0d 0140
00000230: 6935 e93f 38f0 4fbd 860f 78bf dc93 89bf
00000240: 8c29 8cbf 360a 1b3f 82a3 f4bf 317f ec3f
00000250: 3bf2 9e40 1e2d 7140 f5d3 7e40 ae57 b940
00000260: e90b 9240 6f39 3340 0e79 bb40 68b8 1441
00000270: 2ed2 07c0 67db 7840 5a37 f340 b4f6 a6bf
00000280: 32eb 74bf 6e0c 7c40 8b33 003e 0afc cf40
00000290: 28c9 8341 0d7a c3bf 7a57 da3f ad92 2841
000002a0: 6d47 30c0 ba9b f5bf cbb4 b540 b118 aebf
000002b0: 6899 41c0 8aa2 51bf 9794 823f 57fa cdbf
000002c0: 0f29 afbf 63d2 8bbd 1dfc fbbf d7ef 29c0
000002d0: d043 bebf 1213 fdbe e8c0 cd3f fd2d 1840
000002e0: 3f65 a4bd 4bbb a83f a265 2ac0 9e2c 2ebf
000002f0: c834 0bbe d443 903f a43f a33e 28fe e03e
00000300: 883a 3c3f 7570 63be 34ee 88be 103f 343f
00000310: 638d 6c3d f879 56be 91c3 0840 8002 c13f
00000320: 8b62 0f40 1a10 6d40 c5f1 8340 5906 0040
00000330: 8bea 7040 a59c 8440 a55e 1b40 c338 863d
00000340: 3b13 1d3f 4590 053f 1226 6abf f003 263f
00000350: df6a 043e 844f a53e 1d95 453e 6db9 29bd
00000360: ef19 58bf 2f2c 10bf 27e3 113e aed4 763f
00000370: df43 1b3f 6ff6 7640 1c4c 94c0 cc8c 5ac0
00000380: 71bb c83e 819f 1040 a73b 1340 9280 6140
00000390: d40f 45c0 cfb3 0dc0 624e f6be 339f 03c0
000003a0: 222a 4dc0 a898 49c0 c88f 153e 18c4 d43e
000003b0: 6e5f 813f 7f0a 30c0 1802 0ec0 2d49 9cc0
000003c0: 7cce ec3f fe4e e43f d0e3 f13c 5c37 a4c0
000003d0: 0668 7ec0 f53f 54c0 4ddd 573f 2d1e 07be
000003e0: 703b fe3e 6317 073f 0a10 8abf 05a0 9d3f
000003f0: f877 e1c0 7a78 afc0 7755 eec0 1ce6 1041
-0.89826137 -1.8404886 -2.5097516 1.0027457 -1.0012691 -0.54545945 1.2049377 0.3303399
0.90342855 -4.3369694 -3.992651 -6.119541 6.3275285 8.844229 8.866738 -4.3280864
-4.3957133 -5.7643437 0.14157869 0.34868422 -0.09880529 1.9631573 2.9042916 2.1223736
1.7430819 0.99721026 0.96323884 3.0826168 1.5126568 2.4851618 -0.20404634 -0.40956867
-0.9107936 1.1014626 0.29667655 0.017194629 4.1032557 3.7507257 2.629521 0.2043438
1.7899827 1.0309259 4.6262918 2.8666255 0.6926979 6.0100007 5.5913982 6.6644883
5.5748563 5.217968 5.4797087 4.2026644 3.551542 4.3643126 -1.2215233 2.4918187
2.486397 -4.076834 -1.6891619 -0.49290475 -2.100468 0.074670695 -1.3949065 -0.49694717
-1.2412531 0.49862465 -0.012116232 0.30996206 2.446694 0.091956556 -1.6292826 1.2301986
1.7109425 -2.7523425 -5.5101295 -1.2355351 -2.8402574 -4.0431905 -1.9134396 -4.2512035
-2.8096693 -2.0167131 -2.3326743 -0.6146792 -1.3261918 -0.4247864 -1.0982184 0.20686619
0.39519742 1.6613356 -2.665281 -1.8768343 2.110255 -0.032277763 2.4103005 3.919875
3.4198275 6.1039443 8.555799 2.1281192 1.134691 2.7632558 0.8718264 0.6215609
0.67956614 1.5979784 2.2924006 2.1191366 7.260364 8.419439 9.601926 4.131474
6.519851 6.0498724 6.2789426 5.4907813 4.514414 -1.2116673 -0.3256647 -0.47786024
2.4852726 2.3233404 2.754382 2.7651834 1.810478 2.625358 -5.499035 0.72403604
4.903196 -5.788456 -2.5045786 1.4502878 -7.3096633 -4.32005 -1.0747435 1.708381
2.1858761 0.82586884 1.3624709 2.0164557 1.8219424 -0.0507662 -0.96898687 -1.0748248
-1.0950179 0.60562456 -1.9112399 1.8476316 4.967069 3.7683787 3.9816868 5.791953
4.563954 2.8003805 5.858527 9.295021 -2.1222034 3.8883913 7.600507 -1.3044038
-0.9567138 3.9382586 0.12519662 6.4995165 16.47322 -1.5271622 1.7057946 10.5358095
-2.7543595 -1.9188149 5.6783195 -1.3601285 -3.0249882 -0.8188864 1.0201596 -1.6092023
-1.3684405 -0.068272375 -1.9686314 -2.6552637 -1.4864445 -0.49428612 1.6074495 2.377807
-0.08027124 1.3182157 -2.6624532 -0.6803683 -0.13594353 1.12707 0.3188449 0.43943906
0.7352681 -0.22210868 -0.26744235 0.70408726 0.057752024 -0.20944965 2.1369364 1.5078888
2.2403896 3.7041078 4.123263 2.0003874 3.7643154 4.1441216 2.4276516 0.06553795
0.6135747 0.5217326 -0.9146434 0.6484976 0.12931393 0.32287228 0.19295163 -0.0414366
-0.8441457 -0.5631742 0.14246808 0.96418273 0.6065044 3.858791 -4.6342907 -3.4148436
0.39205506 2.2597353 2.300516 3.5234723 -3.079091 -2.2140996 -0.48106676 -2.0565917
-3.2056966 -3.1499424 0.1460563 0.41555858 1.0107248 -2.7506406 -2.2188778 -4.8839326
1.8500514 1.7836607 0.029527575 -5.1317577 -3.975099 -3.3164036 0.84322053 -0.13195105
0.49654722 0.5277006 -1.0786145 1.2314459 -7.0458946 -5.4834566 -7.4479327 9.056179

conv2.bias f4 [16]
00000000: 4608 01c1 6450 3ac0 c1b7 92bf 88f5 0541
00000010: 99f0 7140 8eb7 eb3f ae93 01c0 52df 0740
00000020: 174f a9c0 660d 51c0 141d f2bf 1160 a0c0
00000030: e46d f8c0 50ed ba3e f6df 1d40 a901 8bc0
-8.06452 -2.9111567 -1.1462327 8.372444 3.78031 1.8415391 -2.0246387 2.1230054
-5.2909045 -3.2664428 -1.8915124 -5.011727 -7.7634144 0.3650918 2.4667945 -4.3439527

bn2.weight f4 [16]
00000000: 1599 b340 d200 d540 87b8 5140 66f3 9040
00000010: a7fc 3740 0fee b440 1711 a940 ed41 6d40
00000020: 890b b440 6786 3740 1e8e e240 b4f2 1a40
00000030: cb5d ad40 4981 c240 5034 9040 d4dc 9a40
5.612437 6.65635 3.2768877 4.5297117 2.8747957 5.65406 5.283336 3.7071488
5.626408 2.8675783 7.0798483 2.4210634 5.4176993 6.078282 4.506386 4.8394566

bn2.bias f4 [16]
00000000: 49ba f63f 1986 323f 8abf 393e 046b 1b3f
00000010: efc2 45bf 73ff e13f 9024 0940 f37c 4c40
00000020: 2915 ffbe 1d07 ad3e e8fd ae3e db95 fcbe
00000030: d380 1e40 296d 2f40 701e 56c0 c558 d9bd
1.92756 0.69735867 0.18139473 0.6071017 -0.7725057 1.7656082 2.1428566 3.1951263
-0.4982083 0.3379449 0.3417809 -0.4933308 2.4766128 2.7410376 -3.3456078 -0.106126346

bn2.running_mean f4 [16]
00000000: 0172 dd40 d3ab 9741 9a0b 3b42 30e5 4343
00000010: 98e7 e943 021f b642 c324 5341 8a1e 4643
00000020: 5b6a 0541 fc18 4941 06d8 6642 7893 1e41
00000030: 46b9 1341 7ae4 6242 1a9a 1843 7148 2c41
6.9201665 18.958899 46.76133 195.89526 467.80933 91.06056 13.196475 198.1193
8.338466 12.5686 57.71096 9.911003 9.232733 56.72312 152.60196 10.767686

bn2.running_var f4 [16]
00000000: 7464 3e45 5221 2946 02eb 1247 0d4f 0e46
00000010: 04b8 1547 94c8 9c46 d6f0 8845 27d8 5f46
00000020: 2241 3445 da98 5c45 4f03 5647 3551 ed44
00000030: c3ff 6245 4c9c 8f46 c8cb 8346 506e 2445
3046.2783 10824.33 37611.008 9107.763 38328.016 20068.29 4382.1045 14326.038
2884.0708 3529.5532 54787.31 1898.5377 3631.985 18382.148 16869.89 2630.8945

conv3.weight f4 [32, 16, 3, 3]
00000000: 6cd0 fac0 2dcf 3fc1 b4de d2c0 d989 1940
00000010: ae44 683f 71c4 30c0 0c1d 77c0 7716 1ebf
00000020: be94 2e3f d823 b33f 606a 1140 31f0 7040
00000030: 012c 88c0 7dc6 77c0 4c6a efc0 bd0b 14c1
00000040: f274 e6c0 2d1f f2c0 0c40 1ac0 dabb 3f3f
00000050: 7598 4ebf 8d38 e13f 9e48 7f40 73fa b23f
00000060: 62f8 11c1 ef34 e1c0 d61a 18c1 6bba 1440
00000070: c992 1c40 ab6c 983f 7d84 1ac0 064b abbf
00000080: 443f b03e 35be 16c0 8fc3 9ac0 05c5 93c0
00000090: 9422 25c0 0c07 95c0 c833 cdc0 4bb0 afc0
000000a0: 365f cdc0 1461 c8c0 50b2 b1bf b0c8 02c0
000000b0: 5def 38bf aa79 ddbf a2eb e6be 4257 63bf
000000c0: f239 ff3f 68ff dd40 5aaf e540 bfa3 8540
000000d0: 145b b040 9541 7140 e8ac 5fbf 5407 9d3f
000000e0: cb77 eb3f 1c3f 0dc0 cf49 acbe 1b1d 8ec0
000000f0: 4467 01c1 0f80 04c1 ae1b 18c1 fee6 e43e
00000100: 0fe9 70be 1edc 7b40 e5c6 efbf 086f 7ec0
00000110: 373a 9ec0 d2bd 6ec1 03c9 1ac1 750f c4c0
00000120: 0ec2 8240 ecc0 c240 4524 8f3f a6cc 99be
00000130: d285 15c0 51e6 aac0 a0e2 eebf 8e72 7fc0
00000140: 0347 9ac0 e576 1540 f8b7 8240 c1dd ef3f
00000150: 34ca 37c0 c221 cc3f a9c2 3840 0597 6f40
00000160: 7a6d 8a40 a47d e13e 3a2b 5040 6b8a 9b40
00000170: 0b68 cd40 0c00 b9c0 e9c7 afc0 5f32 9cc0
00000180: cdbc 0cc1 9e06 1bc1 d98f 39c1 9bb8 af3e
00000190: 23d7 c540 7cdd 2d40 c4f2 91c0 94fe 5340
000001a0: 4c35 8c40 dac1 7b40 7479 8c40 8b64 edbe
000001b0: 15ab 96bf fcbb f2bf 9c26 05c0 1d09 dbbe
000001c0: a88c 413f dd32 5f40 0f8e c4c0 b55a a1c0
000001d0: c987 eebf cd08 ec3f c7c9 2640 48f1 8e40
000001e0: e1d0 3ac0 11d6 a63f 9eab 953f f530 32bf
000001f0: ce66 703f cb4c ae3f 4ab5 48bf 80c0 44c0
00000200: 47c2 a0c0 3ce6 4140 e73c 8a40 0929 7c40
00000210: 2211 b3bf 468a 503f afca 8f40 8442 d1bf
00000220: aec0 6d3f cc00 a140 369b b43f 1e39 793f
00000230: cd3f 1f40 7597 1cbf b1ce 4a3e e6b2 1040
00000240: 627b 00c1 09f0 a9c0 6452 82c0 9f32 883f
00000250: 10d8 32c0 6d1e b4c0 5a0a e1bf 5445 c3c0
00000260: f583 b5c0 13aa 7240 ba69 bd40 7b89 d8be
00000270: 133b 9740 6639 cb40 0130 4bc0 71cb 78c0
00000280: 6429 8ec0 ef7e e2c0 075e 5bc0 9271 10bf
00000290: f8de 8fbf 52a1 ffbf 6078 a5c0 7591 eec0
000002a0: 84ef 1240 f862 a83f 634b 6ac0 3034 be40
000002b0: 9bbf d040 8f6b 54bf 48b2 c1c0 cc43 86c0
000002c0: 7372 0bc0 5c36 c23f 14ab cd40 ea23 2a40
000002d0: 44d0 0040 672d 4940 4898 1b3f 9d15 153f
000002e0: 243b 4440 e0c1 9d40 b148 7dc0 5df0 a3bf
000002f0: 9fa4 0040 7adc 933f 26ee 06c0 526f 3f40
00000300: 2651 3fc1 50eb 48c1 cbaa 26c1 a599 1740
00000310: 3566 c43f 189e 2fc0 f636 b33f 60a1 6a3d
00000320: da83 fb3f 6ce2 1140 5d66 133f fc42 6dbd
00000330: 79fb 8640 f5e3 5ebf 6b0c 11c1 c29b 15c0
00000340: 0994 a1bf 049c 98c0 10b2 d540 38a4 c140
00000350: 4641 b8be cf94 a2c0 0b49 abc0 745a 09c1
00000360: cc8b 4740 2608 6340 85d1 6140 9b60 e2bf
00000370: 511f 90c0 e083 83bf f520 3b40 7d7b 1540
00000380: 2c1e 15c0 ff01 7440 7b95 88bf 73c6 41bf
00000390: 3df8 bc3f 423f 943e 3c60 a040 1c9a 313f
000003a0: 377d 56be cf11 3340 cd4d bb3c 6857 eabf
000003b0: 5c57 12c0 a3a9 d43f c703 4740 cf1e b7bf
000003c0: ff3a 61bf eb99 37c0 1ef6 e7c0 f231 cb3f
000003d0: 8076 5cc0 a2b0 893e 97cc 8f3f dccc 52c0
000003e0: 8d99 dc3f cb67 ddbf f2c3 b63e bd8e d140
000003f0: fe51 e1c0 2dda ddc0 9be6 62c0 94a4 b2c0
-7.837942 -11.98808 -6.5896854 2.3990386 0.90729797 -2.7619898 -3.8611479 -0.6175303
0.6819571 1.3995314 2.2721176 3.7646601 -4.2553716 -3.8714898 -7.4817257 -9.252866
-7.2017756 -7.5663056 -2.410159 0.74896014 -0.8070138 1.7595383 3.9888072 1.3982681
-9.12314 -7.0377116 -9.506552 2.323878 2.446459 1.1908163 -2.4143364 -1.338227
0.34423268 -2.3553593 -4.836372 -4.6178 -2.5802355 -4.65711 -6.412571 -5.49027
-6.4178724 -6.2618504 -1.3882542 -2.043499 -0.7224024 -1.7302754 -0.4510165 -0.8880502
1.9939559 6.9374275 7.177655 4.1762385 5.511118 3.7696278 -0.8737321 1.2267861
1.8395933 -2.206977 -0.3365006 -4.441053 -8.087711 -8.281264 -9.506758 0.44707483
-0.23526405 3.93531 -1.8732573 -3.9755268 -4.9446063 -14.921343 -9.674075 -6.126887
4.0861883 6.08605 1.1182944 -0.30038947 -2.3362927 -5.340615 -1.866291 -3.9913669
-4.8211684 2.3353817 4.084957 1.8739549 -2.8717165 1.5947802 2.886881 3.7435925
4.325864 0.4404117 3.2526383 4.8606467 6.4189506 -5.7812557 -5.493153 -4.881149
-8.796094 -9.689116 -11.597619 0.3432053 6.182512 2.7166433 -4.5608845 3.3124132
4.381506 3.9337068 4.389826 -0.4636577 -1.177096 -1.8963618 -2.0804815 -0.4278039
0.7560525 3.4874794 -6.142341 -5.0423226 -1.8635188 1.8440186 2.6060655 4.4669533
-2.918999 1.3034078 1.1692998 -0.6960595 0.9390687 1.3617185 -0.78401625 -3.0742493
-5.0237155 3.0296774 4.3199344 3.9400046 -1.3989604 0.8146099 4.4934916 -1.6348424
0.9287213 5.0313473 1.4109867 0.9735278 2.488269 -0.61168605 0.19805409 2.260919
-8.030123 -5.310551 -4.0725574 1.0640448 -2.7944374 -5.628714 -1.7581284 -6.102213
-5.672358 3.7916305 5.919156 -0.4229239 4.725961 6.3507566 -3.174805 -3.887417
-4.4425526 -7.077995 -3.427614 -0.56423295 -1.123992 -1.9971106 -5.170944 -7.455256
2.2958689 1.3155203 -3.6608512 5.9438705 6.5233893 -0.8297662 -6.053013 -4.195776
-2.1788604 1.5172839 6.4271336 2.658442 2.0127115 3.1433961 0.6077924 0.58236104
3.0661097 4.9299164 -3.9575617 -1.2807728 2.0100477 1.1551659 -2.1082854 2.9911695
-11.957312 -12.557449 -10.4166975 2.3687527 1.5343691 -2.7440243 1.4001148 0.057282805
1.9649613 2.2794447 0.5757807 -0.05792521 4.2181973 -0.87066585 -9.065532 -2.3376317
-1.2623302 -4.769045 6.677986 6.051296 -0.359873 -5.080665 -5.3526664 -8.584583
3.1179075 3.5473723 3.528413 -1.7685732 -4.503823 -1.027462 2.9238865 2.3356621
-2.3299665 3.8126218 -1.0670618 -0.75693434 1.4763256 0.28954512 5.0117474 0.6937578
-0.20946203 2.797962 0.022864247 -1.8307924 -2.286582 1.6614269 3.1096056 -1.4306277
-0.87980646 -2.8687694 -7.2487936 1.5874617 -3.4447327 0.26892573 1.1234311 -3.2937536
1.723436 -1.72973 0.3569637 6.548674 -7.041259 -6.932883 -3.545325 -5.58259

conv3.bias f4 [32]
00000000: 23a8 dbbf 67f8 3bc0 8218 a3c0 feee 86c0
00000010: 01fb 79c0 1993 65be 1e3b ef3f 689e 45c0
00000020: e3bc 70c0 bef5 7b40 28cf bb40 0c2a 0e40
00000030: af7f 133f 3098 62c0 e63f fec0 5afe d9c0
00000040: 48b6 6fc0 5e4f bcbd 1c0b e33f 7b26 073f
00000050: 342e 27c0 1081 22c1 59b9 54c0 a70e 26c0
00000060: df7a 5ec1 90dd 5d40 012e b6c0 e962 0ac0
00000070: 5fdd 78c0 a5c2 01c0 488a 83c0 4727 c1bf
-1.7160686 -2.9370363 -5.0967417 -4.216674 -3.905945 -0.22419395 1.8689916 -3.0877934
-3.7615287 3.936874 5.8690376 2.2213163 0.57616705 -3.5405388 -7.9453 -6.812299
-3.7455006 -0.091948256 1.7737765 0.5279309 -2.612195 -10.156509 -3.3238127 -2.5946443
-13.904998 3.466648 -5.6931157 -2.162287 -3.8885114 -2.0275052 -4.11063 -1.5090111

bn3.weight f4 [32]
00000000: da5f c340 f357 a640 32fc cb40 797d 8740
00000010: 64ed 8140 60b7 9940 e866 af40 bb12 7d40
00000020: 3bce 92c0 ce59 ad40 187a 8640 d8fd a940
00000030: db02 9c40 2409 5c40 3367 9f40 618d 8440
00000040: 6d2e cc40 58b5 3440 db9a 8740 46d1 be40
00000050: 0fbc 9240 4208 7840 9b6f 1040 166c 7d40
00000060: 6e99 aa40 970e c640 87e5 7840 313c 5e40
00000070: 282a 5640 8e76 9f40 c1ae 4740 6144 ac40
6.1054506 5.198236 6.3745356 4.2340665 4.0602283 4.8036346 5.481312 3.9542682
-4.5876746 5.4172125 4.202404 5.312237 4.8753486 3.438058 4.9813476 4.142258
6.380667 2.8235683 4.2376533 5.963046 4.5854564 3.875504 2.2568119 3.959722
5.331229 6.189281 3.8890092 3.4724238 3.346323 4.983222 3.1200411 5.383347

bn3.bias f4 [32]
00000000: 610e cf40 4fa6 e13f e461 9940 6193 d43f
00000010: 8bfd 31bf 4e01 5640 87f9 4340 d04b 11c0
00000020: ba8d 2dbf c326 7740 fb8a 4d40 96c2 0a40
00000030: a4c2 573e 7a6c cdbf d9bd 743f 8f72 2740
00000040: 9414 da3f 2758 5240 0aa6 0abe 7dd6 4f40
00000050: 18bc bfbf fbf6 913e ba0f d23f 6f0d a4be
00000060: f1ec 473f 4182 fb3f b748 8b3f 5d84 9bbf
00000070: cc71 a5bf a4d2 90bf 3213 823f 1011 0fc0
6.470505 1.7628878 4.7931995 1.6607476 -0.695275 3.3438296 3.062105 -2.2702522
-0.6779438 3.8617408 3.2116077 2.1681266 0.21070343 -1.604873 0.95602185 2.616367
1.703753 3.2866304 -0.13539901 3.2474663 -1.4979277 0.28508744 1.6411049 -0.320415
0.7809592 1.9649125 1.0881566 -1.2149769 -1.2925353 -1.1314282 1.0162108 -2.2354164

bn3.running_mean f4 [32]
00000000: cadd 3342 ad58 1c42 acc3 cb41 7e72 7841
00000010: 8237 3941 01b4 4b42 23d6 e642 ba67 9341
00000020: 275f 8341 5316 9142 610c 5e43 a24e f542
00000030: f231 cf41 96f4 ef41 40be 4241 1a08 af41
00000040: df0c 1142 2b6c 0a41 c351 5b42 1f5c 6842
00000050: a466 ba41 b931 c640 b59a 5340 4aa8 5942
00000060: a094 4642 1475 0543 7e55 e040 a4c6 6442
00000070: 8b57 5241 c2f6 ce42 b8d7 5241 8e02 3042
44.96659 39.086597 25.470543 15.527952 11.576052 50.925785 115.418236 18.425648
16.421461 72.5436 222.04836 122.65358 25.899387 29.994427 12.171448 21.878956
36.26257 8.651408 54.829845 58.089962 23.300117 6.1935697 3.3063176 54.414345
49.64514 133.45734 7.010436 57.193985 13.146373 103.48195 13.177666 44.002495

bn3.running_var f4 [32]
00000000: 3e2f e346 7915 3c46 3a62 db46 a58a 6e46
00000010: a233 6b45 3268 4f46 7009 ef46 d88b 1346
00000020: 314d be46 41c0 5f46 e9f7 8446 749f d146
00000030: 8b65 c346 71cb 2046 7fab 3746 7c8e 7446
00000040: 433f 1247 f190 8c45 dac5 1347 24f8 cc46
00000050: f109 2646 6343 9e45 450d 9f44 0af7 5347
00000060: 2112 7c47 0b6f 0847 59e8 6645 e1bb 0f47
00000070: 71d7 0746 a534 9e46 055a d945 0077 9146
29079.621 12037.368 28081.113 15266.661 3763.227 13274.049 30596.719 9442.961
24358.596 14320.063 17019.955 26831.727 25010.771 10290.86 11754.874 15651.621
37439.26 4498.1177 37829.85 26236.07 10626.485 5064.4233 1272.4147 54263.04
64530.13 34927.043 3694.5217 36795.88 8693.86 20250.322 6955.2524 18619.5

conv4.weight f4 [64, 32, 3, 3]
00000000: 38fb dcbf 690a 88bf 060b 53c0 4f34 8e3f
00000010: f9e2 143f 36cf 563f 0276 8e40 005d 6740
00000020: d8d7 5b40 6a51 c4bf 569a 3ebf 6d36 3b3f
00000030: 4c72 a540 d6d7 5e40 a4db 7a40 c1b1 c2be
00000040: 4197 7ec0 6800 a1bf df64 da3e 958a e4be
00000050: 306b c2bf ef08 74bf 3a8b 5fbf 0924 25c0
00000060: 7ae1 0e40 aa6c 453f 8841 12be 9274 9cbf
00000070: f2ef 30bf ef6a 12c0 dc91 b0bf f149 b7bf
00000080: aa71 4dbf 01a1 21bf 56bb fabf 2c3d d1bf
00000090: 8b77 863e ed4a 69bf 8cbd dcbf e377 6abf
000000a0: 1f4c 0cbd 6396 58c0 a206 0bc0 c195 49bf
000000b0: 74ca 0dc0 670d b4bf 04f6 cf3e a7f6 c9be
000000c0: 521c 6140 0dda 8740 549e d63f df81 933f
000000d0: c4ab 6a3f b9ea a2bf 1d35 c73f 87d8 bd3f
000000e0: 3a07 453e ec2b 273f 9f31 173f 98b8 dbbf
000000f0: 17b9 8d3f 0ed4 0340 1d3c 113e f9d9 1ac0
00000100: 4d9f f23f 3e83 30bf 755a 91bf a2e4 0ac0
00000110: e6d4 fcbf 5b84 963e d2a7 68bf 8099 51bd
00000120: 7bca 7d3e b9b8 dd3e 83f3 473f 13a9 0cbf
00000130: b00b f63e b51f 893e 0d1b 0fbe 28ff 3cbf
00000140: 8772 18bf cabf afbf 840e 62bf f8e7 3dbf
00000150: 3e48 2ebf f951 52bf 97a5 b6be 031b 13c0
00000160: f91d d7bf f1c5 15bf 331d d43e f9a2 72bf
00000170: 72af a63e e7ce 0b3f adb4 f93d 70ce c0be
00000180: b12d 0fc0 0abe b0bf 34c3 9dbf 355f c93e
00000190: 5d05 cabf f9f0 bfbd ae9a 2140 25ed 2440
000001a0: a8ab eb3f ce27 4b40 cd57 2440 8df5 1340
000001b0: 4cf9 4c3f 9469 a4bf 47db 03c0 36d6 eabf
000001c0: 8600 04c0 54a9 4fc0 546a 073f 228f d53f
000001d0: 15c7 b03e b9d4 f6bc c47c cd3f 033d 923e
000001e0: 7b0d 7ebf 10ea a0bf e411 8ebf aeff d1be
000001f0: 1baf a7be ede1 49bf 6547 d2bf f495 ff3f
00000200: 5a1a 67be b574 68bf 1ca5 d5bf f08d 9abf
00000210: 93d2 b4bf 53b0 d2be cdb5 95be 3425 01c0
00000220: 969c 4cc0 953a f6bf c8f9 10c0 cc35 cfbf
00000230: ddbb 15c0 4622 16bf 3877 3ac0 f5fe e6bf
00000240: 70b1 71be 3f2e f1bf 2e40 0fc0 2008 b1bf
00000250: 330d 01c0 71c5 0ec0 328b 0ebf bcab 17bf
00000260: 3408 82be 45eb 06be e630 a13e 9914 e1be
00000270: 0b40 f43c 2d7c 09bf 0fef 52bf 9ee8 2d3f
00000280: 1544 693f bd19 a2bd 1bc5 f9bf 6213 0ac0
00000290: a6ca 00c0 f86a cabe d6a6 32c0 a2ff 19c0
000002a0: 729c 0940 4a8e 6540 399b 6dbd 8ece 20c0
000002b0: 8a47 fbbf d02d 75c0 66a5 7e3e ec10 443f
000002c0: 7309 213f 6dde 1ac0 8b89 8ac0 fa6e 36c0
000002d0: f779 3ebe 678a e83f a281 c23e cd98 8fbf
000002e0: 61de edbf fc70 82bf 8fa7 2cbf a3a5 f8bf
000002f0: 9d90 b6bf 2c70 2d40 b154 8ebf 0608 833f
00000300: 1add 53bf 0112 38c0 2c0b 00c0 2bbb 90bf
00000310: 7c00 e0bf 5f91 babe 9771 debe 99b4 70bf
00000320: fb38 0f3e bdd5 023f 88f5 32bf 4c6c 843f
00000330: 0540 5dbf aab3 41c0 6c4b da3e 4888 f6bf
00000340: 6f21 0cc0 79f7 00c0 d9ba 1ac0 eb74 09bf
00000350: 5965 0ec0 1af6 2140 587a 6e40 fe75 0140
00000360: e6b9 cabf d1ec 5dbf 6185 cebf 53d6 863f
00000370: 4f49 c33f aed8 843f b66f b13f e466 bf3f
00000380: dbd2 0540 63a7 49bf 22c3 543e 0947 34bf
00000390: 535d 0dc0 c2e1 96bf 94d6 c0bf eef6 5c3f
000003a0: da18 a6bf 2b1c 3fbf 447d 8a3e 917e 3bc0
000003b0: 7d1c 19c0 48e9 a8c0 db92 81c0 b9fd 91c0
000003c0: 3d01 943e f885 b73f c37e 293f 32b2 69bf
000003d0: d1a6 fe3e 4d68 11c0 6c23 35c0 4d73 53c0
000003e0: daf7 28c0 b0f8 f9be 104b 4b3d b135 0f3b
000003f0: 6886 77bf 4748 0a40 d6db 5fbf 8636 3240
-1.7264166 -1.0628177 -3.2975478 1.1109713 0.5815883 0.8390993 4.4519053 3.6150513
3.435049 -1.5337346 -0.7445425 0.7312992 5.1702023 3.4819236 3.9196558 -0.3802624
-3.9779818 -1.2578249 0.42655084 -0.4463698 -1.5188961 -0.9532613 -0.8732182 -2.5803244
2.232512 0.77118933 -0.1428281 -1.2223074 -0.6911613 -2.2877767 -1.3794513 -1.431944
-0.8025156 -0.631363 -1.958842 -1.6346793 0.2626308 -0.9112995 -1.7245345 -0.9158918
-0.034252282 -3.3841789 -2.1722798 -0.7874413 -2.2154818 -1.406659 0.40617383 -0.39445993
3.5173535 4.2453675 1.6767068 1.1524009 0.91668344 -1.2727882 1.5563084 1.4831704
0.19241038 0.65301394 0.5906009 -1.7165709 1.107211 2.0598178 0.14183088 -2.419554
1.8954865 -0.6895026 -1.135573 -2.1702046 -1.9752471 0.29397854 -0.90881073 -0.05117178
0.24784271 0.43304995 0.78105944 -0.54945487 0.48055792 0.26782003 -0.13975163 -0.7382684
-0.59549755 -1.3730404 -0.883034 -0.7418208 -0.6807898 -0.8215633 -0.3567321 -2.2985237
-1.6806022 -0.5850516 0.41428527 -0.94779927 0.3255573 0.5461258 0.12192664 -0.376575
-2.2371638 -1.3807995 -1.2325196 0.3933045 -1.5782887 -0.09372134 2.525066 2.5769742
1.841176 3.1743045 2.567859 2.3118622 0.80067897 -1.284472 -2.0602586 -1.8346622
-2.062532 -3.24471 0.5289662 1.6684306 0.34526888 -0.030130731 1.60537 0.28562173
-0.9923932 -1.257143 -1.109921 -0.4101538 -0.32750782 -0.7886036 -1.6428038 1.9967637
-0.22568646 -0.9080308 -1.6691012 -1.2074566 -1.4126762 -0.4115015 -0.29240265 -2.0178957
-3.1970572 -1.9236628 -2.2652454 -1.6188293 -2.3395913 -0.5864605 -2.9135265 -1.8046557
-0.23602843 -1.8842238 -2.2382922 -1.3830605 -2.0164306 -2.2308009 -0.55681145 -0.5924642
-0.25396883 -0.13175686 0.3148262 -0.43961027 0.029815694 -0.537051 -0.82396024 0.6793307
0.9111951 -0.079150654 -1.9513277 -2.157433 -2.0123687 -0.39534736 -2.7914329 -2.4062276
2.1501737 3.5868096 -0.05800936 -2.512607 -1.9631207 -3.8309212 0.24867782 0.7658832
0.62905043 -2.4198258 -4.32929 -2.8505235 -0.18601213 1.8167237 0.37989527 -1.1218506
-1.858349 -1.019073 -0.67443174 -1.9425548 -1.4262882 2.7099714 -1.1119596 1.0236824
-0.8275925 -2.8760989 -2.0006819 -1.1307119 -1.7500148 -0.36439034 -0.43446037 -0.9402557
0.1398658 0.5110739 -0.699059 1.034555 -0.8642581 -3.0265908 0.42635667 -1.926034
-2.1895406 -2.0151045 -2.4176543 -0.5369403 -2.2249358 2.5306458 3.7262173 2.0228267
-1.5837982 -0.8668948 -1.6134454 1.0534157 1.5256747 1.0378625 1.3862216 1.4953275
2.0909946 -0.78771037 0.20777562 -0.7042089 -2.208821 -1.1787646 -1.5065484 0.86314285
-1.2976334 -0.74652356 0.27048695 -2.9296 -2.3923638 -5.2784767 -4.0491767 -4.562222
0.28907195 1.4337759 0.6620905 -0.9128753 0.49736646 -2.271991 -2.830287 -3.3039124
-2.6401277 -0.48822546 0.049632132 0.002185207 -0.9668946 2.1606615 -0.8744482 2.7845778

conv4.bias f4 [64]
00000000: 729a 393d d9e3 62c0 6d8b 30c0 d608 473f
00000010: d580 68c0 eccd 07c0 421f 35c0 0682 8cc0
00000020: 373e 1c3e 6bbb 69c0 a7d0 97c0 12c0 70c0
00000030: 6b3a 57bf 9b8a 693f b1b0 ddc0 7d8f 36c0
00000040: 8a40 e93f e1d3 98c0 2ac3 bd3e 1c99 1fc0
00000050: 1110 8ebf 8068 cdc0 3400 89c0 c134 07c0
00000060: 3d30 07c0 7f96 ffc0 75d2 08c1 d520 a1c0
00000070: c9a7 cfbe c0c7 1ac0 f398 97c0 f28e ccc0
00000080: 4f2d 7240 e43b a9c0 0e57 bd3d 46b8 96bf
00000090: cb0f afc0 9d5b 3d3f bf4b 79c0 3610 bdc0
000000a0: 9cb5 94c0 9f64 71c0 849b 60c0 972d 503f
000000b0: b671 46bf 7437 f2c0 8fff a4bf a226 8ebf
000000c0: 102f 1cc1 d3cc d73f 127f a5bf f49d 64c0
000000d0: 8d91 b9c0 fa61 35c0 5767 6cc0 4c0b 15c0
000000e0: de60 8abf 8de0 a2c0 b0de e3bf 5cae 33c0
000000f0: da2e 29c1 5dd5 65c0 17be f5bf 8010 85bf
0.045313306 -3.5451567 -2.7585099 0.7774786 -3.6328633 -2.1219435 -2.8300328 -4.390872
0.15258108 -3.652064 -4.7442203 -3.761723 -0.84073514 0.9122712 -6.927819 -2.8525078
1.8222821 -4.775864 0.3706296 -2.49372 -1.1098653 -6.4190063 -4.281275 -2.1125948
-2.1123192 -7.987121 -8.551381 -5.035258 -0.40557697 -2.4184418 -4.7374206 -6.3924494
3.7840154 -5.288561 0.0924512 -1.1774986 -5.470678 0.73967916 -3.8952482 -5.908229
-4.647169 -3.7717664 -3.509492 0.81319565 -0.7751726 -7.569269 -1.289049 -1.110554
-9.76149 1.6859382 -1.2929404 -3.5721407 -5.7990174 -2.834105 -3.6938074 -2.3288145
-1.0810812 -5.089911 -1.7802334 -2.807517 -10.573938 -3.5911477 -1.9198636 -1.039566

bn4.weight f4 [64]
00000000: 12d7 a9be b9d2 2f41 2188 3741 6013 3c41
00000010: a68b 2541 3242 5e41 6386 bc3f 17b6 5141
00000020: 8ebd d5bd 0666 4341 79f5 0641 1bdd 6741
00000030: 6cbf 89bf d3f9 2d41 c3d1 5741 0a74 a740
00000040: 3f3c 8e3d 7d92 2b41 9b8c 1b3e 346f 2441
00000050: f149 7d3e 2564 5541 c6ed 3441 0d0b 4041
00000060: a341 d840 381e 6b41 1e26 4e41 3566 5141
00000070: 950d f6bd a7ed 4d41 0621 5d41 5b6d 4741
00000080: 796d d83e ee5a 3a41 f1d2 6941 3b1c 3241
00000090: 0623 4d41 7c3f 6e40 7841 92bf e985 1741
000000a0: de65 fc40 c9df 3a41 42cd 5341 5ba0 dd3e
000000b0: b04e 4f41 f34e 6641 9eaa 3941 ee1c 1541
000000c0: 2091 6c41 b4ac 7d3e a779 2941 a095 6d41
000000d0: e78d 5b41 c7f3 3941 b7ac 4541 c26d f440
000000e0: 550e 3e3f 5caf 5941 f591 1641 5576 5d41
000000f0: c739 4441 a154 0640 200d 3341 5e11 11c0
-0.33171898 10.988946 11.470735 11.75473 10.346594 13.891161 1.4728512 13.106956
-0.10436545 12.212408 8.43493 14.491481 -1.0761542 10.873492 13.488711 5.232915
0.06945085 10.723264 0.15190355 10.277149 0.24735238 13.336949 11.30805 12.002698
6.7580123 14.694878 12.884306 13.087453 -0.12014309 12.870521 13.820562 12.464198
0.4227102 11.6472 14.613999 11.131892 12.821051 3.7226248 -1.142623 9.470193
7.887435 11.679635 13.237612 0.43286404 12.956711 14.394275 11.604155 9.319563
14.785431 0.24772912 10.5922 14.84903 13.722144 11.622016 12.354667 7.638398
0.7424062 13.605312 9.410634 13.84139 12.264106 2.0989153 11.190704 -2.266685

bn4.bias f4 [64]
00000000: 21f7 04bb 94ed 483e ad41 113e 5221 993d
00000010: 9568 223d 9ea6 363e aee1 243c 8ce3 613d
00000020: 4407 63bc b652 8a3d 58bf 1c3e 1c83 a13d
00000030: d30e b8bc 09cb d73e 8abb 923e 4644 223c
00000040: c8d2 583b ac4c 213e aabe 30bc dc4a ac3d
00000050: c7e1 233c f3a0 543e a83b 273d ea3a 7e3d
00000060: 76a2 0a3e 17ec d13d 9d11 163e 8114 173d
00000070: af12 d93b ec31 9b3c b497 5d3e 3541 a4bc
00000080: bc26 60ba 275e 0d3e e25b e33d 472f bbbd
00000090: 4a73 23bd 0874 66bc 4809 64bc 9130 bd3d
000000a0: da06 de3d 94cb 9d3e bf0d e23d bf9b 263c
000000b0: 1745 8c3e 9c22 ce3d 2d57 1d3e c4cf 023d
000000c0: 574e d53e c55a 9b3c 88a3 c63d d3fd ad3e
000000d0: 91fa 893d 4a7b 1c3e 3944 883e ca9f a13d
000000e0: dff6 98bb 669f fa3d eccf dc3d 75f1 913e
000000f0: b026 373e 5ae3 ef3c 7925 e53d b648 a7bc
-0.0020288902 0.19621879 0.1418521 0.074770585 0.03965052 0.17836997 0.010063572 0.055148646
-0.013856713 0.06754057 0.15307367 0.07886335 -0.022468006 0.4214709 0.28658706 0.009903973
0.003308462 0.15751904 -0.010787645 0.08412716 0.01000256 0.20764522 0.040828377 0.062067904
0.13538536 0.10250109 0.14655156 0.03688479 0.0066245417 0.018944703 0.21639901 -0.020050624
-0.0008550694 0.13805448 0.1110151 -0.09139877 -0.03990487 -0.01406575 -0.013918228 0.09237779
0.108411506 0.3081938 0.11037778 0.010168969 0.2739646 0.10065195 0.15365286 0.031936422
0.4166133 0.01896418 0.0969916 0.33982715 0.06737245 0.15281406 0.2661455 0.078918055
-0.004668101 0.12237434 0.107818455 0.2850453 0.17885852 0.029283214 0.11188788 -0.020420413

bn4.running_mean f4 [64]
00000000: 03f4 6c42 86fe 5b41 7b6b cc40 1ff3 aa41
00000010: 5dac 9140 f006 2541 0400 0000 6483 8440
00000020: 5936 6743 019f c240 5274 e940 8795 e740
00000030: 1c54 f543 b43d cb41 c956 e040 0400 0000
00000040: 2bf9 b143 e958 4940 f531 4743 717f a240
00000050: 6110 9f40 d7d6 9440 4c1d 6040 3c8e d840
00000060: a435 6841 15ad b740 4360 1240 dba4 9a40
00000070: b667 0742 f8f5 a440 6db3 1741 1954 1141
00000080: 69b5 b243 f35e 8240 9022 2441 847a 9140
00000090: 5a89 7241 87a6 0441 f327 423e 279d 0a3f
000000a0: 766c 5140 b7cc 4841 7c86 3d40 ea50 4043
000000b0: 1f1b f340 20df 0a40 f03d 2140 7582 1d40
000000c0: 9969 0641 8ffe 0144 daa3 1d41 490e ec40
000000d0: 3867 4341 aee3 ef40 8f8f 4a40 e892 3f41
000000e0: 99c2 bd3f 0ad1 3340 bd58 9440 1f95 0942
000000f0: 1c0d 9f40 6fc3 b13f cbdd b140 230e 1a40
59.238293 13.7496395 6.38812 21.368711 4.5522904 10.314194 6e-45 4.141039
231.2123 6.0819097 7.2954493 7.237003 490.6571 25.405128 7.010594 6e-45
355.94662 3.1460516 199.19514 5.078057 4.9707494 4.6512256 3.5017881 6.7673626
14.513096 5.739878 2.2871253 4.832624 33.85128 5.1550255 9.481305 9.083032
357.41727 4.0740905 10.258438 4.5462055 15.158533 8.290656 0.18960552 0.54146045
3.272245 12.549979 2.9613333 192.31607 7.5970607 2.1698685 2.5194054 2.4610875
8.400781 519.9775 9.852503 7.376744 12.2127 7.496543 3.1650121 11.973366
1.4825011 2.8096337 4.6358323 34.395626 4.9703503 1.3887767 5.5583243 2.4071128

bn4.running_var f4 [64]
00000000: ec90 e346 a812 3c46 dd85 b445 7bdc 4d46
00000010: ac5e 3a45 5552 2846 0400 0000 7103 4f45
00000020: 9c87 6447 0a9e ce45 177c ac45 bd11 a945
00000030: fad2 7348 cf43 bf46 924c b945 0400 0000
00000040: e6f6 1447 89d8 1345 2908 9c47 4362 3b45
00000050: 8d51 a145 104a 8845 a56d 0a45 c79c 7c45
00000060: 7972 7d46 2f4c a845 e225 0a45 2747 8d45
00000070: bcd6 1547 b51e b845 99af 0346 7456 e445
00000080: 979e 0947 528e 5e45 64c7 0546 ae6f 4545
00000090: b043 5846 15bb 4145 f690 8042 aebd c343
000000a0: a252 de44 3c28 3146 6507 2045 532b 3d47
000000b0: 29df bb45 4f5c 0e45 34c1 0b45 2138 b044
000000c0: 072f 2546 99eb 0548 79dd c845 2022 e545
000000d0: 05a8 2c46 573a 9b45 1daa 2e45 a48e 2146
000000e0: b5a4 4244 0c14 2045 36e9 8445 8064 2147
000000f0: 058f 9e45 ab50 4044 c693 3245 87b9 9444
29128.46 12036.664 5776.733 13175.12 2981.917 10772.583 6e-45 3312.215
58503.61 6611.755 5519.511 5410.2173 249675.9 24481.904 5929.5713 6e-45
38134.9 2365.5334 79888.32 2998.1414 5162.194 4361.258 2214.8528 4041.7986
16220.618 5385.523 2210.3677 4520.894 38358.734 5891.8384 8427.899 7306.8066
35230.59 3560.895 8561.848 3158.98 13840.922 3099.6926 64.28313 391.48187
1778.5823 11338.059 2560.4622 48427.324 6011.895 2277.7693 2236.0752 1409.754
10571.757 137134.39 6427.684 7332.2656 11050.005 4967.2925 2794.632 10339.66
778.57355 2561.253 4253.1514 41316.5 5073.8774 769.26044 2857.2358 1189.7977

lin.weight f4 [10, 64]
00000000: e684 9a3d 0187 a03f b01d a23e e726 8abf
00000010: e57e 8fbf 6f19 373f 87f3 7fbd ecd8 88be
00000020: 1e6d 86bd ab5e 32bf dfd8 9c3e cd54 253f
00000030: e2e6 833e 0428 0e3f 6476 c23f f73c 80bd
00000040: 6ce2 8f3d 7a38 bf3f 114e ddbc c81f 1abf
00000050: 5383 5cbe 540d bcbe c9de 543b b20e 00bf
00000060: 87b2 9c3e 8773 abbf eb98 143e 15d8 99be
00000070: 43fe c0bd 8eba 74bf 34ba 943f 074e 04c0
00000080: d2b0 10bc d4cb 14bf ef68 bfbf f41d c0bf
00000090: d043 ab3d cf5d aebd b5e8 1ebe 9ed0 0abe
000000a0: a448 793f b185 8b3f c60b 5dbf 386e 61be
000000b0: 7659 df3f bdce 96bf 2cf5 8e3e 0d36 c2be
000000c0: b40a bc3f 9afa 0ebe 51a8 ce3e 0746 0240
000000d0: f686 c1bf 044e f23f 7b33 853f ca7b 153f
000000e0: 73f5 87bd 1f13 78bf ed01 c93e 9580 da3f
000000f0: 5ca2 babe 44c9 8e3e 0dae 133e b998 7a3e
00000100: e291 a43d f802 8fbf 33d1 8d3f 3af9 d43f
00000110: 9a52 aabd cc03 dbbf 9d80 b0bd a41d 2ebf
00000120: 1510 aebc 4fb5 dbbf b4c8 c73f 5584 a33e
00000130: 6bce 923e cf7e 6d3f 2e56 a7bf bdd8 94bd
00000140: ebec 353d 730b a4be feb4 7dbc 9a80 7b3d
00000150: 1988 66be 1ded e83f e140 8cbf 5ca4 e2bf
00000160: cd5b a73f ba0f b23f 9815 f23f 5d57 6cbf
00000170: 05fb ccbd 4d6e 8cbf d2f1 a6bf bfc8 473f
00000180: df05 813b e0a7 25bf eb9f 503f 0fc2 1d3f
00000190: 9a25 44c0 e8d1 e63e 7dd2 7c3c 70ae 843f
000001a0: e37a 573f 5cc1 b23f 986d f73f c12f 82be
000001b0: c7b5 0bbf f12c b03f 494c f53f 45a2 9b3d
000001c0: 69d6 bc3f b188 43be fd8f 8cbf 5d9a afbe
000001d0: 4b6d b1bf ecbd 81bf f02a d83b 0b43 093f
000001e0: 8e59 8dbd 94fb ea3f 4650 c8be 4c03 9abf
000001f0: 7d22 89bf 1a5e 523e f695 bcbf 9853 29be
00000200: 92db 8f3c 977b ce3d 6278 a33f 4443 ddbf
00000210: ce53 5440 bfb7 4a3f e9e0 723b 01c8 54c0
00000220: 58bc 00be 9b5a 0740 0fe6 05c0 de0f 5840
00000230: 6547 ef3e bf02 d9c0 e57c 4d3d 8cff fcbc
00000240: 1abd d03d 7118 c9bf b79c 303c 9830 1440
00000250: e623 12be 2fb8 993f 0009 b0bf 30fe 0040
00000260: 99d4 40c0 e838 8abf a40d 68bf 86e9 603f
00000270: 201e c1bd aa28 0240 6372 4b40 b5f5 d13f
00000280: 5f33 bb3c 616c 983f 18e6 17c0 dcc9 593f
00000290: 7123 ca3f 35e2 283d 9b75 a6be 5306 aa3c
000002a0: 1b08 b6bf 6c2e b1bf 94d0 04bf 420c a9be
000002b0: 6930 f7bf 0f54 fa3f 107e 19c0 fb7f 06c0
000002c0: a239 0d3f 46e3 27be 1ec0 13c0 b810 4abf
000002d0: 688c 0dbe ad37 10c0 c62a 99bf 8be1 41c0
000002e0: ecbd d1bd ccf5 82bf a337 1440 6f88 c63d
000002f0: 15d5 bbbf 0208 9dbe 9ff8 a8bd a98f 69bd
00000300: 13f6 263c 8694 233f 555e 87bf 47d0 523f
00000310: 8693 06bf 721e 12c0 a503 54bb 380f de3e
00000320: a32d 42bd 79b4 d53f 7ab3 f6bf 8478 26c0
00000330: a477 363e 4a6f bb3f 3a97 d0be a62d 72bc
00000340: 4503 a73d d5cc 873e c27f 9dbd db86 9d3e
00000350: 5eb0 3cbe 12cb dabf d43e 3940 bd76 ca3f
00000360: e434 b43e 8032 a73f 6572 92bf a1c2 2940
00000370: 86de a2bd f7a2 bbbf 076a 8cbf 0d71 2ebf
00000380: d012 a73d b9d7 1840 a4bd 913f 984f b03f
00000390: f971 2340 487c 083e 5d4a 47be c973 49bf
000003a0: 6990 a0bf 82dc 2ec0 5498 42bf a7d7 e2bd
000003b0: 91b2 a0bf aff4 d7bf fb2a c4bf d15e fb3f
000003c0: f2ed 5ec0 377c d4bd a39a f83f a517 2cc0
000003d0: aeca 39be 5447 3e3f 6ef7 8ebf 00e4 713f
000003e0: 31a8 39bc e570 4f3f 61ad acbf 1470 08c0
000003f0: 578a 3c40 32ea 8ebd 537a 1740 8d8b 033e
0.075448796 1.25412 0.31663275 -1.0793122 -1.12106 0.71523184 -0.062488105 -0.26727998
-0.06563781 -0.696757 0.3063421 0.6458252 0.25762087 0.5552981 1.519238 -0.06261628
0.070256084 1.493911 -0.027014764 -0.60204744 -0.21534471 -0.3672892 0.0032481423 -0.50022423
0.30604956 -1.3394631 0.14511459 -0.3004767 -0.094234966 -0.9559716 1.1619325 -2.0672624
-0.00883122 -0.5812352 -1.4953898 -1.5009141 0.083625436 -0.08513986 -0.15518458 -0.13556144
0.97376466 1.0900174 -0.8634609 -0.22014701 1.7449176 -1.1781842 0.27921426 -0.37931862
1.4690766 -0.13962784 0.4036279 2.0355241 -1.5119312 1.8930058 1.0406336 0.5839201
-0.066386126 -0.96904176 0.39259282 1.707049 -0.36451995 0.27887928 0.14421864 0.24472322
0.080356374 -1.1172781 1.1079468 1.6638558 -0.08316536 -1.7110534 -0.08618281 -0.6801398
-0.021247903 -1.7164706 1.5608125 0.319369 0.2867311 0.9277162 -1.3073175 -0.07267902
0.044415396 -0.32039985 -0.015485046 0.06140194 -0.22512855 1.8197361 -1.09573 -1.7706409
1.307489 1.3911049 1.891284 -0.92320806 -0.10008816 -1.0971161 -1.3042548 0.7804069
0.0039374675 -0.6470928 0.81494015 0.61624235 -3.064795 0.4508202 0.015431044 1.0365734
0.84171885 1.3965259 1.933032 -0.25427058 -0.54574245 1.3763715 1.9163905 0.0759931
1.4752933 -0.19095112 -1.0981442 -0.34297457 -1.3861479 -1.0136085 0.0065969154 0.53617924
-0.06901847 1.8358026 -0.39123744 -1.2032256 -1.071365 0.2054371 -1.4733264 -0.16535795
0.017560754 0.10082167 1.2771113 -1.7286153 3.317615 0.79186624 0.0037060326 -3.3247073
-0.12571847 2.114905 -2.0921667 3.3759685 0.46734157 -6.781585 0.050167937 -0.030883573
0.10192318 -1.5710584 0.010779551 2.315466 -0.14271507 1.2009333 -1.3752747 2.0155144
-3.012976 -1.0798616 -0.90645814 0.8785633 -0.09429574 2.033732 3.1788566 1.6403109
0.022851644 1.1908075 -2.3734188 0.8507364 1.5792066 0.041231353 -0.325116 0.020754969
-1.4221224 -1.3842292 -0.51880765 -0.33017164 -1.9311649 1.9556903 -2.3983192 -2.1015613
0.55166066 -0.16395292 -2.308601 -0.7893176 -0.13823092 -2.2533982 -1.1966178 -3.029391
-0.10241303 -1.0231261 2.3158958 0.096939914 -1.4674402 -0.30670172 -0.08250546 -0.05702177
0.010190505 0.63898504 -1.0575663 0.82349056 -0.5256885 -2.2831082 -0.0032350805 0.43370986
-0.047406804 1.6695701 -1.9273522 -2.6011057 0.17819077 1.4643338 -0.40740377 -0.014781391
0.081549205 0.26523462 -0.076903835 0.3076695 -0.18426654 -1.7093222 2.8944597 1.5817486
0.35196602 1.3062286 -1.144116 2.6525042 -0.07952599 -1.4659108 -1.0969857 -0.6814125
0.08157885 2.3881667 1.1385999 1.377429 2.5538313 0.1332866 -0.19461961 -0.786923
-1.254407 -2.7322087 -0.76013684 -0.11076289 -1.2554494 -1.6871547 -1.5325617 1.9638311
-3.483273 -0.103752546 1.9422191 -2.6889431 -0.18143722 0.7432759 -1.116926 0.94488525
-0.011331604 0.8103164 -1.3490411 -2.1318407 2.9459436 -0.06978263 2.366841 0.12846203

lin.bias f4 [10]
00000000: 628c 2f40 b1e1 793f fe21 6dc0 6208 99be
00000010: 3bd1 1fc0 5ba4 0ac1 02d4 09c1 46a3 09c1
00000020: 7ffb 08c1 bac4 0bc1
2.7429433 0.9761 -3.7051997 -0.29889208 -2.4971454 -8.665126 -8.61426 -8.602362
-8.5614 -8.735529

conv.0.weight f4 [8, 2, 5, 5]
00000000: 19ec c540 9fd3 2c41 86c2 ef40 55ba c740
00000010: f8ae 2240 8ad2 0a40 8339 5540 b5b2 913f
00000020: d6ed c93f d9ad 3ebf d932 a0bf 6b80 47c0
00000030: 2756 35c0 489a 7bc0 3565 19c0 6a7f 98bf
00000040: 03d5 d3bf a6d1 1ac0 47d1 46c0 b3f9 c5bf
00000050: f7fd 16bf 41a1 d0bf d8e2 3abf 2398 54c0
00000060: 0ce4 05c0 a896 d440 15b2 3041 2c68 f940
00000070: f541 c340 1798 2740 b4d4 eb3f c2b7 4a40
00000080: bb28 b33f 6b06 a93f f0a7 46bf 6bc9 8bbf
00000090: 9a58 3cc0 6a10 2ec0 2d90 7ac0 7e3c 2ec0
000000a0: 7f43 f1be 0499 d1bf f0d0 1ec0 79b1 43c0
000000b0: 0338 a1bf df3f 30bf 64ba c0bf 37ad 50bf
000000c0: a1d7 42c0 fcd1 05c0 e2e6 eabf d19a 25c0
000000d0: 6a71 65c0 e8f1 47c0 5c27 c2bf 45b2 4040
000000e0: 8305 0941 ebc1 e140 1627 2741 422e 1141
000000f0: 541a 59be e0b2 40be dca6 9d3d 532c b53e
00000100: 1e28 18bf 6fbd afbf a354 50c0 7375 44c0
00000110: 7e93 54c0 3389 3ac0 5be1 9b3f 54f9 a93e
00000120: b495 05be 9e7f babc e75d fa3d 8310 dcbf
00000130: 7ee9 2bc0 ca70 53c0 ba7c 68c0 c965 d7bf
00000140: 2121 3d40 2f64 0841 09c0 d840 bec2 2941
00000150: a8a1 0d41 f55d 86be a6e5 fdbe b50a 6e3e
00000160: 1d60 173d cd94 0dbe 3298 f0bf ee39 48c0
00000170: 65ba 4cc0 2a6e 47c0 5401 31c0 e53d 9e3f
00000180: 39ca 313f 2612 e1bd 49ba 163d 66c9 fa3e
00000190: 7743 bfbf f9f6 57c0 78d9 73c0 2b0d 19c0
000001a0: ef04 cdbf de98 fd3f 9955 243f 09ef dc3f
000001b0: 6d57 7c40 7417 d340 21d0 ecbf 3dac cebd
000001c0: b3ef 8d3e 2e7e 2041 53ef 0341 f7c6 b3be
000001d0: 4402 6fbd ccb2 7e3f 1ac5 8440 fac0 ff40
000001e0: 517e b3be 7cb7 f3bf d914 ebbf f746 1dbe
000001f0: 4c3b 1940 b9ca bbbf 9516 50c0 e89c 75c0
00000200: 8e27 2dc0 9d99 cebf e059 e93f 37c1 363f
00000210: 5fe0 0b40 daaa 8440 8f46 db40 6554 f5bf
00000220: acc1 a03e 273c 353e c2d0 2341 ad79 0a41
00000230: 2789 28bf 670f 75bd 9470 693f 9bc8 9240
00000240: af4e f240 b3ce bbbe c505 e3bf 9254 0dc0
00000250: 2fc5 fcbe 018f 2740 77c7 96be 28e1 19c0
00000260: 8867 21c0 60d6 4dc0 7815 13c0 4197 c7bf
00000270: b3e1 2cc0 e1b8 45c0 b33a 4dc0 ddec 47c0
00000280: 09ff 0b40 8990 8440 f1b9 6840 67a3 0540
00000290: 08d5 9dbf 1473 f93f 371a 9e40 6eb7 5040
000002a0: 6199 8140 07e1 15c0 84a3 563f 1697 5940
000002b0: a839 f93f 6b15 af3f 49b8 1dc0 6da1 b5be
000002c0: 7ecb 06c0 4d36 2fc0 4377 45c0 374c e7bf
000002d0: 609f f6bf b727 36c0 6361 42c0 1f26 4dc0
000002e0: 8cb0 25c0 b6e0 1140 9ea0 7c40 43d2 6a40
000002f0: 0a6f ee3f 0167 84bf 096c 0040 6516 a240
00000300: bc5c 6c40 4ca3 8040 475e 0dc0 dfda e93e
00000310: 3a4a 5c40 b93d f03f e8ec a93f d762 21c0
00000320: f3f5 bc3f dd0f 22be 0c73 45bf 6679 a93d
00000330: e531 99be 053b bfbf 821a 7fc0 4e21 64c0
00000340: b809 03c0 c128 90bf 6c4c 83bf c83e 2dc0
00000350: cab7 24c0 7526 5bc0 34ba c3bf fbec 2440
00000360: 3c74 0d40 9102 c03e 7ee4 a13f a113 743f
00000370: f137 e040 da3e 1f41 6ce8 0b41 bb6c 2141
00000380: 72d5 b140 b9dd c93f c262 6b3e a2b6 49bf
00000390: 8a96 383e e8d6 43be 498d 04c0 3569 61c0
000003a0: 33af 68c0 9651 e4bf c6d1 6abf 3f84 99bf
000003b0: 1e0f 2bc0 c9e2 49c0 c07d 59c0 562f d5bf
000003c0: b7cf 3440 a9b1 0040 a4a5 ba3e 40bb d63f
000003d0: ea9d fd3e e908 e640 b5ea 1c41 dfc5 0941
000003e0: 3a07 1e41 6385 ae40 fa8a 1940 994b b8be
000003f0: 656f c9bf df3a 11c1 18b2 5dc0 48a6 df3f
6.1850705 10.801665 7.4924955 6.2414956 2.5419292 2.1691003 3.3316352 1.1382662
1.5775707 -0.7448402 -1.2515517 -3.117213 -2.8333833 -3.9312916 -2.3968022 -1.1913884
-1.6549381 -2.419046 -3.1065233 -1.5466827 -0.5898127 -1.6299211 -0.73002386 -3.3217857
-2.0920439 6.6433907 11.043477 7.7939663 6.1018014 2.6186578 1.8424287 3.1674657
1.3996805 1.3205084 -0.776 -1.0920843 -2.9429078 -2.7197518 -3.9150498 -2.7224422
-0.47121808 -1.6374822 -2.4815025 -3.057707 -1.2595218 -0.6884746 -1.5056882 -0.81514305
-3.044411 -2.0909414 -1.835171 -2.5875742 -3.5850472 -3.1241398 -1.5168262 3.0108807
8.563846 7.0549216 10.447042 9.073793 -0.2120145 -0.18818235 0.076978415 0.3538538
-0.59436214 -1.3729686 -3.2551658 -3.0696685 -3.3215022 -2.914624 1.2178148 0.33198035
-0.13045388 -0.02276593 0.12224942 -1.7192539 -2.6861262 -3.303759 -3.6326127 -1.6827937
2.955147 8.524459 6.773442 10.6100445 8.851967 -0.2624356 -0.4958927 0.23246272
0.036956895 -0.13826294 -1.8796446 -3.1285357 -3.1988766 -3.1160989 -2.765706 1.2362639
0.6944919 -0.1098979 0.03679875 0.4898178 -1.4942464 -3.374449 -3.8101482 -2.3914287
-1.6017131 1.9812276 0.6419311 1.7260448 3.942836 6.596613 -1.8501016 -0.100914456
0.27721938 10.030806 8.245929 -0.35112736 -0.05835177 0.9949157 4.1490602 7.9923067
-0.3505731 -1.904037 -1.8365737 -0.15359102 2.3942442 -1.4671241 -3.2513783 -3.8377018
-2.7055392 -1.6140629 1.8230553 0.7138857 2.1855695 4.145856 6.852363 -1.916638
0.3139776 0.17698728 10.238466 8.654706 -0.6583428 -0.059829142 0.91187406 4.586988
7.572105 -0.36681136 -1.7736136 -2.2082868 -0.4936919 2.6181033 -0.29449055 -2.4043674
-2.521944 -3.2162094 -2.2981853 -1.5593034 -2.7012756 -3.089409 -3.2067077 -3.123832
2.187441 4.1426435 3.636349 2.0880983 -1.2330637 1.9488244 4.9407 3.2611957
4.049973 -2.3418596 0.83843255 3.3998466 1.947072 1.3678411 -2.4643729 -0.3547472
-2.1061702 -2.7376893 -3.0854042 -1.8070134 -1.9267387 -2.846174 -3.037194 -3.2054517
-2.5889006 2.2793403 3.9473033 3.6690834 1.8627636 -1.0343934 2.006594 5.0652337
3.69316 4.0199337 -2.2088792 0.45674798 3.4420304 1.8768836 1.3275423 -2.5216577
1.4762558 -0.15826364 -0.7712867 0.08275108 -0.2992088 -1.4939886 -3.985993 -3.5645328
-2.0474682 -1.1262437 -1.0257697 -2.7069569 -2.5737176 -3.4242222 -1.52912 2.5769641
2.2102194 0.37501958 1.2647855 0.9534245 7.006829 9.952845 8.744244 10.089046
5.5573053 1.5770789 0.22986892 -0.787943 0.18026176 -0.19124949 -2.0711234 -3.5220463
-3.6356933 -1.7837398 -0.9172634 -1.1993483 -2.6727977 -3.1544669 -3.3983002 -1.6655071
2.825178 2.0108435 0.364545 1.6775894 0.4953454 7.1885877 9.8073015 8.610808
9.876764 5.4537826 2.3991075 -0.35995176 -1.573712 -9.076873 -3.463995 1.747262

conv.0.bias f4 [8]
00000000: 69c1 f1bf bef2 d7c0 001e 05c1 6400 7f3f
00000010: caa5 4ac1 35cb 65c0 1c9c ab3f 8f26 ecc0
-1.8887149 -6.7483816 -8.319824 0.9960997 -12.665476 -3.5905278 1.3407016 -7.379707

conv.2.weight f4 [8]
00000000: 487c dd40 6339 bd40 fea1 ca3f 097c c43e
00000010: 6208 a240 e7f0 b43d 53d1 f43f 698a dabe
6.921421 5.913255 1.5830686 0.3837588 5.0635233 0.08835011 1.9126381 -0.42683724

conv.2.bias f4 [8]
00000000: 9fd3 a9c0 8eb0 f8bf 3da1 13c0 d3c4 04bf
00000010: ee7b 92c0 1903 84c0 9aea 1540 408b eabe
-5.3070827 -1.942888 -2.3067162 -0.5186283 -4.577628 -4.125378 2.342444 -0.45809364

conv.2.running_mean f4 [8]
00000000: 6f5f 4241 9920 fb40 9aea 7f41 e47f 1c41
00000010: 35e8 2b41 9de6 3041 4ab0 b141 091a a040
12.148299 7.847729 15.994776 9.781223 10.744191 11.056302 22.211079 5.003178
