NCC_Code/models/2022-08-25_22-32-21_model.pt (torch, 115275 bytes, 50 tensors)

conv1.weight f4 [8, 2, 5, 5]
000000 c7 15 10 3e 39 f8 8a be 6b f7 56 3e aa 74 a2 be
       0.14070807 -0.27142504 0.2099282 -0.31729633
000010 1e f7 b2 be 73 05 8b be 71 42 0d bf 72 26 09 bf
       -0.3495416 -0.27152595 -0.55179507 -0.5357429
000020 7a 26 4e bf 52 75 46 bf 88 69 50 bd 75 21 9f 3c
       -0.8052746 -0.77522767 -0.050881892 0.019425133
000030 c0 83 60 bd 82 47 3b 3b 8e aa 2d bd 94 3a 2c 3e
       -0.054813147 0.0028576558 -0.04239898 0.16819221
000040 fe 33 0f 3f a0 af 9f 3e c3 cd 83 3f e4 47 cb 3e
       0.5593871 0.3118868 1.0297168 0.39703286
000050 7d db c2 3e 68 df 0e 3f 05 06 3d 3f 1e f1 a5 3f
       0.3805808 0.5580964 0.7383731 1.2964208
000060 9b 67 93 3f cd c4 77 3e 77 58 3d 3d 83 27 45 be
       1.1515993 0.24196167 0.046226945 -0.19253354
000070 82 08 80 3d f2 5a 13 3d 18 cd 5f be 79 f8 33 bf
       0.06251623 0.035975404 -0.21855581 -0.70301014
000080 4b dc 85 be b3 20 73 bf 01 38 f4 be f5 fc c5 3e
       -0.26144633 -0.9497177 -0.47698978 0.38669553
000090 43 63 19 be a6 39 af bd 52 b9 11 3d a9 5e 05 bf
       -0.14979272 -0.085559174 0.035577126 -0.52097565
0000a0 a8 52 a6 3e 36 7c 4b 3f f4 91 35 3f 9e 86 8d 3f
       0.32484937 0.79486406 0.7092583 1.1056707
0000b0 60 28 35 3f c4 df 20 3e 9b 3e 25 3f 2a 01 57 3f
       0.7076473 0.1571036 0.64548653 0.8398615
0000c0 81 4c 86 3f c9 4f 41 3f 69 0a d6 3d b9 45 a2 3e
       1.0492097 0.7551237 0.10451204 0.3169382
0000d0 f7 a9 65 3e b0 6e a9 be e5 86 c1 be 62 06 7d 3f
       0.22428118 -0.3309226 -0.3779823 0.98837864
0000e0 66 e2 9a 3f 8b 0b 69 3f d2 5b 19 3f e3 ce 59 3d
       1.2100341 0.9103324 0.5990573 0.05317582
0000f0 9d ea ba 3e c0 77 07 3e a5 60 67 3e d9 e1 ca bd
       0.3650712 0.13229275 0.2259546 -0.09906358
000100 67 20 ef be 89 b9 9a be 36 22 a1 be 32 f7 7d be
       -0.4670441 -0.30219677 -0.31471413 -0.24801329
000110 e9 69 24 bf be 08 15 bf c1 1f c2 3d 27 25 b6 be
       -0.64224106 -0.58216465 0.09478713 -0.3557522
000120 5b 04 d9 3d 99 d7 dc be 96 15 1e bf f2 f4 35 3e
       0.10596534 -0.43133238 -0.6175169 0.1776922
000130 37 1a c0 3d bc 01 94 3d 18 eb 27 be f8 04 03 bf
       0.0938 0.07226893 -0.16398275 -0.51179457
000140 b3 a6 57 3f 9f 3d 9e 3f fe 04 78 3f 0c 66 07 3f
       0.8423874 1.2362555 0.9688262 0.52890086
000150 bf d1 5b 3c 15 29 29 3c 53 a4 91 3d 1c db 81 be
       0.013416707 0.010324736 0.071114205 -0.2536248
000160 8b 16 6e be 1d ce 33 be 68 7c 75 be 66 07 2c bf
       -0.23250787 -0.17559095 -0.23973238 -0.6719879
000170 e6 69 0d bf 50 71 0c bf 82 c9 83 be d6 b2 e0 bc
       -0.55239713 -0.548604 -0.25739676 -0.027429026
000180 69 45 82 bc 97 43 b7 be aa 31 43 be f8 ab 5d be
       -0.015902238 -0.35793754 -0.19061914 -0.21647632
000190 24 e1 c9 3d c2 ef cb be 28 19 8a 3d 2a 73 b1 be
       0.09857395 -0.39831358 0.067430794 -0.34658176
0001a0 e5 d0 8f be fb 46 13 3e fd 74 f1 be dd 9b 39 bf
       -0.2808906 0.14382546 -0.47159567 -0.72503453
0001b0 2f da 1f bf 19 7c 46 bf 43 89 18 3e c9 21 9d 3e
       -0.62442297 -0.7753311 0.14896111 0.3068984
0001c0 f5 e2 59 3e f2 d2 67 be cf ef 0d be cf 75 af 3e
       0.21277983 -0.22639063 -0.13861011 0.34269568
0001d0 ba aa d6 3e a6 b8 5f 3f fa d3 a7 3f 3e 67 33 3f
       0.4192713 0.87391126 1.3111565 0.7007941
0001e0 5b 67 dc 3d a1 80 0f 3f f4 8a 49 3f 6b 09 82 3f
       0.10761901 0.5605565 0.7872765 1.0159124
0001f0 80 ec 67 3f 09 a4 83 3e c3 5c c9 3e 65 ac 4f bd
       0.90595245 0.25711086 0.39328584 -0.050701518
000200 9d 11 8e 3c a2 ec a7 be 46 57 2d bf b7 44 27 bf
       0.017342383 -0.32797724 -0.67711294 -0.65339226
000210 a4 f6 4d bf b8 47 47 bf 42 d3 fd be 9c 76 90 3e
       -0.8045447 -0.7784381 -0.4957524 0.28215492
000220 c5 77 93 bd 6a e7 8b 3e 7c 64 78 bd 83 5e 90 bd
       -0.072005786 0.27324992 -0.060642704 -0.07049277
000230 cc 08 da 3d 0f a3 a8 3e ab 61 cd 3e f7 f8 44 3f
       0.10646209 0.32936904 0.40113577 0.7694239
000240 d8 2d 56 3f 44 2c 77 3e 8f 78 7b 3e ea dd c9 3e
       0.836637 0.2413798 0.24557708 0.3942712
000250 5a 27 9c 3f 52 65 9e 3f d8 32 66 bf 1b b9 71 bf
       1.2199509 1.237467 -0.8992133 -0.94423074
000260 46 b8 83 bf 52 48 b6 bf 06 e5 e3 be 04 3d b5 be
       -1.0290611 -1.424082 -0.4451067 -0.35398114
000270 d6 b1 f1 bd e1 9f a6 3e 78 22 21 3e b6 e3 5e bd
       -0.11801498 0.32543853 0.15735805 -0.05441638
000280 5f 7e b0 3d f2 c6 4c 3c 5a 12 e7 3e f9 c6 b2 3e
       0.086178534 0.012498604 0.4513119 0.3491743
000290 00 d9 8e 3e 6d 3f 8b bd 27 26 a2 bc 3d 36 b8 3e
       0.27899933 -0.06799207 -0.019793583 0.3597888
0002a0 de 4c 45 3d 30 6b 7a be 96 eb 02 be 55 70 2a bd
       0.04816901 -0.24454951 -0.12785181 -0.041611034
0002b0 80 a1 b9 be 3e 80 9c 3e 72 a7 0b 3f d3 04 89 bf
       -0.36256027 0.3056659 0.54552376 -1.0704597
0002c0 04 e8 cb bf fb 49 30 bf e9 b6 ac bf a7 64 8a bf
       -1.593018 -0.68862885 -1.349332 -1.0811967
0002d0 32 b9 f0 3e b6 0c 93 3e 13 37 d1 3e 8f 9a 08 3e
       0.47016293 0.28720635 0.4086233 0.1334021
0002e0 2e 60 f1 bd 3a df 3d 3e 36 14 b8 3e 94 b5 c3 be
       -0.11785923 0.18542185 0.3595292 -0.3822447
0002f0 de eb 93 3d 82 b2 ad bd c4 3f 98 be 2b b5 81 3c
       0.072227225 -0.08481313 -0.2973615 0.015833458
000300 f4 5a 8e 3e b1 85 e3 3e 0f 21 01 3e 00 be 8e 3c
       0.27803767 0.44437936 0.12610267 0.017424583
000310 10 11 80 bd bc 4e 29 3c 38 2c 72 3e 38 76 12 3e
       -0.062532544 0.010333713 0.2364968 0.1430291
000320 9b 70 4b be 9c 76 42 be 4e ae 6f be 21 f2 dc bd
       -0.19867174 -0.18990558 -0.23406336 -0.1078837
000330 65 76 f2 bc fe ee 72 be 83 4b 9b 3d cf 9e d2 3c
       -0.02959747 -0.23723981 0.07582762 0.025710491
000340 49 8d fb bd 20 c8 3f bd 8a e1 c2 3e 85 66 8f 3e
       -0.122828074 -0.046821713 0.38062698 0.28007904
000350 84 ce e8 3e 57 2c e7 3e dd 71 d5 3e 87 65 f8 be
       0.4547006 0.45151016 0.41688433 -0.4851496
000360 f6 9d 46 bf ad 0a 3f be 7f 59 f8 be b2 bc f6 be
       -0.7758478 -0.18656416 -0.4850578 -0.48190838
000370 3d 5a 4f bf 6a 65 51 bf 69 2d 35 bf e1 92 63 bf
       -0.8099707 -0.8179537 -0.70772415 -0.88895994
000380 e2 f5 31 bf ee cc 62 bd 03 ef f5 be 41 89 e3 3d
       -0.6951581 -0.055371217 -0.48033914 0.111101635
000390 43 1f 96 3b 96 f2 84 be b2 a9 ba be d5 fb 49 38
       0.0045813634 -0.25966328 -0.36457592 4.815667e-05
0003a0 22 01 60 be c4 c0 9f 3d 18 34 9e bc 61 c8 c8 bd
       -0.21875432 0.07800439 -0.01931195 -0.09803844
0003b0 3a 8d 18 3f 58 ef 22 3f d6 87 51 3f 4e bb a5 3e
       0.59590495 0.6364646 0.81847894 0.32369465
0003c0 2b 7e 22 bf 72 c4 8e bf 8b 47 0b bf fe 61 da be
       -0.6347377 -1.11537 -0.5440604 -0.42652887
0003d0 73 6b 90 be f8 1a 27 bf 14 53 7b bf 09 ff 80 bf
       -0.28206977 -0.65275526 -0.9817364 -1.007783
0003e0 9e 16 72 bf f8 58 35 bf df 09 eb 3d a8 0d ad bd
       -0.9456576 -0.7083888 0.11476492 -0.0844987
0003f0 79 60 d3 3e df 3a 24 3f 70 bc 0e 3e 4c 85 50 3e
       0.4128454 0.6415233 0.1393907 0.20363349

conv1.bias f4 [8]
000000 85 1e 51 3f 49 69 b5 be 95 0e 43 3e ee c7 7f bf
       0.81687194 -0.3543189 0.19048531 -0.99914443
000010 e8 b5 4c be 66 41 1d c0 e7 f2 31 3f 15 d2 b3 3d
       -0.19991267 -2.4571166 0.69511265 0.08780304

bn1.weight f4 [8]
000000 55 01 bb 3f 34 db b5 3f c8 94 83 3f e7 87 89 3f
       1.4609782 1.420752 1.027978 1.0744599
000010 8d bd 92 3f d6 5e 89 3f 6b 15 80 3f 19 de a2 3f
       1.1464096 1.0732067 1.0006536 1.2724029

bn1.bias f4 [8]
000000 e3 61 07 bd 68 2d 97 3d bf c1 35 be c1 e5 c5 3e
       -0.033052336 0.073817074 -0.1774969 0.3865185
000010 eb e5 08 3e 1d 8c d7 bd e0 c5 e7 3e de 29 db be
       0.13368957 -0.10524771 0.45268154 -0.4280538

bn1.running_mean f4 [8]
000000 88 ae 2f 40 f3 97 a3 3f d9 6a 18 40 09 21 06 40
       2.7450275 1.2780746 2.3815215 2.0957663
000010 b0 fb 4d 40 5a e8 d3 3f b4 f1 13 40 44 6c 51 3f
       3.2184868 1.6555283 2.3116274 0.81805825

bn1.running_var f4 [8]
000000 53 de 1d 42 d3 09 b0 40 60 b9 f7 41 a9 a3 e9 41
       39.467113 5.5011992 30.965515 29.204912
000010 8f 85 24 41 f9 08 7f 41 5f f1 61 41 32 4d e1 3f
       10.282607 15.939691 14.1214285 1.7601683

conv2.weight f4 [16, 8, 3, 3]
000000 f8 ca 04 3f 20 60 25 3f e7 26 ab 3e cd f3 98 be
       0.51872206 0.645998 0.33428118 -0.29873505
000010 79 c7 2b be 6e 0c 01 bf db d6 56 bf 43 29 ef be
       -0.16775312 -0.5040959 -0.83921593 -0.46711168
000020 78 c8 12 bf 01 81 fe 3e a7 4c e1 3e 50 0a 48 3c
       -0.5733714 0.49707797 0.44003794 0.01220949
000030 9d 6f 21 3f 12 62 54 3f 24 a9 63 3f 06 10 21 be
       0.63060933 0.82962143 0.88929963 -0.15728769
000040 3e 5b c4 be 3b 53 c1 be 2f 8d 0d 3f d0 06 8e 3e
       -0.38350862 -0.37758812 0.55293554 0.27739573
000050 00 df 23 3f ff 42 4b be 5f dd 4c bd 61 e4 7f be
       0.64012146 -0.19849776 -0.050015803 -0.24989463
000060 4c f2 de be 92 31 4c bf a2 17 86 be 8e 57 88 3e
       -0.43544233 -0.7976314 -0.26189905 0.266293
000070 80 0d e7 3d 0a 38 ee 3e c1 3c 33 be 1c 67 59 bd
       0.11281872 0.4652713 -0.17503645 -0.05307685
000080 34 77 8c 3e 2f 7a 91 be d6 dd 26 be 8c 20 7f 3d
       0.27434695 -0.2841353 -0.16295561 0.0622869
000090 72 cf 61 be 5a 1e cb 3c cd 0e a2 3e f3 17 2e 3e
       -0.2205179 0.024794746 0.31651917 0.17001323
0000a0 2e 76 2c 3f 4a 8d 63 3f ca b6 ad be 8a 72 69 3e
       0.6736783 0.88887465 -0.3392852 0.227976
0000b0 78 69 ee 3e 9e 20 2a 3c e5 a5 ad be 87 83 2a bf
       0.4656484 0.010383753 -0.3391563 -0.66606945
0000c0 92 04 89 bd 51 73 e7 3d a4 13 0f 3f a4 b4 57 3d
       -0.06690325 0.11301292 0.55889344 0.052662507
0000d0 3d ca 92 3e 1d 8f 97 3e 62 fa 8c be 97 4e 4b 3e
       0.2866992 0.29601374 -0.27534777 0.19854198
0000e0 b9 f1 e3 3e e4 e1 32 be ca 20 b7 3d bc 67 3c be
       0.44520357 -0.17468983 0.08941801 -0.18398947
0000f0 8b 53 80 be ce 4a 61 bd 16 ae 81 3e a0 da 1e bf
       -0.25063738 -0.05500298 0.2532813 -0.62052345
000100 76 35 40 bf 2d 2a 39 bf 96 b1 ed be 4c 0b d3 be
       -0.75081575 -0.7232998 -0.4642455 -0.41219556
000110 0e 84 7b be d1 ae 30 3f 55 7b 41 3f 9f 4b 34 3f
       -0.24562094 0.6901675 0.75578815 0.7042789
000120 9e 22 74 be 1d d9 19 3e 39 62 0e 3f e2 03 01 be
       -0.2384133 0.15024228 0.55618626 -0.12599137
000130 34 0a 84 3e c2 b1 10 3f a3 f8 9c bf ac a0 ba bf
       0.25789034 0.56521237 -1.2263378 -1.4580283
000140 f9 97 9d bf 74 7d b0 3e 15 c1 c2 3e 27 b2 c5 3e
       -1.2312003 0.34470713 0.38037935 0.38612482
000150 11 d4 d0 be 2e 01 00 be ee 41 e7 bd 2a f4 93 3c
       -0.40786794 -0.1250045 -0.11291872 0.018060762
000160 c5 e7 8c 3e 8a 69 1e 3e 0a 82 8e be 18 dc a0 3e
       0.27520576 0.15469947 -0.27833587 0.31417918
000170 7f e2 e4 3e 04 da 52 be 2d cf a9 3d d9 fc a4 3e
       0.44704053 -0.20590979 0.08291469 0.32224157
000180 be b8 9f bf 52 f9 7d bf 2c ba 8f bf 10 de 59 be
       -1.2478254 -0.9920856 -1.122869 -0.21276116
000190 96 44 77 be eb f2 0b bf 6c 20 04 3f e7 7f 61 3e
       -0.24147257 -0.5466754 0.5161197 0.22021447
0001a0 5f e8 d9 3e c5 cb 4d 3e 55 ae 37 3e 23 6c 46 bd
       0.42560098 0.20097263 0.17937596 -0.04844297
0001b0 ce af c4 3d 4e fe e9 bd 7d 55 7c 3c 52 e1 6f bf
       0.096038446 -0.11425458 0.015401241 -0.93703187
0001c0 f3 00 a0 bf 11 5a 57 bf 34 0e a0 3e a4 b7 f9 3e
       -1.250029 -0.84121805 0.31260836 0.4877292
0001d0 59 1e d0 3e e1 66 43 be e5 ff d4 bd 62 62 69 3e
       0.40648153 -0.19082214 -0.104003705 0.22791436
0001e0 45 ba 8d bf 2d 72 20 bf ac 53 90 be 54 e3 74 be
       -1.107247 -0.6267422 -0.28188837 -0.23914844
0001f0 39 78 2d 3e 9a e2 fb 3e 50 59 00 3f ba b2 a4 3e
       0.16940393 0.4919632 0.5013628 0.32167608
000200 d9 31 40 3e 4f 04 8f 3e 19 83 c5 bd bc 68 06 3e
       0.18769015 0.27932975 -0.096441455 0.1312589
000210 08 65 19 bd 66 0b 42 bf 6e 52 73 bf 59 5b cd be
       -0.037449867 -0.7579864 -0.9504765 -0.40108755
000220 5a 8d 96 bd b2 af 96 3d 3c c5 b8 3e 2e 16 c6 3e
       -0.073511794 0.0735773 0.36087978 0.38688797
000230 97 3c 50 3e 2f 22 0a 3f f3 b1 6b 3f cf 9f 1e 3f
       0.20335613 0.5395841 0.92068404 0.619626
000240 15 41 95 3e 90 b2 e0 3d a5 40 f5 bd 43 b3 28 3f
       0.29151216 0.10971558 -0.119752206 0.6589853
000250 57 36 3a 3f f5 b9 22 3f 97 d0 44 bf c4 98 55 bf
       0.72739166 0.63565 -0.7688078 -0.83436227
000260 a2 5c 2b bf 5b 17 d7 bd 40 59 0d 3e 92 09 82 3e
       -0.6693822 -0.105025016 0.13803577 0.25397927
000270 f5 72 e4 bd 1c c2 cf be 6d a7 84 be 62 cc 69 3e
       -0.11154739 -0.4057778 -0.25908986 0.22831872
000280 7a 27 48 3e 4e 1a b2 3e 25 40 80 3e 6f 5b 49 bd
       0.19546309 0.34785694 0.25048938 -0.049159463
000290 61 00 0a bd 97 5f d6 3e 5e 3a 19 3f 7c b0 4d 3f
       -0.033691768 0.41869804 0.59854686 0.8034742
0002a0 91 11 3a bf 86 26 04 bf 71 7e 80 be e5 18 99 be
       -0.72683054 -0.5162128 -0.25096467 -0.29901806
0002b0 92 4f 2e 3e 1e 81 2b be 56 3c b9 3d 02 78 c3 3e
       0.17022541 -0.16748473 0.09044711 0.38177496
0002c0 43 2d 20 3f d6 d9 da be c2 2c f8 be 31 23 70 bd
       0.62569064 -0.4274432 -0.48471648 -0.05862731
0002d0 63 00 3c 3f 1d 09 01 3f 62 1c 60 3f 2c 2a 4b 3f
       0.7343809 0.5040453 0.8754331 0.79361224
0002e0 c3 4e 0e 3f 1c 68 55 3e 3e 2f 59 bd 32 dd d0 3e
       0.5558893 0.20840496 -0.05302357 0.4079376
0002f0 46 c3 ea 3d 0c df c3 3e a3 cd d7 3e c8 f7 4c 3f
       0.11463027 0.3825611 0.42149076 0.80065584
000300 b3 6e 14 3f 4e cf 38 3f 8a d4 32 3f 2c eb 80 3f
       0.57981414 0.7219132 0.6985556 1.0071769
000310 cf 49 8f 3f 73 5d 4a 3f a9 e0 2a 3e 39 d7 00 3e
       1.11944 0.7904884 0.16687264 0.12582101
000320 36 a7 05 3e a8 84 33 3e 10 cc f5 3d 42 fe 9c 3e
       0.13052067 0.17531073 0.120018125 0.30662733
000330 8f d9 b9 3e 58 3f 1a 3e 27 4c 05 3e 0f 09 97 bd
       0.36298797 0.15063226 0.13017331 -0.07374775
000340 5a 2e 58 3e 2f f5 06 3e 72 0f 1b bf 31 68 33 bf
       0.21111432 0.13179468 -0.6057044 -0.7008086
000350 52 c0 37 bf e7 1e 3d 3f 57 e2 6e 3f ed 60 28 3f
       -0.7177783 0.7387528 0.9331412 0.65772897
000360 be 58 02 3e 8f 34 2f 3e 59 7e 62 be 16 7e 35 be
       0.12729165 0.17109893 -0.2211851 -0.17723879
000370 64 0b 80 be 30 21 a8 be 0d 8a 2a 3f 2d 12 06 3f
       -0.2500869 -0.3283782 0.666169 0.52371484
000380 50 2c bb 3e df 5b 02 3f 98 4c e3 3e 5c 28 14 3f
       0.36557245 0.50921434 0.44394374 0.57874084
000390 be 98 82 bf 11 d4 99 bf 07 66 70 bf 8a d9 80 3e
       -1.0202863 -1.2017843 -0.9390568 0.2516597
0003a0 6e 01 58 3e 29 8f aa 3e de 51 a6 3e e5 ae 30 be
       0.21094295 0.33312348 0.32484335 -0.17254217
0003b0 ec 0b 5f bc a5 c7 89 3e 2e 20 c0 be 5d a1 17 bf
       -0.013613682 0.2691013 -0.3752455 -0.59230596
0003c0 71 e5 06 3f cc 95 31 3f 0a 30 e8 3e 36 bb 81 3f
       0.5269385 0.69369197 0.4534915 1.0135257
0003d0 dd a3 99 3f 7a 10 9a 3f 75 82 71 3e 5f 1e 0f be
       1.2003132 1.2036278 0.23584922 -0.1397643
0003e0 ce a6 61 be d4 b5 b5 be 8f 02 0a be 06 e1 88 be
       -0.22036287 -0.35490286 -0.13477539 -0.2673418
0003f0 66 7d 6d 3e 90 a8 fa 3e f6 f2 bb 3e ec 43 76 3e
       0.23192367 0.48956728 0.36708802 0.24049348

conv2.bias f4 [16]
000000 49 e7 4a bf 98 69 39 3e 71 c9 12 bd ad ce de 3c
       -0.79259163 0.18106687 -0.03583664 0.02719816
000010 62 dd 07 bf a2 02 6e be 12 05 cb bf f0 f1 48 bf
       -0.5307218 -0.23243192 -1.5860922 -0.7849417
000020 11 51 76 bf db 7c 3e bf c3 13 97 bf 54 49 da be
       -0.9621745 -0.74409264 -1.1802906 -0.4263407
000030 f6 8f 0a bf 97 b2 3b be a4 af a0 3d f0 ec 7a 3d
       -0.54125917 -0.18329845 0.07846001 0.061261117

bn2.weight f4 [16]
000000 6e 77 7a 3f 3f 13 85 3f 9f 44 a5 3f 92 4c 7a 3f
       0.97838485 1.0396498 1.2911566 0.9777309
000010 17 1a b8 3f ed c0 77 3f 66 d5 74 3f a4 58 7a 3f
       1.4382962 0.96778756 0.9563812 0.97791505
000020 e6 04 8a 3f 34 79 bd 3f ae c5 ab 3f 6c 36 86 3f
       1.0782745 1.4802613 1.3419702 1.0485358
000030 59 2d a5 3f a5 34 98 3f 02 e6 c4 3f a7 d6 8b 3f
       1.2904464 1.1891066 1.5382693 1.0924882

bn2.bias f4 [16]
000000 2b 50 3b 3f 96 92 0e be 7a a8 e3 3e 64 f5 21 3f
       0.731692 -0.13923106 0.44464475 0.6326506
000010 87 b6 14 be cf f4 87 be 8d f5 82 3d 5b 9a 67 3e
       -0.14522754 -0.26553962 0.06394491 0.22617476
000020 a3 48 38 3e 01 b7 10 be a7 d0 44 3f 74 0d 76 3e
       0.17996459 -0.1413231 0.7688088 0.2402857
000030 6a f2 2d 3f 35 c0 13 bf 1a 08 e4 3b 17 a8 a2 be
       0.6794802 -0.5771516 0.0069589736 -0.31768867

bn2.running_mean f4 [16]
000000 03 6d 25 40 de 51 17 40 f3 99 37 40 89 a0 75 40
       2.5847785 2.3643718 2.8687713 3.8379233
000010 03 8c d8 3f a0 86 56 40 02 9f 4b 3f 75 1a bf 3f
       1.6917728 3.3519669 0.795395 1.4929949
000020 fa 14 19 40 35 50 76 3f cb 3b dd 3f 5e 23 9c 3f
       2.3919053 0.96216136 1.7283872 1.2198293
000030 43 7a 3d 40 ea 60 8b 3f 4e 92 09 40 19 1b 32 40
       2.9605873 1.0888951 2.1495547 2.782904

bn2.running_var f4 [16]
000000 04 ac 90 41 6e 17 39 41 2c e2 c6 41 d1 04 fe 41
       18.083992 11.56822 24.860435 31.752352
000010 b4 c4 66 41 49 68 22 41 83 91 0a 41 96 2a 21 41
       14.423023 10.15046 8.660525 10.072897
000020 99 df 67 41 d7 b6 39 41 ea 67 a6 41 78 7e 2d 41
       14.492089 11.607139 20.80074 10.843376
000030 a8 c1 8f 41 c4 0f 3d 41 c4 a5 10 42 5b 79 88 41
       17.969559 11.816349 36.16188 17.059256

conv3.weight f4 [32, 16, 3, 3]
000000 c7 dd b3 3c 90 d0 34 be 8f ba 97 be fc 35 d0 be
       0.021956338 -0.17657685 -0.2963452 -0.40666187
000010 3f 21 3e bf 3b a0 f0 be 23 0e be 3e e8 c1 4f 3e
       -0.7426948 -0.46997246 0.3712016 0.20288813
000020 72 0e 7d be 0b 39 a5 3e c3 d2 a9 be df e5 ce be
       -0.24712542 0.32270083 -0.3316861 -0.40409753
000030 04 92 02 bd 94 64 aa bd c0 b3 cc 3e c7 cf fd 3e
       -0.031877533 -0.08319965 0.39980888 0.49572584
000040 ea a8 60 3f 73 f8 15 3f e8 bc af be 1b b7 73 be
       0.8775774 0.5858223 -0.34323812 -0.23800318
000050 d1 6a c4 bd 4c e0 77 bf 52 f1 4c be d3 fc 88 3d
       -0.09590686 -0.96826625 -0.20013931 0.066888474
000060 67 6c 3e bf 94 bb e9 be 7d e8 aa be f3 67 92 be
       -0.7438416 -0.45650923 -0.333805 -0.28594932
000070 8d 1e 1f bf e9 af 17 bf f9 eb 16 bf 02 67 b3 bd
       -0.6215599 -0.5925279 -0.58953816 -0.087598816
000080 c0 f4 a0 be 95 47 99 be 2f 6e e4 be 0b 44 45 bf
       -0.3143673 -0.29937425 -0.44615313 -0.7705695
000090 9b c9 15 bf 27 1e 58 be 23 4a 6c be 06 0a 19 3f
       -0.5851075 -0.21105252 -0.23075156 0.5978092
0000a0 aa 62 69 3f dd 72 64 3f 6d 01 24 3f f6 4e cb 3e
       0.91166174 0.8923777 0.64064676 0.3970868
0000b0 9b f8 36 3d 33 e1 32 3f 5b fd ce 3e 5b c9 b3 3e
       0.044670682 0.69874877 0.4042767 0.3511456
0000c0 0c fa 55 3e 9d 93 fb be 9b 21 31 bf 9b fd 27 3e
       0.20896167 -0.49136057 -0.691919 0.16405337
0000d0 77 30 70 3d 99 f8 39 3d ef 79 9d 3d 04 f3 b1 3e
       0.05863997 0.045403097 0.076892726 0.3475572
0000e0 2d 9e 35 3f cd 06 16 be ee ab b2 be 55 a7 4b bf
       0.7094448 -0.14651032 -0.34896797 -0.79552203
0000f0 1b 23 d9 bf 96 18 4f bf 79 ba 95 bf 2f 42 3b bc
       -1.6963838 -0.8089689 -1.1697532 -0.011429354
000100 e7 e4 c2 bd 5e 57 a8 3d fa 78 3e 3f b0 19 37 3f
       -0.09516316 0.08219789 0.74403346 0.7152357
000110 f3 cb 6b 3f b7 dc ac bf 40 f3 c2 bf 47 07 92 bf
       0.92108077 -1.3504857 -1.5230484 -1.1408471
000120 73 79 ad bc 43 74 91 be e6 5c ba bd ef e7 59 3d
       -0.021176076 -0.28409013 -0.0909975 0.053199705
000130 e0 27 c1 3d 5f 34 04 bf e7 81 47 bf a5 1c b3 be
       0.09431434 -0.5164241 -0.7793259 -0.34982792
000140 4f a1 44 bf 69 aa ef be 4c a9 cc be 36 fb d3 be
       -0.7680864 -0.468097 -0.39972913 -0.41402596
000150 97 5f 99 be 36 0a b8 3e 3b 31 f5 3e 92 35 68 3e
       -0.29955742 0.3594529 0.47889122 0.22676685
000160 fa b1 0d bf 48 6f 40 bf 24 de ff be 6b f3 c0 be
       -0.55349696 -0.751698 -0.49974167 -0.37685713
000170 9f 27 c3 bd 59 e4 49 bf e4 14 b4 be b0 0a 82 be
       -0.095290415 -0.78864056 -0.35172188 -0.2539878
000180 92 a3 46 3e e9 66 c4 3e 23 ec 30 3e 08 7c c8 be
       0.19398335 0.38359764 0.17277579 -0.39157128
000190 47 f3 03 bf 7f 52 44 bf e9 c2 96 bd f9 a0 bb be
       -0.51543087 -0.7668838 -0.07361395 -0.3664625
0001a0 f0 74 05 be f2 25 17 be f6 7b c2 be db d7 4d bf
       -0.1303289 -0.14760569 -0.379852 -0.80407494
0001b0 d9 dd fd 3d 1e e1 33 be d8 ea 95 bd cc 97 a1 3e
       0.1239583 -0.17566344 -0.073201835 0.31561124
0001c0 e4 49 5a 3e 0a 24 6d 3e f5 dc b4 be c5 01 86 be
       0.2131725 0.23158279 -0.35324827 -0.26173225
0001d0 74 c1 0a bf 06 5a 9e 3e 4d b7 05 3f 7c 68 03 3f
       -0.54201436 0.30928057 0.5223282 0.51331306
0001e0 93 12 51 3f c0 1a 67 3f 92 aa 3b 3f 18 80 33 bf
       0.81668967 0.9027519 0.73307145 -0.7011733
0001f0 1a 83 63 bf 57 5a b5 bf 45 ab 4e 3e 0a 1c f2 3e
       -0.8887192 -1.4168195 0.20182522 0.47287017
000200 80 5b 05 3f d5 3f 8f bf 5c 5d aa bf e7 0a 50 bf
       0.5209274 -1.1191355 -1.3309741 -0.81266636
000210 c3 75 42 bf 42 75 9d be 29 bb 6a 3e 91 4c 68 3d
       -0.7596094 -0.30753523 0.22922958 0.056713644
000220 96 5c 25 bf 78 93 6e bf 18 7d 35 bf 28 83 7e bf
       -0.645944 -0.9319377 -0.70894 -0.9941888
000230 8d 1d f3 be d5 11 02 3f 25 e2 13 3f c9 94 83 3d
       -0.47483483 0.5080846 0.57766944 0.06424863
000240 51 59 02 bf ee 4f fc be 8b d1 57 bf f3 27 40 bf
       -0.50917536 -0.49279732 -0.8430411 -0.7506096
000250 94 3a 2f bf 9c d4 57 bf bb 4b c7 3e 38 bf cc 3d
       -0.6844876 -0.8430879 0.38924965 0.099974096
000260 22 30 4c 3e dd 00 ab 3e ff 60 5f 3e b2 58 a6 be
       0.19940236 0.33399096 0.21814345 -0.32489544
000270 45 e5 65 3e e7 0a 5f 3e 01 98 00 3f 72 0c cc 3d
       0.2245074 0.21781503 0.5023194 0.09963311
000280 87 04 f6 3c b9 91 ce bc c0 90 bd 3e 6f 99 fb 3e
       0.030031456 -0.02521597 0.37024498 0.49140498
000290 c8 6c f4 3c 8b 72 53 be 1f 98 ec be 85 87 5b bd
       0.029837027 -0.20649163 -0.4620981 -0.05359604
0002a0 d1 db a7 3e b8 5c 94 be ff 88 42 bf 12 7f 9d be
       0.32784894 -0.2897699 -0.7599029 -0.3076101
0002b0 d9 8b 4e be ec 9b 80 be 1c e7 b2 3d 29 51 81 3c
       -0.20170535 -0.2511896 0.08735487 0.01578577
0002c0 56 f7 46 3e 85 01 94 be 3a 22 58 be 15 c8 dd be
       0.19430289 -0.2890741 -0.21106806 -0.43316713
0002d0 41 c2 16 be 40 7e dc 3c dc b3 d9 3e 93 91 3f 3e
       -0.1472254 0.02691567 0.42520034 0.18707876
0002e0 1d 62 19 3e 6d 17 96 3e f2 88 11 3f d4 b7 8d 3d
       0.14978833 0.29314747 0.56849587 0.06919828
0002f0 96 42 68 be ae 38 35 bf a8 18 45 bf 40 29 1c bf
       -0.2268165 -0.7078961 -0.7699075 -0.6100044
000300 33 c0 44 bf 62 ef 3f bf f7 34 87 bf 9f bc 9c bd
       -0.7685577 -0.74974644 -1.0563039 -0.07653164
000310 55 0c 96 be 19 cd ec bb 00 96 00 3f a1 1f 14 3e
       -0.29306284 -0.007226598 0.5022888 0.1446519
000320 18 54 e7 be 4c ad 55 bf 65 38 1d bf e9 d1 1b bf
       -0.45181346 -0.83467555 -0.61414176 -0.6086717
000330 4a bc f3 3e e6 68 8c be 33 fb 37 be 85 a9 76 bf
       0.4760459 -0.2742378 -0.17966919 -0.96352416
000340 c0 d9 84 bf ef b1 37 bf e4 2c b7 bd 12 f8 8c bf
       -1.0378952 -0.7175588 -0.08944109 -1.1013205
000350 06 c0 d7 bf ae c3 18 bf 61 39 46 bf 14 e6 06 bf
       -1.6855476 -0.59673584 -0.77431303 -0.5269482
000360 a5 97 98 bd 37 db 2e be 74 81 29 be 2b c8 96 bf
       -0.07450799 -0.17075811 -0.16553289 -1.1779836
000370 78 b9 58 bf a0 15 6a bf 99 ed 17 3f d2 0d 1e 3f
       -0.84658 -0.9143925 0.5934692 0.6173984
000380 d4 c4 2b 3f 89 52 ee 3e fc 31 81 3e 97 78 2b 3e
       0.6709721 0.46547344 0.25233448 0.1674522
000390 99 fc b9 3e 18 2a 20 3e dd 6f 3e be b1 d5 ff 3e
       0.3632553 0.15641057 -0.1859736 0.4996772
0003a0 b1 02 b1 3e 5d 6a 23 be e3 6c 51 3d 97 78 dc 3e
       0.34572366 -0.15958543 0.051129233 0.43060753
0003b0 5c ba 4c be 89 de 7a bd 84 21 8f bd 47 57 f7 3c
       -0.19992965 -0.061247382 -0.069888145 0.030192984
0003c0 20 e8 35 3f 7b db be 3e 42 66 a9 be 2a 7f 0a 3e
       0.7105732 0.37276825 -0.3308583 0.13525072
0003d0 ec eb a4 3d a5 02 85 3e 7f c0 6f 3f a0 3b 57 3f
       0.08052811 0.2597858 0.936531 0.84075356
0003e0 c5 87 13 3f 42 09 4d be 6c d0 2e bf 2e 52 84 bf
       0.5762904 -0.20023063 -0.68286777 -1.0337579
0003f0 41 6b 30 bd ea cb e4 be b7 4e b0 be 4e 8e 44 bf
       -0.043071035 -0.44686824 -0.34435055 -0.7677964

conv3.bias f4 [32]
000000 b5 53 12 be 1d 9e be be be 67 fd 3d 64 8c 88 bf
       -0.14289744 -0.37230006 0.12373303 -1.0667844
000010 7f f7 5b bf 10 89 79 bf 0e 13 37 bf d4 6a 40 bf
       -0.85924524 -0.97474766 -0.7151345 -0.75163007
000020 95 96 95 be c1 52 1b bf e6 26 ed be 15 ae 96 3d
       -0.29216447 -0.6067315 -0.4631874 0.07357422
000030 2f d2 cf bd c8 e1 64 be 0c d3 63 bf 71 80 84 bd
       -0.10147511 -0.22351754 -0.88993907 -0.06469811
000040 7a 8a e9 be da 71 36 bf 17 38 f4 be 2e e7 58 bf
       -0.45613462 -0.71267474 -0.47699043 -0.8472775
000050 ed 5f 65 bf cc ab ab bf 75 64 97 be 9d 1d 4a be
       -0.89599496 -1.3411803 -0.2956883 -0.19737859
000060 f4 45 0f 3f 76 7c 96 bf f6 37 d8 be ff 30 a1 bf
       0.55966115 -1.1756732 -0.42230195 -1.2593077
000070 a9 97 26 be 71 ce 93 be 80 73 97 bf d2 1f 4f 3d
       -0.16268791 -0.2886844 -1.1832123 0.050567456

bn3.weight f4 [32]
000000 9a b4 88 3f a3 81 85 3f 64 09 b1 3f 99 32 97 3f
       1.0680115 1.0430187 1.3830991 1.1812316
000010 bc 01 8d 3f af 14 8d 3f 4c 07 c2 3f b4 ec af 3f
       1.1016154 1.1021937 1.5158477 1.3744111
000020 b3 be 8c 3f fc 30 9c 3f 1c da 9d 3f cf 2e c0 3f
       1.0995697 1.2202449 1.2332187 1.5014285
000030 46 aa 8d 3f 5c bb 94 3f 73 ae 8e 3f 85 cb a4 3f
       1.1067588 1.1619678 1.1146988 1.2874609
000040 90 f8 7e 3f 31 bb 86 3f 50 70 9d 3f a2 1f ae 3f
       0.99598026 1.0525876 1.22999 1.3603404
000050 67 63 8f 3f 7f 9d 82 3f 93 68 a9 3f ae 2f b0 3f
       1.120221 1.0204314 1.3235039 1.3764551
000060 91 26 86 3f 41 33 a1 3f 1c 76 8c 3f bf 3d a1 3f
       1.048052 1.2593766 1.0973544 1.2596968
000070 fb fd ac 3f fd 1c 89 3f 9e 46 b7 3f a9 40 9f 3f
       1.3515009 1.0711972 1.4318426 1.2441608

bn3.bias f4 [32]
000000 7e 6a b4 3e 00 70 24 bd bb 6d 9b 3e ee 34 00 bd
       0.35237497 -0.040145874 0.30357155 -0.031300478
000010 8b d1 13 3e 64 5d 1a 3e 13 8e 08 3f eb 1f 1b 3f
       0.14435403 0.15074688 0.5334179 0.6059558
000020 78 7c 95 3e 04 65 fa 3e 36 0a b2 3e ec 16 7c 3f
       0.29196525 0.48905194 0.34773415 0.98472476
000030 5f 82 f3 3d d6 f5 7c be 21 bf 2c 3e d6 d9 97 3e
       0.11890101 -0.24703154 0.16869785 0.29658383
000040 e1 41 fd bd c6 49 d1 3c 9a 54 19 3f 47 9d c5 3e
       -0.12366081 0.025547873 0.59894717 0.38596556
000050 92 4b 53 3e 35 ec 6f 3d f1 55 93 3e 8a 5f e9 3e
       0.20634297 0.058574874 0.28776506 0.45580703
000060 be fb 46 3e b6 63 be 3e e0 a3 3c bd e2 60 03 3f
       0.1943197 0.37185448 -0.04605472 0.51319706
000070 49 9d f5 3e 99 62 dd bc e9 0c 9e 3d 5d 60 1f 3f
       0.47971562 -0.027024554 0.07717306 0.62256414

bn3.running_mean f4 [32]
000000 51 2b 9c 3f c4 28 e5 3f 34 fe 38 40 46 10 0f 3f
       1.2200719 1.7903066 2.8905153 0.55884206
000010 64 14 18 3f 9f ad 97 3f 1f 12 b5 40 2e 8e 83 3f
       0.59406114 1.184986 5.658462 1.0277765
000020 6a f2 21 40 be 3a 9b 3f c0 d9 47 3f d7 62 22 40
       2.5304208 1.2127302 0.78066635 2.5372827
000030 65 c4 ad 40 4d 91 93 3f 03 27 73 3f 8f f4 10 40
       5.430224 1.1528717 0.949814 2.2649267
000040 11 64 86 3f 0d 60 63 3f 7f ed fe 40 a1 1f e8 3e
       1.0499288 0.88818437 7.966491 0.4533663
000050 00 67 4d 3f cb e2 74 3f e1 57 c3 3f d5 4e 73 40
       0.8023529 0.9565856 1.5261194 3.8016865
000060 81 06 27 40 20 95 60 3f 38 f9 1b 40 fe 5c eb 3f
       2.609772 0.87727547 2.437086 1.8387754
000070 0f f8 b7 3f c9 77 c2 3f 86 30 bf 3e 1e 97 2f 40
       1.4372576 1.5192806 0.37341708 2.7435985

bn3.running_var f4 [32]
000000 3d 80 3c 41 dd 6f 9b 41 95 d2 23 42 90 c5 05 41
       11.781308 19.42962 40.955647 8.360733
000010 2d dd e2 40 a5 29 87 41 9e 97 83 42 9a f4 b1 41
       7.089499 16.895334 65.79613 22.244434
000020 3b 79 bb 41 20 3a 53 41 94 f3 11 41 97 13 a7 41
       23.434195 13.201691 9.121967 20.884565
000030 dc bc 43 42 9c a3 1c 41 e1 34 7c 41 22 c8 8b 41
       48.934433 9.789944 15.76291 17.472721
000040 c8 4d 8b 41 81 83 fc 40 2d e3 78 42 57 ed df 40
       17.41298 7.8910527 62.22185 6.997722
000050 b8 86 39 41 ea c9 40 41 cd 1c a0 41 c4 09 dd 41
       11.59539 12.049295 20.014063 27.629768
000060 6b a4 9b 41 0f 43 67 41 90 d3 cb 41 30 b8 de 41
       19.455282 14.453872 25.478302 27.839935
000070 d2 15 82 41 54 80 87 41 ef 7f ce 40 32 1c 08 42
       16.260654 16.93766 6.453117 34.027534

conv4.weight f4 [64, 32, 3, 3]
000000 1d 1a cd 3e 0d c4 d7 bd 56 86 ab be 5a 69 91 3e
       0.40058985 -0.105354406 -0.33500928 0.2840069
000010 3b 59 cc 3e 41 66 1e 3f 81 8c 11 bf ef d7 82 bf
       0.39911827 0.6187478 -0.56855017 -1.0222148
000020 c3 cc e2 be 57 96 67 3f 85 ad aa 3f 01 60 9f 3f
       -0.44296846 0.90463775 1.3334204 1.2451173
000030 0b 28 2d be 55 12 cb bd da 95 ac be 68 75 be 3e
       -0.16909806 -0.09915606 -0.33708078 0.3719895
000040 95 60 57 3f dc fb 2d 3e 6f 42 0e 3c fc 25 0d be
       0.8413175 0.16990608 0.008682831 -0.13784021
000050 f2 09 35 bf b3 f3 83 bf ef bb a0 bf ca e0 56 bf
       -0.707183 -1.0308746 -1.2557353 -0.8393675
000060 b9 5f a9 3d 56 a8 b0 be b2 41 0e be cc 4e 9d be
       0.08270211 -0.3450343 -0.13892248 -0.3072418
000070 b2 c0 de be 92 45 af be 06 50 ad 3e 94 8a 80 3f
       -0.4350639 -0.34232765 0.33850116 1.0042291
000080 a7 3e 40 3f ef 23 63 bd 66 77 f3 be 4a c9 0c bf
       0.750956 -0.05545419 -0.4755203 -0.5499464
000090 bf 2f d9 3e 1b 66 37 be cc 49 56 bf a5 7b 06 3e
       0.4241924 -0.17910044 -0.83706355 0.13133104
0000a0 82 f5 f3 3c fd fa d5 3c d5 e9 8d bf c5 45 43 bf
       0.029780153 0.026120657 -1.1086985 -0.76278335
0000b0 e3 ab 47 bf 45 76 00 bf 70 64 40 bf 9b 43 34 bf
       -0.77996653 -0.50180465 -0.75153255 -0.7041566
0000c0 fc 5b 66 be 6c f1 75 3d c5 3d 92 bc be 68 3b bf
       -0.22496027 0.06004469 -0.01785172 -0.732067
0000d0 4b 7e 60 bf f7 22 2b bf a5 c7 e1 be 24 66 4e be
       -0.8769271 -0.6685023 -0.4409763 -0.20156151
0000e0 51 fd 09 be 26 12 a9 be c7 08 4e be 8f b5 6d bb
       -0.13475539 -0.3302166 -0.20120536 -0.0036271547
0000f0 6e 7d 87 be 36 31 86 bc bd 93 10 3e 1f 16 2f 3b
       -0.26462883 -0.016380887 0.14118858 0.0026716066
000100 f9 be 0d 3f ad 50 98 3e e1 f7 4c 3e a9 f4 52 3d
       0.55369526 0.2974905 0.20016433 0.051502857
000110 86 b2 5b be bc 9e b6 3e 2f c9 03 3f b5 a9 1b 3d
       -0.2145482 0.3566798 0.51478857 0.038003642
000120 d0 09 bb 3e b8 5d 93 3e e1 87 65 be f6 ee 4f 3d
       0.36530924 0.2878244 -0.22415115 0.050765
000130 ad 5f 4b be d3 d5 24 be 03 57 a4 3d 03 f7 d0 be
       -0.19860716 -0.16097192 0.08024409 -0.40813455
000140 32 99 99 be 8e 8d 16 bf b0 1e 2b bf e7 db 59 bf
       -0.2999969 -0.58809745 -0.668437 -0.8510117
000150 e9 6b 6a 3f 3b 51 68 3f da 35 9d 3e 5d ae c5 be
       0.9157091 0.9074895 0.30705148 -0.3860959
000160 bf b5 2c 3e 77 89 dd 39 c7 f2 a1 3e e6 42 01 bf
       0.16866206 0.00042254824 0.31630537 -0.50492704
000170 80 ca 0a be 6d a5 cf 3c 85 a7 7e 3d 53 dc 46 3e
       -0.1355381 0.025347436 0.062171478 0.19419985
000180 f6 62 22 3e d0 a9 16 be ac 96 f5 3e b1 ba a0 3e
       0.15858063 -0.14713216 0.47966516 0.31392434
000190 3b cc e7 bd a5 9a b2 bd 22 43 18 3f 0a a6 3f 3f
       -0.11318251 -0.08720902 0.59477437 0.7486273
0001a0 c6 1f 30 3f 2c c7 b4 3e b3 b0 a2 3e 10 c3 05 3f
       0.6879848 0.35308206 0.31775436 0.52250767
0001b0 cc 6e 09 3f 35 f5 18 3f a6 2a 5a 3f 6e f4 1e bf
       0.5368469 0.59749156 0.85221326 -0.6209172
0001c0 19 42 15 bf 3f 55 e8 be 0d 4e a4 bf 38 90 9d bf
       -0.5830398 -0.45377538 -1.2836319 -1.2309637
0001d0 99 95 54 bf f9 d2 61 3d 64 07 4d 3c 50 96 35 3e
       -0.8304077 0.05513284 0.012513969 0.17733121
0001e0 43 7f 9a 3e 54 4b b5 3e b5 f1 3e 3e e5 be c6 be
       0.30175218 0.35409033 0.18646891 -0.38817516
0001f0 0b 5c 08 bf cd 0e 45 bf c2 52 c2 3e cb a7 12 3f
       -0.53265446 -0.7697571 0.37953764 0.5728728
000200 73 2c 08 3f 5a c6 42 3e b3 c0 11 3e c9 bb 11 3d
       0.53192824 0.19020978 0.14233665 0.035579477
000210 bd b9 d6 3e 43 43 05 3f 38 db 9d 3e b4 3d d8 3e
       0.41938582 0.5205576 0.30831313 0.42234576
000220 91 00 25 3f 81 f5 c3 3e 39 c5 49 bf 04 2b 57 bf
       0.6445399 0.38273242 -0.7881656 -0.8405001
000230 ab 7b 76 bf 83 32 a2 bd 24 a2 a6 3e 36 d4 87 be
       -0.9628245 -0.079197906 0.32545578 -0.26529092
000240 35 ee 4d bf 2b 85 2a bf 42 72 2e bf c5 79 29 be
       -0.804416 -0.6660945 -0.68143094 -0.16550358
000250 ae 71 dd 3d c1 6c 3b 3e 2c 6e bb 3c 86 84 f0 3e
       0.10812698 0.18303205 0.022879682 0.46976107
000260 74 72 82 3e eb 02 16 3f 40 f1 c4 3e da 92 4a 3f
       0.25477946 0.585982 0.3846531 0.7913033
000270 4e 70 26 be 7f 55 75 bd d5 5b f1 be fa b2 b4 be
       -0.16253778 -0.05989599 -0.47140375 -0.35292798
000280 62 c7 d3 bd f7 ae 04 bf 0c a5 42 bc 19 82 94 bd
       -0.10340764 -0.51829475 -0.011880171 -0.07251377
000290 dc 15 42 3e bf 9f 3c be 40 6c 31 be 64 8d d0 3e
       0.18953651 -0.18420313 -0.1732645 0.40732872
0002a0 6e 0f 6f bf 52 68 86 bf d7 45 46 bf ad 1c 08 bf
       -0.9338292 -1.0500586 -0.7745032 -0.53168756
0002b0 82 b6 3a bf 1f 6b 50 be 57 41 8c bc aa 2b 3f 3e
       -0.72934735 -0.20353363 -0.017121 0.18669
0002c0 f3 76 49 be 32 e9 c6 bd 8e 05 c6 be ec 38 cb 3b
       -0.19674282 -0.09712447 -0.38676113 0.006201854
0002d0 9c 8f 16 be bc 8d 18 bf 65 3e 0c be 22 84 72 bf
       -0.1470322 -0.5959127 -0.13695677 -0.9473287
0002e0 b7 a7 7a bf 35 64 47 bf 40 c3 16 bf d1 d0 3b be
       -0.9791216 -0.7788728 -0.5889168 -0.18341376
0002f0 96 10 31 be bc 3c 5e bd 2c 9f 5b bb 94 6d ca 3b
       -0.17291483 -0.05425714 -0.0033511622 0.0061776135
000300 26 aa 63 be 75 42 ab 3e ba d8 df be de 85 b1 3b
       -0.22232875 0.3344914 -0.43720037 0.0054175695
000310 d6 1c 3c bd 8c 1d 02 bf 14 ea bb 3e 47 7a 08 be
       -0.045925938 -0.50826335 0.36702025 -0.13327895
000320 64 bf 62 3d 8b 96 3e bf a8 e7 8d bf b9 d8 80 bf
       0.055358306 -0.7444846 -1.1086321 -1.0066139
000330 fb 3f 49 3e 4f de 0d 3a fd e4 2d 3e 26 8a 05 3e
       0.19653313 0.00054118497 0.16981883 0.1304098
000340 98 24 3a 3e 85 33 2d be 1e ac af 3e e3 af ba 3d
       0.18178022 -0.16914184 0.34311002 0.09115579
000350 d2 1f a0 3e 64 90 17 3e 87 2f 85 3d 6f 14 de 3d
       0.31274277 0.14801174 0.06503206 0.10843741
000360 e6 4c b4 3c 01 b6 76 be ad a0 09 bf 3c 2f c8 be
       0.022009324 -0.24092866 -0.53760797 -0.39098537
000370 e8 72 22 bf 69 d3 5a bf 40 0d ae 3e bb 8a 03 3f
       -0.63456583 -0.85478836 0.33994484 0.5138356
000380 c1 2a a9 3e 95 ef 23 be 00 cd e0 3d 8d fa c4 3e
       0.3304043 -0.16009362 0.10976601 0.38472405
000390 9b 21 01 be a0 85 39 be 9a ce 9d bc 14 4a 9d bd
       -0.12610476 -0.1811738 -0.019263554 -0.07680145
0003a0 fa f4 ba bd 0f 76 c2 bd ec 5e e8 3e bf 0e 93 3e
       -0.09128757 -0.09495174 0.4538492 0.28722188
0003b0 f2 7c 78 3e cc 6d db be 58 89 04 bf 98 c2 32 bf
       0.24266413 -0.42857206 -0.5177207 -0.69828176
0003c0 90 06 ee 3e 27 75 a9 bd 78 47 05 bf f5 f2 8f be
       0.46489382 -0.08274298 -0.5206218 -0.2811505
0003d0 ba 5f 3e bf 1c ea eb be f0 73 05 3f c9 1e f1 3e
       -0.7436482 -0.4607705 0.5213003 0.470938
0003e0 a5 03 9c 3e cc 8b e8 be e7 ac 63 bf 62 34 09 bf
       0.3047153 -0.45419157 -0.88935703 -0.53595555
0003f0 6d 24 fb 3d b8 a3 07 3e d5 44 e1 bb 68 cf 53 be
       0.12262807 0.13246047 -0.0068746605 -0.20684588

conv4.bias f4 [64]
000000 68 33 75 3e 63 d7 02 bf 60 57 db 3c 9f 95 40 bf
       0.23945391 -0.51109904 0.026775062 -0.75228304
000010 a1 ff 30 bf e7 92 96 be 9d 52 01 bf 45 ab e9 bd
       -0.6914006 -0.29408953 -0.5051668 -0.1140962
000020 8b cb 89 bf bf 23 35 bf db b8 ce be 70 f9 52 bf
       -1.0765241 -0.7075767 -0.4037541 -0.8241186
000030 d0 ca a5 3f 6b ec 37 be 80 34 bc bf 32 95 10 bf
       1.2952518 -0.1796128 -1.4703522 -0.56477654
000040 ff 20 f5 be 84 e4 c4 bd 64 42 e1 be 9a d6 00 be
       -0.47876737 -0.096138984 -0.43995965 -0.12581864
000050 04 21 56 bf a9 94 c2 3c a7 37 32 be e3 d1 75 bf
       -0.8364413 0.023752527 -0.17404042 -0.96023387
000060 83 29 12 bf cd 3e a1 bf 6d d6 43 bf b8 9b 2e bf
       -0.5709459 -1.259729 -0.7649906 -0.6820636
000070 a7 2b cb bf e9 5b c5 be 86 64 87 be 8c a5 3a bf
       -1.5872697 -0.38546684 -0.2644388 -0.72908854
000080 aa 2d 7a 3e 0f 4c 06 3f 53 f8 98 be 6c e7 02 3f
       0.24431482 0.52459806 -0.29876956 0.5113437
000090 dd 99 a1 be f5 94 31 3f 9d 4e b3 be 57 2e 16 3d
       -0.315627 0.69367915 -0.35020915 0.036665287
0000a0 ff 01 40 bf 7e b0 0a bf 65 77 ef 3d af 02 0e be
       -0.75003046 -0.54175556 0.116926946 -0.13868211
0000b0 be a5 f9 be f9 52 08 bf 07 9a 77 bf bc 92 13 bf
       -0.48759264 -0.53251606 -0.967194 -0.57645774
0000c0 82 8d 99 bf 44 c5 92 3d 41 38 1a bf 42 9a 1d bf
       -1.199631 0.07166532 -0.60242087 -0.61563504
0000d0 8b aa e6 3c 94 d6 1c bf 22 7b 9c be a4 1c 34 bf
       0.028157493 -0.6126492 -0.30562693 -0.703562
0000e0 ec 7b 36 bf e6 e8 1f bf 0d 68 7c bf 13 46 74 bf
       -0.7128284 -0.6246475 -0.9859627 -0.95419425
0000f0 61 fc c2 bd 92 76 64 bf 53 f4 d5 bd 02 04 9a bf
       -0.09520794 -0.89243424 -0.10446992 -1.2032473

bn4.weight f4 [64]
000000 ed 9c 57 40 de 32 81 40 2c 2f 4a 40 29 12 91 40
       3.368953 4.0374594 3.1591291 4.533467
000010 4d ab 8e 40 db e9 a6 40 12 1a 92 40 48 27 54 40
       4.4584107 5.216047 4.5656824 3.3148975
000020 b3 7e 86 40 d1 fc 9a 40 6c 04 95 40 a9 ac a7 40
       4.202966 4.8433614 4.65679 5.2398267
000030 0f 8c 4a 40 70 bf 56 40 d8 98 7a 40 07 95 98 40
       3.1647985 3.3554344 3.9155788 4.768192
000040 e2 18 90 40 c8 a8 87 40 1f 3e a2 40 38 d2 4c 40
       4.5030375 4.239353 5.070083 3.2003307
000050 e9 74 85 40 01 f5 68 40 59 ee 89 40 40 5e 57 40
       4.1705213 3.6399539 4.310345 3.3651276
000060 a8 18 88 40 db 1d 79 40 ce f5 a2 40 5b 96 8b 40
       4.25301 3.8924472 5.0925055 4.362104
000070 3d 63 61 40 d8 08 4c 40 ab 09 81 40 e4 0f 93 40
       3.521682 3.1880398 4.03243 4.59569
000080 0a 51 81 40 36 5b 50 40 e7 08 a8 40 c9 6b 76 40
       4.0411425 3.255567 5.2510867 3.8503287
000090 12 fa 68 40 5c f7 53 40 ef b1 93 40 f5 a7 8b 40
       3.640263 3.3119726 4.6154704 4.3642526
0000a0 e3 ac 78 40 98 fb 70 40 93 79 67 40 f3 c1 75 40
       3.8855522 3.765356 3.6167953 3.8399627
0000b0 96 b0 9b 40 76 d8 81 40 70 c9 83 40 85 68 81 40
       4.865306 4.0576735 4.1183395 4.0440087
0000c0 b4 eb 81 40 8f d8 83 40 6e 65 90 40 a5 f5 8e 40
       4.0600224 4.1201854 4.5123816 4.467486
0000d0 e9 40 81 40 d1 96 93 40 bc e9 70 40 c2 79 82 40
       4.0391736 4.61216 3.764266 4.077363
0000e0 0e b9 8e 40 47 3d 6c 40 16 0a 94 40 3c 39 a1 40
       4.4600897 3.69124 4.626231 5.0382366
0000f0 e3 4b 8b 40 ac 76 92 40 d9 1e 89 40 70 ad 6b 40
       4.3530135 4.5769863 4.2850156 3.6824608

bn4.bias f4 [64]
000000 32 6e 28 be cc 47 75 3d 9d 98 14 be ca c8 99 3d
       -0.16448286 0.059882924 -0.14511342 0.075090006
000010 63 24 34 3e 12 93 4c 3e 8d 97 e2 3d 98 50 10 bc
       0.17592005 0.19977978 0.11064062 -0.008808278
000020 85 8a 1a 3e b9 b4 bd 3d 7f 0a aa 3d 6c 95 42 bd
       0.15091904 0.09262986 0.08302783 -0.04750578
000030 ff 9d ea bd 16 60 d2 bc 7d 8e cc 3d c3 bd 4c 3d
       -0.114559166 -0.025680583 0.09988115 0.04998566
000040 59 47 20 3e 90 f3 bc bc 65 30 31 3e 61 0b 50 3d
       0.15652217 -0.023065358 0.17303617 0.0507921
000050 8e 6b d7 3a b4 46 09 3c b7 a0 ca 3d fa d3 48 3c
       0.0016435252 0.008378673 0.09893935 0.01225757
000060 b9 b9 05 be 4f 72 71 bd 55 73 7a 3e 66 2f 97 3d
       -0.13059129 -0.058946904 0.24458058 0.073820874
000070 97 9b e1 3d 75 66 eb 3d 45 62 35 3e c1 e2 1d bd
       0.110160045 0.114941515 0.17713268 -0.038546328
000080 7a 38 6f 3e bc 6c 91 bd b7 d7 e5 bd 3f 6d f9 bc
       0.23361388 -0.071008176 -0.11222785 -0.0304476
000090 7e f8 8f 3e 8a bc 0a 3e aa 22 8d 3d bf 29 9f 3d
       0.28119272 0.13548484 0.06891377 0.07771634
0000a0 ac 40 4a bd 74 cc 2e bd 9d e8 4d 3d 18 62 06 3b
       -0.049378082 -0.04267545 0.050270665 0.0020505246
0000b0 c6 e9 02 3e 61 cd 4d 3e 4b a4 b1 3b e7 3b 6f 3d
       0.1278449 0.20097877 0.0054211966 0.058406737
0000c0 4e 9f 0b 3e 3c 54 04 bd 83 df 9e 3d da 97 81 bc
       0.13634989 -0.032306895 0.07757475 -0.015819479
0000d0 8f 13 ad 3d 1d 20 3e 3e 29 94 8e 3c 9a d0 53 3d
       0.08450996 0.18566938 0.017404633 0.05171261
0000e0 d9 3c e8 bc 42 b9 24 3e 3b bb e5 3d 25 07 58 3e
       -0.028349327 0.16086295 0.11217352 0.21096475
0000f0 b7 7d 89 3d e3 39 a7 3d a0 74 1d 3e d5 60 9c 3e
       0.06713431 0.08165338 0.1537652 0.30542627

bn4.running_mean f4 [64]
000000 79 b1 54 40 a8 aa 23 3f 9a 8f c3 3f eb 1f 00 3f
       3.323332 0.63932276 1.5278199 0.500487
000010 4a 84 33 3f e7 2b ed 3f 90 83 ab 3f c0 4e 8b 3f
       0.7012373 1.8529023 1.3399525 1.0883408
000020 c8 6f 64 3f ce 30 2c 3f 79 10 b1 3f c6 e9 46 3f
       0.89233065 0.6726197 1.3833152 0.7770046
000030 85 80 a1 40 53 38 3a 3f 2d 79 51 3f a2 44 69 3e
       5.0469384 0.72742194 0.81825525 0.22780088
000040 a3 02 a9 3e 77 d8 38 3f 93 f0 b1 3e 8a 84 e9 3f
       0.33009824 0.722053 0.34753856 1.8243573
000050 12 e7 32 3f eb b7 69 3f e0 bb 80 3f 24 ce cf 3e
       0.69883835 0.9129626 1.0057335 0.4058696
000060 0d bf b0 3f b0 7a 27 3f 55 7b e4 3e e5 e5 2e 3f
       1.3808304 0.6542158 0.44625345 0.6831954
000070 b3 ee 10 3f a1 19 fb 3f b8 71 b0 3f 34 86 d5 3e
       0.56614226 1.9617196 1.3784704 0.4170395
000080 03 37 04 40 5b 3e 1c 40 0f 00 88 3f 9a 6a fa 3f
       2.0658576 2.4413059 1.0625018 1.9563782
000090 95 ab d1 3f f5 e1 d2 40 78 a7 54 3f fc 83 15 40
       1.6380488 6.5900826 0.8306804 2.3361807
0000a0 db 3f 83 3f 6e 65 3f 3f 65 0d 31 40 a8 83 86 3f
       1.0253862 0.74764144 2.7664425 1.0508928
0000b0 07 c6 06 3f 8d 38 cc 3f 80 83 5c 3e 78 a4 21 40
       0.52645916 1.5954758 0.21534538 2.5256634
0000c0 3d 04 30 3f 22 a6 3d 3f 42 bb cb 3e 22 d8 a6 3f
       0.6875647 0.74081624 0.39791304 1.3034708
0000d0 c8 3c 47 40 3b 99 1f 3f 11 7f 3d 3f 31 ed 52 3f
       3.1130848 0.62343186 0.7402201 0.82393175
0000e0 ef 97 91 3f b7 88 3f 3f 6f 2d 2a 3f d3 19 45 3f
       1.1374491 0.74817985 0.66475576 0.7699253
0000f0 63 6f 56 3f d1 25 5c 3f 9b 3c b7 3f bf 87 8f 3f
       0.8376371 0.85995203 1.431537 1.1213301

bn4.running_var f4 [64]
000000 07 95 08 42 cb 95 43 41 3f 32 80 41 ba 25 14 41
       34.145535 12.224071 16.024534 9.259211
000010 fd ad 41 41 8f a4 cf 41 e4 1b aa 41 d6 c5 54 41
       12.104978 25.95535 21.263618 13.2983
000020 00 41 77 41 fb cc 63 41 b3 44 b1 41 60 a0 2f 41
       15.453369 14.237544 22.158545 10.976654
000030 32 93 02 42 b2 da 31 41 c9 f2 66 41 08 bd 82 40
       32.643745 11.115892 14.434274 4.085575
000040 77 e8 a7 40 7f 61 23 41 31 7d c3 40 02 94 98 41
       5.247127 10.211303 6.109032 19.07227
000050 f6 b4 74 41 36 4c 5d 41 9c 8c 97 41 b7 c7 b0 40
       15.29418 13.831106 18.943657 5.5243793
000060 a2 94 ab 41 80 4e 56 41 3c 33 e0 40 b8 7f 15 41
       21.447575 13.394165 7.006254 9.343681
000070 a1 90 5a 41 68 54 b6 41 18 8c 8a 41 6e e6 ae 40
       13.66031 22.791214 17.318405 5.4656286
000080 5d a6 0d 42 74 27 09 42 9e 94 5e 41 a9 ca b8 41
       35.412464 34.28853 13.9112835 23.098955
000090 13 77 0e 42 a7 b7 3d 42 95 33 7a 41 d7 58 e3 41
       35.616283 47.429348 15.637593 28.418379
0000a0 e6 c2 89 41 8e db 1d 41 3f 57 12 42 07 62 74 41
       17.220165 9.866102 36.5852 15.273932
0000b0 df e7 fd 40 03 20 1b 42 95 b2 56 40 f2 c1 18 42
       7.9345546 38.78126 3.3546498 38.1894
0000c0 a1 f5 57 41 11 9a 0e 41 0d 2b 05 41 9b 90 ab 41
       13.497468 8.912614 8.32301 21.445608
0000d0 4f d3 14 42 20 75 22 41 c0 16 62 41 0c ae 26 41
       37.206356 10.153595 14.130554 10.417492
0000e0 e1 fa e1 41 c6 19 1d 41 93 26 24 41 22 44 7d 41
       28.2475 9.818792 10.259418 15.829134
0000f0 29 c3 56 41 00 fd 8a 41 e4 33 a4 41 c7 71 ce 41
       13.4226465 17.373535 20.525337 25.805555

lin.weight f4 [10, 64]
000000 53 99 06 bf 9e cb 36 bf be 89 35 bf b1 07 96 bf
       -0.52577704 -0.71404445 -0.709133 -1.1721097
000010 f1 63 e1 3d b7 8e 0c 3f 3e ab 82 bf e0 c1 9c 3c
       0.110053904 0.54905266 -1.0208509 0.019135416
000020 33 60 de 3f a4 fa 75 bf b5 7c 77 3f fc 5f 94 3f
       1.7373108 -0.9608557 0.9667466 1.1591792
000030 39 7b a1 be 12 63 6f 3d eb dc d9 3f cd a9 c7 bf
       -0.31539324 0.05844409 1.7020544 -1.5598694
000040 32 d1 82 bf d5 cc ad 3e 81 0d a7 bf eb 27 ad 3d
       -1.0220091 0.33945337 -1.3050996 0.084548794
000050 42 1d ac bf e3 6a 92 3e 73 76 22 bf 50 49 88 bf
       -1.3446429 0.28597173 -0.6346199 -1.0647373
000060 d6 a9 97 bf 6b 44 90 bf f4 c3 b9 be 1c 4c 1e be
       -1.1848705 -1.127088 -0.36282313 -0.15458721
000070 60 15 42 3e cc 50 a6 3e da 9f 34 3f e6 fe 19 bf
       0.18953466 0.32483518 0.70556414 -0.6015457
000080 f5 b2 2c be b7 bf 9b bd 82 e3 d0 be 6c f9 57 3f
       -0.16865142 -0.07604926 -0.40798575 0.8436496
000090 f7 b0 bf 3e 60 42 ed 3e 94 ab e7 3e f4 2c b4 3f
       0.374397 0.46339703 0.4524809 1.4076219
0000a0 c4 11 30 bf 1e fd 14 bf c5 d1 41 bf ef 6d 76 bf
       -0.6877711 -0.58198726 -0.7571071 -0.96261495
0000b0 bd 86 ba 3f ce 94 5f 3f 30 72 63 bf 1b 3b 82 3f
       1.4572369 0.8733643 -0.8884611 1.0174288
0000c0 d5 9b 51 3c 9f a8 99 bf 3c 9c 86 bf 24 de b6 bf
       0.012793501 -1.2004584 -1.0516429 -1.4286542
0000d0 73 cd 97 3f 4d 4c 59 bf 35 30 57 3e 87 88 d4 3f
       1.1859573 -0.8488205 0.21014483 1.6604165
0000e0 d3 05 e7 bf 14 10 a4 3f 73 30 87 3f 1c 85 5e bd
       -1.8048652 1.2817407 1.056166 -0.05432616
0000f0 00 72 9b bf 45 f8 82 3f 29 01 0a 3f 72 88 8f 3f
       -1.2144165 1.0232016 0.5390802 1.1213515
000100 d5 2f 88 bf 39 38 1c bd 64 79 25 bf 12 34 81 3e
       -1.0639597 -0.038139556 -0.6463835 0.2523504
000110 a0 49 c7 3f c9 e9 4f 3f d5 38 c8 bf 98 da 7c 3f
       1.5569344 0.812161 -1.5642344 0.9877105
000120 3b 9d 9d bf ce 94 f9 be 6d 93 60 bf 58 5a 58 be
       -1.2313608 -0.4874634 -0.87724954 -0.21128213
000130 7f c9 37 bf 36 7a 8b bf f1 57 b3 3d 3e ad d2 3f
       -0.71791834 -1.0896671 0.08757008 1.6459119
000140 b1 40 8b be e7 2d 9d 3f 3b 27 91 bf 74 84 b3 3d
       -0.27197793 1.2279633 -1.1340097 0.08765498
000150 2a 54 92 3e 67 b0 af bf 9d 4e 41 bf 1e f5 d5 be
       0.28579837 -1.3725709 -0.7551058 -0.41788572
000160 be a0 cf be aa 4a d3 3f 70 36 1a c0 d7 71 13 40
       -0.40552324 1.6507161 -2.4095726 2.3038232
000170 ef fe 4d bf 20 d5 91 bf 26 60 c2 bf f7 1e 90 3f
       -0.8046712 -1.1393166 -1.5185592 1.125945
000180 97 d0 8d 3e 61 f2 55 3f 48 40 82 3f e6 3d 4e be
       0.27698204 0.83572966 1.0175867 -0.201408
000190 f1 9c be be 7d b7 03 3f 7b af f2 3f e5 5c 33 bf
       -0.37229112 0.51451856 1.8959802 -0.7006362
0001a0 3b 00 00 3e 6d 39 ee be dd 80 82 bf a1 f0 09 bf
       0.12500088 -0.46528187 -1.0195576 -0.53882796
0001b0 29 b3 ee bf 27 9d 30 bd 32 23 b9 be 80 f4 5f 3f
       -1.8648425 -0.043118622 -0.36159664 0.8748245
0001c0 2f b0 e1 bf 1c 9c e8 3e 78 ae 5b bf 50 27 27 40
       -1.7631892 0.45431602 -0.85813093 2.6117744
0001d0 60 a5 c3 3e 24 f1 a9 bf 4e 63 3c bf 3d 86 9b 3e
       0.3821211 -1.3276715 -0.73589027 0.30375853
0001e0 70 89 65 bf 8f 35 2e 3e 62 fe 7e bf 26 65 14 3d
       -0.8966284 0.17012618 -0.9960691 0.036229275
0001f0 15 fd 4e 3e 07 16 b2 bf ac a1 7b bf f4 72 b2 bf
       0.2021373 -1.3912972 -0.98293567 -1.3941331
000200 23 6e d3 3c bf de ab bf 22 9a 95 3e 19 56 23 bf
       0.025809353 -1.3427352 0.29219157 -0.6380325
000210 39 69 64 bf 7b e5 08 bf 2f a6 d9 3f 73 10 90 3f
       -0.8922306 -0.5347516 1.700384 1.125502
000220 18 c1 c6 be 62 de 2b 3f e3 95 af bf 0f 98 3a bf
       -0.38819194 0.67136204 -1.3717617 -0.72888273
000230 bc 8f cb be a5 d7 52 bf c0 f7 ed 3e e9 78 85 3c
       -0.39758098 -0.823603 0.4647808 0.016293006
000240 d8 ba 74 3f 49 fa e1 be d0 3c f8 3f da f3 0a 3f
       0.955976 -0.44136265 1.9393559 0.5427834
000250 89 14 e2 3f cd 49 91 3f 1d 4b 54 bf 57 d4 ca be
       1.7662517 1.1350647 -0.82927114 -0.39615127
000260 1b c9 39 bf 95 a0 1f 3f 98 69 dc 3f fd 11 c1 bf
       -0.7257249 0.62354404 1.7219725 -1.5083615
000270 40 34 8a bf 16 6a 11 be fe be b2 bf 87 8d a1 bf
       -1.0797195 -0.14200625 -1.3964536 -1.2621316
000280 dc 5e 9e 3f 37 cb 7b be 35 95 79 bf 63 4f 95 bf
       1.2372699 -0.24589239 -0.97493297 -1.1664852
000290 5e 20 01 bf ea 02 01 3e 38 c6 9d 3f 0a dd 08 c0
       -0.50440013 0.12598768 1.2326117 -2.1384912
0002a0 7e 11 91 3f 3a 95 a7 3f a4 57 7d 3f 73 22 03 be
       1.1333463 1.3092415 0.98961854 -0.1280611
0002b0 4c c4 b1 bf 7a 2c 96 3f 7b 41 b5 be a6 f8 3a 3f
       -1.388803 1.1732323 -0.3540152 0.7303566
0002c0 31 52 b0 bd b2 cd 50 3d b8 6d 6c bf bb c6 50 bf
       -0.08609427 0.050977416 -0.9235492 -0.8155324
0002d0 a0 3c 9e 3f 73 f8 72 3f be 2b b0 bf 96 1c 3f bd
       1.2362251 0.94910353 -1.3763349 -0.04665812
0002e0 f3 e5 b5 bd 9d da a8 3e 68 3c 2c bf 36 80 0d bf
       -0.0888175 0.3297929 -0.6727967 -0.5527376
0002f0 06 4e 54 3f cc 95 85 bf d4 54 b3 3e b9 79 a2 3e
       0.82931554 -1.0436339 0.35025656 0.31733492
000300 01 16 d0 3f 99 31 50 bf 8e 27 b8 3f 9f 6b 0d bf
       1.6256715 -0.8132568 1.4387071 -0.5524234
000310 55 fb 9a bf aa 91 0a bf 55 f1 db 3f 3b 30 88 3d
       -1.210795 -0.54128516 1.7183024 0.06649824
000320 74 00 dc be 03 33 05 3d df 25 a0 bf 70 8f c3 bf
       -0.42969096 0.03251935 -1.2511557 -1.5278149
000330 c1 10 98 3f 23 bf fe be 83 ea a4 bf d6 f3 22 3f
       1.1880113 -0.497552 -1.2884067 0.63653314
000340 a6 38 55 bf 0b 7a 8d be f9 5a cc be b0 8f e6 3e
       -0.83289564 -0.27632174 -0.39913157 0.450315
000350 a4 0b 92 bf 98 ef 8b bf 04 e0 c6 3f 5b 28 0c 3d
       -1.1409802 -1.0932493 1.5537114 0.034218173
000360 a6 2c 27 3f b4 37 3d be bb 2a 49 bd d0 8f f5 be
       0.65302503 -0.1847828 -0.049113017 -0.47961283
000370 ca 8d cd 3c c6 50 6a bd a8 bb 3c bf af b3 38 3f
       0.025092024 -0.057205938 -0.7372384 0.72149175
000380 71 a5 a6 bf 1d 42 97 3f 08 46 19 40 d0 36 73 3f
       -1.3019239 1.1817051 2.3948994 0.9500551
000390 16 b5 27 3f 41 47 0a 3f 9a 95 fb bf ce 95 4b 3f
       0.6551069 0.54014975 -1.965503 0.7952546
0003a0 bd ef 59 bf 23 59 f8 be 16 a7 6b 3f fa 93 4e 3f
       -0.85131437 -0.48505506 0.9205183 0.80694544
0003b0 10 c4 69 3f 20 66 82 3f 2d f2 c2 be 90 46 38 bf
       0.9131479 1.0187416 -0.3807539 -0.7198267
0003c0 0e 4b 72 3f 9f 4b 85 be 0a e2 7a bf 11 1c 26 bf
       0.94645774 -0.26034257 -0.9800116 -0.64886576
0003d0 bd 42 0b bf 6f 49 0d c0 12 3e df be dd 6d 84 bf
       -0.5439871 -2.207607 -0.43602043 -1.0346028
0003e0 4a 55 b1 bd 09 7f 89 bf b2 43 4f 3f fe 90 f2 3f
       -0.08658846 -1.0741893 0.8096267 1.8950498
0003f0 8f 80 78 3f 72 e0 b0 3d 97 4c 0c bf af c9 68 bf
       0.97071165 0.086365595 -0.54804367 -0.90932745

lin.bias f4 [10]
000000 5b 7b 3b 3e 03 0e 23 be f5 41 55 3e a2 d3 c7 3a
       0.18308775 -0.15923314 0.20825942 0.0015245567
000010 9a 87 ef bc e1 8c e3 be 1d bf 69 be b1 f6 45 3d
       -0.029239465 -0.4444342 -0.2282681 0.048330966
000020 67 4f 3d 3e 37 8a 4f bd
       0.18487321 -0.05066892
