NCC_Code/models/2022-08-13_12-05-47_model.pt (torch, 115275 bytes, 50 tensors)

conv1.weight f4 [8, 2, 5, 5]
0.10003601 0.038408354 -0.12043071 -0.2892805 -0.11963954 0.084483676 -0.39157915 -0.27654064
-0.29619804 -0.5851176 0.32984635 -0.18096568 -0.2284539 -0.07280081 -0.1612131 -0.21989563
0.087214135 0.1799795 0.1157053 -0.099433236 0.18973258 0.37621066 0.19022693 0.3893772
0.43944812 -0.2388024 -0.19052266 -0.030126365 0.13911901 0.21889877 -0.07966731 0.076065496
0.1209629 0.14294602 0.22381155 -0.38794518 0.03375862 0.099500924 -0.1099138 0.049767945
0.45588055 0.20625122 0.18111473 0.20922092 0.20361613 0.33867726 0.18513769 0.11073408
0.33826765 -0.020615961 -0.1086999 0.2908176 0.15543352 -0.012797135 -0.033588212 0.34333345
0.10933619 0.09600091 0.075174965 0.26836482 0.0035119168 -0.09331317 -0.13974409 -0.15156306
0.17252386 -0.37929413 -0.38698947 -0.33932003 -0.2065757 -0.22150683 -0.29894465 -0.15412907
-0.12405085 -0.035088185 0.035916418 0.28806382 -0.15187861 0.13397142 0.061537698 -0.17061691
0.050641775 0.23832881 -0.23855296 -0.041636515 -0.089059286 -0.050043426 -0.046921324 0.09309831
0.13718711 -0.086207226 -0.11689807 -0.3223576 -0.2578734 -0.47149608 -0.31216654 0.18987973
0.059527744 -0.123690836 -0.2648767 -0.12919122 -3.6079375e-05 0.059002187 -0.0885254 0.08853268
0.153248 0.31479156 0.10256036 0.19683832 0.088232204 0.014508865 0.0019868317 -0.21954721
-0.16604161 -0.20759457 0.1285524 -0.34542572 0.06447297 0.036970034 0.11420885 0.08002309
-0.29093054 -0.19515777 -0.058765594 -0.08312594 -0.16675383 0.08700389 -0.12693435 0.103222154
0.2990178 0.5833226 -0.39833385 0.41106012 0.24951796 0.7129973 0.35469967 -0.2338451
-0.18805428 -0.19355433 -0.47158563 -0.055437658 0.31204408 0.09605434 0.10981209 -0.12211637
-0.25667006 -0.035221554 -0.1230418 -0.14110465 -0.24800648 0.113144584 0.22609867 0.36678353
0.3036575 0.09288685 0.17804332 -0.29536822 -0.2721511 -0.23349065 -0.34559914 -0.35263607
-0.34809664 -0.31353387 -0.19064423 -0.34634918 -0.19618002 -0.050063264 -0.08798615 0.22183605
0.05309205 -0.0180646 -0.27076563 -0.15978928 0.050782617 -0.107077435 -0.39293566 0.07240277
0.07307018 0.15857181 0.47862676 0.067818224 -0.2844813 -0.09759523 0.33498794 -0.17382224
-0.17185447 -0.1204011 -0.035268277 0.0877382 -0.03107486 -0.1321865 -0.01858544 0.16201484
-0.013527335 0.08186882 0.09489379 -0.36338136 -0.3488012 -0.098466426 -0.15865949 0.10570896
-0.26303452 0.4084361 0.07997212 -0.20336203 0.061575197 0.013557203 -0.1567523 0.06698032
0.05344514 -0.39932048 -0.18022898 0.30180818 0.31818268 0.23424059 0.050054226 0.1496847
0.10248466 0.031642187 0.36645484 0.42106938 0.096088275 0.18352324 -0.05469436 -0.5395371
-0.20570931 0.2348698 -0.22138615 -0.07139341 -0.13498423 -0.08201187 -0.1113491 -0.17318614
-0.012564289 -0.07928694 -0.01340151 0.22960103 -0.10306808 -0.15354097 -0.10371344 0.19322927
0.3333813 0.34528244 0.22897655 0.68575704 0.59075624 -0.11643985 -0.29257303 -0.10166002
0.1454274 -0.24334994 -0.12834424 0.099452265 0.13514945 0.07582612 0.047753997 -0.000998905
00000000: aedf cc3d 1452 1d3d 60a4 f6bd 931c 94be
00000010: 9305 f5bd c705 ad3d 107d c8be bc96 8dbe
00000020: 45a7 97be 44ca 15bf 9fe1 a83e 114f 39be
00000030: d2ef 69be 9718 95bd 0c15 25be 522c 61be
00000040: 539d b23d 8c4c 383e e6f6 ec3d a7a3 cbbd
00000050: 4249 423e af9e c03e d9ca 423e 735c c73e
00000060: 58ff e03e 9e88 74be 5f18 43be 91cb f6bc
00000070: 3775 0e3e 0027 603e 9d28 a3bd 3ac8 9b3d
00000080: 66bb f73d 7160 123e db2e 653e c0a0 c6be
00000090: 7b46 0a3d 24c7 cb3d 7d1a e1bd 79d9 4b3d
000000a0: 2d69 e93e 8533 533e 2476 393e 023e 563e
000000b0: bf80 503e 1b67 ad3e bc94 3d3e 8dc8 e23d
000000c0: 6b31 ad3e cee2 a8bc 0e9e debd 0be6 943e
000000d0: f729 1f3e 13ab 51bc cb93 09bd 67c9 af3e
000000e0: a7eb df3d 209c c43d 55f5 993d 1d67 893e
000000f0: 3028 663b fa1a bfbd 1319 0fbe 5933 1bbe
00000100: 18aa 303e d732 c2be 7c23 c6be 5bbb adbe
00000110: 9588 53be b0d2 62be 460f 99be 03d4 1dbe
00000120: 5f0e febd a1b8 0fbd 181d 133d 1a7d 933e
00000130: 1186 1bbe ce2f 093e f40e 7c3d 33b6 2ebe
00000140: c06d 4f3d 780c 743e 3a47 74be 0d8b 2abd
00000150: b764 b6bd 56fa 4cbd 9330 40bd 54aa be3d
00000160: c77a 0c3e 6a8d b0bd 4168 efbd 0e0c a5be
00000170: fb07 84be ef67 f1be 4bd4 9fbe d56f 423e
00000180: 5dd3 733d 9f51 fdbd eb9d 87be b44a 04be
00000190: ef53 17b8 47ac 713d ce4c b5bd 9f50 b53d
000001a0: 0bed 1c3e 5c2c a13e 2b0b d23d fc8f 493e
000001b0: 16b3 b43d 97b6 6d3c 8135 023b fcd0 60be
000001c0: d006 2abe ac93 54be 3ea3 033e a4db b0be
000001d0: 680a 843d e46d 173d 54e6 e93d 25e3 a33d
000001e0: d9f4 94be 70d7 47be 31b4 70bd ef3d aabd
000001f0: 84c1 2abe 182f b23d 14fb 01be 2366 d33d
00000200: dc18 993e a154 153f 6af2 cbbe 7976 d23e
00000210: a381 7f3e fe86 363f 329b b53e 1775 6fbe
00000220: 4d91 40be 1b33 46be ac73 f1be 9912 63bd
00000230: 3ec4 9f3e 23b8 c43d 29e5 e03d 2618 fabd
00000240: 426a 83be 7a44 10bd 57fd fbbd bd7d 10be
00000250: 69f5 7dbe 59b8 e73d 6986 673e 0dcb bb3e
00000260: ff78 9b3e 763b be3d fd50 363e 813a 97be
00000270: 6457 8bbe 2c18 6fbe 5ff2 b0be b78c b4be
00000280: b939 b2be 8387 a0be 3e38 43be ae54 b1be
00000290: 6ae3 48be 230f 4dbd 1532 b4bd fd28 633e
000002a0: 0d77 593d 36fc 93bc cba1 8abe cd9f 23be
000002b0: 6f01 503d 6a4b dbbd dd2e c9be e747 943d
000002c0: d2a5 953d a660 223e 910e f53e 48e4 8a3d
000002d0: 88a7 91be 02e0 c7bd 8a83 ab3e 75fe 31be
000002e0: 9efa 2fbe da94 f6bd 7875 10bd 16b0 b33d
000002f0: b490 febc e65b 07be 7e40 98bc 38e7 253e
00000300: c1a1 5dbc d7aa a73d ad57 c23d 1f0d babe
00000310: 1296 b2be c4a8 c9bd a277 22be f07d d83d
00000320: 76ac 86be 891e d13e 6cc8 a33d 233e 50be
00000330: 4636 7c3d 081f 5e3c ad83 20be fa2c 893d
00000340: 4be9 5a3d bc73 ccbe f28d 38be 9a86 9a3e
00000350: d7e8 a23e c4dc 6f3e a905 4d3d f246 193e
00000360: 7ae3 d13d 3d9b 013d f89f bb3e 6896 d73e
00000370: eec9 c43d 84ed 3b3e 3107 60bd 1a1f 0abf
00000380: 76a5 52be b581 703e 0db3 62be b536 92bd
00000390: 4e39 0abe d7f5 a7bd ff0a e4bd b557 31be
000003a0: 73da 4dbc 3161 a2bd 0292 5bbc 881c 6b3e
000003b0: 5c15 d3bd d839 1dbe b667 d4bd e5dd 453e
000003c0: f4b0 aa3e dcc8 b03e d478 6a3e c68d 2f3f
000003d0: cd3b 173f 0478 eebd 22cc 95be 2133 d0bd
000003e0: ecea 143e ba30 79be ac6c 03be a1ad cb3d
000003f0: 9e64 0a3e ba4a 9b3d b299 433d b1ed 82ba

conv1.bias f4 [8]
0.19063365 0.3095493 -0.057404388 0.3778564 -0.261791 0.019156361 0.01760848 -0.14095283
00000000: 7835 433e 3f7d 9e3e dd20 6bbd 6576 c13e
00000010: 7809 86be cded 9c3c a93f 903c f055 10be

bn1.weight f4 [8]
1.2607411 0.9366828 0.88218623 0.8762481 1.2434247 0.99200934 0.85408056 0.85078996
00000000: f75f a13f 72ca 6f3f f5d6 613f cc51 603f
00000010: 8a28 9f3f 53f4 7d3f 06a5 5a3f 5fcd 593f

bn1.bias f4 [8]
0.028597757 -0.028018525 -0.03147883 0.069724716 -0.10032447 -0.05512257 -0.005994962 -0.008958052
00000000: d845 ea3c 1b87 e5bc f2ef 00bd d5cb 8e3d
00000010: ea76 cdbd 34c8 61bd 6371 c4bb cbc4 12bc

bn1.running_mean f4 [8]
0.73778546 1.059909 0.5055019 1.1413069 0.6120511 0.5727953 1.5643241 0.2648195
00000000: 82df 3c3f 19ab 873f 9368 013f 5816 923f
00000010: 62af 1c3f b6a2 123f c63b c83f 6c96 873e

bn1.running_var f4 [8]
3.5162406 0.8901141 0.99900997 1.0027407 1.7533722 1.6061708 2.9120905 0.36467695
00000000: 160a 6140 85de 633f 1ebf 7f3f cf59 803f
00000010: 806e e03f 0197 cd3f b15f 3a40 f0b6 ba3e

conv2.weight f4 [16, 8, 3, 3]
-0.32663095 -0.22705746 -0.31459042 -0.14810719 -0.041549247 0.17217728 -0.08268646 -0.103087276
-0.0821043 -0.13332038 -0.33953092 -0.4327116 0.005837113 0.24524745 0.28636983 -0.3025839
-0.30964723 -0.21978272 0.26278874 0.3341316 0.36318386 -0.07567063 0.114044495 0.042126894
-0.21142042 -0.17396925 -0.07884556 0.0672688 -0.14959382 -0.31597364 0.03871122 -0.19264883
-0.14692317 -0.25139248 -0.08495586 -0.07316147 0.10083469 -0.059302308 -0.037170857 -0.074918084
-0.21121751 -0.1766109 -0.10977949 0.056632333 0.03633341 -0.049789786 0.3630123 0.2476659
0.2739025 0.4522159 0.05811534 -0.19652885 -0.023470875 0.016733943 0.06569385 0.2350831
-0.013365063 -0.30353507 -0.028402856 -0.08233483 0.22043037 0.22077106 0.08063565 0.2607358
0.30780384 0.23383431 0.001578113 -0.0076790676 0.05404445 -0.08864179 0.07077596 0.123823866
-0.08054388 -0.0737916 -0.2302925 0.15261616 -0.06862134 -0.20082617 -0.023458919 0.008258027
0.1504229 -0.25636956 -0.3486841 -0.06473599 0.28682822 0.20865297 0.23421852 -0.15528631
-0.098919176 0.10769356 -0.16100362 -0.22757652 -0.09998927 0.17431937 0.4251939 0.31687456
-0.08141998 -0.30415478 -0.3410908 -0.0017777953 0.23776208 0.37897924 -0.15063038 -0.06686967
-0.12321219 -0.077890046 0.0077763693 0.048572976 0.09429039 0.2171562 0.01861505 -0.122652866
-0.3077768 -0.32325876 0.0122297155 0.0726097 0.16864559 -0.023115266 0.03302315 -0.24450064
0.042081576 0.20449746 -0.014912174 0.28195032 -0.38300347 -0.27221367 0.5111881 0.22752298
0.07668946 0.24274065 0.17922197 0.26924875 -0.010060638 0.22995548 0.078052394 0.053454608
0.19770089 0.35700458 0.291857 0.11497361 0.16482097 -0.040246647 0.14780176 -0.021647584
0.005707396 -0.054310624 -0.12023499 0.23398644 0.13006294 0.092370175 0.30970323 0.13949528
0.10997613 0.12099695 0.17015406 0.04531431 -0.034349468 -0.21376419 0.069167055 0.25570607
0.43777195 0.07979039 0.006179279 0.21620654 0.26236677 -0.114628166 -0.09338205 -0.16887267
0.031957313 0.19914517 0.22097228 0.028651204 0.19823724 0.17158823 -0.01178562 0.17374358
0.1764974 0.28851497 0.34947217 0.046561774 0.24303062 0.08464621 0.034774728 0.15101422
0.12817946 0.25192624 0.19561899 0.19272698 -0.04378628 -0.042135626 0.09418854 0.19029592
0.11538042 0.03847907 0.17196798 0.24704674 0.094035044 0.23355234 0.20071827 0.23796554
0.14399943 0.21585448 0.09871973 -0.0528735 0.005254479 0.06002118 -0.04158907 -0.43821594
-0.40530458 -0.077497005 -0.2066662 0.018630087 -0.1246384 0.11584867 -0.06678698 0.11059017
0.39728567 0.27069744 -0.050241977 -0.25511372 -0.159 -0.05102424 -0.11061705 -0.15334353
-0.1172324 -0.16859314 -0.18956983 -0.31001502 0.00791746 0.028734617 0.0043066195 0.17437251
0.22943625 0.38722414 0.16047956 -0.038906723 0.03979098 -0.007189992 -0.02972677 -0.032040056
0.027830899 0.054138377 0.14548026 -0.1342116 -0.1632266 -0.017561633 -0.10158513 -0.18102622
-0.05066287 0.34784558 0.4083778 0.24984702 -0.20679389 -0.15624163 -0.17539072 -0.26551867
00000000: 2c3c a7be c081 68be ff11 a1be 69a9 17be
00000010: 8b2f 2abd 3e4f 303e 8557 a9bd 6c1f d3bd
00000020: 4d26 a8bd 2385 08be ffd6 adbe 608c ddbe
00000030: 4145 bf3b 2622 7b3e 119f 923e 47ec 9abe
00000040: 158a 9ebe b90e 61be 3f8c 863e 4c13 ab3e
00000050: 3cf3 b93e 34f9 9abd 2990 e93d 408d 2c3d
00000060: 987e 58be ff24 32be c879 a1bd 3ac4 893d
00000070: 1f2f 19be 4cc7 a1be a88f 1e3d bc45 45be
00000080: 0773 16be 84b6 80be 57fd adbd aed5 95bd
00000090: 6b82 ce3d fae6 72bd 7840 18bd a76e 99bd
000000a0: 6749 58be 7dd9 34be 12d4 e0bd 4ef7 673d
000000b0: 57d2 143d 60f0 4bbd c0dc b93e 219c 7d3e
000000c0: f33c 8c3e d888 e73e 5a0a 6e3d dc3e 49be
000000d0: fe45 c0bc 9f15 893c 7f8a 863d a0b9 703e
000000e0: 23f9 5abc f368 9bbe 1bad e8bc 2a9f a8bd
000000f0: 80b8 613e cf11 623e 4e24 a53d 2a7f 853e
00000100: 7798 9d3e 4372 6f3e afd8 ce3a b0a0 fbbb
00000110: b75d 5d3d d489 b5bd fdf2 903d 5e97 fd3d
00000120: 31f4 a4bd 0d20 97bd ccd1 6bbe 6947 1c3e
00000130: 5889 8cbd 60a5 4dbe eb2c c0bc ad4c 073c
00000140: 7608 1a3e df42 83be b986 b2be 4d94 84bd
00000150: 26db 923e 20a9 553e fbd6 6f3e 6003 1fbe
00000160: 2396 cabd 718e dc3d 22de 24be d209 69be
00000170: 2dc7 ccbd c780 323e 04b3 d93e 623d a23e
00000180: 85bf a6bd 2dba 9bbe 74a3 aebe e904 e9ba
00000190: e777 733e 9109 c23e da3e 1abe f7f2 88bd
000001a0: ac56 fcbd d184 9fbd ead0 fe3b 75f4 463d
000001b0: 521b c13d 325e 5e3e 977e 983c 6d31 fbbd
000001c0: ec94 9dbe 2c82 a5be 255f 483c 65b4 943d
000001d0: 6eb1 2c3e 3a5c bdbc 4843 073d 605e 7abe
000001e0: bb5d 2c3d c867 513e 3152 74bc cb5b 903e
000001f0: 0819 c4be 975f 8bbe 39dd 023f c9fb 683e
00000200: 5d0f 9d3d 0191 783e f785 373e f9da 893e
00000210: 60d5 24bc 7379 6b3e efd9 9f3d 38f3 5a3d
00000220: 1a72 4a3e 4ec9 b63e 486e 953e 4977 eb3d
00000230: d4c6 283e abd9 24bd 5859 173e 4656 b1bc
00000240: 1c05 bb3b d174 5ebd c33d f6bd 249a 6f3e
00000250: 382f 053e 932c bd3d 6c91 9e3e dad7 0e3e
00000260: 2a3b e13d 40cd f73d de3c 2e3e 7f9b 393d
00000270: 07b2 0cbd 00e5 5abe 75a7 8d3d e8eb 823e
00000280: a523 e03e 2569 a33d 8d7b ca3b 3f65 5d3e
00000290: f054 863e 2cc2 eabd 173f bfbd f5ec 2cbe
000002a0: ace5 023d b6ec 4b3e 8f46 623e eeb5 ea3c
000002b0: b4fe 4a3e d3b4 2f3e 7918 41bc d6e9 313e
000002c0: bcbb 343e 3cb8 933e 04ee b23e 8fb7 3e3d
000002d0: 05dd 783e fe5a ad3d f26f 0e3d 79a3 1a3e
000002e0: 7a41 033e 7afc 803e 5850 483e 395a 453e
000002f0: 3e59 33bd 6896 2cbd ece5 c03d efdc 423e
00000300: 924c ec3d 3b9c 1d3d 6018 303e d2f9 7c3e
00000310: 7295 c03d 5828 6f3e 1789 4d3e 3dad 733e
00000320: 9674 133e f508 5d3e 922d ca3d e291 58bd
00000330: c42d ac3b c5d8 753d 4d59 2abd d75d e0be
00000340: 1584 cfbe c0b6 9ebd 4ea0 53be 209e 983c
00000350: 6b42 ffbd 1142 ed3d 9dc7 88bd 197d e23d
00000360: 0769 cb3e db98 8a3e 88ca 4dbd 449e 82be
00000370: e5d0 22be cbfe 50bd 318b e2bd 1606 1dbe
00000380: 8a17 f0bd aea3 2cbe 981e 42be 4aba 9ebe
00000390: 3cb8 013c dc64 eb3c 8b1e 8d3b b58e 323e
000003a0: 56f1 6a3e 3e42 c63e c154 243e a85c 1fbd
000003b0: defb 223d 069a ebbb 8e85 f3bc 6f3c 03bd
000003c0: a0fd e33c 34c0 5d3d c7f8 143e c46e 09be
000003d0: e024 27be 6add 8fbc dd0b d0bd f05e 39be
000003e0: df83 4fbd d118 b23e e516 d13e e6d7 7f3e
000003f0: c7c1 53be cefd 1fbe a099 33be 10f2 87be

conv2.bias f4 [16]
0.028426934 -0.20811956 -0.014535753 -0.057590485 0.044229135 -0.06502626 0.08789353 -0.07936426
-0.030865086 0.23637298 -0.27231175 0.11048212 0.014009932 -0.0036518103 -0.013673648 -0.12989268
00000000: 9adf e83c 4b1d 55be 5e27 6ebc 00e4 6bbd
00000010: 9c29 353d 7d2c 85bd 8601 b43d bb89 a2bd
00000020: c7d8 fcbc c20b 723e 726c 8bbe 7344 e23d
00000030: ea89 653c 3653 6fbb 7007 60bc 9602 05be

bn2.weight f4 [16]
1.0270429 1.0108113 0.9803873 0.96500236 1.0954901 0.9802332 0.99912107 0.95664847
0.8963943 0.91127163 1.2367643 0.8341356 0.84964985 0.94048387 1.0250156 0.91457176
00000000: 2476 833f 4462 813f a9fa 7a3f 650a 773f
00000010: 0539 8c3f 90f0 7a3f 66c6 7f3f eae6 743f
00000020: 197a 653f 1949 693f 4b4e 9e3f e989 553f
00000030: a782 593f 8dc3 703f b633 833f 6021 6a3f

bn2.bias f4 [16]
0.22478369 -0.2672945 -0.006197367 0.05949098 -0.2170491 0.046896547 0.21385507 -0.10397565
-0.003147283 0.1827975 0.14792532 0.3002687 -0.30035108 -0.0003684523 0.12151274 -0.4153235
00000000: b22d 663e d3da 88be 4813 cbbb d0ac 733d
00000010: 1f42 5ebe 9816 403d d3fc 5a3e 30f1 d4bd
00000020: a642 4ebb 452f 3b3e bc79 173e d2bc 993e
00000030: 9ec7 99be d52c c1b9 acdb f83d 48a5 d4be

bn2.running_mean f4 [16]
0.8283158 0.6557887 0.82890916 0.41692615 0.7016192 0.44358313 1.2834436 0.8294067
0.5464841 0.59646523 0.6505052 0.7807352 0.8285527 0.68294483 0.69867134 0.78520554
00000000: 810c 543f c5e1 273f 6433 543f 5877 d53e
00000010: 519d 333f 541d e33e e147 a43f ff53 543f
00000020: 62e6 0b3f f2b1 183f 8287 263f 43de 473f
00000030: 081c 543f 79d5 2e3f 20dc 323f 3b03 493f

bn2.running_var f4 [16]
2.326668 0.86155045 2.5954328 0.58775884 0.89801 1.6398376 1.2979006 1.5169861
1.2458394 1.2590877 2.588841 0.93813443 5.596855 0.90741247 2.1330535 1.5789436
00000000: 21e8 1440 928e 5c3f 921b 2640 5d77 163f
00000010: fce3 653f 33e6 d13f 9b21 a63f 9a2c c23f
00000020: aa77 9f3f c929 a13f 92af 2540 9429 703f
00000030: 7019 b340 2f4c 683f f383 0840 d31a ca3f

conv3.weight f4 [32, 16, 3, 3]
-0.0052841683 -0.14453244 -0.008647884 0.29714468 0.034521524 0.16299106 -0.07099797 -0.11516076
-0.26893315 0.06202645 -0.012898698 -0.1602101 -0.03791571 0.08924125 0.06781981 -0.20107704
0.13866106 -0.14397259 0.1020666 0.021329228 0.14056726 -0.19196059 -0.22279988 -0.05603034
0.15425402 0.23834914 -0.036444966 -0.005384467 0.038671542 0.052209035 0.049787212 0.06727272
0.03424787 0.22867754 0.13470833 0.0833512 0.19497477 -0.022545356 0.14661923 -0.21749528
0.026654204 -0.03370743 0.06697921 0.22386128 -0.1871411 0.12190791 0.039357904 0.20761633
-0.09194886 -0.010870609 0.1423051 0.18861918 0.19872344 0.10743416 -0.1819812 -0.28166282
-0.112414226 -0.14351653 -0.069628455 -0.12904151 -0.11366016 -0.10517215 -0.21053407 0.020346247
0.17182668 0.119746976 0.3407124 0.21836539 -0.02971288 0.16648707 0.2496777 0.2732548
0.06807604 -0.0076234117 0.03739098 0.30712417 0.12888913 0.31470487 -0.061073612 -0.073222086
0.07373938 -0.020580184 0.17510661 0.023775388 0.06539301 0.032259714 0.14844723 -0.10758519
-0.11213632 0.0123124095 -0.23255165 -0.031461716 -0.10871191 -0.24968907 -0.43701044 -0.27160323
0.12179602 0.009255202 0.058884535 -0.21271156 -0.057264827 0.068699226 -0.20636867 -0.0009974071
-0.1376467 0.06470789 0.21496454 -0.024417313 0.003669283 0.02136812 -0.046320815 -0.2679012
0.09869558 0.11107361 0.040619817 0.03453812 0.32833037 0.1264968 0.12288718 0.17613518
0.05184123 0.02281443 0.10261504 0.109637134 0.067344666 0.0189526 -0.07831586 0.14987525
0.25200582 0.10765199 0.11334213 0.2870039 -0.31154168 -0.114708416 0.03722342 -0.07495783
0.055836096 0.22113988 0.0016879704 0.14117932 0.17397882 0.10809972 -0.020078382 0.17017509
-0.010284946 -0.21315315 -0.23902538 0.18630031 0.065129384 -0.025042968 0.07197656 0.1637826
0.11987459 0.01526931 -0.015891094 -0.023378788 0.16094284 0.00022147299 0.08246416 -0.049176272
0.06119225 0.1499803 0.02425674 0.28347453 0.0028802007 -0.15206583 -0.24835277 0.0067158514
0.14515978 0.2713298 0.22302985 -0.121942125 -0.094565645 0.10461808 0.05634273 -0.057496145
-0.051676523 -0.113592 0.10330698 -0.01541845 -0.07423892 -0.1467035 -0.09092194 -0.19599374
-0.15518549 -0.2991999 -0.18901518 -0.08272864 -0.04582631 -0.062227573 -0.07321499 -0.024049794
0.068086624 -0.11050148 -0.076133616 -0.15642208 0.013417012 0.07423386 -0.10111724 -0.11519007
0.14492375 -0.04777721 0.0005417548 0.08460707 0.15688823 0.041468225 -0.15478697 -0.05349195
0.07561892 -0.056424323 0.04212016 0.10689701 0.031350274 -0.17309758 -0.37532377 -0.26368707
-0.062665105 0.034231964 0.24772331 0.23726594 0.19393197 0.37349346 -0.18117993 -0.23764886
-0.04963752 -0.02999341 0.08795161 -0.15541357 0.13807845 0.09083624 -0.111833446 -0.23360525
-0.0074214824 0.108519256 0.057733994 0.0050433255 0.023383439 0.07170844 -0.006713807 0.032170236
-0.105258755 -0.026361393 -0.02188898 0.028574 0.08233726 -0.0037152176 -0.07860611 -0.1570905
-0.044533428 -0.030212773 0.009888158 -0.06848072 0.18225676 0.09514857 -0.10612126 -0.16345076
00000000: d126 adbb 5000 14be dbaf 0dbc 5923 983e
00000010: 7166 0d3d 21e7 263e 6267 91bd 68d9 ebbd
00000020: 9bb1 89be 720f 7e3d 1055 53bc 1e0e 24be
00000030: 814d 1bbd 1ec4 b63d 1de5 8a3d 24e7 4dbe
00000040: 2afd 0d3e 8d6d 13be 4b08 d13d a2ba ae3c
00000050: ddf0 0f3e 5191 44be a725 64be 1280 65bd
00000060: c4f4 1d3e cc11 743e 5147 15bd 2f70 b0bb
00000070: 0d66 1e3d 24d9 553d aded 4b3d 48c6 893d
00000080: 7f47 0c3d 722a 6a3e fbf0 093e 09b4 aa3d
00000090: 77a7 473e 0ab1 b8bc 5a23 163e 15b7 5ebe
000000a0: eb59 da3c cd10 0abd 652c 893d e43b 653e
000000b0: eba1 3fbe dbaa f93d c135 213d 6099 543e
000000c0: af4f bcbd a41a 32bc 6eb8 113e 6325 413e
000000d0: 287e 4b3e 7106 dc3d 4859 3abe 1c36 90be
000000e0: 6e39 e6bd fff5 12be 5d99 8ebd 7523 04be
000000f0: a8c6 e8bd 7f64 d7bd 3e96 57be 2cad a63c
00000100: 55f3 2f3e e73d f53d db71 ae3e 2d9b 5f3e
00000110: 6d68 f3bc 967b 2a3e 83ab 7f3e 0ee8 8b3e
00000120: 736b 8b3d d0cd f9bb 4927 193d 613f 9d3e
00000130: 83fb 033e ff20 a13e 5328 7abd 76f5 95bd
00000140: ac04 973d c697 a8bc 264f 333e 9ac4 c23c
00000150: c5ec 853d c322 043d 8d02 183e a055 dcbd
00000160: baa7 e5bd fdb9 493c 0522 6ebe 00de 00bd
00000170: 5aa4 debd 7eae 7fbe d5bf dfbe 940f 8bbe
00000180: 3170 f93d 21a3 173c e930 713d 0fd1 59be
00000190: 868e 6abd 2eb2 8c3d 4f52 53be 6ebb 82ba
000001a0: 42f3 0cbe 9285 843d aa1f 5c3e d106 c8bc
000001b0: 5a78 703b 320c af3c e5ba 3dbd 592a 89be
000001c0: e920 ca3d 907a e33d f760 263d d877 0d3d
000001d0: eb1a a83e 6188 013e 46ac fb3d c85c 343e
000001e0: 7857 543d 54e5 ba3c d627 d23d 6f89 e03d
000001f0: 00ec 893d 7c42 9b3c 1164 a0bd e678 193e
00000200: e806 813e a678 dc3d eb1f e83d 2df2 923e
00000210: 6482 9fbe 3fec eabd 9677 183d 7e83 99bd
00000220: 64b4 643d 7e72 623e e33e dd3a 5091 103e
00000230: 8127 323e 6363 dd3d 6b7b a4bc 6142 2e3e
00000240: 3182 28bc d244 5abe 12c3 74be 82c5 3e3e
00000250: 8e62 853d e926 cdbc 7268 933d a0b6 273e
00000260: cf80 f53d 212c 7a3c 0a2e 82bc df84 bfbc
00000270: 33ce 243e 343b 6839 f8e2 a83d 0f6d 49bd
00000280: baa4 7a3d 7094 193e 12b6 c63c 9323 913e
00000290: c0c1 3c3b 25b7 1bbe 3050 7ebe a510 dc3b
000002a0: c4a4 143e bdeb 8a3e f061 643e cbbc f9bd
000002b0: a2ab c1bd 0142 d63d a2c7 663d 1481 6bbd
000002c0: c3aa 53bd eca2 e8bd 9c92 d33d ab9d 7cbc
000002d0: 930a 98bd 7139 16be 4835 babd 95b2 48be
000002e0: f2e8 1ebe bb30 99be 328d 41be a26d a9bd
000002f0: 5eb4 3bbd 57e2 7ebd bef1 95bd 1304 c5bc
00000300: 0071 8b3d 9a4e e2bd f1eb 9bbd 1c2d 20be
00000310: 07d3 5b3c ec07 983d 8e16 cfbd c5e8 ebbd
00000320: e466 143e 09b2 43bd 8d04 0e3a 7946 ad3d
00000330: 4fa7 203e 96da 293d 7a80 1ebe 601a 5bbd
00000340: 18de 9a3d 311d 67bd 3086 2c3d d2ec da3d
00000350: 2569 003d 7e40 31be 702a c0be fe01 87be
00000360: 9056 80bd d136 0c3d 2eab 7d3e d8f5 723e
00000370: 1a96 463e 893a bf3e 3b87 39be 395a 73be
00000380: b650 4bbd bdb4 f5bc f91f b43d bc24 1fbe
00000390: 7064 0d3e 5a08 ba3d ef08 e5bd 3736 6fbe
000003a0: e82f f3bb 583f de3d 7b7a 6c3d 7b42 a53b
000003b0: a08e bf3c e0db 923d 7fff dbbb f0c4 033d
000003c0: e791 d7bd d9f3 d7bc 8550 b3bc 0514 ea3c
000003d0: 70a0 a83d 027b 73bb 3dfc a0bd 55dc 20be
000003e0: af68 36bd c780 f7bc f101 223c 9f3f 8cbd
000003f0: 84a1 3a3e 41dd c23d 1a56 d9bd a35f 27be

conv3.bias f4 [32]
-0.26210964 -0.049826726 -0.019228978 -0.07479936 -0.30581373 0.053274456 -0.2523958 -0.12128066
-0.30456403 -0.15742788 -0.29899576 -0.200355 0.07120032 -0.24060568 -0.20277466 -0.2670024
-0.056807138 -0.0079947235 -0.29495737 -0.10678485 -0.24378952 0.025041416 -0.28968742 -0.034992673
-0.18622354 -0.13240582 -0.37577075 -0.30246308 -0.330757 -0.2855917 -0.18227842 -0.042697813
00000000: 3c33 86be 1c17 4cbd 1786 9dbc 6830 99bd
00000010: 9e93 9cbe 5136 5a3d 063a 81be ff61 f8bd
00000020: d1ef 9bbe c634 21be f915 99be dc29 4dbe
00000030: 79d1 913d 5661 76be 29a4 4fbe 8ab4 88be
00000040: 9aae 68bd 4dfc 02bc a704 97be 04b2 dabd
00000050: f6a3 79be a823 cd3c e951 94be 7a54 0fbd
00000060: 62b1 3ebe 6495 07be 0665 c0be 71dc 9abe
00000070: fb58 a9be 1339 92be 32a7 3abe e7e3 2ebd

bn3.weight f4 [32]
0.9241885 0.9266803 0.9519605 0.96973115 0.9155458 0.9601017 0.7235333 0.93167186
0.9161478 1.0462257 1.0842161 1.0106579 0.99547887 1.0373049 0.9293776 0.93894845
1.0102416 0.9727242 0.9734802 1.1113917 0.9615764 0.9806343 0.9588212 1.0160542
1.0415345 0.9119487 0.9276949 0.9339595 0.9338945 1.1180675 0.9506864 0.9937998
00000000: 9e97 6c3f ec3a 6d3f afb3 733f 4d40 783f
00000010: 3661 6a3f 3ac9 753f 7a39 393f 0c82 6e3f
00000020: aa88 6a3f b9ea 853f 98c7 8a3f 3d5d 813f
00000030: b4d7 7e3f 68c6 843f b1eb 6d3f ed5e 703f
00000040: 994f 813f 7404 793f 0036 793f 1542 8e3f
00000050: df29 763f d90a 7b3f 4e75 753f 100e 823f
00000060: 0151 853f 7875 693f 6a7d 6d3f f817 6f3f
00000070: b613 6f3f d61c 8f3f 2f60 733f aa69 7e3f

bn3.bias f4 [32]
0.3337914 0.08968857 0.057994887 0.41369656 0.19676664 0.10220856 0.15455572 -0.25641885
0.18855397 0.0363591 0.037542876 0.54721826 0.34575102 0.027403992 0.14779164 0.6058389
0.20172514 0.18067852 0.27150053 0.0662191 -0.01636157 0.14922476 -0.08341416 -0.3443434
0.3712197 0.22544362 -0.33310652 0.33886942 -0.009342875 0.2805751 -0.2107704 0.4638842
00000000: b5e6 aa3e a4ae b73d 0c8c 6d3d 09d0 d33e
00000010: 327d 493e b952 d13d db43 1e3e 5549 83be
00000020: 4b14 413e 48ed 143d 8fc6 193d 7f16 0c3f
00000030: 4706 b13e 567e e03c b156 173e 4218 1b3f
00000040: 0991 4e3e ca03 393e 1e02 8b3e e19d 873d
00000050: b308 86bc 60ce 183e 0bd5 aabd c74d b0be
00000060: 8210 be3e b1da 663e f08c aabe 4b80 ad3e
00000070: dc12 19bc 8aa7 8f3e 32d4 57be 3b82 ed3e

bn3.running_mean f4 [32]
0.47529045 0.61911744 1.2945534 0.8693777 0.36602256 0.694205 0.5393225 0.36736178
0.66270226 0.42138073 0.5218034 0.55943173 1.2177168 0.23934421 0.368295 0.6161065
0.55890954 0.93608075 0.54662734 1.3269552 0.35238668 0.8472295 0.056415167 0.72046655
0.30119383 0.42622513 0.6489105 0.1508851 0.47042623 0.49017942 0.39786616 1.0035825
00000000: 4559 f33e 7b7e 1e3f edb3 a53f 898f 5e3f
00000010: 4f67 bb3e 6bb7 313f 0a11 0a3f d816 bc3e
00000020: dba6 293f 37bf d73e e894 053f eb36 0f3f
00000030: 25de 9b3f a616 753e 2a91 bc3e 28b9 1d3f
00000040: b214 0f3f fda2 6f3f c5ef 0b3f abd9 a93f
00000050: 076c b43e 08e4 583f 9713 673d 7f70 383f
00000060: 1436 9a3e 2e3a da3e 001f 263f a081 1a3e
00000070: b5db f03e ccf8 fa3e 1db5 cb3e 6475 803f

bn3.running_var f4 [32]
1.5323001 1.170706 2.7772381 0.9329956 0.9771635 1.1686971 1.1543319 0.4219182
1.4112396 1.2953147 1.1812209 1.3643191 1.6036162 0.3903025 0.85597533 0.92053926
0.96888965 1.0483071 1.5134761 2.5522892 0.8224385 2.1168199 0.09287974 1.7475736
0.64270747 0.672517 1.6627417 0.425965 0.8029947 1.2259895 0.85410357 1.3519402
00000000: 6922 c43f b2d9 953f 45be 3140 cdd8 6e3f
00000010: 6327 7a3f de97 953f 26c1 933f aa05 d83e
00000020: 80a3 b43f dfcc a53f 3f32 973f 02a2 ae3f
00000030: 4c43 cd3f bbd5 c73e 3321 5b3f 76a8 6b3f
00000040: 2709 783f ed2e 863f 96b9 c13f b558 2340
00000050: 548b 523f fa79 0740 bc37 be3d 7eb0 df3f
00000060: 7a88 243f 132a 2c3f b8d4 d43f 1618 da3e
00000070: 1091 4d3f 39ed 9c3f 88a6 5a3f 600c ad3f

conv4.weight f4 [64, 32, 3, 3]
0.025322003 0.03188728 0.038495824 -0.091511615 -0.0420178 0.0017980621 -0.14303769 -0.0856276
-0.013253641 -0.119576246 -0.044396702 0.007804465 0.07518681 0.109629214 0.04361926 0.039282482
-0.03925675 -0.01718248 0.07539745 0.04530561 -0.02682896 0.07146614 0.11751057 0.13682203
-0.036530394 -0.05880894 0.12231746 -0.003344395 0.1157988 -0.06591517 -0.005959318 -0.036177643
-0.03237614 0.2201528 0.18072695 0.10593035 0.063914105 0.11990287 0.09968736 -0.0957111
-0.105165094 -0.0006142679 -0.055188987 -0.07928208 -0.124490716 0.071821496 0.044800103 -0.13538462
-0.10479023 -0.051359016 0.06461846 -0.08888235 0.013956552 -0.17337655 -0.023458913 0.07608005
-0.08520775 -0.013149819 -0.16532572 -0.2980959 -0.013303826 0.12859124 -0.057503115 0.15510021
0.1569547 0.09849927 0.12350737 0.14619257 0.03229967 -0.007445365 0.1462091 0.043634966
0.08777471 0.04311224 0.10253167 -0.010628775 0.048924427 0.1338493 0.20617728 0.10798708
0.067017645 0.06981393 0.22470169 0.16203883 -0.12741856 -0.16060542 -0.12753698 0.005488313
0.12929897 0.2005576 -0.13943191 -0.11368428 -0.0676658 0.039359335 -0.16725683 -0.17924856
0.04615861 -0.044257082 0.054402046 -0.000117906624 -0.106281884 -0.14674498 -0.045797653 0.07135306
0.15668713 0.005844948 0.042783234 0.006103912 0.034551125 0.15762107 0.092180595 -0.12609233
-0.19484963 -0.03266003 0.034701202 0.10258833 -0.13869658 0.21701849 0.12784673 0.18891546
0.19269282 0.23350443 -0.19371977 0.10063067 0.15767519 0.15959145 0.009857279 -0.06978841
-0.07844808 0.04648187 -0.22182454 0.009046911 0.12784888 0.16013144 0.19093443 -0.12381804
-0.1514993 -0.01989814 -0.054001004 -0.000415075 0.05762578 -0.037302025 -0.17946705 -0.0484406
-0.10680136 -0.094460934 -0.21861883 0.054148592 0.02703232 0.109351315 -0.027645955 0.059139498
0.07905408 0.08600629 -0.1753353 0.011831952 0.0454278 0.07940259 -0.01486452 -0.16668656
-0.15982324 -0.0036569983 0.059165727 -0.10536224 -0.097768664 -0.009054208 0.13483723 0.05199146
0.04367034 0.09121556 0.10472567 -0.38431993 -0.42632926 -0.37737215 -0.018164463 0.1449023
0.20000082 -0.28168818 -0.27972573 -0.25578272 -0.04910988 -0.13449176 -0.2208944 0.081714876
0.0630782 0.107015215 0.033262264 0.040552393 -0.010759931 0.11104356 0.041658375 0.26735458
-0.13705865 -0.31461856 -0.33925375 0.018759483 -0.11308385 0.023551378 0.12475926 0.0013740784
-0.07347344 -0.07803826 -0.097856954 -0.10920011 0.07385455 0.10686242 0.10525308 0.024137052
-0.006790492 0.06293691 -0.10270542 -0.03481402 -0.1624005 -0.12919241 -0.12836233 0.15940292
-0.041132525 0.08821046 0.020001322 0.16546734 0.12081345 -0.0068917805 -0.07595193 -0.019492276
-0.17020908 0.03253257 0.070473075 0.048146326 -0.002905249 -0.10198826 -0.051722944 0.048664246
0.11785786 0.2139813 0.02853606 0.119823314 -0.055391245 -0.08782757 -0.12823787 -0.09861547
0.044562023 0.020195846 0.052358977 0.01698598 -0.050048817 -0.13321236 -0.08595681 -0.15512949
0.012560804 0.031984136 0.050221894 -0.05872392 -0.06109908 -0.23592976 -0.08386118 0.13783824
00000000: 1770 cf3c 3d9c 023d ccad 1d3d 716a bbbd
00000010: db1a 2cbd f4ac eb3a 7978 12be 865d afbd
00000020: cd25 59bc 64e4 f4bd 51d9 35bd 99bc ff3b
00000030: 8bfb 993d 4885 e03d 1caa 323d abe6 203d
00000040: b0cb 20bd 46c2 8cbc fa69 9a3d 6092 393d
00000050: 68c8 dbbc d75c 923d 62a9 f03d 131b 0c3e
00000060: e5a0 15bd a5e1 70bd 9481 fa3d a32d 5bbb
00000070: ec27 ed3d 88fe 86bd 6246 c3bb 022f 14bd
00000080: d89c 04bd bc6f 613e 7c10 393e 03f2 d83d
00000090: 66e5 823d a38f f53d e328 cc3d 2e04 c4bd
000000a0: cc60 d7bd d206 21ba d90d 62bd a55e a2bd
000000b0: fdf4 febd 2617 933d 5080 373d 44a2 0abe
000000c0: 439c d6bd d55d 52bd af56 843d f307 b6bd
000000d0: 06aa 643c 9f89 31be e82c c0bc dbcf 9b3d
000000e0: 6781 aebd 5772 57bc 254b 29be 07a0 98be
000000f0: 4af8 59bc 6cad 033e 6388 6bbd 97d2 1e3e
00000100: bcb8 203e fcb9 c93d 6ff1 fc3d 81b3 153e
00000110: a94c 043d 40f8 f3bb d7b7 153e 94ba 323d
00000120: 3ac3 b33d 7696 303d 20fc d13d 5024 2ebc
00000130: fb64 483d ca0f 093e 2320 533e 5528 dd3d
00000140: 8c40 893d 9bfa 8e3d 3318 663e 82ed 253e
00000150: 037a 02be bf75 24be 0e99 02be 4ed7 b33b
00000160: f366 043e f95e 4d3e 3dc7 0ebe 4ed3 e8bd
00000170: 5e94 8abd 4137 213d 6045 2bbe ef8c 37be
00000180: d010 3d3d ea46 35bd aed4 5e3d a344 f7b8
00000190: 51aa d9bd 5144 16be 5296 3bbd 8e21 923d
000001a0: 9772 203e fa86 bf3b 793d 2f3d 5303 c83b
000001b0: 7b85 0d3d 6b67 213e 2ec9 bc3d 591e 01be
000001c0: a986 47be 86c6 05bd d922 0e3d d519 d23d
000001d0: 7a06 0ebe 183a 5e3e 41ea 023e 0e73 413e
000001e0: 4451 453e c91b 6f3e 7a5e 46be 7417 ce3d
000001f0: 9b75 213e f16b 233e 6d80 213c 3aed 8ebd
00000200: 63a9 a0bd c663 3e3d f925 63be 7f39 143c
00000210: d1ea 023e 7ff9 233e 5184 433e 5094 fdbd
00000220: a222 1bbe 6d01 a3bc 2830 5dbd 6c9e d9b9
00000230: 0309 6c3d 02ca 18bd 36c6 37be a769 46bd
00000240: acba dabd bc74 c1bd 9ddd 5fbe eaca 5d3d
00000250: e272 dd3c 95f3 df3d c579 e2bc 423c 723d
00000260: 1be7 a13d 1124 b03d 198b 33be ceda 413c
00000270: 8012 3a3d d39d a23d 518a 73bc e2af 2abe
00000280: b4a8 23be 40aa 6fbb c357 723d 28c8 d7bd
00000290: f03a c8bd 1a58 14bc c512 0a3e fff4 543d
000002a0: acdf 323d 39cf ba3d 697a d63d 95c5 c4be
000002b0: d447 dabe ec36 c1be a4cd 94bc 4561 143e
000002c0: 04cd 4c3e 6f39 90be 3638 8fbe f4f5 82be
000002d0: 7127 49bd 35b8 09be 2432 62be 215a a73d
000002e0: 252f 813d cb2a db3d 033e 083d 441a 263d
000002f0: 6c4a 30bc ce6a e33d f9a1 2a3d b3e2 883e
00000300: 1a59 0cbe af15 a1be abb2 adbe 7dad 993c
00000310: 8198 e7bd d2ee c03c c881 ff3d 6c1a b43a
00000320: 3e79 96bd 86d2 9fbd 3a69 c8bd 4fa4 dfbd
00000330: 0e41 973d afda da3d ed8e d73d 11bb c53c
00000340: c782 debb 11e5 803d 3857 d2bd 2599 0ebd
00000350: 514c 26be 044b 04be 6a71 03be 853a 233e
00000360: 947a 28bd b0a7 b43d d0d9 a33c 4570 293e
00000370: 0b6d f73d 72d4 e1bb af8c 9bbd 44ae 9fbc
00000380: 4a4b 2ebe df40 053d 3054 903d 1535 453d
00000390: fd65 3ebb 39df d0bd 70db 53bd 2954 473d
000003a0: 765f f13d ea1d 5b3e 75c4 e93c ed65 f53d
000003b0: eee1 62bd f1de b3bd ca50 03be e8f6 c9bd
000003c0: ab86 363d c271 a53c 5e76 563d 2f26 8b3c
000003d0: fdff 4cbd d268 08be 200a b0bd 44da 1ebe
000003e0: d5cb 4d3c cc01 033d 79b5 4d3d 7e88 70bd
000003f0: 0743 7abd 9297 71be 69bf abbd 7825 0d3e

conv4.bias f4 [64]
-0.066423506 -0.3870277 0.2171544 0.067501955 -0.4102338 -0.020347873 -0.26540503 -0.09922947
-0.12486185 -0.23102139 -0.31086588 0.10667477 -0.26385447 -0.48465827 -0.123925574 -0.30448207
0.035069805 0.060611248 -0.33583298 -0.2517038 -0.032492746 0.09911401 -0.65407276 -0.12810682
-0.18411724 -0.111025 -0.31361 0.31004637 -0.37114683 -0.16385435 -0.015362245 -0.017491145
-0.23918685 -0.023501573 -0.2775223 -0.46131364 -0.34770778 -0.29204926 -0.23054327 -0.48641077
-0.40157053 -0.28814858 -0.013802359 -0.23093179 -0.43093818 -0.26213193 -0.29679576 -0.21081716
-0.33568943 -0.20202483 0.05264207 -0.54655886 -0.14887628 -0.18492433 0.02408138 -0.19750728
-0.20593493 -0.20455395 -0.046949495 -0.086027876 -0.2520466 -0.08083716 -0.09896568 -0.33461714
00000000: 0c09 88bd 7f28 c6be b95d 5e3e 773e 8a3d
00000010: 2a0a d2be 95b0 a6bc 2be3 87be d238 cbbd
00000020: 92b7 ffbd df90 6cbe d029 9fbe 4d78 da3d
00000030: ef17 87be 2125 f8be b1cc fdbd 13e5 9bbe
00000040: 5ba5 0f3d 8043 783d 4df2 abbe 52df 80be
00000050: 1d17 05bd 49fc ca3d 5071 27bf 6f2e 03be
00000060: 3b89 3cbe 1361 e3bd 7d91 a0be 66be 9e3e
00000070: f506 bebe 6fc9 27be edb1 7bbc 9749 8fbc
00000080: 66ed 74be 5f86 c0bc 6717 8ebe 4d31 ecbe
00000090: c106 b2be 7b87 95be 8913 6cbe d50a f9be
000000a0: a79a cdbe 3688 93be 4a23 62bc 6279 6cbe
000000b0: eea3 dcbe 2836 86be 9df5 97be 74e0 57be
000000c0: 7cdf abbe 99df 4ebe 369f 573d 48eb 0bbf
000000d0: 0673 18be ce5c 3dbe 5046 c53c 593f 4abe
000000e0: 9be0 52be 9776 51be 1d4e 40bd 622f b0bd
000000f0: 410c 81be f48d a5bd 85ae cabd f052 abbe

bn4.weight f4 [64]
2.0321243 2.361436 2.8128073 2.0680113 2.4680007 2.2985587 2.2575388 2.4331048
2.6290593 2.4747462 3.1046658 2.0382767 2.6644104 2.8880599 2.9793324 2.5822237
3.4156206 2.790032 2.741501 3.1020641 2.9323988 2.5552742 2.8936865 2.7126107
2.7836213 2.839492 2.8593974 2.0942771 2.843322 1.9271327 2.4645457 2.78964
2.0651166 2.246921 2.85123 2.2782428 3.2788856 2.3958554 2.3293054 2.7052634
2.8283741 3.0307562 2.3845375 3.1381993 2.8647978 3.189653 2.3063562 2.197832
2.5908747 2.9918475 2.782436 3.494306 3.2545822 3.2523646 2.8243961 2.5791268
2.3897603 2.3277278 1.9862419 2.6688862 2.6774821 2.7641387 2.304052 2.7631807
00000000: 530e 0240 c421 1740 0905 3440 4c5a 0440
00000010: b9f3 1d40 961b 1340 847b 1040 fdb7 1b40
00000020: 8242 2840 3e62 1e40 d8b2 4640 2073 0240
00000030: b385 2a40 f9d5 3840 62ad 3e40 2743 2540
00000040: 8799 5a40 e28f 3240 c174 2f40 3888 4640
00000050: 6cac 3b40 9d89 2340 2932 3940 6a9b 2d40
00000060: da26 3240 3dba 3540 5e00 3740 a308 0640
00000070: fdf8 3540 49ac f63f 1ebb 1d40 7689 3240
00000080: df2a 0440 8ecd 0f40 8d7a 3640 bbce 1140
00000090: 43d9 5140 b255 1940 5713 1540 0923 2d40
000000a0: 1504 3540 e9f7 4140 439c 1840 42d8 4840
000000b0: d958 3740 4623 4c40 579b 1340 48a9 0c40
000000c0: e4d0 2540 6e7a 3f40 6e13 3240 b6a2 5f40
000000d0: 134b 5040 be26 5040 e8c2 3440 6a10 2540
000000e0: d5f1 1840 7ef9 1440 2d3d fe3f 08cf 2a40
000000f0: de5b 2b40 a6e7 3040 9775 1340 f4d7 3040

bn4.bias f4 [64]
0.2348782 -0.2718906 0.22536963 0.15823042 -0.3581127 0.28042963 0.15081775 0.16436249
0.22262298 0.20003866 -0.22774425 0.18299517 0.1187399 0.14106125 -0.28943914 0.18362974
0.3289384 0.24002412 -0.21661769 -0.2189475 -0.106177695 0.24118735 0.18011919 0.3253506
-0.14299169 -0.1309438 0.18995102 0.19358474 -0.19417259 0.12737887 -0.18808511 -0.2558718
0.07878054 -0.23871475 0.29743797 0.1817296 0.21821308 -0.186558 -0.29788214 -0.14816886
-0.25073758 -0.19489987 0.26020816 -0.16405642 -0.24795939 0.13144276 0.18205924 0.20864436
-0.10383418 -0.17750062 0.19710457 -0.16690862 0.32401884 -0.20778051 0.23247981 0.012199998
-0.35672185 0.16578321 0.16646862 -0.20941556 -0.37159052 -0.11038572 0.20823082 -0.22710474
00000000: e983 703e 3f35 8bbe 4cc7 663e 2807 223e
00000010: 8c5a b7be 7994 8f3e f86f 1a3e a44e 283e
00000020: 47f7 633e efd6 4c3e ca35 69be 1663 3b3e
00000030: e82d f33d 5c72 103e 5e31 94be 6f09 3c3e
00000040: 9d6a a83e e2c8 753e 07d1 5dbe c633 60be
00000050: b173 d9bd d1f9 763e 2a71 383e 5b94 a63e
00000060: 6a6c 12be 2216 06be 8582 423e 143b 463e
00000070: 2ed5 46be 9b6f 023e 6299 40be a101 83be
00000080: b157 a13d a471 74be ca49 983e 5317 3a3e
00000090: 4073 5f3e 0f09 3fbe 0284 98be 94b9 17be
000000a0: ad60 80be d593 47be 013a 853e 68fe 27be
000000b0: 11e9 7dbe ee98 063e bd6d 3a3e dea6 553e
000000c0: 04a7 d4bd b9c2 35be c8d5 493e 18ea 2abe
000000d0: cce5 a53e 6ac4 54be 300f 6e3e 80e2 473c
000000e0: 3fa4 b6be 13c3 293e c076 2a3e 0871 56be
000000f0: 1d41 bebe e911 e2bd 763a 553e 258e 68be

bn4.running_mean f4 [64]
0.6016719 0.24274144 0.17488256 0.5707293 0.123198345 0.20580591 0.21069361 0.20049378
0.22835864 0.12864228 0.14454107 0.47077957 0.12148602 0.09300543 0.11085708 0.14443915
0.09230674 0.10125993 0.067922145 0.11558949 0.08957272 0.5870815 0.071417674 0.040329892
0.10564213 0.13260472 0.07162157 0.6133423 0.07590712 0.38905793 0.34351364 0.12609918
0.20840023 0.6294668 0.034831204 0.45072544 0.07544025 0.046750322 0.6642407 0.10753851
0.06019191 0.06665825 0.25170743 0.06609507 0.09044456 0.13732429 0.31079113 0.67768186
0.092922576 0.07730569 0.17473303 0.04302537 0.0630215 0.055910803 0.07742946 0.065001175
0.27154285 0.119233534 0.69159275 0.13274829 0.10156439 0.12143639 0.19555402 0.102742456
00000000: 2b07 1a3f 3691 783e 6a14 333e 511b 123f
00000010: 6a4f fc3d c9be 523e 11c0 573e 3e4e 4d3e
00000020: d9d6 693e cdba 033e 9302 143e 050a f13e
00000030: aacd f83d a279 be3d 0909 e33d dbe7 133e
00000040: 510b bd3d 5e61 cf3d c41a 8b3d 2fba ec3d
00000050: e771 b73d f94a 163f 6e43 923d f530 253d
00000060: e75a d83d 88c9 073e 54ae 923d 0004 1d3f
00000070: 3175 9b3d 9a32 c73e 05e1 af3e 2520 013e
00000080: df66 553e bc24 213f 2aab 0e3d 7cc5 e63e
00000090: 6b80 9a3d 447d 3f3d ae0b 2a3f 263d dc3d
000000a0: cb8b 763d 1f84 883d ccdf 803e da5c 873d
000000b0: ff3a b93d bd9e 0c3e 0420 9f3e 8f7c 2d3f
000000c0: 314e be3d 7252 9e3d 37ed 323e 5f3b 303d
000000d0: 6b11 813d ba02 653d 5693 9e3d 561f 853d
000000e0: aa07 8b3e b630 f43d 390c 313f 2bef 073e
000000f0: fe00 d03d a4b3 f83d 503f 483e a36a d23d

bn4.running_var f4 [64]
1.4418694 0.51336694 0.2539007 1.1358185 0.21620737 0.25981063 0.508422 0.3656031
0.4849396 0.19817 0.21545413 0.9347606 0.2195364 0.19466612 0.26442325 0.30108723
0.16002764 0.16907774 0.13137333 0.29893833 0.21296386 0.79588866 0.17572369 0.07453624
0.31550455 0.2908082 0.12990597 1.3098487 0.103367776 0.85296255 0.57825094 0.21981148
0.44816247 0.7350066 0.06771924 0.88860667 0.13062476 0.09938914 1.2136488 0.30608037
0.099986345 0.12809096 0.45136064 0.13310866 0.1572234 0.24170823 0.6031076 1.4148215
0.21550407 0.152385 0.2732772 0.07901845 0.11749783 0.11107379 0.10696325 0.15561226
0.6250043 0.19909783 1.6409532 0.20986944 0.19433959 0.25370985 0.3692351 0.20887451
00000000: 2d8f b83f 046c 033f 46ff 813e 8062 913f
00000010: 7765 5d3e e605 853e f227 023f 5430 bb3e
00000020: 014a f83e 14ed 4a3e 02a0 5c3e 784c 6f3f
00000030: 26ce 603e 8e56 473e 7c62 873e 1b28 9a3e
00000040: 49de 233e b722 2d3e bb86 063e 720e 993e
00000050: 3313 5a3e 5cbf 4b3f e9f0 333e 75a6 983d
00000060: d089 a13e d0e4 943e 1206 053e 1fa9 a73f
00000070: 7cb2 d33d c15b 5a3f 4108 143f 4316 613e
00000080: 8d75 e53e 6429 3c3f 63b0 8a3d ba7b 633f
00000090: 7fc2 053e 898c cb3d d858 9b3f 91b6 9c3e
000000a0: a4c5 cc3d 472a 033e be18 e73e a34d 083e
000000b0: 2cff 203e 5d82 773e 4265 1a3f df18 b53f
000000c0: 19ad 5c3e d00a 1c3e fdea 8b3e 6dd4 a13d
000000d0: b4a2 f03d a87a e33d 8c0f db3d d258 1f3e
000000e0: 4800 203f 4de0 4b3e c10a d23f 04e8 563e
000000f0: f500 473e 42e6 813e 620c bd3e 33e3 553e

lin.weight f4 [10, 64]
0.40112382 0.098175146 -0.1374344 0.44171003 0.7347096 -0.2046968 0.7288758 0.8485665
0.07250684 0.609766 -0.5014256 0.45851398 0.594493 0.6302556 -0.10983065 0.508337
-0.71113044 -0.5425763 0.26779062 -0.61232543 -1.326765 0.62774247 0.81418574 -0.6143086
-1.0058522 -1.0229677 0.6604389 0.2230164 -0.5594851 0.6114522 -0.59625876 -0.7295577
0.72999185 -0.047202084 -0.66782856 0.7408737 0.7485256 -0.088862255 0.5780723 -0.5783031
-0.37075597 -0.516998 -0.15110469 -0.7686149 -0.54818225 0.6125483 0.6206541 0.468019
-0.9784066 -0.74108434 0.30827534 -0.84146893 -1.0159223 -0.5859832 -0.060072836 -1.113353
0.44233507 0.7879582 0.4666095 -0.58569175 0.6942778 -1.147599 0.6797147 -0.079231516
0.3569289 -0.5890802 0.32286873 0.26624805 -0.57548773 0.6692842 -0.21860333 -0.02772187
-1.3532729 0.49566644 -0.93454665 -0.036449116 -1.7533695 -1.4892414 -0.81265336 -0.4075104
0.28785577 0.6004587 0.69702756 -0.53461015 0.47089684 0.058331013 0.56219757 0.87351406
0.73415834 0.6832981 -1.0126112 0.1761389 -0.06882809 -0.2417426 -0.40501845 -0.27854845
-0.81241024 -0.21478999 0.9895044 -0.21718211 -0.6152123 0.8609521 -0.5534439 1.2666532
1.0969222 -0.31984577 0.594565 1.0373966 -0.9552157 -1.5450667 0.54728913 0.4792179
1.1140335 0.5733604 -0.19027989 -0.0020187274 0.92878425 -0.9000523 -0.29538316 1.3487372
-0.4515526 -0.21997124 0.42948246 -0.034179136 -0.43933025 0.9075897 -1.0259084 -0.38244486
-0.30070573 1.5153669 -1.1664978 -0.5884203 -0.28800896 -1.0742319 -0.9407415 -0.8530717
0.4975554 -1.2514676 -0.30247056 -1.5382295 -0.33836296 -0.99011546 -0.27332193 0.80023885
-1.1448047 -0.45359033 -0.03326535 -0.7508026 -0.29442796 0.38849962 -0.10769519 -0.3285875
0.8023878 0.48693967 0.97496635 -1.0718833 2.103218 -0.87004846 0.96359944 -0.2649973
-0.3528816 1.0386709 -0.36366907 -0.37020254 1.1001501 -0.4058581 -0.23155734 -0.19936801
0.07006472 -0.37281245 -0.911164 0.7670037 -0.22550812 -0.30034938 -0.18477222 -0.006602099
-0.13368288 -0.53474873 -0.796365 1.9782523 -0.39801505 0.6502537 -1.3733349 -0.21894889
0.32673648 -0.909966 -0.63702196 0.9792497 -0.23776971 -0.3345008 0.36004043 -0.44177824
-0.02067181 0.073722824 0.7159945 0.37831426 -0.13020787 -0.04108585 0.25066003 -0.338525
0.5462657 -0.71291023 1.9087163 -0.025794744 1.0208402 0.80560166 0.4753245 0.30835068
0.9357483 0.6665641 -0.80047655 0.5794383 1.1294556 -1.2387104 -1.6617055 0.17095387
0.13990048 0.8425509 -0.17905101 0.54939806 -0.029327234 0.22545555 -0.124778084 1.6831294
-0.4215482 -0.7178817 0.009659945 -0.3738583 -0.7403146 -0.3934649 -0.30741712 -0.6219599
-0.40661532 -0.39463428 0.14937732 -0.40513864 1.7847822 0.9974321 -0.94714415 -0.60757804
0.1759885 -0.42868626 0.7170078 0.6036293 0.021798229 1.0385704 1.0279013 -0.18243931
-0.18753135 0.020086754 -0.002538759 -0.3736896 -0.36023602 0.6914427 -0.3688878 -0.6844421
00000000: 1a60 cd3e 0d10 c93d 9abb 0cbe d127 e23e
00000010: ee15 3c3f 0a9c 51be 9b97 3a3f a73b 593f
00000020: 777e 943d a019 1c3f 6e5d 00bf 58c2 ea3e
00000030: b130 183f 6e58 213f e4ee e0bd 6022 023f
00000040: a50c 36bf 48e6 0abf da1b 893e 5cc1 1cbf
00000050: 6fd3 a9bf bbb3 203f 7a6e 503f 5443 1dbf
00000060: c4bf 80bf 9bf0 82bf 8612 293f 695e 643e
00000070: 6a3a 0fbf 2288 1c3f 6aa4 18bf 4bc4 3abf
00000080: bfe0 3a3f f956 41bd d0f6 2abf e6a9 3d3f
00000090: 609f 3f3f 6afd b5bd 8cfc 133f ac0b 14bf
000000a0: bad3 bdbe fb59 04bf 30bb 1abe f2c3 44bf
000000b0: ac55 0cbf f7cf 1c3f 30e3 1e3f 30a0 ef3e
000000c0: db78 7abf b4b7 3dbf 44d6 9d3e 826a 57bf
000000d0: be09 82bf ff02 16bf ef0e 76bd 5a82 8ebf
000000e0: be79 e23e a1b7 493f 71e7 ee3e e5ef 15bf
000000f0: 31bc 313f 86e4 92bf c801 2e3f 2244 a2bd
00000100: 63bf b63e f6cd 16bf 0d4f a53e aa51 883e
00000110: 2a53 13bf 3656 2b3f 8dd9 5fbe fa18 e3bc
00000120: 0c38 adbf fec7 fd3e 733e 6fbf ab4b 15bd
00000130: 696e e0bf 769f bebf 0d0a 50bf 34a5 d0be
00000140: d561 933e a9b7 193f 6670 323f 36dc 08bf
00000150: 6419 f13e 80ec 6e3d 2eec 0f3f 9e9e 5f3f
00000160: cdf1 3b3f a0ec 2e3f 3e9d 81bf c15d 343e
00000170: bef5 8cbd 5f8b 77be 945e cfbe e79d 8ebe
00000180: 1efa 4fbf e8f1 5bbe 2950 7d3f fd64 5ebe
00000190: 8e7e 1dbf 5b67 5c3f 80ae 0dbf b121 a23f
000001a0: f267 8c3f d3c2 a3be 6935 183f 69c9 843f
000001b0: 0489 74bf bfc4 c5bf 241b 0c3f 0c5c f53e
000001c0: a698 8e3f bfc7 123f bbd8 42be a04c 04bb
000001d0: cec4 6d3f d469 66bf 763c 97be 6ca3 ac3f
000001e0: e731 e7be 2440 61be 20e5 db3e 6cff 0bbd
000001f0: e5ef e0be cc57 683f f750 83bf d0cf c3be
00000200: 1af6 99be 8bf7 c13f cd4f 95bf b6a2 16bf
00000210: e975 93be 6e80 89bf 6fd4 70bf e862 5abf
00000220: 95bf fe3e 1730 a0bf 6cdd 9abe b4e4 c4bf
00000230: e93d adbe 3578 7dbf daf0 8bbe 74dc 4c3f
00000240: f688 92bf fe3c e8be 3f41 08bd 9934 40bf
00000250: 43bf 96be 6ce9 c63e 4c8f dcbd 9f3c a8be
00000260: 4969 4d3f 2850 f93e 6597 793f 7933 89bf
00000270: 209b 0640 7fbb 5ebf 74ae 763f baad 87be
00000280: e6ac b4be 2bf3 843f d532 babe 308b bdbe
00000290: b8d1 8c3f a2cc cfbe 5e1d 6dbe 2127 4cbe
000002a0: 187e 8f3d 46e1 bebe 0b42 69bf 5b5a 443f
000002b0: 9aeb 66be 65c7 99be ee34 3dbe 6c56 d8bb
000002c0: 2ae4 08be 4be5 08bf 94de 4bbf 5f37 fd3f
000002d0: a1c8 cbbe 0777 263f 70c9 afbf 2334 60be
000002e0: 014a a73e 88f3 68bf df13 23bf 1cb0 7a3f
000002f0: e779 73be b043 abbe 3857 b83e c230 e2be
00000300: ed57 a9bc fefb 963d 6a4b 373f 68b2 c13e
00000310: 3655 05be a349 28bd 8356 803e 2653 adbe
00000320: 12d8 0b3f 4981 36bf d150 f43f 804f d3bc
00000330: e4aa 823f e93b 4e3f bc5d f33e 24e0 9d3e
00000340: 338d 6f3f f2a3 2a3f 08ec 4cbf 1256 143f
00000350: 0092 903f 108e 9ebf c4b2 d4bf 880e 2f3e
00000360: 1242 0f3e 6ab1 573f 2659 37be 5aa5 0c3f
00000370: ab3f f0bc d2dd 663e a78b ffbd c970 d73f
00000380: 2ad5 d7be 18c7 37bf bf44 1e3c 5b6a bfbe
00000390: 4285 3dbf 3b74 c9be c765 9dbe c438 1fbf
000003a0: e22f d0be 810d cabe 5ef6 183e 556e cfbe
000003b0: be73 e43f b657 7f3f 0a78 72bf 3c8a 1bbf
000003c0: 5436 343e c47c dbbe d38d 373f 7387 1a3f
000003d0: 3392 b23c e0ef 843f 4592 833f 5fd1 3abe
000003e0: 3808 40be fa8c a43c 4f61 26bb 3e54 bfbe
000003f0: db70 b8be 6402 313f ddde bcbe 9937 2fbf

lin.bias f4 [10]
0.08796784 0.032892466 0.060242757 0.020756945 0.06595488 -0.39858207 -0.2750602 -0.3205217
-0.38418666 -0.18511502
00000000: 7c28 b43d 40ba 063d 1cc1 763d 780a aa3c
00000010: 5a13 873d f312 ccbe b1d4 8cbe 6c1b a4be
00000020: 1db4 c4be cb8e 3dbe
