NCC_Code/models/2022-08-26_15-41-51_model.pt (torch, 115275 bytes, 50 tensors)

conv1.weight f4 [8, 2, 5, 5]
0.20922808 -0.23048337 0.20803471 -0.1771879 -0.26096237 -0.0787864 -0.31590137 -0.31075788
-0.11415875 0.24567454 0.038420923 0.40952474 0.21252121 0.27757952 0.092234194 0.26113644
0.65728074 0.5670349 0.20805697 0.074317954 -0.15566713 -0.16580653 -0.18476945 -0.19686018
-0.100969374 -0.3809572 -0.050289333 -0.453593 -0.24083188 -0.06296863 -0.021643732 0.15357743
0.048284523 -0.20007642 -0.35738507 0.25297192 0.016131496 0.25264883 0.06623994 -0.10714742
0.43586227 0.26846763 -0.044443306 0.64879775 0.5087499 -0.011064095 0.03936209 0.24514395
0.05556798 -0.080512695 0.02949421 0.41425788 0.27753183 0.50530595 0.3646646 0.13191743
-0.03279415 -0.038948346 0.038744174 -0.060035996 -0.093879454 -0.15788192 -0.05298659 -0.12062442
0.37454596 -0.029198859 -0.0019208877 0.054389227 0.023045821 -0.18283224 0.04055802 0.1378298
0.08192068 -0.01619642 -0.023848962 0.47027382 0.5365064 0.567315 0.3009856 0.04634383
-0.16796769 -0.1540085 -0.077587835 -0.18928918 -0.097172834 0.04573148 -0.0027816687 -0.13850856
-0.07188923 -0.47926706 0.06378316 -0.18045978 -0.21138382 -0.18612786 -0.045757484 -0.03132862
-0.19370599 -0.20371315 -0.102693304 -0.06886068 -0.37713394 -0.020168578 -0.079156764 -0.27485394
0.06870644 -0.07447399 -0.1555889 -0.25740454 -0.0004935396 -0.04555144 -0.14076084 -0.31779888
-0.22090463 0.03410226 -0.38253295 -0.17307006 -0.13705704 0.2239215 0.14481336 0.42977193
-0.13719246 0.19270518 0.4014635 0.5049991 0.2174654 -0.14979121 -0.2788053 0.17444871
0.077076346 -0.008145793 -0.24037695 -0.13347845 -0.1532713 0.026128002 -0.14765629 -0.38733086
-0.1530016 0.20681193 -0.21879835 0.36487523 -0.0891835 -0.12567253 -0.3241583 0.018057697
0.25545803 -0.30283412 0.29756096 0.28440803 0.45989704 0.12827376 -0.05254693 0.0870496
-0.07309215 0.4183746 0.090225026 -0.30954978 -0.39609104 0.005491696 -0.1506706 -0.13891928
-0.052345604 0.039944462 0.30844334 0.20446423 0.2073531 -0.2714509 -0.015250697 0.31153157
0.028690623 0.008330461 0.18057995 0.0033868123 0.20809403 0.32402754 0.4686225 0.13456687
0.02386237 0.23572993 0.05077695 0.24749686 -0.04661165 -0.13067837 -0.55851126 -0.2620436
-0.23883747 0.12663345 0.0792812 -0.07992475 0.29064175 0.18864149 0.103171326 0.29777923
0.34405947 0.16323057 0.09934182 -0.13414298 0.2439441 -0.11386347 0.32730994 0.31107098
-0.057053138 0.026587192 -0.15267998 -0.24360742 0.043969974 -0.007045855 -0.24922103 0.10453319
-0.11345286 0.1239715 0.14623477 0.08726748 0.100944474 -0.026211988 -0.029205412 0.13154037
-0.15811454 -0.16015553 -0.15555608 -0.18853588 0.26927647 0.3454203 0.18595116 0.48374456
0.3249717 -0.12947084 -0.4868472 -0.09979786 -0.1275697 -0.45314655 -0.040577326 0.024519823
-0.24628791 -0.010604912 -0.123166226 -0.1213302 -0.03862295 0.112107486 0.1122615 0.15313919
-0.29809532 0.041479602 -0.1069472 -0.16229385 -0.096657276 0.57527965 0.26792243 0.5741344
-0.07650119 -0.18452266 -0.15027845 -0.15671158 -0.42423385 -0.33724755 0.45207152 -0.18839942
00000000: e33f 563e d503 6cbe 0d07 553e bf70 35be
00000010: dc9c 85be c45a a1bd d3bd a1be a81b 9fbe
00000020: 10cc e9bd 1b92 7b3e 425f 1d3d 3aad d13e
00000030: 299f 593e e71e 8e3e 48e5 bc3d adb3 853e
00000040: 8d43 283f 3329 113f e30c 553e 0334 983d
00000050: 3467 1fbe 30c9 29be 3434 3dbe b795 49be
00000060: 08c9 cebd d20c c3be 30fc 4dbd 573d e8be
00000070: a29c 76be b2f5 80bd 324e b1bc 6743 1d3e
00000080: fec5 453d d5e0 4cbe 2dfb b6be 8985 813e
00000090: 3326 843c 305b 813e cea8 873d 1b70 dbbd
000000a0: 5729 df3e 9774 893e 2f0a 36bd 9c17 263f
000000b0: 6f3d 023f 2e46 35bc 253a 213d 0407 7b3e
000000c0: 409b 633d d7e3 a4bd d79d f13c 9c19 d43e
000000d0: a718 8e3e bb5b 013f 52b5 ba3e 5d15 073e
000000e0: 2953 06bd 4d88 1fbd 36b2 1e3d 4ee8 75bd
000000f0: df43 c0bd ccab 21be 7708 59bd f009 f7bd
00000100: 7dc4 bf3e 7232 efbc 4cc6 fbba 3dc7 5e3d
00000110: 97ca bc3c 6038 3bbe 2b20 263d 4123 0d3e
00000120: 08c6 a73d 5bae 84bc e65e c3bc bbc7 f03e
00000130: 7c58 093f 8e3b 113f c91a 9a3e 07d3 3d3d
00000140: b9ff 2bbe 67b4 1dbe 5fe6 9ebd 06d5 41be
00000150: 8d02 c7bd ef50 3b3d a84c 36bb 30d5 0dbe
00000160: a93a 93bd 7e62 f5be bfa0 823d 73ca 38be
00000170: 0075 58be 4d98 3ebe 336c 3bbd 7052 00bd
00000180: dd5a 46be 2e9a 50be de50 d2bd d406 8dbd
00000190: b317 c1be 9338 a5bc f11c a2bd a8b9 8cbe
000001a0: f6b5 8c3d d285 98bd b252 1fbe 87ca 83be
000001b0: e260 01ba 2694 3abd 9c23 10be 89b6 a2be
000001c0: d334 62be d0ae 0b3d 5cdb c3be 4739 31be
000001d0: ae58 0cbe ad4b 653e f449 143e 110b dc3e
000001e0: 2e7c 0cbe 8254 453e a08c cd3e 9f47 013f
000001f0: 40af 5e3e de62 19be 91bf 8ebe afa2 323e
00000200: 34da 9d3d ef75 05bc 6025 76be 93ae 08be
00000210: 27f3 1cbe 640a d63c 3633 17be 3b50 c6be
00000220: 74ac 1cbe 82c6 533e ad0c 60be edd0 ba3e
00000230: d7a5 b6bd 4db0 00be 14f8 a5be bced 933c
00000240: 65cb 823e 130d 9bbe e959 983e ee9d 913e
00000250: a077 eb3e 325a 033e 733b 57bd 1047 b23d
00000260: 56b1 95bd 3235 d63e e6c7 b83d 4f7d 9ebe
00000270: 72cc cabe aff3 b33b 6549 1abe db40 0ebe
00000280: 5868 56bd ce9c 233d 49ec 9d3e 125f 513e
00000290: 5f54 543e 9dfb 8abe 0fde 79bc 1181 9f3e
000002a0: 9908 eb3c 7c7c 083c f3e9 383e 48f5 5d3b
000002b0: 9a16 553e f0e6 a53e 4aef ef3e e6cb 093e
000002c0: 047b c33c 3063 713e 7efb 4f3d d16f 7d3e
000002d0: dceb 3ebd 8dd0 05be 98fa 0ebf 942a 86be
000002e0: cf91 74be 33ac 013e 2f5e a23d 96af a3bd
000002f0: ffce 943e 3c2b 413e 7d4b d33d 8576 983e
00000300: 9028 b03e ea25 273e b973 cb3d c75c 09be
00000310: 7bcc 793e 4031 e9bd 2b95 a73e b244 9f3e
00000320: 8db0 69bd 62cd d93c 2458 1cbe 3974 79be
00000330: dc19 343d eae0 e6bb cc33 7fbe 7f15 d63d
00000340: f959 e8bd c5e4 fd3d 91be 153e 4bb9 b23d
00000350: fabb ce3d 86ba d6bc 3040 efbc 85b2 063e
00000360: c7e8 21be d0ff 23be 184a 1fbe 8d0f 41be
00000370: 9bde 893e eeda b03e fb69 3e3e 5ead f73e
00000380: b162 a63e 0194 04be 0944 f9be d262 ccbd
00000390: a2a1 02be d302 e8be 6934 26bd ccdd c83c
000003a0: e632 7cbe 3ac0 2dbc 933e fcbd f87b f8bd
000003b0: 1933 1ebd 9c98 e53d 5be9 e53d 85d0 1c3e
000003c0: f39f 98be 84e6 293d 2207 dbbd 5c30 26be
000003d0: 40f4 c5bd 8745 133f 212d 893e 79fa 123f
000003e0: a8ac 9cbd 82f3 3cbe 98e2 19be 0079 20be
000003f0: 2e35 d9be b6ab acbe eb75 e73e c7eb 40be

conv1.bias f4 [8]
-0.4663679 -0.3941311 0.46477002 -0.3249343 0.07433227 0.23360416 -0.20363687 -0.74950457
00000000: c6c7 eebe 8dcb c9be 56f6 ed3e ca5d a6be
00000010: 843b 983d ee35 6f3e 2f86 50be 88df 3fbf

bn1.weight f4 [8]
1.3143666 1.0125308 0.7190639 0.93257123 0.75586814 0.5940362 0.7932629 1.1837895
00000000: 2a3d a83f 9c9a 813f 9214 383f fdbc 6e3f
00000010: 9380 413f c212 183f 4713 4b3f 6a86 973f

bn1.bias f4 [8]
0.06517604 -0.20790309 -0.19068289 -0.19562538 -0.025950504 0.45982724 -0.19836043 -0.41526383
00000000: 047b 853d 8ce4 54be 6042 43be 0552 48be
00000010: 2796 d4bc 7a6e eb3e ff1e 4bbe 769d d4be

bn1.running_mean f4 [8]
0.5625173 0.3834319 0.994475 0.76121336 0.4591805 1.6592554 0.4743587 0.5189327
00000000: 2201 103f 3051 c43e ea95 7e3f e1de 423f
00000010: b519 eb3e 7b62 d43f 25df f23e c6d8 043f

bn1.running_var f4 [8]
2.8501513 0.8627271 1.5551072 4.43937 0.57198375 2.3200045 0.8054464 2.2368093
00000000: e168 3640 afdb 5c3f c10d c73f 520f 8e40
00000010: 876d 123f f47a 1440 bc31 4e3f e227 0f40

conv2.weight f4 [16, 8, 3, 3]
-0.26852745 0.039661434 -0.12202086 -0.14185783 -0.27646956 -0.16446462 0.11296311 0.10474758
-0.08714766 -0.052301764 0.01808981 -0.10294433 0.006866633 -0.006632598 0.19072516 -0.13984817
-0.28270385 -0.2554015 0.1595003 0.23604834 -0.04652744 0.045213822 0.09735883 -0.0105448
-0.037699908 0.09600174 0.29635525 -0.119896926 0.016226364 -0.034866214 0.18468742 0.19530587
-0.015103608 -0.032860063 -0.3365154 -0.118666925 0.088848636 0.16434261 0.103836045 0.16081019
0.06837368 0.26812404 0.012105006 0.009479473 -0.101409025 -0.17577815 0.059393432 -0.1395646
0.026203716 0.07981589 0.09767257 0.11101342 -0.011007421 -0.16971906 0.18723229 0.20939669
0.09295897 0.35859063 0.4186415 0.22931229 -0.14681792 -0.32493016 -0.10821488 0.21308513
0.13610926 -0.010785584 0.39848605 0.39106318 0.00961694 -0.54985756 -0.34028396 -0.35228413
-0.027118359 0.11381606 0.22682716 0.35706127 0.48225117 0.33154893 -0.19327301 -0.124095365
0.01625974 0.11421042 0.05958418 0.07288706 0.08452435 -0.2925628 0.0006740361 0.17513402
0.1349183 0.0054126945 -0.035681512 0.00063345727 0.11643077 -0.12963805 -0.10547538 0.17497437
0.054651987 -0.091935724 -0.108371794 -0.17437524 0.11568503 0.0070900265 0.26451412 -0.035270367
0.03784076 0.22582977 -0.014598038 0.12462741 0.28910875 0.04923865 0.071817145 0.057283845
-0.108817875 -0.16333619 0.23582797 -0.14096242 0.0076416275 -0.42627266 0.0648111 -0.09265747
-0.38513196 0.1329935 0.3806628 -0.21164316 -0.13314137 0.08354366 0.15736441 0.014476827
0.18129921 0.017382886 -0.022683242 0.16513534 -0.032955717 0.07487467 0.019578964 0.39682353
0.42955133 0.21593753 0.5183197 0.20563282 0.37883526 0.010986191 0.13840976 0.19951805
-0.116657436 -0.14939147 -0.23232706 -0.39202657 -0.31458992 -0.26069778 0.2166506 0.09850988
0.3202587 0.29248643 0.21042168 0.44066447 -0.19899513 0.0108648045 -0.10949083 0.062577814
-0.15454747 -0.018983578 -0.16018239 -0.016742095 0.02273636 0.09383449 0.009018002 0.07238613
-0.25961095 -0.20295563 -0.032133542 -0.109048255 -0.09477014 -0.09804296 -0.11379067 -0.14526254
-0.26396644 0.39035842 0.13580053 0.062048122 -0.034498293 0.07213647 0.023076188 0.0039353254
-0.11952833 -0.23218827 0.000773233 -0.018091891 0.021181555 -0.11705926 0.049149953 0.018544976
-0.17102206 -0.10323158 -0.10228944 -0.112837866 -0.20907865 -0.19282813 -0.14518888 -0.11631174
-0.04013617 -0.25153375 -0.13550274 -0.035257023 0.21904817 0.10423723 0.103175305 -0.09068932
0.42522177 0.18683052 -0.10445144 -0.20903262 -0.18091442 0.52172965 0.40419072 0.18549202
-0.18784422 -0.14436269 -0.21551192 0.15857798 0.16856597 0.36345 0.144758 0.12519643
0.06202432 -0.15939462 -0.19468807 0.01035704 -0.08803417 -0.17488483 0.096617796 -0.08601505
-0.2837414 0.038796227 -0.30680305 -0.2535583 -0.23601082 0.1923224 -0.02294492 -0.024963828
0.5623053 0.3446427 0.13336898 -0.1834632 -0.26670393 -0.16265929 0.21441509 -0.089629985
-0.05448181 -0.043946885 0.062373463 -0.11648596 -0.22156167 -0.024722138 -0.13129665 0.11043106
00000000: 6e7c 89be 0774 223d 13e6 f9bd 2e43 11be
00000010: 6b8d 8dbe 6a69 28be 3459 e73d e685 d63d
00000020: 797a b2bd 603a 56bd 1531 943c 7ad4 d2bd
00000030: 7e01 e13b 4456 d9bb 754d 433e 5c34 0fbe
00000040: 8fbe 90be fcc3 82be 0c54 233e a8b6 713e
00000050: 8f93 3ebd 2132 393d 1164 c73d 19c4 2cbc
00000060: 386b 1abd 8f9c c43d e0bb 973e 858c f5bd
00000070: 27ed 843c e0cf 0ebd b31e 3d3e 43fe 473e
00000080: 2075 77bc 4698 06bd bf4b acbe a507 f3bd
00000090: 46f6 b53d 6e49 283e fea7 d43d 6dab 243e
000000a0: 8007 8c3d 8e47 893e 1354 463c cb4f 1b3c
000000b0: 89af cfbd 30ff 33be 8746 733d 06ea 0ebe
000000c0: 2da9 d63c 8376 a33d 8e08 c83d 015b e33d
000000d0: 7858 34bc d5ca 2dbe d2b9 3f3e 166c 563e
000000e0: 4661 be3d 3199 b73e 2e58 d63e d7d0 6a3e
000000f0: 7057 16be 3f5d a6be c39f ddbd fd32 5a3e
00000100: 3a60 0b3e 05b6 30bc 5d06 cc3e 6f39 c83e
00000110: 5f90 1d3c 77c3 0cbf b339 aebe 965e b4be
00000120: 5227 debc 6518 e93d 6145 683e bcd0 b63e
00000130: a0e9 f63e c8c0 a93e 5ce9 45be b625 febd
00000140: 2533 853c 27e7 e93d 8b0e 743d d045 953d
00000150: 1a1b ad3d cbca 95be ccb1 303a 5556 333e
00000160: 0628 0a3e f95c b13b c726 12bd 990e 263a
00000170: 4173 ee3d d6bf 04be 7a03 d8bd 7b2c 333e
00000180: c3da 5f3d cc48 bcbd 08f2 ddbd 6c8f 32be
00000190: 46ec ec3d 7453 e83b 656e 873e a977 10bd
000001a0: eafe 1a3d eb3f 673e 9c2c 6fbc a83c ff3d
000001b0: 1006 943e 77ae 493d de14 933d 77a2 6a3d
000001c0: e8db debd 9a41 27be e37c 713e 7458 10be
000001d0: 9e66 fa3b 6940 dabe afbb 843d 33c3 bdbd
000001e0: 0430 c5be 732f 083e 3ce6 c23e fcb8 58be
000001f0: 3656 08be f018 ab3d 2324 213e 3730 6d3c
00000200: 80a6 393e 8e66 8e3c 35d2 b9bc 3d19 293e
00000210: 93fc 06bd e457 993d 1064 a03c 742c cb3e
00000220: 27ee db3e ba1e 5d3e 9ab0 043f 6991 523e
00000230: b2f6 c13e 6dff 333c 4abb 0d3e 764e 4c3e
00000240: 18ea eebd 14fa 18be 25e7 6dbe b5b7 c8be
00000250: ee11 a1be 2e7a 85be a8d9 5d3e 8cbf c93d
00000260: f3f8 a33e c8c0 953e c878 573e c69e e13e
00000270: 61c5 4bbe 4b02 323c ba3c e0bd cc28 803d
00000280: b141 1ebe 7383 9bbc da06 24be b826 89bc
00000290: 9a41 ba3c 4c2c c03d 3ec0 133c 2e3f 943d
000002a0: baeb 84be 9ad3 4fbe 769e 03bd b154 dfbd
000002b0: d916 c2bd bfca c8bd 150b e9bd b4bf 14be
000002c0: 9c26 87be 0fdd c73e 4b0f 0b3e 2c26 7e3d
000002d0: 154e 0dbd 49bc 933d 460a bd3c e7f3 803b
000002e0: 45cb f4bd c3c2 6dbe cab2 4a3a 7235 94bc
000002f0: f184 ad3c c4bc efbd 7651 493d a2eb 973c
00000300: 6820 2fbe 146b d3bd 207d d1bd 8a17 e7bd
00000310: b718 56be bd74 45be 65ac 14be d934 eebd
00000320: d365 24bd 08c9 80be 3bc1 0abe ab69 10bd
00000330: 2a4e 603e 547a d53d 934d d33d 52bb b9bd
00000340: abb6 d93e 8050 3f3e a3ea d5bd a60c 56be
00000350: a141 39be 1390 053f 16f2 ce3e 9ff1 3d3e
00000360: 3c5a 40be d0d3 13be 28af 5cbe 4462 223e
00000370: 8f9c 2c3e 1e16 ba3e 713b 143e 7e33 003e
00000380: 370d 7e3d 5838 23be 4f5c 47be 93b0 293c
00000390: 424b b4bd 0215 33be 8ddf c53d a928 b0bd
000003a0: 8e46 91be cbe8 1e3d 4a15 9dbe 65d2 81be
000003b0: d2ac 71be 2af0 443e fcf6 bbbc f180 ccbc
000003c0: 3df3 0f3f 0275 b03e e191 083e c7dd 3bbe
000003d0: 6b8d 88be 2890 26be a18f 5b3e ed8f b7bd
000003e0: 5228 5fbd a601 34bd 517b 7f3d 3190 eebd
000003f0: 10e1 62be 1586 cabc a172 06be ae29 e23d

conv2.bias f4 [16]
-0.46949363 -0.09807666 -0.52505577 0.04053368 -0.36322522 -0.32320073 -0.29868117 -0.080768265
0.27367356 -0.037518237 -0.5665229 0.033167135 -0.2967563 -0.016536333 0.040498953 -0.12820448
00000000: 7861 f0be 6adc c8bd 0e6a 06bf a506 263d
00000010: a8f8 b9be 917a a5be bdec 98be d569 a5bd
00000020: f11e 8c3e b9ac 19bd a507 11bf 43da 073d
00000030: 71f0 97be 3477 87bc 3be2 253d 0948 03be

bn2.weight f4 [16]
0.79787844 0.8045795 1.02023 1.0129716 1.1189674 0.9304159 1.1013759 0.9268542
0.8862741 1.0394157 1.0838355 0.9396865 0.88740784 0.824155 0.92965597 0.8955838
00000000: c341 4c3f ecf8 4d3f e696 823f 0ea9 813f
00000010: 533a 8f3f bd2f 6e3f e3f9 8c3f 5146 6d3f
00000020: dce2 623f 930b 853f 1fbb 8a3f 4b8f 703f
00000030: 292d 633f d2fb 523f effd 6d3f fb44 653f

bn2.bias f4 [16]
0.43176356 -0.007335648 -0.1754448 0.47285464 -0.7697769 0.43079004 -0.25059023 -0.23697163
0.08575251 -0.13059506 0.36604354 0.2294569 -0.16599534 0.036360193 0.13866739 -0.59826285
00000000: 1d10 dd3e e05f f0bb cda7 33be 011a f23e
00000010: 1910 45bf 8390 dc3e 5d4d 80be b1a8 72be
00000020: 039f af3d b6ba 05be 0f6a bb3e c0f6 6a3e
00000030: affa 29be 6dee 143d d3fe 0d3e c127 19bf

bn2.running_mean f4 [16]
0.18713063 1.1226667 0.21132325 0.52052 0.45688054 0.67766935 0.29720917 0.2009388
2.8211474 0.5345181 0.25903025 0.9971723 0.4799 1.7948952 1.1614505 0.4391704
00000000: 2c9f 3f3e 8bb3 8f3f 1f65 583e cc40 053f
00000010: 3fec e93e bd7b 2d3f cd2b 983e e7c2 4d3e
00000020: ae8d 3440 2ed6 083f 9d9f 843e af46 7f3f
00000030: 74b5 f53e 20bf e53f 69aa 943f f1da e03e

bn2.running_var f4 [16]
0.2339324 15.745378 0.884348 1.9253166 1.7798636 5.2597136 1.0819801 0.4483902
2.0076928 3.3641052 1.1818998 0.9434614 2.9402297 1.7656184 0.9478508 3.609428
00000000: fa8b 6f3e 11ed 7b41 a164 623f c670 f63f
00000010: 92d2 e33f 934f a840 537e 8a3f 6693 e53e
00000020: 0a7e 0040 804d 5740 7e48 973f b086 713f
00000030: b92c 3c40 c9ff e13f 5aa6 723f de00 6740

conv3.weight f4 [32, 16, 3, 3]
0.10775952 0.04930251 0.072201654 -0.18684044 -0.28338623 -0.23084962 0.0903655 0.24403872
0.109383196 0.008197509 -0.06600721 -0.24412297 -0.24209572 0.08857663 -0.035349797 0.07957704
0.05253366 0.18130632 0.23653646 0.30559704 0.16168128 0.4438694 0.46257758 0.43239796
-0.03779722 0.16476378 0.14329492 -0.17894776 -0.5063659 -0.35423824 -0.035920516 0.08347838
-0.24143863 -0.075662 0.05921701 -0.087749675 -0.12210269 0.06092063 0.09126757 0.022123454
-0.049903475 -0.086606 0.08738411 0.007536987 0.05940778 0.016819302 -0.15851533 -0.014003303
-0.17549197 0.017449876 -0.2453507 -0.119802445 -0.11444036 0.022071904 -0.19216715 -0.10710896
-0.1482236 -0.043556947 -0.1567714 -0.35765147 -0.18003353 -0.1386529 0.055774104 -0.111388974
-0.08509481 -0.027605418 -0.12356523 0.02723925 0.11165143 -0.193301 -0.012205495 0.13831276
0.010938831 -0.0018743599 0.06004278 -0.2726246 -0.23281105 -0.2747107 -0.052152865 -0.013844236
0.014622613 0.26997977 0.10253635 0.003034325 0.029453741 -0.00049779564 -0.24446341 -0.36082992
-0.015638988 -0.16569898 -0.07904144 -0.04969623 0.2375898 0.17712481 0.06049996 0.0737004
0.006935662 -0.012686859 0.015272249 0.14661054 0.26364243 0.041419964 -0.02376898 -0.21166785
-0.27546993 0.1935678 0.121299505 0.22341247 -0.27982107 -0.047954105 -0.20138276 -0.11272699
0.0127347745 -0.18202232 0.12070898 0.092284605 -0.029025467 -0.26378167 -0.0998371 -0.093380116
-0.3674463 -0.06974149 -0.23518173 -0.20811513 -0.19594818 -0.080287404 -0.07931274 -0.06397645
-0.09719012 -0.10346718 -0.3753626 -0.46849698 -0.43401852 -0.25741434 -0.12474555 0.27583346
0.033049207 0.057867162 0.17428793 0.1000832 -0.0874463 -0.061520163 0.009824479 -0.0725039
-0.013536155 -0.27088737 -0.24616392 0.0069729886 0.31138584 0.1601428 0.028696699 -0.035142127
0.05858251 0.3478439 0.24482334 -0.102037854 -0.050718546 0.28196102 0.1287028 -0.27622244
0.12446468 -0.11063332 0.057975084 0.08109718 0.22832556 -0.13829412 -0.16964841 0.022277858
0.04160196 0.20597105 -0.025989505 -0.12182063 -0.098027065 0.07336863 -0.2145584 -0.19653198
-0.2829351 -0.16170868 0.30643752 0.13072118 0.2197203 0.18735439 -0.19783287 0.2236729
-0.09436131 -0.062003043 -0.033851136 0.0046831695 -0.15605316 0.012269331 -0.18029325 -0.13380325
0.030687667 -0.14806698 -0.017737623 0.039932106 0.02682181 0.20005704 0.078496486 0.17825729
0.12883772 0.036572438 -0.10404056 -0.16260286 -0.32195458 -0.056703664 0.03708229 -0.07824682
0.08960559 -0.10313956 0.21346709 0.11590424 0.09670125 -0.05550136 -0.08217734 0.16317022
-0.038493123 -0.013055744 -0.28315687 -0.43526566 -0.32505807 -0.3297598 -0.016810125 -0.12678611
-0.21579087 -0.0025463598 -0.13568008 -0.27939314 0.024904145 0.09638997 0.032254826 0.024094561
0.14184418 0.09265051 0.0155659625 0.20631348 0.27064478 -0.19960192 0.11690755 0.17385714
-0.034628592 0.24014151 0.18796054 0.16781238 -0.11995264 -0.28387028 -0.19032912 -0.3286525
-0.39518034 -0.05291148 -0.04854399 -0.12914653 0.19056463 -0.26046434 0.14367199 -0.16897064
00000000: 06b1 dc3d 6ef1 493d 76de 933d 1a53 3fbe
00000010: 0018 91be d863 6cbe 8c11 b93d 49e5 793e
00000020: 4c04 e03d d84e 063c ca2e 87bd 5ffb 79be
00000030: f1e7 77be aa67 b53d f3ca 10bd 4af9 a23d
00000040: 892d 573d 5da8 393e 9d36 723e 3777 9c3e
00000050: c78f 253e da42 e33e f8d6 ec3e 4463 dd3e
00000060: 42d1 1abd d6b7 283e e7bb 123e 153e 37be
00000070: 32a1 01bf b75e b5be 6421 13bd b7f6 aa3d
00000080: b03b 77be aef4 9abd 898d 723d 1ab6 b3bd
00000090: fa10 fabd e987 793d 7eea ba3d 3f3c b53c
000000a0: 9667 4cbd 7d5e b1bd 71f6 b23d d4f8 f63b
000000b0: 9355 733d a2c8 893c d851 22be 1c6e 65bc
000000c0: 2bb4 33be 0bf3 8e3c 373d 7bbe fc5a f5bd
000000d0: b55f eabd 23d0 b43c 77c7 44be f15b dbbd
000000e0: edc7 17be c568 32bd af88 20be 181e b7be
000000f0: b65a 38be 07fb 0dbe 6373 643d e71f e4bd
00000100: 3046 aebd c224 e2bc c40f fdbd d924 df3c
00000110: 81a9 e43d b3f0 45be 8ef9 47bc dca1 0d3e
00000120: c838 333c 15ad f5ba 6bef 753d 7495 8bbe
00000130: 0566 6ebe e2a6 8cbe 3e9e 55bd efd2 62bc
00000140: af93 6f3c ca3a 8a3e 94fe d13d 87db 463b
00000150: f948 f13c 807e 02ba 9e54 7abe b3be b8be
00000160: 561d 80bc feac 29be 7ae0 a1bd 468e 4bbd
00000170: be4a 733e 3560 353e cece 773d 3cf0 963d
00000180: 8d44 e33b 8bdc 4fbc 7438 7a3c 1321 163e
00000190: 24fc 863e fba7 293d 2ab7 c2bc 75bf 58be
000001a0: 650a 8dbe a336 463e e06b f83d 3dc6 643e
000001b0: b544 8fbe 866b 44bd 4837 4ebe 68dd e6bd
000001c0: 84a5 503c 0f64 3abe 4536 f73d b6ff bc3d
000001d0: d1c6 edbc 640e 87be 6577 ccbd 133e bfbd
000001e0: ec21 bcbe a0d4 8ebd 7bd3 70be 221c 55be
000001f0: a4a6 48be b96d a4bd b86e a2bd 1606 83bd
00000200: 9d0b c7bd 9ae6 d3bd 872f c0be d6de efbe
00000210: ad37 debe d0cb 83be 987a ffbd 0b3a 8d3e
00000220: 9b5e 073d 1e06 6d3d 8978 323e 6cf8 cc3d
00000230: 0c17 b3bd 91fc 7bbd daf6 203c ed7c 94bd
00000240: c0c6 5dbc c0b1 8abe 6512 7cbe ab7d e43b
00000250: f76d 9f3e 79fc 233e 5715 eb3c 31f1 0fbd
00000260: 37f4 6f3d 9818 b23e f8b2 7a3e 39f9 d0bd
00000270: 40be 4fbd 325d 903e abca 033e 076d 8dbe
00000280: 57e7 fe3d b993 e2bd 4877 6d3d 4716 a63d
00000290: 2dce 693e f99c 0dbe 50b8 2dbe 0e80 b63c
000002a0: d166 2a3d 13ea 523e f1e7 d4bc 187d f9bd
000002b0: 6ac2 c8bd 4b42 963d 32b5 5bbe ae3f 49be
000002c0: dfdc 90be f696 25be 61e5 9c3e c6db 053e
000002d0: 5cfe 603e d4d9 3f3e b394 4abe 820a 653e
000002e0: 8140 c1bd e7f6 7dbd 7da7 0abd 4675 993b
000002f0: 66cc 1fbe 4e05 493c cb9e 38be b803 09be
00000300: b464 fb3c df9e 17be 7e4e 91bc d98f 233d
00000310: 6ab9 db3c c1db 4c3e c4c2 a03d 1489 363e
00000320: 09ee 033e fbcc 153d 3813 d5bd 5d81 26be
00000330: 3bd7 a4be 1a42 68bd 99e3 173d de3f a0bd
00000340: 2383 b73d d53a d3bd 1e97 5a3e 345f ed3d
00000350: 4e0b c63d 6555 63bd 984c a8bd 1816 273e
00000360: f7aa 1dbd c2e7 55bc f0f9 90be 24db debe
00000370: 036e a6be 47d6 a8be 63b5 89bc 38d4 01be
00000380: 48f8 5cbe d4e0 26bb b8ef 0abe 9e0c 8fbe
00000390: c703 cc3c 1b68 c53d a31d 043d f561 c53c
000003a0: 9a3f 113e 8dbf bd3d 6108 7f3c d743 533e
000003b0: f491 8a3e 7264 4cbe 3a6d ef3d 9b07 323e
000003c0: b6d6 0dbd a8e7 753e ba78 403e 02d7 2b3e
000003d0: bba9 f5bd 7257 91be a3e5 42be 2445 a8be
000003e0: 1455 cabe b5b9 58bd 10d6 46bd fd3e 04be
000003f0: 6023 433e 955b 85be c01e 133e a406 2dbe

conv3.bias f4 [32]
-0.18852814 -0.10362518 -0.5845874 -0.02210396 -0.3297904 -0.35353035 -0.25432727 -0.25285998
-0.29042202 -0.34223655 -0.23256998 -0.16458954 -0.3754963 -0.1491736 -0.21681936 0.06114995
-0.43339106 -0.0070198122 -0.42800376 -0.40555507 -0.62440944 -0.30147845 -0.49624217 -0.35773665
-0.26322627 -0.12620129 -0.17607692 -0.120929964 -0.4556057 -0.16468473 -0.029289255 0.02188431
00000000: 850d 41be 7039 d4bd 85a7 15bf 5d13 b5bc
00000010: 4ada a8be ee01 b5be 2f37 82be dd76 81be
00000020: 32b2 94be a139 afbe d326 6ebe 298a 28be
00000030: 0d41 c0be f7c0 18be e505 5ebe 5f78 7a3d
00000040: 6fe5 ddbe 7406 e6bb 4f23 dbbe eaa4 cfbe
00000050: 4cd9 1fbf 625b 9abe 7413 febe 4229 b7be
00000060: 98c5 86be e93a 01be 824d 34be 21aa f7bd
00000070: 2645 e9be 1da3 28be 05f0 efbc b946 b33c

bn3.weight f4 [32]
0.90476024 0.6845898 1.1200392 0.77011293 0.9079614 1.0111758 1.0729258 0.95943844
0.91231596 1.0664262 1.1689153 1.1689097 0.95217365 0.9042944 0.8684769 0.9743783
0.9707634 0.7869464 1.0413479 1.0909258 0.97917455 0.86072206 1.1041845 1.0365037
0.9424703 0.97685105 1.0371903 0.853624 0.9694729 0.88974255 1.0174098 0.95426965
00000000: 5e9e 673f 4741 2f3f 725d 8f3f 1f26 453f
00000010: 2970 683f 356e 813f a255 893f c29d 753f
00000020: 8a8d 693f a780 883f 049f 953f d59e 953f
00000030: a7c1 733f d67f 673f 8154 5e3f db70 793f
00000040: f383 783f 5275 493f e34a 853f 75a3 8b3f
00000050: 2fab 7a3f 4858 5c3f eb55 8d3f 27ac 843f
00000060: bc45 713f e912 7a3f a7c2 843f 1a87 5a3f
00000070: 602f 783f 2bc6 633f 7c3a 823f 044b 743f

bn3.bias f4 [32]
-0.15609938 -0.42414096 0.44387236 -0.2899164 -0.5484591 0.062034175 0.2583493 0.29062137
0.2623545 0.17898251 -0.08471162 0.57806134 0.35140988 -0.43324345 0.09951933 -0.009163977
0.025991097 -0.26132306 -0.10924169 0.2210907 0.55869967 -0.419448 0.16565485 0.20960419
-0.26037908 0.28392902 0.36737698 -0.1767378 -0.04572896 -0.06756477 0.23024136 -0.017592838
00000000: 84d8 1fbe 0129 d9be 3d43 e33e ec6f 94be
00000010: d167 0cbf 8c17 7e3d 5c46 843e 53cc 943e
00000020: 5453 863e 3147 373e 497d adbd d4fb 133f
00000030: ffeb b33e 16d2 ddbe cad0 cb3d 8124 16bc
00000040: 48eb d43c 23cc 85be 1bba dfbd 9a65 623e
00000050: f106 0f3f e3c1 d6be 6da1 293e 7ba2 563e
00000060: 6850 85be 255f 913e d618 bc3e c1fa 34be
00000070: 4a4e 3bbd 665f 8abd 64c4 6b3e db1e 90bc

bn3.running_mean f4 [32]
0.3710934 0.95656466 0.2655519 1.1582402 0.2613376 0.42511502 0.14824155 0.29924312
0.36651334 0.19358137 0.22618373 0.5217808 0.23981042 1.1196127 0.39715493 1.9275672
0.19047031 0.5568261 0.22820948 0.2160432 0.07708703 0.14792734 0.1429613 0.15987082
0.3302709 0.33989397 0.14952941 0.6726116 0.23646557 2.2296164 0.4029928 2.4221509
00000000: f4ff bd3e 6ce1 743f 6bf6 873e 3741 943f
00000010: 0bce 853e ada8 d93e a2cc 173e 6536 993e
00000020: a3a7 bb3e 323a 463e b59c 673e 6d93 053f
00000030: dd90 753e 784f 8f3f e457 cb3e 86ba f63f
00000040: a60a 433e 288c 0e3f bfaf 693e 6e3a 5d3e
00000050: cedf 9d3d 447a 173e 7264 123e 2db5 233e
00000060: 4419 a93e 9506 ae3e 3d1e 193e 4630 2c3f
00000070: 0824 723e 09b2 0e40 1355 ce3e 8504 1b40

bn3.running_var f4 [32]
1.9447427 4.5766873 1.928484 2.1711464 1.197171 1.5700767 0.6943268 1.9174585
1.805146 0.9989804 1.5867467 2.291657 0.85115147 5.391707 3.0597599 1.5769712
1.0935715 0.5679666 1.3428768 0.96656835 0.3139186 0.5134212 0.6702092 0.9560483
1.0435683 1.6341817 0.87146115 1.0832726 1.3077707 1.6913916 2.0903695 1.651181
00000000: 54ed f83f 3974 9240 90d8 f63f 10f4 0a40
00000010: e63c 993f 46f8 c83f 67bf 313f 486f f53f
00000020: 060f e73f 2ebd 7f3f 841a cb3f 82aa 1240
00000030: 10e5 593f dd88 ac40 1bd3 4340 31da c93f
00000040: 27fa 8b3f 4266 113f 63e3 ab3f 0671 773f
00000050: f0b9 a03e 926f 033f d592 2b3f 95bf 743f
00000060: a593 853f de2c d13f 1418 5f3f ada8 8a3f
00000070: 0865 a73f 857f d83f 9dc8 0540 e659 d33f

conv4.weight f4 [64, 32, 3, 3]
-0.0137304505 -0.0678356 -0.04634957 -0.026655931 0.02888131 0.05669839 0.049917556 0.17306952
0.093578994 0.04413945 0.03571538 0.033329554 0.1353639 0.18799584 0.1761882 0.08508781
0.19807003 -0.022269227 -0.11919 -0.21903247 -0.062142957 -0.0027987952 -0.106907465 0.103451185
-0.07151017 0.014134811 0.050169256 0.05468461 0.098282665 0.007674696 0.20566854 0.24118593
-0.21702917 -0.18795465 -0.032902114 0.06589165 0.074093156 0.042085607 0.09388173 0.15477802
-0.0023486365 0.13082145 0.1420147 0.015995475 0.0694895 -0.08313537 -0.03666602 -0.14251773
0.024929052 0.010161178 -0.077320546 0.19389398 0.20792292 0.27590266 -0.24030243 -0.040445518
-0.025633622 0.1852119 0.16337752 0.11536202 -0.16607583 -0.05908465 -0.16030882 0.028682323
0.07302072 0.0946851 0.17136627 0.22997579 0.07792647 0.10959783 -0.038727127 -0.25045687
-0.12691668 -0.25167152 -0.064234495 -0.08660207 0.114077546 -0.18240288 -0.00943488 0.016097859
0.12098241 -0.10995052 -0.17039485 0.07148293 0.07552109 -0.10626414 -0.20508008 -0.21658006
-0.10484352 -0.20267588 -0.14216161 -0.07229583 -0.021543695 0.08690076 0.09776993 -0.029633574
-0.24947996 -0.2858624 -0.21190447 0.12952282 -0.031268265 -0.1585045 0.038136423 0.059667196
0.07502068 -0.15861729 -0.054823305 -0.0016145462 0.042444408 -0.007267586 -0.21632978 -0.031036345
-0.120840624 -0.09239706 0.16120021 0.14805765 0.18645115 -0.30918694 -0.07026213 -0.13432156
0.06662079 0.16492973 0.071273476 0.092429295 0.0469429 -0.11561802 -0.012034641 0.121360235
0.06720744 -0.014061047 -0.10588699 -0.19764657 -0.2953151 -0.33440885 -0.38047388 -0.14997442
-0.13560352 0.121615894 -0.165756 -0.28393558 -0.025599213 -0.1737594 -0.28255454 -0.104219005
0.020898914 0.05941982 0.028403476 -0.26357722 -0.25940505 -0.25596982 0.029647997 0.08413228
-0.081291005 -0.110157065 -0.19751717 -0.20810488 0.052339897 0.021058923 0.08700443 -0.0749853
-0.07072841 -0.1990345 -0.06509667 0.0877648 0.06447837 -0.14609422 0.056827355 0.15114348
-0.23663345 -0.03254728 -0.1190386 -0.15222268 -0.22075538 -0.2621847 0.07995528 0.06697227
-0.18821022 0.13517627 0.050358295 0.06353603 0.08262379 0.31758413 0.36303228 0.023833852
-0.10965416 -0.16973549 0.012866216 0.071476884 0.12820764 0.0029938729 -0.22583356 -0.112804264
-0.09829529 0.12182913 -0.02114664 0.16820504 0.10451643 0.14887525 0.10254081 0.01805521
0.100164995 -0.0132427225 -0.03928347 -0.3036005 -0.10976036 -0.28401324 -0.07621424 0.23302546
0.33211237 0.19537012 0.024026887 -0.13879585 -0.011070838 0.26395836 0.3174407 0.19181266
0.12813427 0.13416699 -0.11979788 0.039918974 -0.0067916173 0.0112790065 0.044890523 -0.102792956
-0.30134264 -0.13279696 -0.33090284 -0.30098364 -0.16603203 -0.2308305 -0.26639608 0.0677868
-0.051112384 0.15652093 0.1489238 -0.0027053012 0.005531461 -0.086463526 -0.10349437 -0.05336997
0.03231443 0.058402 -0.004148556 0.20115925 0.11483 0.21905364 0.09572165 -0.051122893
0.019362027 0.1685073 0.13631888 0.10574341 0.10115488 0.07792056 0.14987136 0.3565257
00000000: aff5 60bc 64ed 8abd 0cd9 3dbd 8a5d dabc
00000010: 7f98 ec3c 923c 683d 5a76 4c3d 2339 313e
00000020: 58a6 bf3d 91cb 343d 4a4a 123d 9284 083d
00000030: d69c 0a3e fb81 403e ae6a 343e 8542 ae3d
00000040: dfd2 4a3e f46d b6bc e319 f4bd 0c4a 60be
00000050: 9d89 7ebd fe6b 37bb 4df2 dabd 37de d33d
00000060: ed73 92bd b295 673c 477e 4d3d f8fc 5f3d
00000070: 6c48 c93d 047c fb3b c69a 523e 72f9 763e
00000080: e53c 5ebe 2f77 40be 5ec4 06bd 34f2 863d
00000090: 27be 973d f561 2c3d 1145 c03d 217e 1e3e
000000a0: 95eb 19bb 0ff6 053e 4d6c 113e f108 833c
000000b0: 8350 8e3d e042 aabd 1c2f 16bd 2bf0 11be
000000c0: 0338 cc3c 127b 263c 3c5a 9ebd 258c 463e
000000d0: bfe9 543e 1d43 8d3e d711 76be 33aa 25bd
000000e0: 9afd d1bc 30a8 3d3e 704c 273e ec42 ec3d
000000f0: c80f 2abe bf02 72bd ff27 24be 31f7 ea3c
00000100: e38b 953d 43ea c13d a47a 2f3e c67e 6b3e
00000110: ea97 9f3d d474 e03d 56a0 1ebd e23b 80be
00000120: 72f6 01be 17db 80be 608d 83bd 6d5c b1bd
00000130: 7da1 e93d d2c7 3abe c194 1abc a8df 833c
00000140: a0c5 f73d bd2d e1bd fd7b 2ebe a465 923d
00000150: cdaa 9a3d 03a1 d9bd 8300 52be 2ac7 5dbe
00000160: 33b8 d6bd 448a 4fbe d092 11be d60f 94bd
00000170: 677c b0bc 07f9 b13d 9a3b c83d 1cc2 f2bc
00000180: ad77 7fbe 8e5c 92be 7cfd 58be a1a1 043e
00000190: 2713 00bd 014f 22be f034 1c3d 9765 743d
000001a0: 71a4 993d 926c 22be 678e 60bd 2e9f d3ba
000001b0: 30da 2d3d ee24 eebb 8e85 5dbe ef3f febc
000001c0: 4a7b f7bd ab3a bdbd ab11 253e 6d9c 173e
000001d0: 0ded 3e3e c04d 9ebe 97e5 8fbd 978b 09be
000001e0: 7b70 883d 57e3 283e d4f7 913d 924b bd3d
000001f0: 3347 403d 24c9 ecbd f12c 45bc b78b f83d
00000200: 0ea4 893d 4e60 66bc 47db d8bd dd63 4abe
00000210: 8a33 97be a337 abbe 79cd c2be e592 19be
00000220: a6db 0abe c111 f93d f1bb 29be 0160 91be
00000230: 71b5 d1bc fced 31be fdaa 90be c670 d5bd
00000240: 3334 ab3c 3262 733d 68ae e83c 98f3 86be
00000250: bdd0 84be 7a0e 83be 5be0 f23c 8b4d ac3d
00000260: e67b a6bd 079a e1bd f141 4abe 7219 55be
00000270: 5c62 563d c383 ac3c 612f b23d e591 99bd
00000280: 0eda 90bd b3cf 4bbe 6751 85bd 08be b33d
00000290: 3c0d 843d b999 15be cdc3 683d 5bc5 1a3e
000002a0: 0a50 72be 4c50 05bd 82ca f3bd 43e0 1bbe
000002b0: b30d 62be 133d 86be 98bf a33d c228 893d
000002c0: 2eba 40be a66b 0a3e 8044 4e3d 2e1f 823d
000002d0: a936 a93d 639a a23e 5edf b93e 363f c33c
000002e0: 5c92 e0bd 24cf 2dbe d2cc 523c 7962 923d
000002f0: dd48 033e da34 443b ea40 67be ec05 e7bd
00000300: 0a4f c9bd 8d81 f93d b83b adbc f13d 2c3e
00000310: b60c d63d c172 183e eb00 d23d 85e8 933c
00000320: 4e23 cd3d 01f8 58bc b4e7 20bd 8671 9bbe
00000330: 0aca e0bd 2f6a 91be 3616 9cbd 3a9e 6e3e
00000340: a20a aa3e 1b0f 483e 09d4 c43c 8020 0ebe
00000350: 7662 35bc 8d25 873e 9687 a23e 8a6a 443e
00000360: a135 033e 1263 093e 9758 f5bd 1482 233d
00000370: 378c debb 95cb 383c 20df 373d 1d85 d2bd
00000380: 9549 9abe edfb 07be 196c a9be 871a 9abe
00000390: 4d04 2abe d55e 6cbe 1165 88be ced3 8a3d
000003a0: 385b 51bd 0647 203e 7b7f 183e 6c4b 31bb
000003b0: 4241 b53b ca13 b1bd dbf4 d3bd 789a 5abd
000003c0: 235c 043d f036 6f3d 9cf0 87bb b1fc 4d3e
000003d0: fe2b eb3d 994f 603e b609 c43d 3d66 51bd
000003e0: 1d9d 9e3c 2d8d 2c3e 2d97 0b3e 0090 d83d
000003f0: 4a2a cf3d d194 9f3d e177 193e 898a b63e

conv4.bias f4 [64]
-0.08148187 -0.30626455 -0.57747304 0.13926291 -0.37317985 0.026349245 -0.1471852 0.05582209
-0.016647225 -0.059117712 -0.23716761 -0.34823012 0.2805641 -0.5109934 -0.23118317 -0.40747586
-0.34317464 -0.1974121 -0.28366607 -0.2350207 -0.30359718 -0.080247015 -0.1272322 -0.5150966
-0.09018637 -0.22134781 -0.23484361 -0.23950002 -0.12794128 -0.3084853 -0.3241611 0.1806754
-0.27557465 0.13390255 -0.4231714 -0.16713518 -0.25021288 -0.44179058 -0.508565 -0.20458552
0.019954955 -0.06989237 -0.16322725 0.05834805 -0.35939994 -0.29016995 0.102128364 -0.2408068
0.100421526 -0.21004961 -0.26800337 -0.20994163 -0.20517991 -0.3559183 -0.57236797 -0.2049098
-0.20524098 -0.112113364 -0.15445314 -0.33052042 -0.2072256 -0.32192212 -0.25214848 -0.2808052
00000000: f7df a6bd b5ce 9cbe 46d5 13bf f09a 0e3e
00000010: 6e11 bfbe 5fda d73c b8b7 16be b4a5 643d
00000020: c35f 88bc 6a25 72bd 11dc 72be 384b b2be
00000030: 19a6 8f3e 77d0 02bf 48bb 6cbe ada0 d0be
00000040: 96b4 afbe 6626 4abe ae3c 91be 44a9 70be
00000050: 1771 9bbe 8c58 a4bd 2849 02be 5fdd 03bf
00000060: a2b3 b8bd 00a9 62be d87a 70be 7e3f 75be
00000070: 0a03 03be c9f1 9dbe 72f8 a5be f902 393e
00000080: 1f18 8dbe c01d 093e eca9 d8be 7c25 2bbe
00000090: e71b 80be 6032 e2be 5131 02bf de7e 51be
000000a0: 9378 a33c bb23 8fbd 0b25 27be 5dfe 6e3d
000000b0: 4503 b8be 2891 94be ad28 d13d 0f96 76be
000000c0: cda9 cd3d 3f17 57be bd37 89be f0fa 56be
000000d0: af1a 52be ec3a b6be b586 12bf e0d3 51be
000000e0: b12a 52be b19b e5bd f728 1ebe f939 a9be
000000f0: f332 54be fad2 a4be 9b19 81be b3c5 8fbe

bn4.weight f4 [64]
3.0436893 4.0832586 4.6667047 2.2069473 4.1869545 4.8151045 3.2869308 2.6636908
4.5652103 3.1473026 3.2909882 3.7606962 2.5390308 4.5158453 4.396534 5.099459
3.561347 3.8596647 3.6821308 4.2647376 4.8539066 4.058362 2.2490084 2.0266502
3.4556136 4.671088 4.328841 4.119174 4.027471 3.6388798 4.0880933 2.2325902
4.355725 2.6708384 4.6613603 3.5683177 3.8986423 4.904301 4.349656 4.1400876
2.7592402 2.9786339 4.848039 2.708645 4.300589 3.9915109 3.8217056 3.3590608
2.6650043 3.7029023 3.8503242 3.752523 3.3701642 3.803456 4.5245204 3.8138435
3.2673128 4.77734 1.8995391 3.9990928 2.7237613 4.33723 3.9529774 4.1693735
00000000: cecb 4240 0eaa 8240 a555 9540 a03e 0d40
00000010: 88fb 8540 5615 9a40 135d 5240 e979 2a40
00000020: 3416 9240 686d 4940 8d9f 5240 3faf 7040
00000030: 7b7f 2240 ce81 9040 68b0 8c40 c52e a340
00000040: 1ced 6340 bf04 7740 08a8 6b40 bb78 8840
00000050: 3453 9b40 1ade 8140 c1ef 0f40 a3b4 0140
00000060: c628 5d40 8e79 9540 de85 8a40 46d0 8340
00000070: 0be1 8040 68e3 6840 a9d1 8240 c2e2 0e40
00000080: 1962 8b40 04ef 2a40 dd29 9540 515f 6440
00000090: 5b83 7940 09f0 9c40 6230 8b40 997b 8440
000000a0: 6497 3040 f0a1 3e40 2323 9b40 715a 2d40
000000b0: 6d9e 8940 ea74 7f40 d396 7440 dafa 5640
000000c0: 6e8f 2a40 5afc 6c40 b66b 7640 5629 7040
000000d0: c5b0 5740 d36b 7340 dfc8 9040 0316 7440
000000e0: a71b 5140 f8df 9840 1924 f33f 23f1 7f40
000000f0: 1b52 2e40 97ca 8a40 95fd 7c40 826b 8540

bn4.bias f4 [64]
0.21001774 -0.10111781 0.2485992 -0.16395812 -0.12695256 -0.11431277 0.2197236 0.11673594
-0.16095527 0.123468585 -0.13385053 -0.10558807 0.43711463 -0.15987363 -0.07847856 -0.21370295
0.04331154 -0.08938994 0.11955644 0.16965652 -0.29660302 0.06568709 -0.12688574 0.22385137
0.09388155 -0.28600544 -0.15705252 0.10523124 -0.33040357 0.16527787 -0.1496974 -0.07870211
0.056615032 0.31889498 0.32098535 0.08320973 0.11983007 -0.22864208 0.118472524 -0.13206495
0.08015395 -0.14886135 -0.14512193 0.032262184 0.048833895 0.10334802 0.34590203 0.1442876
0.38927 -0.17931037 0.14771128 0.1971073 0.1956607 -0.16338366 -0.10720107 -0.05797268
0.1291161 -0.16505072 -0.07461668 -0.18261679 0.087698385 0.04651556 -0.14573747 -0.16392162
00000000: e40e 573e db16 cfbd ca90 7e3e a3e4 27be
00000010: daff 01be d01c eabd 39ff 603e 4113 ef3d
00000020: 75d1 24be 19dd fc3d 1d10 09be 8f3e d8bd
00000030: 7dcd df3e eab5 23be 5eb9 a0bd f2d4 5abe
00000040: 7167 313d 1312 b7bd 02da f43d 70ba 2d3e
00000050: 5adc 97be f486 863d 56ee 01be 4b39 653e
00000060: f844 c03d 4e6f 92be 60d2 20be 7a83 d73d
00000070: a82a a9be 9a3e 293e 464a 19be 922e a1bd
00000080: 2ae5 673d 3446 a33e 3158 a43e dd69 aa3d
00000090: 7869 f53d 2621 6abe b9a1 f23d 093c 07be
000000a0: c127 a43d 1c6f 18be d89a 14be 5a25 043d
000000b0: 0d06 483d 20a8 d33d 121a b13e 21c0 133e
000000c0: 664e c73e 239d 37be a041 173e 7fd6 493e
000000d0: 475b 483e 0c4e 27be 3c8c dbbd c374 6dbd
000000e0: 0337 043e 0e03 29be a1d0 98bd e5ff 3abe
000000f0: 369b b33d 1a87 3e3d 343c 15be 12db 27be

bn4.running_mean f4 [64]
0.30930674 0.04114191 0.041758563 1.225746 0.06213179 0.044647943 0.18069752 0.6528778
0.045932073 0.088331826 0.107945785 0.04329782 1.8047596 0.029908085 0.05808378 0.025920711
0.0625927 0.024991022 0.06506732 0.04921066 0.03985108 0.06710943 0.07530825 0.022702152
0.096945584 0.029427275 0.046450954 0.06761203 0.08677476 0.10325388 0.038015377 0.9052573
0.067416996 0.26713696 0.04389014 0.060163446 0.09054291 0.02702421 0.04117688 0.046006657
0.66984975 0.46066707 0.032102708 0.83048433 0.066058755 0.048354775 0.14695662 0.08917375
1.9832875 0.05410074 0.058298238 0.19600599 0.23669831 0.06433174 0.035007227 0.028854212
0.09666399 0.063378386 0.13540865 0.04984563 0.17347448 0.039514873 0.027303316 0.020577345
00000000: 745d 9e3e 6b84 283d 070b 2b3d 3fe5 9c3f
00000010: e77d 7e3d c3e0 363d c508 393e 0023 273f
00000020: 4523 3c3d 51e7 b43d ae12 dd3d 0e59 313d
00000030: 5d02 e73f cd01 f53c 42e9 6d3d ac57 d43c
00000040: 9a30 803d f9b9 cc3c 0442 853d 1e91 493d
00000050: e33a 233d ab70 893d 363b 9a3d ddf9 b93c
00000060: 688b c63d 7811 f13c 5b43 3e3d 2d78 8a3d
00000070: f7b6 b13d c576 d33d 03b6 1b3d f1be 673f
00000080: ec11 8a3d 2dc6 883e 26c6 333d f26d 763d
00000090: 906e b93d e061 dd3c 17a9 283d 7a71 3c3d
000000a0: 467b 2b3f 8edc eb3e 217e 033d 9f9a 543f
000000b0: d049 873d a80f 463d cc7b 163e baa0 b63d
000000c0: 5ddc fd3f bd98 5d3d 22ca 6e3d cbb5 483e
000000d0: 0b61 723e 5cc0 833d bd63 0f3d ab5f ec3c
000000e0: c5f7 c53d 87cc 813d 91a8 0a3e ee2a 4c3d
000000f0: 4ba3 313e 59da 213d 34ab df3c d291 a83c

bn4.running_var f4 [64]
1.0490543 0.17496824 0.24988894 0.89636415 0.28269857 0.14045548 0.94892114 2.6024618
0.16391304 0.23222306 0.4035773 0.22247668 1.7878139 0.13405682 0.1983393 0.10791772
0.18916461 0.09391097 0.28900734 0.13450049 0.12359004 0.29450348 0.17646816 0.052984215
0.47502777 0.10789454 0.16849889 0.32480466 0.23855756 0.3987312 0.16175343 0.72803015
0.2048673 0.6782112 0.17222843 0.25723702 0.44594696 0.11247502 0.17963688 0.11875188
1.2698455 0.852539 0.10035023 1.3494498 0.36811176 0.19174677 0.4336891 0.29405966
2.877049 0.2260651 0.2755888 0.7300897 1.5106665 0.27459535 0.18593974 0.090929486
0.432451 0.25689802 0.3153988 0.17412019 1.00522 0.20950085 0.068056434 0.108581156
00000000: 6947 863f e02a 333e e3e2 7f3e 1f78 653f
00000010: debd 903e 90d3 0f3e 7fec 723f bc8e 2640
00000020: d2d8 273e e2cb 6d3e afa1 ce3e edd0 633e
00000030: 16d7 e43f 3146 093e 7519 4b3e f703 dd3d
00000040: 5eb4 413e 6554 c03d c5f8 933e 7fba 093e
00000050: c61c fd3d 29c9 963e 12b4 343e fa05 593d
00000060: d736 f33e d0f7 dc3d f98a 2c3e cc4c a63e
00000070: 6f48 743e 7f26 cc3e b1a2 253e 2f60 3a3f
00000080: bcc8 513e 409f 2d3f a65c 303e 92b4 833e
00000090: 2953 e43e 4e59 e63d bbf2 373e 3034 f33d
000000a0: 4c8a a23f ff3f 5a3f 6c84 cd3d c5ba ac3f
000000b0: 2579 bc3e 4459 443e 7f0c de3e fd8e 963e
000000c0: 9221 3840 9c7d 673e fa19 8d3e 29e7 3a3f
000000d0: 855d c13f c397 8c3e fd66 3e3e 3d39 ba3d
000000e0: 386a dd3e 2388 833e f47b a13e 904c 323e
000000f0: 0dab 803f 6487 563e 2c61 8b3d cc5f de3d

lin.weight f4 [10, 64]
-0.07946391 1.9267354 -1.1966327 -0.39084902 -1.4177275 -1.330942 -0.003997489 0.29228356
-0.47331992 0.5849948 -0.2656704 -1.4640617 -0.54393286 -1.1433029 -1.4326471 -0.92577857
1.9015622 -0.5175989 1.4273182 0.74106807 0.2115319 1.3903937 -0.3382173 0.31284153
1.226318 0.98583645 -0.3908347 1.6119585 0.12942636 0.30384433 -0.5676606 -0.6657849
1.9684494 -0.34654543 -1.1243188 1.3994654 1.2879082 -0.35871342 0.117582835 -1.1138898
1.0097234 -0.46700123 0.23096551 0.7606943 2.2181916 1.1193942 -0.86795306 0.19114749
0.013799441 -0.03126028 0.7066889 -0.08918416 0.16468538 -0.80025625 -1.3619999 -1.0103211
0.4762202 -0.47793773 -0.66654634 0.18141465 1.1704543 1.3460628 -0.74005806 0.38770142
-0.073618956 -1.5271776 1.8678536 -0.35816202 1.2326005 -0.2362111 0.82134944 0.05577712
-0.8123451 -0.8440895 -1.1167108 1.1627202 0.22960514 2.1244087 0.35292834 1.424318
-0.47443852 -0.47202376 -1.7933521 -0.8462692 -1.2163898 0.7561048 -0.4459896 -0.48346242
0.14478096 -0.77524495 0.08395576 -1.3842758 1.0904844 -0.58113897 -1.3129236 -0.28772366
0.42270264 0.42801118 0.5600509 -0.184904 0.07366846 2.1341212 1.9161644 0.31156194
-1.0690503 -0.2892264 -0.4433183 -0.32481897 -2.08227 -1.3833258 0.42170653 -0.6277372
-0.44732866 -1.120987 1.2860689 0.838238 0.5458055 0.6363206 2.0567155 -0.62600595
-0.9972756 -0.5144183 -0.070745595 -1.2078509 -0.8396287 1.1963032 -0.44545814 -0.845674
-2.7034097 1.1006967 -0.023847401 0.3796875 -0.4824865 0.17741573 0.15646894 -2.7503922
0.02886286 -1.1058531 0.23917058 -0.7084902 0.62708443 0.10515613 0.62021446 -0.93755174
-0.08173924 2.4285645 0.8030928 -1.180019 -0.13693826 -2.3929715 -0.49501094 -0.40799958
-1.9528236 1.2829541 2.703385 0.19330953 -0.63175267 -0.84833187 0.3113625 1.0669574
0.3391697 0.4843066 -0.5989856 -1.352008 0.94333184 -0.4147203 -1.0016834 0.16993856
0.81439865 -0.88920707 2.3679776 -1.586819 1.0382955 -2.6650808 0.44214308 -1.4632868
0.6355834 -0.37774253 -0.14114605 -1.7926657 -1.8475931 -0.89045966 0.83044195 2.4907572
-2.547907 2.2800395 0.32834592 0.3128115 0.21347363 -1.9652344 -0.5712257 2.7617505
0.5532233 -0.38893536 -0.50973225 -0.18793336 1.2399706 0.112337984 0.32135797 0.40352035
-0.40350586 1.2290081 1.4321384 0.7746435 0.42305866 -0.2267675 2.1732078 -0.9641106
-0.80873877 0.39685008 -1.2041979 1.1845174 1.5895467 -0.82669425 0.34389842 0.69115895
-0.24082509 -0.6436732 -0.47017264 -1.9265052 -0.49042 1.3548939 1.7804775 0.1609882
-2.7752602 -0.172812 1.2773042 0.00577959 -1.8078313 -1.2053584 -2.3774886 2.003788
-0.56685376 0.16581479 -1.1533004 -0.5495007 -0.22370675 0.5481607 -0.06377739 1.2468114
0.573154 1.3477484 -1.2094642 0.64483374 0.46685755 1.662154 0.089871846 0.92702925
0.72428864 -0.5642045 0.13527636 1.451969 -1.1692718 -2.1626003 2.2383525 -0.21207355
00000000: f9bd a2bd 449f f63f 432b 99bf 5d1d c8be
00000010: 1878 b5bf 4f5c aabf 5efd 82bb 31a6 953e
00000020: fd56 f2be 38c2 153f f305 88be 6066 bbbf
00000030: 2f3f 0bbf c057 92bf fb60 b7bf d3ff 6cbf
00000040: 6466 f33f 5d81 04bf 5db2 b63f a3b6 3d3f
00000050: d29b 583e 6cf8 b13f d12a adbe c42c a03e
00000060: fdf7 9c3f c75f 7c3f 7c1b c8be a854 ce3f
00000070: 5888 043e 7c91 9b3e 3552 11bf e170 2abf
00000080: 26f6 fb3f 676e b1be aee9 8fbf af21 b33f
00000090: 2dda a43f 49a9 b7be 45cf f03d f193 8ebf
000000a0: 9e3e 813f c91a efbe 3982 6c3e ddbc 423f
000000b0: daf6 0d40 4f48 8f3f 2c32 5ebf 2bbc 433e
000000c0: 0d17 623c c80a 00bd 90e9 343f 2fa6 b6bd
000000d0: 49a3 283e 98dd 4cbf 0356 aebf 3452 81bf
000000e0: 22d3 f33e 41b4 f4be c8a2 2abf c3c4 393e
000000f0: 72d1 953f c94b ac3f 7274 3dbf cd80 c63e
00000100: 89c5 96bd 8e7a c3bf d415 ef3f 0361 b7be
00000110: dac5 9d3f 53e1 71be f543 523f 8d76 643d
00000120: d9f5 4fbf 4016 58bf 61f0 8ebf 04d4 943f
00000130: 9c1d 6b3e 50f6 0740 06b3 b43e 0d50 b63f
00000140: 9be9 f2be 19ad f1be 908c e5bf 19a5 58bf
00000150: a9b2 9bbf 1690 413f c058 e4be 6388 f7be
00000160: 7641 143e 7476 46bf fff0 ab3d f32f b1bf
00000170: fe94 8b3f 86c5 14bf e10d a8bf 8450 93be
00000180: 7b6c d83e 4824 db3e 7f5f 0f3f 7957 3dbe
00000190: 7ddf 963d 7195 0840 e044 f53f 0c85 9f3e
000001a0: a4d6 88bf 7c15 94be 9efa e2be ac4e a6be
000001b0: e943 05c0 d210 b1bf ebe9 d73e 63b3 20bf
000001c0: 4308 e5be 817c 8fbf e89d a43f c496 563f
000001d0: e9b9 0b3f e8e5 223f 3aa1 0340 ed41 20bf
000001e0: 744d 7fbf ebb0 03bf 11e3 90bd dc9a 9abf
000001f0: e8f1 56bf 7720 993f 1713 e4be 177e 58bf
00000200: aa04 2dc0 a1e3 8c3f a05b c3bc 6666 c23e
00000210: 7808 f7be 78ac 353e 6539 203e 6d06 30c0
00000220: ce71 ec3c 988c 8dbf 22e9 743e 9d5f 35bf
00000230: 9b88 203f 195c d73d 60c6 1e3f 6403 70bf
00000240: e766 a7bd 9a6d 1b40 7d97 4d3f dd0a 97bf
00000250: 8b39 0cbe 7226 19c0 1372 fdbe 52e5 d0be
00000260: 20f6 f9bf d737 a43f 4304 2d40 eff2 453e
00000270: 8bba 21bf 472c 59bf e86a 9f3e 0f92 883f
00000280: a7a7 ad3e 09f7 f73e 1f57 19bf 990e adbf
00000290: 327e 713f 3856 d4be 2937 80bf 6004 2e3e
000002a0: 6e7c 503f 13a3 63bf f28c 1740 e31c cbbf
000002b0: dee6 843f af90 2ac0 9460 e23e fb4c bbbf
000002c0: 98b5 223f 7867 c1be 9788 10be 1276 e5bf
000002d0: ee7d ecbf 2af5 63bf d897 543f 9168 1f40
000002e0: e910 23c0 2bec 1140 f51c a83e d428 a03e
000002f0: d598 5a3e cd8c fbbf d93b 12bf 85c0 3040
00000300: 0ba0 0d3f 8922 c7be d07d 02bf 9a71 40be
00000310: 5bb7 9e3f 7511 e63d 0889 a43e 389a ce3e
00000320: 5298 cebe 2350 9d3f 5050 b73f 094f 463f
00000330: 259b d83e bd35 68be d615 0b40 f4cf 76bf
00000340: 8109 4fbf ef2f cb3e 2823 9abf 449e 973f
00000350: 4476 cb3f 3ca2 53bf 7413 b03e cbef 303f
00000360: da9a 76be c4c7 24bf 78ba f0be b997 f6bf
00000370: 5518 fbbe 2a6d ad3f b0e6 e33f 17da 243e
00000380: dd9d 31c0 a1f5 30be b47e a33f b762 bd3b
00000390: 0467 e7bf 2f49 9abf c628 18c0 103e 0040
000003a0: 541d 11bf 5acb 293e 599f 93bf 14ac 0cbf
000003b0: 6213 65be 4254 0c3f b89d 82bd 8497 9f3f
000003c0: 38ba 123f 0583 ac3f b9cf 9abf d313 253f
000003d0: f407 ef3e 76c1 d43f bb0e b83d ca51 6d3f
000003e0: fb6a 393f b56f 10bf e385 0a3e 1fda b93f
000003f0: b3aa 95bf 0b68 0ac0 2b41 0f40 cf29 59be

lin.bias f4 [10]
-0.0088176625 0.15280662 0.07543226 0.17225574 -0.01946059 -1.1587348 -1.2499115 -1.2365831
-1.2957234 -1.2053893
00000000: f577 10bc 5779 1c3e 3b7c 9a3d cf63 303e
00000010: d16b 9fbc 6c51 94bf 1afd 9fbf 5b48 9ebf
00000020: 44da a5bf 324a 9abf
