NCC_Code/models/2022-08-13_15-33-47_model.pt (torch, 115275 bytes, 50 tensors)

conv1.weight f4 [8, 2, 5, 5]
000000 94 f1 1b 3f 9d d0 d4 be af 0d e3 bc ae c0 0e bd
       0.60915494 -0.4156541 -0.027716486 -0.034851722
000010 45 96 e5 3c bf 51 4b 3e 6a 9c 68 be 04 77 31 bc
       0.028025756 0.19855402 -0.22715917 -0.010831598
000020 a5 b6 36 3e bc ea 86 3c 19 8a a3 be 83 cf 81 be
       0.17843111 0.016469352 -0.31941298 -0.2535363
000030 8e 06 67 be 2e ea 77 be c5 e8 f7 bd e8 1f 0d be
       -0.22561094 -0.24210426 -0.12104944 -0.13781703
000040 bb d8 98 3d 4a 38 bd bd 08 8f da 3d 94 c3 01 3b
       0.07463213 -0.09239252 0.10671812 0.0019800412
000050 af e8 d2 3d 68 fe 41 3d 69 80 98 be 5b 1a 2f 3e
       0.10298287 0.04736176 -0.2978547 0.17099898
000060 eb 92 06 3e bf 21 2b bd d1 6a 54 bd f2 c5 04 bd
       0.13141982 -0.04178023 -0.05185968 -0.032415338
000070 2b 7d 94 3b 6f 0f 20 bf 79 90 85 bd 71 95 13 be
       0.0045315227 -0.6252355 -0.065216966 -0.14412476
000080 b5 d6 28 be d1 d6 7d 3d 58 2a 47 3d 2a c0 f9 bc
       -0.16488154 0.061972443 0.048624367 -0.030487139
000090 3f 5f c7 bc 78 59 b3 3d e5 20 8e bc e9 75 47 3c
       -0.024337409 0.08757299 -0.01734967 0.012174108
0000a0 9c 84 20 3e 97 c5 f8 3e e8 bd 0d be a2 43 0b 3e
       0.15675586 0.4858825 -0.13841975 0.13600019
0000b0 71 3a ae be 73 b1 a1 3c 99 3a b3 3d ca ef 93 bb
       -0.34028962 0.019737935 0.08751411 -0.004514669
0000c0 5c a4 7c be 73 d0 20 bd 90 7b 32 be 65 dd 0a 3e
       -0.24672073 -0.039261293 -0.17429948 0.13561018
0000d0 45 c3 1b be da 5b 46 bc 2a a6 49 3e 72 7e fe 3d
       -0.15211208 -0.01210686 0.19692293 0.12426461
0000e0 49 77 50 be e8 2a 86 be 1e 73 67 3c b7 48 a8 3d
       -0.20358004 -0.2620461 0.014126567 0.08216994
0000f0 bc 14 ac 3d 00 2c ff 3d 9f 9d b5 be af d2 e0 bd
       0.08402392 0.12459564 -0.35471818 -0.10977685
000100 7f 16 f0 bd 31 6e 82 3e 33 20 93 be ae dc 48 3d
       -0.11723041 0.25474694 -0.28735504 0.04903858
000110 72 8a 94 bd db 5b bb be ce 81 43 3e 9e 06 d5 bd
       -0.07252969 -0.36593518 0.19092485 -0.10401653
000120 33 a6 0f 3e 18 cc bd bd 3c 2c 87 3d 0b b3 6c be
       0.14028244 -0.092674434 0.06600234 -0.23115174
000130 a9 46 98 bd dc ae 18 3d df 34 94 bd f5 2a e7 bd
       -0.07435352 0.037276134 -0.07236647 -0.1128749
000140 8f 34 0c 3e e8 f6 15 3e 3f fc c4 3e 60 a0 1e 3e
       0.13691925 0.14644969 0.38473698 0.15490866
000150 01 cf 97 be 95 01 a8 bd 35 19 60 be 74 69 55 be
       -0.2965012 -0.08203427 -0.21884616 -0.20841008
000160 2e 2a 8a 3e 6d 9b 9a 3e 95 ae 22 be c8 de 70 be
       0.26985306 0.30196705 -0.1588691 -0.23522484
000170 1b 8c 00 3e a3 81 19 be c3 c4 e5 be 5a e8 a4 bd
       0.12553446 -0.14990859 -0.4487668 -0.0805213
000180 20 81 e2 bd b1 1e 16 3e 13 4b ad be 20 9e 86 3c
       -0.11059785 0.14660145 -0.3384634 0.016432822
000190 af 95 51 3d 78 62 e7 be b0 4d 53 bd 06 a4 ef 3c
       0.05116814 -0.45192313 -0.05158776 0.029253017
0001a0 81 57 04 3f 8b 64 8e 3d 39 a7 e3 bd f6 2e a8 bd
       0.5169602 0.06952771 -0.111158796 -0.08212082
0001b0 ee c8 69 be a5 c3 1c 3e f4 46 c5 3c 8c 94 c3 3d
       -0.22830555 0.15309007 0.024081685 0.095498174
0001c0 ee f8 a7 bc 2a 7f 8f bd f6 31 a2 bd 13 63 4b 3e
       -0.020504441 -0.070066765 -0.079196855 0.19862013
0001d0 3f 4a 53 be 7b c8 a2 bd 08 0f 10 bc 8f e1 95 bd
       -0.20633791 -0.07948395 -0.008792646 -0.073184125
0001e0 50 84 76 be 46 a7 6b bd 9a 0b 41 3d 3a d4 72 3d
       -0.2407391 -0.05753257 0.047130205 0.059284426
0001f0 79 83 6e bc fd 54 26 3d 2f 5b 69 be 6e 16 1f 3e
       -0.014557713 0.040608395 -0.2278869 0.155359
000200 a6 d9 f2 3b 28 1d 4c be 4f 57 a8 be 6b 35 a7 3d
       0.0074111996 -0.19932997 -0.3287911 0.081644855
000210 03 d9 07 bd eb 4d 52 be b5 d1 e6 bd 63 96 cd bc
       -0.033165943 -0.20537536 -0.11270467 -0.025096124
000220 de ab 8f be 39 05 37 bd 89 94 15 be 29 c5 41 3e
       -0.28060812 -0.044682715 -0.14607443 0.18922867
000230 af cf 9d be e4 f0 fe 3c 2f 9d 38 3d 2f 6a 89 3e
       -0.30822513 0.031120725 0.045071777 0.26838824
000240 16 38 3a be 0d 8a 30 be 6c 76 18 3e 5a 54 3b 3e
       -0.18185458 -0.17240162 0.14888924 0.18293896
000250 51 b5 b9 be c7 2c 5e 3d a5 f1 85 3d 8a 1b 74 3e
       -0.36271146 0.05424192 0.06540231 0.2383863
000260 83 ef d1 3a a4 df 4d bd 8b b3 8f b9 5e ba cf bd
       0.0016016815 -0.05026211 -0.00027408855 -0.101429686
000270 49 58 9c be ef 85 e4 3d f4 b1 a2 be 78 7e 9a be
       -0.30536106 0.11158358 -0.31776392 -0.30174613
000280 23 1f 0e be 6b 9c 17 3e db a5 af bd e5 a8 8b 3c
       -0.13879065 0.14805762 -0.08576556 0.017048309
000290 e8 44 b8 be 7a 9a f8 3d 13 50 7b be 3e d2 1d be
       -0.3599007 0.12138839 -0.24542265 -0.15412232
0002a0 ef 7f 75 bd 95 e3 47 bc 1c a8 d8 bd f0 5e d1 bb
       -0.05993646 -0.012200256 -0.10578939 -0.0063894913
0002b0 31 3d 9d be 11 49 22 3e c9 94 8e be df 38 f1 bd
       -0.30710748 0.15848185 -0.2784789 -0.117784254
0002c0 db 0b 93 3d 69 5b 5d be 69 91 9b 3e 83 7b 8a bd
       0.071799956 -0.21616901 0.30384377 -0.06761839
0002d0 0c 4e 9a 3d fe f3 f0 bd 61 e5 3a bd 64 84 26 bd
       0.075344175 -0.11765288 -0.04562891 -0.0406536
0002e0 85 79 33 3e 7c 03 5f 3e b4 ee 18 3d c8 47 89 bd
       0.17526825 0.21778673 0.03733702 -0.06703144
0002f0 bb a3 ab 3d 9e bd 98 bd 1e 2a 58 be b5 a4 84 bd
       0.083808385 -0.074580416 -0.21109816 -0.06476728
000300 7a 5e 33 3d 5e 34 33 be 87 bd 56 3d 65 78 fd bd
       0.04379127 -0.17500445 0.05242684 -0.12376479
000310 bb c4 80 3d 3a d1 79 3d f6 a1 86 3e 38 25 8e bd
       0.06287523 0.06099055 0.2629544 -0.06940693
000320 b1 ca de 3e 65 46 da 3c 3f a8 2a 3e b7 29 91 be
       0.43514016 0.026644895 0.16665743 -0.28352138
000330 cf 58 6b 3d 9b d7 ae 3c 6a a5 77 3e 37 34 13 be
       0.05745774 0.021343043 0.24184194 -0.14375387
000340 02 ea 37 3d 9d d1 69 3d f2 28 76 3e 5d 8d 13 3e
       0.0449009 0.05708467 0.24039057 0.14409395
000350 9e f7 b5 3e 82 0b 4a 3e 6b e5 f3 3d 06 2b f8 3d
       0.3554048 0.19730952 0.119089924 0.12117581
000360 cc b3 3a bc 9a 26 92 be b6 2f 84 be db cb 9e be
       -0.011395406 -0.28545076 -0.2581765 -0.31014904
000370 d1 ac 52 bd 45 2c 74 3d 25 d5 49 3d df e4 4b 3e
       -0.05143434 0.05961253 0.049275536 0.19911526
000380 5d 7e b5 3e 2d 26 43 be fd 92 da 3d d7 09 c6 3e
       0.3544797 -0.19057532 0.10672567 0.38679382
000390 7c 0a 43 be 22 c9 1e 3e 85 27 35 bd 0c 71 1d 3e
       -0.19046968 0.15506414 -0.044227142 0.15375155
0003a0 07 cc 72 bd c1 59 72 bb 48 9d ba 3e d7 75 bf bc
       -0.059276607 -0.0036979767 0.3644812 -0.02337162
0003b0 a4 0b 1e 3e c2 15 5a 3e 3a ba 75 be 13 29 df 3b
       0.15434128 0.21297362 -0.23996821 0.0068103164
0003c0 aa 22 9f 3d f6 37 85 3c 32 16 4a be 2a 53 22 3e
       0.077702835 0.016262036 -0.1973503 0.15852037
0003d0 cf 9d 46 bd c7 24 97 3e c9 ec 8d bd 94 7f bf 3d
       -0.04849034 0.29520246 -0.06929929 0.093505055
0003e0 ed 7b df bd 78 74 15 3e 66 95 dd 3e c0 2c c4 3e
       -0.10912309 0.1459521 0.43278044 0.38315392
0003f0 b0 a4 5f 3e d4 68 22 bd 64 03 c0 be 1d fa 94 bd
       0.21840167 -0.039650753 -0.37502587 -0.07274268

conv1.bias f4 [8]
000000 25 9f 90 3c d2 97 cc 3c 6c 6b f0 b9 70 53 46 bc
       0.017654011 0.024974737 -0.00045856403 -0.012104854
000010 9b 90 e6 3c 8a e9 b8 bb a0 0b 0f 3c 96 92 b8 3b
       0.028145125 -0.0056430744 0.008730799 0.005632709

bn1.weight f4 [8]
000000 38 fd 7f 3f 8c 3d 81 3f 9b db 80 3f f3 f5 7d 3f
       0.99995756 1.0096908 1.0067018 0.99203414
000010 7e 9e 81 3f 14 f9 7a 3f aa c3 82 3f 94 40 7d 3f
       1.0126493 0.98036313 1.0215962 0.98926663

bn1.bias f4 [8]
000000 78 50 12 bc 62 c1 e0 bb 5e ed 20 bc 0b 5f bc ba
       -0.008930318 -0.0068589905 -0.009822218 -0.0014371587
000010 e1 85 7e 3c 29 f8 e8 ba f1 8a 56 bc 49 0a 8a bb
       0.015534849 -0.0017774153 -0.01309465 -0.004212652

bn1.running_mean f4 [8]
000000 11 21 0f 3f 85 10 0a 3f dc 59 0c 3f 34 0e f8 3e
       0.5590983 0.53931457 0.54824615 0.48448336
000010 70 ff 32 3f 83 9d 06 3f 32 5d 2a 3f b4 d0 22 3f
       0.69921017 0.52584094 0.66548455 0.63599706

bn1.running_var f4 [8]
000000 e5 a2 38 3f 42 1a 22 3f f0 b0 38 3f c5 19 0b 3f
       0.7212356 0.63321316 0.72144985 0.54336196
000010 78 35 d0 3f 85 23 36 3f cd 54 b5 3f 9b 2e 99 3f
       1.6266317 0.7114795 1.4166504 1.1967348

conv2.weight f4 [16, 8, 3, 3]
000000 4d 2f 98 3d a9 e2 17 be 60 26 d9 3e 73 77 08 be
       0.07430897 -0.14832558 0.4241209 -0.13326816
000010 40 2d 3e be 0f 28 f6 3d 80 c6 06 3e 6f 77 41 be
       -0.18571949 0.12019359 0.13161659 -0.18893217
000020 1c dd e2 3d 5a 86 6a bd 1a 31 18 bd 91 6c ef be
       0.110773295 -0.057257034 -0.037156202 -0.46762517
000030 16 55 1b 3e 4d 7f b4 3d 9c c0 61 be 8c 18 26 3e
       0.15169176 0.08813343 -0.22046131 0.16220301
000040 26 53 bf 3e 60 99 1a be 6e a8 48 39 0c fb 02 be
       0.37368125 -0.1509757 0.00019136231 -0.1279108
000050 8d ba 50 be e6 2e de be 76 45 35 3e 43 b4 d2 3d
       -0.20383663 -0.43395156 0.17702278 0.102882884
000060 df 41 cf bd 30 46 c5 3c a4 c2 06 be c4 65 2f 3e
       -0.10119986 0.02408132 -0.13160187 0.17128664
000070 cc 80 06 3c 84 da c1 bd ac 09 6b be 8c b5 7f 3c
       0.0082094185 -0.09465507 -0.22952908 0.015607249
000080 a2 b9 a5 bb 58 ca c2 bd 16 08 08 ba d6 fa 99 be
       -0.0050575295 -0.0951125 -0.0005189193 -0.30074185
000090 62 6c 31 3e b1 52 25 3d 92 ae fc 3d 32 ce 1d 3d
       0.17326501 0.040362064 0.12337984 0.03852672
0000a0 ba aa 6b bd 15 0b b4 3d 86 5a 89 3d 8d 45 a2 bb
       -0.057535864 0.08791176 0.06706719 -0.0049521388
0000b0 51 e7 a1 be e0 8e 57 3e 65 ee 3d be d9 fd 65 bc
       -0.31621793 0.21050596 -0.18547972 -0.014037573
0000c0 5c 33 3d 3d 35 0f 18 be dc 1e 92 bd c0 d4 73 bd
       0.04619156 -0.14849551 -0.07134792 -0.059529066
0000d0 b6 c9 3c 3e 6f 2d 54 bd 7d 86 ca 3d 30 3c 7b 3e
       0.18436322 -0.05180114 0.09888933 0.24534678
0000e0 dd 5e 64 be 41 e0 62 3c 9c cb 62 be 05 7a 70 be
       -0.22301812 0.013847412 -0.22147983 -0.23484047
0000f0 94 c6 6f be e5 35 78 be 9a b0 42 3e 4b 7b 0c be
       -0.23415595 -0.24239309 0.1901268 -0.13718908
000100 5f 28 69 3e 78 62 5e 3d 13 0a 6e 3e 0f 7f 55 3d
       0.22769307 0.054293126 0.2324603 0.052123126
000110 13 16 18 be 45 57 82 bd ac 57 27 3d d5 3f 4c 3e
       -0.1485217 -0.063643016 0.040855095 0.19946225
000120 9c f0 0e 3e 86 34 80 bd 5f 22 46 3e a5 32 6f 3d
       0.13958973 -0.06260018 0.19349049 0.058397908
000130 30 5b 1e bc 45 40 8e 3e 32 3e b5 3e a1 b0 fa bc
       -0.0096652955 0.2778341 0.35399014 -0.030601801
000140 bb 84 b7 3d 83 00 57 3e dc 6c cb 3d c9 4a 01 3e
       0.08960863 0.20996289 0.09932873 0.12626185
000150 28 55 1c bd 59 6f ca 3b 0f 99 35 be 9e c9 60 be
       -0.03816715 0.0061778245 -0.17734168 -0.21951911
000160 19 80 7b be 13 e8 70 3e 74 52 82 bc 1d 31 62 3d
       -0.24560584 0.2352603 -0.015908457 0.05522262
000170 83 e0 c2 bc ee dd 88 bd 3b fe b8 bb 9a 20 e7 bd
       -0.023788696 -0.06682955 -0.005645541 -0.11285515
000180 8d e7 8a be 91 5a b0 be a0 75 c8 bd 5a 2c e7 3c
       -0.27129784 -0.34444097 -0.0978806 0.02821939
000190 91 c7 41 bd 7e db 70 be dd 36 9d be 02 ca 35 3e
       -0.047309462 -0.2352123 -0.3070592 0.17752841
0001a0 0e 42 61 3e eb 6c 40 3e 70 0b 3e 3e c4 c8 de 3c
       0.21997854 0.18791549 0.1855905 0.027195342
0001b0 41 de e7 3d a2 7f cf bd dd 74 ae bd 91 47 16 bb
       0.113216884 -0.10131766 -0.08518384 -0.002293084
0001c0 74 7a e3 3d 23 4b 72 be 0c 83 23 3e cf df 5e 3d
       0.111073405 -0.23661475 0.15967959 0.05441266
0001d0 d2 50 97 3d bc 61 bb be 48 a9 89 bd c3 66 14 3e
       0.07388462 -0.36598003 -0.06721741 0.14492325
0001e0 f6 1e d0 bd c3 cd c8 bd 9e eb ac be 5a fe 83 be
       -0.10162155 -0.09804871 -0.33773512 -0.25779992
0001f0 ab ee c5 3d e8 c6 99 be 84 8d a0 3e 2e a8 71 be
       0.09664663 -0.30034566 0.31357968 -0.23599312
000200 aa 5e a8 be f7 1b b6 be 53 17 74 bd 07 01 66 3c
       -0.32884723 -0.3556821 -0.059592556 0.014038331
000210 d1 b8 fe bc 8d a4 79 3e 41 3c 2a be 82 ea 80 bb
       -0.031093987 0.24379177 -0.16624548 -0.0039342055
000220 7f 04 ca 3d 75 5b d5 3d 26 fa f0 3d 29 44 47 3e
       0.09864139 0.10417835 0.11766462 0.19459595
000230 da 71 49 3c 6d 12 c8 bd bf 19 d9 3d d8 35 ed bd
       0.012295211 -0.097691394 0.10600614 -0.115825355
000240 57 c0 46 3e 5c 5d 39 3e 3a 63 02 3e 39 ec 87 be
       0.1940931 0.1810202 0.12733164 -0.2654741
000250 de ae ad be 0b 8c 2d 3e 95 11 07 bd 04 80 f0 be
       -0.33922476 0.16947953 -0.032975752 -0.46972668
000260 c2 73 b7 3d b3 ee 7f bd 7f 44 d3 be a9 56 44 3e
       0.08957626 -0.0624835 -0.41263196 0.19173683
000270 07 e2 28 be 02 f2 ed be 0f 35 48 bd 1a 08 72 3a
       -0.16492473 -0.464737 -0.048878726 0.00092327746
000280 59 55 53 be 7c ef 87 be c8 e7 82 3e 32 30 d1 3d
       -0.20638026 -0.265499 0.2556746 0.10214271
000290 51 b4 5f 3d e8 24 52 3c 4c 0e 97 bd 9e 21 cb bd
       0.054615323 0.012826182 -0.07375774 -0.09918521
0002a0 61 68 fb 3b d8 ad 56 3e 91 da 2c be 39 1b ce bd
       0.007672355 0.20964754 -0.16880251 -0.10063786
0002b0 d3 68 ac 3d 4b 04 c4 3d c9 10 08 be 7d 4e 24 3e
       0.08418431 0.09571131 -0.13287653 0.16045566
0002c0 5d 61 ac be 9b e6 df bd a6 57 4e bc fc db 0c 3d
       -0.33668032 -0.109326564 -0.012594139 0.03438948
0002d0 3f ab cc 3e 2f 41 d9 bd 28 82 08 3d 2f b6 33 3e
       0.399744 -0.10608136 0.03332725 0.17549966
0002e0 31 dd bb bd c2 3f a2 bc e5 75 40 be cd 85 31 3d
       -0.09173048 -0.019805793 -0.18794973 0.043340493
0002f0 5e 21 bf 3b 49 87 39 3e a4 6f 10 3e 6c 3b 7d bd
       0.005832835 0.18118013 0.14105088 -0.061824247
000300 d0 82 cb bd b8 38 f1 bc 69 fd 79 bd 11 12 88 be
       -0.0993706 -0.02944599 -0.061032686 -0.26576284
000310 c7 cc 29 3d 88 08 e1 bd 7b 4e 3c 3a c1 47 98 bd
       0.041455057 -0.10987955 0.00071833254 -0.07435561
000320 cf ca 03 3e 54 37 08 3e 38 a2 2a 3c 28 82 8a be
       0.12870334 0.13302356 0.0104146525 -0.27052426
000330 c8 a6 6a 3d 7c d5 f8 bd 41 d0 ea 3d 2d 07 6c 3d
       0.05728796 -0.12150094 0.114655025 0.05762403
000340 fe 30 d3 bc 8f 93 28 3e 28 a7 8c 3d 0a 09 58 3d
       -0.025780197 0.16462539 0.0686782 0.052742995
000350 b3 15 2d 3e 96 f9 fb 3d 71 7e 8e bb 8c 05 71 3e
       0.16902809 0.12303464 -0.004348569 0.23537272
000360 4b e2 cf 3d 1e d8 93 be 59 45 2a bc 83 2a 21 be
       0.10150584 -0.28875822 -0.01039251 -0.15738873
000370 00 d2 27 be 76 1b e2 3c 26 5f 71 3e 17 0a 27 3e
       -0.16388702 0.027600985 0.23571452 0.16312443
000380 2f 26 c0 3d 32 46 79 bd d5 b8 08 be c3 e3 69 3b
       0.09382283 -0.06085796 -0.13351758 0.0035688735
000390 11 be af bd c9 2f c2 be 73 2c 1c 3e ac 17 4c bd
       -0.08581174 -0.37927082 0.15251331 -0.049827263
0003a0 64 1e 6a 3d 0a 78 b0 3e b6 2a 28 be e9 1b 1b be
       0.05715789 0.34466583 -0.16422543 -0.15147366
0003b0 07 83 ad 3d aa 52 83 3e da 1a b5 3d 22 a6 02 3e
       0.08472257 0.25649005 0.08843012 0.12758687
0003c0 34 e7 bd bc df 0c c4 3d d9 d7 30 3e d1 7b 31 be
       -0.023181535 0.095727675 0.1726984 -0.17332388
0003d0 38 af ef 3d 3a fa 68 3e 51 8d ee 3d 36 01 30 bc
       0.11703342 0.22751704 0.11648048 -0.010742476
0003e0 c5 0b bc be b5 43 12 be 71 f7 40 3e 16 0e 92 3e
       -0.3672773 -0.1428364 0.18844391 0.28526372
0003f0 6f 2b c5 bd 6e 48 32 3e a9 e6 e6 3d bc 34 13 be
       -0.09627425 0.17410442 0.11274464 -0.14375585

conv2.bias f4 [16]
000000 7b f5 57 3c 08 16 90 3b 06 7f 8e 3c a1 3b a3 3b
       0.013181086 0.0043971576 0.017394554 0.0049814736
000010 20 94 7b bb 32 d9 6f 3c 05 3d f9 3b cd 7b 9f ba
       -0.003838785 0.014639186 0.007606151 -0.0012167633
000020 9c 66 99 bb 78 4d 27 3c 27 67 3b bc ce 2a e4 3a
       -0.0046814214 0.010211341 -0.011438168 0.0017407776
000030 5a f0 a2 bc 85 42 d8 bc a6 4e d1 3c 46 44 02 3c
       -0.01989 -0.026398906 0.025550198 0.007950848

bn2.weight f4 [16]
000000 f2 ce 7f 3f 4d b4 80 3f 33 d1 81 3f d2 cb 7f 3f
       0.9992515 1.0055023 1.0141968 0.9992038
000010 4f b3 80 3f d6 c9 82 3f e8 49 80 3f e2 13 7f 3f
       1.0054721 1.0217845 1.0022554 0.99639714
000020 ce bc 7e 3f 4d 9b 7e 3f c1 6e 7c 3f 24 4f 7c 3f
       0.99506843 0.9945572 0.986065 0.9855826
000030 d0 8b 7f 3f 54 ec 7e 3f af 03 7e 3f ff 70 80 3f
       0.9982271 0.9957936 0.9922437 1.0034484

bn2.bias f4 [16]
000000 03 c9 f6 ba c6 b7 8b 3c cb 2b 82 3c ea f7 9e bb
       -0.0018828217 0.017055403 0.015890023 -0.004851331
000010 e7 26 da 3b 78 1e 5f 3c b1 39 90 bc d1 ba bf bc
       0.0066574696 0.013618104 -0.017605634 -0.02340451
000020 f8 00 3d 3b f7 50 2c 3c ef 0a b2 bb f4 79 9c 3b
       0.0028839689 0.01051735 -0.0054334323 0.00477528
000030 7b 1b 35 bc e8 82 95 38 ce 5e 2b 3c c9 c7 8e bb
       -0.011053915 7.129257e-05 0.010459615 -0.0043573123

bn2.running_mean f4 [16]
000000 31 69 f3 3e 03 6a cb 3e 49 ea 40 3f 71 72 07 3f
       0.47541192 0.39729318 0.7535749 0.52909
000010 cc 42 58 3f 9a a2 fb 3e eb b3 fa 3e 89 2d de 3e
       0.84476924 0.49147493 0.48965392 0.43394116
000020 f1 fb 02 3f 37 26 2c 3f 82 82 02 3f bf 53 e4 3e
       0.5116568 0.6724581 0.5098039 0.44595143
000030 b7 58 f4 3e 80 9d c8 3e bb fd 65 3f 72 52 05 3f
       0.47723934 0.39182663 0.89840287 0.52078927

bn2.running_var f4 [16]
000000 11 e7 c7 3e 06 a8 b0 3e 1e ed a8 3f 39 cb 27 3f
       0.39043477 0.34503192 1.3197362 0.6554447
000010 da f0 18 40 c0 71 5b 3f 95 46 bd 3e 78 c6 03 3f
       2.3897004 0.85720444 0.36967912 0.51474714
000020 6c fa eb 3e 4a 36 19 40 7f b4 47 3f 3a fd 3a 3f
       0.46089494 2.3939385 0.7800979 0.73042643
000030 7f ce f7 3e 87 6d e5 3e 7b c3 6f 3f 0b d4 7d 3f
       0.48399732 0.44810125 0.93657655 0.99151677

conv3.weight f4 [32, 16, 3, 3]
000000 60 22 ff bd 05 2d 1d be 0d 15 23 3c 60 10 90 bc
       -0.124577284 -0.15349205 0.009953749 -0.017585933
000010 4e 56 f2 bc 10 d8 d9 3b 97 c5 1e 3e 3d 12 b5 3d
       -0.029582169 0.006648071 0.15505062 0.08841369
000020 e0 34 63 bd bd 6b 1e 3d 4a ca a4 3d 79 29 02 3e
       -0.055470347 0.038676966 0.08046396 0.12711133
000030 b0 82 de bc 49 a0 cb bc a1 0b ca bd 22 40 15 3e
       -0.027161926 -0.024856703 -0.09865499 0.14575246
000040 1a db 7e 3d f0 f0 c6 bd 6a 14 6a bd 6e 5f 47 bd
       0.06222067 -0.09713924 -0.057148375 -0.048674993
000050 08 22 8c 3e bb 8d 99 bc 07 3c 22 3d c3 24 3e 3d
       0.27369714 -0.01874434 0.039608028 0.046421777
000060 74 17 55 be a4 8e 31 bc af da 42 3e 8b 06 84 bd
       -0.20809728 -0.010837231 0.19028734 -0.064465605
000070 46 6d 88 3d 6f a6 2c bc a1 5d 84 bd be f5 35 3e
       0.06661467 -0.010537728 -0.06463171 0.17769524
000080 82 13 3b 3e 15 91 86 bd 97 4b 4a 3d ef 06 e5 3d
       0.1826916 -0.06570641 0.049388494 0.11182963
000090 83 83 46 3e 76 d8 e9 3d 36 a3 b5 3d 75 c9 d9 3d
       0.19386105 0.1141824 0.08869021 0.10634128
0000a0 62 a2 54 be 7b 34 71 3c fa fc 16 bd 8e 16 6c bd
       -0.20765069 0.014721985 -0.03686235 -0.057638697
0000b0 c9 99 1a be 34 ed 2f 3e 96 af fa bc 26 c9 c3 3c
       -0.15097727 0.1718033 -0.030601304 0.023899626
0000c0 19 e2 d1 bc d1 64 08 3e 42 d7 e5 3d 64 58 20 3e
       -0.025620507 0.13319708 0.11222698 0.15658718
0000d0 c9 a1 85 bc 6b 6a b0 3d 18 f9 ff 3d b7 8e 33 3d
       -0.016312497 0.086140476 0.12498683 0.043837275
0000e0 2e 47 ad bd 78 dc 27 bd 71 61 33 bd 00 35 b4 bd
       -0.08460842 -0.04098174 -0.0437941 -0.087991714
0000f0 b3 c0 d0 bd 53 63 3d bd e3 58 0a bc f3 ab 79 3d
       -0.101930045 -0.0462373 -0.008444044 0.060955
000100 83 7f 06 3e 56 90 9f 3e f4 15 ef bc 85 40 4c 3e
       0.1313458 0.31164807 -0.029185273 0.19946487
000110 37 06 33 be 78 fa 63 bd ca f9 d2 bd 5d 70 8b be
       -0.1748284 -0.055658787 -0.1030155 -0.27234164
000120 a0 6e 2a 3c 11 26 3e be 1b 80 f0 3d ed da 1d 3d
       0.010402352 -0.18569209 0.11743184 0.038538862
000130 bd 18 b6 3d 47 c1 0e bd d6 b4 d7 bd be 11 89 bd
       0.08891437 -0.034852292 -0.105325386 -0.06692837
000140 6d ba 7f 3d f1 46 50 be ed cf 9d bd a7 d1 d2 bc
       0.06243365 -0.20339562 -0.07705674 -0.025734736
000150 83 58 59 bd 02 4c ad 3e 5c 59 36 bc a7 1e 87 3d
       -0.053062927 0.33847052 -0.011129703 0.06597643
000160 bf 04 1e bd ec c6 44 bd e9 c5 ba bd 7d 0c 84 3e
       -0.038578745 -0.04804127 -0.091197796 0.25790778
000170 62 40 f3 3c a9 3d 10 be 29 31 02 3e 1b c4 9a bb
       0.029693786 -0.14086021 0.12714066 -0.0047230846
000180 02 07 75 3c 9e c4 b7 bd b4 fb 16 be a4 b6 07 be
       0.014955284 -0.089730486 -0.14744455 -0.13253266
000190 82 90 fe bc 78 da 03 be 24 2f 85 bd d6 3a de bd
       -0.031074766 -0.12876308 -0.06503132 -0.10851066
0001a0 5f 24 3e 3e 3b c3 0a bb c9 27 55 3d e6 4e a2 3c
       0.18568562 -0.0021173495 0.052039895 0.019813012
0001b0 fe 88 f8 bd 7f ac 0f be aa 6a 82 be c4 eb 83 3d
       -0.12135504 -0.14030646 -0.25472003 0.06441453
0001c0 a3 f5 ec 3d 67 0c d4 bc a0 a0 44 bd f8 77 66 3e
       0.11570289 -0.02588482 -0.048004746 0.22506702
0001d0 34 fe 89 bd 91 92 a8 3d d8 65 dd 3c c5 51 d8 bc
       -0.067379385 0.0823108 0.027026102 -0.026406178
0001e0 a9 19 94 bc 9e 35 56 bd 32 17 4b be 04 24 67 bd
       -0.018078642 -0.052297227 -0.19833067 -0.05643083
0001f0 af ab 04 be b0 a9 5b 3d 15 60 ea 3c 8b 3d 10 3d
       -0.12956117 0.053628623 0.028610269 0.035214942
000200 c0 6e 88 3d 92 96 b7 bd 38 14 94 bd 9b a2 ed 3d
       0.06661749 -0.08964266 -0.07230419 0.1160328
000210 51 2d 8e bc b3 54 07 be 03 ed a4 3b 87 54 db 3c
       -0.017355593 -0.13215904 0.005033137 0.026773704
000220 da 87 55 bd d8 81 45 3b 37 fe f2 bb 7d 07 44 3e
       -0.05213151 0.0030137207 -0.0074155587 0.19143482
000230 b3 a7 d7 3c af 68 78 3d 9b 6b 81 bd 4e ff 87 3e
       0.026325082 0.06064671 -0.06319352 0.2656197
000240 35 84 a8 bc e6 c0 1f 3e e9 75 12 3e a1 25 70 3d
       -0.020570854 0.15600929 0.14302792 0.058629636
000250 96 cf 88 3d 09 51 a8 bd 02 a6 39 bd d4 31 0d 3c
       0.06680219 -0.08218581 -0.045324333 0.008617837
000260 7c aa 7d 3d 2b 41 de bd b9 f1 99 3d fe f7 8f 3d
       0.061930165 -0.108522736 0.07516808 0.07029723
000270 de 79 30 bd d3 31 15 3c b9 87 61 be 52 23 04 3d
       -0.04308497 0.009106117 -0.2202443 0.032260247
000280 b7 c2 a5 3d 91 7a d8 3c 5e 76 8e bd 1b 3b 80 3d
       0.080937795 0.026425632 -0.069561705 0.062612735
000290 a8 ec 37 bd af f6 b2 3c ba 33 9b b9 c5 89 ed 3d
       -0.044903427 0.021846144 -0.00029602443 0.11598543
0002a0 ca eb de bd 56 7c a5 3d 45 f6 61 3c 7d 6a c4 bd
       -0.10884817 0.08080356 0.013791625 -0.095906235
0002b0 c9 87 e0 3d bc 4d 26 3e 08 8b 64 3d 42 f0 a2 3d
       0.10963399 0.16240591 0.055796653 0.07955982
0002c0 6c 66 8e 3d 6f d2 5e bd ea 39 16 3e 74 6a 48 be
       0.06953129 -0.054399904 0.1467053 -0.19571859
0002d0 2c fb 0c be f1 56 29 3d ec dc a7 3c 6d ef 50 3e
       -0.1376769 0.04134268 0.020491086 0.20403834
0002e0 22 11 1b be 38 da c0 3c ed 07 32 bd 8e 05 fe 3b
       -0.15143254 0.023541555 -0.04346459 0.007752127
0002f0 e8 3c 7a 3c 6f 14 9a 3b cb 47 55 3d d9 98 21 3a
       0.01527331 0.004702143 0.05207042 0.00061644387
000300 6f 7b 79 3e 84 67 6f 3b 9c ab 9f 3d 25 f5 bd 3c
       0.24363492 0.0036530206 0.07796404 0.023188183
000310 21 32 0f 3b 13 61 9b 3d cf 8b 7a 3c d7 31 93 bd
       0.0021849948 0.07586875 0.015292122 -0.071872406
000320 76 a7 2a bd a4 bf 15 be 1c 70 c5 bc c4 c4 46 bd
       -0.04166361 -0.14623886 -0.02410131 -0.048527494
000330 d2 0b 3d 3d c7 7d 39 3e 42 3b c0 3d 94 3a b0 3d
       0.04615385 0.18114386 0.093863025 0.08604923
000340 13 17 bb 3c 55 fa 84 bd 4e 66 14 bd 69 1e 26 bd
       0.022838151 -0.064930595 -0.036230378 -0.040556345
000350 1b a9 19 be 1c 0d e0 3c 67 4e e2 bd 72 92 e7 3d
       -0.15005915 0.027350001 -0.1105011 0.11307229
000360 9e 44 67 be 8f fb b1 bc d2 16 11 be 77 78 d4 bd
       -0.22584769 -0.021726398 -0.14168862 -0.10374539
000370 a8 cb cd bd 86 f6 cc bc 08 75 2c be 1a 43 06 bd
       -0.1004861 -0.025019895 -0.16841519 -0.032778837
000380 15 4d 25 bd f1 03 05 be fb f8 12 bd 14 a1 46 bd
       -0.040356714 -0.12989785 -0.035881978 -0.04849346
000390 07 f9 93 bd 81 bd e5 bc e1 99 39 3d 7d 03 4b 3b
       -0.072252326 -0.028044464 0.045312766 0.003097742
0003a0 6b 2f 4f be 01 a7 30 be 61 86 4d 3e 82 43 ca 3d
       -0.20232932 -0.17251207 0.20070793 0.09876157
0003b0 b1 02 44 bd 79 40 f5 3c 4f ec 1e 3e cf c3 2a 3e
       -0.04785413 0.02993797 0.15519832 0.16676258
0003c0 54 9d 32 be d3 ca ce 3d aa 36 c3 3d 9f 25 32 3d
       -0.17442828 0.100972794 0.09531911 0.04349291
0003d0 d3 f5 40 3e f0 58 4d 3c d0 fc 2a bc 79 71 0e be
       0.18843774 0.012533411 -0.010436252 -0.13910474
0003e0 d7 88 46 bd c2 cd 58 bc df 53 38 be 88 69 ae bd
       -0.048470344 -0.01323265 -0.18000744 -0.08516222
0003f0 12 2e f4 bd cc 93 db bd db 88 55 bd 09 fa b1 bd
       -0.1192285 -0.107215494 -0.05213247 -0.086902685

conv3.bias f4 [32]
000000 af c3 24 3c d7 b7 4d 3b 3d fa 9a 3b aa 76 b6 3b
       0.01005642 0.0031390095 0.0047295378 0.005568345
000010 d9 72 74 bb dd c3 83 3c 4a 67 05 39 ac 9c 67 bc
       -0.00372999 0.016084606 0.00012722347 -0.014136475
000020 58 4f 8b 3b c5 0e 4d 3c 06 b4 eb 3b 3d 34 85 3c
       0.004251402 0.012515728 0.0071930913 0.01626026
000030 05 32 ea 3b 3f 99 b5 bc 9c 7b a6 3c a7 28 b7 bb
       0.007147076 -0.0221678 0.020322613 -0.005589563
000040 a2 5c 90 3c be ec 2d 3c c9 05 30 3b b7 92 82 bc
       0.017622296 0.010615526 0.0026858917 -0.0159391
000050 b2 37 d2 bb cd ec 99 3c 31 e5 1f 3c 9c 0a ae 3b
       -0.006415331 0.018789673 0.009759233 0.0053113233
000060 e2 d8 9e 3b ac 25 10 bb c6 be 4d bc e3 93 89 3c
       0.004847632 -0.002199511 -0.012557691 0.01679415
000070 ea 14 5d 3c 01 21 56 3b 8a 97 a8 3c 6c 46 b7 3a
       0.013493756 0.003267348 0.020580072 0.0013982779

bn3.weight f4 [32]
000000 68 98 83 3f c4 93 7e 3f c6 37 7b 3f 40 7d 80 3f
       1.0280886 0.9944422 0.9813198 1.0038223
000010 2a 7f 7d 3f 47 85 7c 3f 48 09 82 3f 41 7b 81 3f
       0.9902216 0.98640865 1.0159082 1.0115739
000020 97 b6 7b 3f 52 9a 81 3f ae 6a 81 3f 79 54 7f 3f
       0.98325485 1.012522 1.0110681 0.9973827
000030 26 48 7e 3f d4 d1 7f 3f b9 6a 7c 3f 94 86 80 3f
       0.9932884 0.9992955 0.98600346 1.004107
000040 be bd 7d 3f 09 3a 7b 3f a0 16 85 3f 38 56 7f 3f
       0.9911765 0.9813543 1.039753 0.99740934
000050 03 c7 7e 3f af 72 84 3f 3b 51 7e 3f 13 21 80 3f
       0.9952242 1.0347499 0.993427 1.0010093
000060 b9 97 7e 3f b2 16 7e 3f 57 13 83 3f 71 53 81 3f
       0.9945026 0.9925338 1.0240277 1.0103589
000070 eb 4b 80 3f a9 a5 7e 3f 74 46 7f 3f 5f 68 7f 3f
       1.0023168 0.9947153 0.9971688 0.9976863

bn3.bias f4 [32]
000000 a4 b7 d6 bc 1d 30 68 3b 65 30 b2 ba 5e 20 ca bb
       -0.026210614 0.0035429068 -0.0013594745 -0.0061684093
000010 ec e4 06 bb 86 69 56 39 35 d7 57 bc a6 6a ce bc
       -0.0020583225 0.00020447941 -0.013173868 -0.025197338
000020 3d 9c a0 bc 7c 8a 66 39 37 15 07 3c b2 ef c3 3a
       -0.01960575 0.00021986099 0.008244804 0.0014948754
000030 4f 40 92 bc 9c 89 37 ba 02 3b 15 3c 82 e8 81 bb
       -0.01785293 -0.00070014014 0.009108307 -0.0039644847
000040 5e e2 8a ba 18 3e b1 3a e3 df 5e bc 03 f1 b5 ba
       -0.0010596027 0.0013522534 -0.013603183 -0.0013881031
000050 1d 99 82 bc c6 68 42 bc d4 c3 68 bb aa 9a 7c bb
       -0.01594215 -0.0118658 -0.0035517113 -0.0038544335
000060 2e 80 05 3c e7 75 90 3b 4a c0 6a bc 32 2d 54 3c
       0.008148236 0.0044085863 -0.014328072 0.0129502285
000070 1f ab 96 ba 3b 63 9f bc 9b b0 ef ba 97 90 80 3b
       -0.001149509 -0.019456496 -0.0018286885 0.0039234865

bn3.running_mean f4 [32]
000000 63 cc e1 3e c5 6f cf 3e a6 d5 da 3e 94 8c 0d 3f
       0.44101247 0.4051496 0.42741126 0.5529263
000010 30 4f 04 3f 74 96 cb 3e 29 6f 12 3f 73 e9 2a 3f
       0.5168333 0.39763224 0.57200867 0.66762465
000020 7c d5 e4 3e c4 18 07 3f 4c 73 d7 3e f4 d2 02 3f
       0.44694126 0.52772164 0.42080152 0.5110314
000030 a5 c8 08 3f 2a 17 e3 3e 24 e2 e7 3e 52 8e d2 3e
       0.5343116 0.4435361 0.4528972 0.41124207
000040 38 4c 28 3f cf b5 da 3e 97 8d 29 3f 06 16 00 3f
       0.657413 0.42716834 0.66231674 0.50033605
000050 de 47 e4 3e 79 2f 39 3f 6e b1 68 3f b8 61 f8 3e
       0.4458608 0.7233806 0.90895736 0.48512053
000060 fe de f0 3e dc eb ef 3e 0c 8a 1d 3f b7 0d e7 3e
       0.4704513 0.46859634 0.6153877 0.4512765
000070 8b a5 32 3f bb 0b fe 3e e7 86 f2 3e cf ff e7 3e
       0.6978385 0.49618325 0.47368547 0.45312354

bn3.running_var f4 [32]
000000 33 c2 1e 3f 81 73 af 3e 80 8b d9 3e 58 cf 2d 3f
       0.62015074 0.3426781 0.42489243 0.67894506
000010 1c ae 5a 3f ef 31 a8 3e f9 4d ac 3f 41 2a 1c 40
       0.8542192 0.32850596 1.3461295 2.440079
000020 18 04 07 3f b9 8b 0e 3f 47 a3 c3 3e 8c 57 5f 3f
       0.5274062 0.5568195 0.38210508 0.8724296
000030 29 69 17 3f a5 0a 00 3f 76 b7 fd 3e 80 09 ec 3e
       0.59144837 0.5001624 0.49554032 0.46100998
000040 94 7c e6 3f 13 c2 e5 3e 5e a7 cc 3f 00 ca 98 3f
       1.8006768 0.4487463 1.5988576 1.1936646
000050 92 29 e8 3e 36 36 35 40 64 ba 70 3f 2e 68 11 3f
       0.45344216 2.8314338 0.9403441 0.5679959
000060 60 0e 64 3f 2c 95 cc 3e 16 81 e2 3f 13 14 d9 3e
       0.89084435 0.3995756 1.7695644 0.42398128
000070 48 79 eb 3f d0 ae ed 3e d0 55 1e 3f 56 0e da 3e
       1.8396387 0.46422434 0.6184969 0.42589062

conv4.weight f4 [64, 32, 3, 3]
000000 95 a6 43 3d 3c fa 54 3d 01 60 ff 3c b2 c1 ea bc
       0.047766287 0.051996455 0.031173708 -0.028656814
000010 3b 9c e3 bd 25 59 e8 bd 0e 5a b1 3d ec 29 d3 bc
       -0.11113783 -0.11345128 0.08659755 -0.025776826
000020 24 a6 d6 bd 85 40 e8 3c 50 c4 cc bd 44 e4 42 bd
       -0.104809076 0.028351078 -0.09998381 -0.047580972
000030 3c c3 53 3c 27 7b 89 bd fa b9 eb 3d b8 92 3e 3d
       0.0129249655 -0.067129426 0.115100816 0.04652664
000040 ea 04 b0 3d e9 9d 47 3c 32 8e d8 3c ed 7a dc 3d
       0.08594687 0.012183645 0.026434992 0.10765634
000050 ec 70 7a bd fe 76 9d bd 49 9a 06 3e 35 f9 d8 3d
       -0.061142847 -0.076887116 0.13144793 0.105944075
000060 be 9e cc bc c7 76 ac 3a 39 e6 27 bc 9a 57 b9 bd
       -0.024978038 0.0013157957 -0.01024776 -0.09049912
000070 e6 93 d9 bc 8c 50 91 bc 7c 22 9d 3d e7 d3 cb 3d
       -0.026559781 -0.017738603 0.07672593 0.099525265
000080 e8 fa ff bd 05 c0 a3 3d c0 e7 94 3d c5 8d 77 bd
       -0.124990284 0.07995609 0.07270765 -0.060437936
000090 f2 03 44 3c 35 66 09 3e db f1 ff 3d 68 bb f1 b9
       0.011963831 0.13417895 0.12497302 -0.0004610673
0000a0 be 1f 8d 3d 07 fc 6b be 76 08 ed 3d b5 9a c9 bc
       0.0689082 -0.2304536 0.115738794 -0.024609903
0000b0 29 b7 8a 3d c0 13 fa 3c 55 db aa bd 93 28 5c bc
       0.06773216 0.030526996 -0.083426155 -0.013437408
0000c0 8b f6 83 3c 92 9c d2 3c fe d9 90 bb 30 cd 22 3e
       0.016108772 0.025709424 -0.004420518 0.15898585
0000d0 28 1b 4f bd ac c8 92 bc 69 98 8e 3b 9e c5 67 3d
       -0.050563008 -0.017917953 0.004351665 0.056584947
0000e0 83 6b 61 bc c1 d9 5b be ee 5b 37 bd e6 e9 39 bd
       -0.013758543 -0.21469785 -0.044765405 -0.04538908
0000f0 6b ee 4c bc 80 90 22 bd 7e 5b 5f bc 34 db 08 bd
       -0.012508015 -0.039688587 -0.013632653 -0.033412173
000100 b0 da d3 bd 4d 11 63 bd 6f b0 5b 3d 1d cb 9f bd
       -0.10344446 -0.05543642 0.053635057 -0.07802413
000110 7b 24 3b be c1 08 91 bd 18 43 bf 3c e0 21 16 3c
       -0.18275635 -0.07081748 0.023347422 0.00916335
000120 00 66 14 3c 28 5b 99 3d 9b 75 22 3b 53 32 0c be
       0.009057522 0.0748809 0.0024789337 -0.13691072
000130 6e b8 82 3d a1 06 05 bd b7 25 76 3d e2 93 05 3e
       0.063828334 -0.032477025 0.06009456 0.13044694
000140 1f 37 76 3c 12 e3 cd 3d 99 6f 8f 3d 60 d6 93 bd
       0.01502779 0.10053076 0.070037074 -0.07218623
000150 b5 05 23 3d 32 74 0f bd ae 72 8d 3c b9 fa 9f 3d
       0.039800365 -0.03502292 0.017266598 0.078114934
000160 a3 e2 8c bc 91 22 0d 3e 76 41 04 3c 49 0f 2c 3e
       -0.017197913 0.13782717 0.008072248 0.16802706
000170 1e 84 05 bd 3d ae 7a bb ce 1f 2e bd 95 3a 18 3e
       -0.0325967 -0.0038250827 -0.0425108 0.14866097
000180 49 27 79 3d 47 41 2a 3e 73 3d c1 3d d7 80 45 bb
       0.06082848 0.16626464 0.09435549 -0.003013661
000190 36 49 f7 bd 69 eb 80 3b d2 cb 29 bc 9f f9 61 bd
       -0.12074511 0.003934313 -0.010363536 -0.055169698
0001a0 91 5c 37 3d db cc d4 3d 49 b7 d5 bc 4e a4 cd 3d
       0.044766013 0.103906356 -0.026088374 0.10041104
0001b0 e1 15 18 3d 0b 4b 42 bc 50 c8 4f bd 58 67 46 bd
       0.03713024 -0.011858712 -0.050728142 -0.0484384
0001c0 47 9f 2b be f8 ed af bd 6b 16 e0 bd 6c 12 cb 3c
       -0.16759978 -0.08590311 -0.10941776 0.024789058
0001d0 82 79 0a bd f3 9c 19 3c 1a 9c e9 bc 2b 00 fd bb
       -0.033807285 0.0093757985 -0.028516818 -0.0077209673
0001e0 30 1e 38 3d 85 71 3f 3d 33 db 24 3d 63 3c 53 bd
       0.044950664 0.04673912 0.040248107 -0.05157126
0001f0 7f e1 85 3d f6 1e df bd e4 d6 77 3d 81 60 a6 3d
       0.065371506 -0.10894577 0.06050767 0.081238754
000200 b5 2d 2a 3e ba 6f 16 bb 08 7e a2 bd fd cb 05 bd
       0.16618998 -0.0022954778 -0.07934195 -0.03266524
000210 a7 c4 cd bc 01 08 21 3e b2 48 a5 3d 33 58 85 bd
       -0.025118185 0.1572571 0.08070506 -0.06510963
000220 49 ff 6f bd c6 55 1e bd 82 89 fd bd aa db 1d 3e
       -0.05859307 -0.03865602 -0.12379743 0.15415826
000230 10 31 71 bd fd 47 68 ba 0d 7a ac bd da 38 9e 3d
       -0.05888468 -0.0008860825 -0.08421717 0.07725687
000240 4e fc 9c 3d af 82 c5 3d c9 b6 b5 bd 6b 84 61 3d
       0.07665311 0.096440665 -0.08872754 0.055057924
000250 d9 39 e0 ba 10 2a be bd 25 0b d4 3c da c9 18 ba
       -0.0017107084 -0.092853665 0.02588422 -0.0005828418
000260 5f 7c d9 3d 9e 38 e2 bc b3 26 96 bd 05 64 0e bd
       0.10619425 -0.027614888 -0.073316 -0.034763355
000270 c1 bc 0e bb 00 0b 76 bc 17 32 fc bc b2 cb d6 3d
       -0.0021779987 -0.015017271 -0.030785603 0.104880705
000280 74 86 84 bb 8c 3f 75 3d fc 16 e2 bc fa 46 d0 bc
       -0.0040443484 0.059875056 -0.02759885 -0.02542447
000290 51 f1 8c 39 88 8a d6 bd 85 2c 95 3d 32 59 b8 bc
       0.00026882676 -0.104756415 0.07283882 -0.02250347
0002a0 db dd 18 3e 77 6f da bd 11 05 9f 3d 60 50 fe bc
       0.14928381 -0.106657915 0.07764638 -0.031044185
0002b0 d2 44 11 bd e0 bb e6 3c 68 48 0f 3c 65 1b aa 3d
       -0.035466023 0.028165758 0.00874529 0.08306006
0002c0 55 09 0f 3e 01 ac c5 bc 7c 15 65 3d f3 82 ab 3d
       0.13968404 -0.02412987 0.055928692 0.08374586
0002d0 40 7f cd 3c d0 a8 9c 3c 4a 4e 46 3e 65 2b c8 bc
       0.025085092 0.019123465 0.19365802 -0.024434755
0002e0 79 9f 9a 3d 77 1e 0f b9 34 f8 bd bd 84 aa 38 be
       0.07549948 -0.00013648892 -0.092758566 -0.18033797
0002f0 04 a1 b0 3c a4 c9 00 bd 44 d8 9f bd 6e f2 03 bd
       0.021561153 -0.0314423 -0.07804921 -0.03221362
000300 f6 12 c8 bd f0 b1 e6 bd c2 a0 a2 bd 9b 4b 6b be
       -0.097692415 -0.11264408 -0.07940818 -0.2297806
000310 7e 67 d2 3d 95 a3 7b 3d 43 e3 69 bd 45 13 95 bd
       0.10273646 0.0614353 -0.0571015 -0.07279066
000320 54 ab b8 3d 04 75 cb bd bf ae 97 3b a9 12 e2 bc
       0.09017053 -0.09934428 0.0046289857 -0.027596788
000330 ef 2c 8c 3b b5 b9 d5 bc e1 e5 02 be 45 c0 aa bc
       0.0042778174 -0.026089529 -0.12783004 -0.020843634
000340 bc 83 84 3b 20 3a 84 bc 56 22 30 3d a3 7f 53 bd
       0.0040440243 -0.016140997 0.043001495 -0.051635396
000350 5d b4 a0 3b 25 50 4c 3d f0 5a 2f bd 64 8f 3e bc
       0.0049043135 0.04988112 -0.042811334 -0.011630867
000360 f7 b4 04 be 8a d2 06 be fc 75 8f 3d 6b 8a 35 3d
       -0.12959658 -0.13166252 0.070049256 0.04432146
000370 5c a1 d3 bd 40 e8 10 bd da 73 14 bd c2 a5 8f 3b
       -0.10333511 -0.03537774 -0.036243297 0.0043837735
000380 4b 79 34 bd 09 3b d6 bd 0c f0 93 bd cf fa 0d 3e
       -0.044060986 -0.10460479 -0.0722352 0.13865207
000390 28 ba cb bd bc 54 2e 3d 3f d1 2d 3e 1b 87 43 bd
       -0.09947616 0.042561278 0.16974352 -0.04773627
0003a0 3d 00 de bc 47 c2 cc 3c 26 29 95 bd ec 9e 2a bd
       -0.027099723 0.024994982 -0.07283239 -0.041655466
0003b0 94 af ce bc 57 55 59 bd c0 cc cd 3d cd 09 ab bb
       -0.025230207 -0.053059902 0.100488186 -0.005219674
0003c0 81 80 d7 bd 50 c8 97 3d 36 40 76 bc 38 1d ab 3d
       -0.10522557 0.074112535 -0.0150299575 0.083551824
0003d0 88 14 9f bd da 54 ad bc 26 40 20 3d ae 07 3e 3e
       -0.07767588 -0.021158624 0.039123677 0.18557617
0003e0 d2 d3 82 bd 31 50 7b bd 96 39 05 bd e0 3a 8e 3a
       -0.06388058 -0.061355773 -0.03252562 0.0010851286
0003f0 6c c8 b3 3d ae 31 08 3c d4 06 0f 3d ac 58 d0 bc
       0.08778462 0.008312626 0.03491862 -0.025432907

conv4.bias f4 [64]
000000 87 87 de b9 4b 9e 0b 3c a7 14 96 3b 12 19 8a bb
       -0.00042444115 0.008521627 0.0045800987 -0.0042144144
000010 ff 42 5e 3c 9e 69 63 bb 31 5f 6b 3c 67 de f1 3c
       0.013565778 -0.0034700404 0.014365957 0.029524995
000020 b5 7e 68 3b 45 7b 25 bb d5 83 c9 3c 83 6c 70 bc
       0.0035475914 -0.0025250476 0.024598995 -0.014674309
000030 f7 ad e4 ba d1 0d 55 3c 20 b3 3f 3c bd b0 ab ba
       -0.0017446865 0.013003782 0.011700422 -0.0013098937
000040 23 78 90 3a 1b 38 a9 3b bb aa a7 bc bf f8 62 3b
       0.0011022132 0.005164159 -0.020467153 0.0034633128
000050 74 b5 aa bb 22 ea 00 39 ba 8b 78 3b ca e2 f5 bc
       -0.005209619 0.00012294253 0.003792508 -0.030015368
000060 fa 85 9d 3c 51 41 3e 3b 56 83 3c bc 49 0b 18 bc
       0.019228924 0.002903063 -0.011505922 -0.009280034
000070 16 18 b8 3c 39 b9 99 3c 95 20 8e 3c ae 0b 6f 3c
       0.022472423 0.018765079 0.01734952 0.014590187
000080 cd b7 20 ba 8f 32 ec ba 50 fc a8 3c 4c 0b ee 3b
       -0.0006130904 -0.0018020439 0.020628124 0.0072645303
000090 ca b2 bd 3c e9 e9 43 3c 0e ed d4 bb 6e 25 57 bb
       0.023156542 0.011957624 -0.0064979857 -0.0032828706
0000a0 15 97 5a bc e1 68 ab 3b 46 5c 47 bc 03 38 b1 bb
       -0.013341685 0.0052310084 -0.012167996 -0.0054082884
0000b0 ed e3 26 3c 19 cb 82 bc ae bb 36 bb b7 a1 79 bb
       0.010186178 -0.015965985 -0.0027882862 -0.0038090774
0000c0 21 1f a4 bc 1c 57 55 3b b9 42 f2 ba 48 28 c8 3b
       -0.020034375 0.0032553142 -0.001848302 0.0061083175
0000d0 62 d4 c4 3b c5 9d 17 bb 5c e3 88 3c 00 98 ad 3c
       0.0060067633 -0.002313481 0.016709976 0.021190643
0000e0 10 02 3e ba ad c3 f1 37 07 b7 85 39 65 d1 c9 3b
       -0.0007248232 2.8820557e-05 0.00025504103 0.006158995
0000f0 cf 53 b4 ba 9e 5d 81 3c f5 37 bf 3c e6 1e d0 3b
       -0.0013757887 0.01579171 0.023342112 0.0063513396

bn4.weight f4 [64]
000000 4d 19 80 3f 9b 57 80 3f 80 3b 80 3f ba b1 81 3f
       1.0007721 1.0026735 1.0018158 1.0132363
000010 a1 39 81 3f 61 60 81 3f c7 84 7e 3f c9 a7 81 3f
       1.0095712 1.0107538 0.9942135 1.0129329
000020 3f 9a 7f 3f 1f d7 7f 3f 08 7a 82 3f ed f1 7d 3f
       0.99844736 0.99937624 1.0193491 0.99197274
000030 28 15 80 3f 0f 95 84 3f 7e 9c 7d 3f 92 e4 7f 3f
       1.0006456 1.0357989 0.99066913 0.99958146
000040 56 48 7f 3f 59 e3 80 3f 40 83 84 3f ff 3c 7f 3f
       0.9971975 1.0069381 1.0352554 0.9970245
000050 ac d6 84 3f 9c c9 83 3f 91 ef 80 3f 22 4a 7b 3f
       1.0378013 1.0295901 1.007311 0.9815999
000060 72 51 80 3f 7f fc 7e 3f ae 4f 7d 3f d1 6b 7c 3f
       1.0024855 0.9960403 0.98949707 0.98602015
000070 1f 41 7d 3f 3e 6f 7d 3f 73 24 81 3f e7 87 80 3f
       0.9892749 0.9899787 1.0089248 1.0041474
000080 da ef 84 3f 86 82 84 3f 80 73 7e 3f 20 20 87 3f
       1.0385697 1.0352333 0.9939499 1.0556679
000090 e6 55 80 3f ca e5 80 3f 09 23 80 3f 93 68 7e 3f
       1.0026214 1.0070126 1.0010692 0.9937832
0000a0 84 7a 82 3f c7 4c 80 3f 3c 4f 80 3f 56 c9 7c 3f
       1.0193639 1.002343 1.002418 0.98744714
0000b0 39 88 7d 3f 7b 67 80 3f 52 7e 7f 3f 81 30 80 3f
       0.99035984 1.003158 0.99802125 1.0014802
0000c0 b9 e3 81 3f 77 62 7b 3f cc d9 7e 3f c2 d5 80 3f
       1.014762 0.9819712 0.9955108 1.0065234
0000d0 cd 54 82 3f 24 07 7d 3f 57 9a 80 3f 2f e1 83 3f
       1.0182129 0.9883902 1.0047101 1.0303096
0000e0 ce ff 7e 3f a8 e1 80 3f 1e 1e 82 3f 76 6f 80 3f
       0.99609077 1.0068865 1.0165441 1.0034015
0000f0 b7 ea 80 3f 3f 66 80 3f 01 64 80 3f e2 d0 81 3f
       1.0071629 1.0031203 1.0030519 1.0141871

bn4.bias f4 [64]
000000 c1 6b 02 be f8 8e ec 3d 7d 47 04 3e f3 b1 04 be
       -0.12736417 0.115507066 0.12917896 -0.12958507
000010 f3 15 ef 3d a8 5f f8 bd 3b 72 09 3e 2a d1 f3 bd
       0.11674108 -0.1212762 0.13422482 -0.11905129
000020 33 a1 04 be bd ea 00 be 8a f5 0c be 43 6f e2 bd
       -0.12952118 -0.12589546 -0.1376554 -0.11056378
000030 b4 96 01 3e 5a 8c d1 3d 4a d6 08 3e 1f 33 10 3e
       0.12655145 0.10231848 0.13362995 0.14082001
000040 3b b5 0c be 4a e0 fc bd e9 ab f8 3d d6 77 03 be
       -0.13741009 -0.12347467 0.12142164 -0.12838683
000050 28 02 d8 bd 28 5c ff 3d 4e ea 09 3e 73 91 02 be
       -0.10547286 0.12468749 0.13468286 -0.12750797
000060 5f a7 ee bd 86 62 fb bd 83 fc 0d be 47 df 17 3e
       -0.11653017 -0.12274651 -0.13865857 0.14831267
000070 28 b2 f8 3d 68 ce f0 3d a3 b9 08 3e 2e 07 00 be
       0.121433556 0.11758119 0.13352065 -0.12502739
000080 b5 cb 17 3e 7e de 04 be 79 e7 0b be a6 29 f8 bd
       0.14823802 -0.12975499 -0.13662519 -0.12117319
000090 5d 0f 0b 3e e4 a9 fc 3d 42 7b f5 3d ea c8 01 3e
       0.1358008 0.123370916 0.119864 0.12674299
0000a0 31 f0 e0 3d 5e 76 16 3e 4a f8 13 be 89 60 07 3e
       0.10983313 0.14693591 -0.14450184 0.13220419
0000b0 be e9 f7 3d 79 20 f4 3d 29 22 fd bd b7 98 08 3e
       0.1210513 0.11920256 -0.12360031 0.13339506
0000c0 8e 82 d6 bd b2 10 03 be 4b dc 04 3e d7 bb d5 3d
       -0.1047412 -0.12799338 0.1297466 0.10436218
0000d0 66 86 fe bd 49 ce d3 3d 85 92 0c be 75 7a f9 3d
       -0.12427978 0.1034208 -0.13727768 0.1218156
0000e0 dc 56 0c 3e a6 53 f5 bd a7 59 d5 bd 1f 43 ef bd
       0.13705009 -0.11978845 -0.104174905 -0.11682724
0000f0 52 f4 fd 3d fc fb 00 3e 8e 09 14 3e c3 b5 f9 bd
       0.12400116 0.12596124 0.1445677 -0.121928714

bn4.running_mean f4 [64]
000000 9c 7f 23 3f 03 22 33 3f 18 db e9 3e 37 06 1e 3f
       0.6386659 0.6997377 0.45674968 0.61728233
000010 d2 72 1f 3f 3e f3 13 3f 95 d7 08 3f 6a 1f 27 3f
       0.62284577 0.57793033 0.5345395 0.6528231
000020 33 59 05 3f 1f 34 13 3f 25 38 35 3f f4 46 05 3f
       0.5208923 0.57501405 0.70788795 0.5206139
000030 e5 cd 11 3f 8f dd 35 3f 78 6e 24 3f ac 50 0e 3f
       0.56954795 0.71041197 0.6423106 0.55591846
000040 23 ba f5 3e e6 24 14 3f 52 4f 4a 3f 37 03 f3 3e
       0.47993574 0.578688 0.79027283 0.4746339
000050 40 9b 46 3f 56 25 6c 3f fa 55 01 3f 7a 14 1b 3f
       0.7758064 0.9224447 0.50521815 0.6057812
000060 71 ce 2c 3f 8c 15 1f 3f 01 20 f3 3e bc c3 42 3f
       0.67502505 0.6214225 0.47485355 0.76079917
000070 32 36 15 3f a9 c2 38 3f 8b 0c 0e 3f eb 40 08 3f
       0.5828582 0.7217203 0.5548789 0.53224057
000080 7c f9 14 3f 4e 5c 19 3f 32 83 0c 3f 81 b0 2e 3f
       0.5819318 0.5990647 0.5488769 0.68238074
000090 b4 dc 1f 3f d6 7f 2d 3f 28 1b 0b 3f 21 0a ed 3e
       0.6244614 0.6777319 0.5433831 0.4629679
0000a0 b7 da 32 3f d1 b4 06 3f 1a 34 e4 3e dd 22 0e 3f
       0.6986498 0.52619654 0.44571 0.5552195
0000b0 83 1c 27 3f 1d ef ed 3e 89 5b fa 3e 44 72 36 3f
       0.6527788 0.4647149 0.4889796 0.71268106
0000c0 11 77 e8 3e 03 8c e4 3e 40 1c 1d 3f 1e c1 02 3f
       0.4540334 0.4463807 0.6137123 0.51075923
0000d0 0e a8 27 3f 45 a1 3d 3f 54 d1 25 3f 25 f7 02 3f
       0.65490806 0.740742 0.64772534 0.5115836
0000e0 d7 66 e9 3e 15 38 15 3f 0c f5 02 3f 5d a7 1d 3f
       0.45586273 0.582887 0.5115516 0.615835
0000f0 0f 59 24 3f 19 03 46 3f 30 18 20 3f ae 6e 09 3f
       0.6419839 0.77348477 0.6253691 0.5368451

bn4.running_var f4 [64]
000000 a3 26 56 3f f7 df 67 3f f1 be 0b 3f bb 2c 03 40
       0.83652705 0.9057612 0.5458823 2.0496051
000010 91 6a ad 3f 63 d9 99 3f 6c 7d 03 3f c2 e4 54 3f
       1.3548146 1.2019466 0.51363254 0.83161557
000020 02 ed 00 3f eb ec 21 3f cc e0 42 3f 15 83 23 3f
       0.50361645 0.63252133 0.7612426 0.6387189
000030 87 2d 28 3f b5 f3 0d 40 75 62 48 3f 01 59 93 3f
       0.6569447 2.2179997 0.78275234 1.1511537
000040 c2 c1 f5 3e d5 80 c2 3f 79 f5 90 40 dc b6 c9 3e
       0.47999388 1.5195566 4.529965 0.39397323
000050 23 1e 22 40 25 21 83 40 31 78 1e 3f 28 26 69 3f
       2.5330894 4.097796 0.6190215 0.91073847
000060 8e e5 41 3f d5 31 91 3f 30 eb 38 3f df 4c 72 40
       0.757409 1.1343333 0.7223387 3.7859418
000070 a0 5a 1b 3f a4 75 40 3f f1 26 5f 3f 3c 09 30 3f
       0.6068516 0.75179505 0.87168795 0.6876409
000080 ab e9 ad 3f fb f2 c3 3f 2c e7 0f 3f 9b 17 18 40
       1.3586935 1.5308527 0.56212115 2.3764408
000090 ba 98 72 3f 5f 2e 51 3f 17 8d 0d 3f 42 91 02 3f
       0.9476429 0.8171138 0.5529341 0.51002896
0000a0 19 e8 fc 3f 7b 7d ff 3e d9 7d 07 3f 9e a2 ca 3f
       1.975833 0.49900422 0.52926403 1.5830877
0000b0 a0 b8 35 3f b8 c3 38 3f 36 c7 0d 3f 3b 65 2d 40
       0.7098484 0.72173643 0.55382097 2.7093036
0000c0 45 ad 21 3f 4d fe f3 3e 7a a5 2a 3f ff 7d 0a 3f
       0.63155013 0.47654954 0.6665875 0.54098505
0000d0 8b 84 2c 3f b1 7a fd 3f d9 ab 20 3f f6 7c 82 3f
       0.67389745 1.9803067 0.6276222 1.0194385
0000e0 3a b8 2a 3f ba 27 6f 3f 28 9f 2c 3f aa 91 06 3f
       0.6668736 0.9341999 0.67430353 0.52566016
0000f0 d5 4d 65 3f cc 33 58 3f 34 23 1c 3f e9 b7 09 3f
       0.8957189 0.84454036 0.60991216 0.5379625
