NCC_Code/models/2022-08-26_15-42-29_model.pt (torch, 115275 bytes, 50 tensors)

conv1.weight f4 [8, 2, 5, 5]
00000000: 417d c13d 4684 083f 358b 123f 1110 d93d
00000010: 26ee 23bd 08e0 bf3e 2f06 3a3f 4fe0 243f
00000020: cc5c 883e a0e1 903d bf4a 213e 6c01 f83b
00000030: 581b 85be 9850 2fbe aea3 20bf e502 3fbe
00000040: 3eab b0bd 0512 b1be c2b8 94be b8da c5bd
00000050: 7b9d 543d fbbe d73c 360d 9cbe 7489 5abe
00000060: 78f4 e0bd 8119 393f d90c 063f 8b27 833e
00000070: 5ea6 ba3e af39 9cbe 4171 193e f3ee cf3e
00000080: 9c6c 993e b33b 873d f06d d3bd f551 76be
00000090: 101a cbbe e048 61be acfc c1be 14ee 633d
000000a0: 1900 33be 238e 98be e366 babc b938 72be
000000b0: 9fbc 9dbe 7d9c 663e f3cb dc3d fe4e da3d
000000c0: 3079 b4be 0af2 eabe d552 aa3e ecd4 443d
000000d0: 7733 683e 82f2 9fbd f440 53be 93fc cfbe
000000e0: c039 10bf d9ea 31be ce04 d0be d50d e7bd
000000f0: be00 183e 2951 ab3e e460 f13d ec39 173e
00000100: bc10 863e 2ad8 533e bbc5 d23e 6068 ad3e
00000110: 9547 1a3f 26ef cc3e 9af5 093e 225e 2c3e
00000120: a5d8 c63e dcf7 213e 2252 263e 1c2f b23d
00000130: fbd3 d6bc 3849 c3bd 37ae 3c3d 706a 4dbd
00000140: fd48 a6be da99 e8be 64d9 0fbf 3635 09bf
00000150: 0f7f 13bf 471c 4f3e 2f21 633e 3b72 803e
00000160: 5dfc 7d3e 75e6 d43e 017d 393e c16d f83e
00000170: 397c e33e 8d53 753e 95e6 8b3e 1561 333e
00000180: 7dbb cf3d 2868 c4bd 2633 e23e f935 b53e
00000190: aa20 cc3d 6ba8 1e3d 6b79 583d 2cb6 9d3d
000001a0: 7495 8cbe c9b3 da3e e449 df3d 1fc7 bfbd
000001b0: 70dd 94be 3892 e3be 2613 a2be 2f1b dbbe
000001c0: 083e 07be 6bc6 33be e234 08bf c07c adbe
000001d0: ab78 b3be 5afb 8ebc 2859 39be 0c86 21be
000001e0: 3934 153f 37a8 fd3e 9f49 043f cdd8 753e
000001f0: 4aaa 433e 7a50 193c 41ad 6ebc d1ed 9abe
00000200: 9448 76be 5dac a9bd cf5a 03be f17e 27be
00000210: da43 08be c8f8 1ebe 7aa6 62be 9109 9a3b
00000220: d65b e4be 5173 01bf 4264 fdbe cde6 8f3b
00000230: 82f4 66be 9faf 1abe 82fc cbbe 7478 8bbe
00000240: 5763 b4ba 4206 fa3e b3fe 203f 5bfb 9a3e
00000250: 5dec 1b3f 0c3d 493e f3b6 97be 0b4e 6ebe
00000260: 2405 ecbe c96a 60bd 96b0 c4be c443 69be
00000270: 0664 aabe 1618 1e3d 14b8 cdbd c5e6 77be
00000280: 0aa4 9bbe 2d0c 2e3c ba46 593e f2a6 5dbe
00000290: 8403 51bc a901 9a3e 718e b53e ac73 2e3d
000002a0: f7c8 bf3e cb2b c8bd 89c4 4fbe 08d4 d93d
000002b0: 0843 22be d77e 8ebd 633c e83d c41d 46bd
000002c0: 637b 91be c9d9 68be 38c9 0fbf 32a7 9ebe
000002d0: 2d4c 5cbe 13f5 d7be 93f3 bcbe 0229 32be
000002e0: 9f6b 233e f8a0 b7be 61b1 abbe f097 02bf
000002f0: d8c5 74be 07a7 b3bd d4bd 093e ba60 35be
00000300: 9f42 1cbd eb02 cf3e 604e 123e 6f33 abbd
00000310: 8494 96bd 65b0 d93e e2c2 ca3e c8e6 073f
00000320: 8015 5d3e d655 fb3d 2634 483e 4b82 0e3e
00000330: 841a b53e e552 27bf 1df6 3dbf 1bfa 69bf
00000340: 03a5 5bbf 9f2f b4be d99d 9abe 0ef1 0dbf
00000350: aeff e6bd 7697 ecbe 5871 a7be c8dd 6e3e
00000360: 0a0a c8be e445 8ebd d78b 843d 76a9 5e3e
00000370: 881c 95be df50 89be de33 85be 95c7 85be
00000380: b9d3 b3be 49db 033f f390 2f3e 24fd 65bd
00000390: 0a83 953e 7531 1e3d cb23 21be be46 f7be
000003a0: 7c18 debe ed43 26bf 7f85 cdbe 4925 97be
000003b0: bca0 9fbe 6c09 70be 33e6 95be dea1 6dbe
000003c0: 8138 59be f68a 6a3e ff46 563d d8bb 3abd
000003d0: 3dcb 8a3d b307 153e a006 93be 7d13 afbe
000003e0: 6a7c c2be 5c14 51be fd07 20be 1230 98be
000003f0: 3e7d 03bf c0ba 46be 3fb0 4ebe 04bd 07bf
0.094477184 0.53326833 0.57243663 0.105987675 -0.040022038 0.3747561 0.72665685 0.6440477
0.26633298 0.070742846 0.1575117 0.007568529 -0.25997424 -0.17120588 -0.62749755 -0.18653448
-0.08626412 -0.3458406 -0.2904721 -0.09660858 0.051907998 0.026336184 -0.3047883 -0.21341497
-0.10984129 0.7230454 0.52363354 0.25616106 0.36455053 -0.3051276 0.14984609 0.4061199
0.29965675 0.066031836 -0.10323703 -0.24054702 -0.39668322 -0.22000456 -0.37888086 0.05564697
-0.17480506 -0.29795942 -0.022754138 -0.2365445 -0.3080797 0.22520633 0.10781088 0.10659598
-0.3524871 -0.45887786 0.3326632 0.04805462 0.22675882 -0.078099266 -0.20630246 -0.40622386
-0.5633812 -0.17374744 -0.40628666 -0.11281935 0.14844033 0.33460358 0.117860585 0.14768189
0.26184642 0.20687929 0.4116648 0.33868694 0.60265476 0.40026206 0.13472596 0.16832784
0.38837162 0.15817207 0.16242269 0.08700392 -0.026224127 -0.0953545 0.04606458 -0.050150335
-0.3247756 -0.4542988 -0.56191087 -0.5359682 -0.5761575 0.2022563 0.22180627 0.2508715
0.248033 0.41582075 0.18114091 0.48521236 0.44430712 0.23957653 0.27324358 0.17517503
0.101431824 -0.09590179 0.44179648 0.3539274 0.09967168 0.038734835 0.05285017 0.07700762
-0.27457774 0.4271529 0.109027654 -0.09364151 -0.29075193 -0.44447494 -0.31655234 -0.42794177
-0.13207257 -0.17556159 -0.5320569 -0.3388424 -0.35053 -0.017453838 -0.18100417 -0.15773791
0.5828281 0.495424 0.51674837 0.24008484 0.19107929 0.009357566 -0.014567674 -0.30259565
-0.24051124 -0.08284829 -0.1282761 -0.16357018 -0.13307133 -0.1552459 -0.22133818 0.0047008474
-0.44601315 -0.50566584 -0.49490553 0.0043915273 -0.2255421 -0.15106057 -0.39841086 -0.27240336
-0.0013762516 0.488329 0.6288864 0.30269894 0.60907537 0.19652194 -0.29631767 -0.23271959
-0.46097672 -0.05478934 -0.38415974 -0.22779757 -0.33279437 0.03859719 -0.10044876 -0.24209125
-0.3039859 0.01062302 0.21218386 -0.21645716 -0.012757186 0.30079392 0.35460237 0.042590782
0.37458012 -0.09773978 -0.20289816 0.10636145 -0.15845883 -0.069577865 0.11339643 -0.04836823
-0.2841445 -0.22739328 -0.5616641 -0.30986935 -0.21513434 -0.42179164 -0.36904582 -0.17398456
0.15959023 -0.35864997 -0.33533767 -0.5101309 -0.23903596 -0.08772092 0.1345132 -0.1771268
-0.038149472 0.40431914 0.1428771 -0.083594196 -0.07352546 0.4251739 0.3960181 0.5308652
0.21590233 0.12272231 0.19551143 0.1391689 0.35371792 -0.6536086 -0.74203664 -0.91397256
-0.8579866 -0.35192582 -0.30198553 -0.55445945 -0.11279236 -0.46209306 -0.32703662 0.2332679
-0.3907016 -0.06946924 0.06471985 0.21744332 -0.2912333 -0.26819512 -0.26016134 -0.26128832
-0.3512247 0.5150648 0.17145137 -0.056149617 0.29201537 0.038621385 -0.1573631 -0.4829616
-0.43378055 -0.64947397 -0.40140912 -0.29520634 -0.31177318 -0.23441094 -0.2927719 -0.23206279
-0.21212961 0.22904572 0.0523138 -0.045589298 0.06777046 0.14553718 -0.28715992 -0.34194556
-0.37985545 -0.20417923 -0.15628047 -0.29724175 -0.5136298 -0.19407177 -0.2018442 -0.5302279

conv1.bias f4 [8]
00000000: 2b6e 07be 9b5f b23e 1272 e33e e7f3 893e
00000010: b4f4 51bc d987 34bc c937 fe3e dfaf 183e
-0.1322562 0.34838566 0.44422966 0.26943895 -0.012814689 -0.011018717 0.49651936 0.1491084

bn1.weight f4 [8]
00000000: c9f0 b43f 0046 a93f 3fce 673f 6ec5 733f
00000010: e877 793f f15d 7e3f cd48 3d3f a71b 383f
1.4135982 1.3224487 0.9054908 0.9522313 0.9744859 0.99362093 0.7393921 0.71917194

bn1.bias f4 [8]
00000000: 0b17 133e f152 8c3e 1392 3d3e 8393 943e
00000010: f1d2 61be 29a8 ecbd 13c5 adbb 9f37 8a3e
0.14364259 0.2740703 0.18512754 0.29018793 -0.22053124 -0.115555115 -0.005303034 0.2699556

bn1.running_mean f4 [8]
00000000: dd04 613f e5d5 a03f 5577 b63f 330f dc3f
00000010: 324e 2e40 f49b 893f 6c4b 903f 36cb 933f
0.87898046 1.2565275 1.4255167 1.7192138 2.7235227 1.0750718 1.1273017 1.154639

bn1.running_var f4 [8]
00000000: 2351 3740 edf3 c040 e8e1 7540 22d6 7e40
00000010: 630c ce40 0f45 c740 ab21 7c3f 4a7f 2540
2.8643272 6.029776 3.8419132 3.9818196 6.439012 6.22718 0.98488873 2.585894

conv2.weight f4 [16, 8, 3, 3]
00000000: 1f86 c8bd 62d9 cebd 6359 2ebd a3c0 1d3f
00000010: af52 1a3f bcc1 0d3f 6115 f5be b5c1 24bf
00000020: e358 0fbf af29 f13d ad47 733e 651d e43e
00000030: 6981 2b3e dda1 2c3e 10a4 4c3e 39f7 863d
00000040: 8e78 433c 926a b73d c348 203d aeb4 97be
00000050: 6a2f fa3c e4d2 1c3e b413 9abb 7fa3 bb3c
00000060: 79ac 053d 962c 84be 4396 72bc 7be0 f5bd
00000070: 968c 12be dca6 52bd 7abc 00be 2c58 27be
00000080: b097 9ebc a72f 59bc 9e53 283e 8962 9a3d
00000090: 15f0 043d 1c90 dc3c fd25 fb3b 8788 c13d
000000a0: cf5e 5bbe eb1e 1f3d 6af5 473d d940 ad3e
000000b0: 0ab0 ee3e c887 1bbe b5ab e5bc ea36 1e3d
000000c0: d300 c4bd ea62 d13d 2275 6cbe 1bfc 42bd
000000d0: 5a2f 82bd 821b 1a3d ff5d 3c3e 53e2 9d3e
000000e0: 6d05 ad3e 18b7 8fbe 1ed1 65be e491 85be
000000f0: 4bf0 183e 1ad2 9a3d 2a60 773e 6cfe babe
00000100: 6fb1 3fbe 5243 e5be d283 863e ca8b 003e
00000110: c58d d63e 8a48 72bd cbc0 97bc 4079 16be
00000120: 3716 a83e 1dee 1c3e 07eb 963e 5a25 753e
00000130: 0015 5c3e f5ed 213e cfdd b1be a557 18be
00000140: 7133 77be cf1b 1f3f b2de e33e 229f 343d
00000150: f54e 80be bfaf 35bf b45c b8be f30c 1fbe
00000160: fbc9 26be b406 b7be 816a 363e ed9f a63e
00000170: dfdb 8b3e ecf4 e03d 3051 60bc 9bf4 fc3e
00000180: c677 a33e 9a6f 0b3d 3503 f03e b2b6 cabd
00000190: efdc eebc 61b8 18bc fcc9 a5be 6b95 ba3e
000001a0: 62d0 6b3e 67aa e63e 15a9 c63e 9b45 4a3e
000001b0: c8fc c13e 7811 b63e 05b8 233f 2db1 b83e
000001c0: 0e3a 0a3f 337e 7d3f a85f 95be f0e6 0e3d
000001d0: 37b8 e93e 3316 893e 1f1c 4f3e e1c4 0cbe
000001e0: f181 98be 0318 2e3e 7e9a 5b3d 50ae 48bd
000001f0: 8060 683e 3c8a ea3c 7413 bdbe 2baf 10be
00000200: 7cf3 d7bd 80ae 053e ea38 ab3e 1a47 be3e
00000210: e51d 083d fa3b bc3d 0b37 433d 1331 b43e
00000220: 686e 5d3e 0bbd 3ebd 9722 0c3f a7f1 153e
00000230: 6620 813e b892 a4be aee3 06be fee0 833d
00000240: a38b afbe 65da bebe 67a6 cabe e30b a43e
00000250: 659c c53e da7c d23e 02a4 c1be 3eed cdbe
00000260: ec33 d4be 7752 453e 19a8 883e f377 0c3c
00000270: 0c1a debe 24bb f7be 37fc f7be 2566 553e
00000280: e161 343d 4b23 94bd 13c6 22bf 3456 dabe
00000290: 6e87 90be ab53 3fbd bc21 923b 9dc5 2dbe
000002a0: f4d1 c1be e79b a0be 5200 06bf ea88 83be
000002b0: 312c a8be 73bd 2bbe 88b3 d63e 1006 e43d
000002c0: fb04 ec3e dbd7 debe 49dd 47be 8803 96be
000002d0: 9532 d5be 681a 33be 337a 82be 104d 43be
000002e0: 37b4 e1bd 4288 babe 7be0 f5be b8d4 fcbe
000002f0: d570 9dbd 3524 0c3e 467c f7bd 3d65 513e
00000300: 393f 20bd c779 4a3d ed8f 6cbe d50a af3d
00000310: 9748 83be 09a9 c9be 99ff 86bd dcd7 7ebd
00000320: 34dd 44be 2c79 84be 9afc 94be 26f0 21be
00000330: d793 85be f485 03be b5e0 29bd 2026 31bd
00000340: 0b6d b5be afca 6d3d fff6 473d a410 ebbd
00000350: e4f6 14bc 2269 80bd f4f7 d1be 0751 99bd
00000360: 6f88 92be e26b 67be 77a4 73be b972 343e
00000370: 6522 a03d c90a 903d f555 b4bc 7364 a2be
00000380: 5106 64be 63a3 4a3f 2140 213f 0af0 7c3f
00000390: 6094 683e a4ff 943d 6ce3 62bc d873 8e3d
000003a0: 2a39 9fbe 0e06 09bf ad49 12be cd20 3e3d
000003b0: 106c d4be 5f82 143d 75a7 943e 6dea 863e
000003c0: 239e ac3d af8f 0fbe 076a 283e 7c29 5ebd
000003d0: 112d 41bc 1eeb 6cbe 75d5 00be b722 2bbe
000003e0: 2b76 1d3d 88e5 35bd 945a 40be 022c 663e
000003f0: a6b1 a33d 5e85 c03d d2ee 8f3d 105c 84be
-0.097912066 -0.10100056 -0.042565715 0.61622065 0.60282415 0.5537374 -0.47867873 -0.64358073
-0.55995005 0.11775529 0.23757811 0.44553676 0.16748585 0.16858621 0.1998446 0.06590123
0.011930598 0.089558735 0.03913189 -0.29630035 0.030540187 0.15314823 -0.004702056 0.02290511
0.032635186 -0.25815266 -0.014806333 -0.12005707 -0.14311442 -0.05142866 -0.12571898 -0.16342229
-0.01935944 -0.01325599 0.16438147 0.07538325 0.032455523 0.026924185 0.0076644407 0.09449869
-0.21422885 0.038847845 0.04881803 0.33838537 0.46618682 -0.15188515 -0.028035978 0.03862659
-0.0957047 0.102239445 -0.23091558 -0.047603708 -0.06356688 0.03762389 0.18395232 0.30836734
0.33793202 -0.28069377 -0.22443053 -0.26087868 0.14935414 0.07559605 0.24157777 -0.36522233
-0.1872003 -0.44777924 0.26272446 0.12553325 0.41905037 -0.05915121 -0.018524548 -0.1469469
0.3282945 0.15325208 0.29476187 0.2394003 0.21492386 0.1581343 -0.3473954 -0.14877184
-0.24140717 0.6215181 0.4450584 0.044097073 -0.2506024 -0.7097129 -0.36008227 -0.15532283
-0.16287987 -0.35747302 0.17814066 0.3254389 0.27316186 0.10984215 -0.013691232 0.4940537
0.31927317 0.03404198 0.46877447 -0.098981276 -0.029158084 -0.009321303 -0.32380664 0.36442122
0.2302871 0.45051882 0.38800874 0.19753115 0.3788817 0.35560203 0.63952667 0.36072674
0.53994834 0.9902069 -0.29174542 0.034888208 0.45648357 0.2677475 0.20225571 -0.13746978
-0.29786637 0.17001347 0.053614132 -0.048994362 0.22693062 0.028630368 -0.36928904 -0.14129321
-0.10544488 0.13054848 0.3344186 0.3716362 0.033231635 0.09191127 0.047659915 0.3519369
0.21624148 -0.046567004 0.5474028 0.14642964 0.2522003 -0.32143188 -0.1317279 0.06439398
-0.34286222 -0.37275997 -0.3958008 0.3204032 0.38595882 0.4111088 -0.3782044 -0.40220064
-0.41445863 0.19269739 0.26690748 0.00857352 -0.43379247 -0.48384964 -0.48434612 0.20839746
0.044038657 -0.07233294 -0.6358349 -0.42643893 -0.28228325 -0.04671065 0.004459588 -0.16969915
-0.37855494 -0.31368944 -0.5234424 -0.25690395 -0.32846215 -0.16771488 0.41933846 0.11133969
0.4609755 -0.4352406 -0.19518007 -0.2929957 -0.41640154 -0.17490542 -0.25483856 -0.19072366
-0.110207014 -0.3643208 -0.48022828 -0.49381042 -0.076875366 0.13685687 -0.1208425 0.20448776
-0.039122794 0.049432542 -0.23101778 0.08546988 -0.2564132 -0.39386776 -0.0659172 -0.06221758
-0.19225007 -0.25873697 -0.2909897 -0.15814266 -0.26089355 -0.12844068 -0.041474063 -0.04324925
-0.35434756 0.058054622 0.04881954 -0.11477783 -0.009092066 -0.062700525 -0.41009486 -0.07486158
-0.28619716 -0.22599748 -0.23793207 0.17621888 0.0781906 0.07033307 -0.022013644 -0.31717262
-0.22268035 0.7915556 0.6298848 0.9880377 0.2271285 0.07275322 -0.013848167 0.06955689
-0.310983 -0.53524864 -0.14285918 0.046418 -0.41488695 0.036257144 0.2903401 0.26350728
0.084286 -0.14019655 0.16446696 -0.05423878 -0.01179053 -0.23136565 -0.12581427 -0.16712461
0.038442772 -0.04440835 -0.18784553 0.22477725 0.07992868 0.09400438 0.07027973 -0.25851488

conv2.bias f4 [16]
00000000: 900a 66bd f44c 97be 690b c1bd 4f7d c6be
00000010: efa8 37bf 4633 3bbf 6fbc 773f bdb1 26bd
00000020: 1739 1ebe 939b 01bf d9d8 5ebe 9f0a 9abd
00000030: d7b6 933d b6e4 10bc 7455 bebe 6dfa 963c
-0.056162417 -0.29550898 -0.094260044 -0.38767478 -0.7174215 -0.7312511 0.967719 -0.04069685
-0.15451466 -0.5062801 -0.21762408 -0.07521557 0.07212608 -0.008843591 -0.3717457 0.01842996

bn2.weight f4 [16]
00000000: afaf 803f 2aab 533f be2e 713f 4ab8 683f
00000010: 5736 893f 62b5 993f 228f 843f 8e39 713f
00000020: 7429 823f 1dd9 613f 9791 853f 7532 803f
00000030: 0e53 5a3f ce95 a83f 96d9 853f 4e25 873f
1.0053614 0.8268305 0.9421195 0.909062 1.0719708 1.2008479 1.0356181 0.94228446
1.01689 0.88221914 1.0435055 1.0015398 0.8528298 1.3170717 1.0457027 1.055826

bn2.bias f4 [16]
00000000: 5f6c 31be 93a9 113e 04d4 9fbe e7da 3b3f
00000010: e7ef cf3e 9b31 5d3e eb43 51be b2a4 823d
00000020: 5b50 1fbe c61f 503f 1cf5 0c3f fb50 3bbe
00000030: 4435 93be 68f1 68bd e161 8ebd c5eb 753e
-0.17326497 0.14224844 -0.31216443 0.73380893 0.40612718 0.21600954 -0.20436065 0.063790694
-0.15557997 0.8129848 0.5506151 -0.1829261 -0.28751576 -0.056870848 -0.06952263 0.2401572

bn2.running_mean f4 [16]
00000000: f630 403f 14e9 fd3f 8a36 b13f beca 9c3f
00000010: aceb 1e3f beab f93e 2c40 1640 1477 663f
00000020: 0294 fc3f 4502 a13f 2350 fa3f 997a a03f
00000030: 5064 893f 9fcd 563f e87c 3f3f a816 df3f
0.7507471 1.9836755 1.3844769 1.2249372 0.62078357 0.4876384 2.3476667 0.9002545
1.9732668 1.2578818 1.9555706 1.2537414 1.0733738 0.839075 0.74799967 1.7428789

bn2.running_var f4 [16]
00000000: 7ed2 1840 5aed 0641 291f 8840 8092 b540
00000010: 8a37 fa3f 9128 2940 0749 6b40 9344 0340
00000020: 69b1 1741 3156 8640 01c4 2d41 a7bc 7340
00000030: 8449 8a40 6746 8c40 6524 7a40 8edd 0541
2.3878474 8.432947 4.2538037 5.6741333 1.9548199 2.643101 3.6763322 2.0510604
9.480813 4.1980214 10.8603525 3.8083894 4.321474 4.383594 3.9084713 8.3665905

conv3.weight f4 [32, 16, 3, 3]
00000000: a3d0 a63e 5e74 56bc 4df7 09bf baa9 953c
00000010: 4103 fe3d cd8f 66be 5fe7 a4be 5b8f c3be
00000020: 7cd1 2dbf d812 333e dd56 1b3f 88df 0b3f
00000030: 0fd8 e3bd d0db 943c b35f 39bd e64e 16bf
00000040: 2b35 ccbe 89f7 e5be 46f2 e73e 65de 123e
00000050: b25d 54be 52ae 8d3e 7530 d53e 7b0a a93e
00000060: 32a2 17bd 9be8 61be e149 c43c 269d c33e
00000070: df06 c6bd 118c 1fbf e2e8 a13e b930 0e3d
00000080: c9fd 96bd d37d f5be 95db dbbe 221f 78bd
00000090: ad78 13bd 0969 f8bd 85ca 47be c84e da3d
000000a0: 985c 07be 0c09 8bbe d312 c2bd 6b56 27bd
000000b0: 54c8 d9bd 9e47 aa3d b48d 1dbd d499 60be
000000c0: e7fd e43d 8514 c1be 83fc cbbe 06ac 443e
000000d0: 91b4 a03e 728b edbd 4c6f 233a 8a1e 9f3e
000000e0: 912b 393f 6815 f5be ee6c fcbe c563 37be
000000f0: 6b99 bdbe fa8f 03bf 094f b4be 3a6d 28bf
00000100: 696f 00be a687 753e 01ad debd d0b7 fcbe
00000110: a522 0fbe 9b5c d4bc b463 b5be 10c8 39be
00000120: 0d40 c6be 7a82 a53d 4d63 c43d 6daa b6be
00000130: 33c0 ea3d 4093 bbbd a945 d0be cc69 18be
00000140: 6449 8abe 0eb9 ad3e 1570 793e b10b cc3d
00000150: 4578 d6be 7125 d8bd 0371 59be 2067 76bf
00000160: 583d 52bf 8d76 1cbf b632 05bf c019 3fbe
00000170: 3bc8 6c3e f0c0 abbe 78c9 d8be 9036 4bbe
00000180: 27ac 22bf c1a9 93be f501 3bbe 29ed 9f3e
00000190: ebc0 e63d 00c8 d03d 3e6e 7d3e f70e a03e
000001a0: 5132 903e 9b76 aabc b4c1 93be 6aea b93b
000001b0: 4345 e73e b022 2c3e ccc8 86be dcac 28be
000001c0: b118 b9be b237 4dbe afbe b0be 1a05 5fbe
000001d0: 47d9 afbe 79a3 82be 60ae 06bf 5d74 e7be
000001e0: 4947 edbd 08f3 4dbe f442 843d 3dc7 533d
000001f0: 6872 7cbe 16c4 db3d 6d65 223f ef89 9f3e
00000200: de7f 033f 96e8 35bd 045c 993d 610a 3c3e
00000210: 336b 6a3d 4ebf 813e 60ad 423e 28d0 37be
00000220: 9cd7 ae3d 4820 d73e 7c9b 843e efd7 6bbd
00000230: 7954 fbbe 227c 033f e31b 203e 26ec 29bf
00000240: 1830 a3be fb64 06bf 6a9a cbbd ba39 5a3e
00000250: b532 913d 6d46 a4be 589d 603e fe0d 913e
00000260: a4a2 283f e1ba a5be 21ec 76be 8816 99be
00000270: 3f3e f1be ac31 ebbd 910d 8ebe b7f4 7d3e
00000280: e4d9 583c 4cd7 323c 81b1 fb3d 57f0 d73b
00000290: 4126 8cbd 7abf 6e3e 58fe 2a3d f352 46be
000002a0: c864 ecbc cffc 2bbe f57f 41be 4583 923e
000002b0: df54 ad3e 12b4 de3d 7ab2 593d a01e d7bd
000002c0: 6c3a af3c 551c 07bc ab95 0bbe de34 51be
000002d0: d51b d3be 0d5e 37bf 53af 89be ba26 ad3e
000002e0: 5f90 983e 901a bdbd 423e abbc f6d5 193e
000002f0: 161a 443d 500d ca3d 8b4d 6d3e 56df 0ebe
00000300: 348e a63e 3061 bb3e c506 013f 2a9e febe
00000310: 4610 aabe 5ac5 f7be 9e44 8dbd 98d4 d33e
00000320: b13b d93e 8d7b 213e 6f6a 413e b04a fabd
00000330: 8444 5fbc 56b0 a5be 67dc 59be 189e 1fbe
00000340: 7e2e 813e 66a4 f23e e109 873e a257 033f
00000350: 1b35 f63e 5331 02bf f7a0 3cbf 2a0b 2dbf
00000360: c958 37be 783e 533e cd7a 513c e615 babe
00000370: dc7f 8cbe 265e 3abe b116 c83e 372e ff3e
00000380: 9a83 223e ab41 0dbf 4776 07bf 8052 e1be
00000390: 8136 a0bd 32df aabe bea5 21be 28e9 3a3d
000003a0: 85d4 36bd 4c6e 013e 8ab5 d13d ee50 b13e
000003b0: a986 063f 4149 f8be 6acd 3ebe 1bef 45be
000003c0: 4a37 01bf f2b0 bebe 6329 a3be 4066 bd3d
000003d0: 9345 bf3e d8be 063e 4540 48bd a83d 68be
000003e0: 737e 93be 06d4 b7bd d0f2 2b3e 6f2a 373e
000003f0: 12f5 9cbd 03ed de3d 8f18 003e 0c79 5c3e
0.32581052 -0.013089268 -0.53892976 0.018269408 0.124029644 -0.22515793 -0.32207772 -0.3819531
-0.6789777 0.17487657 0.6067942 0.54637957 -0.11125194 0.018171221 -0.04525728 -0.5871414
-0.39884314 -0.44915417 0.45302027 0.1434265 -0.20738867 0.27672058 0.41638532 0.33015808
-0.037019916 -0.22061388 0.02396101 0.38205832 -0.09669279 -0.623231 0.31622988 0.034714434
-0.073726244 -0.4794756 -0.42940965 -0.060576566 -0.036003757 -0.12129409 -0.19510849 0.106595576
-0.13218915 -0.2715534 -0.09476247 -0.0408539 -0.10633913 0.08314441 -0.038465217 -0.21933681
0.111812405 -0.37710968 -0.3984109 0.19206247 0.3138776 -0.11598863 0.0006234541 0.31077987
0.723321 -0.47867894 -0.49301857 -0.17909153 -0.3703111 -0.51391566 -0.3521655 -0.65791667
-0.125425 0.23977527 -0.108728416 -0.49358988 -0.1397806 -0.025923064 -0.3542763 -0.18142724
-0.38720742 0.08081527 0.095892526 -0.356769 0.1146244 -0.09158945 -0.40678146 -0.14884108
-0.27009118 0.33930248 0.24359162 0.099631675 -0.41888633 -0.105540164 -0.21234517 -0.96251106
-0.82124853 -0.61118394 -0.52030504 -0.18662167 0.23123257 -0.33545637 -0.42341208 -0.19845033
-0.63543934 -0.2884045 -0.18262465 0.31235626 0.11267265 0.10194397 0.24749085 0.31261417
0.28163388 -0.020808509 -0.2885872 0.0056736963 0.4517003 0.16810107 -0.2632507 -0.1647219
-0.3615165 -0.20040777 -0.3452048 -0.2177929 -0.34345457 -0.25515345 -0.52609825 -0.45205966
-0.11585862 -0.2011224 0.06458083 0.05170368 -0.24653018 0.1073076 0.63436013 0.31159922
0.51366985 -0.044411264 0.07488254 0.18363334 0.05723114 0.25341266 0.1901145 -0.17950499
0.08537218 0.42016816 0.25899875 -0.057578977 -0.49087885 0.51361287 0.15635638 -0.6637596
-0.3187263 -0.52497834 -0.099415615 0.21311083 0.0708975 -0.3208498 0.21935022 0.28330988
0.6587317 -0.3236914 -0.24113514 -0.29900002 -0.47117803 -0.114840835 -0.27744725 0.24800383
0.013235543 0.010915589 0.122897156 0.00658993 -0.06843234 0.2331523 0.041746467 -0.1936758
-0.02885665 -0.16795658 -0.18896468 0.28615776 0.33853814 0.108741894 0.053148724 -0.10503888
0.021390162 -0.008246501 -0.13631313 -0.20430323 -0.41232172 -0.71627885 -0.26891574 0.3381861
0.29797646 -0.09233582 -0.02090371 0.15023026 0.04787644 0.098658204 0.23174112 -0.13952383
0.32530367 0.36597586 0.50400954 -0.49730045 -0.3321554 -0.48392755 -0.06897853 0.41373134
0.42428353 0.15769787 0.18888257 -0.12221277 -0.013627175 -0.32361096 -0.21275483 -0.15587652
0.25230783 0.4739105 0.26374725 0.5130559 0.4808739 -0.5085651 -0.7368311 -0.6759516
-0.17904963 0.20629299 0.012785626 -0.36344832 -0.274413 -0.18199977 0.39079812 0.49839947
0.15870515 -0.55178326 -0.5291485 -0.44008255 -0.07822896 -0.3337341 -0.15785882 0.04563251
-0.04463627 0.12639731 0.10239704 0.34632057 0.52549225 -0.48493388 -0.18633047 -0.19329493
-0.5047499 -0.37244374 -0.31867513 0.09248018 0.37357768 0.13158739 -0.048889417 -0.2267977
-0.2880741 -0.08975987 0.16791844 0.17887281 -0.07663931 0.1088505 0.12509368 0.2153055

conv3.bias f4 [32]
00000000: e40a a6be 2c09 c9be 18c5 36bf d298 61bf
00000010: 2c33 20bd 5d21 20bf 37c4 76bd 7ec5 89be
00000020: ffdb 55be 4543 8abe 1530 95be ceff 79be
00000030: 8ce6 78be 74ed e8be 83d8 0cbe a7ce 1cbf
00000040: 80bf f9be 7a5e 89be 706d cabe 16ba 86be
00000050: 1cee 1cbf f9c8 e3be f3aa 67be 83a3 c6bd
00000060: e719 4fbf 51da 40bf 968e 60bf c16a ffbe
00000070: cc86 2fbf 9c88 31bf e349 02be 0a8a 28bf
-0.32430184 -0.3926481 -0.7139449 -0.8812381 -0.0391113 -0.6255091 -0.06024572 -0.26908487
-0.20884703 -0.27004448 -0.29138246 -0.24413988 -0.24306697 -0.45493662 -0.13754468 -0.61252826
-0.48778915 -0.26829892 -0.3953662 -0.26313847 -0.61300826 -0.44489267 -0.22623806 -0.09699156
-0.808989 -0.75333124 -0.8771757 -0.49886134 -0.6856506 -0.69349074 -0.12723498 -0.6583563

bn3.weight f4 [32]
00000000: 1961 613f 3228 8a3f b9b1 893f a3a5 933f
00000010: cf22 7a3f 0d14 843f 6e42 783f b9c6 8c3f
00000020: 1ed7 6e3f 89dd 793f c459 983f 716e 923f
00000030: 0f5d 893f 6531 893f b618 723f db92 803f
00000040: 1626 863f 9e2d 8c3f a8b0 4c3f 8b28 583f
00000050: 1025 a53f b1ea 863f 54c4 803f c097 8a3f
00000060: af88 853f 7f57 963f 2a25 903f f1b0 963f
00000070: c759 863f 0fcf a13f fce6 6d3f da8e 853f
0.88038784 1.0793517 1.0757362 1.1534923 0.97709364 1.0318619 0.96976364 1.0998145
0.9329699 0.9760366 1.1902394 1.1439954 1.0731524 1.0718199 0.94568956 1.0044817
1.0480373 1.0951421 0.79957056 0.84436864 1.2901936 1.0540372 1.0059915 1.082756
1.0432338 1.1745452 1.1261342 1.1772748 1.0496148 1.2641314 0.9293058 1.043422

bn3.bias f4 [32]
00000000: 9311 a7bc 8160 a2be b3a8 e93e 53cd 923e
00000010: b228 3ebd 3234 42be a4d2 033e 08ee 633e
00000020: 321e 2d3e 633d 7b3e 2b83 cb3c 40a1 033f
00000030: 1795 173f f4f0 a23e dff1 93be 14dd d13b
00000040: 3178 913e a1ce 1c3f 6c0a 613e e8c6 853e
00000050: c436 9a3e 6d01 073e ce4f 1d3e 5347 633e
00000060: b559 753e 65db 083e ccd1 833e 8d65 8a3e
00000070: 8366 b83e aad7 ff3d 14ce ddbd 898f 9f3d
-0.020394122 -0.31714252 0.4563652 0.28672275 -0.04642553 -0.18965223 0.12873322 0.2225877
0.1690605 0.24535136 0.02484282 0.5141792 0.5921187 0.31824458 -0.2889547 0.0064045284
0.2841201 0.6125279 0.21976632 0.26128316 0.30119908 0.13184138 0.15362474 0.22195177
0.23960002 0.13364942 0.25746 0.27030602 0.3601571 0.124923065 -0.10830322 0.07791049

bn3.running_mean f4 [32]
00000000: 9aaf ef3e cef0 143f f4dc d03e 5e38 0a3f
00000010: 36e4 bb3f afbc 5a3f 289f 0340 85a2 e83e
00000020: a125 843f b869 c73e 1d87 843f 74ed ea3f
00000030: 3468 fb3f 19e3 e13e 5217 243f 355a 853e
00000040: 7872 523f ef87 633f 5012 f93e 746d f83e
00000050: 3e63 ec3e 3761 9f3e b922 843f 41e1 a63f
00000060: d06b ac3e 7162 393f 5342 d63e 6684 0d3e
00000070: 4c97 b73e f70a 0b3f 7617 513f ffda 473f
0.4681366 0.5817994 0.40793574 0.5399226 1.467902 0.8544416 2.0565891 0.45436493
1.0323983 0.38947845 1.0353733 1.8353715 1.9641175 0.44118574 0.64098084 0.26045385
0.82205915 0.88879293 0.48646784 0.48521006 0.46169466 0.31128857 1.0323097 1.3037492
0.33676004 0.72415835 0.41847476 0.13820037 0.35857618 0.54313606 0.81676424 0.78068537

bn3.running_var f4 [32]
00000000: 6252 0f40 139c 6840 18f3 0840 23f9 b740
00000010: c345 9d40 0450 7740 0d73 0d41 8815 fa3f
00000020: d3f5 3940 08e0 db3f faa8 6440 5821 f440
00000030: 4d80 d840 c0a8 0b40 fd77 3640 2050 c83f
00000040: 73a8 8a40 f13b a940 1157 0c40 efcd e43f
00000050: 72da 6e40 b602 c03f d118 6140 82dd d240
00000060: 599e da3f d62b 6040 2df2 2340 345f 3f3f
00000070: 8c27 0340 9209 5440 e407 ac40 0f64 a540
2.2394032 3.634526 2.1398373 5.749162 4.914766 3.8642588 8.840589 1.9537821
2.905629 1.7177744 3.5728135 7.6290703 6.7656617 2.1821747 2.8510735 1.5649452
4.3330626 5.288567 2.192814 1.7875346 3.7320828 1.5000827 3.5171397 6.5895395
1.7079574 3.5026755 2.5616562 0.74754643 2.0492887 3.3130841 5.375963 5.168464

conv4.weight f4 [64, 32, 3, 3]
00000000: c858 dbbe a3a4 0dbe e525 273e 1fa2 09be
00000010: f93c c9be 00d4 b6be 2a46 cabb 2580 ea3e
00000020: 7f49 413e ffb8 3f3e 4699 1f3f 589f ad3e
00000030: c85c 5bbe a1b5 24bd 5e75 b0be cf63 173e
00000040: 4137 f2bd 74aa 453d 84ce b63e 28d9 673e
00000050: d277 a33d a278 1ebe b4ba 87bc 0a54 09be
00000060: b3df 3fbe 7996 02bf b988 4abf 90c4 3b3e
00000070: 390b 1ebd 7982 83be 2eed 843e fefb af3d
00000080: 58ac ccbc 6abb bfbe 00e6 31bf fa27 25bf
00000090: c508 1fbf 5925 8dbe 537c c9be a840 91bc
000000a0: c0a1 fb3e 86c4 153f 8035 49be 8248 bb3d
000000b0: 2135 8c3e 7b26 d9be 2fac 58bf f64d 15bf
000000c0: 2e0a 533e 2957 e2bc 906d 5abe 9dae 893d
000000d0: 8b1e 8c3e 9aa4 293f 075f 36be 2cda 9ebe
000000e0: 39b3 b9bd 719d 93be aa34 49be 0459 18bf
000000f0: 64ad 7cbd 5775 ebbe 27e8 03bf f9b4 153d
00000100: d2fd b9be 6c72 eabe 6e72 ff3e 95d6 e13e
00000110: 234a 03bd 0ca7 b6bc 3ffa a1bd 535b 82be
00000120: f3ce d4bd 6b8e 4cbe bd34 9dbc 714f 51be
00000130: 7652 96bd c82a 94be 2cbf 76be f051 52be
00000140: 484e 75bd 8b6a 32bd 68b3 9c3e e2cd 273e
00000150: 9fb6 4fbf 2e59 4bbe d929 abbe 74b1 073e
00000160: 18ad 883d cec1 34be a228 ae3a 89bb 863d
00000170: d668 d8bc 93fd 0e3e 469c 123e 5064 72bd
00000180: 9d06 723e 4d6f 613e 7f6c 973e 095c f0bc
00000190: 7e88 0d3d fec6 aa3e 1d99 343d 8c7b f63d
000001a0: f602 ad3e 894f 73bd fe13 88be 87b3 15be
000001b0: 89cb f9be 95b7 b9be f325 0bbe 34dc 78bd
000001c0: 6487 58be f3c0 a6be ffc3 3b3d 7091 0d3e
000001d0: b0a7 62bd 0b63 c73d e474 d4bc 6ad6 afbc
000001e0: 8416 043e 5d56 283e 2597 f9bd 0a8a 623e
000001f0: 6045 713d 56dc 643e 7c36 a23e ce28 2c3f
00000200: 6835 153f abd1 61be a3ec ee3d ee78 87bc
00000210: 98c9 0f3e f518 04bd b0f1 a4bd 1b39 4abe
00000220: a33d 0dbe 94b1 f5bd 18dd c33e 5c2b e03e
00000230: 9a87 473f 6736 57be 6ba5 10bd b7d6 7c3d
00000240: ac22 d4be 389c 57be 7e3f 81bb 2191 e33b
00000250: 9300 14bb 2aad 8f3b 1b1d ffbe 0959 acbe
00000260: 91b6 3ebe 6ea9 dbbd 52b8 80be 23bf 7cbd
00000270: 7a47 073e 7893 2b3c 8d9e 933d 1cfe 01be
00000280: fd73 37be 0fa2 d4be 1b86 893e 985b f93d
00000290: 1b69 3d3b 9a5b 013e c80e d73c 9655 e43d
000002a0: 2f77 dcbe 5b65 07bf 2a72 13bf 6e67 15be
000002b0: 919b c8be 8912 a4be d1de 23bf 0184 a5be
000002c0: 9fc5 96be 5aca 63be 16b3 90be 9360 abbe
000002d0: 2f28 09bf 966c 62bf fc94 c3be 2d09 63be
000002e0: d577 9abc 382c f23d 9037 733d a74b c93e
000002f0: ff83 903e 0bd5 14bf 92bc 99be d33e 263c
00000300: 6719 bfbd 5dda 07bc 711e 133e 63a0 c03d
00000310: 3455 3d3e 7c4c 0e3c b738 01bd 694b 8ebd
00000320: 616f 82be aec8 843e 4a57 f33d b1a7 bc3d
00000330: 938c 4ebf acee f0be b165 9fbe 6f42 41bf
00000340: bf24 34bf f4ca a6be ff5b c03e 700f be3e
00000350: 2b1e 9e3e be38 5f3e 91e9 b33d e3ba 783e
00000360: 2173 653d 54d9 bb3d ebfb acbe 31a0 6abe
00000370: 1dfd debe 4ce3 abbe d81d 443d 6dc4 033d
00000380: 5ac3 84be 933b 84bd 2eee babe d408 3ebd
00000390: 5ab8 e6bd bc7e 833d 35ff 8abd dccc 5b3c
000003a0: c0b2 8b3d 892f 98bd 7ad3 78be 95cf 89be
000003b0: 55b4 21be afd5 adbd 1922 99bd c1f6 21be
000003c0: bf27 b83d 74fd 963e d0c5 ed3e af64 ff3d
000003d0: 33a1 a4bd 5732 743e 0492 bc3e c2e6 ab3e
000003e0: 7f50 8e3e a61d eabe a4a4 2fbe 2dea b4be
000003f0: cb84 b3be 7f1c 70be d525 f4bd c5e5 e4bc
-0.42841172 -0.13832335 0.1632305 -0.1344075 -0.3930433 -0.35708618 -0.006172915 0.45800892
0.18875693 0.18722914 0.6234325 0.33910632 -0.21422112 -0.040212277 -0.34464544 0.14784168
-0.11826945 0.04825826 0.35704434 0.22641432 0.07981838 -0.15475705 -0.01656852 -0.13410965
-0.18737678 -0.51010853 -0.7911487 0.18336701 -0.03858492 -0.2568548 0.25962204 0.085929856
-0.024984524 -0.37447673 -0.6949158 -0.64514124 -0.62122756 -0.27567557 -0.39352664 -0.017731026
0.49146843 0.58502996 -0.19649315 0.09144689 0.27384284 -0.4241217 -0.8463773 -0.58322084
0.20609352 -0.027629452 -0.21330857 0.06722758 0.27367052 0.6626679 -0.17809688 -0.31025827
-0.09067387 -0.28831056 -0.19648996 -0.5951083 -0.061688796 -0.4598796 -0.5152611 0.036549542
-0.36326462 -0.45790422 0.4989199 0.44109026 -0.032053124 -0.022296451 -0.07909059 -0.254603
-0.10391035 -0.19976203 -0.019190187 -0.2044046 -0.07339947 -0.2893889 -0.24096364 -0.20539069
-0.059889108 -0.04355864 0.30605626 0.16387132 -0.8113803 -0.19858238 -0.33430365 0.13251287
0.0667364 -0.17652056 0.0013287256 0.06578738 -0.026417177 0.13963918 0.14317426 -0.059177697
0.23635335 0.22015114 0.29574963 -0.02934076 0.034553997 0.33354944 0.044091333 0.120352834
0.33791322 -0.059402023 -0.26577753 -0.14619265 -0.48788098 -0.36272874 -0.13588695 -0.060756877
-0.21145397 -0.32569084 0.045841213 0.13825011 -0.0553357 0.09735688 -0.025934644 -0.021464545
0.12899214 0.16439195 -0.12187032 0.2212297 0.05890405 0.22349676 0.31682193 0.67249763
0.58284616 -0.22052638 0.116662286 -0.016537156 0.14041746 -0.032250363 -0.08053911 -0.19748347
-0.13793044 -0.11996761 0.3825462 0.4378308 0.77941287 -0.21016847 -0.035314005 0.061728206
-0.41432703 -0.21055686 -0.0039443364 0.006944791 -0.002258335 0.0043846564 -0.49826893 -0.33661678
-0.18624331 -0.107256755 -0.25140625 -0.06170572 0.1321086 0.010472171 0.072079755 -0.12694591
-0.1791534 -0.4152989 0.26860127 0.12175673 0.002890176 0.126326 0.026252165 0.11149137
-0.4305968 -0.5288903 -0.57596076 -0.14590237 -0.39181188 -0.3204539 -0.64011866 -0.32327273
-0.29447648 -0.2224516 -0.28261632 -0.33472118 -0.5357694 -0.8844694 -0.38199604 -0.22171469
-0.018855968 0.1182484 0.05937916 0.3931553 0.28225705 -0.5813758 -0.3002668 0.010146814
-0.09331017 -0.008291808 0.14367081 0.09405591 0.18489534 0.0086852275 -0.031548228 -0.06947977
-0.254756 0.25934356 0.118818834 0.09211672 -0.8068325 -0.47057092 -0.31132272 -0.75491995
-0.7036857 -0.32576716 0.37570187 0.37121153 0.3088239 0.21798989 0.08784784 0.24290042
0.056018 0.091723114 -0.33785948 -0.2291267 -0.43552485 -0.3357185 0.047880024 0.032169748
-0.2593029 -0.064566754 -0.36509842 -0.046395138 -0.11265631 0.06420657 -0.06786958 0.0134155415
0.06821203 -0.074309416 -0.24299422 -0.26916185 -0.15791447 -0.084880225 -0.07477207 -0.15816785
0.08991956 0.29490244 0.4643998 0.12470376 -0.08038559 0.23847328 0.3683015 0.33574492
0.2779579 -0.45725745 -0.17152649 -0.35334912 -0.3506225 -0.2344837 -0.119212784 -0.027941594

conv4.bias f4 [64]
00000000: c140 13bf b802 42be d26b fdbe d40a 20be
00000010: d2f2 2abe 84a8 7e3e 7151 15bf f049 c4be
00000020: 5d8e d1be ba79 b1be 54d5 98bf acef d73e
00000030: 7bb1 e8be 1495 75be a788 d4be 13a7 acbe
00000040: d651 10bf 51c6 18be 7242 afbe 6970 abbe
00000050: fd36 e6be 7a77 823e b95f 6abf 432e e5bd
00000060: 0787 0ebf 7782 f4be f7bb b53e 705a 2cbf
00000070: 9246 c13c ea06 8fbe b2f1 1bbe 384e 30bf
00000080: e192 f8be 1337 06be 2c6f 663a 6d83 d0be
00000090: 9ee9 74be 8380 60bf a962 b8be 651f ae3e
000000a0: 2529 ec3e 693e 86be 2921 c2be 2542 fa39
000000b0: d773 a9be e74a efbe b9f5 d43c b432 21bf
000000c0: 1a68 cfbd b6ff ebbb 2d53 f0be a7c6 8d3d
000000d0: a359 84be 1172 8bbf ca5a 10bf ca8a 3cbf
000000e0: 3c6a 8abf b677 05bf fcdb abbe e209 353e
000000f0: 973f 48bd db89 f7bd 0f8a 92be 1826 6abe
-0.5752068 -0.1894635 -0.49496323 -0.1562913 -0.16694191 0.24868971 -0.58327395 -0.3833766
-0.40928927 -0.34663182 -1.1940103 0.42175043 -0.45447907 -0.2398265 -0.41510507 -0.33721218
-0.5637487 -0.14919402 -0.3423038 -0.334842 -0.44963828 0.25481778 -0.9155231 -0.11190464
-0.55674785 -0.47755787 0.35494968 -0.67325497 0.02359322 -0.27934963 -0.15228918 -0.6886935
-0.4854956 -0.13106947 0.00087903696 -0.4072527 -0.23917243 -0.87696093 -0.36012772 0.34008327
0.4612514 -0.2621949 -0.37915924 0.00047732997 -0.3309619 -0.46736833 0.025996076 -0.6296799
-0.10127278 -0.007202114 -0.46938458 0.069226556 -0.25849637 -1.0894185 -0.56388533 -0.73649275
-1.081367 -0.5213579 -0.33566272 0.17679551 -0.04888877 -0.12086841 -0.28620955 -0.22866094

bn4.weight f4 [64]
00000000: e1ce 4840 a924 7640 f63e 7140 2333 6a40
00000010: f23f 8140 f0a5 4040 7d41 8940 263d 8d40
00000020: 03b9 4f40 6788 6840 52fa 7540 1529 3140
00000030: a545 5e40 8529 8740 158a 6140 3de8 9940
00000040: ecb3 7540 e091 6740 d199 6140 64bc 4f40
00000050: b20b 7340 06de 4540 996d 7e40 3e6e 4f40
00000060: 0481 6d40 e29e 7640 551c 3d40 e3fe 6140
00000070: 7317 6440 261c 5640 6cd9 6e40 35f3 7f40
00000080: 5a37 7040 98b4 4540 ff25 5e40 9b8f 8240
00000090: 50f2 8640 c423 6940 7a70 6140 ce90 7440
000000a0: ac05 5140 705c 7640 7a3b 9b40 8db8 6a40
000000b0: fcb9 5440 1c4d 7440 d0c6 5e40 a93d 9040
000000c0: 2722 4940 2ce2 8740 d342 6c40 b873 4b40
000000d0: 34ce 8040 00ff 8b40 4feb 4d40 788c 6a40
000000e0: 1800 8140 7ddd 5540 e3b6 7f40 eceb 6340
000000f0: a3ec 7540 fefc 6140 2c40 5e40 6c2c 7240
3.137627 3.8459876 3.7694678 3.6593711 4.039056 3.010128 4.289244 4.4137144
3.2456672 3.6333253 3.8434033 2.7681324 3.4730008 4.2238183 3.5240529 4.8095994
3.8391066 3.6182785 3.5250132 3.2458735 3.7975888 3.0916762 3.9754393 3.2411036
3.7109995 3.8534474 2.9548542 3.531182 3.5639312 3.345468 3.7320204 3.9992192
3.7533784 3.0891476 3.471069 4.08003 4.217079 3.642808 3.52249 3.8213382
3.2659712 3.849392 4.8510103 3.667514 3.3238516 3.8172064 3.4808846 4.507527
3.1427095 4.246359 3.6915786 3.178938 4.0251713 4.374878 3.217487 3.6648235
4.0312614 3.3416436 3.9955375 3.5612745 3.8425682 3.5310664 3.4726667 3.7839613

bn4.bias f4 [64]
00000000: 28e4 97bd ef31 0c3e 5835 3a3e 90f3 b9bd
00000010: 113c 003e 15dc 2c3e 58e0 643e 8b4e d63d
00000020: e7d6 e13d c268 183d 5166 643e 7e99 c6bc
00000030: d689 fcbd b85d 1f3e 6dcc 583e f038 953c
00000040: 7d0d 9dbc beb9 643d 2c7e d43d 71f6 fdbd
00000050: e220 463e 9142 6f3e 337d 3dbe 2b0a 36bd
00000060: fb53 233e bbb8 70bd d7bd 853d 77a2 633e
00000070: f321 93bd 5081 ffbd a2d8 efbd 4e78 c23d
00000080: 729e 8fbb de5b f23d 8b1d e9bd 7a83 79bd
00000090: deec 023e b8f9 b13d c685 663e cb62 dc3d
000000a0: fcc4 843e 551f dfbd 5d4e 48bd 57b7 e3bd
000000b0: b1d7 02bd a348 fbbd ec29 c8bc a9c3 773e
000000c0: 1888 b33d 5a94 963d 1879 883d 9eab 1a3e
000000d0: 7403 773e 940c 09be 13ad b4bd c10a f73c
000000e0: e8c8 f13d 5738 5e3d 4548 00bd 397a b3bd
000000f0: a7f7 0abd a754 8c3c 2c54 7b3e 5e77 033e
-0.07416564 0.13690923 0.18184412 -0.09079659 0.12522914 0.1688083 0.22351205 0.104642
0.110273175 0.03720928 0.22304656 -0.024243113 -0.123309776 0.15563095 0.21171732 0.018215626
-0.01917147 0.0558412 0.10375628 -0.124005206 0.19348481 0.23365237 -0.18504791 -0.04444329
0.15950005 -0.058769923 0.0653035 0.22229944 -0.0718421 -0.12475836 -0.11711241 0.094956025
-0.004382902 0.118339285 -0.11382588 -0.0609164 0.1278567 0.08690208 0.22511968 0.10761031
0.25931537 -0.10894648 -0.048902858 -0.11118954 -0.03194398 -0.12269714 -0.024434052 0.24195732
0.08766192 0.073525146 0.06663722 0.1510453 0.24122411 -0.13383704 -0.08822074 0.030156495
0.11805898 0.05425295 -0.03131892 -0.087635465 -0.033927586 0.01713021 0.24543828 0.12838504

bn4.running_mean f4 [64]
00000000: 7471 b23e c463 083f bae1 873e 5ce6 363f
00000010: 55a5 353f f581 8f3f 83e4 603e 576b 0b3f
00000020: 4358 203f c6ca c13d 5751 113f 305c 953f
00000030: af43 113f 1d52 f23e fe0c ee3e f1c3 9c3e
00000040: 06e3 c63e ca68 563f 6afa 233f 2cd1 4d3f
00000050: eb7f 1f3f a986 8e3f 0395 1e3e 4e99 2d3f
00000060: bc8d ec3e 4336 353e a06a 5d40 26e4 a93e
00000070: b6cd 443f fc1d c93e a59b 363f 9482 873e
00000080: a90f 383e b3ea 3e3f 01da c83e ffc4 1b3f
00000090: 5618 473f ed2f 363e 98fd d03e f61b 3d3f
000000a0: adbd e83f 44ce 1e3f 41b7 883e 4ed8 ba3e
000000b0: a3be 2a3f 2082 4b3e d4ce 7d3f fbd0 e83d
000000c0: 1d7f 413f 1480 fd3e 1bab b63e 665b e13f
000000d0: 1962 9b3e 7023 e83d 8aec a53e a7f2 9a3e
000000e0: 315b 113f cd55 a43e 56bb 6e3e b34c a23f
000000f0: 1254 e33e fffb 793f ef0c f23e b0ec ee3e
0.34852183 0.5327723 0.26539403 0.7144525 0.709554 1.1211535 0.2196217 0.5446066
0.62634677 0.09462504 0.5676474 1.1668758 0.567439 0.47328272 0.46494287 0.3061824
0.3884508 0.83753645 0.64053977 0.80397296 0.6230456 1.1134845 0.15486531 0.6781205
0.46201885 0.1769648 3.4596329 0.33181876 0.7687639 0.3928069 0.71331245 0.2646681
0.17974724 0.7457687 0.39228824 0.6084747 0.7777151 0.1779172 0.40818477 0.7387079
1.8182884 0.62033486 0.26702312 0.36493152 0.6669714 0.19873857 0.9914372 0.11367985
0.75584584 0.49511778 0.35677418 1.7606018 0.3034828 0.11334884 0.32407027 0.30263254
0.5677977 0.3209671 0.2331365 1.2679657 0.44400078 0.9765014 0.47275493 0.46664953

bn4.running_var f4 [64]
00000000: 2b0c d23f 96dd 2f40 7458 0640 732e 7340
00000010: 7c43 9c40 0529 b840 e4bc b03f 7d07 9940
00000020: 99cf 6440 1fee 0f3f 8d80 9c40 1b53 0c41
00000030: efdf 8640 3b46 3d40 7b15 5540 b60d 2040
00000040: b2af 3e40 1fab b440 39ed 8740 5d5b a440
00000050: 3f5a 7740 7d16 cd40 22bc 6f3f befe 5940
00000060: 3d76 9040 5da3 863f 0603 6941 f483 3140
00000070: 20f3 2640 c0b7 1b40 3f02 8c40 7de2 0540
00000080: 1634 a83f a4d9 8d40 5ed1 1a40 78c5 ab40
00000090: a970 8740 0127 b23f 2d27 0340 4233 8940
000000a0: ac67 4141 a077 8640 f5f2 d83f f9d8 d23f
000000b0: 9e98 5440 58b9 c23f 1303 bc40 a192 653f
000000c0: 9fab ac40 6c15 4e40 589d 2a40 8216 3141
000000d0: dbf4 1740 4c97 4d3f 5eb2 1740 a642 1040
000000e0: 529f 5c40 2616 3c40 62d9 0740 fb61 f240
000000f0: 5bfe 4540 688d 9a40 cbb5 6840 ed0d 2540
1.6409963 2.7478995 2.0991488 3.79971 4.883238 5.7550073 1.3807645 4.782164
3.5751708 0.5622272 4.890692 8.770289 4.2148356 2.9574115 3.329436 2.5008368
2.9794736 5.645889 4.247708 5.1361527 3.8648832 6.408995 0.9364644 3.4061732
4.5144334 1.0518605 14.563238 2.7736788 2.6085892 2.4330902 4.375274 2.0919487
1.3140895 4.4328175 2.4190288 5.367855 4.2325025 1.3918153 2.049266 4.287507
12.0878105 4.2021027 1.6949145 1.6472465 3.321815 1.5212812 5.8753753 0.8967686
5.39595 3.2200575 2.6658535 11.067995 2.3743198 0.80308986 2.3702617 2.254068
3.4472241 2.9388518 2.122643 7.5744605 3.0936496 4.8297615 3.6360958 2.578975

lin.weight f4 [10, 64]
00000000: 3441 f9be 3c6c 533f ef01 c63f 1a47 2a3f
00000010: 7f6b bbbe 3d61 033e f7a5 f1be 3255 d33e
00000020: 3796 a5be 3401 20bf f2ac 963f 6e59 b8be
00000030: 1dff 37bf a938 81bf 2f78 8a3f 8297 aabf
00000040: 8a63 bcbd 52e2 8c3f 2204 2ebf 54f4 fb3c
00000050: 667e 1f3f d113 823d 8fe7 afbe e9fa 85be
00000060: 4d7f 7c3f 32ea a3bf a1e9 a9bc 6f81 433f
00000070: 601d 81be 447d aebe 3556 983e 44fc e23f
00000080: 4b38 a1bd dafd 033f 8202 75bf 14c3 613f
00000090: 5e35 2b3f 134b 85bf 47e2 c53e b752 76be
000000a0: cf9b a03e 0874 10bf 763f b2bf 3c9a 2cbf
000000b0: 1984 a9be 8acf 66bf 61cc cebf 0bee 0ebf
000000c0: 4c49 2f3f 29ad 1a3f cb4c 61bf 1eef 5e3d
000000d0: c804 153f 1d0e 07bf 4839 3cbf a2ec 88bf
000000e0: 833b ba3f 8062 94bf 6a96 9dbf 803e 3cbf
000000f0: f2c0 3abf b423 c3bd f6e2 193f 479f bc3e
00000100: 4e9a 04bf 2f11 643f 1e29 b4be e3b2 8f3f
00000110: a35d 2ebf 8abc a83e eddb 9d3f 3050 bfbf
00000120: 2c97 f0be 507c 65bf c339 95bf 3311 dcbd
00000130: b3ce 1ebf b689 9cbf 23f9 973e 1cd1 92bf
00000140: 6741 18bf 9512 9f3f e9da 1ebf 0a5b 093f
00000150: 64f2 833f a5ce d23e 67ea e1be a9a6 1abf
00000160: 66b3 83be 83bf 54bf cf0a f6be 864e 07c0
00000170: 8a3f 1fbf 85cd c3be 5b8d c03e b058 2dbf
00000180: 5837 043e 82f2 3bbf 6db3 813f 3564 69be
00000190: 5f5a febe 5b0c ab3f 3196 253f 0d9f 563f
000001a0: 1536 2a3e 1554 e5be 458d 9ebf 6744 f1be
000001b0: c4d5 36bf 8abe bc3f 6ce0 603f 9fe0 10bf
000001c0: 2d80 09bf 91b9 493e 942c 2bbf f872 153e
000001d0: 4324 09c0 912f 0d3f 7f1f 0cbf a660 4fbf
000001e0: 54dc 8c3f fbcc 343f f909 ebbe d123 173f
000001f0: e6a9 56bf e5a4 463e 70e8 03bf 9013 03bf
00000200: 30c3 103f f4b7 763e c76c 963e c8a1 88bf
00000210: c03a 95bf 33bf 583f da54 7ebf 2ff2 ec3d
00000220: a4ed 403f 0ee5 ca3f 99f8 debe 7463 453f
00000230: c447 7a3d 5ffe 62bf c6e8 003e 6b6d f73e
00000240: 383b 98bf dbac 703e 447a 883f cfa7 733e
00000250: a98a 463e 5c23 ea3e e35a 1f3e 8210 62bf
00000260: 5f01 a33f b06d 9a3d 153e a33c b45e 90bf
00000270: 35c6 85bf bcdd 1fbf 8096 f93e 1848 993c
00000280: 6c50 903e cedb 4ebf e9fd 4fbf 1fa4 90bd
00000290: d6fe bfbf bdf4 833f 2c73 a5be 04af 773f
000002a0: efea e83e 1a5d 8dbe 9be4 cd3f e260 45be
000002b0: d75b 28bf 23ef 86bf 3035 b4be e866 dc3f
000002c0: b190 c8bf 9cf0 e13e a21a d4bc 0186 213f
000002d0: a6a9 8f3f 0c47 7fbd 42f3 ae3f 83d2 d23e
000002e0: 7d18 00be 9bca 413e 14fc 1abf 2045 7cbf
000002f0: d3ec 953f 15c7 b4bf 9afc 71bf 76ee 03c0
00000300: 4ae5 51be d9ec c8bc 4b15 6abf 5e57 83bf
00000310: c2e8 21bf b01a aebe a492 0cbe 216e 08bd
00000320: b84d 443f 2ef8 c4be 45cd 8d3e bff7 67bf
00000330: 0541 a33d 3789 24bf 23a1 7bbe efb6 ddbf
00000340: de84 c83e 4ba5 fabe 097a 1f3f 9dc8 a33f
00000350: 9f68 acbf 0c38 1f3e 156a b13e 765a 8f3f
00000360: d819 6ebf 00c2 50be a77d 343f f10d b3be
00000370: 177b 1440 2ed5 a4be 8b16 8ebd 157d 03bf
00000380: 96f3 223f 8548 493e d97b d43e 09d8 553f
00000390: 1afe d83f bf17 3d3e 2259 cbbf 1cb3 67bf
000003a0: d6a9 68bf f6ff 3dbf ce15 793f dbda cd3f
000003b0: 1129 45be 460a 12be 1ea0 983f e8e1 e3be
000003c0: 6c4d 46bf 21db 0bc0 2326 f4be 3d72 b33e
000003d0: 0175 37bf aba0 80bf 7b0f 073e 259f 7abf
000003e0: 0c3d a8bf 8010 a33f 02d3 3dbf 731e 753f
000003f0: 0af5 32bf 73aa acbe a6d1 71bf dd7f a8bc
-0.4868256 0.8258703 1.546934 0.6651474 -0.3660545 0.12830062 -0.47196934 0.41275936
-0.32341167 -0.62501836 1.1771529 -0.3600573 -0.71873647 -1.0095416 1.0817927 -1.3327487
-0.09198673 1.1006567 -0.67975056 0.030756153 0.62302244 0.06351436 -0.34356353 -0.26167992
0.98631746 -1.2805846 -0.020741286 0.76369375 -0.25217724 -0.34079945 0.2975327 1.7733235
-0.07872065 0.5155922 -0.9570695 0.8818829 0.66878307 -1.0413536 0.38649198 -0.2405499
0.31368873 -0.5642705 -1.3925617 -0.6742284 -0.33108595 -0.9016043 -1.6156121 -0.55831975
0.6847122 0.6042047 -0.880078 0.05442726 0.5821042 -0.5275591 -0.73524904 -1.0697215
1.4549412 -1.159256 -1.2311528 -0.7353287 -0.7295066 -0.09528294 0.6011194 0.3684027
-0.5179795 0.8908872 -0.3518762 1.1226467 -0.6811163 0.32956344 1.2332741 -1.4946346
-0.46990335 -0.8964281 -1.1658252 -0.10745468 -0.6203415 -1.2229526 0.29682264 -1.1470065
-0.59474796 1.2427546 -0.6205278 0.5365454 1.0308347 0.41173282 -0.44124147 -0.60410553
-0.25722808 -0.83104724 -0.4805512 -2.1141677 -0.6220633 -0.38242736 0.37607846 -0.6771345
0.12911737 -0.7341691 1.0132881 -0.22792132 -0.49678323 1.3363146 0.646823 0.8383644
0.16622193 -0.44790712 -1.2386862 -0.471225 -0.7141993 1.4745648 0.8784244 -0.56592745
-0.53711206 0.19699694 -0.66864896 0.14594638 -2.1428382 0.55150706 -0.5473556 -0.8100685
1.1004739 0.70625275 -0.45906046 0.59039026 -0.83852994 0.1939884 -0.51526546 -0.51201725
0.5654783 0.2409361 0.29379866 -1.0674372 -1.1658554 0.84666747 -0.99348223 0.1156963
0.7536261 1.5851152 -0.4354904 0.7710488 0.061103597 -0.8866939 0.12588796 0.48325667
-1.1893072 0.23503439 1.0662313 0.23794483 0.19388832 0.45730102 0.15562014 -0.8830644
1.2734793 0.075404525 0.019927064 -1.1278901 -1.0451113 -0.62447715 0.48747635 0.018711135
0.28186357 -0.80804145 -0.8124681 -0.070625536 -1.4999645 1.0309063 -0.32314432 0.9675143
0.4549174 -0.27610093 1.608539 -0.19275239 -0.65765136 -1.0541729 -0.3519683 1.7218904
-1.5669156 0.44128883 -0.025891606 0.630951 1.1223648 -0.062323615 1.3667986 0.41176233
-0.12509342 0.18924944 -0.6054089 -0.98542976 1.1712898 -1.4123255 -0.94526064 -2.0614295
-0.20497623 -0.024527 -0.9143874 -1.0261037 -0.63245785 -0.34004736 -0.13727814 -0.033308152
0.7668109 -0.38470596 0.2769567 -0.90612406 0.07971386 -0.64271873 -0.24573188 -1.7321452
0.3916387 -0.48954234 0.62295586 1.2795597 -1.3469428 0.15548724 0.34651247 1.1199481
-0.93008184 -0.20386505 0.7050423 -0.34971574 2.3200128 -0.32193893 -0.069378935 -0.51362735
0.6365293 0.1965657 0.41500738 0.8353277 1.6952546 0.1846609 -1.5886576 -0.90507674
-0.9088415 -0.7421869 0.97298896 1.6082414 -0.19253947 -0.14261732 1.1923864 -0.4450829
-0.77461886 -2.1852496 -0.47685346 0.35048094 -0.7166291 -1.0049032 0.13189499 -0.97899085
-1.314363 1.273941 -0.741501 0.95749587 -0.6990515 -0.33723792 -0.94460523 -0.020568782

lin.bias f4 [10]
00000000: 6aa9 1d3d 2868 e5bc 1498 673d 40ab 003d
00000010: 1cb8 60bd 0a87 26be d0d2 85bc b0d1 9cbc
00000020: 2c6f 2e3e 0d6f 01be
0.038491644 -0.028003767 0.056541517 0.031413317 -0.05486308 -0.16262451 -0.016335875 -0.019142956
0.17034596 -0.12640019
