NCC_Code/models/2022-08-26_13-28-17_model.pt (torch, 115275 bytes, 50 tensors)

conv1.weight f4 [8, 2, 5, 5]
000000 62 c8 48 bf 11 e2 14 bf 46 89 a2 3e 8d ed 69 bf
       -0.7843076 -0.5815745 0.31745356 -0.913781
000010 6e 2c 8f be 12 17 5b bf fe fc 71 bf af 89 64 bf
       -0.27963585 -0.8558208 -0.9452666 -0.8927259
000020 fa 1b 0d bf 88 1b 97 bf 32 c1 5a 3d b6 a2 d4 be
       -0.55120814 -1.1805277 0.0534069 -0.4153039
000030 4b 1a e1 be de 07 9e be fa e8 4a bf 8c 94 16 3e
       -0.43965372 -0.30865377 -0.79261744 0.14705104
000040 3c a9 02 bf 3b 68 44 bf 81 18 32 be 94 06 d9 3d
       -0.5103948 -0.76721543 -0.1739216 0.10596958
000050 ba 4d 82 3e e0 08 b2 3e 7a bd f1 be 7e 5b fb be
       0.25449926 0.34772396 -0.47214872 -0.4909324
000060 a2 61 4d bf 2b 30 42 bf e9 55 85 bf ad f1 20 bf
       -0.802271 -0.7585475 -1.0416843 -0.6286877
000070 75 25 4a bf 50 5d 21 bf bf 9c 11 bf 8e 7d a7 bf
       -0.78963405 -0.6303301 -0.568798 -1.3085191
000080 dc ee 32 bf 87 1b ed be 1b a3 a9 bf 76 38 2a be
       -0.6989572 -0.46310064 -1.3252901 -0.166231
000090 22 2c 9e be 02 0f 28 bf df 93 ec 3d 65 05 86 bf
       -0.30893046 -0.656479 0.11551642 -1.0470396
0000a0 0b 64 2a 3f 2b 37 8d be c0 e9 24 bf af 71 38 be
       0.66558903 -0.27581152 -0.64419174 -0.18012117
0000b0 d6 4c b5 bd 19 7a ef 3e 17 b7 35 3e d3 cf 0c bf
       -0.08852546 0.4677284 0.17745624 -0.55004615
0000c0 5f f5 0c bd b2 ad 14 be b1 9e 79 3e b4 af bf 3b
       -0.03441369 -0.14519385 0.24376942 0.005849803
0000d0 37 27 26 bd 40 f4 8c be 81 41 6e be 22 dd 8b bb
       -0.040564742 -0.27530098 -0.23267175 -0.0042683044
0000e0 60 10 88 3e fb 51 9f be 53 b2 47 bd 82 94 8a be
       0.26574993 -0.31117234 -0.048754048 -0.27066427
0000f0 b2 04 1e bf a0 1f b0 be 72 e4 bc bc 5f 80 b4 be
       -0.61725914 -0.34399128 -0.02305815 -0.3525419
000100 4e 1c 2a be a4 55 3d 3f c9 c9 83 3f 3d 62 d2 3f
       -0.1661236 0.739588 1.0295955 1.643623
000110 dc a0 c0 3f 54 23 ed 3e 14 f4 da be fe c1 3b bf
       1.504909 0.46316016 -0.42764342 -0.73342884
000120 f9 47 fc be 01 06 64 bf e9 06 4a bf 9a ed c1 3c
       -0.4927366 -0.8907166 -0.78916794 0.023672868
000130 28 0d 15 3e 7b 14 4d 3c a3 39 92 3d 65 3a ad be
       0.145558 0.01251709 0.071398996 -0.33833614
000140 6f dd d0 3e 48 0a 28 be 6a cf 1f 3e 12 63 f3 bd
       0.4079394 -0.16410172 0.15606466 -0.118841305
000150 e3 ff 03 be dc 28 81 be 29 2c d4 be 6e 58 99 be
       -0.12890582 -0.25226486 -0.41439942 -0.2995028
000160 9f 43 b3 be 79 73 4a be a0 1f d5 3e 2f b3 92 3f
       -0.35012528 -0.19770612 0.4162569 1.1460932
000170 14 23 b9 3f 37 03 f4 3f b6 20 0e 3f 03 44 9c be
       1.446383 1.9063481 0.5551866 -0.3052064
000180 2c af 37 bf b3 e5 35 bf 91 f9 25 bf 10 d3 a1 be
       -0.71751666 -0.7105362 -0.64833933 -0.3160634
000190 2b ea 05 3e 47 5c 0a 3e a5 68 9c bd b2 40 c0 3e
       0.13077609 0.13511764 -0.07637147 0.3754936
0001a0 1b 89 ef 3e 0d 32 fb be 69 f4 3c be 55 1e 95 be
       0.4678429 -0.49061623 -0.1845261 -0.29124704
0001b0 d0 8b b6 be 02 70 97 3d 60 13 9e be b2 d5 3e bf
       -0.35653543 0.07394411 -0.30874157 -0.74544823
0001c0 d3 12 fb be 52 6b 46 bf 4b ea d7 be 73 ab f4 3e
       -0.490378 -0.7750751 -0.4217094 0.47787055
0001d0 f1 29 20 3f cd a2 1d 3f 0b e6 49 3f 7f 6d d0 3e
       0.62564 0.6157654 0.7886664 0.4070854
0001e0 fe 69 5a 3f da 16 ad 3f 0c 3e 49 3f a4 cf a3 3f
       0.8531798 1.3522599 0.786103 1.2797742
0001f0 e6 e6 99 3f 17 cc 05 bd cc a0 62 3e 53 d8 93 3e
       1.202359 -0.03266534 0.22131652 0.2887598
000200 b5 b0 7c 3e 19 37 65 3e 00 6c 1a 3e 90 ef b0 be
       0.24676783 0.223843 0.15080261 -0.34557772
000210 a4 05 77 be c0 44 a5 be b7 1b 67 be 92 16 08 be
       -0.24123245 -0.32279015 -0.22569166 -0.1328986
000220 ae fa 30 bf 8d 6f 3f bf 1a 4a 32 bf de 9c f9 be
       -0.69132507 -0.7477959 -0.6964432 -0.48752493
000230 1a d6 a4 3e b0 5b 36 3f c6 48 14 3f da 5f 39 3f
       0.32194597 0.71233654 0.57923543 0.7241188
000240 35 57 43 3f 4a 03 18 3f fc f4 b2 3f ac d5 7d 3f
       0.7630494 0.5938002 1.3981013 0.9915416
000250 e4 fc a3 3f 24 97 0c 3f fd 28 57 3e 25 51 ac 3f
       1.2811551 0.5491812 0.2101173 1.3462263
000260 62 f4 d3 3f 53 8b a0 3f d6 de cf 3f ec 62 80 be
       1.6558955 1.2542518 1.6239879 -0.2507547
000270 da 14 fa be 0d 0e b9 be 0c 0f dc be af 4b 8d be
       -0.48844033 -0.36143532 -0.4298023 -0.27596804
000280 f3 92 4e 3e 4f 26 66 3e 62 53 56 3b 54 15 a2 bd
       0.20173244 0.22475551 0.0032703509 -0.07914224
000290 98 08 9d bc 36 b9 04 be 2f 8d c8 be b0 27 2b bd
       -0.019169137 -0.12961277 -0.39170215 -0.041785896
0002a0 24 7b a6 bd 68 ac d2 bc 77 7e 9e be 10 60 7a be
       -0.08128956 -0.025716975 -0.3095586 -0.24450707
0002b0 0e d4 c6 be 90 af 36 bf 13 11 84 be 5d ea ea 3e
       -0.3883366 -0.7136164 -0.25794277 0.4588193
0002c0 1f 89 86 3f 7e 61 ac 3f 29 8a c8 3f c2 f9 8c 3f
       1.0510596 1.3467252 1.5667163 1.101372
0002d0 92 ee f0 bd 45 90 c3 be c9 09 bc be eb be bb bd
       -0.11764254 -0.38196006 -0.36726215 -0.09167274
0002e0 16 df 20 bf 0d b9 fe 3d 5a f5 53 be 93 8a 0c be
       -0.628404 0.124376394 -0.20699063 -0.13724737
0002f0 ca 20 92 3e b0 8c de 3d cb 65 4f bd f3 3f 82 3d
       0.2854064 0.10866678 -0.050634187 0.063598536
000300 ed bc f0 bd b5 26 d7 be c1 02 44 3c 7e b0 86 be
       -0.11754785 -0.4202172 0.011963547 -0.26306528
000310 3d f0 f1 be 49 3d ef be a5 0d 34 bf 11 b1 28 bf
       -0.472536 -0.46726444 -0.7033332 -0.6589518
000320 db 30 64 3e ff 2d 3a be d5 40 4d bf 19 a5 83 bf
       0.22284262 -0.18181609 -0.8017705 -1.0284759
000330 85 e9 30 bf a9 53 82 3f 27 1e 81 3f 9b 11 41 3f
       -0.6910632 1.0181781 1.0087327 0.7541749
000340 18 de d2 be b6 26 2f bf 7a c6 86 3e 4a de 9e 3e
       -0.4118507 -0.68418443 0.263233 0.31028968
000350 db a9 89 3c d0 07 64 be a2 37 0e bf 8e 9d 97 3e
       0.016804626 -0.22268605 -0.5555364 0.29612392
000360 0d 46 48 bc b9 e3 24 be a8 7b c5 be 98 8e 65 bf
       -0.012223733 -0.16102494 -0.38570905 -0.89670706
000370 ba 7d 66 3f c5 06 6e 3f ee b0 ea 3e 16 87 70 3c
       0.90035594 0.9297908 0.45838112 0.0146806445
000380 4a 6c 8c be 3d 7a 25 be 69 54 a4 be 84 a5 6c be
       -0.27426368 -0.16159911 -0.3209565 -0.23110014
000390 58 18 3b bf db 8e 56 bf 20 d9 6d 3f 92 34 40 3f
       -0.7308402 -0.8381173 0.9290943 0.75080216
0003a0 66 ed 07 3f b1 13 e8 bc 4c 76 ef be 5d c0 26 3e
       0.53096616 -0.028329702 -0.4676994 0.16284318
0003b0 e8 c9 9f 3e 31 73 8b bd 5b b2 38 bf 82 e2 66 bf
       0.3120873 -0.068090804 -0.7214715 -0.90189373
0003c0 9f 63 a3 3e e1 5c 8e 3e f6 24 3c 3e 0a df 4d bf
       0.31911942 0.27805236 0.18373474 -0.80418456
0003d0 ce 99 4b bf 3d e6 25 3f 05 fe 6d 3f 23 e3 11 3f
       -0.7953156 0.6480444 0.9296573 0.5698721
0003e0 5a 86 55 3e 49 ca bb be 56 53 8d bc ff 00 66 be
       0.20852032 -0.3667777 -0.017251652 -0.22461317
0003f0 e1 25 e7 be c8 ac 27 bf d8 f7 e6 be 93 cb b1 3f
       -0.45146087 -0.6549802 -0.45110965 1.3890251

conv1.bias f4 [8]
000000 94 43 48 3f 60 a2 b2 bf fb 20 da bf bc c0 d3 bf
       0.78228116 -1.3955803 -1.7041315 -1.6543193
000010 16 92 0d be 6f 17 af bf 83 50 05 bf 4b ff 46 c0
       -0.13825259 -1.3679026 -0.52075976 -3.1093318

bn1.weight f4 [8]
000000 b1 65 4e 3f fe e5 55 3f 41 c9 ed 3f 1f f3 45 3f
       0.8062392 0.83554065 1.8577043 0.773241
000010 e6 2b 04 3f f8 4f 4b 3f e8 f8 ae 3f 97 25 a3 3f
       0.51629484 0.794189 1.366971 1.2745847

bn1.bias f4 [8]
000000 d7 33 51 3f 4a f2 57 be f8 8a f2 be f4 d4 7d be
       0.81719726 -0.2108852 -0.4737165 -0.24788266
000010 10 bf 16 bf c4 69 8c bd a1 1d 3c bf a0 fb db 3e
       -0.5888529 -0.06856111 -0.7348271 0.42965412

bn1.running_mean f4 [8]
000000 65 38 bd 40 fc d7 35 3f 90 68 0f 40 bb 9c 8c 3f
       5.913134 0.7103269 2.240757 1.098533
000010 f0 9a 03 40 5b 70 92 3f 10 5a 0f 40 b7 e1 1f 3f
       2.0563316 1.1440538 2.239872 0.6245379

bn1.running_var f4 [8]
000000 4d ea cb 41 be 49 16 40 4c 8f 0f 42 c8 30 f4 40
       25.489405 2.3482509 35.88994 7.6309547
000010 84 e3 4d 41 c5 59 b2 40 9b e3 c8 41 df fa 58 40
       12.868046 5.573458 25.111135 3.390312

conv2.weight f4 [16, 8, 3, 3]
000000 b5 b2 1c bf 31 04 92 bf 73 b9 40 bf dd c7 50 bf
       -0.61210185 -1.1407529 -0.75282973 -0.8155497
000010 06 4c 22 bf e3 c4 2e bf ae 7a 6e be 5d b9 37 bf
       -0.6339725 -0.68269175 -0.23288986 -0.71767217
000020 c3 e0 ab be ad bd 94 3e 51 d4 08 3f 17 49 b6 bb
       -0.33569917 0.2905096 0.5344897 -0.005562912
000030 80 7d a4 be 4c 9b 36 bf 42 c4 cf 3c e5 f1 a3 be
       -0.32127 -0.71330714 0.025362138 -0.32020488
000040 5b 6a a9 be 38 c4 c0 be 71 3e 51 3d 02 2e 1a 3f
       -0.33088955 -0.37649703 0.05108494 0.6022645
000050 62 88 a2 3e b4 bd ca bf a5 28 d4 bf 61 3b dc bf
       0.31744677 -1.5839143 -1.6574904 -1.7205621
000060 8a b3 e4 bd 8c 69 8e 3d e7 a9 b1 3e c9 c1 9d be
       -0.11167057 0.06953725 0.34699938 -0.3081191
000070 e5 f6 88 be 76 ba bb 3e 4e 37 8a be cf 80 86 be
       -0.26750866 0.36665696 -0.2699532 -0.26270148
000080 d5 d1 6d be 4c 8d 83 3f 99 24 54 3f 96 ed f0 3e
       -0.23224576 1.0277495 0.82868344 0.47056264
000090 8f f2 a2 3e d5 f3 34 3f d9 6a 77 be 69 97 7c 3e
       0.31825683 0.7068456 -0.24161853 0.24667133
0000a0 80 5b 88 3e de 37 82 3e b0 13 17 bf bc 0e d0 bd
       0.2663231 0.25433248 -0.59014416 -0.1015906
0000b0 40 92 ae be d1 75 24 3e a2 b4 8e bd db d4 26 bf
       -0.34095955 0.16060568 -0.06968047 -0.6516854
0000c0 3e 90 61 3f 47 61 17 3f 0f 86 59 3f 7a 02 24 bf
       0.8811072 0.5913281 0.8497018 -0.6406628
0000d0 bb ee d5 be e0 49 78 bf 34 65 b1 bd 03 af 8c be
       -0.417837 -0.96987724 -0.08661881 -0.27477273
0000e0 78 3d d9 3e b1 11 05 3e 86 7e fb 3d 74 90 84 be
       0.4242971 0.1299503 0.12279992 -0.2589146
0000f0 05 41 cd 3e e6 30 de 3e bd e6 8e 3d af 2a 33 be
       0.40088668 0.43396682 0.069776036 -0.17496751
000100 3b da 8c be a6 e6 1d be 52 14 4f bf fb b4 55 bf
       -0.27510247 -0.15420017 -0.8089038 -0.8347928
000110 c1 77 90 bf c3 65 23 3f e9 73 6a 3f a9 70 cc 3e
       -1.1286546 0.6382715 0.91583115 0.39929703
000120 5b 81 45 be 6e 24 8a bd 3b 9f 8d 3c 7c 91 97 be
       -0.19287626 -0.0674523 0.017287841 -0.29603183
000130 f8 ab e7 bd f4 c7 ee bb 33 d9 e2 3e 03 80 ea 3e
       -0.11312097 -0.00728702 0.44306335 0.4580079
000140 04 e4 3a 3f 22 8a 68 bf a5 6a e4 be 91 25 43 bf
       0.73004174 -0.90835774 -0.44612613 -0.76229197
000150 8a a2 fc 3d 6a 1b d7 bd 7a 20 bc 3e 69 f0 55 bf
       0.12335689 -0.10503276 0.36743528 -0.8356996
000160 b0 f4 da be 23 ef 97 bd cc 40 89 bf 0a 24 c2 bf
       -0.42764807 -0.074186586 -1.07229 -1.5167248
000170 3c d6 8d bf cf f0 db be 01 93 96 be 0a 91 c8 bd
       -1.1081004 -0.4295716 -0.2940903 -0.09793289
000180 9b 39 30 bf f5 f2 41 bf 1a de 25 bf 54 16 0b be
       -0.688379 -0.7576135 -0.64792025 -0.13582736
000190 e1 fd 37 bf 95 5f 5e bf d7 ad 0c bf f5 78 34 bf
       -0.71871763 -0.86864597 -0.5495276 -0.70497066
0001a0 7e 4e 0c bf 48 c1 9b bf 89 a9 90 bf 03 cb c1 bf
       -0.5480727 -1.216836 -1.1301738 -1.5140079
0001b0 61 9e 96 be 6e ad 28 be 8c 29 c8 bd 65 f9 5f be
       -0.2941771 -0.16472408 -0.097735494 -0.2187248
0001c0 d7 cc 57 bd a4 9d 83 3d 86 b5 2c be 0f 4c 45 be
       -0.052685585 0.06426552 -0.1686612 -0.19267295
0001d0 b6 5c ea 3d 60 26 23 bf 64 ee c8 be d6 65 9c be
       0.114434645 -0.6373043 -0.39244378 -0.30546445
0001e0 ce 3d e6 be a9 91 40 bd b1 95 48 3d b5 26 9a bc
       -0.44969028 -0.047013912 0.04897088 -0.018817285
0001f0 aa a5 b9 3e 12 83 3d 3f 4d 96 38 bf 9f b6 69 bf
       0.36259204 0.7402812 -0.7210434 -0.9129428
000200 e7 9e 4d bf e3 8e c2 bf 9a 87 95 bf ad 84 82 bf
       -0.8032059 -1.5199856 -1.1682007 -1.019674
000210 6e f5 21 bf 9d b9 cd 3c fc 5a c7 be 97 9a 84 3e
       -0.6326512 0.025112921 -0.38936603 0.25899193
000220 56 5a 2f 3e c8 6e a4 3d a7 78 fa 3d 14 41 71 3d
       0.17124304 0.08028942 0.12230044 0.058899954
000230 9c ea 1c 3f e9 ff 83 bd 82 e2 1a 3f 75 f8 10 3e
       0.61295485 -0.06445295 0.60501873 0.14157279
000240 eb 65 96 3c dc c7 fc be c3 7a 21 bf 00 67 a1 3e
       0.018359145 -0.4937123 -0.63077945 0.31523895
000250 92 b8 36 bf 6a bd e2 bf 84 7b cd 3e f7 04 6c bf
       -0.7137538 -1.7714055 0.40133297 -0.92195076
000260 1d 9d 9d bf 5e 37 33 bf d1 92 84 bf 3b 02 91 bf
       -1.2313572 -0.7000636 -1.0357305 -1.1328806
000270 89 c9 1f 3f 9c 68 21 3f cb 6d 01 3e 92 fe 52 3e
       0.62416893 0.63050246 0.12639539 0.20604923
000280 b0 33 34 3d 8e fc 9c 3e eb 90 43 3f 6b 72 f0 3e
       0.043994606 0.30661434 0.76393 0.46962294
000290 8e ab bc be 60 0f 6c 3d 24 0a 19 be 77 af 3e bf
       -0.36849636 0.05763185 -0.14945275 -0.7448649
0002a0 27 6c 10 3f 1f 55 25 3f c1 f5 a3 be 2b 16 a1 bb
       0.5641503 0.6458301 -0.32023433 -0.0049159727
0002b0 1a 3d 8a be de 4f 85 bf ed ec 6a be 22 eb 76 be
       -0.26999742 -1.0414999 -0.22941943 -0.24113134
0002c0 e3 3b 41 bf 81 80 c6 3e ec 72 ac bd 02 fb 23 bf
       -0.75482005 0.38769916 -0.08420357 -0.6405488
0002d0 17 fa 32 3f 41 7d 7f 3f 58 d3 82 3f 56 1f 78 3e
       0.69912857 0.998005 1.0220747 0.24230704
0002e0 73 24 0b 3f b6 7a 0c 3f c6 be 1c 3f 94 17 51 3f
       0.5435249 0.5487474 0.612286 0.816766
0002f0 de b5 a5 3f 03 38 2a 3f 5a 70 3c 3f e7 67 5a 3f
       1.2946126 0.6649172 0.73608935 0.8531479
000300 c1 59 ef be 1c 05 3a bf bc 98 f5 be 7f f0 f2 3e
       -0.46748164 -0.72664046 -0.4796809 0.4744911
000310 9a b9 3b 3f 7d 7a 96 3f 6a f7 0d 3f b4 a1 02 3f
       0.7333008 1.175613 0.5545565 0.5102799
000320 50 b5 df be 15 83 64 bf 40 6f a4 bf 40 18 b1 bf
       -0.43693018 -0.89262515 -1.2846451 -1.3835526
000330 43 fb 61 3e ef e9 83 3e 66 03 c9 be e2 2e 85 3e
       0.22068505 0.25764415 -0.39260405 0.2601233
000340 57 6d cf 3e e1 90 f6 3e 94 21 d2 be 6d 08 1e be
       0.40513107 0.4815741 -0.41041243 -0.15432902
000350 77 b9 53 be 9f e0 d7 3e 38 4d 6b 3e 8b a3 b7 3e
       -0.20676218 0.4216356 0.22978675 0.3586696
000360 c0 12 2b 3f f9 7e 5a 3e 59 6c f6 be 98 5e 8b 3d
       0.66825485 0.21337499 -0.48129538 0.06805152
000370 5e 22 f3 bd aa 0f 53 be a6 fb 30 be 50 54 85 bd
       -0.118717894 -0.20611444 -0.17283496 -0.06510222
000380 f9 fd 9e be 44 76 2b bd 46 29 95 bc c4 1f 7c be
       -0.3105314 -0.041860834 -0.018208157 -0.24621493
000390 f2 ed 96 be 8c 62 65 be c9 eb 76 3e 7c c0 3b 3e
       -0.29478413 -0.22400874 0.24113382 0.18335146
0003a0 79 82 88 3e 53 8f 53 bd a1 67 7f be 56 0a a8 bd
       0.26662043 -0.051650357 -0.24941875 -0.082050964
0003b0 8e 18 9d be f9 96 fe be 8b f7 2b bf f6 e8 2b bf
       -0.30682796 -0.49724558 -0.67174596 -0.67152345
0003c0 49 1f 73 bf c8 dc 6b bf 87 ca 8c bf f5 05 8f 3f
       -0.9496961 -0.9213376 -1.0999306 1.1173693
0003d0 89 7a 52 3f 57 36 0a 3f a6 6d 71 3f df fe 5b 3f
       0.82218224 0.53989166 0.94307935 0.8593578
0003e0 68 fc 7b 3f b2 4d 72 be 57 37 6c be 40 38 67 3e
       0.98432016 -0.23662451 -0.23067985 0.22580051
0003f0 9a 03 dd 3e b6 06 10 3f 7a 7d 56 3f ab 9e 06 3f
       0.4316681 0.5626024 0.8378521 0.5258586

conv2.bias f4 [16]
000000 2c 37 07 bf a2 13 26 3f cb 37 16 bf 49 7b c2 bf
       -0.5281856 0.6487371 -0.58678883 -1.5193874
000010 16 cd 10 3e 0b ed 1d 3f e0 cb 95 3e fa fc 24 bf
       0.14140734 0.61689824 0.29257107 -0.6444851
000020 68 d0 40 bf 44 bc 7a bf 63 08 cf be 72 cc d7 bf
       -0.75318 -0.9794352 -0.40436086 -1.6859267
000030 eb d7 8d bf 1b 6b 99 bf 07 c0 95 bf 1f 77 17 bd
       -1.1081518 -1.1985811 -1.1699227 -0.036978837

bn2.weight f4 [16]
000000 79 ec 61 3f 41 ca 92 3f 70 14 8d 3f b6 9d 98 3f
       0.88251454 1.1467973 1.1021862 1.192313
000010 7d 0c 67 3f 11 e5 9f 3f d3 3c 35 3f 40 a6 91 3f
       0.9025343 1.249178 0.70795935 1.137886
000020 29 cb 65 3f 97 60 81 3f c7 4b ab 3f ed be d6 3f
       0.8976312 1.0107602 1.33825 1.6777016
000030 30 01 b6 3f fd 94 8b 3f 78 48 22 3f 17 c2 8e 3f
       1.4219112 1.0904843 0.6339183 1.1152982

bn2.bias f4 [16]
000000 f2 f4 b3 3c 4b 3c 6c 3f 0b 28 6e be 8c 98 67 3f
       0.021967385 0.922795 -0.23257463 0.90467143
000010 37 9d 40 be 97 93 bd be 60 00 c4 be 1b 59 de bf
       -0.18809973 -0.37026665 -0.38281536 -1.7370943
000020 9d 84 e0 be 31 29 93 3e e6 3a c6 bd dd 3f 23 be
       -0.43851176 0.28742364 -0.09679203 -0.1594233
000030 a8 05 0c bb 8a b8 80 be 62 5c f3 be d5 8f 1b 3f
       -0.0021365676 -0.25140792 -0.4753142 0.60766345

bn2.running_mean f4 [16]
000000 f8 b9 24 3f ab 6d 91 41 f8 aa 8c 3f e8 25 91 3f
       0.64346266 18.178549 1.0989676 1.1339693
000010 f7 78 cb 3f 38 54 d6 3f b9 f0 d3 3f de 1b b1 3f
       1.589629 1.6744452 1.6557838 1.3836629
000020 6c 4d d4 3f ac cf 81 3f 29 cf e6 3f ea 33 8f 3f
       1.6586127 1.0141501 1.803197 1.1187718
000030 5b 53 ff 3f aa 02 87 3f b7 94 9a 3e 38 f7 84 40
       1.9947313 1.0547688 0.30191585 4.155178

bn2.running_var f4 [16]
000000 68 20 e8 40 c8 eb 91 42 5e b2 7e 41 78 da d4 41
       7.253956 72.96051 15.918547 26.606674
000010 7a 4f 76 41 29 8d d2 41 61 b8 a5 41 23 0a ad 41
       15.394403 26.318926 20.715029 21.62995
000020 34 e2 01 42 4d 35 e3 40 20 b6 f3 41 3a 7c d3 41
       32.4709 7.1002564 30.463928 26.435658
000030 57 13 8d 42 7f 4e 8c 41 2e fe fe 3f 70 ab 95 41
       70.53777 17.538328 1.992132 18.70871

conv3.weight f4 [32, 16, 3, 3]
000000 10 8e 9b 3e c6 97 20 3e 30 f2 82 be 16 a2 95 3e
       0.30381823 0.15682897 -0.255754 0.29225224
000010 2f 49 20 bf 44 34 87 bf 5d 59 93 bd 81 2f cb be
       -0.6261167 -1.0562825 -0.07194779 -0.3968468
000020 08 b0 c5 bd 1d b3 86 bf 7f 95 cf be 32 e8 2c bf
       -0.09652716 -1.0523411 -0.40543744 -0.675418
000030 11 1c 45 bf 0a ac 84 be 3d 2f 82 be 5f 89 57 bf
       -0.7699595 -0.25912505 -0.25426665 -0.84193987
000040 e8 11 1d bf 38 68 5a bf 6c e9 99 bd 21 84 81 bf
       -0.6135545 -0.85315275 -0.07515225 -1.0118448
000050 b9 fd 75 bf 75 ca ef 3e c3 25 d8 3e a3 5c a1 3d
       -0.96090275 0.4683415 0.4221631 0.07878997
000060 79 9e 12 3f c1 f2 29 3f 0e 1e 7a 3f b8 f2 89 bf
       0.5727306 0.6638604 0.9770211 -1.0777197
000070 2f 98 c7 bf 9f 4b a5 bf 68 eb 94 bf 91 29 87 bf
       -1.5593318 -1.2913703 -1.163434 -1.055956
000080 98 4d 3e bf 8f 37 8e be 2c 65 09 be ab 3a c6 be
       -0.7433715 -0.27776763 -0.134175 -0.38716635
000090 fe 8b 10 3f 8f 11 02 3f c6 71 09 3f 36 e6 be bf
       0.5646361 0.5080804 0.5368923 -1.4914005
0000a0 33 7f c8 bf fe 94 a9 bf 8d 28 e4 bd e4 ad 14 3f
       -1.5663818 -1.3248594 -0.11140547 0.58077836
0000b0 18 fb 0c 3f 14 f0 95 bf 83 f2 eb bf 8d d4 f6 bf
       0.5507064 -1.1713891 -1.8433384 -1.9283615
0000c0 f6 31 35 be 89 ab 8b 3d 7d a6 06 be cb e6 00 3f
       -0.1769484 0.06819827 -0.13149448 0.5035216
0000d0 aa ca 72 3b e8 28 99 bd 09 0b 25 3f 44 2d 08 3f
       0.0037047067 -0.074785054 0.64469963 0.5319407
0000e0 8f 06 02 3f f5 1f 5a 3d fb a2 32 be 8f 4e 70 3e
       0.5079126 0.053253133 -0.17444985 0.23467468
0000f0 a8 4e d5 be 94 81 d0 be 0e d2 08 bf e5 a5 a9 ba
       -0.41661572 -0.4072386 -0.5344552 -0.0012943117
000100 65 f2 de be 0d 75 20 bf 8b 3c a3 3e 86 6c 9c be
       -0.43544307 -0.62678605 0.31882128 -0.30551547
000110 6c 6b 04 bf 85 55 ba be ff ee 89 be a6 16 ad be
       -0.5172641 -0.3639337 -0.26940152 -0.33806342
000120 71 7a 53 3d 89 d2 d0 3e 10 9f e0 3e a6 93 a4 be
       0.05163044 0.40785626 0.43871355 -0.32143897
000130 a7 ac 43 bf 86 ec 17 be f7 be 60 3e 77 33 f2 3e
       -0.7643532 -0.1483632 0.21947847 0.4730489
000140 64 d4 32 3f 01 dc 5f bc 31 4a d9 be db 60 5c 3c
       0.6985533 -0.013663293 -0.42439416 0.0134508265
000150 13 f1 1e bf 81 3a f3 be 7d ff 67 3e 98 b5 06 3f
       -0.620866 -0.47505572 0.22656055 0.5262084
000160 32 00 1b 3f e7 6b e9 3e 95 ed be bb b7 ee f3 be
       0.60547173 0.45590135 -0.005826662 -0.47643062
000170 2a 97 b0 be 03 4f 39 3d a6 56 f3 bd 98 e2 f7 be
       -0.3449033 0.045241367 -0.11881761 -0.48415065
000180 9d a2 89 be d9 0f 3c be 7e c9 da be b8 51 39 bf
       -0.26881877 -0.1836542 -0.4273185 -0.7239032
000190 c4 a7 c9 bf b7 dd 39 bf 8a 01 11 3f 2b a9 11 3f
       -1.5754323 -0.72603935 0.56642973 0.56898755
0001a0 8f 14 cd 3e b1 c4 06 be 09 10 9a be 9a 34 89 be
       0.40054747 -0.1316097 -0.3009036 -0.26797944
0001b0 1a 6a a4 3e 59 3a 87 3e 38 4c b4 bd 5e 27 0f bd
       0.321122 0.26411703 -0.088036 -0.034949653
0001c0 e8 e1 ab 3a 1b 5d be be eb 3c ed 3c 88 36 3e bd
       0.001311359 -0.3718041 0.028959712 -0.046438724
0001d0 27 b1 b8 3d 5f fa bb 3f 95 da 06 40 ed 80 c3 3f
       0.09018164 1.4685782 2.1070912 1.527372
0001e0 1e 37 d5 be 88 75 ed be 5c c6 c4 bd 8b e4 cd be
       -0.41643614 -0.46378732 -0.096081465 -0.40213427
0001f0 48 32 c7 be ee 82 f9 be 67 14 9b 3e 29 19 45 3d
       -0.3890555 -0.48732704 0.30289003 0.048119698
000200 68 e2 83 be 9f 32 db be 4d 33 0d 3e e3 2e d6 be
       -0.25758672 -0.42812058 0.13789101 -0.41832647
000210 0f d6 01 bf 20 1e 5d be 15 eb 37 3f 23 9c 31 3d
       -0.5071725 -0.21593523 0.7184308 0.043361794
000220 1a b2 03 3f 1e ee a3 3e 19 82 fe bd 7d c5 15 bf
       0.51443636 0.32017606 -0.12427158 -0.5850447
000230 00 14 3d bf a9 46 0b bf 01 16 05 be 6d 46 a8 3e
       -0.7385864 -0.54404694 -0.12996675 0.3286623
000240 83 8d 94 3e f3 83 dc 3e c2 d4 13 3f 96 78 d0 3d
       0.29014215 0.4306942 0.5774652 0.1017925
000250 75 8b 80 3e f7 f4 92 3e ac cf 1e be 27 f0 22 bf
       0.25106397 0.28702518 -0.15508908 -0.63647693
000260 d1 3a 12 bf 34 1b ab be cd b2 8e bf ba 48 8a bf
       -0.57120997 -0.33419192 -1.1148316 -1.0803444
000270 e7 ba a0 be 72 db 16 bf f7 44 dc be ab 85 10 bf
       -0.31392595 -0.58928597 -0.43021366 -0.5645396
000280 0a 35 16 b9 c5 bf 08 3e 4e 0e 99 bd 6f 45 40 bf
       -0.00014324873 0.13354404 -0.074734315 -0.7510595
000290 39 87 31 be f6 91 ea 3e 51 39 53 3f 55 f8 e5 3c
       -0.1733674 0.45814484 0.8250933 0.028072516
0002a0 b5 a0 d1 bd 6a d8 83 3e f8 74 29 3e a4 fd 28 3e
       -0.102357306 0.25751048 0.16548526 0.16503006
0002b0 ca 8c 38 be 91 5a a6 be 08 73 69 bf 73 1e f9 be
       -0.18022457 -0.32490972 -0.9119115 -0.48656043
0002c0 3c 27 99 be 8e a1 a6 bd 08 ee 12 bc 09 58 15 bd
       -0.29912746 -0.08136283 -0.008967884 -0.03646091
0002d0 6a 72 0a 3f cd 98 9c 3d 0f 74 08 be 67 42 16 be
       0.5408083 0.07646332 -0.13325523 -0.14673768
0002e0 84 2a 2f 3e e2 2a 09 3f 8f 1d fb 3e 2b c6 ce 3e
       0.17106062 0.5358106 0.4904599 0.40385565
0002f0 53 48 5c 3e f6 74 55 3e fa 8a 54 3e 10 72 17 3e
       0.21511964 0.20845398 0.2075614 0.14789605
000300 a7 6e b7 bf 2f fd 9d bf 5f 28 d6 bf 55 82 ad 3c
       -1.4330643 -1.234289 -1.673107 0.021180311
000310 91 ac 5a 3e a5 52 1e 3f 1e 7c 72 3e 21 64 cc 3e
       0.21354891 0.61844856 0.2368016 0.39920142
000320 06 3f 30 3e 8e 57 ed be 07 8e 7d 3e 6e 30 12 3f
       0.17211542 -0.4635586 0.2476121 0.5710515
000330 d2 fb 49 3f 0d c9 84 3f a9 6c 2d 3f b8 1e d4 3e
       0.7889987 1.0373856 0.6774393 0.41429687
000340 47 5c f1 3d 2f ea 88 3e 95 f4 83 bd 0e 17 22 be
       0.11785179 0.26741168 -0.06443135 -0.15829107
000350 79 1a 2a bf 34 ee 90 3f 6b 9b 91 3f 19 ed b2 3d
       -0.66446644 1.1322694 1.1375555 0.08736629
000360 d7 70 02 be 51 3d 40 bf ca 5a 9d bf b0 6a 2a 3e
       -0.12738357 -0.7509356 -1.2293332 0.1664226
000370 bb f6 04 3f 4a dc 81 3f 02 83 0d bf b4 d1 2b bf
       0.5193898 1.0145352 -0.5527803 -0.67116857
000380 05 49 29 bf 24 76 ee be 24 15 13 bf 16 2d ad bd
       -0.66127044 -0.4657451 -0.57454133 -0.08455865
000390 d3 c8 02 3f 9a 76 58 3f e7 4d 7d 3f 93 5d 80 bf
       0.51087683 0.8455597 0.98946995 -1.0028557
0003a0 4b 14 53 bf 97 9e c9 be eb 53 bc bd 50 c0 02 bf
       -0.8245284 -0.39378807 -0.091956936 -0.51074696
0003b0 e6 dd e1 be b8 87 06 3e 43 03 67 be 65 c1 a9 bf
       -0.44114608 0.1313771 -0.22559838 -1.3262144
0003c0 90 45 00 3f 93 6a 17 bf ef 50 89 bf 00 54 8c 3f
       0.50106144 -0.59146994 -1.0727824 1.0963135
0003d0 32 cd 92 3f a0 24 01 3f 89 af 75 bf da 1e 9d bf
       1.1468871 0.5044651 -0.9597097 -1.227504
0003e0 53 de 58 bf 54 9c ea bd a4 8a ca be b3 0e 6c bf
       -0.8471424 -0.114555985 -0.395589 -0.9220993
0003f0 55 34 93 3e cd 4f 4a 3e da 76 8a be 22 33 9c 3f
       0.28750864 0.19757004 -0.27043802 1.2203104

conv3.bias f4 [32]
000000 f4 1a c6 bd 6f ef 23 3e e5 d1 7e bf 7a e9 d5 be
       -0.0967311 0.16009305 -0.99539024 -0.4177969
000010 87 6c 1f bf b4 b6 bd bf fa 33 4e bf 06 e8 4c bf
       -0.62274975 -1.4821382 -0.8054806 -0.8004154
000020 8a 23 3e bf 81 e6 c0 bf 37 20 06 bf 9a a2 9f 3f
       -0.7427298 -1.5070344 -0.52392906 1.2471497
000030 8a 11 32 be ae a0 c9 bf 21 b2 e0 be fb f2 28 bf
       -0.17389503 -1.575216 -0.43885902 -0.6599576
000040 1e fd 58 bf b7 4d 78 bf 65 63 f8 be 11 b4 a1 3d
       -0.84761226 -0.96993583 -0.48513332 0.07895673
000050 91 c2 a0 bf a3 0e fa be e6 dc cc bf c8 7f 96 bf
       -1.2559377 -0.48839292 -1.6004913 -1.1757746
000060 7c 80 8d bf fa 02 af bf 44 b3 d8 bf 26 17 d2 be
       -1.1054835 -1.3672783 -1.6929708 -0.41033286
000070 f2 1a 1e bf ea 67 f9 bf 5a 06 05 bf db d0 a8 bf
       -0.61759865 -1.9484837 -0.51962817 -1.3188738

bn3.weight f4 [32]
000000 73 8b ac 3f e4 f6 89 3f 13 5b c8 3f df d5 64 3f
       1.3480057 1.077847 1.5652794 0.8938884
000010 f4 ce ba 3f f6 bb 9a 3f 43 0f 89 3f 8b 6c 83 3f
       1.4594407 1.2088611 1.0707783 1.02675
000020 ec b4 d2 3f 67 f1 66 3f b8 aa 72 3f d2 d3 5e 3f
       1.6461463 0.902121 0.94791746 0.8704196
000030 0a 56 98 3f 21 f1 7d 3f 4d 76 52 3f a5 a3 97 3f
       1.1901257 0.9919606 0.8221176 1.1846815
000040 50 d4 99 3f 47 9e ac 3f 65 3e a3 3f bf fa 97 3f
       1.2017918 1.3485802 1.2753416 1.1873397
000050 3c f8 91 3f e6 0b 81 3f 22 13 8f 3f 4b 32 84 3f
       1.140388 1.0081756 1.1177714 1.0327848
000060 8e f4 b5 3f dd 73 8c 3f 7e 8b 9c 3f 4a e9 91 3f
       1.4215257 1.0972859 1.223007 1.1399319
000070 db 8a 9a 3f 87 82 8b 3f 58 e8 a0 3f 50 20 af 3f
       1.2073625 1.0899209 1.2570906 1.3681736

bn3.bias f4 [32]
000000 ba 7a e3 3e 3e 30 72 3e 57 f0 39 3f a5 37 78 3e
       0.4442957 0.23651215 0.72632354 0.24239977
000010 dc 67 4f be cc 90 90 3c 9c 71 a9 3d a0 7d da be
       -0.20254463 0.01764717 0.082736224 -0.4267397
000020 f0 c6 e4 3e 95 79 87 3e 42 db b0 3e 87 31 3f 3f
       0.44683027 0.26459947 0.3454228 0.7468495
000030 8e b8 9d 3f 6a 86 1d 3e 44 1a 3e be 1e 19 0d 3d
       1.2321947 0.15383306 -0.18564707 0.03444778
000040 a3 9a 1f 3f 0b 91 eb 3e 45 82 5e 3e ff f8 4d 3f
       0.6234533 0.46009097 0.21729381 0.8045806
000050 23 c9 50 3f db ae 75 3e 04 8a f8 3e 93 ea 88 be
       0.8155691 0.23992483 0.48542798 -0.26741466
000060 a0 85 1b bf 1d 6c ec be 3d aa 93 3e 06 4c 97 be
       -0.6075077 -0.46176234 0.2884082 -0.2955019
000070 94 e4 d7 bd 56 1f 3a 3e 09 fc 08 3e 08 08 33 3f
       -0.10541645 0.18176016 0.13377394 0.6993413

bn3.running_mean f4 [32]
000000 a2 ea 89 3f c4 62 58 3f 67 bf 8c 3f cc a6 b0 3e
       1.0774729 0.84525704 1.0995911 0.34502256
000010 c0 09 a6 3f 6e cc 26 3f 15 8b 00 3f 33 7f 60 3f
       1.2971725 0.65155685 0.5021222 0.8769409
000020 64 56 1b 3f 08 93 8a 3e 8d 89 e8 3f 63 ae 7f 41
       0.60678697 0.270653 1.8166977 15.980075
000030 19 88 c1 40 9f bd 16 3e 24 48 9d 3f a9 b3 29 3f
       6.0478635 0.14720772 1.228764 0.66289765
000040 6b f0 00 40 ff ea ac 3f 18 40 bb 3f bb 41 a9 3f
       2.014674 1.3509215 1.4628935 1.3223184
000050 9d 81 ad 3f 29 59 cd 3e e2 71 c2 3e 2c 49 0c 3f
       1.355518 0.40107086 0.3797751 0.5479915
000060 d5 3d ed 3f 64 1e 68 3f a3 e9 c3 3f fa 19 78 3f
       1.8534495 0.9067137 1.5305675 0.9691464
000070 6b 08 89 3f d5 31 49 3e 11 f7 35 3f 2e 6e 02 3f
       1.0705694 0.19647916 0.7108012 0.5094937

bn3.running_var f4 [32]
000000 2c a9 99 41 38 31 77 41 1d f1 da 41 d1 6c ac 40
       19.207603 15.449516 27.367731 5.3882833
000010 f0 e2 ee 41 b5 32 46 41 61 67 1d 41 67 9d 84 41
       29.86081 12.38738 9.837739 16.576857
000020 3e 89 5e 41 37 16 97 40 c8 14 b5 41 14 49 5a 42
       13.908506 4.721462 22.635147 54.571365
000030 c8 41 47 42 5b 3b 08 40 1a a6 fb 41 d8 07 8f 41
       49.81424 2.1286228 31.456104 17.87883
000040 25 18 e2 41 96 35 4b 42 a0 5c 0d 42 2c 9b 86 41
       28.26179 50.80233 35.340454 16.825768
000050 7a c8 2b 42 3c b3 03 41 2e b5 3f 41 64 ed 73 41
       42.945778 8.231258 11.981733 15.245457
000060 83 d2 0a 42 3f 0d bd 41 8e d3 70 42 82 10 4c 41
       34.705578 23.631468 60.206596 12.75403
000070 6f 7b 8e 41 27 d3 96 40 3b 59 80 41 7b 4f 18 41
       17.81027 4.7132754 16.04357 9.519404

conv4.weight f4 [64, 32, 3, 3]
000000 cf 34 af 3e 35 3e d8 3e b2 a3 a9 3e 7a bb e3 be
       0.34219977 0.4223496 0.33132702 -0.4447897
000010 20 c5 36 bc ce 40 fd bd e7 35 1c be 2e 9a 0e bf
       -0.011155397 -0.12365876 -0.15254937 -0.5570401
000020 ef 71 bd be bc 10 78 3f 25 b0 15 3f 98 d2 12 3e
       -0.37000987 0.96900535 0.584719 0.14338148
000030 95 3e 08 c0 ef 4a 24 c0 27 18 0f c0 6d 5a 52 3f
       -2.1288197 -2.5670736 -2.2358491 0.8216923
000040 c3 13 59 3f 82 61 ae 3e bd a5 fb be 4c 7a 0e bf
       0.8479578 0.34058768 -0.49149886 -0.5565536
000050 e2 57 22 bf 41 8c 38 3f 87 66 7d 3f cf 8b 95 3f
       -0.6341535 0.7208901 0.9898457 1.1683291
000060 ce 97 78 3d c8 42 0b bf a3 0a 09 bf 8e 80 6b 3e
       0.060691647 -0.54398775 -0.53531855 0.22998258
000070 a7 2a 1b 3f a3 b9 4a 3f 46 2d cc 3e d2 cb 84 be
       0.6061196 0.7918951 0.3987829 -0.25936753
000080 78 84 14 bf 7c 3f 85 bf 21 5f 8d be 0f c5 91 3e
       -0.5801463 -1.0409999 -0.2761164 0.28470656
000090 32 6c 06 bf de e2 83 bf e2 0f 4e bf 6f e1 50 bf
       -0.5250884 -1.0303609 -0.80492985 -0.81593984
0000a0 ef fa af bf 62 5b 8b bf 45 88 96 3d e7 bb 13 3e
       -1.3748454 -1.0887263 0.0735021 0.14427148
0000b0 94 cf 15 3e c8 7b da 3e 00 92 de 3e e3 9a 0a 3f
       0.14629966 0.42672563 0.43470764 0.5414259
0000c0 85 83 05 3e 24 1e 64 be 86 43 e0 3e 60 fa 01 bf
       0.13038452 -0.22277123 0.43801516 -0.50772667
0000d0 b4 d4 51 3d 8e 52 09 3e 5b 51 8e be 5e ee 32 bf
       0.05122824 0.13410398 -0.27796444 -0.6989497
0000e0 50 19 04 bf 07 db 9f 3e 5f 46 15 3e 2e 3e ea 3e
       -0.51601124 0.31221792 0.14577626 0.45750564
0000f0 64 ab 3d 3f 7f 8a 28 be fd 34 e5 be 88 62 4d be
       0.74089646 -0.16459082 -0.4476699 -0.20057118
000100 32 4a 2f bc 88 6c f0 3c 5f cd 40 bf be c0 2d bf
       -0.010698842 0.029348627 -0.7531337 -0.67872226
000110 77 b2 7f bf a0 fe a4 3e 14 b2 3c 3f 3a f5 63 3f
       -0.9988169 0.32225513 0.73709226 0.8904606
000120 ac 87 66 3e 31 a9 ab 3d dd 5f 9d 3e a5 58 a8 3e
       0.22512692 0.0838188 0.307372 0.3288013
000130 29 c9 12 be 55 3b 36 3e 41 82 90 3e 0b 5c d6 3e
       -0.14334549 0.17796071 0.28224376 0.41867098
000140 5e b7 69 3f 79 8c cb bf 1a 86 e6 bf 30 9e 00 c0
       0.9129542 -1.5902244 -1.8009675 -2.009655
000150 32 85 34 bf aa 26 7d bf 22 78 5e be bf 8b 9f be
       -0.7051574 -0.9888712 -0.21725515 -0.31161305
000160 84 29 cd be 4f 90 15 bf 70 16 89 3e c0 2c b9 be
       -0.40070736 -0.5842332 0.2677493 -0.36166954
000170 16 55 02 3e 16 9a ae 3e c2 88 5a 3e 95 c7 2f 3d
       0.1272777 0.34101933 0.21341231 0.042914946
000180 3f f1 d2 bd a2 b9 2a bf 29 79 8c be 3c 0f 66 bd
       -0.1029992 -0.66689503 -0.27436188 -0.056166872
000190 61 3e 48 3f 27 0f ae 3e e2 5c ce be dd 5b 00 3e
       0.7822018 0.33995935 -0.4030524 0.12535043
0001a0 76 57 cf bb 12 db 78 be ab 02 f7 3e 37 0e 89 3e
       -0.006327565 -0.24302319 0.48244223 0.26768658
0001b0 e9 8c 82 3e bf 22 20 3f d4 57 ec 3e 5d ff c6 3e
       0.2549813 0.6255302 0.46160758 0.38866702
0001c0 f0 2d 1f 3f 6e 7a 5b 3e ab d7 a8 3e 3b 47 10 3e
       0.6217947 0.21433422 0.32977042 0.14089672
0001d0 01 4a bd 3d 60 21 50 be a9 c6 81 3e 51 42 01 bf
       0.09242631 -0.20325232 0.25346878 -0.50491816
0001e0 49 36 6f bf cc ad db bf 7b 35 8a bf d0 8e 15 3b
       -0.9344221 -1.7162414 -1.0797571 0.0022820719
0001f0 d2 9a 1e 3e 70 29 a0 3e ed 11 26 bf 2d 50 eb be
       0.15488747 0.31281614 -0.648711 -0.45959607
000200 b3 26 d3 be b6 0d 68 3d b5 05 6f be 58 08 19 3e
       -0.41240463 0.0566537 -0.23342021 0.14944589
000210 1a 9e 4f bf ea 0c 97 bf d0 c5 86 bf 09 72 62 3f
       -0.8110062 -1.1800816 -1.0529118 0.88455254
000220 e8 7c 38 3f 24 d6 82 3d 48 24 07 bf f8 c4 35 be
       0.7206559 0.063885 -0.52789736 -0.17750919
000230 7e ee 48 be 38 5c 14 3f b2 c2 fa 3e 40 db 03 3f
       -0.19622228 0.57953215 0.48976666 0.51506424
000240 f5 ab f8 3d b0 8b 8a bf 37 f8 86 bf 14 d8 38 be
       0.12142173 -1.0823879 -1.0544499 -0.18051177
000250 ef ec 5d bf 30 bb 5c bf 04 78 df 3e 63 ca 22 be
       -0.86689657 -0.86223125 0.43646252 -0.15897517
000260 ac 32 16 be 5a 29 38 3e 13 a2 75 3d 6d e1 a8 3d
       -0.14667767 0.17984524 0.05996902 0.082461216
000270 a9 ef a6 3e a2 16 ad 3e 90 3d c9 3d 35 e7 9f 3e
       0.3260472 0.3380633 0.09826195 0.31231084
000280 02 7a 78 3e 19 56 3e 3e 2b 35 1d 3f 8f ed 6d 3e
       0.24265292 0.18587531 0.6140925 0.23235153
000290 89 13 85 3e aa f0 8f 3e ad f3 45 be 9a 98 07 3e
       0.25991467 0.281133 -0.19331236 0.13241807
0002a0 96 bb 91 3f 9d e9 1f 3f 3a c3 34 3f 76 d5 98 3e
       1.1385372 0.6246584 0.7061039 0.29850358
0002b0 5a c9 85 be 54 6a 2f bc b7 54 ec bb 50 7d ff bd
       -0.26130182 -0.010706503 -0.0072122472 -0.12475073
0002c0 ba f6 50 3e 58 c6 9f 3e 70 b2 8f 3c 69 71 90 3e
       0.20406619 0.31206012 0.01754114 0.28211525
0002d0 b7 7e 6d be 9a 49 ce 3e 41 a8 0d 3e d0 a5 91 3d
       -0.23192869 0.4029053 0.13833715 0.07111704
0002e0 32 53 6f bd 51 c8 2b bd 11 de ff 3e 90 ce 1f 3f
       -0.05842895 -0.041939083 0.4997411 0.62424564
0002f0 ee df d3 3e d5 08 90 be 77 4e ab be 2a 39 77 be
       0.41381782 -0.28131738 -0.334583 -0.241429
000300 4c c9 2a be 3d 56 9b bd e4 ed e9 be 30 80 c0 be
       -0.16678351 -0.07584808 -0.4568931 -0.375978
000310 f1 5c 82 bf 82 e4 fa be eb fa 80 be 8c 08 3c bf
       -1.0184613 -0.49002463 -0.25191435 -0.7345054
000320 d5 a6 08 bf 82 9e 74 3f f3 88 d4 bd e8 f9 26 bf
       -0.53379565 0.95554364 -0.103776835 -0.65225077
000330 54 ac 8d 3d f1 0a 5a 3e 4c 1a 01 3d 6b a3 29 3f
       0.069176346 0.21293236 0.03151922 0.6626498
000340 6e e1 d3 3e f1 70 9c 3e a5 da 14 bf 49 d4 4d bf
       0.41382927 0.30554917 -0.58146125 -0.80402046
000350 9f 23 44 bf 81 45 d3 3e bb 85 29 3e 24 d7 f8 3e
       -0.76616853 0.41263965 0.1655492 0.4860164
000360 4e 59 dd be 6b 94 8d bf 43 d7 e1 bd 51 ed d8 3e
       -0.43232197 -1.1060919 -0.11027386 0.42368558
000370 8a dd 68 bc 94 43 81 3e 0a 16 bf 3c 8d 0b b9 bf
       -0.014212975 0.2524687 0.023325939 -1.445665
000380 81 cb 0a be 87 b1 b9 bf f5 07 af bf 72 99 4b bf
       -0.13554193 -1.4507302 -1.3674303 -0.79531014
000390 c5 c7 5b be b1 4e 44 bf 20 b6 16 bf 21 75 2c bf
       -0.21462925 -0.76682574 -0.5887165 -0.67366225
0003a0 c6 00 67 bf 1c 24 b4 be 0a 42 30 3e eb 96 6e 3e
       -0.90235555 -0.351838 0.17212692 0.23299758
0003b0 fb d5 b5 bc 8d 84 57 bf 50 d6 22 bf 7c c6 0b bf
       -0.02219676 -0.8418663 -0.63608265 -0.5459974
0003c0 ac 7e a0 3c e4 36 45 3d 09 35 ce bd 9a a2 04 be
       0.019591652 0.04814805 -0.100687094 -0.12952653
0003d0 6c c8 b6 bd bb 4e 8a be 7b eb ac 3d 7e c8 2a bf
       -0.08924946 -0.27013192 0.08443352 -0.66712177
0003e0 76 0f 44 bf b1 e0 25 3e 8a 6b 84 be cf 9e 63 3f
       -0.7658609 0.16198994 -0.25863296 0.889142
0003f0 a5 39 f7 be 02 36 6c bf 14 48 03 bf d5 14 9f be
       -0.48286167 -0.9226991 -0.5128186 -0.3107058

conv4.bias f4 [64]
000000 6d cc a8 3f 1c 25 8a bf a1 46 95 bd e1 7a 18 bf
       1.3187386 -1.0792575 -0.07288862 -0.595625
000010 49 68 2c bf 5e ad 11 3f de 6a 8c be 0f d2 0d bf
       -0.67346627 0.5690516 -0.27425283 -0.5539865
000020 98 d4 4c bd 5a b0 65 be 7f 2a 15 bf 70 04 88 bf
       -0.050007433 -0.22430554 -0.5826797 -1.0626354
000030 40 77 bf 3f c7 df 71 bf e4 61 db be 6e 9c 02 bf
       1.4958267 -0.9448208 -0.42848122 -0.5101994
000040 2a 5d 66 bf 08 65 4e bf 23 7e 08 bf 86 2c a8 bf
       -0.8998591 -0.8062291 -0.5331747 -1.3138587
000050 e0 3b 79 3f b9 36 58 bf 58 9f c2 be e7 a9 31 bf
       0.97356987 -0.844585 -0.38012195 -0.69399875
000060 85 95 c0 bf 74 91 55 bf 9d 9c 92 bd 8e 3c 4b bf
       -1.504563 -0.8342507 -0.07158778 -0.79389274
000070 47 a4 8c bf b8 46 72 bf 8d ed 7a bf b5 fe ac bf
       -1.0987633 -0.9463916 -0.98018724 -1.351523
000080 61 d5 82 bf 89 08 77 bf d4 26 af be f6 19 9e be
       -1.0221368 -0.964974 -0.3420931 -0.30879182
000090 b8 4c b0 3e b5 19 8b bf bb c8 7f be 37 f3 c2 3e
       0.34433532 -1.086722 -0.24978916 0.38076183
0000a0 ad 69 62 bf c9 9d 86 be 09 2c 1c bf f3 fa 5d bf
       -0.884425 -0.26292256 -0.6100469 -0.86711043
0000b0 03 60 06 bf 64 da 82 bf 76 bd 9e 3e 77 9e 6d bd
       -0.5249025 -1.0222898 0.31003922 -0.058012452
0000c0 ec 8c 0f bf 4b 7d 0c bf 60 81 fc be 97 ab 7e bf
       -0.56074405 -0.5487868 -0.49317455 -0.99480575
0000d0 3d 00 9c bf 0a d2 3d 3e 22 bf 74 bf f1 3b 20 3f
       -1.2187573 0.18537155 -0.95604146 0.62591463
0000e0 e1 d0 72 bf 18 d4 a0 be 48 a8 cd be 09 69 1d bf
       -0.94849974 -0.31411815 -0.4016745 -0.61488396
0000f0 3e 71 e1 be 5e ea cc 3f 2f 57 bc bf 6b bd c7 3e
       -0.4403171 1.6009023 -1.4714106 0.39011702

bn4.weight f4 [64]
000000 36 86 ea 3f 1c fe b1 40 5b 99 c4 40 6c f7 b0 40
       1.8322208 5.562269 6.14372 5.530203
000010 93 5b c9 40 50 93 1e 40 ee be 9e 40 4f 7c b5 40
       6.2924285 2.4777412 4.960807 5.6714244
000020 21 6c c8 40 d6 78 aa 40 ac 1b 9c 40 b5 6c 8b 40
       6.2631993 5.3272505 4.878378 4.35702
000030 c6 4d 03 40 06 d5 ae 40 c8 3f a7 40 40 d0 a6 40
       2.051622 5.463504 5.226536 5.212921
000040 8b a6 a2 40 b3 19 c6 40 35 7e d0 40 3c a6 c5 40
       5.08283 6.190637 6.515406 6.1765423
000050 d0 e5 22 40 6f 69 b7 40 84 2b 9e 40 e8 d4 b1 40
       2.5452766 5.7316203 4.942812 5.5572395
000060 41 b7 bf 40 4e 74 ba 40 cb e6 9c 40 cd 61 ad 40
       5.99112 5.8266973 4.903173 5.4181886
000070 a2 7b b3 40 c9 41 a7 40 37 ae c5 40 d7 33 b9 40
       5.608842 5.2267804 6.1775165 5.787578
000080 2f b9 b8 40 e1 78 aa 40 2e 5a 98 40 92 4e ab 40
       5.7726054 5.3272557 4.7610083 5.353341
000090 d0 4c 60 40 64 54 dd 40 79 fb b4 40 3d f5 2c 40
       3.5046883 6.9165516 5.6556973 2.7024682
0000a0 a1 80 ac 40 74 96 af 40 af 9d d0 40 89 7d c2 40
       5.390702 5.487116 6.5192485 6.077824
0000b0 18 25 b5 40 4c 87 cc 40 5e 61 30 40 74 98 4a 40
       5.660778 6.3915157 2.7559428 3.165555
0000c0 ce dd bb 40 43 0e df 40 76 2b 95 40 c2 fe 9b 40
       5.870826 6.970491 4.6615553 4.8748484
0000d0 82 aa a8 40 b7 94 8a 40 15 6e ad 40 ef ea 35 40
       5.270814 4.3306537 5.4196877 2.8424642
0000e0 fe ee a7 40 a6 ef 9b 40 23 80 b8 40 d3 00 d9 40
       5.247924 4.873004 5.7656417 6.7813506
0000f0 48 fa c8 40 6c 34 17 40 7a 3a c9 40 78 ce 4d 40
       6.280552 2.3625746 6.2883883 3.2157269

bn4.bias f4 [64]
000000 a3 e2 87 bc 8c 90 e0 3d 78 eb e3 bc 5f 83 09 bd
       -0.016587561 0.1096507 -0.027822241 -0.03357255
000010 9f 91 2f 3e 81 10 ad 3c 3d 52 d7 bc b8 76 28 3e
       0.17145394 0.021126034 -0.026284331 0.16451538
000020 53 65 3d bd 85 b4 b9 bd dd a9 0d 3e eb bc 2a 3e
       -0.04623921 -0.090676345 0.13834329 0.16673629
000030 ca d5 a3 bc 7f 5b aa 3d 57 11 00 3e 2c 0a e1 3d
       -0.019999404 0.08318233 0.12506615 0.10988268
000040 d9 a9 05 3e 2c 5e 93 3d 14 e6 c0 bd 3e 8e 02 be
       0.13053073 0.07195696 -0.09418884 -0.12749574
000050 f2 bb 17 bc 39 93 a9 3d f1 31 85 3c 7a 07 9f bc
       -0.009261118 0.082800336 0.016259165 -0.019412745
000060 b0 f9 b7 3d 48 96 be bd b9 c9 0f 3e 5e 99 40 bd
       0.08983171 -0.093060076 0.14041795 -0.047021262
000070 47 c5 0a bd 41 42 1f 3e 3e a6 0e 3e 24 70 99 bd
       -0.033879545 0.15552618 0.13930604 -0.07492092
000080 20 e2 95 bd ff ee a0 3d fa 58 a3 3d 34 52 b2 3d
       -0.073185205 0.07858085 0.07975955 0.08707085
000090 37 32 8e 3d cd 05 29 3e 44 fd 3b 3e 04 bc 81 bd
       0.069431715 0.16506119 0.18358332 -0.06334689
0000a0 34 37 b8 3d e5 0f 1c 3e f1 60 77 bd c2 74 c6 bd
       0.08994904 0.15240438 -0.060395185 -0.096902385
0000b0 3a 90 99 3d fa dd b2 bd fa 75 14 bb 58 f6 ae 3d
       0.07498212 -0.08733745 -0.0022653327 0.0854308
0000c0 cc 60 7a bc cd 99 9a bd 79 d9 a2 3d 81 6b 2e bd
       -0.015281867 -0.075488664 0.07951636 -0.042582992
0000d0 0d 99 cd 3d f3 69 74 3c 52 c4 08 3e 8c 41 71 bc
       0.10038958 0.014917838 0.1335614 -0.0147251
0000e0 ed e9 9c bd 21 3c 0e 3c cb c0 6f bd ec 90 15 be
       -0.07661805 0.008681328 -0.05853347 -0.14606065
0000f0 de 68 8c bd 30 ca 06 bc 23 1d f8 3d 7d 31 6d 3d
       -0.06855939 -0.008226916 0.121149324 0.057908524

bn4.running_mean f4 [64]
000000 89 64 7d 41 15 1a a6 3e 3a b0 c9 3e a5 76 07 3e
       15.837045 0.32441774 0.39392263 0.13228853
000010 8f bd bf 3e ce 34 18 41 d7 be cf 3e 12 96 a1 3e
       0.3744931 9.512892 0.40575287 0.31559807
000020 c5 a9 3a 3e 7b 9d d9 3e c6 31 00 3f 9c a9 62 3f
       0.18228824 0.4250296 0.5007595 0.88540053
000030 ff f9 53 41 36 1a 8c 3e 4c d8 e6 3e 14 b7 85 3e
       13.248534 0.27363747 0.45086896 0.2611624
000040 c8 a6 03 3f e2 75 d8 3e e2 bf 82 3e d7 f2 de 3e
       0.51426363 0.42277437 0.2553702 0.43544647
000050 fe 2e 34 41 71 b2 9c 3e 0c 7c 86 3e b1 7d 20 3f
       11.261473 0.3060489 0.26266515 0.6269179
000060 71 8a a8 3e b7 10 8f 3e af 08 4c 3f bf 19 5e 3e
       0.32918122 0.2794244 0.7970075 0.21689509
000070 0f 82 b7 3e cb 2a 4e 3f 64 aa 91 3e 77 ce 5f 3e
       0.35841414 0.80534047 0.2845031 0.21856104
000080 ea f3 0e 3e eb a6 b0 3e 47 09 9b 3e 16 56 ec 3d
       0.13960233 0.34502348 0.30280516 0.11539857
000090 74 d4 5a 41 09 50 e6 3e d0 02 cc 3e 9c ec e4 40
       13.676868 0.44982937 0.39845896 7.153883
0000a0 aa 48 03 3e 84 67 76 3f 5d fd f1 3e b6 6a 30 3e
       0.12820688 0.962517 0.47263613 0.17228207
0000b0 87 16 98 3d 8a 31 93 3e 44 6b ca 3f d9 18 cb 3f
       0.07426172 0.28748733 1.5813985 1.5866958
0000c0 39 c1 b1 3e 86 c2 80 3e 30 a6 00 3f f9 e5 e8 3d
       0.3471773 0.2514841 0.5025358 0.11371989
0000d0 be 3d 06 3f d2 49 6c 3f 27 8e c4 3e c7 e3 f3 3f
       0.5243796 0.9230014 0.38389704 1.9053887
0000e0 ae b6 ef 3e 3f b9 92 3e b7 c1 80 3e cd 5a 3c 3e
       0.4681906 0.28656957 0.25147793 0.18394013
0000f0 a5 06 5e 3e ac 2e 5e 41 27 76 7c 3e 00 96 43 41
       0.21682222 13.8863945 0.24654447 12.224121

bn4.running_var f4 [64]
000000 ae 32 ba 42 53 a8 d9 40 db 3b 41 41 9b 59 45 40
       93.09898 6.8017974 12.077113 3.083594
000010 a0 1b 08 41 21 4d 62 42 6e 87 8f 41 c2 60 4e 41
       8.506744 56.57532 17.941128 12.8986225
000020 31 b8 7a 40 48 fb a9 40 b7 50 8a 41 17 e0 16 42
       3.9174922 5.311924 17.289412 37.718838
000030 61 55 82 42 4c fc fe 40 54 02 87 41 84 3a eb 40
       65.166756 7.968298 16.876137 7.350893
000040 97 06 78 41 e9 74 5a 41 93 fe f6 40 d2 a5 8a 41
       15.501609 13.6535425 7.718576 17.330967
000050 2a 8e ad 42 7a 0b 1c 41 52 e2 a6 40 0e db a0 41
       86.777664 9.752802 5.215127 20.10696
000060 1c ae f8 40 71 f2 cc 40 b3 8d e4 41 3f 51 38 40
       7.7712536 6.404595 28.56919 2.8799589
000070 84 8c 54 41 f6 20 8a 41 27 5a 16 41 2c 79 ef 40
       13.284306 17.266094 9.39701 7.4835415
000080 c3 92 83 40 01 d1 12 41 f7 fa 08 41 82 a6 4e 40
       4.1116652 9.176026 8.561271 3.2289128
000090 73 42 c6 42 c0 7e 80 41 78 96 12 41 5f 4f 29 42
       99.12978 16.06189 9.161736 42.32751
0000a0 60 e1 4a 40 b7 8c ca 41 0b dc 3b 41 ca 1e b0 40
       3.1700058 25.318708 11.741221 5.5037584
0000b0 f8 03 cd 3f eb 44 16 41 c7 a8 32 42 e4 ec 33 42
       1.6016836 9.391826 44.66482 44.98134
0000c0 db ff 36 41 e7 ca f5 40 85 10 61 41 c0 b2 28 40
       11.437465 7.6810184 14.066533 2.63591
0000d0 b6 45 64 41 11 01 b6 41 3a 48 4d 41 d0 c2 0c 42
       14.267019 22.75052 12.830133 35.190247
0000e0 fc fb 44 41 bb 9f bc 40 a8 18 09 41 4a 79 90 40
       12.31152 5.8944983 8.56852 4.514806
0000f0 fa f2 90 40 85 c1 16 43 8a 35 10 41 33 a4 9d 42
       4.52966 150.75594 9.013071 78.8207

lin.weight f4 [10, 64]
000000 22 30 30 be 00 9c f1 bc 4f 98 05 40 f4 78 8f bf
       -0.17205861 -0.029493332 2.0874212 -1.1208787
000010 b4 04 3f 3e d0 0f d2 3d 26 2a 73 3e d9 0d a0 3f
       0.18654138 0.10256922 0.23746547 1.2504226
000020 30 de 14 3f a1 8a 40 be 6b c4 8c 3f 1d fe 31 3f
       0.5815153 -0.18802883 1.0997442 0.6952837
000030 70 d6 f4 bd 1d 3e 02 40 da ea 53 be ae 12 60 3f
       -0.11954963 2.035041 -0.20695058 0.875285
000040 94 ea 91 3f a6 4f 29 40 43 01 1c c0 56 5a b2 bf
       1.1399713 2.6454864 -2.437577 -1.3933818
000050 82 8f f3 be 5a 3b 11 3f 82 7f 01 bf 46 df 4f 3f
       -0.47570425 0.5673119 -0.50585186 0.81200063
000060 38 97 c5 bf 21 a7 07 c0 bf 23 43 3d 7c ab 97 bf
       -1.5436773 -2.1195757 0.047641512 -1.1849208
000070 ca 09 23 3e 94 64 55 3f 35 de e3 3f 03 c0 ce 3f
       0.15921703 0.83356595 1.7802187 1.6152347
000080 66 3f 83 bf d7 61 7e 3e aa bf 65 bf ff 32 8f 3f
       -1.0253723 0.2484201 -0.8974558 1.1187438
000090 5b 6c 64 3f 11 32 4a 3f cd 1b 95 3f 8c 7a 0d 3e
       0.8922784 0.78982645 1.1649109 0.13816279
0000a0 65 fb 3a 3e 5b 41 53 3e 45 b3 be 3e a5 1a f0 bf
       0.18259962 0.206304 0.37246147 -1.8758131
0000b0 73 ec 95 bf 28 fa 9b bf ef 12 14 bf e9 d2 ca 3e
       -1.1712784 -1.2185717 -0.5784139 0.39614037
0000c0 86 8a 77 3f 43 1f 87 bf 75 2e c1 3f 49 ed 5a bf
       0.96695745 -1.0556415 1.5092303 -0.8551832
0000d0 66 46 cd bf f0 a1 b2 bf 65 25 11 40 42 37 94 be
       -1.6037109 -1.3955669 2.2679074 -0.28948408
0000e0 1f 2d d5 bf 51 39 d6 bf 25 f0 4c 3f 7f 76 41 bf
       -1.6654395 -1.6736242 0.8005393 -0.75571436
0000f0 99 f7 81 bf c0 74 9c be 4c 60 16 bf 07 b2 26 3f
       -1.0153686 -0.30557823 -0.5874069 0.651154
000100 87 a7 b0 be 22 ca cd bf aa 1f f1 bf 26 cd d4 be
       -0.34502813 -1.6077311 -1.8837788 -0.41562766
000110 09 25 23 bf 56 53 9c 3e 05 48 28 bf 2b 31 99 3f
       -0.63728386 0.3053233 -0.65734893 1.196813
000120 68 18 87 bf 79 1b c2 bf f3 c4 b9 3e 6c 63 43 3f
       -1.0554323 -1.5164634 0.36283073 0.7632358
000130 c2 15 e0 bd 2a 30 d4 bf 9d bc ec 3f ee b8 e1 3f
       -0.1094165 -1.6577199 1.849506 1.7634561
000140 70 01 b6 bf 17 29 5f bf f1 e7 02 40 9d 27 92 be
       -1.4219189 -0.87172073 2.0454066 -0.28545848
000150 8b e2 fc be 55 a9 47 c0 24 f1 ba bf 3c 72 73 bf
       -0.4939159 -3.1197102 -1.460484 -0.9509618
000160 66 5a c8 3f 0d 2f 3a bf b4 14 47 3f 6e 14 a3 bf
       1.5652587 -0.72728044 0.77765965 -1.274061
000170 a0 32 d9 bf bb 49 68 bf 78 8b c5 3f 05 c8 a0 bf
       -1.6968575 -0.90737504 1.5433187 -1.2561041
000180 8a fc 07 40 61 8c e1 bf 52 fe c3 3f 51 26 36 bf
       2.1247888 -1.7620965 1.5311987 -0.71152216
000190 b3 6a 20 3d 8a 36 1e 40 14 c3 4a be f6 79 53 bf
       0.039164256 2.4720788 -0.19800979 -0.8260797
0001a0 b2 9e b2 bf 60 80 03 3f 66 18 9d bf 99 eb ad 3f
       -1.395468 0.5136776 -1.2273071 1.3587524
0001b0 a1 43 96 3f 41 c5 16 40 84 78 71 3d f8 4c 9d 3e
       1.1739389 2.3557894 0.058952823 0.30722785
0001c0 d8 0f b0 bf d7 d2 27 3f de f7 38 c0 e2 ad 01 40
       -1.3754835 0.6555609 -2.8901286 2.026238
0001d0 36 5f 82 3f d1 69 73 3f 91 33 8d bf 63 74 74 be
       1.0185306 0.9508334 -1.1031362 -0.23872523
0001e0 9e 75 f3 3f 2a b5 ad 3f 89 e1 e2 bf b2 ae 33 bf
       1.9020269 1.3570912 -1.7725078 -0.7018844
0001f0 8a 5c b1 bf d6 fc 96 be e7 43 03 40 94 49 d3 bd
       -1.3856366 -0.29489774 2.0510194 -0.10316768
000200 97 0e 3e 3f e5 f0 be bf 5c d1 0a 3f 31 5e 96 be
       0.7424101 -1.4917265 0.5422571 -0.29368737
000210 7d fb 84 3f 38 f2 1a 3e 4b a9 42 40 a5 4a 73 3f
       1.0389248 0.15131462 3.0415828 0.95035774
000220 2e 75 52 40 46 4e 0b be df 29 36 c0 a9 1f 57 c0
       3.288402 -0.13604078 -2.8463056 -3.3613074
000230 5f b4 a3 3f 32 7b 05 c0 d4 83 ff bf 8e 39 2d c0
       1.278942 -2.0856442 -1.9962106 -2.7066379
000240 3a 8a d2 3e 63 fa 0d 40 03 2e 98 3e a9 18 a2 be
       0.41121083 2.2184074 0.29722604 -0.3165944
000250 38 91 19 3f 37 22 b7 bf e6 ae 97 3e fe f0 ee bd
       0.5998721 -1.4307317 0.29625624 -0.11667059
000260 c4 8e 2b 3e 0e 72 d4 3f 17 54 3a c0 79 f8 94 3f
       0.1675368 1.6597307 -2.9113824 1.1638328
000270 e6 a7 32 40 93 69 3e c0 8d 19 07 c0 11 11 3b bf
       2.7914977 -2.9751937 -2.1109345 -0.73072916
000280 e6 01 f9 3e c4 10 4f c0 fe 2f 0f c0 71 62 07 40
       0.4863426 -3.2353983 -2.2373042 2.1153834
000290 28 6b bd 3d d0 a0 c9 bf fb ed 40 c0 4f 91 cd 3f
       0.09248954 -1.5752201 -3.0145252 1.605997
0002a0 8a 28 e9 bf 37 63 5e c0 2b 48 5b 40 8f eb d6 3e
       -1.8215497 -3.4748056 3.4262798 0.41976592
0002b0 1d 77 cb 3f 9f 5d 90 3d 88 a2 8b 3e d7 eb 37 c0
       1.5895725 0.07049107 0.2727244 -2.8737695
0002c0 68 8b b3 3f eb 74 94 40 b2 d1 ac 3e 14 02 f5 3e
       1.4026918 4.639272 0.33753735 0.47853148
0002d0 c0 28 12 bf b9 75 0d 3f 75 b2 aa 3f fd 98 a4 be
       -0.5709343 0.55257756 1.3335711 -0.3214797
0002e0 b8 6f 42 be f1 cc 06 3f 5b a6 86 3f 94 aa 44 bf
       -0.1898793 0.52656466 1.0519518 -0.7682278
0002f0 e7 5d 8c bd 03 6e 54 3f 0b 29 07 3f 29 8c f8 bd
       -0.06853848 0.82980365 0.52797 -0.121361084
000300 14 27 c3 3e a0 e3 bf 3f 20 60 55 bf d0 ba 35 40
       0.38115752 1.4991341 -0.833498 2.8395271
000310 86 14 fc 3f 47 95 56 bf 80 db 6b bf 34 9b 49 c0
       1.9693763 -0.8382153 -0.92131805 -3.1500978
000320 4c ac a7 bf c9 b3 3e 40 f6 a8 56 3f 76 37 22 3d
       -1.3099456 2.9797232 0.83851564 0.039603673
000330 c6 ed 01 bf 14 d2 80 bf 66 85 9b 3e a2 67 10 c0
       -0.5075344 -1.0064111 0.30375212 -2.2563252
000340 c1 1a 40 3f 18 76 14 c0 52 d0 a1 3f f9 0b f4 bc
       0.75040823 -2.3197079 1.2641699 -0.029790865
000350 8b 6f d5 3e 24 ea da 3f a2 14 7d 3f e2 63 d6 bf
       0.41686663 1.7102704 0.9885961 -1.6749232
000360 5b 7f 8d bf 4b b5 0e 40 ab 9e 8f 3f 3a 0d 41 40
       -1.1054491 2.2298152 1.1220297 3.0164323
000370 d9 88 75 3f 55 6e dd 3f 7d 9a 77 c0 9d 3d 4e bf
       0.9591194 1.7299296 -3.8688042 -0.80562764
000380 76 a5 b3 bf 6f 7b c9 3f 87 03 0f 3f ed f3 93 bf
       -1.403487 1.5740794 0.5586476 -1.1558815
000390 62 de c4 bf c1 bc 28 c0 6b 03 72 3f 13 0c d2 3d
       -1.5380366 -2.6365206 0.94536465 0.10256209
0003a0 5c 47 eb 3f 2d a3 c8 3f 67 13 b8 be 7b cd 90 3f
       1.8381152 1.5674797 -0.35952303 1.1312708
0003b0 70 d4 ee 3c fd 27 21 bf b9 6d 66 bd c1 1d c8 3e
       0.029154032 -0.6295164 -0.056256983 0.390852
0003c0 4e 21 c7 bf 13 72 ad be 4b df eb be bb 0e 8e bf
       -1.5557039 -0.33876094 -0.46068797 -1.1098245
0003d0 df 72 36 3f 2f 54 f5 be 00 df f8 bf cf 72 f1 be
       0.7126903 -0.4791579 -1.9443054 -0.47157905
0003e0 27 5a 16 3f f1 09 d7 be 2e c4 56 bf ef 57 a1 be
       0.5873131 -0.41999772 -0.83893096 -0.315124
0003f0 86 88 6d 40 01 cb 4e be e0 c5 1e c0 ca 5c 8c bf
       3.7114577 -0.20194627 -2.4808273 -1.0965817

lin.bias f4 [10]
000000 67 a1 43 3e 93 49 13 3e ea fe e4 bd 67 5a 8f 3d
       0.19104539 0.14383535 -0.111814335 0.06999665
000010 19 b5 02 bd 52 b3 9c c0 2a 3c 9f c0 7d 6a a1 c0
       -0.03191099 -4.8968897 -4.9760942 -5.044249
000020 5c c4 a1 c0 d5 2a a1 c0
       -5.0552197 -5.0364785
