NCC_Code/models/2022-08-07_22-28-33_model.pt (torch, 114443 bytes, 50 tensors)

conv1.weight f4 [8, 2, 5, 5]
000000 2d c7 49 3d 85 e2 70 3c 25 bb f0 3d b7 e9 6e 3e
       0.049262214 0.014702444 0.11754445 0.23331343
000010 f5 1b 97 3e ae 0b 82 be 57 fb e5 3d 40 6a 27 3e
       0.29513517 -0.25399536 0.1122958 0.16349125
000020 90 35 e9 3c b3 3e 48 3e e8 74 a2 be 9b e1 8c 3e
       0.028467923 0.19555168 -0.31729817 0.27515873
000030 08 49 ce 3b 11 e3 a9 3e 10 7c 77 3e 6e 1c a8 bd
       0.006295327 0.3318105 0.2416842 -0.082085475
000040 5b 52 b1 bd 5b ef 02 3e 2c 60 3d 3e d3 ab 0a 3d
       -0.08658286 0.1278662 0.18493718 0.03385527
000050 d9 c8 3e 3a a3 d5 4e be c9 c3 85 bd e9 f3 cf bd
       0.00072778534 -0.20198683 -0.06531484 -0.10153944
000060 46 54 4b 3e b8 6b 14 3e 72 39 29 be 85 cc 45 bd
       0.19856367 0.14494216 -0.1652582 -0.04829075
000070 9b 0b 6c bc 87 e1 c0 3d d6 28 a3 be 86 8c 9c 3e
       -0.014407064 0.09418016 -0.31867093 0.3057596
000080 45 f4 9b 3d 9d f0 36 3e 1f 00 c0 be 28 98 12 be
       0.0761495 0.17865224 -0.37500092 -0.14315856
000090 35 32 fc bd 0c fd 80 3e 67 a5 d6 bd 53 72 b8 3b
       -0.12314264 0.2519306 -0.10480767 0.005628863
0000a0 14 ed bb be 74 21 40 bd e9 71 0a be b7 b1 00 3d
       -0.36704314 -0.046906903 -0.13520016 0.031419482
0000b0 0a 3a 91 bd 6b 4c ff bd eb e2 4c be fb 2e 21 3e
       -0.07091148 -0.124657474 -0.20008437 0.15740578
0000c0 09 a7 64 3e 36 dd be 3d fa e5 35 be 3e 52 33 be
       0.22329344 0.093195364 -0.1776351 -0.17511842
0000d0 a7 89 3e 3e 63 a7 48 be a8 6c 3b bd 5a 70 ea 3d
       0.18607198 -0.19595103 -0.04575792 0.114472106
0000e0 9c 68 bf 3e e4 32 46 be 27 3a 54 3e 48 84 ba 3e
       0.37384498 -0.1935535 0.20725308 0.36429048
0000f0 6a c2 31 be f7 3e 05 bf 70 3d 85 be 3d 43 f2 3d
       -0.1735932 -0.520492 -0.26023436 0.11829231
000100 3c ee 97 be e6 8e 98 3d 93 e9 a5 3a 7d 84 ac bc
       -0.29673946 0.07449131 0.0012658112 -0.02105927
000110 42 58 8c 3e 19 79 3d 3e 42 00 51 be 52 2f da be
       0.27411085 0.18503226 -0.20410255 -0.42614228
000120 07 2d 36 3d cc 87 00 bf 99 3e a6 be fc 62 4d be
       0.044476535 -0.5020721 -0.32469633 -0.20057291
000130 67 53 8d be 26 b4 37 3c ef a8 83 bd 7a 6b 1b be
       -0.27602693 0.011212384 -0.06428706 -0.15177718
000140 c0 99 43 be b8 7c 26 3d b9 b8 46 3e 0e 36 7e be
       -0.1910162 0.040646285 0.19406404 -0.24825308
000150 9d 94 1b be 0f 9c 7a be ab 67 a1 3e 3a f2 07 be
       -0.1519341 -0.24473594 0.31524405 -0.13275996
000160 c8 a5 8a bb 96 95 90 bd 5a b3 d5 bd e6 ed ed bb
       -0.0042311884 -0.07059781 -0.10434599 -0.0072610257
000170 ee 81 1e 3d c9 f5 81 bd 73 f0 81 3d a2 94 1b bd
       0.03869813 -0.06345708 0.0634469 -0.037983544
000180 a0 d5 66 bd 53 28 cd 3e c7 1a 1c 3e 37 1e 4b 3e
       -0.056356072 0.40069827 0.1524459 0.19835745
000190 ef 44 b8 3e 81 9d b8 3d 5b 53 25 3d 3c c7 42 3c
       0.35990092 0.090144165 0.040362697 0.0118883215
0001a0 33 bf 06 be d7 8a 8a 3d 2a f0 69 bd d6 75 f7 3d
       -0.13158874 0.06764763 -0.057113804 0.12083022
0001b0 32 36 06 be b8 1c 6f be ca 5d 8a 3e c8 21 4f 3c
       -0.13106611 -0.23350799 0.2702468 0.012642331
0001c0 20 58 70 bc 24 2a 57 be 6d 67 99 bd 7b 8d 74 be
       -0.014669448 -0.21012169 -0.0749043 -0.23882096
0001d0 89 16 ed bd a4 cf 2f 3e 9c 64 16 bc e0 de 60 3e
       -0.11576564 0.17169052 -0.009179261 0.2196002
0001e0 5a d7 e5 be 80 28 91 3d d6 cd d2 3e 9c b3 fc 3d
       -0.44890863 0.07087803 0.41172665 0.12338945
0001f0 6f 88 96 3d 4c df 2b bc 9a c5 df bd 42 67 bc be
       0.073502414 -0.01049025 -0.109263614 -0.3679753
000200 6c 59 8f 3d a4 b3 21 3d 65 26 82 be 52 1d f9 3d
       0.06999478 0.03947796 -0.25419918 0.121637955
000210 07 3d da be 3f 2a a6 3e fd 9f ec bd df 8b c1 3e
       -0.42624685 0.32454106 -0.11553953 0.37802026
000220 f7 86 18 3e 5c a4 28 3e 08 2c a7 bd e3 c0 db bd
       0.14895235 0.16468948 -0.08162695 -0.107301496
000230 99 d3 8a 3e d6 1a 61 3e 3d 98 1e bd 64 6a 1e 3e
       0.2711456 0.21982893 -0.038719404 0.15470272
000240 85 56 1b 3e fb 7c fd bd a4 d4 01 3f 71 79 82 bc
       0.15169723 -0.12377354 0.5071509 -0.015927048
000250 e1 4a cd 3d 6a 33 7d 3c a8 93 0b 3e 90 72 13 3d
       0.10024048 0.015454153 0.13630545 0.035997927
000260 40 a8 80 3b f9 5a 75 3e 9c d0 d3 bd 2e 64 4b be
       0.003926307 0.23960485 -0.103425235 -0.19862434
000270 c4 e8 5f 3e ba a0 98 be 2c 81 86 be b7 84 87 bd
       0.21866137 -0.29810125 -0.26270425 -0.0661711
000280 54 54 3d 3e 8c 41 91 bd 68 de 19 3e a3 6c 35 3e
       0.184892 -0.0709258 0.15026248 0.17717223
000290 f2 aa 64 3c f5 a8 8e 3d 60 1e 2c be 8c 2d ff 3e
       0.013956772 0.0696582 -0.16808462 0.49839437
0002a0 54 18 52 be 7a 8a 7b 3e f9 43 7c 3e ae 88 29 bd
       -0.20517093 0.24564543 0.24635305 -0.041390114
0002b0 73 81 4d bd 84 14 9c bc 7a e8 54 bd 15 d7 12 be
       -0.05017228 -0.019052751 -0.05197952 -0.1433986
0002c0 a1 a5 79 3d 44 60 7e be 32 d8 b9 3e 8f aa b4 bc
       0.06094897 -0.2484141 0.36297756 -0.022053985
0002d0 bd ba b0 3c 0d 4d a4 be 7b e3 2f 3e 94 08 9d bc
       0.021573419 -0.32090035 0.1717662 -0.01916913
0002e0 96 77 d1 bc 20 b0 80 be 7c 31 75 bc 43 df 5f 3e
       -0.025569718 -0.25134373 -0.014965411 0.21862511
0002f0 a7 64 bb bd 7b 73 0a be fb f5 53 bd 4a 7f 0b bc
       -0.09150057 -0.13520615 -0.051748257 -0.008514235
000300 57 48 2f bd be 2d 8c 3b 69 a5 68 3d 73 f9 35 be
       -0.042793598 0.004277914 0.056798372 -0.17770939
000310 c1 a7 e8 3e 36 f7 1f 3e 27 54 69 bd 6e a4 3b 3e
       0.45440486 0.15621647 -0.05696502 0.18324444
000320 93 80 de 3d c4 63 d1 3d 7b 67 11 be b0 82 5a 3d
       0.10864367 0.10224107 -0.14199631 0.05334729
000330 fd 57 75 be 32 55 4b bc 46 f9 80 3e 1e 1d e5 bb
       -0.23959346 -0.012410449 0.2519018 -0.0069919964
000340 fa ef af 3d a8 41 2c 3e 9d 49 64 be a0 85 e5 3e
       0.08590694 0.16821921 -0.22293706 0.4482851
000350 36 e4 3d be b2 4f 0d be ee b8 86 b9 e9 97 dd 3d
       -0.18544087 -0.13799933 -0.00025696255 0.1081999
000360 bf ec 7b 3e d6 a2 0f 3c f4 04 32 3e c7 06 23 be
       0.2460203 0.00876685 0.17384702 -0.15920554
000370 28 96 64 3e 71 ae 39 be 5f 7e b9 3e 7a 62 47 be
       0.22322905 -0.1813295 0.36229226 -0.1947116
000380 b2 f3 0b bf a1 f1 fc 3d c1 49 a5 bd ab a3 98 3d
       -0.54668725 0.123507746 -0.08070708 0.07453092
000390 5b f1 1d bd 01 9a ca bd 13 ea a1 3e 0a a8 87 bd
       -0.038560253 -0.09892655 0.31623897 -0.06623848
0003a0 37 fc c5 bd 1a a4 ff bc 55 b3 be 3e 99 55 32 3d
       -0.09667247 -0.03120618 0.37246194 0.043538664
0003b0 02 a2 a6 3d a1 23 8e 3e 04 3f fc bd 15 77 11 3e
       0.08136369 0.27761558 -0.12316707 0.14205582
0003c0 f3 fb 93 bd b3 c4 c4 3e 9e 07 cf 3e 2b 87 b3 be
       -0.0722579 0.3843132 0.404355 -0.35064062
0003d0 31 a0 b7 bd a4 4b fe 3e c0 bc a1 bd 7c f8 14 3d
       -0.08966101 0.49667084 -0.07897329 0.036369786
0003e0 d7 f7 87 3e d4 cd ab be db ea 3e bc 00 6b c4 bd
       0.26556274 -0.33555472 -0.011652674 -0.09590721
0003f0 93 c3 b5 bc 5b 43 32 3d a9 d0 a2 bd d7 07 f4 bc
       -0.022187984 0.043521266 -0.07949955 -0.029788895

conv1.bias f4 [8]
000000 be 63 35 3b 20 68 8a 3b 68 d7 99 ba cd f6 ca 3c
       0.002767786 0.0042238384 -0.001173717 0.024775887
000010 0f a6 80 3c 25 26 04 bd 1e 6f 4a 3c ac b3 21 bc
       0.015704183 -0.03226294 0.012355594 -0.009869497

bn1.weight f4 [8]
000000 93 2b 80 3f 6c 3c 81 3f a0 7d 83 3f 14 5a 7f 3f
       1.0013298 1.0096564 1.0272713 0.99746823
000010 8a bf 7e 3f 10 3a 7b 3f 8c 20 7b 3f 9c bb 80 3f
       0.99511015 0.9813547 0.9809654 1.0057254

bn1.bias f4 [8]
000000 fd 5c cd 3c 1c b4 89 3b 8f 21 f6 bc c5 fa b6 ba
       0.025068754 0.004202379 -0.030045299 -0.0013960233
000010 79 97 a4 3a fb 22 19 3c 4f 97 6b 3b 0c 90 0a bd
       0.0012557349 0.009346719 0.0035948341 -0.03382878

bn1.running_mean f4 [8]
000000 98 c1 d8 3e 48 be 35 3f 87 2e e1 3e 09 3c 82 3e
       0.423352 0.7099347 0.4398081 0.25436428
000010 97 ab 3e 3f 31 3b d5 3e c1 f2 ea 3e bd 29 dc 3e
       0.74480575 0.41646722 0.45888332 0.43000594

bn1.running_var f4 [8]
000000 3b cf a3 3f 98 c6 0f 3f e8 e7 57 3f 2e b6 9d 3e
       1.2797617 0.56162405 0.84338236 0.30803055
000010 be 0a 18 40 3a 50 ea 3e 9e 74 72 3e ba 74 48 3f
       2.3756557 0.45764333 0.23677298 0.7830311

conv2.weight f4 [16, 8, 3, 3]
000000 78 9b 99 bd 9a 50 47 3c 06 89 41 3e 11 ee 14 be
       -0.075003564 0.012165213 0.18899927 -0.1454394
000010 67 0e 81 3d e2 25 66 3e 4b 9b c4 bc 2e 7b 82 3d
       0.06301575 0.22475389 -0.02399983 0.06371151
000020 a6 11 aa 3d 07 9c 3d 3d 93 d8 bd bd d6 31 92 bd
       0.083041474 0.046291377 -0.09269824 -0.07138412
000030 fe 1b 03 3e 13 d6 18 be 74 ae 1b 3e ef ac 49 be
       0.12803647 -0.14925413 0.15203267 -0.19694875
000040 ec 50 79 3e d9 20 33 3e 1d 84 2b be 63 c6 36 bd
       0.24347275 0.17492999 -0.16749616 -0.04462279
000050 76 71 48 bd cc c3 19 3e fe 05 47 3d c8 c9 d7 3d
       -0.04893633 0.15016097 0.0485897 0.105365336
000060 5e 35 02 3d f7 b6 42 be 60 7e 4a be e9 d4 8d 3e
       0.031789176 -0.19015108 -0.1977477 0.277015
000070 d5 8a cb 3d fc a5 d9 bc c3 86 5e be 67 e9 10 bc
       0.099385895 -0.026568405 -0.21731095 -0.00884471
000080 fa df 84 bd 0f 7b 60 bd c6 14 96 3d cc 61 8d 3e
       -0.06488033 -0.054804858 0.07328181 0.27613676
000090 43 d8 8f 3c ae ce 5c be 85 4e 67 be 83 57 7d be
       0.017559176 -0.21563217 -0.22588547 -0.24740414
0000a0 ae 80 9f be 81 8b 85 3e 48 1e 84 be 09 f5 9d be
       -0.31152862 0.26082996 -0.25804353 -0.3085101
0000b0 8a 12 c5 3e ca 9d 06 3e a7 86 68 be 17 61 bc bc
       0.38490707 0.13146129 -0.22707616 -0.022995515
0000c0 ad c5 16 be cf 27 d6 bd 16 ac 35 3e 91 93 1e be
       -0.14723845 -0.10456812 0.17741427 -0.1548598
0000d0 6e 0a d9 3d 6d 5e a5 3e a3 ea 99 be 19 07 63 bc
       0.105976924 0.32298604 -0.30061826 -0.013856673
0000e0 f4 cf 82 be bf 3e 19 3c 25 57 eb bd 14 0d f2 bd
       -0.2554928 0.009353339 -0.11491231 -0.11818901
0000f0 2b 2b 81 3c a2 63 fb bc 7c 40 ea 3d 83 30 a5 be
       0.015767654 -0.030687157 0.11438081 -0.32263574
000100 6c f1 98 3d 0e e5 2a be 23 27 3a 3e 1f 1d 39 be
       0.074679226 -0.1668894 0.18178992 -0.18077515
000110 93 d6 1c 3e d6 0f a1 bd e5 76 1c be 8c c9 7d 3d
       0.15316229 -0.078643486 -0.1527973 0.06195979
000120 a7 1e 85 bd 09 f0 24 be 2a 35 ac 3d f4 57 51 bd
       -0.06499987 -0.16107191 0.08408578 -0.05110927
000130 71 ef 8f bd 21 e8 dd bd 3c d6 25 3e 82 e3 b8 bd
       -0.07028092 -0.10835291 0.16195005 -0.09027769
000140 49 28 47 bb 15 ba cb bd bc 58 2d be b0 5b 3a 3e
       -0.0030389002 -0.09947602 -0.1692838 0.18199039
000150 6b 22 57 3e 44 f3 17 3c cc ed cc bd 52 52 c8 bd
       0.21009223 0.009274308 -0.10006294 -0.09781326
000160 71 0c 92 be c4 6e a2 3e a2 a4 a3 3e 1d 08 aa 3e
       -0.28525117 0.31725132 0.31961542 0.33209315
000170 c8 3d 11 3e cd 9d 93 bc 4b 27 04 be d5 fd 86 3d
       0.14183724 -0.018019581 -0.12905614 0.06591383
000180 6a cb 12 be 38 2f eb bd 4f 8d c7 3d ec 41 97 be
       -0.14335409 -0.11483616 0.09743749 -0.29542482
000190 a0 dd 1d bd 3d 9b 53 3e aa 3d df 3d 36 f2 d2 bd
       -0.038541436 0.20664687 0.10900433 -0.10300104
0001a0 d6 66 16 bc 9f 7e e3 bd ab f5 3b 3d 88 47 b4 bd
       -0.009179791 -0.111081354 0.045888584 -0.08802706
0001b0 c6 81 1b bd 05 aa 36 be 05 24 03 bd 5a 23 d3 3d
       -0.03796556 -0.17838295 -0.032016773 0.10309477
0001c0 35 23 61 bc c5 d2 33 3d 62 30 d1 3c 20 ad 24 3e
       -0.013741304 0.043902177 0.025535766 0.16081667
0001d0 4b 69 fd 3b 6f 86 04 3d b7 02 52 bd ab fc 9d 3d
       0.007733499 0.03235477 -0.05127212 0.07714208
0001e0 11 b5 ca be 23 0a db bd c7 73 34 bb 7f 76 82 be
       -0.39591268 -0.10695293 -0.002753483 -0.2548103
0001f0 93 19 48 3c 84 f8 16 be 4d 48 2d 3e 4d b7 03 be
       0.012213129 -0.14743239 0.16922112 -0.12862892
000200 04 d9 04 be 48 30 59 3e 56 6c 9b 3d 4a 0b 86 bd
       -0.1297341 0.21209824 0.07589023 -0.06545122
000210 03 73 ff bd 7a 6c fb bd ca 13 c0 bd 9c 02 06 be
       -0.124731086 -0.1227655 -0.093787745 -0.13086933
000220 70 e3 14 3e 3a f1 fc bc ea 77 67 be 5c e9 2d be
       0.14539886 -0.030876745 -0.22604337 -0.16983551
000230 70 81 94 3e 59 e6 5d 3e c3 3d 26 3e 89 50 4b bc
       0.29005003 0.21669902 0.16234498 -0.012409338
000240 64 7c 05 be 36 4c a0 be 1d 93 0d bd d3 06 1d be
       -0.13035733 -0.31308144 -0.034564126 -0.15334634
000250 9c fa c0 bc 2f 4f 97 3c 1d cb 31 3e 90 ab 04 3c
       -0.023557 0.018470375 0.17362638 0.008097544
000260 85 65 a5 bd 02 11 d7 3b fb 5d 9e 3a 7b 4b be 3d
       -0.08076004 0.006563307 0.0012082452 0.092917405
000270 15 a1 ba 3e bd 25 d8 3d 2b a0 84 3d 92 b8 74 bd
       0.3645102 0.10554073 0.06475862 -0.059746332
000280 79 41 10 3e 75 8d 19 3d 3a 90 4b be fe bd 08 be
       0.14087476 0.03748842 -0.19879237 -0.13353726
000290 f0 7a 99 3e 6f 1f 30 be eb 20 75 3d 8c 04 e0 3d
       0.29976606 -0.17199491 0.059845846 0.10938367
0002a0 7a 4c e7 3d 44 e8 41 3d 4a 5b 5b 3e 20 6a 98 bd
       0.112938836 0.047340646 0.21421543 -0.07442117
0002b0 1d 66 cb 3e 25 f7 87 3e 70 a6 a9 3e fe 42 5c be
       0.39726344 0.26555744 0.33134794 -0.2150993
0002c0 8f 54 90 3d 04 a8 a4 3d 26 42 de bd ed 50 5b bd
       0.07047378 0.08039859 -0.108524606 -0.053543974
0002d0 d8 19 5a 3e 11 15 52 bd 4b 1d 53 3d 7b 0e 2a be
       0.21298921 -0.05128962 0.051541608 -0.16607086
0002e0 e1 35 16 be 21 c6 07 be b8 85 2e 3a 84 8d 1d bb
       -0.1466899 -0.13259174 0.0006657499 -0.0024040649
0002f0 bf 88 ca bd c7 3c de be ba 0c 13 be 70 29 04 3e
       -0.098893635 -0.43405744 -0.14360324 0.12906432
000300 d2 89 c3 3e 6f a4 2a be 73 2a bc b9 3a 73 02 bd
       0.38191086 -0.16664289 -0.0003588978 -0.03184817
000310 b5 a9 5f 3d 9a 8a f6 bc 3e 57 0e 3e 48 b2 f5 bb
       0.054605205 -0.030095387 0.13900468 -0.0074980594
000320 d9 8d b3 bb 39 13 c1 bd c8 de e4 3d 4e 22 06 be
       -0.005479556 -0.094274946 0.11175305 -0.13099024
000330 37 1d 7f 3e d5 9c 92 be 02 31 ee bd 81 46 aa 3e
       0.24913488 -0.28635278 -0.11630441 0.33256915
000340 11 ce 44 3e 51 30 9c bd bc 45 94 be 3e 96 16 be
       0.19219233 -0.07626403 -0.28959453 -0.1470575
000350 ec a9 41 be 3b a0 0a be 9d a9 b1 be 25 4f 5b be
       -0.18912476 -0.13537686 -0.34699717 -0.2141691
000360 e8 37 4f 3e 89 a9 18 3d dc d5 8c be 41 a8 b1 bd
       0.2023617 0.037271056 -0.27506912 -0.0867467
000370 69 50 0f 3e bb db a9 3c fc 31 d5 3d fc 32 0e be
       0.13995518 0.020734658 0.104099244 -0.13886636
000380 f2 a0 53 be f8 22 8a bd 32 65 12 3e 07 59 a0 3e
       -0.20666865 -0.06744951 0.14296415 0.31317922
000390 76 fc 55 3e 63 44 48 bc a4 89 81 be a3 46 a9 be
       0.20897087 -0.012223336 -0.25300324 -0.33061704
0003a0 b5 cb 93 3e 66 8d 8a 3e 50 2d 23 3d c3 b2 97 3d
       0.28866354 0.27061003 0.039838135 0.07407143
0003b0 ab ba 98 be fd b6 d9 3d 08 d0 c9 bd 2d 6c 8d 3d
       -0.29829916 0.10630605 -0.09854132 0.069053985
0003c0 9f 8b 5f be a5 ee 44 bd 78 47 f6 3c e8 53 f2 3d
       -0.21830605 -0.04807915 0.030063376 0.1183241
0003d0 b3 c4 92 3e 74 70 40 be 20 24 a8 be 65 d7 c1 bc
       0.28665695 -0.18792897 -0.3284006 -0.023662278
0003e0 f5 37 a7 3c 2a 32 7c bd f1 2c 19 3d 66 8f c2 bd
       0.020412425 -0.061571278 0.037396375 -0.09500007
0003f0 06 b7 b7 3d 18 23 53 3e ec 44 39 be 72 5f d1 bc
       0.08970456 0.20618856 -0.18092698 -0.025558207

conv2.bias f4 [16]
000000 13 5f fe 3a 0f e2 3d bd 77 27 aa bc d0 54 7e 3c
       0.0019406996 -0.046358164 -0.020770771 0.015523151
000010 19 76 39 3a 08 ea f4 3a 24 be 17 bc 07 51 19 bc
       0.0007074788 0.0018685469 -0.009261642 -0.009357697
000020 9f f1 ef 3b 77 1a a7 3c c7 e1 d2 bb c1 b8 c7 3a
       0.0073225047 0.020398362 -0.006435606 0.0015237556
000030 30 33 3b bc 68 a6 bb bc b5 0b a2 3b 7c b9 77 bc
       -0.011425778 -0.022906497 0.0049452432 -0.0151199065

bn2.weight f4 [16]
000000 f5 36 7d 3f e3 2c 87 3f c5 11 7a 3f e5 d8 7d 3f
       0.9891198 1.0560573 0.97683364 0.9915908
000010 2d 63 82 3f 2c 4f 81 3f 80 1b 7c 3f af 10 7c 3f
       1.0186516 1.0102286 0.9847946 0.9846296
000020 98 3a 75 3f 08 8e 81 3f 5c 58 82 3f 83 5e 80 3f
       0.9579253 1.012147 1.0183215 1.0028843
000030 f4 9d 7d 3f cc 90 82 3f eb 24 7a 3f 2e 7a 7d 3f
       0.9906914 1.0200438 0.9771258 0.99014556

bn2.bias f4 [16]
000000 3f ba b2 3b 7f d1 5e 3c 01 77 a8 bb 9e 36 00 3c
       0.005454331 0.013599752 -0.0051411395 0.007825522
000010 a9 39 ac bb a1 77 42 ba fb 8e dd bc 0d 2f 90 bc
       -0.005255897 -0.0007418339 -0.027045717 -0.01760056
000020 f0 ab 64 3c 1a e4 08 bc 3c d4 47 3c 90 29 d6 bc
       0.013957009 -0.008355165 0.012196597 -0.026142865
000030 ae 43 79 bc 40 da 2e bb d7 77 1c 3c a0 b9 cc 3b
       -0.01521389 -0.002668038 0.009550056 0.006247714

bn2.running_mean f4 [16]
000000 39 52 ee 3e df 7f ac 3e f0 70 06 3f 4e 23 20 3f
       0.46547106 0.33691308 0.5251608 0.6255387
000010 b9 51 fa 3e 75 4d 7e 3f c9 46 0e 3f 3e f0 23 3f
       0.48890474 0.9933694 0.5557676 0.64038455
000020 d0 2e ef 3e c0 60 da 3e 3a fd 4f 3f 9c f4 09 3f
       0.46715403 0.4265194 0.8124577 0.5388887
000030 7c ea 6a 3f 5f 6e b0 3e f3 e5 21 3f fa bc 21 3f
       0.91764045 0.34459206 0.632415 0.6317898

bn2.running_var f4 [16]
000000 62 4a 0b 3f 84 2d d2 3e 07 0b 88 3f 67 43 08 3f
       0.54410374 0.4105035 1.0628365 0.5322785
000010 f3 b8 96 3f 47 09 49 3f 53 32 bf 3f bc 8a f7 3f
       1.1775192 0.7852978 1.4937233 1.9339213
000020 bc e7 ef 3e 18 79 14 3f df 16 4a 3f ee a1 6f 3f
       0.46856487 0.57997274 0.7894115 0.9360646
000030 29 71 30 3f ef 51 04 3f 97 5a 9e 3e 62 9d 1c 40
       0.6892267 0.5168752 0.3092849 2.447106

conv3.weight f4 [32, 16, 3, 3]
000000 4f 91 f9 3d 10 67 c3 bb 35 86 9a bd c3 5b cf bd
       0.121859185 -0.0059632137 -0.07545129 -0.10124924
000010 db 4f 9c bd ff a8 c2 bd 55 d5 4a 3d 21 dc 5b bd
       -0.07632419 -0.0950489 0.049519856 -0.05367673
000020 41 5f f8 bc b1 e8 31 3d dd 5b fd 3d c8 29 75 bc
       -0.030318858 0.043434802 0.12371037 -0.014963575
000030 af a2 e3 3d 8f 49 e0 3d 8e 27 0c be 03 aa 3d be
       0.11115014 0.1095153 -0.13686964 -0.18521886
000040 e5 4f 2a be cd c9 0d bd ae 01 f3 bd 63 aa 9c bc
       -0.1663204 -0.03461628 -0.11865555 -0.019124215
000050 e1 fc f6 bd 38 db 35 3d a1 c5 56 bd 73 18 57 3e
       -0.120599516 0.044398516 -0.052434567 0.2100542
000060 99 dd 78 3c 8f f1 0c bc 68 66 49 3e 6f 9a 77 bd
       0.015189552 -0.008602514 0.19667971 -0.060450014
000070 d5 c0 81 bd 83 7b 22 be b7 0f 21 be d7 e3 61 3e
       -0.06335608 -0.15867428 -0.15728651 0.2205957
000080 b4 a7 14 be 32 cf 9e 3e a1 83 b4 3d f0 a7 4c 3e
       -0.14517099 0.31017452 0.08814169 0.19985938
000090 bb 7c e7 bd 3d 2f 02 bd 63 e2 13 3e 5b dd 49 bd
       -0.11303087 -0.03178333 0.14441828 -0.049283367
0000a0 af 9f 3f be 16 6f b1 3d 64 8d d7 bd 35 85 53 bd
       -0.18713258 0.08663766 -0.10525015 -0.051640708
0000b0 2d 50 75 be 2c 84 50 3d 6a 9c 3b bd 9f 66 ae bc
       -0.23956366 0.0509073 -0.045803465 -0.021289168
0000c0 a6 f6 c4 bc 4f 97 af bd a2 9a 9c 3d 35 a2 39 be
       -0.024043392 -0.08573782 0.07646681 -0.18128283
0000d0 e9 28 a3 3e 2a c6 16 be ef de 00 3d 67 f0 44 be
       0.3186715 -0.14724031 0.031462606 -0.19232331
0000e0 7f bc 1c 3e 5f d4 2f 3e 1c 07 e9 3d 19 8d 8d be
       0.1530628 0.17170857 0.11378309 -0.2764671
0000f0 4f c1 34 3d 79 d8 34 bd 89 85 29 3d a8 d7 f5 3d
       0.044129666 -0.044151757 0.041387115 0.12004024
000100 a3 27 1c 3e 31 7f e1 bd 9c e1 31 bd b8 93 d5 bd
       0.15249495 -0.11010588 -0.04342805 -0.10428566
000110 85 16 b2 bd 41 ed f3 3d 11 53 25 bd b0 4f aa 3d
       -0.086957015 0.11910487 -0.04036242 0.083159804
000120 01 f9 80 bd 8b 1c e8 3c f2 89 00 bd 42 ee 09 be
       -0.06297494 0.028333923 -0.031381555 -0.13469794
000130 06 ae a7 3d 5d a3 dd 3c c3 4a 9d 3d 9c dc b3 3c
       0.08187489 0.027055437 0.07680275 0.02195578
000140 9a a7 a9 3e 28 12 5d bd 05 84 24 be 78 6a e6 bc
       0.33135682 -0.053972393 -0.16065986 -0.02812694
000150 f4 3c 9f bd 7f 07 3d 3d be 7d d7 3d d2 b3 08 be
       -0.07775298 0.046149727 0.1052203 -0.13349846
000160 9d c6 bc bc 11 b2 71 be 75 74 9d 3d 2b 38 32 3e
       -0.023043925 -0.23603083 0.07688228 0.17404239
000170 3b af 7d bd 03 ea a6 bd 21 e2 22 3e c1 bc 3e 3d
       -0.06193469 -0.08150103 0.15906574 0.04656673
000180 7b 3b 97 3d 2e 72 c2 3c f7 4d aa 3d b3 b4 25 3e
       0.07384392 0.023736086 0.08315652 0.16182213
000190 e2 58 05 bc f5 5c 06 bc aa c5 05 be 79 f3 92 bd
       -0.008138867 -0.008200874 -0.13063684 -0.07175345
0001a0 3e e8 e6 bd 68 96 02 be 69 0a 7a bd 39 a7 20 be
       -0.112747654 -0.12752688 -0.061045084 -0.1568879
0001b0 69 d8 a6 bc 78 96 f0 bc f2 01 23 3d 3e d7 87 3d
       -0.020366864 -0.029368624 0.039796777 0.06632851
0001c0 a2 3b b1 bc 5f f8 41 be 25 20 8f bd 3c 33 40 3d
       -0.02163488 -0.18942402 -0.06988553 0.04692386
0001d0 d1 bb e9 bd 2e a5 61 3e c3 fd 3b 3d 83 4f af bd
       -0.11412776 0.22035667 0.045896303 -0.085600875
0001e0 d3 1c b0 3c c7 23 05 3e a9 c0 7e bd 2b 0e 1c 3e
       0.02149812 0.13001929 -0.062195454 0.1523978
0001f0 6d b2 eb 3d 8e e7 21 3d 2b 17 5b 3e 8d 7b fb bc
       0.115086414 0.03952747 0.21395557 -0.030698562
000200 c2 7f 8a be 8f 9e 24 3d 26 c7 ff bc ba 11 0f 3e
       -0.27050596 0.040190276 -0.031222891 0.13971606
000210 61 b4 f3 bd c1 9d 52 3e 69 84 87 3e eb 20 66 be
       -0.11899639 0.20567991 0.26468208 -0.22473495
000220 96 d8 fc 3d bf ec 1d be 06 da 1f bd c3 b3 35 3d
       0.12345998 -0.15422343 -0.039026283 0.044360887
000230 1d 16 19 3d 19 4c 94 3e 17 b8 04 3d 8e db 6d be
       0.037374604 0.28964308 0.032402124 -0.23228285
000240 70 76 96 3d d8 f4 7d 3e d0 5e 24 be ee 51 26 be
       0.07346809 0.24800432 -0.16051793 -0.16242191
000250 a6 f6 e7 bd f0 ea 77 bd eb e4 6d bd 8b 7f 85 bd
       -0.11326341 -0.06052679 -0.05807964 -0.065184675
000260 5d dd f1 bd 89 c6 4b 3c 53 71 c3 bc 02 81 27 be
       -0.118098 0.012437471 -0.023857748 -0.16357806
000270 fb 97 05 3e 51 42 0f be 3b bf fb bb e5 2b 20 3e
       0.13046257 -0.13990141 -0.0076827086 0.15641744
000280 91 9e e7 bd 0e 79 90 ba c5 b1 27 3e 64 42 07 bd
       -0.11309541 -0.0011022405 0.16376407 -0.0330223
000290 30 24 c6 bd 9a af e8 3d 87 e9 a8 bb 7a e9 3c be
       -0.09674871 0.11361618 -0.0051547918 -0.18448439
0002a0 c4 93 0e bb c4 26 57 3d a0 3a 22 3d 9e 3c 8d 3e
       -0.0021755556 0.052527204 0.03960669 0.2758531
0002b0 c8 f7 b6 3a e3 13 8f bd c2 70 ec 3c 5a da d3 bd
       0.0013959343 -0.06986215 0.02886236 -0.10344382
0002c0 73 48 1e 3e 31 fc a5 bd d3 0b 95 3d 6b a1 a2 bd
       0.15457325 -0.08104742 0.07277646 -0.07940944
0002d0 b5 15 c4 3d a3 84 be 3b 45 b1 ae 3d d1 60 ec 3c
       0.09574453 0.0058141514 0.08529905 0.02885476
0002e0 6a 0f 0a be c3 26 8b 3d 13 30 03 be ff e4 25 be
       -0.13482442 0.067945026 -0.12811308 -0.16200636
0002f0 67 56 9d bd 94 f2 3b 3e fb e6 64 3d 1c 5c e6 bc
       -0.076824956 0.18354255 0.055884343 -0.028120093
000300 c1 93 15 3e d8 df bf bd 43 9b 62 bd 5d 7f 8c bd
       0.14607145 -0.09368867 -0.05532385 -0.0686023
000310 c2 a7 ae bd 6a 33 0f bd 69 9c 99 3c 64 2c 55 3e
       -0.08528091 -0.03496114 0.01875134 0.20817715
000320 9e a1 ab 3d 64 ea 8f bd 5f 84 66 bc 6e 81 a1 3c
       0.083804354 -0.07027128 -0.014069646 0.019715037
000330 f5 7d 09 be 51 26 d8 3c da 98 50 3d 3a c4 19 3d
       -0.13426955 0.026385458 0.05092702 0.03754065
000340 51 a4 aa 3d e8 ec a2 bc f6 84 18 3c 82 60 23 bd
       0.08332122 -0.019888356 0.009309044 -0.03988696
000350 ed 15 8e 3d d2 b2 ad bd be 99 19 be 93 2e 69 bd
       0.06937776 -0.08481373 -0.15000054 -0.056929182
000360 82 6e 8c bd 98 0a 8d bd d2 b4 18 be 29 81 4b bd
       -0.06857015 -0.06886786 -0.14912727 -0.049683724
000370 49 7d bb 3c d6 25 a8 bc 29 33 26 3e 5e d1 9f 3b
       0.022886889 -0.020525854 0.16230454 0.0048772534
000380 3d e2 36 bd dc b5 36 3e 97 0f ce 3d f8 5e 26 bc
       -0.04464935 0.17842811 0.10061567 -0.010154478
000390 ae 75 36 bd 64 20 40 3d f5 4f 0b 3e b7 4f 21 be
       -0.04454582 0.04690589 0.1360472 -0.15753065
0003a0 de 60 d5 bd 58 f7 1a 3d 6c 8d d0 bd a7 0b d2 bc
       -0.104188666 0.03783354 -0.10183224 -0.025640322
0003b0 a6 ef ae 3b f5 9d 10 be 1a 22 ad bd d9 f7 d9 3d
       0.005338627 -0.14122756 -0.0845377 0.10642976
0003c0 da 69 d8 bc a6 c4 59 3c ad 71 ac bc 3b a6 5b 3d
       -0.026417661 0.013291514 -0.021050299 0.053625327
0003d0 a8 17 1d 3e 2b f0 8f bd 65 06 39 bd 05 25 31 be
       0.15341055 -0.0702823 -0.045172114 -0.17299278
0003e0 f8 7c 9a bd a6 bb 3b 3d 3a 76 d1 bc de 61 11 be
       -0.07543367 0.045833252 -0.02556907 -0.1419749
0003f0 1f 0e ca bd 77 a8 1e be 2d 92 62 3d 31 b6 7b 3c
       -0.09865975 -0.15493952 0.055315185 0.015363262

conv3.bias f4 [32]
000000 29 58 97 3c 4b 62 13 3c c4 1d 95 bc 4c e8 c3 3a
       0.018474655 0.008995603 -0.01820267 0.0014946549
000010 95 3f 70 3b f3 c1 fa bc 2d 1e 68 bc 05 e9 a6 3c
       0.0036658992 -0.03061006 -0.014167351 0.020374784
000020 37 9a d1 bc ad 5c ce bc 4a c5 98 3c 0a 9d 8f 3b
       -0.02558623 -0.025190676 0.018648762 0.004382734
000030 1f 37 c2 bc eb 9b f2 3c 68 30 95 bb dd 5c b6 3c
       -0.023707924 0.029615363 -0.0045528896 0.022261078
000040 4f 15 4b bc a5 ce 09 3d d0 83 64 3c de 73 e5 3a
       -0.012395217 0.033644337 0.013947442 0.0017505845
000050 04 12 2f bc ab 45 3c bc 47 2d 21 ba 6b e4 7b 3c
       -0.010685448 -0.0114912195 -0.00061484094 0.015374283
000060 53 3f 17 3c 9d 05 f8 ba 73 25 86 3c 99 1d 93 3c
       0.009231406 -0.0018922571 0.016375279 0.01795845
000070 ee 19 91 bc d0 6b 9b 3a b3 b6 88 bc ea dc 59 3c
       -0.01771256 0.0011857692 -0.01668868 0.013297299

bn3.weight f4 [32]
000000 e7 24 79 3f 44 47 7e 3f d7 79 84 3f b3 bd 80 3f
       0.97321934 0.9932749 1.0349683 1.0057892
000010 10 0f 7f 3f da d3 83 3f 8f 6e 81 3f 74 b3 82 3f
       0.9963236 1.0299027 1.0111865 1.0211015
000020 9c 2c 81 3f 58 1b 82 3f 3b 8b 7a 3f 8c cb 81 3f
       1.0091739 1.0164595 0.978687 1.0140243
000030 63 9f 84 3f 0f bc 7a 3f 33 a7 83 3f 15 fa 79 3f
       1.0361141 0.97943205 1.02854 0.9764722
000040 72 d3 7e 3f 8d 42 7e 3f 59 7b 7c 3f ed 50 7b 3f
       0.9954139 0.993203 0.98625714 0.9817036
000050 b0 15 7c 3f 57 fa 7e 3f 3a 68 7c 3f fc ab 81 3f
       0.9847059 0.9960074 0.9859654 1.013061
000060 3b da 76 3f ed e6 7f 3f 83 f6 7a 3f d6 b2 75 3f
       0.96426743 0.9996174 0.980324 0.95976007
000070 69 46 7f 3f ee 4a 70 3f f1 d1 7b 3f b8 de 82 3f
       0.9971681 0.93864334 0.9836722 1.0224218

bn3.bias f4 [32]
000000 b5 86 0a 3b 07 9b 89 3b e8 da 96 bc 02 be 88 bb
       0.002113742 0.004199389 -0.01841493 -0.0041730413
000010 76 f4 06 3c 81 54 30 bc 75 c3 80 ba 62 1d c5 bc
       0.008236995 -0.010762335 -0.0009823876 -0.024061862
000020 7f d7 1d 3b aa 2d 14 3c 4a 72 31 3b 50 33 2b bc
       0.0024084745 0.00904409 0.0027076178 -0.010449246
000030 fb 1f 2a 3b e4 98 7f 3b b0 a3 70 bc bd b6 17 3c
       0.0025959003 0.0039001042 -0.014687464 0.009259877
000040 59 92 53 3c d2 35 bc 3a 0b d9 a0 3c 8c 28 f1 3b
       0.01291331 0.0014359301 0.019634744 0.00735957
000050 1b e1 79 3c d5 02 80 ba 09 c6 f6 3b 6f e2 a6 ba
       0.015251423 -0.0009766469 0.007530932 -0.0012732277
000060 a2 29 35 bb e5 a7 84 bc 1d 80 05 bd 5d 03 14 3d
       -0.0027643223 -0.01619334 -0.03259288 0.03613602
000070 f5 d4 8b 3b 07 b5 f1 bc 1f 06 67 bc a6 09 b5 3c
       0.00426733 -0.029505266 -0.0141005805 0.022099327

bn3.running_mean f4 [32]
000000 d1 f0 17 3f b0 4a c3 3e 15 91 27 3f a9 ad cf 3e
       0.5935183 0.3814292 0.6545575 0.4056218
000010 b6 d6 0a 3f 4b db 4a 3f f6 00 6f 3f 7d 55 dd 3e
       0.5423387 0.79240865 0.9336084 0.43229285
000020 e2 73 e0 3e 43 12 ea 3e 26 15 68 3f ee 9f e2 3e
       0.43838412 0.45717058 0.9065727 0.44262642
000030 7b 4f 07 3f be ae 28 3f 9e 5e 13 3f 10 1f a7 3f
       0.5285565 0.65891635 0.5756625 1.3056355
000040 a5 a2 1b 3f 2c 32 40 3f bb c7 33 3f e5 ac 21 3f
       0.6079505 0.75076556 0.7022664 0.6315444
000050 49 fa bb 3e b0 96 2c 3f bc 31 3f 3f 75 63 39 3f
       0.3671439 0.6741743 0.74685264 0.72417384
000060 3c 89 2c 3f ca 8a 08 3f 1e 85 31 3f 5e 75 f9 3e
       0.67396903 0.53336775 0.69343746 0.48722357
000070 50 ce a8 3e fd 4d 18 3f 04 19 dc 3e 5b 73 09 3f
       0.32969904 0.59494 0.42987835 0.53691643

bn3.running_var f4 [32]
000000 d0 5e 22 3f 90 29 e9 3e 93 83 ea 3f ac a4 2a 3f
       0.6342592 0.45539522 1.8321403 0.6665752
000010 49 1f 58 3f f9 0d 0d 40 56 0a 06 40 d5 48 0b 3f
       0.8442274 2.2039778 2.0943809 0.5440801
000020 9d 96 c2 3e 36 47 20 3f 96 2f 1f 40 6c bb 1b 3f
       0.38005534 0.6260866 2.4872794 0.6083286
000030 b3 3a 59 3f 6b d5 03 3f 98 8b 95 3f 5b 40 fd 3f
       0.8485519 0.51497525 1.1683226 1.9785265
000040 51 a5 3f 3f 8d 19 7a 3f 05 46 2d 3f c2 a8 c2 3f
       0.7486163 0.9769524 0.67684966 1.5207751
000050 b2 5f 04 3f 46 a2 22 40 8e 10 f0 3f 12 37 8f 3f
       0.5170852 2.5411544 1.8755052 1.1188681
000060 70 fd a1 3f 24 ce 5c 3f f1 dd 8d 3f 6b 93 e9 3e
       1.2655468 0.86252046 1.1083356 0.45620283
000070 d4 fc 90 3e 36 eb 5e 3f 17 62 18 3f df ab 45 3f
       0.28317893 0.87077653 0.59524673 0.7721538

conv4.weight f4 [64, 32, 3, 3]
000000 1b 75 05 bb fb b0 21 be 80 d7 63 3d ba 28 ab bd
       -0.002036399 -0.15790169 0.05562544 -0.08357377
000010 d1 9d 89 3d d9 51 39 3d ee 31 9f 3d 4a 21 5d 3d
       0.06719554 0.04524407 0.07773195 0.053986825
000020 8c 5c 43 3d fb ab 06 bd 60 42 0f 3e b4 32 38 be
       0.04769568 -0.032878857 0.13990164 -0.17988092
000030 b1 f9 13 bd b8 45 12 3e ec 78 20 3d 81 26 68 3d
       -0.036126796 0.14284408 0.03917782 0.056677345
000040 d5 22 9e 3c 67 82 09 be c5 3c 13 be f1 b1 6a bd
       0.019303719 -0.13428651 -0.1437865 -0.057298604
000050 92 27 8f bd f5 5e e4 3d 25 da c0 bd 8f 7a ba 3b
       -0.06989969 0.11150924 -0.09416608 0.0056908797
000060 a4 d7 3d 3c 0c 57 b6 bc 5f e5 e1 3b 98 4e db 3d
       0.011587057 -0.022258304 0.0068937982 0.1070835
000070 a4 ba 8e bd 2d d0 c7 3c 82 6c fd 3c 59 82 7b bd
       -0.069691926 0.024391258 0.03093553 -0.061403606
000080 31 2c 75 bd f4 ac bd 3d 83 1a ba 3d 47 49 86 3d
       -0.059856597 0.09261504 0.09087088 0.06556945
000090 99 bb f8 bd 59 e0 30 bd f2 85 84 bd b2 af 9c bb
       -0.121451564 -0.043182705 -0.064708605 -0.0047816867
0000a0 93 96 03 be 5b 82 b2 3c c5 aa dd 3d 0f b4 34 bb
       -0.12850408 0.021790674 0.10823587 -0.0027573144
0000b0 e5 2a 0f be 91 63 c2 bc 3f e9 d5 bd a1 c5 9f 3c
       -0.13981207 -0.023729118 -0.10444879 0.019503416
0000c0 cd 2d 34 3c 35 b0 1c be 23 f6 a5 bb 66 04 08 3d
       0.010997248 -0.15301593 -0.005064742 0.03320732
0000d0 a8 cc 45 3d 0b 95 71 bd a1 9c bb 3d d5 0a 74 3d
       0.04829088 -0.05898003 0.09160734 0.059580643
0000e0 20 c1 96 3d 06 df d5 3c fa 43 20 be ad c5 2f 3d
       0.073610544 0.026107322 -0.15650931 0.042913128
0000f0 52 28 f4 bc 35 8b b2 3c 11 d9 75 bc 5a 1c 8e bd
       -0.029804382 0.021794895 -0.015005366 -0.069390014
000100 83 37 34 bd 50 2e 75 3d b9 57 38 bd b5 bf 43 bd
       -0.043998253 0.05985862 -0.045005534 -0.047790248
000110 67 13 a0 bd 0e 7a 01 be c1 10 17 bc 40 aa 00 bc
       -0.07816201 -0.12644216 -0.009220303 -0.007853091
000120 2d fa 25 3d e5 30 54 bd 68 98 10 3e 47 41 30 bd
       0.04052179 -0.051804442 0.14120638 -0.043031003
000130 7f 9c 9b 3d 6d 2f 98 bd 53 83 36 bd d0 fb 1b 3e
       0.07598209 -0.07430921 -0.044558834 0.15232778
000140 f0 3c 06 be 6b ff bb 3d f7 f3 c0 bd 42 ef 00 3e
       -0.13109183 0.091795765 -0.094215326 0.1259127
000150 e0 e4 19 be d4 2e ae 3d bf a3 7e bb cb c6 a0 3d
       -0.15028715 0.085050255 -0.0038854924 0.07850417
000160 a8 62 20 bd 88 ea b2 3d ab 28 f6 3d 21 86 90 3d
       -0.039156586 0.087361395 0.120194755 0.07056833
000170 7f 63 d8 bd be a9 8d bd a4 1f 40 3e af dc 3d bd
       -0.105658524 -0.069171414 0.1876207 -0.04635304
000180 91 83 c7 bd 71 57 2a bd e0 29 b4 bc d4 60 3e 3d
       -0.09741891 -0.041587297 -0.021992624 0.04647906
000190 5c 64 8d bb c0 39 e2 bc 12 ad c0 bd f7 d1 84 3c
       -0.0043149423 -0.027615428 -0.094080105 0.0162134
0001a0 f8 ef 85 bd 31 32 41 bd 8f f7 1f be eb dd 26 bd
       -0.06539911 -0.047167007 -0.1562178 -0.04073898
0001b0 e7 c6 73 3d 53 0b 90 3d f9 a9 45 bc 8d 3f 2e bd
       0.05951586 0.0703341 -0.01206445 -0.042541075
0001c0 08 b8 0b 3e 81 6f d3 3c e6 08 be bd 05 55 52 bd
       0.13644421 0.025810005 -0.09279041 -0.051350612
0001d0 7f f7 d9 3d a5 35 cc bc 7d 30 44 bd 22 82 21 3e
       0.10642909 -0.024927923 -0.047897805 0.15772298
0001e0 c1 d7 85 bc 99 e1 0e bd c6 b7 d0 bd 65 64 10 be
       -0.016338231 -0.034883115 -0.10191302 -0.14100797
0001f0 32 6b c3 bd 12 37 8c bd f0 c3 65 bc 64 41 ec bc
       -0.0954193 -0.06846441 -0.014023766 -0.028839774
000200 97 0c 33 be 4a 33 d4 bc 70 4c b3 bc 91 ee f4 3d
       -0.17485271 -0.025903363 -0.021887034 0.119595654
000210 4c 2c 6c bd a7 5c 67 3d 5c 45 2e bd 9c 73 83 bc
       -0.057659432 0.056484845 -0.042546615 -0.016046338
000220 83 c7 4b 3d e9 4b 19 be 6a 5c a6 bc cd db 8e bd
       0.049750816 -0.14970364 -0.020307738 -0.069755174
000230 db ae 8a 3d f3 e9 63 3d e4 60 06 3e 5a 5b 0c 3c
       0.06771632 0.055643033 0.13122898 0.008566702
000240 cf b8 ca bd bb 0d 88 bd 5b 62 8d bc 55 1a 34 3c
       -0.09898531 -0.06643244 -0.017258814 0.010992606
000250 73 d3 97 3c a7 f8 71 bd 3d 86 a5 bc d8 c2 be 3c
       0.018533444 -0.059075024 -0.020205611 0.023286268
000260 b6 02 1a 3d e3 50 cd 3c 2d c0 2b 3d 46 cf 3d 3d
       0.03760024 0.025062984 0.04193132 0.04634025
000270 ba 00 48 bc e7 91 1e be 70 30 63 3d d5 75 e3 bc
       -0.0122072045 -0.15485345 0.055466115 -0.027766148
000280 96 63 dc bc 75 0d e5 bc da 86 3a 3b ee a8 45 be
       -0.026902955 -0.027960518 0.0028461725 -0.19302723
000290 d2 6f 39 bc e9 c8 1c be f8 c0 71 3c ca ca 80 bd
       -0.011318164 -0.15311016 0.01475548 -0.06288679
0002a0 bb 35 b3 bc 43 90 3a be f8 a5 dc 3b dd f7 24 3c
       -0.021876207 -0.18219094 0.006733652 0.010068861
0002b0 e2 64 b8 3c 80 d4 0b 3d ed a6 32 3d c7 67 26 3e
       0.022509042 0.034138203 0.043616224 0.16250525
0002c0 ba b3 3d 3b a4 8b 9d 3d 62 47 0a be 4c 05 92 bc
       0.0028946237 0.0769265 -0.13503793 -0.017824791
0002d0 8e 7e d0 bd b4 62 36 3d eb ba 60 bd c7 5e f7 bd
       -0.101803884 0.044527724 -0.05486576 -0.12078624
0002e0 b6 dc 23 bd 87 8d 24 3d 47 c2 cf 3d c3 13 fb 3c
       -0.04000541 0.040174033 0.10144477 0.030649072
0002f0 fe b9 fe bd 6f 0e 85 bc 33 e4 45 3c c6 55 4e 3d
       -0.12437819 -0.016242234 0.012078333 0.05037477
000300 34 7d d4 3d c8 a6 a5 3d f1 01 94 bd 7c 53 eb bb
       0.10375443 0.080884516 -0.07226933 -0.007181583
000310 01 3a 8b 3d fb d8 5b 3d 4d 3b 3b 3d 4a 52 a4 bd
       0.06798173 0.053673726 0.04571085 -0.08023508
000320 8b 49 3c be 88 72 d6 3d 78 b6 cb 3d 9b cf d0 bd
       -0.1838743 0.10471064 0.099469125 -0.101958476
000330 80 80 0a 3d fb 33 2f 3c 4a bd 82 bd 04 07 7e 3d
       0.033813953 0.010693545 -0.0638376 0.06201841
000340 58 4d 48 bd bc 05 c0 3c 82 4b e1 bc 59 db c9 3b
       -0.048901886 0.023440234 -0.027501825 0.0061601815
000350 fa 58 9f bc 71 41 5d 3d b4 16 4c bc a5 a1 d3 bd
       -0.019451607 0.054017488 -0.012456585 -0.103335656
000360 4a 03 05 bd 20 f5 35 bd 18 7a 3c be a0 52 64 3d
       -0.03247384 -0.044423223 -0.1840595 0.05574286
000370 56 7f 06 3d ce f4 b9 3d ae d4 9a bd 47 99 d2 bd
       0.03283628 0.09079896 -0.07560097 -0.102831416
000380 45 89 23 bd ba 85 90 bd b8 60 00 3d 30 15 16 bd
       -0.039925832 -0.07056756 0.03134224 -0.0366413
000390 46 cf 9d 3c 74 51 ac bd a5 fd 95 bc 83 dc f1 bc
       0.019263875 -0.084139735 -0.018309424 -0.029524093
0003a0 7b 7f f5 3d 7b 2e c3 bd 34 87 46 bd ad 25 94 bb
       0.119872056 -0.0953035 -0.048468783 -0.004521093
0003b0 4d f7 46 bd 35 4d a5 bd b3 04 bf bd 27 a0 7a 3d
       -0.04857569 -0.08071367 -0.09327068 0.06118789
0003c0 e4 f2 3c bd ca e0 30 3d 0e c2 ff 3b 5e fb 89 bb
       -0.046130076 0.043183126 0.0078051155 -0.0042108735
0003d0 6e e8 6b 3d d9 e7 88 bd 33 9f 97 bd a3 09 0b bd
       0.05759471 -0.066848464 -0.07403412 -0.033944737
0003e0 7f 5d 4e 3e 94 5c bd bd 38 b4 a5 3d 23 5f 30 bc
       0.20152853 -0.092461735 0.080910146 -0.01076487
0003f0 b0 f6 02 3c b0 5f bf bc fe e5 0c bd 49 d2 c4 bd
       0.007993385 -0.023361057 -0.034399025 -0.09610421

conv4.bias f4 [64]
000000 e6 9b db 3b dc 99 c3 3c 57 fd c8 bc 4e f3 47 3c
       0.006701934 0.023877077 -0.024534864 0.012204004
000010 c3 da 07 3c 5f 62 91 bb 6e 7d 49 3c a5 45 18 bb
       0.008291903 -0.0044367756 0.012297971 -0.002323487
000020 f4 bf bf 3c f0 b4 ac 3c 99 7e 1d 3d 7f c6 b9 3c
       0.02340696 0.021082371 0.03845081 0.022677658
000030 c2 d7 1a bc 9a 28 88 bb 0d 8f 8c bc 9a 24 bf 3c
       -0.009450855 -0.0041552307 -0.017158056 0.023332883
000040 c1 ef c2 3c a1 cf 32 3c 17 b4 3b 3c 4b c9 ea ba
       0.023795964 0.01091376 0.011456511 -0.0017912773
000050 c6 b9 e3 3b e0 3a 58 bc 37 e4 b1 bc 27 4f 69 3c
       0.006949636 -0.013197631 -0.021715267 0.014240063
000060 91 78 dc 3c 9c 4f 81 3c 16 84 bd bb a1 86 2d 3d
       0.02691296 0.015785031 -0.005783568 0.04236472
000070 9f 7a e6 3c 15 ef 8d bb 00 0b 0a 3d 8c 33 57 3b
       0.028134642 -0.0043314793 0.033701897 0.003283712
000080 ef ad 16 3d 96 1b 15 3a 9d d5 7e 3c e5 de 14 bc
       0.03678697 0.00056880096 0.015553859 -0.009086345
000090 64 b8 1b 3c 92 8d fb bc 2c 73 30 bb 9b dc 21 bc
       0.009504411 -0.030707154 -0.0026924117 -0.009879257
0000a0 9f 65 28 3c c0 5a 00 bd 7c 8a 40 3c dd dd 0e 3d
       0.010278135 -0.031336546 0.011751767 0.034879554
0000b0 1e 06 be bc 86 f6 a0 bb 5c 3e 65 3c 65 45 68 bc
       -0.023196276 -0.0049122004 0.013991918 -0.014176701
0000c0 68 60 3f 3c 05 7c 6b 3c 66 33 a8 bb d3 3f af bb
       0.0116807 0.01437283 -0.0051330803 -0.0053481846
0000d0 4e a1 53 3c 82 16 84 bc c7 61 1c 3d 03 1e 36 3c
       0.012916876 -0.016124014 0.038179185 0.011115554
0000e0 7e 40 a2 3c ae 1e a7 3c 0d 68 c7 ba 5b 30 8f bb
       0.019806143 0.020400371 -0.0015213505 -0.004369778
0000f0 20 11 b6 3c 72 96 88 3c 9c d6 28 bc f7 31 82 3c
       0.022224963 0.0166733 -0.010305073 0.015892966

bn4.weight f4 [64]
000000 31 ab 81 3f f0 f9 85 3f 80 96 7e 3f e8 12 81 3f
       1.0130368 1.04669 0.99448395 1.0083895
000010 18 e5 88 3f 06 b6 87 3f 33 6e 84 3f 79 c6 85 3f
       1.0694914 1.0602424 1.034613 1.0451194
000020 3e 11 83 3f fb 70 87 3f 40 67 88 3f 3a 39 85 3f
       1.0239637 1.0581354 1.0656509 1.0408089
000030 25 4c 84 3f c1 40 81 3f cf 06 81 3f 45 87 7b 3f
       1.0335737 1.0097886 1.0080203 0.9825328
000040 e7 9e 82 3f f5 bd 7e 3f fb 87 83 3f 47 6c 87 3f
       1.0204743 0.995086 1.0275873 1.0579919
000050 ca d7 83 3f 3c a9 7f 3f 1a 1d 82 3f c7 bb 86 3f
       1.0300229 0.99867606 1.0165131 1.0526055
000060 85 b3 8a 3f 9e e2 8b 3f 22 24 81 3f f4 a0 89 3f
       1.0836035 1.0928533 1.0089152 1.0752244
000070 67 8a 87 3f 8b 26 88 3f c1 c7 8a 3f ec 09 82 3f
       1.0589112 1.0636762 1.084221 1.0159278
000080 6d 9c 88 3f 45 e5 80 3f 60 cd 88 3f 25 01 81 3f
       1.0672737 1.0069968 1.0687675 1.0078474
000090 bf 7b 84 3f 55 2f 7d 3f 5f 55 7b 3f 99 be 85 3f
       1.0350264 0.9890035 0.9817714 1.0448791
0000a0 89 5d 81 3f be 30 80 3f 1f 32 82 3f 71 54 85 3f
       1.010667 1.0014875 1.0171546 1.0416394
0000b0 a1 1a 85 3f 48 14 81 3f 57 3e 87 3f 96 d3 84 3f
       1.0398751 1.0084314 1.05659 1.0377071
0000c0 46 59 80 3f da 70 80 3f 85 9b 81 3f 3d 1e 82 3f
       1.0027244 1.003444 1.0125586 1.0165478
0000d0 03 11 88 3f 6a e4 83 3f f4 3d 86 3f de 12 86 3f
       1.0630192 1.0304081 1.0487657 1.0474508
0000e0 05 ef 83 3f 97 cd 86 3f 19 7d 85 3f f7 54 81 3f
       1.0307318 1.0531491 1.0428802 1.0104054
0000f0 55 f5 84 3f 05 c6 81 3f 82 88 86 3f cd ee 82 3f
       1.0387369 1.0138556 1.0510409 1.0229126

bn4.bias f4 [64]
000000 52 6b ec bd da d7 e8 bd 86 9f e2 bd 9d 07 df bd
       -0.11543907 -0.113692954 -0.11065583 -0.10890124
000010 ad 3a fc bd 52 fd a1 bd f3 76 b5 3d 27 5a ee bd
       -0.12315879 -0.07909645 0.088605784 -0.11638289
000020 ff 76 ec 3d fc 4c f1 bd b6 e3 f9 bd d3 bf f2 3d
       0.11546134 -0.11782262 -0.122016355 0.11852994
000030 67 39 cb 3d c9 7f e9 bd df ed dc 3d e9 fe fa bd
       0.09923058 -0.11401326 0.10787558 -0.122556515
000040 cb 84 d9 bd 15 93 a8 bd 23 de e8 bd 07 29 e9 bd
       -0.106210314 -0.08231179 -0.11370494 -0.113847785
000050 04 38 e2 3d 53 c2 f5 bd 70 f4 c2 bd f0 1b e6 bd
       0.110458404 -0.11999955 -0.09519279 -0.112357974
000060 37 ed e4 bd 9a b9 e9 bd 67 4e e9 3d 95 e0 ee 3d
       -0.11178058 -0.11412354 0.11391907 0.116639294
000070 c7 2b eb bd 17 1d e0 bd ed 99 d5 bd 51 29 a9 3d
       -0.11482959 -0.109430484 -0.1042975 0.082598336
000080 d5 ea ce bd fd f1 ea 3d be 18 ee bd c3 71 e3 3d
       -0.101033844 0.11471937 -0.11625813 0.11105683
000090 59 62 eb bd fb b0 ec 3d 9c a4 e6 3d 24 02 ed 3d
       -0.11493368 0.11557194 0.112618655 0.11572674
0000a0 e5 b4 eb bd 76 da ee 3d 03 6f e0 bd 3b 74 f2 bd
       -0.11509112 0.11662762 -0.10958674 -0.118385755
0000b0 51 63 fa bd c9 84 f6 bd 81 aa de bd 8f 25 f0 bd
       -0.12225974 -0.120370455 -0.10872365 -0.11725914
0000c0 d3 aa d5 bd 42 c8 da bd 5c 21 de bd c7 fa e8 bd
       -0.10432973 -0.106827274 -0.108462065 -0.11375957
0000d0 04 33 dd bd 76 4b e9 3d 25 11 da 3d ca 4f c3 3d
       -0.10800746 0.11391346 0.10647801 0.09536703
0000e0 50 6f cc 3d 2d 55 16 bd c2 a2 83 bd a8 23 e9 3d
       0.09982169 -0.036702324 -0.06427528 0.11383754
0000f0 fb 37 c6 3d 59 57 d9 bd b6 08 e5 3d d8 9f f7 3d
       0.09678646 -0.10612363 0.11183302 0.12091035

bn4.running_mean f4 [64]
000000 19 f2 f0 3e 28 ee 1c 3f b1 ec 0e 3f 7e 89 1b 3f
       0.47059706 0.613009 0.5582991 0.6075667
000010 98 40 45 3f fe 77 fe 3e b1 24 16 3f 9c 22 4b 3f
       0.7705169 0.49700922 0.58649737 0.79349685
000020 e2 37 7a 3f da 36 4c 3f 0d 73 7f 3f 29 9e df 3e
       0.9774152 0.79771197 0.9978493 0.43675354
000030 c0 b2 ff 3e e3 0d 2e 3f e0 1a 1d 3f 2b 5e 2c 3f
       0.49941063 0.6798994 0.61369133 0.6733119
000040 8f e4 32 3f e7 d2 54 3f 5d 04 2d 3f 48 82 61 3f
       0.6988 0.8313431 0.6758478 0.8808942
000050 97 92 e7 3e 6e 64 14 3f a2 0f 2d 3f cb 79 4d 3f
       0.45229027 0.57965744 0.6760198 0.80263966
000060 fc c5 2e 3f 3d a3 34 3f 2c fe e1 3e 75 b9 65 3f
       0.6827085 0.7056158 0.4413923 0.8973611
000070 84 d1 70 3f 7c d1 4e 3f b7 0e 84 3f 8c a9 26 3f
       0.94069695 0.807884 1.0316991 0.6510246
000080 25 88 4b 3f 5e 53 04 3f 79 12 50 3f a1 7b 12 3f
       0.79504615 0.5168971 0.8127819 0.5721989
000090 32 4f 14 3f 0c e7 47 3f ca 81 12 3f 00 57 e9 3e
       0.5793334 0.78086925 0.5722929 0.45574188
0000a0 ec 5d 0e 3f ab ed d4 3e 53 55 07 3f 12 70 52 3f
       0.55612063 0.41587576 0.5286457 0.82202256
0000b0 73 a5 0c 3f 16 32 b9 3e 0c c8 80 3f f0 d8 e4 3e
       0.54939955 0.36171025 1.006105 0.4469676
0000c0 5d 23 5c 3f 86 1a 3a 3f 90 eb 1f 3f c9 44 01 3f
       0.8599146 0.7269672 0.62468815 0.5049558
0000d0 49 17 f2 3e c8 de 10 3f 4e 8e 46 3f 08 6d 18 3f
       0.4728339 0.5658994 0.7756089 0.5954137
0000e0 c9 0b 3f 3f 7c 79 36 3f 2d 89 39 3f c8 2c 20 3f
       0.7462736 0.7127912 0.7247494 0.6256833
0000f0 90 0d 0f 3f 58 a2 52 3f 58 7d 03 3f 99 ef 00 3f
       0.5588007 0.82278967 0.51363134 0.50365597

bn4.running_var f4 [64]
000000 c7 45 cf 3e 6d 50 95 3f 65 09 92 3f 38 ad ae 3f
       0.40482923 1.1665169 1.1409117 1.3646612
000010 7e 77 4a 3f 5b bf 3b 3f d8 57 30 3f b3 ec 08 40
       0.7908858 0.7333886 0.6888404 2.139447
000020 50 4e cd 3f 7b 07 f7 3f 98 93 6c 3f 80 99 0c 3f
       1.6039524 1.9299158 0.9241271 0.5492172
000030 9e a5 89 3f e8 9a 21 3f 7d 7f 65 3f 53 06 b1 3f
       1.0753667 0.63126993 0.89647657 1.3830055
000040 70 97 19 3f f5 ae 53 3f ac 13 20 3f c5 62 6c 3f
       0.599967 0.8268884 0.62530017 0.9233821
000050 44 34 e0 3e e5 61 70 3f f4 48 30 3f a7 36 6b 3f
       0.43789876 0.93899375 0.6886132 0.9188027
000060 03 66 ba 3f 42 ba c2 3f d7 17 f3 3e b5 0d 08 40
       1.4562382 1.5213091 0.47479126 2.1258366
000070 1b 43 8c 3f e4 08 06 40 50 c2 9e 3f d0 ab 0d 3f
       1.0957979 2.0942926 1.240305 0.5534029
000080 41 e5 3e 3f f4 c8 07 3f 91 f1 41 3f ca 40 28 3f
       0.74568564 0.53041005 0.75759226 0.6572386
000090 fa e4 dd 3e 67 bc 72 3f 4f 9b 05 3f 20 29 85 3f
       0.43338758 0.9481873 0.5219011 1.0403175
0000a0 fe ef 62 3f 1e b4 f5 3e 61 e2 77 3f 01 c4 55 3f
       0.8864745 0.4798898 0.968298 0.83502203
0000b0 18 64 07 3f 4f b1 98 3e 80 c0 84 3f 8c 34 11 3f
       0.52887106 0.29822776 1.0371246 0.56720805
0000c0 e1 a7 c5 3f 8f 60 b5 3f 5e bb 41 3f 99 a4 5d 3f
       1.5441858 1.4170092 0.75676525 0.8657928
0000d0 9d 4b 65 3f 1a 77 ff 3e 3a b6 59 3f eb bd 83 3f
       0.895685 0.49895555 0.8504368 1.0292333
0000e0 7a 99 d8 3f 4f 54 b3 3f 38 ac 24 3f aa c6 85 3f
       1.6921837 1.4010104 0.64325285 1.0451252
0000f0 80 b7 09 3f 7a 3d 75 3f e2 c0 78 3f ae 59 91 3f
       0.53795624 0.9579693 0.97169316 1.1355493
