NCC_Code/models/2022-08-14_10-30-21_model.pt (torch, 114443 bytes, 50 tensors)

conv1.weight f4 [8, 2, 5, 5]
00000000: f43c 58bd 100d 20be 7176 cfbe 9501 573b
00000010: 6525 483c e076 353e 24b4 c5bc c8eb db3b
00000020: 66e0 d53d 488e 823e 1910 4fbe 436b bdbd
00000030: da84 363e af4a 713e 185b a6be 44a3 f9bc
00000040: daad 943e 5f6e 743e c955 093c e6cd 63bd
00000050: 63a5 d6bc 464c 323e 1603 30be 77f9 9f3d
00000060: 630c 17be 6dbf 86be bb58 abbe f70d c63e
00000070: 6e56 743e 9e85 283e 0458 02be 12c5 6dbe
00000080: 1231 cbbd 3cd2 023e e337 37bd 53e4 1f3e
00000090: c305 cfbd e5ee 293d 445b ed3d 3a36 8c3e
000000a0: 1384 4b3e ca93 353e 1c14 983e c61a b33e
000000b0: 4c32 183d 36fd b43d b8b1 883d 1fae 503e
000000c0: 3d39 d5be 49c4 b53d ea3f f33e ec09 c83d
000000d0: e2f6 7e3e 5103 85be 30b6 2f3e 0697 02bf
000000e0: d9cd afbd 1bfd b4bd a86c 06be 8177 b63d
000000f0: 53ba d03d 1222 e9be 5dae 1cbe 8408 58be
00000100: ee9f f2bd cb78 84be 46d7 c83e d906 85be
00000110: 8763 083e b8f7 1b3d d238 c93c a3de 0c3e
00000120: fc62 2a3e 9886 c33e ddcc 173e 2b56 f1bd
00000130: 73ce a83d 034c 15bd 3a27 01bf 1e23 44be
00000140: 756e 2ebe 3072 783e 48a3 3c3e be47 a33e
00000150: 3e18 4ebc 3a9c 64bc 107a e03d 2a43 b63c
00000160: 51ad 08be ce04 003e 9b38 e4bd d35b b43d
00000170: 7398 6abe fdd6 1f3c 193d 1bbf d891 103e
00000180: 12f3 a43e 5d02 03bf 096f 93bd fa68 51be
00000190: 7cb1 fabd 7623 b53e 5705 783e 25ba 5cbd
000001a0: ef62 1cbe 3977 1cbe b7a1 85be eabb f8bc
000001b0: d0f6 9bbe 7254 d2bc 2c0a 60be 285a b1be
000001c0: 9d2b 1abd 52a7 193e a041 67bd da57 8f3e
000001d0: ade3 443d d680 73bc 8835 99bd a184 2a3d
000001e0: 0040 783e 554e 25be d89b 55bc 1795 89bc
000001f0: da76 193e 8d14 97bc 9d3d 4c3e 555b 8d3e
00000200: aada 013e f1d6 593d fb0a c7bd 03aa d03e
00000210: 1036 8b3e ade6 bcbd df45 463e da38 5f3e
00000220: c2d3 803d 7d26 c0be f377 d8be 75bb 1a3e
00000230: f166 333e 9ea0 af3e 3bf0 0d3e 1a76 1d3d
00000240: 09c5 10bc 0f99 c33d 38d0 073b 1288 153e
00000250: c087 91be 6f02 40be 6f1f 903d acfc b03b
00000260: ed81 87be a202 0dbd 4db0 b8be 87b7 f43d
00000270: e417 7a3e bf15 57be aa6f 0d3e 2578 883d
00000280: 9210 4dbe 8e65 2b3e 1fa4 51be 706b 3a3d
00000290: b85c 4d3b 5ba6 e8bd 0e0b c2bb b329 abbc
000002a0: e01c 703d 7528 8cbe 368a a63c 5bd3 8d3c
000002b0: 1a42 c2be defe 07be 1bda 893b 5d49 b4be
000002c0: 4941 02be bfd9 113e 1a61 d53d 46f0 08bd
000002d0: a956 33be 73df 2fbe 6288 2cbe 12d2 f5bc
000002e0: 2ef6 313e 349d 14bd b9a3 c63d 28ee e03d
000002f0: 49c4 d23c b77f 743e a1d5 80bc 72cb 2d3d
00000300: 478a b6be 3b36 c13c a155 89be 7c84 e13c
00000310: 82a8 68be a17f 9cbe 5a5f 83be 42af d13c
00000320: 9a06 38be 5e27 a23d 2672 f73d cd1b 95bd
00000330: 136c b1bd 8053 33be e710 2a3e 74d1 b63e
00000340: 666e c03e ac6e d9bd 9294 963d e1a8 75be
00000350: 4dee 1e3e bc54 40be 5ca0 0abe e745 ba3e
00000360: c2e7 7ebe 4248 9e3e a59b c63d f7a7 1dbe
00000370: 4903 30bd edb1 553d 5863 afbd faa0 843e
00000380: 96e9 46be fe12 3bbe d283 a4be 0c3c 873d
00000390: 6959 abbd c73e 773e d602 0abe c4c5 843e
000003a0: e399 a93d 0887 693d 1291 1ebe 011a 0b3e
000003b0: c03e a7bd 304f cebe aebf 09bc 0e9c 923e
000003c0: 712e c23c 6f47 7cbe c5a4 10be b51c e7bd
000003d0: bf53 a53d 506b 6cbe ec18 5e3b e33b 473e
000003e0: 31f7 d33e 110c 283e 7aa9 25bd 90b0 2e3c
000003f0: 2407 8dbe 112a 52be 5e05 cabe a749 6bbd
-0.052792504 -0.15629983 -0.4052005 0.003280734 0.012215947 0.17721128 -0.02413375 0.006711457
0.10443191 0.25499177 -0.20220985 -0.09248974 0.17824116 0.23563646 -0.32491374 -0.030473359
0.29038888 0.23870228 0.008382269 -0.055616282 -0.02620191 0.17411909 -0.17188677 0.078112535
-0.14750819 -0.2631792 -0.33466133 0.3868253 0.23861095 0.16457221 -0.12728888 -0.23219708
-0.09921469 0.1277551 -0.044731032 0.15614443 -0.10108521 0.041487593 0.11589673 0.27385122
0.19874601 0.17732158 0.29702842 0.34981364 0.03715734 0.08837359 0.06674522 0.20378922
-0.41645232 0.08875329 0.475097 0.097675174 0.24898866 -0.25979093 0.17159343 -0.51011693
-0.08584184 -0.088373385 -0.13127387 0.08909512 0.101917885 -0.45533806 -0.1530089 -0.21096998
-0.118469104 -0.25873408 0.3922674 -0.25981787 0.13319217 0.03807804 0.024563227 0.13756804
0.16639322 0.38188624 0.14824243 -0.11784013 0.08242502 -0.036449444 -0.5045048 -0.19154021
-0.17034324 0.24262309 0.18421662 0.31890672 -0.012579022 -0.013953263 0.109607816 0.022248823
-0.13347365 0.12501833 -0.11143609 0.088065766 -0.22909717 0.009755847 -0.606401 0.14118135
0.32216698 -0.5117548 -0.07198913 -0.20450202 -0.12240884 0.35378617 0.24220787 -0.05388846
-0.15272115 -0.15279855 -0.2609994 -0.030363042 -0.3046174 -0.025675032 -0.2187888 -0.34639096
-0.03763925 0.15005234 -0.05645907 0.27996713 0.04806869 -0.01486226 -0.074809134 0.04163039
0.24243164 -0.16143163 -0.013037644 -0.016794724 0.14986745 -0.018442417 0.19945379 0.27608743
0.1268107 0.0531835 -0.09718891 0.4075471 0.27189684 -0.092236854 0.19362591 0.21799031
0.062903896 -0.37529364 -0.42279014 0.15110572 0.17519738 0.3430223 0.13861172 0.03844271
-0.008836039 0.09550678 0.0020723473 0.14602688 -0.28423882 -0.18750928 0.070372455 0.0054012146
-0.26466313 -0.03442634 -0.36072007 0.119490676 0.24423176 -0.21004389 0.13812128 0.06663541
-0.20025852 0.16737959 -0.20472763 0.045512617 0.0031335782 -0.11359855 -0.005921728 -0.020893907
0.058621287 -0.27374616 0.020329576 0.017312696 -0.37941056 -0.13280818 0.0042069084 -0.35212222
-0.12720217 0.1424322 0.10418911 -0.033432268 -0.17513527 -0.17175083 -0.16848901 -0.030007396
0.17379066 -0.036282733 0.09699196 0.10982925 0.025728362 0.23876844 -0.015726866 0.04243035
-0.35652372 0.02358543 -0.26823142 0.027528994 -0.2272053 -0.30566123 -0.25658685 0.025596265
-0.17971268 0.07917665 0.12082319 -0.07280693 -0.08663192 -0.17512321 0.1660801 0.35706675
0.37584227 -0.10616812 0.07352556 -0.23990203 0.15520592 -0.18782324 -0.13537735 0.36381456
-0.24893096 0.30914503 0.096976556 -0.15396105 -0.042971883 0.052171636 -0.0856387 0.25904065
-0.19425043 -0.18268964 -0.3213182 0.0660325 -0.08366663 0.24145041 -0.13477644 0.25932133
0.08281305 0.05701354 -0.15485027 0.13584138 -0.081662655 -0.4029479 -0.008407516 0.28634685
0.023703786 -0.24636625 -0.14125355 -0.11284772 0.08072614 -0.23087811 0.0033889366 0.19456439
0.4139953 0.16410853 -0.04044483 0.010662213 -0.2754451 -0.2052386 -0.3945722 -0.057443287

conv1.bias f4 [8]
00000000: f8a7 81bc 9317 56ba d663 d2bb 3a20 14bb
00000010: c47d 4dbc 5504 8abb 4ffa e5bb 9da4 32bc
-0.015827164 -0.0008166965 -0.006420593 -0.0022602216 -0.012542192 -0.004211942 -0.0070183645 -0.010903505

bn1.weight f4 [8]
00000000: ad95 813f b297 7b3f 4b6e 7d3f 32d3 7e3f
00000010: e4fe 7e3f 2e5c 823f ac62 7d3f a776 803f
1.0123802 0.98278344 0.9899642 0.9954101 0.9960768 1.0184381 0.98978686 1.003621

bn1.bias f4 [8]
00000000: 5ebd b43b ee51 063c 97da c33a 8620 82bb
00000010: 8386 3d3c 4504 9dbb 44b0 773c 093b 51bc
0.0055157384 0.0081982445 0.0014942464 -0.0039711623 0.011567715 -0.0047917687 0.015117709 -0.012770423

bn1.running_mean f4 [8]
00000000: 2a96 fb3e b4c5 023f 7d91 dd3e e351 333f
00000010: ec11 c03e 0516 e53e b6bd 943e ce5f 013f
0.49138004 0.5108292 0.4327506 0.70046824 0.37513673 0.44743362 0.29050988 0.5053681

bn1.running_var f4 [8]
00000000: bed1 963f 6804 013f 7961 183f f42e 183f
00000010: 0795 eb3e 5101 4d3f 3c7d 7a3e 1e17 5a3f
1.1782758 0.5039735 0.5952373 0.59446645 0.46012136 0.80080134 0.24461836 0.85191524

conv2.weight f4 [16, 8, 3, 3]
00000000: de1e 8c3c 0e15 233e e80d 373e 7ad7 613d
00000010: a4db 73be 6181 34bd e09c a2be 24e6 84bc
00000020: bc4a 10be 5d94 b13d bab8 ad3d 487c f3bd
00000030: 69bc ab3e a417 603d c8a5 973e a128 0fbe
00000040: b0b9 36be e821 74bc a4cf 993d cb79 18be
00000050: b1df f23d 5604 1c3e b412 533e 5b14 483b
00000060: dd31 033e 145d 40bd 1252 1f3e b250 e2bd
00000070: fe68 5c3d 5e67 f33c b860 96bd 7227 b13e
00000080: ab84 df3d e490 5cbe f141 b33d 365c 2e3e
00000090: 936a ba3b 3689 5a3e 3310 f4bc 8536 ed3d
000000a0: 3430 103e b698 58be 0a58 cf3e 3189 603d
000000b0: fe23 0fbe 6757 2f3e c0f6 993e 2441 443e
000000c0: f78b 303c eb11 d83c 1469 d53d afa8 603e
000000d0: a24a b23e 23eb 423e 688e 76bd 88bc 4bbd
000000e0: 93a2 723e 7ba4 793e e1d5 973c bbd1 24be
000000f0: fd89 0dbe 7fb0 c43d 9039 073d ce55 3abd
00000100: 18de 0dbe 62c7 553e c6f2 043d 38fa a23d
00000110: 2282 523e bdc4 81bd d9f0 373e 4038 1abd
00000120: 49e5 773e 90f2 fc3d a24e b03d 66fa 473e
00000130: 8e83 843e 837a f43a f6ed 9ebd e648 00be
00000140: 2e96 e83d 11e3 78bd b8d8 60be 7daa e93d
00000150: d6ca ae3d bd88 ecbd 034a 1ebe 0af8 763d
00000160: ae5c 203e 4781 5f3e f478 543e e21b c93d
00000170: 565c 133d 1480 f9bd 819b 5ebe 75e6 843e
00000180: d52a 39bd 92fa b2bd 5bb9 bbbe 76aa 66bd
00000190: 8374 9dbd d5a2 ddbe 8dda e9bc f0bd 91bd
000001a0: e858 fb3d d3d1 3cbd e9d1 9cbe 05a1 acbd
000001b0: efbe a03d 8c27 f6bd dbe5 6abe 10f7 29be
000001c0: 8788 5bbd 6b0d e03d 1c20 9abe 2d47 703d
000001d0: f38d 7d3e b04f ff3d 69ab 083f de55 4ebc
000001e0: 79fe d7bd 0c61 223e 033a 4c3d fb83 3c3d
000001f0: 3e00 893e 7c67 aebe b06f 2c3d c68e 393e
00000200: 1b11 1b3e 45e1 91bd 62da 283a c9b2 013e
00000210: de58 623e 2d1a 7fbe 6911 dabd b7e4 aa3e
00000220: 4136 3a3e 6471 313e c152 c23d 9645 81be
00000230: 91e8 dfbd dceb babd 817b ddbc 41d8 dabc
00000240: f8c0 a33e dfa0 70bb a4dc a43d 33dd 603e
00000250: 53d1 3f3e f29e 06bd 9cb9 6a3e 2f15 d2bd
00000260: bb3a 84be 55f3 22be 0f06 cdbd 8238 babd
00000270: 78f3 163e a148 77bd e8a9 ae3e db57 9dbe
00000280: b4ad 6dbe fd94 c8bd fa90 8fbe 8456 d8bd
00000290: a763 213c e0e7 a03d d292 813d 76da df3d
000002a0: 6fdf 97be 07ce 733d 9f28 aabc cc20 2a3e
000002b0: 983f 59bd 6ec1 c4bd 45d0 9cbd e756 7abe
000002c0: cb61 a3bd 6447 bebe 48ce f83d 245e 54be
000002d0: b5b7 cebc 0d85 2a3d 351b 953e f2de c73d
000002e0: 7ca4 96bc b878 eb3d 5934 f43d 9264 c5bd
000002f0: e8a0 17bd e2a4 c23d f9ae 643e c36a c03d
00000300: b066 f2bb 0019 553d 82fe 89be e374 7d3d
00000310: c5a6 16be 1e9c 9abc a3de df3d 373e ae3e
00000320: 629b 7b3d 852a 523e 85e0 4bbe 2351 203e
00000330: 89ae ccba c1a5 d83d 1c5b a7be fefb a33b
00000340: e5f7 28be 2ef5 20be 23be a2bc a01f 9d3e
00000350: 8a8a 3bbd 5c6e c13d 6b57 ca3c 21d2 5f3d
00000360: 4906 f93c 670a a5be 34d9 45bd cac6 db3e
00000370: fc1f cbbc b6ef edbd 6e77 093b 485a 80be
00000380: 6840 32be 17c3 24be c792 5f3e 5f5f 9bbd
00000390: 5596 553e ac85 5b3e 5995 353d 938b ef3d
000003a0: 9cc3 243d 169e 353d 1bcc 4cbe 82bd 47be
000003b0: abeb 473e 7609 a03e 6b37 3ebc 794a 1c3e
000003c0: a5e6 c03d fa94 6a3e 4573 bcbd 05ed 5cbd
000003d0: 8f47 7d3e 10a9 35bb ef02 0e3e 3e3b febd
000003e0: 349d f9bd 304c c33c 721c dfbd 2f4b 343e
000003f0: 663b 70bc 0add f83d 26b6 193e 707f 72bd
0.017104562 0.15926 0.17876399 0.055137135 -0.23814255 -0.044068698 -0.3176031 -0.01622302
-0.14091009 0.08670876 0.084824994 -0.11888939 0.33542183 0.054710045 0.2961867 -0.13980342
-0.17844272 -0.014900662 0.075103074 -0.1489021 0.11859072 0.15236029 0.20612603 0.003052971
0.1281199 -0.046963766 0.15558651 -0.11050548 0.053811066 0.029712375 -0.073426664 0.34600407
0.10913976 -0.21539646 0.08752812 0.17027363 0.005688974 0.21341404 -0.02979288 0.115826644
0.14080888 -0.21152005 0.40496856 0.054818336 -0.13978574 0.17123185 0.30071068 0.19165474
0.010775558 0.026375731 0.10420433 0.21939348 0.34822565 0.1903501 -0.060194403 -0.049740344
0.2369483 0.2437915 0.018534603 -0.16095631 -0.1382217 0.096039765 0.03301388 -0.045491986
-0.13854253 0.2087684 0.03245809 0.07957882 0.20557454 -0.06336353 0.1796297 -0.0376513
0.24208559 0.123509526 0.08608748 0.19529113 0.25881618 0.0018652234 -0.07760231 -0.12527809
0.113567695 -0.060763422 -0.21957672 0.11409471 0.08534782 -0.11549518 -0.1545792 0.060295142
0.15660354 0.21826659 0.20749265 0.09819771 0.03597673 -0.12182632 -0.21739008 0.25957075
-0.045206863 -0.08739199 -0.36664852 -0.056314908 -0.076882385 -0.43288293 -0.028546596 -0.07116306
0.12272817 -0.04609854 -0.306289 -0.084291495 0.07848918 -0.12019262 -0.22939245 -0.16598153
-0.053597 0.10940059 -0.30102623 0.05866163 0.2476118 0.12466371 0.5338655 -0.0125937145
-0.10546584 0.15857333 0.04986001 0.046024304 0.26757997 -0.34063327 0.0420987 0.1812087
0.15143244 -0.07123045 0.0006441233 0.12665857 0.22104213 -0.24912329 -0.10647852 0.3337762
0.18184759 0.17328411 0.0948844 -0.25248402 -0.109330304 -0.09127018 -0.02703643 -0.026714446
0.3198316 -0.003671698 0.08049896 0.21959381 0.18732195 -0.032866426 0.22922367 -0.10257947
-0.25826058 -0.15913136 -0.10010921 -0.09092809 0.14741313 -0.060372 0.34114003 -0.3073109
-0.23210794 -0.09794042 -0.28040296 -0.105633765 0.009850419 0.07856727 0.06326832 0.1093034
-0.29662654 0.059522655 -0.020771323 0.16614074 -0.053039163 -0.09607206 -0.07656912 -0.24447213
-0.07977637 -0.37163842 0.1214872 -0.20739037 -0.025234083 0.041630793 0.2912232 0.0975932
-0.01838898 0.11497635 0.11924047 -0.09638323 -0.037018687 0.09504105 0.22332372 0.09395363
-0.007397495 0.052025795 -0.26951987 0.06187905 -0.14712055 -0.01887327 0.109311365 0.3403184
0.06142748 0.20524032 -0.19909866 0.15655951 -0.001561598 0.1057849 -0.32686698 0.005004405
-0.16500814 -0.15718529 -0.019866055 0.3068819 -0.045786418 0.094448775 0.024699887 0.054643754
0.030398505 -0.322345 -0.048302844 0.42925102 -0.024795525 -0.11617987 0.0020975727 -0.2506888
-0.17407382 -0.16090046 0.21833335 -0.0758655 0.20858128 0.2143771 0.044331882 0.116965435
0.04022561 0.044340216 -0.19999735 -0.19505885 0.19523494 0.31257218 -0.011609892 0.15262784
0.09418992 0.22908393 -0.092016734 -0.053936977 0.24734329 -0.0027719177 0.13868307 -0.12413643
-0.12188187 0.02384004 -0.108940974 0.17606805 -0.014662599 0.12151535 0.1501089 -0.059203565

conv2.bias f4 [16]
00000000: eb5a c33b d01b 253c 1077 0bbb ebe7 143b
00000010: e13a 463c 085f 81bb 54a5 f2bb f08c 9339
00000020: 904c 1c3b 813f 51bc 3e79 a33c a2ca d63b
00000030: 411a f93a 5d34 c2bb 40b7 cbbc 6e7f ab3b
0.005961766 0.010077432 -0.0021280684 0.0022721242 0.012098999 -0.003948096 -0.0074049626 0.00028143032
0.0023849346 -0.012771488 0.019955274 0.0065549174 0.0019005017 -0.0059266523 -0.024867654 0.0052336967

bn2.weight f4 [16]
00000000: e22a 823f 0797 7b3f cca9 803f 0d83 813f
00000010: 929f 7f3f ec56 823f 6c15 7e3f 2544 803f
00000020: 5c18 843f 698f 7c3f 5491 7b3f dae5 7a3f
00000030: 57a7 823f 794c 7f3f c6d1 7a3f 8e3d 7b3f
1.0169337 0.98277324 1.0051818 1.0118119 0.9985286 1.0182776 0.9925144 1.0020796
1.0319934 0.98656327 0.9826863 0.98006976 1.0207318 0.99726063 0.9797634 0.981408

bn2.bias f4 [16]
00000000: 11d3 c0bc 658f c4bb 3af3 95bb 31a4 213a
00000010: 3258 f63b 9a02 76bb eb6a 0abc 5da1 cf3b
00000020: 06ec adbb d4ed 66bb 9046 233c 27e4 053c
00000030: 57f1 153a 3ee4 64bc 33e6 38bc 1472 f6bb
-0.023538144 -0.0059985393 -0.004576114 0.0006166129 0.007517838 -0.0037538172 -0.008448343 0.0063363747
-0.005307677 -0.0035236971 0.009965554 0.008172072 0.00057198614 -0.013970433 -0.0112853525 -0.0075209234

bn2.running_mean f4 [16]
00000000: 5988 033f 80aa 233f cc0c 263f 16c6 cd3e
00000010: dc34 d23e 1188 153f edce d33e 6628 013f
00000020: 9a9d 3a3f afa6 063f bacb 313f 62d4 053f
00000030: 6e2f 0a3f fa15 e43e c50e c73e 58bf 003f
0.51379925 0.6393204 0.64863276 0.4019019 0.41055954 0.58410746 0.4136881 0.5045227
0.7289673 0.5259809 0.6945149 0.52277195 0.5397862 0.44548017 0.38878456 0.5029197

bn2.running_var f4 [16]
00000000: 35e7 8d3f 1331 d73f ad27 d83f 0e58 043f
00000010: 3f2f 3d3f 8449 1140 1e61 b03e 4217 f33e
00000020: 1d05 3140 8391 063f 2a79 263f d6cb 363f
00000030: 75c2 9c3f 686a 1e3f eb46 a53e 1eb1 e73e
1.1086184 1.6811851 1.6887108 0.5169686 0.73900217 2.270112 0.34449095 0.47478682
2.765937 0.52565783 0.6502863 0.7140478 1.2246844 0.61881113 0.3228067 0.45252317

conv3.weight f4 [32, 16, 3, 3]
00000000: ffef 97bd 138e 54be 84ec d1bd 458d 383c
00000010: dbe0 a53d bac9 1abd b48b 013e 6cc7 a33d
00000020: c6c4 cd3d 7c54 9fbd d671 17bd 25a7 02be
00000030: a7a6 e73c 2d6e 153e eba0 e9bd e433 d23d
00000040: d647 d73d 3e4b 1e3e b3bd 4d3d 8137 0e3e
00000050: 2177 3fbe cf12 a73d 2e8d 3c3e 560b c6bc
00000060: f4a7 5cbe eec4 de3c 1893 39be cfa2 e33b
00000070: 39ff 3a3e a1ec 473e 70ec 23bd 653f c43d
00000080: 4bcf 903e bf0b 273e 0a0f 863c 3974 d7bd
00000090: 7995 093e e432 d93d 3bf4 9d3d 8de8 54bd
000000a0: 2ae1 393a c429 01bd c178 9ebd 8b23 6fbe
000000b0: 1a6d aebd 72a4 44be 5e3c c33c 5b48 653d
000000c0: cc50 a43d 403a 543e 4ebf fdbc 018c 523e
000000d0: c6be cabd c5d0 c03c 38e9 d13c af9b 92be
000000e0: c86d 2cbe 00af 3cbd 4731 883e 90f8 f03d
000000f0: 85d5 3ebe 0111 903c c70b 1e3e 5907 4b3d
00000100: 2d56 8bbc c9f1 113e 33dc 9fbd 32c6 92be
00000110: 8741 2a3d 507a cdbd fe6f fb3d 079f 6f3e
00000120: 0ba9 8dbd 5dc8 923d 89c6 543e d0a2 8dba
00000130: 3ae8 993c daa8 acbd c9dd 84be 8bb4 03bd
00000140: 3321 97bd 779a b63c 8773 4c3c f6e9 18be
00000150: 23a7 ee3d c32f 1fbe 0422 0e3e 3b71 dbbc
00000160: bc40 023e 2c81 21be 9e2f 9fbd 29b2 e7bc
00000170: 0e74 c23d 034f d2bd af0f 853d 2831 64bd
00000180: 6aa1 01be d6ec 43bd 3b23 be3c 4001 e03c
00000190: 23f9 963c 84d4 27be f7ae e03d 645f 92be
000001a0: 545a 73bc ac53 313e d2a1 a8bd 69b4 033e
000001b0: 6875 0f3e ee54 0cbe abff 783d c4ca 2fbd
000001c0: 7f30 4a3e 339f f0bd 7e7e 30be 444d c83d
000001d0: 0d12 923d 6297 9fbd e367 c93d 9677 9e3c
000001e0: 3333 ebbc 0fef 983e 63ff a6bd 29ca 023e
000001f0: 3f67 553e 6662 20be 027d df3d 61d9 1c3e
00000200: 09c8 adbc 6c2d babc b321 1c3d 33bd 3dbc
00000210: ef6f d53c 0c7f 903d 8daf 803d 4400 10be
00000220: d58e 75be 4942 92bd 672e 18be bc96 f7bc
00000230: e6e1 1b3d a9bd 7fbd 8ce6 1c3e fa9d 84bc
00000240: 427d 3e3d da0e fcbb 7a65 afbd 682b 67bd
00000250: a864 44bd cc08 6c3d 526f 55bd d192 203e
00000260: 8ab5 213d fb9e 7f3e fc17 3c3e b1fa 3c3c
00000270: d0a9 663e 52ba 11be 3090 bc3d 0110 0fbe
00000280: 3279 5b3d 67a4 5b3e 961e 00be c465 a13d
00000290: 0cb9 f83d 0d83 cf3c 5ea6 d8bc 1b35 2f3e
000002a0: a319 213d 4cf6 3a3d 2d7e c03d aa0e 76bd
000002b0: eb2a e4bd 3136 a6bc 32d2 9f3d f8d3 46be
000002c0: c5c3 57bd 8d2d 72be 0bf3 b5bd 17fe 0f3e
000002d0: e50f 12bd 13fd 8fbd 0a7e 233e 6724 b23d
000002e0: eaeb edbc 15ec 84be 3c43 033d 6a71 1a3e
000002f0: db6e ca3d 1e5a f5bd 0e22 b03d 89fe 293d
00000300: d39d 01be 0d55 ee3d e822 0f3e e975 b7bd
00000310: 2443 d6bd eb55 a83d 079a 16be 4810 63bc
00000320: b8df 0c3e 6750 0e3c fef6 fa3b b3b7 0bbe
00000330: 5392 143e 2690 c33d 9033 f13d cdd7 1ebd
00000340: 5a86 783c 079a 81bd d54c f0bd 2633 8d3d
00000350: 98fe 78bd 1858 1cbe 4e41 8a3d 98a9 d63c
00000360: 669b d2bc 51b4 a0bc 268a 883e 4684 23be
00000370: 2b6a 6ebd 8111 c63c 58b2 4fbc dd52 ac3d
00000380: e01f 193e 8a0e 153e 8194 d5bd 482d b7bd
00000390: 45e5 903d d2c0 a53e 7ba5 adbb be43 3e3c
000003a0: ac72 873d 02ad bf3c a46d c5bc 43cb 0f3c
000003b0: 7431 3e3d 7936 12be 2437 983d 09c8 783d
000003c0: 620b b93d 7f36 0f3e dbaf 8a3c 0d67 46be
000003d0: 1588 9a3d 50bf 2a3d a39b 573e e297 e93c
000003e0: cf07 0bbe 1eb6 febd 287a 153e 2071 d93d
000003f0: 265e c23d 5f65 633e f1b9 563e d654 eb3d
-0.074188225 -0.20757322 -0.1025019 0.01126415 0.080995284 -0.037790038 0.12650949 0.07997021
0.10047297 -0.07779786 -0.036973797 -0.12759073 0.028277708 0.1459281 -0.11407646 0.102638036
0.105117485 0.1545839 0.05022974 0.1388836 -0.18697788 0.08157884 0.18413231 -0.024175327
-0.21548444 0.027193513 -0.18122518 0.0069468985 0.18261422 0.1952386 -0.040020406 0.09582404
0.28283152 0.16313075 0.016364593 -0.105202146 0.13435926 0.1060541 0.07712599 -0.05197959
0.0007090742 -0.03153397 -0.07737876 -0.23353402 -0.08516903 -0.19203356 0.023832496 0.055977207
0.08023223 0.20725346 -0.03097501 0.2056122 -0.098996684 0.02353705 0.025623903 -0.28634402
-0.16838753 -0.04606533 0.26600096 0.117661595 -0.18636139 0.017586233 0.1543418 0.049567554
-0.017008865 0.1425239 -0.078056715 -0.28666836 0.041566398 -0.10033095 0.1227722 0.23400508
-0.06917008 0.071671225 0.2077886 -0.0010805968 0.018787492 -0.084306434 -0.2595046 -0.0321546
-0.07379379 0.022290451 0.012478716 -0.14932999 0.116529725 -0.15545563 0.13880163 -0.026787391
0.12720007 -0.15771931 -0.07772754 -0.028283196 0.09494792 -0.102689765 0.06497132 -0.05571094
-0.12659231 -0.047833286 0.023210159 0.027344346 0.018429345 -0.16389662 0.10970872 -0.28588402
-0.014853079 0.17317075 -0.0823399 0.1286179 0.1400963 -0.13704273 0.0607907 -0.04291798
0.19745062 -0.11749115 -0.17235753 0.09780362 0.07132349 -0.07792546 0.09834268 0.019344132
-0.028710937 0.29869887 -0.0815418 0.1277243 0.20840167 -0.15662536 0.10912515 0.15317298
-0.021213548 -0.022726737 0.038118076 -0.011580753 0.02605435 0.07055482 0.06283484 -0.14062601
-0.23980267 -0.07141549 -0.14861451 -0.030223243 0.03805723 -0.062436733 0.15322322 -0.01618861
0.046506174 -0.0076922 -0.08564277 -0.05643788 -0.047947556 0.057625577 -0.052108116 0.15681006
0.03947977 0.2496299 0.18368524 0.011534379 0.22525716 -0.14231232 0.09207189 -0.13970949
0.053582378 0.21449433 -0.12511668 0.078807384 0.1214467 0.025331045 -0.026446518 0.17110102
0.03933109 0.045645043 0.09399066 -0.06007258 -0.111409985 -0.020289512 0.078037634 -0.19416797
-0.052676935 -0.23650189 -0.088842474 0.14061771 -0.03565969 -0.07030692 0.15966049 0.086983494
-0.029043157 -0.25961366 0.03204654 0.15082327 0.09884425 -0.11980079 0.086002454 0.04150251
-0.12657861 0.11637316 0.1397816 -0.089580365 -0.10462025 0.082195126 -0.14707194 -0.013858862
0.13757217 0.008686162 0.0076588383 -0.13644294 0.14508943 0.095489785 0.11777413 -0.038780022
0.015168751 -0.063282065 -0.117334045 0.068945214 -0.060789675 -0.1526798 0.06750737 0.026203915
-0.025708865 -0.019617232 0.266679 -0.15968427 -0.05820672 0.024178268 -0.012676798 0.084142424
0.14953566 0.14556327 -0.104287155 -0.089441836 0.0707498 0.32373673 -0.005299268 0.011612831
0.06613669 0.023397926 -0.024100132 0.008776489 0.04643388 -0.14278592 0.07432392 0.060737643
0.09035374 0.13985632 0.016929558 -0.19375248 0.07545487 0.041686356 0.21055464 0.028514806
-0.13577197 -0.1243708 0.1459738 0.1061728 0.09490614 0.22206639 0.20969369 0.114907905

conv3.bias f4 [32]
00000000: 0ddd 723c 3b4f 403c b78b 5b3c ec6e 56b9
00000010: 4663 4f3c 9aba 1dbb 193c 353c 572e 0fbc
00000020: 1085 873c 1b6e 603c df82 603c b354 bf3b
00000030: 2eb7 0fbc 3c18 753b df75 71bb 0e75 003c
00000040: 8249 1fbb 761f 39ba f1b5 c93b 1f8e 543c
00000050: e23d 113c 01b1 49bc 0346 5ebc 814f c6ba
00000060: 9172 fabb 80a0 8dbc 89e2 db3b 5e9f b7bc
00000070: cb2e 4cba d73f 47ba 1a80 95bb cf3e 0e3c
0.01482321 0.01173764 0.01340001 -0.00020449952 0.012657946 -0.0024067522 0.011061692 -0.008739076
0.016542941 0.013698126 0.013703077 0.0058389544 -0.008771701 0.0037398478 -0.0036843938 0.007840408
-0.0024305289 -0.0007061878 0.0061557223 0.012973337 0.008864852 -0.012310267 -0.013566497 -0.0015129895
-0.007643052 -0.017288446 0.0067103547 -0.02241486 -0.0007788955 -0.00076007604 -0.00456239 0.008681967

bn3.weight f4 [32]
00000000: 9d36 803f 4ff9 803f 6aa7 7b3f be8e 833f
00000010: b095 813f c9f1 823f 585e 823f 3ac2 7a3f
00000020: cfd2 7e3f 76ed 7a3f 5f43 813f 3e1d 7c3f
00000030: 7645 803f e850 823f ef58 813f 5eb9 7d3f
00000040: 798b 803f 8a85 7a3f cf84 7b3f 1417 7e3f
00000050: e825 823f 4beb 783f 3acf 813f 5b29 843f
00000060: 79e8 793f ba27 7b3f 49ee 783f 5c43 833f
00000070: df12 7f3f d425 7d3f deaa 7a3f 3489 7c3f
1.0016667 1.0076083 0.9830233 1.0277936 1.0123806 1.0230037 1.0185041 0.97952616
0.9954042 0.98018587 1.0098685 0.9848212 1.0021198 1.0180941 1.0105265 0.9911097
1.0042564 0.97860014 0.98249525 0.99253964 1.0167818 0.9723403 1.0141366 1.0325121
0.9762035 0.9810749 0.97238594 1.0254931 0.9963817 0.98885846 0.9791697 0.98646855

bn3.bias f4 [32]
00000000: 788a d63a 5137 a3bc 52b2 a5bb bc96 d43c
00000010: f374 50bb a790 f0bc bbcf 79bc 8cb8 6c3c
00000020: 620d 683c 1f65 9b3c 93f1 cd3a 2885 1ebc
00000030: 6918 bcbc 627c 11bc a829 40bc e867 4fbb
00000040: 75b8 57bc 38e0 03bc d60b df3c 4876 bb3c
00000050: 4815 e3bc 4877 e53b 10be 2d39 9d2f 04bd
00000060: 394b 813c fcf3 53bc 156f fa3c 87bd 0dbd
00000070: 8536 9b3c 5da6 963c 284a d8bb f993 d23c
0.0016368171 -0.019923838 -0.005056658 0.025950782 -0.0031807988 -0.02936585 -0.015247281 0.014448296
0.014163347 0.018969117 0.0015712254 -0.009675302 -0.022960858 -0.008879753 -0.011728682 -0.0031647626
-0.013166537 -0.008049063 0.027227324 0.02288355 -0.027720109 0.007002745 0.0001656937 -0.03227197
0.01578294 -0.012936588 0.030570546 -0.034604575 0.018946895 0.018389875 -0.006600637 0.025705324

bn3.running_mean f4 [32]
00000000: fdc9 fd3e 793d 1c3f c6a4 e03e 38b7 063f
00000010: 3c43 043f f58f 0b3f 3a62 5e3f 8681 ee3e
00000020: 758c 143f 2359 583f a4d5 753f 703d 113f
00000030: a3aa 173f 8b5b f83e ad7c fc3e 8285 373f
00000040: bc26 e83e 6db2 ed3e 182d 043f 481b 3b3f
00000050: 240e eb3e b95f ed3e eada 0c3f a4b3 1a3f
00000060: de39 083f 001e 0e3f 4136 cb3e 04e6 2b3f
00000070: a951 0b3f 55b8 123f b959 e33e df9c 013f
0.49568167 0.610313 0.43875712 0.5262332 0.5166509 0.54516536 0.8686863 0.46583194
0.5802682 0.8451101 0.96029115 0.5673437 0.59244746 0.48507342 0.4931387 0.7168809
0.45342052 0.4642519 0.5163131 0.730885 0.45909226 0.46362093 0.55021536 0.6043036
0.532133 0.55514526 0.3968983 0.6714785 0.5442148 0.5731252 0.4440439 0.5062999

bn3.running_var f4 [32]
00000000: ca3d 633f 0bef f33f 13a6 233f 3ff3 013f
00000010: b24a 863f 68ae 963f 051b 9d40 a43e cf3e
00000020: c907 043f e68f 923f bd90 623f 5ab7 1b3f
00000030: 1970 933f 25ec 0e3f 5beb 4d3f 1151 203f
00000040: 4806 193f 6c44 de3e 54ff de3e 5d10 363f
00000050: 5d7c 1f3f 774f dd3e 4d63 5c3f 0270 e23f
00000060: 9c2c e93e ce17 3d3f 0360 bb3e d4e1 1e40
00000070: d520 093f ca45 273f 538a 173f c67e ff3e
0.8876616 1.9057325 0.63925284 0.5076179 1.0491545 1.1771975 4.9095483 0.40477479
0.5157438 1.1450164 0.88502103 0.6082665 1.1518584 0.5582908 0.8043725 0.626237
0.5977521 0.43411577 0.43554175 0.7111872 0.6229914 0.4322469 0.8608902 1.7690432
0.45541847 0.7386445 0.3659669 2.4825335 0.5356572 0.65340865 0.5919544 0.49901408

conv4.weight f4 [64, 32, 3, 3]
00000000: 60b6 73bd 183c 6cbd 7e58 d1bc 40d4 c4bd
00000010: 8ef0 133e 1c8c 3c3c d2d1 88be 46a9 0a3d
00000020: 4c89 7e3d 9e9f 523d 2d76 e73d 41cf 24bd
00000030: 75b5 a9bd 488b 9cbc 3e67 963d 5944 913d
00000040: c4fb 9c3d 0721 1c3e 658f d3bc b528 813d
00000050: 5703 9abc 2799 963d 6e47 67bd 97be 743d
00000060: 7f14 58be e37f b73d 991a 933c 3c2f c4bd
00000070: df4b 79bd fa6a df3d ca52 b4bd 2b07 19be
00000080: c66c 4cbd 91e3 023c 3a7d 433e 65c9 3cbd
00000090: ee93 e73d 6000 8cbd 36fa 13bd c88f 84bb
000000a0: 34f6 da3c 1185 a13c 6b14 333d 5cba dbbd
000000b0: 0dfc 26be c7e5 dabd 4250 16bd 9e10 103e
000000c0: 47cb f5bc fc92 19bd cf51 32bd 13a1 a33c
000000d0: 9f45 913d 1e28 8cbc 9bef fdbc 023f 543d
000000e0: a96a 83bd 1580 cdbb d6c0 81bd 2bee a3bc
000000f0: 8a7a f7bc 3231 eabd ec1a 02bd e09a 85bd
00000100: 1cd8 27bd 6e72 6abd a60a 60bc 18f6 2ebe
00000110: 65cc c13d cb5f 35bd 2dbb b9bd 51cb 053e
00000120: 7793 213c 7801 6e3b 5c58 ea3b b1b8 193d
00000130: 8c70 83be 28f3 1cbe e6b3 a7bc 7c81 e8bc
00000140: 8d17 0cbe dd98 9b3c 350a 85bd c6fe 68bd
00000150: db4d 1ebe 5b82 02be fe1c 433d e6e8 f6bd
00000160: ef6d 7d3d 84eb 07be 6480 723e 9ec7 bf3d
00000170: dc1d 223e 29fe 91bc 6633 393d 79df a8bd
00000180: 1566 c13a 7197 06bd abfa a7bd 1cf7 843d
00000190: 56bc 093d 1c4e a3bb 61bb e03d 8fd1 06be
000001a0: 7188 5dbc 43aa 953c 4c3b 96bc def4 06be
000001b0: b34f f4bd 4598 073e c21d 27bd 371a 033e
000001c0: a756 133d 9a55 12be 61d9 a33d ed74 77bd
000001d0: 5316 8dbd 39bf d4bd 6e1d 6cbd ca29 07be
000001e0: 883e 0c3d d9ef a9bd b5e4 fe3d fe60 55bd
000001f0: 6e2a 8e3c 81a1 09be 31e7 4e3e 308c 99bb
00000200: 7e28 afbd da5b 16bd 9391 a53c 0a79 7dbd
00000210: 2219 223d 5f70 b53d 17bc 993d f34a 45bc
00000220: 32ac 673d b5ef 56bd e535 123e 3c8a 723d
00000230: 579f 403d 1ec7 d5bc d9d2 183e 3766 92bd
00000240: d6e0 eebd 145a 363d 26c2 aa3d ab20 cdbc
00000250: 3f6c 373d 3f37 dabb 0aff ac3d b545 153d
00000260: c8ad 1d3d 4b2b 57bd 7a49 5abd 79fd bbbd
00000270: 33a4 a6bd c5d6 493c 9369 893d f696 333e
00000280: 747a 80bd fafb d2bd 110f 65bb b789 2f3e
00000290: f108 ecbc 4642 803d 784e 303d cb65 0c3c
000002a0: 12f1 24bd a950 3ebd 3b1e 2c3d 97e0 f6bd
000002b0: a6cd 063e 98d0 313c 2710 79bc 11e0 8a3c
000002c0: 1a2e 64bd 3da1 903d 2a72 52bd 5f5d 5f3c
000002d0: 6f32 f33d b47e 5ebd 0501 acbd 850d 173e
000002e0: e453 80bb 5fec c63c 2880 24be f81d 093e
000002f0: 8836 a13c 2d9d 3e3d 0ccc 383d b2b0 cf3c
00000300: 32e1 ddbd 31de bcbd 0a91 ee3d 8c52 ae3c
00000310: 6505 d63d 0771 7dbb 8c2d 763c 7383 a9bd
00000320: b18b 95be e99a 4a3d 857c 6ebd ddb4 50be
00000330: 08f5 53bd 10ef afbd 6622 1bbe 1cb0 92bd
00000340: 9fe3 ae3c c849 eebd a91b 06bd fbec b7bc
00000350: 1145 5abc a5fd 95bc 2d0d cc3d ef1e a33d
00000360: d2ff e13d 5580 38bd 2c51 4fbd f397 7c3d
00000370: 2254 403c 9bcd d7bc 37e9 b0bd 614f 173d
00000380: 3cfc 1cbd 6f4e 83bc 2807 9f3a e7af 0ebd
00000390: 5100 a4bd 0aa7 293c 41ac b9bd 79ec 2fbd
000003a0: 6f79 03bd 05af 1abd db58 2cbb 2a31 cabc
000003b0: 5586 14bd 6081 d2bc b545 773d 6ba5 bf3d
000003c0: c242 c0bd 93f6 153b 6b70 913c 4f77 f13d
000003d0: 3620 dc3d cb43 59bd e3c5 92bd 7d1f df3d
000003e0: 17e7 573d e26d 113e 1ece 383e 4cfa 893d
000003f0: 0aa8 093e d291 95bc ea1a d7bc bdbe a03c
-0.0595001 -0.057674497 -0.025554892 -0.09610796 0.14447233 0.011508014 -0.2672258 0.033852838
0.062142655 0.051421754 0.11301837 -0.040236715 -0.08286563 -0.019109383 0.07343911 0.070931144
0.07665208 0.15246974 -0.025825212 0.063065924 -0.01880042 0.0735343 -0.056464605 0.059752073
-0.21101569 0.08959939 0.017957019 -0.09579322 -0.060863372 0.10909076 -0.08804853 -0.1494414
-0.049908422 0.007988826 0.19090739 -0.046090502 0.11307512 -0.06836009 -0.03612729 -0.0040454604
0.026728727 0.019716771 0.043720644 -0.107289046 -0.16307087 -0.10688358 -0.036697634 0.14068839
-0.030004157 -0.03749369 -0.04353505 0.019974267 0.07093357 -0.017108973 -0.030998042 0.0518179
-0.06416828 -0.006271372 -0.06335609 -0.020011028 -0.030209798 -0.114351645 -0.031763956 -0.06523681
-0.040977582 -0.057238035 -0.013674414 -0.17086065 0.09462813 -0.04428081 -0.09068904 0.1306584
0.0098618185 0.0036316793 0.0071516465 0.03752965 -0.25671804 -0.15327132 -0.020471524 -0.028382055
-0.13680859 0.01899379 -0.064960875 -0.056883596 -0.15459387 -0.12745039 0.04763507 -0.120561406
0.06187242 -0.13273436 0.2368179 0.09364246 0.15831703 -0.017821388 0.045215033 -0.08245749
0.0014755154 -0.03285927 -0.08202108 0.06492445 0.033626877 -0.0049836766 0.1097324 -0.13165878
-0.0135213 0.018269664 -0.018338822 -0.13179347 -0.11929264 0.1324168 -0.040799864 0.12802969
0.03597131 -0.14290467 0.08000446 -0.060414243 -0.06889024 -0.10388035 -0.057645254 -0.13199535
0.034239322 -0.082977004 0.12445966 -0.052094452 0.017354216 -0.13440515 0.2020538 -0.004685901
-0.08552645 -0.03670869 0.020211017 -0.06188301 0.03957475 0.08859324 0.075065784 -0.012041795
0.056560703 -0.052474696 0.14278372 0.05921386 0.04702696 -0.026095923 0.14924182 -0.07148402
-0.11663978 0.0445195 0.08337812 -0.025039991 0.044780966 -0.006659418 0.08447082 0.03644343
0.03849581 -0.05253152 -0.05329273 -0.091792054 -0.08136787 0.012319271 0.0670959 0.17538056
-0.06273356 -0.10301967 -0.0034951607 0.17142378 -0.028812857 0.06262641 0.043043584 0.008569191
-0.040268965 -0.046463642 0.042021018 -0.12054556 0.13164386 0.010852955 -0.015201605 0.016952546
-0.05570803 0.07062004 -0.051378407 0.013633101 0.11874854 -0.054320052 -0.08398632 0.14751251
-0.0039162505 0.024282632 -0.16064513 0.13390338 0.019679323 0.046536613 0.04511647 0.02535281
-0.10833968 -0.09222067 0.11648758 0.021279596 0.10450248 -0.0038672106 0.015025508 -0.08277025
-0.2920814 0.04946414 -0.05822422 -0.20381494 -0.051747352 -0.085905194 -0.1514984 -0.071624964
0.021348773 -0.116351664 -0.032741223 -0.022451868 -0.013322131 -0.018309424 0.099634506 0.079648845
0.11035122 -0.045044262 -0.05061452 0.061668348 0.011738809 -0.026343158 -0.08638232 0.036940936
-0.038326487 -0.016028611 0.001213287 -0.034835722 -0.08007873 0.010354767 -0.09066058 -0.042950127
-0.03209823 -0.037764568 -0.002629808 -0.024681646 -0.03626092 -0.025696456 0.060369212 0.09357723
-0.09387733 0.0022882565 0.0177538 0.117903344 0.10748331 -0.053043168 -0.0716665 0.10894678
0.05271062 0.14202073 0.18047377 0.067371935 0.13443008 -0.01825801 -0.02625795 0.019622201

conv4.bias f4 [64]
00000000: 4641 deb9 2b31 d83c f522 ec3b 0028 b43b
00000010: f923 0fbc 1f7a 76bb 4d94 9d3b 980b aebc
00000020: 5e7c c4bc 3425 c83b 0fd6 093b 08c2 753c
00000030: fe8d 8cbb f392 bf3c 388e 253b a373 ab3b
00000040: a818 6cbc 0f89 20bc 6af0 d43a 88c8 6bbc
00000050: 9819 f63b 67c5 daba a355 343c b1e3 073c
00000060: b484 783c c48d 883c 1695 9c3b bbf3 02bc
00000070: 313b ae3c 5707 803c 6885 85bc 6e56 17bc
00000080: 6ef9 3f3b 7bf1 493c a31c 023d 9059 723b
00000090: 54c5 463b be00 45bc f325 b2bc 207d 453b
000000a0: 1003 af3c 8d41 f83c e7eb 19bc e8a0 f7bb
000000b0: 3988 03bb 69ed 08bc 4872 823c eb3e 08bc
000000c0: f676 6d3c 882f b0ba 3aa7 93bc 37d0 92bc
000000d0: 0c67 7b3b 1045 053d b68a 29bc 709c d93a
000000e0: 51b0 71bc 596a 093c 4181 86bb 7396 b33c
000000f0: 1a90 a3bc c15d 65ba df29 5d37 5a96 2cbc
-0.00042391772 0.026390633 0.0072063156 0.0054979324 -0.008736604 -0.003760941 0.0048089386 -0.021245763
-0.023985084 0.0061079506 0.002103213 0.014999874 -0.0042893877 0.0233855 0.002526177 0.005232291
-0.014410175 -0.009798302 0.0016245965 -0.014391072 0.007510375 -0.001669091 0.0110067455 0.008294032
0.015168358 0.016669162 0.0047785146 -0.00799268 0.021268459 0.0156285 -0.016298965 -0.009236915
0.0029292959 0.01232564 0.03176559 0.0036979653 0.003033002 -0.012024103 -0.021746611 0.0030134395
0.021363765 0.030304695 -0.009394622 -0.0075570233 -0.0020070209 -0.008357384 0.015923634 -0.008315782
0.0144936945 -0.00134419 -0.018024076 -0.01792155 0.0038360981 0.032536566 -0.010348013 0.0016602408
-0.01475151 0.008387172 -0.0041047637 0.021922326 -0.019966174 -0.0008749627 1.3182375e-05 -0.0105338935

bn4.weight f4 [64]
00000000: b8ab 813f 4e6a 833f 91cb 7d3f d89a 803f
00000010: da8e 863f 15b6 833f 4a47 863f 3f51 7b3f
00000020: 3ddb 823f 1d0e 803f b680 823f d24d 833f
00000030: 036b 7d3f 7198 813f a45c 853f ffda 7f3f
00000040: c491 843f 5742 843f ea46 823f c16e 843f
00000050: c689 7c3f 37fb 833f 5ef3 813f e674 823f
00000060: 40ca 823f 6378 803f 9eb9 7c3f fbea 7a3f
00000070: 6592 843f bb57 7f3f 1c3b 7c3f 9f6a 833f
00000080: 98e1 853f 0182 803f 4ae5 833f f34c 803f
00000090: 48cb 823f 08b9 853f f285 833f 7af6 823f
000000a0: 0267 813f 9182 833f 4896 853f deec 7b3f
000000b0: 1b4d 833f dd0d 7f3f 991e 813f 1400 813f
000000c0: 2a36 803f fa38 7f3f 8ba9 833f ea84 823f
000000d0: 6787 7e3f 54f8 813f 0735 823f b69e 803f
000000e0: d302 853f f084 823f 05ba 813f 81e3 813f
000000f0: 22ee 823f 4804 823f 0ff2 7f3f 7acb 823f
1.0130529 1.0266817 0.9913874 1.0047255 1.0512345 1.0289942 1.0490506 0.98170847
1.0223156 1.0004307 1.019553 1.0258124 0.9899141 1.0124646 1.0418897 0.99943537
1.0356984 1.0332745 1.0177891 1.03463 0.98647726 1.031104 1.0152395 1.0191925
1.0217972 1.0036739 0.9872073 0.980148 1.0357176 0.9974324 0.98527694 1.0266913
1.0459471 1.0039674 1.0304348 1.0023483 1.0218287 1.0447092 1.0275252 1.0231469
1.010956 1.0274221 1.0436487 0.98408306 1.0257906 0.9963053 1.0087463 1.0078149
1.001653 0.99696314 1.0286115 1.0196812 0.9942536 1.0153909 1.0172433 1.0048435
1.0391487 1.0196819 1.0134894 1.0147554 1.0228922 1.0157557 0.9997873 1.0218346

bn4.bias f4 [64]
00000000: 9200 773d dda3 853d 919a 273d cb17 7d3d
00000010: 43b3 833d 0166 853d 9268 853d 0bd4 dc3c
00000020: 13b4 523d 483e 86bd 10c8 843d ae6f 32bd
00000030: 638a 823d 363b 62bd 4d9f 303d 0b8d 553d
00000040: 87c6 863d bf48 64bd 8e1c 773d d13e 5e3d
00000050: ae18 84bd c809 7e3d 5b77 6fbd 1f39 4d3d
00000060: 0fe6 26bd cb44 81bd b950 543d 9568 78bd
00000070: fc26 153d 6d37 713d 2cdd 2cbd 95a1 573d
00000080: c678 743d 7822 56bd de22 813d 7642 64bd
00000090: 87f3 ffbc ba3b 883d 2ef3 6cbd 8d5c 73bd
000000a0: 6ce5 543d eebb 86bd 0f8f 973d f16f 7ebd
000000b0: 4def 343d 3caa 8a3d 29e4 3c3d 8eba 6b3d
000000c0: fcbf 693d 6097 38bd 1c07 693d adeb 4d3d
000000d0: 8b20 773d a681 593d 7d74 363d b80e 803d
000000e0: 01a0 35bd 7fdd 783d 565a 793d 51f1 84bd
000000f0: 1fba 883d dfb0 863d ef68 3abd a87f 82bd
0.06030328 0.06525395 0.04091889 0.06179027 0.06430676 0.06513596 0.06514086 0.026956579
0.051441263 -0.06554848 0.064834714 -0.043563537 0.063740514 -0.05523225 0.04312067 0.052136462
0.06580835 -0.05573344 0.060329966 0.054259125 -0.0645002 0.062021047 -0.058463436 0.050103303
-0.040746745 -0.06311949 0.051834796 -0.060646612 0.03641413 0.05889075 -0.042203113 0.05264433
0.05968549 -0.052278966 0.063054785 -0.055727445 -0.031244053 0.06652017 -0.0578491 -0.059414435
0.051976606 -0.065788135 0.07400333 -0.062118474 0.044173528 0.06770751 0.046116028 0.05755096
0.057067856 -0.045066237 0.056891546 0.050273586 0.06033377 0.053102158 0.044544686 0.062528074
-0.044342045 0.06075811 0.060877167 -0.0649134 0.06676125 0.06576704 -0.04551023 -0.06372005

bn4.running_mean f4 [64]
00000000: b955 153f 5201 3a3f 0aac 013f 5ca4 053f
00000010: 3e3a 253f 5adf 283f 6884 2a3f 4df0 fd3e
00000020: c77f 013f d156 143f 38e9 083f 83e6 263f
00000030: 73fc 0d3f f8ef 303f 0918 483f ec65 073f
00000040: f710 173f a5a9 223f cd96 103f 261c 143f
00000050: 3fc6 0b3f 5a75 103f fac0 1a3f ea61 063f
00000060: 36cd 2b3f cc2e 413f 5029 0f3f abc3 0d3f
00000070: 0961 453f e5d1 163f ccfa fe3e a673 293f
00000080: 585d 433f ea21 503f dbf1 4a3f ed93 fb3e
00000090: 6d38 273f 55f0 2b3f 221f 173f 0fad 213f
000000a0: ac88 413f 0a86 883f d6c6 323f f7b1 f53e
000000b0: 8617 353f ed12 123f 6e08 0a3f 05f1 0b3f
000000c0: 979c 343f a221 f83e 129b 113f 21c7 fd3e
000000d0: 0ae4 003f 2843 4d3f c3d8 063f ea53 3f3f
000000e0: 777c 153f d928 223f abd2 f33e 1db6 433f
000000f0: 3a1b 263f 70c0 203f 7b95 e83e c7f3 073f
0.5833393 0.72658265 0.50653136 0.5220392 0.64541996 0.6596581 0.66608286 0.49597397
0.505856 0.5794497 0.53480864 0.6519548 0.5546333 0.69116163 0.78161675 0.52889895
0.5901026 0.63540107 0.56480104 0.5785545 0.54599375 0.56429064 0.6045071 0.52493155
0.6711 0.7546203 0.5592241 0.5537669 0.7710119 0.58914024 0.49800718 0.6619209
0.76314306 0.8130175 0.7927529 0.49136296 0.65320474 0.6716359 0.5903188 0.6315469
0.7559917 1.0665905 0.6983465 0.4798734 0.7073902 0.5706013 0.5391911 0.5466464
0.7055144 0.4846316 0.56877244 0.49565986 0.5034796 0.801806 0.526745 0.7473742
0.58393043 0.6334358 0.47621664 0.7644976 0.64885294 0.62793636 0.45426545 0.5310635

bn4.running_var f4 [64]
00000000: 8c53 763f 3a22 4f3f ae4c 263f 7a19 103f
00000010: 3408 f03f a9e7 d33f 6f6d ed3f ed65 003f
00000020: 5616 473f db46 213f 7eac 6b3f 0321 3a3f
00000030: 27c7 263f 8dab 333f 2026 2340 6532 593f
00000040: ccba ba3f 3250 b83f ec73 843f 7d4b 943f
00000050: 2a85 0a3f 9f48 833f 8384 093f 0090 033f
00000060: ec1a 2a3f 3aa4 5d3f 3b5c 093f b953 2d3f
00000070: 9b01 5e3f ba1e 133f f6d4 0c3f 9159 ee3f
00000080: fee7 3440 2dc4 663f 22e1 5a3f 0616 003f
00000090: 6b66 bf3f 5320 f73f c9f0 c43f 38ea de3f
000000a0: 4aa8 623f 6aec b03f 4c53 0840 f566 f33e
000000b0: 2780 0440 38b4 083f 3bed ff3e a39c 433f
000000c0: 866e 3e3f 268d 0d3f 3b9c 4e3f 7b96 343f
000000d0: d04e ec3e 8af9 5c3f 456e 873f c231 1f40
000000e0: ad28 cc3f 4f81 2f3f 858e 333f 9a37 443f
000000f0: c5ed a33f 9950 c23f 0975 1e3f dd91 573f
0.9622123 0.809116 0.64960754 0.56288874 1.8752503 1.6555072 1.8549021 0.50155526
0.77768457 0.6299874 0.9206008 0.7270662 0.6514763 0.7018364 2.549202 0.8484252
1.4588256 1.4399474 1.0347877 1.1585537 0.5410944 1.0256537 0.5371782 0.513916
0.6644733 0.86578715 0.5365636 0.67705876 0.867212 0.5746876 0.5501245 1.8621083
2.8266597 0.9014309 0.85499775 0.50033605 1.495313 1.930674 1.5385982 1.7415228
0.8853804 1.3822148 2.130084 0.47539487 2.0703218 0.5339999 0.4998568 0.76410884
0.74387395 0.552935 0.8070714 0.70542115 0.4615388 0.86318266 1.0580527 2.487412
1.5949913 0.68556684 0.7013934 0.7664734 1.2806937 1.5180846 0.6189733 0.84206945

lin.weight f4 [10, 64]
00000000: 7e36 043e bd03 a03d 8858 333d a3ed 0e3e
00000010: ba99 c93d 0aa1 ff3d a6dc 023e f8ea 6a3c
00000020: 773b 0f3e fff7 e9bd 75b4 f23d 6489 be3d
00000030: d866 b93d 5c83 50bd d6e3 a2bb 21e8 7dbd
00000040: 3888 c43d 590d 063d d94b 7e3b 7700 043e
00000050: 2d5f aabd 6636 2d3e 1bdf 00be 904f be3d
00000060: fca2 253d 2818 0abe fe6b 223d 6998 06be
00000070: 8193 043c 8404 bd3d eccf a9bd 1e91 fd3d
00000080: f097 ee3d 188b 13bd 1bea 973d 0f93 14be
00000090: 9bff 4cbd 9b0d fb3d 11dd 13bd 8b67 c4bd
000000a0: 6e47 963d 90f8 9cbd 8418 843d 5cc1 ffbd
000000b0: 296d 58bc a6fd 5d3d 1387 123e 8a02 0c3d
000000c0: 6d95 883b bdb9 aabd 65a4 203e a530 073e
000000d0: 44a2 be3d b3ab c73d 734b 4fbc 36a6 373d
000000e0: 0700 09be 8519 c53d 940e d2bc 7941 cfbd
000000f0: 0101 223d 616e e73d 2f63 f9bd a3b3 66bd
00000100: 85a8 a7bc f615 ba3d 6222 b4bc 4ea1 15bd
00000110: b984 143e bfb7 183e ec2e 193e 6e16 bb3d
00000120: 6797 5cbd 76d5 0fbe 1fca 243e dfce babd
00000130: ac90 43bc 455a 32bd 62b1 8d3d 53b6 143d
00000140: a6c3 213e e611 083d 83cd 033e a20c bdbd
00000150: c768 20bd 355a 103d 5503 003d e8ab fdbd
00000160: 7f7a 04be a737 07be 73ae e83d ba0b 16bd
00000170: 076b e4bd f9f2 3fbd 9d57 893d 5384 863d
00000180: 9abe b73d 6164 0c3c e4b8 da3c aa24 8f3d
00000190: c534 0a3e 4d46 0f3e 7c6e 27bd df33 073d
000001a0: 48d0 4abd ec48 a4bd 8a06 e73c 2431 cbbd
000001b0: 43be 1c3e 7cf4 c23d a1b5 e8bd d1ac 67bd
000001c0: 193c 453d c96c 6a3d 3943 4dbb 48a4 63bd
000001d0: c5cd d0bc 053b c4bd ae66 943d 445a 133e
000001e0: 07ad 1a3e e744 89bd 55cb 663d 329b bcbd
000001f0: b8a0 a63a 5b95 b43d 2c87 9a3d 4748 a0bd
00000200: 36ab c9bd 1c72 f03d eea1 903d 105f 243d
00000210: 7100 18be 27aa a9bd 2a04 7bbd 4fa8 a5bd
00000220: c013 82bd 08cc 453c 2ed5 633d c795 243b
00000230: ba50 443d 6947 7f3d d664 2bbe 93e9 d8bb
00000240: b538 2bbd c423 32bd bcfa 5b3d 46eb a9bd
00000250: b83f 3bbb b356 05be 1efa 943d e7d8 91bc
00000260: 3285 e53d ab5c c73d 0f94 463d 0b1d 933d
00000270: 1929 ae3d 091b 0fbd cd50 b4bd f90f dfbd
00000280: 11f1 1bbe 915d 8f3d de8c 113e 1cd1 413a
00000290: f0a9 c2bd 512f 5fbc a333 1ebd 07a0 ccbd
000002a0: 09ab ce3d 6e3a 023e d5dc 9ebd 2837 09bd
000002b0: 7540 92bd a556 bb3d 3741 ed3d 7b26 13be
000002c0: 5c71 343d eb6c f43c 0cc9 84bc e813 f2bd
000002d0: efa1 883d 5b3f 003e 673f 16bc 9a9c 87bd
000002e0: af1e 18be bbc7 e43c b2b4 16bd cbaf b13d
000002f0: 3488 55bd 0c49 163d a53a 89bd f281 61bd
00000300: 0ade b8bd 6d3e fd3a 2407 b43d ea81 57bb
00000310: 8d09 613d 88eb 16bc c22b c53d 457b aabd
00000320: 4629 123d ee24 4a3d 700a 52bc 8f05 3b3c
00000330: 841c 7cbc 8ecc 94bd e67b 053e 96bb 643c
00000340: 3a81 8b3d 1b1e ebbd aae6 cc3d 430f 0b3d
00000350: 68e1 c5bd 9c27 a6bd 2718 dcbd d787 ce3d
00000360: f3bc f8bd b0f2 c53d a711 8abd c9aa 41bd
00000370: 8852 18bc 675a 8ebd 1d1f 123d 9612 a2bd
00000380: 072d 053e 5a28 09be d63a 90bc beac 69bd
00000390: 25da 81bb cd34 563d e2c8 e23d 7187 76bd
000003a0: 3510 cebc 8c70 14bb 076b 3abb 2f72 50bc
000003b0: 6d99 30bd 5841 c73c 9e81 e73d dd46 e73c
000003c0: 974a a1bd 7eba 23bd a6a5 0c3d 1d74 203d
000003d0: 158e b2bd 48a2 d9bc 8b8d e3bd 2cc0 003e
000003e0: a684 ae3c f521 98bd 226a af3d ba0b 1cbc
000003f0: bb1c 653c 6d39 c43d 0b75 aabd bf7b 4d3d
0.12911412 0.07813213 0.0437856 0.13957839 0.09843774 0.12481888 0.12779483 0.0143382475
0.13987528 -0.114242546 0.11850826 0.09303549 0.09052819 -0.050906524 -0.004971008 -0.061988954
0.09596294 0.032727573 0.0038802533 0.12890802 -0.083189346 0.16915283 -0.12585108 0.09292519
0.040438637 -0.13485777 0.03965377 -0.13144077 0.008091808 0.09229377 -0.08291611 0.123811945
0.116500735 -0.036021322 0.07417699 -0.14509223 -0.050048452 0.122584544 -0.036099497 -0.09590062
0.07337843 -0.07664597 0.064499885 -0.12488052 -0.01320962 0.054196976 0.14309339 0.03418211
0.0041682036 -0.08336208 0.15687712 0.1320215 0.093082935 0.09749546 -0.012652266 0.044836245
-0.13378917 0.09624008 -0.025641717 -0.1011991 0.03955174 0.1130035 -0.12177121 -0.05632366
-0.020466099 0.0908622 -0.021989051 -0.036530785 0.14503755 0.14913844 0.14959306 0.091351375
-0.053855326 -0.14046273 0.16092728 -0.09121489 -0.011936348 -0.04354312 0.06918599 0.03630669
0.1579729 0.033220194 0.12871365 -0.09230925 -0.039162423 0.035242278 0.031253178 -0.12386304
-0.12937354 -0.13204823 0.113613985 -0.036632277 -0.11153226 -0.046862576 0.06706164 0.065682076
0.08971901 0.008568854 0.02669949 0.06989415 0.13496692 0.13991661 -0.04087685 0.033008453
-0.04951504 -0.08021721 0.02820136 -0.09921482 0.15306954 0.09519288 -0.11362768 -0.056561295
0.048153017 0.05723265 -0.0031320585 -0.055576593 -0.025488744 -0.095815696 0.07246147 0.14389902
0.15105067 -0.06702595 0.056346256 -0.09209289 0.0012712693 0.0881755 0.07545313 -0.07826286
-0.09847109 0.11740515 0.07062136 0.04012972 -0.14843918 -0.08284407 -0.061283268 -0.08088743
-0.06351423 0.012072571 0.055623226 0.0025113688 0.04792855 0.06232396 -0.16737685 -0.006619641
-0.041802127 -0.04349114 0.053705916 -0.08296828 -0.0028571915 -0.13021354 0.072742686 -0.017803622
0.112070456 0.09734472 0.048481043 0.07183274 0.085039325 -0.034937892 -0.08804474 -0.108917184
-0.15228678 0.07000268 0.14213893 0.00073935254 -0.09505069 -0.013622121 -0.038623463 -0.0999146
0.10091216 0.12717602 -0.07756964 -0.033499867 -0.071412005 0.091473855 0.11584704 -0.14370148
0.04405342 0.029837092 -0.016209148 -0.11820203 0.066715114 0.12524168 -0.00917039 -0.06621666
-0.14855455 0.02792727 -0.03679342 0.08676108 -0.052131847 0.036690757 -0.06700639 -0.055055566
-0.090267256 0.0019320972 0.087904245 -0.0032883831 0.05494075 -0.009211428 0.09627487 -0.08324293
0.035683893 0.049351625 -0.012819871 0.0114148995 -0.015387658 -0.07265578 0.13035545 0.01396074
0.068117574 -0.114803515 0.10004933 0.0339501 -0.096621335 -0.08113024 -0.10746794 0.10084503
-0.12145414 0.096654296 -0.06741648 -0.047282014 -0.009297021 -0.06950837 0.035674203 -0.07913701
0.13005458 -0.13394299 -0.01760618 -0.057049505 -0.0039627724 0.05229645 0.110734716 -0.06018776
-0.025154212 -0.002265009 -0.002844514 -0.012722536 -0.04311507 0.02432315 0.113040194 0.028232032
-0.07875555 -0.039972775 0.034337662 0.039173234 -0.08718506 -0.02656664 -0.111109816 0.12573308
0.021303486 -0.07428352 0.08565165 -0.00952428 0.013983901 0.095812656 -0.083231054 0.05016684

lin.bias f4 [10]
00000000: 7c00 bd3d 1d8b 1f3e 054b 463c bb42 ab3d
00000010: 5eab 733d 2b27 793d 5b14 353d 49a7 2abe
00000020: cc79 08bd 3b1d 18be
0.09228608 0.15580411 0.012102847 0.08362337 0.0594896 0.06082837 0.044208866 -0.16665377
-0.03331928 -0.148549
