NCC_Code/models/2022-08-25_15-45-17_model.pt (torch, 115275 bytes, 50 tensors)

conv1.weight f4 [8, 2, 5, 5]
000000 79 a0 b4 be 5b c7 19 be f4 a1 45 bd c7 1a a4 be
       -0.3527868 -0.15017454 -0.048250154 -0.3205168
000010 e4 1b 01 bd a7 09 8c be 50 92 10 be f5 4f 39 be
       -0.03152074 -0.27351114 -0.14118314 -0.18096907
000020 dd 8e 00 bd e1 85 81 be 1d a3 af be 5b a9 8f be
       -0.031386245 -0.25297454 -0.34304133 -0.28058895
000030 26 1c 05 be 8a 22 14 bd 33 df e2 bc fa 40 98 be
       -0.12999019 -0.03616575 -0.02769432 -0.29737073
000040 b7 af e7 bc e1 21 31 be 2d 35 4d 3d 50 be 46 be
       -0.02828203 -0.1729808 0.05009954 -0.19408536
000050 c2 91 ba bc 28 d4 48 bd 24 b5 58 3d 00 d8 af bc
       -0.02277458 -0.049030453 0.052907124 -0.021465302
000060 c4 b2 90 3d 30 ce 84 bd 4b d8 64 be 3a 84 89 be
       0.07065347 -0.0648464 -0.22348134 -0.26858693
000070 79 41 ae bd 3f ff 8c be 00 14 97 bd 2f 87 c1 be
       -0.08508582 -0.27538487 -0.073768616 -0.3779845
000080 31 a3 86 bd 7b de 59 be 22 ca 36 3e e1 35 2e be
       -0.06574095 -0.21276276 0.17850545 -0.1701274
000090 62 14 f4 be d6 1c 94 be cc 5f 15 3e a7 39 c5 bd
       -0.476718 -0.2892825 0.14587325 -0.09630137
0000a0 33 23 17 3b 20 fd a6 3d 1f 1a a4 3c 58 66 a4 3d
       0.0023061752 0.081537485 0.020031987 0.08027333
0000b0 a5 33 63 3e 2f d2 b0 3d 44 df 2d be d5 cc 4f bd
       0.2218767 0.08633839 -0.169797 -0.050732452
0000c0 23 78 03 be 78 be f6 bd a5 26 84 3e fb 35 48 bd
       -0.12838797 -0.12048048 0.25810733 -0.048879605
0000d0 39 39 99 3d dd 00 41 3e b1 ec fd 3d ee 45 cc 3e
       0.074816175 0.18847986 0.12398661 0.39897102
0000e0 f5 ed 4e 3e 1f b0 0e 3d 99 3c f2 3e 71 24 e8 3e
       0.20207961 0.03483593 0.47311857 0.45340303
0000f0 e7 6f 29 bc 63 ab 7f 3e cb 65 3f 3e 2c 75 80 3c
       -0.010341621 0.24967723 0.18691175 0.015680872
000100 cf 73 75 3e 9a ad 85 bc 89 d4 7e 3e 27 22 6a 3e
       0.23969959 -0.016318131 0.24885763 0.2286459
000110 16 7f af 3e 9d cc 56 3d 47 41 84 bd b9 ff 39 bd
       0.34276646 0.05244123 -0.06457763 -0.04540989
000120 c8 e4 41 3d f4 98 42 be bd d8 36 be a4 68 30 3e
       0.047337323 -0.1900366 -0.17856117 0.17227417
000130 b9 dd 72 3d ce 49 64 be 06 ba 07 3e f7 43 60 bd
       0.059293482 -0.22293779 0.13254556 -0.054752316
000140 5b c5 ad 3e b5 b1 58 3e 57 c5 81 3e 68 a3 61 3e
       0.33939633 0.2116154 0.2534587 0.22034991
000150 ed ab 85 bb dc 8a 08 3f 15 dc 8f 3e e1 d0 c7 be
       -0.004079333 0.5333688 0.28097597 -0.3902655
000160 a3 75 4e be 70 7d d5 bd d4 fc 50 3e 47 9b a6 3d
       -0.20162062 -0.10424316 0.20408946 0.081350856
000170 31 53 fc bc 1f ae 45 be 50 40 8e 3d d4 0d ac 3e
       -0.030801388 -0.19304703 0.069458604 0.336043
000180 0d 00 31 be 05 17 4a be e2 27 a0 3d 29 e2 1d bd
       -0.17285176 -0.19735344 0.07820107 -0.03854576
000190 51 8a af be 18 04 23 bd cb fe b3 be d6 98 81 be
       -0.34285215 -0.039798826 -0.3515533 -0.25311917
0001a0 b3 b1 91 be 3f c2 ac 3d 10 41 35 3e de cf 04 3e
       -0.28455886 0.08435487 0.177006 0.1296992
0001b0 27 9f ad 3d 3b 07 33 3d ea 87 87 3e 56 27 3f 3e
       0.084776215 0.043708067 0.26470882 0.18667349
0001c0 e4 9c 2e 3d 88 31 9f 3d c3 01 fe bb 6a 59 9f bc
       0.04263009 0.07773119 -0.007751675 -0.019451816
0001d0 cd 38 8d 3e ca d3 0b bd 16 ee 6c bd 54 86 f3 3d
       0.27582398 -0.034137525 -0.057844244 0.118908554
0001e0 3f a7 41 3e 7b 2c 68 3d 0a d4 7b 3e 11 81 1f 3e
       0.18911456 0.056683045 0.24592605 0.15576579
0001f0 dc ee 58 3e e2 2f b9 bc 84 9d a9 be fd 81 95 3d
       0.21184868 -0.02260584 -0.33127987 0.07300184
000200 a0 93 87 be f7 05 92 bd 27 ea 9c 3c f0 3b 3b be
       -0.26479816 -0.07130044 0.019154621 -0.18284583
000210 8b d1 11 be a6 23 ac 3d 59 52 75 bd cb 11 33 be
       -0.1424009 0.08405237 -0.059892986 -0.17487256
000220 6f fa 0f 3d a1 94 0f 3e 0d 1a 04 3d eb e9 8b 3e
       0.03515094 0.14021541 0.032251406 0.27326903
000230 d8 45 99 3d f0 55 a6 bd e4 ed e1 3d e1 fe 60 3e
       0.07484025 -0.0812186 0.11031702 0.21972229
000240 41 ac f7 3d 74 a9 26 3e 41 a3 97 3e af 91 42 3e
       0.12093402 0.16275579 0.2961674 0.19000886
000250 85 10 d8 3e 15 1c 27 3e a2 86 24 3e 28 7f be bd
       0.42200103 0.16319306 0.16066983 -0.09301597
000260 1d 97 f1 3d d5 b6 30 3e 56 8a c3 3d 60 98 d8 3d
       0.11796401 0.17257245 0.0954787 0.10575938
000270 ad 2b ad bd a9 a1 2b 3e ae 42 af 3d 51 78 2f 3e
       -0.08455596 0.16760887 0.0855764 0.17135741
000280 1d a5 34 be 0a b2 8c 3d dd 0f 35 3b da ec ee 3d
       -0.1764111 0.06869896 0.0027627863 0.116662696
000290 4d fe 28 3c 9c 14 c8 bd 41 02 be be e6 5c e0 bd
       0.010314536 -0.09769556 -0.37111095 -0.10955219
0002a0 94 7c d6 bd c8 86 02 be f7 bf 4a 3e a2 3f 95 3e
       -0.1047298 -0.12746727 0.19799791 0.2915011
0002b0 f8 52 8a 3e fa 48 34 3d 15 3b 5d 3e 07 a8 12 bd
       0.27016425 0.04401491 0.2160457 -0.035804775
0002c0 73 5d dd 3e 0d ee 81 3e 5f 0f e5 3e fa 75 92 3e
       0.4323536 0.2537693 0.4473829 0.28605634
0002d0 7a d0 41 bc cc 21 5c 3e 8a 36 e9 3d 4a 6e a4 3e
       -0.01182949 0.21497267 0.113873556 0.32115394
0002e0 45 e8 68 3e a7 2a 84 3e 2d e8 1d 3e ef c3 75 bd
       0.22744854 0.2581379 0.154206 -0.06000131
0002f0 c7 d0 36 be 6f 13 6a 3e 8d 84 e1 bb 77 71 dc 3d
       -0.1785308 0.22858976 -0.0068822564 0.10763829
000300 d5 61 1b be 5f c0 cf bd 4c 34 4d bd 4e 7e c2 bd
       -0.15174039 -0.10144114 -0.050098702 -0.09496747
000310 05 21 84 3e 2f ed 23 3e d6 28 d8 3e 49 25 49 3d
       0.25806442 0.16008447 0.42218655 0.049107824
000320 41 62 26 bd 1a 37 04 3d 58 47 9e be a4 c8 3c bc
       -0.040621046 0.03227911 -0.30913806 -0.011522446
000330 a7 65 40 3e 2e f7 c1 3d 49 12 c2 3e 43 9c c7 3d
       0.18788777 0.09470974 0.37904575 0.097466014
000340 78 ee 91 3e d2 f0 8e bc 87 a7 e4 bc 19 d9 0f 3e
       0.2850225 -0.017448816 -0.027911915 0.1404766
000350 a3 6c 86 3e b6 22 7b bd 40 a2 16 be 4e f2 f1 bd
       0.26254758 -0.0613124 -0.14710331 -0.11813794
000360 77 d8 43 bd ff f4 23 be fc 45 5b 3d 98 fb e1 bd
       -0.04781386 -0.16011427 0.05353354 -0.11034316
000370 1c 93 a7 bc cc 4d d6 3c 6e 78 bd bd 27 e7 b1 be
       -0.02045589 0.026160143 -0.09251486 -0.34746668
000380 c2 28 83 3d a5 b3 a5 3e 26 1f 67 3e c8 00 9c 3e
       0.06404258 0.3236362 0.22570476 0.30469346
000390 d0 c4 08 3e e0 10 d5 3d 51 86 cc 3e df 7e 48 be
       0.13356328 0.10403609 0.39946225 -0.19579647
0003a0 2e 98 e5 3d 86 3c 7a 3e 61 e3 33 3e 27 78 16 be
       0.112106666 0.2443715 0.17567207 -0.14694272
0003b0 ee ad 8f bd 98 ff 86 be 51 66 05 be aa 75 89 bd
       -0.07015596 -0.26366878 -0.13027312 -0.06711896
0003c0 56 88 22 be 3a cc 8b be 52 39 4a bc 98 d9 a4 be
       -0.1587232 -0.2730425 -0.012342768 -0.3219726
0003d0 33 a0 a6 bd f0 b0 2a be 05 ae 8b be 9b 90 67 bd
       -0.08136024 -0.16669059 -0.27281204 -0.05653439
0003e0 da 5f f9 3b ee 80 9a be 3c 85 3c bb bc d3 14 bc
       0.0076103033 -0.3017649 -0.0028765937 -0.0090836845
0003f0 f5 cf 62 be 6c 24 79 3e 4e b2 3b 3e 00 7c 99 bc
       -0.22149642 0.243303 0.18329737 -0.018735886

conv1.bias f4 [8]
000000 a1 aa 6e 3e d1 1e 01 be af fe ce bd 52 82 1a be
       0.23307277 -0.12609412 -0.10107171 -0.15088776
000010 5e 67 06 3e d1 73 8c 3e 62 1d 8a be fe dd 72 3e
       0.13125369 0.2743211 -0.26975542 0.23717496

bn1.weight f4 [8]
000000 1c 41 4a 3f 1b 23 57 3f 0b 53 8f 3f 1b 5d 88 3f
       0.790056 0.8403794 1.1197218 1.0653414
000010 6d 0f 55 3f b5 f9 58 3f 87 98 97 3f cd 08 50 3f
       0.8322666 0.8475602 1.1843423 0.8126343

bn1.bias f4 [8]
000000 7b 5a a3 bd 5a 02 7e be b0 d0 48 be 5b ff 8c be
       -0.07976242 -0.24805585 -0.19610858 -0.2753857
000010 bd cd af be eb 66 ea b9 7b 8b 8c be 75 1c bd 3e
       -0.34336653 -0.00044708638 -0.27450165 0.36935773

bn1.running_mean f4 [8]
000000 95 9d c2 3f 3b 70 8e 3f 66 af 09 3f 28 c6 82 3f
       1.520434 1.1128 0.5378326 1.0216722
000010 e5 62 ec 3e 00 61 ac 3f cd 9b e5 3e 06 fd b6 3f
       0.461692 1.3467102 0.4484543 1.4295967

bn1.running_var f4 [8]
000000 57 4f d4 3f 2b 70 05 41 b5 00 02 40 64 0f e1 40
       1.6586713 8.339885 2.0312932 7.0331287
000010 d2 c2 b1 3e 72 c7 a3 3f d5 25 92 3f 78 66 b5 3f
       0.3471895 1.2795241 1.1417795 1.4171896

conv2.weight f4 [16, 8, 3, 3]
000000 d7 7d 64 3c 26 99 42 bc d7 1e 4f be fe 6f 57 be
       0.013946018 -0.011877334 -0.20226608 -0.21038815
000010 e9 6d 23 be 05 a0 c3 bd dd e7 8f be b1 d4 33 be
       -0.15959896 -0.09552006 -0.28106585 -0.17561604
000020 88 20 7f 3d 19 6d 72 be 97 46 4c be 71 2b b3 be
       0.062286884 -0.2367443 -0.19948803 -0.3499408
000030 47 e4 d2 bd f1 8c b4 be 58 5e f3 be e8 7b d2 bd
       -0.10297447 -0.3526378 -0.47532916 -0.102775395
000040 44 14 c8 bd 85 4c a1 3d 16 36 c9 3d 37 61 0e 3e
       -0.0976949 0.07875923 0.09824769 0.13904272
000050 ae 08 22 be c0 73 28 bd de 4f 18 3e 96 b1 73 be
       -0.15823624 -0.041126013 0.14874217 -0.23798212
000060 5c 59 c9 3e 8a ce 47 3e fb f2 7f 3e d1 a8 84 be
       0.39325988 0.19512382 0.24995033 -0.25910047
000070 28 c2 62 be cf db 2d bd 6d a1 e1 be 22 db 4e bf
       -0.22144377 -0.042445954 -0.4406847 -0.8080312
000080 01 40 03 3d ba 1a 7e be d3 db 01 bf d6 8f 0d be
       0.03204346 -0.24814883 -0.5072605 -0.138244
000090 e7 4b 3d 3e 5a 69 06 3e c8 ca 0b 3d 6c aa 0b bc
       0.18485986 0.13126126 0.034128934 -0.008524518
0000a0 df cd 93 3d 77 4b da 3c 19 63 01 be 99 86 52 3c
       0.07217001 0.026647313 -0.12635459 0.012849473
0000b0 66 e7 ff 3d 97 92 8b be b8 b5 0c be c7 d7 30 3e
       0.124953076 -0.27260277 -0.13741195 0.17269813
0000c0 54 83 e1 3d 81 a3 d8 bd 85 35 db bd 3b 09 24 bd
       0.11011377 -0.10578061 -0.107035674 -0.040047865
0000d0 95 6f 8d 3d f8 56 d2 3c 03 6b a8 bd 55 00 21 be
       0.06906048 0.025676236 -0.08223536 -0.15722783
0000e0 77 b6 76 3d 95 78 91 be f7 fe 0f be 65 02 43 be
       0.060232606 -0.2841231 -0.14062105 -0.19043882
0000f0 ba fe 7d bd 50 7f cb bd 13 45 73 bd 2f 95 03 3e
       -0.062010504 -0.09936392 -0.059392046 0.12849878
000100 60 70 0b 3e 75 ed 68 3e 1f ac e1 3d 29 d6 17 3b
       0.13617086 0.22746833 0.110191576 0.002316842
000110 5d a1 ee bd 8d f7 95 bd 87 34 6a 3d 95 bf 6a 3e
       -0.11651871 -0.07322607 0.057179 0.22924645
000120 5a d7 62 bd c2 b6 f3 bd 68 40 2f be 77 b4 5d 3e
       -0.055381157 -0.11900093 -0.17114413 0.21650873
000130 72 8c 4f 3d 40 1a 66 be 7b 26 0d be d0 36 14 3e
       0.05067105 -0.22470951 -0.1378421 0.14474034
000140 19 9d 8a 3c 11 8c 21 3c cb 02 2a 3e 66 db 0f be
       0.016920613 0.009860055 0.16602628 -0.14048538
000150 75 2c c4 3c 6f 72 0d 3e 5c 28 00 bd 2a 2d bd bd
       0.02394698 0.13813184 -0.03128849 -0.0923713
000160 ae d0 28 be 42 65 ec 3d 11 bf f3 3d b7 bf 2c 3e
       -0.16485855 0.11542751 0.119016774 0.16870008
000170 70 09 b7 3e 80 ba 35 3e 64 80 ae 3e a4 ca da 3e
       0.35749388 0.17746925 0.3408233 0.42732728
000180 fe ca c1 be 1b c6 f7 bd 96 2b 41 bd 7f 47 91 3d
       -0.37850183 -0.120983325 -0.047160707 0.07093715
000190 e5 8c cf 3d 8e 31 b0 bc 13 ec 1f be 3e af 6c 3e
       0.101342954 -0.021508005 -0.15617399 0.23113725
0001a0 9e 44 f8 3d 3a a6 4a bd 72 53 97 3e 09 97 7e 3e
       0.12122463 -0.049474932 0.2955585 0.24862303
0001b0 0e ee 5a be 02 60 7d bd cd 08 c4 bd b4 38 dd bd
       -0.21379873 -0.06185914 -0.09571991 -0.10801831
0001c0 69 ab 89 bd fc 5a d8 bd fc 91 4a 3d 60 33 1c 3e
       -0.06722147 -0.10564229 0.049455628 0.15253973
0001d0 9d a6 88 3d 4b ee 51 be fd 4b b3 bd 37 d4 ef 3d
       0.06672404 -0.20501058 -0.08754728 0.11710399
0001e0 cd 8f 16 bd 54 0c a4 3d 0e 6f eb 3e 51 b2 49 bd
       -0.036758233 0.08010164 0.45983166 -0.04924232
0001f0 f8 f5 18 3e d9 5c 91 bc d7 4b 1c bd c9 be 02 3e
       0.1493758 -0.017744469 -0.038158264 0.12768091
000200 8b 55 67 3d be 06 a6 3b 30 b5 f7 3d e8 ac f7 3d
       0.056478065 0.0050667217 0.12095106 0.12093526
000210 4b d2 ff 3d 9d e5 dc 3d 60 03 45 3d 5b 58 8d 3e
       0.12491282 0.10785983 0.04809892 0.27606472
000220 7a 84 08 3e 04 cf 25 3e 05 b8 11 be dd 12 c9 3d
       0.13331786 0.16192251 -0.14230354 0.09818051
000230 48 ed 90 3d b8 4d 6a 3e 99 df f5 bd e5 d5 e9 3b
       0.07076508 0.2288121 -0.120055385 0.007136094
000240 97 2a e3 3d 76 fc c0 3e 87 1c 0a 3e ba 20 24 3e
       0.11092108 0.37692612 0.13487445 0.16028109
000250 fa b0 c8 3d 3e 96 47 3e c8 2b f4 bd 49 58 8d bd
       0.097993806 0.19490907 -0.11922413 -0.06901605
000260 cf f7 b7 bd 63 29 8b bd 68 2b 1e 3e ec 45 9d 3d
       -0.089828126 -0.06795003 0.15446246 0.07679352
000270 58 6c b8 3d bb 7b fc bc 57 f2 97 3e bf 1b 6a 3e
       0.0900504 -0.030820718 0.29677078 0.22862147
000280 4b ab 39 3e 57 5e 90 3d 4f 64 bc 3d bc 14 6e 3e
       0.1813175 0.07049244 0.0919882 0.23250097
000290 46 7d c7 3d ba 59 ac bd 79 7f 88 3e 14 f4 aa bd
       0.09740691 -0.084155515 0.26659754 -0.083473355
0002a0 07 fc 52 be ce 40 2c be e0 86 93 bd 30 6b a9 be
       -0.20603953 -0.16821596 -0.0720346 -0.3308959
0002b0 14 f5 12 bf bc 8f d4 bd f9 35 84 3e 9f a4 cb 3d
       -0.5740521 -0.10378978 0.25822428 0.09943508
0002c0 f9 12 1e be 9d c2 56 3e 3b 9e ef 3d 83 5c af bb
       -0.15436925 0.20972677 0.11700102 -0.0053516044
0002d0 82 6a df 3a 0e 27 2b 3e 0d 53 8f 3e 89 cb 02 bd
       0.0017045292 0.16714117 0.2799305 -0.031932388
0002e0 cf a0 e0 3d 3d c5 d6 3d be df 1f be 58 0f 2d bd
       0.10968172 0.10486839 -0.15612695 -0.04225096
0002f0 bb 2c 09 bc 6b 10 99 bd 2a 78 bb 3c 38 63 04 3e
       -0.008372481 -0.074738346 0.022884447 0.12928474
000300 8c 41 74 3d 8e 6f 46 bd 90 8f 83 3c bb b3 90 3d
       0.059632823 -0.04844623 0.016059667 0.07065531
000310 a7 e0 64 bd 02 79 15 3e 87 13 66 be bf 6c df bd
       -0.055878308 0.14596942 -0.22468387 -0.109094135
000320 a1 a5 50 be 50 2b 27 3e 38 ad 1f 3e c8 33 78 3d
       -0.20375682 0.16325116 0.15593421 0.060596257
000330 53 23 83 3d e4 2e a3 3c ba 51 b4 bd 6d 88 35 be
       0.06403222 0.01991982 -0.088046506 -0.17727824
000340 58 0a 0a be 81 5e 1c 3d d3 c3 26 be 9d 8d fc 3d
       -0.13480508 0.038176063 -0.16285639 0.12331698
000350 a1 30 dd bd 52 7d 19 bd af 90 35 be 58 1b b3 be
       -0.10800291 -0.03747303 -0.17730974 -0.349818
000360 cc ee 89 bd 77 c5 de bd b4 b5 70 be ab af 70 bd
       -0.06735 -0.10877507 -0.23506814 -0.05876128
000370 1b 51 b5 be cc b9 77 3e 0e 52 84 be 08 56 19 bd
       -0.3541344 0.2419197 -0.25843853 -0.03743556
000380 c3 dc e6 bb 1a ce 2e 3e 12 9e 03 be fa f9 46 be
       -0.00704536 0.17070809 -0.12853268 -0.19431296
000390 9b d1 d7 bd 28 d5 1a 3e 5c 30 98 bd 8b 7a 50 3e
       -0.10538026 0.15120375 -0.07431099 0.20359246
0003a0 e4 31 99 bd 21 5f cb 3e 96 35 27 3c d4 6f 52 be
       -0.07480219 0.39721015 0.010205647 -0.20550472
0003b0 f4 ae 32 3b 04 ab 2c 3e b4 c6 4f 3e bb 2f ac 3d
       0.0027264925 0.16862112 0.20290643 0.08407541
0003c0 46 ba 50 be cb f4 96 bc df 83 2a 3e e6 30 31 bd
       -0.20383558 -0.018427273 0.16651867 -0.043259524
0003d0 1f 9e 01 3e 9b fe 8e 3e a2 89 9a 3e b7 2e 8a 3d
       0.12657975 0.27928624 0.3018313 0.067471914
0003e0 76 46 f7 3d 0d 09 bd 3e 90 19 67 3e 8e 97 94 3e
       0.12073986 0.36920968 0.22568345 0.29021877
0003f0 7d 37 20 bd 5d b8 80 3d 87 e1 da bd 60 4c 9f be
       -0.039115418 0.062851645 -0.10687547 -0.31112957

conv2.bias f4 [16]
000000 f0 42 d6 3d ad dd 6e be 43 7c b3 be b8 07 8d 3d
       0.10461986 -0.2332675 -0.35055742 0.06886238
000010 be d8 a8 be 09 82 21 be 94 b6 29 be 02 b9 ab be
       -0.3297786 -0.1577226 -0.16573554 -0.33539587
000020 52 4a 08 be 77 89 2a be 52 71 2e be b1 d3 38 be
       -0.13309601 -0.16654001 -0.17035416 -0.18049504
000030 1e 1d dc bd 2d b0 99 bd a8 41 ca bd 6d e5 90 be
       -0.10747741 -0.07504306 -0.09875804 -0.28300038

bn2.weight f4 [16]
000000 c0 16 6e 3f c9 fb 6d 3f 09 a8 72 3f 8d 8d 77 3f
       0.93003464 0.9296232 0.9478765 0.96700364
000010 88 13 89 3f f3 9c 7b 3f 68 cd 5a 3f 10 4c 53 3f
       1.0709085 0.9828636 0.85469675 0.8253794
000020 42 a2 69 3f eb 9a 86 3f 83 a4 8a 3f 88 b1 81 3f
       0.9126321 1.0516027 1.0831455 1.0132303
000030 56 ac 61 3f 93 db 51 3f 85 95 6f 3f 0a bc 95 3f
       0.8815359 0.8197567 0.93587524 1.169801

bn2.bias f4 [16]
000000 0e 65 e9 3e f3 8e ce be 52 8d 3d be 4a ab 8f 3e
       0.4558491 -0.40343437 -0.1851094 0.2806037
000010 e6 3a 41 bc 46 d0 aa 3d 15 b6 16 3e 8f 9e 69 3e
       -0.011793828 0.08340506 0.14717896 0.22814392
000020 98 03 61 be 78 aa 06 3f 05 8b 4e be e8 d8 50 3c
       -0.21974027 0.52603865 -0.20170219 0.012747027
000030 3f 78 33 be fa b7 80 3e 23 ff 8f bd 10 e3 56 be
       -0.17526339 0.25140363 -0.07031085 -0.20985055

bn2.running_mean f4 [16]
000000 e9 c6 22 40 88 69 15 3f aa c0 98 3d 55 da 9f 3f
       2.5433905 0.5836415 0.07458623 1.2488505
000010 32 fa 0e 3e d3 63 25 3f 86 8d 45 3e 32 f9 74 3e
       0.1396263 0.64605445 0.19292268 0.23923185
000020 4a e3 1d 3f 5f 46 96 3e 53 48 ad 3e 8e 36 22 3f
       0.6167494 0.29350564 0.33844241 0.63364494
000030 0a b0 cb 3e fa 95 b0 3e 32 a6 1e 3f 2c 6a 6c 3e
       0.39782745 0.34489423 0.61972344 0.23087376

bn2.running_var f4 [16]
000000 be a6 c5 3f 9c d2 83 40 aa c3 5a 3e bf 75 f0 40
       1.5441511 4.119459 0.21363702 7.5143733
000010 9c 79 d3 3e a5 2f 85 40 6f aa ce 3e b7 c7 33 3f
       0.41303718 4.162066 0.40364406 0.70226616
000020 75 04 6e 40 24 a6 8a 3f 62 4a 89 3f e6 92 d3 3f
       3.719022 1.0831952 1.0725825 1.6529205
000030 16 14 93 3f 2b 4b 43 3f d5 30 92 40 d5 29 4f 3f
       1.1490505 0.7628657 4.568461 0.80923206

conv3.weight f4 [32, 16, 3, 3]
000000 bd e3 0d be e5 9a 40 3d f3 62 df bc 0d f4 c5 3d
       -0.13856407 0.04702272 -0.027268862 0.096656896
000010 c5 fe 54 bd 38 0e f7 bd e7 e7 f2 bc 40 07 65 bd
       -0.05200078 -0.12063259 -0.029651595 -0.055915117
000020 28 10 86 3d d5 93 03 3d 2a 60 f0 3d 9f dd 7e be
       0.0654605 0.032123405 0.11737092 -0.24889229
000030 ae f8 c2 3d c0 3b d8 bd 88 ad c4 3d 82 7f b4 3d
       0.09520088 -0.105582714 0.09603411 0.08813383
000040 11 8d ac bd 28 05 70 3d bb 21 a7 bd a9 cf cc bd
       -0.08425344 0.058598667 -0.081607305 -0.100005455
000050 74 de b9 bd 05 4b 89 3d b0 4b 15 bd 59 ea b5 3d
       -0.09075633 0.06703762 -0.036449134 0.08882589
000060 72 1e 57 3a ad 94 15 3d 15 77 dc 3b 87 3d 8f 3d
       0.0008206136 0.03651874 0.006728063 0.06994157
000070 f1 c1 25 be 90 70 bb 3d ce 46 92 3d fd c8 8c 3e
       -0.16187264 0.09152329 0.07142411 0.27497092
000080 99 64 e2 3d 2b b2 b8 3d 61 46 95 3d 03 45 bb 3d
       0.11054344 0.09018358 0.07288814 0.09144022
000090 73 50 4a 3d 65 25 85 ba ef c8 16 be 77 ca f5 bd
       0.04939313 -0.0010158239 -0.14725088 -0.12001508
0000a0 12 1e 09 be 16 87 81 be f3 a3 38 3e 64 7e 13 3e
       -0.13390377 -0.25298375 0.18031292 0.14403683
0000b0 f9 26 73 3d 85 3f 24 bc 10 2a d3 bd ee f5 0c bb
       0.05936334 -0.01002491 -0.10310757 -0.002150889
0000c0 56 e5 a7 3e f0 14 75 3d 89 a7 2d bb 29 a6 a8 3d
       0.32792157 0.05983442 -0.0026497564 0.082348175
0000d0 a4 40 0f 3e 67 e7 34 3e be e7 41 be 71 17 80 3a
       0.13989502 0.17666398 -0.18936059 0.0009772611
0000e0 f4 05 84 be dd ce 2e 3e e1 36 56 3e 73 db dd 3d
       -0.25785792 0.170711 0.20919372 0.10832872
0000f0 4f 67 2e 3c 7c 1b 61 3d 6e 3f 18 3d 90 e6 d7 3d
       0.010644748 0.05495785 0.037169866 0.10542023
000100 1f 0c a9 be 78 99 98 be ea 5f dc bc 6a 6d 0b 3e
       -0.3301706 -0.29804587 -0.026901204 0.13615957
000110 c8 95 fe bd 15 8c 3e be 94 27 81 be 96 a7 cb be
       -0.12430912 -0.18608125 -0.25225508 -0.39776295
000120 0c 8a dc ba 11 00 97 3d 00 9a c7 be 49 9e e3 3d
       -0.0016825809 0.073730595 -0.3898468 0.11114175
000130 98 33 99 3e ca d8 cd 3b 64 95 35 3e 78 ab 1b be
       0.29922175 0.006281947 0.17732769 -0.15202129
000140 26 01 b5 bd 33 73 5b bd 0d a6 23 3c f5 86 1a 3d
       -0.0883811 -0.05357666 0.00998832 0.03772636
000150 65 78 80 bd 73 24 9f 3d 0f d8 bf bd 7f cf a9 bd
       -0.062729634 0.07770624 -0.09367382 -0.0829153
000160 fe 84 3a 3c 82 07 85 3c 04 5a 36 bc 48 4b ec 3c
       0.011384247 0.016238932 -0.01112986 0.02884449
000170 c7 e8 a3 bd 6d 9d f5 bb 4d 0d 82 bc 64 12 43 3e
       -0.08003383 -0.0074955733 -0.015875483 0.19049984
000180 36 08 7e 3d 0a 62 ab 3d 8a de e6 3c cd 1a 96 3d
       0.06201955 0.08368309 0.028182287 0.073293306
000190 eb ee 79 3e 80 e0 b4 3e 3d 7b 12 bc c8 23 21 3e
       0.24407546 0.3532753 -0.008940515 0.15736306
0001a0 37 cf 00 3c f7 c3 8b bc 74 34 1f 3d 16 cb c2 3e
       0.007861904 -0.017061217 0.038868383 0.38045567
0001b0 7c dc c1 3d 7d c3 48 3d f3 1d a4 3d 82 de 88 3e
       0.09465882 0.049014557 0.08013525 0.2673226
0001c0 13 2d 51 3e 17 3b 6c 3d 93 40 0b 3d 90 1d 2a 3e
       0.2042735 0.05767354 0.03399713 0.1661284
0001d0 8d f3 03 3e ac 7f f8 bd 92 85 2c be 43 2f 80 be
       0.12885876 -0.121337265 -0.16847828 -0.25036058
0001e0 8f 89 8d bd f2 12 c0 3c 32 bd 10 3e a7 66 94 bd
       -0.06911003 0.023446534 0.14134672 -0.07246142
0001f0 3a c2 87 3d b9 01 c9 3d 77 54 04 be 64 17 5f be
       0.06628843 0.09814782 -0.12922846 -0.21786267
000200 30 b2 ef bd 03 06 c7 bd ad 12 41 3d b2 5c ee 3c
       -0.117039084 -0.097179435 0.04713695 0.029096935
000210 02 05 85 bc 11 22 48 3e cc 4b 9d 3c bd e9 45 3d
       -0.01623774 0.19544245 0.019201182 0.048318613
000220 1b b9 9e bd 14 a8 42 3d 59 d9 a6 3d e5 19 a3 3d
       -0.0775015 0.047523573 0.081469245 0.07963923
000230 b3 52 92 3e fd 74 0c be 68 6d 35 be 0b 40 0b be
       0.2857872 -0.13716502 -0.17717516 -0.13598649
000240 e9 66 26 bd 7d 33 68 bd e8 31 81 3d 1e f3 c9 bd
       -0.040625487 -0.056689728 0.06308347 -0.09860824
000250 59 41 4a be c8 72 95 bc 7a cc 5a 3c 86 bd 33 3c
       -0.1975149 -0.018243209 0.013354415 0.010970479
000260 ed 8d 0b be 07 79 3a be dd 8a 01 3e 77 61 46 3e
       -0.13628359 -0.18210231 0.12650628 0.19373117
000270 fe 57 a4 3d 63 bf b6 bd b1 d1 66 bd 23 98 96 bc
       0.08024596 -0.08923223 -0.05635232 -0.018383091
000280 a7 3f ad bd 41 02 7e 3d af 10 b3 3d e2 1f ce be
       -0.08459406 0.06201387 0.087434165 -0.402587
000290 62 36 1f be db e2 b2 3d c5 0e 59 3e 92 37 b7 bc
       -0.15548089 0.087346755 0.2119704 -0.022365365
0002a0 34 74 ab bd 31 e2 1e be 7c f9 4a 3e 5f ac 11 3d
       -0.08371773 -0.15515973 0.19821733 0.035564777
0002b0 ed 3e a3 3d 28 70 9c 3e 9a 8f 37 3d e1 d0 23 3c
       0.079709865 0.30554318 0.044814683 0.009998531
0002c0 bc 3d 21 bd 7a fc 71 3e d8 20 13 be fa bf aa bd
       -0.039365515 0.23631468 -0.14367998 -0.08337398
0002d0 88 17 42 bd c4 2d 8d bd a0 59 e8 3d 8e 33 a6 bd
       -0.047385722 -0.06893495 0.113452196 -0.08115302
0002e0 08 5e cd bc 69 0e 6e be 3a 57 4e be 8e d0 cd bd
       -0.025069252 -0.23247685 -0.20150462 -0.10049544
0002f0 df 0b 7f bd 0d 6d 41 be bc 55 ad 3d 77 c3 47 3e
       -0.06226718 -0.18889256 0.08463618 0.19508158
000300 50 70 29 bc 6e ce 99 bd e7 c4 01 bc f5 4e 58 3d
       -0.010341719 -0.075100765 -0.00792048 0.052809674
000310 18 08 dc bd 7c d7 4b be fb 70 86 ba 07 91 4d 3d
       -0.10743731 -0.1990642 -0.001025706 0.050187137
000320 ac e0 af bc fb 25 e3 3d 17 96 51 3c 31 f6 0d 3e
       -0.021469437 0.110912286 0.012792132 0.13863446
000330 07 e6 d2 3d 29 95 eb 3d 6a 7c 1a 3e 6b 86 00 3e
       0.102977805 0.115030594 0.15086523 0.12551276
000340 1e cd 83 3e 13 10 c7 3d 1d d5 3f bd 0e 46 1b 3c
       0.2574243 0.09719863 -0.0468341 0.009477152
000350 44 d0 27 bc f3 82 b8 bd 59 fa 03 be eb 6d 06 3d
       -0.0102425255 -0.090093516 -0.12888469 0.03281967
000360 d3 ee 60 3e f3 23 2c 3d 3f 18 bd 3d a2 21 1c bd
       0.21966104 0.04202647 0.0923314 -0.038118012
000370 38 eb ac bd be 1c 27 be 7d d6 28 3e 44 6e 84 bc
       -0.08443302 -0.16319558 0.16488071 -0.01616586
000380 d5 ea f3 bd c2 bc d6 bd 93 56 3c be a8 ae 3c be
       -0.11910025 -0.104852214 -0.183924 -0.18426001
000390 3f 00 67 bd 77 6c 41 3b ce 76 0d be a2 34 3f bd
       -0.05639672 0.0029514113 -0.13814852 -0.046681054
0003a0 63 91 98 bd 35 c9 a8 bc 44 ff c9 3b 41 ac 23 be
       -0.07449605 -0.020603755 0.0061644632 -0.15983678
0003b0 8d 6e 98 bd 48 39 24 3e eb e8 18 be a5 3b 5a bd
       -0.07442961 0.16037476 -0.14932601 -0.053279538
0003c0 00 99 47 3d e1 75 66 bd 4b aa dc bd 55 b3 ba bd
       0.048729897 -0.05626476 -0.10774668 -0.09116236
0003d0 cc df 2d bd 1b 45 5e be 80 29 93 bd c5 e7 0e be
       -0.042449757 -0.21706049 -0.0718565 -0.139556
0003e0 89 39 5a be e7 ae ac 3d fb fd 46 bd 5b 19 e0 3d
       -0.2131101 0.084317975 -0.04858206 0.10942336
0003f0 e7 53 d0 3d b2 c1 53 3e 7a 27 af 3d a1 fb 5c 3e
       0.10172253 0.20679358 0.085524514 0.21580364

conv3.bias f4 [32]
000000 4f 58 23 be dc 3b 2a be 51 19 2e be 0e 81 0e be
       -0.15951656 -0.16624397 -0.17001845 -0.13916418
000010 26 37 36 bd 18 cd a6 be 37 e5 b1 bd 2b 29 66 be
       -0.044486187 -0.3257835 -0.086862974 -0.22476642
000020 59 55 a8 be 5c b7 ba be f0 9d 01 bf a0 36 99 be
       -0.32877615 -0.36468017 -0.5063162 -0.29924488
000030 9f 73 71 be 2c dc 37 be a5 dc 38 3e 42 aa ad bd
       -0.23579262 -0.17955083 0.18052919 -0.0847974
000040 08 81 5d be d3 9c 4d be 4b 9b e9 3d 60 b4 5e be
       -0.21631253 -0.20079355 0.11406573 -0.21748495
000050 5f 1b 77 3e c7 70 d1 3d 8c b2 3d be ae 48 65 be
       0.24131535 0.10226589 -0.18525141 -0.22391006
000060 c1 ce 29 be 25 ed 32 be f2 7e 9f be 9d 09 db bc
       -0.16582777 -0.17473276 -0.3115154 -0.026737982
000070 8a 49 d5 bd 48 77 bb be be 42 d6 bd 20 1a 82 bd
       -0.10414417 -0.36614442 -0.10461949 -0.06352639

bn3.weight f4 [32]
000000 f6 da 84 3f ac f5 78 3f c8 80 74 3f 4b 9f 78 3f
       1.0379322 0.97249866 0.95509005 0.9711806
000010 09 48 7b 3f 65 60 96 3f 6c 2e 83 3f a6 85 6a 3f
       0.9815679 1.1748167 1.0248542 0.9161018
000020 85 83 7c 3f 2f bc 86 3f a3 14 87 3f 59 54 8d 3f
       0.9863818 1.0526179 1.0553173 1.1041366
000030 07 26 54 3f 70 d8 80 3f 2f 86 65 3f b3 27 86 3f
       0.82870525 1.0066051 0.8965787 1.0480865
000040 bb 5a 6d 3f 24 47 5c 3f fe 7b 5e 3f 65 06 82 3f
       0.9271657 0.8604605 0.8690795 1.0158201
000050 be b5 4a 3f fc 2c 47 3f 30 70 6e 3f 29 c7 63 3f
       0.79183567 0.77803016 0.93139935 0.8897577
000060 48 5c 79 3f de 4a 77 3f 8d 9f 83 3f 87 b8 6c 3f
       0.97406435 0.96598613 1.0283066 0.92469066
000070 a4 57 8c 3f 1d e8 7e 3f dd 51 89 3f 2f e6 63 3f
       1.0964246 0.99572927 1.0728108 0.8902311

bn3.bias f4 [32]
000000 c9 4e 17 3e 6b 33 d2 bd 24 7b c4 3d 53 83 0f be
       0.14776148 -0.102637134 0.095938 -0.1401494
000010 b2 42 d2 be e5 69 72 3e ec 8a cf 3d a2 b2 2a 3e
       -0.4106651 0.23673208 0.10133919 0.16669706
000020 21 74 f4 bd d5 8f b4 3e da bb 8d be f6 50 79 3e
       -0.11936212 0.35265985 -0.27682382 0.2434729
000030 c9 2c 3c 3e 87 ea f7 3c e9 20 91 3d d0 9e 9d 3e
       0.18376459 0.030263199 0.07086355 0.30785227
000040 b2 f1 83 bd 58 d6 e9 bd 0b 54 58 3d 65 38 4d be
       -0.06442584 -0.11417836 0.052814525 -0.20041044
000050 70 c3 80 3e f1 57 2f 3e 08 7a d1 be a6 b3 0b be
       0.25149107 0.1712339 -0.40913415 -0.13642749
000060 2b 4e c2 3d d4 49 e6 3e 16 ab 08 3d af 5c 72 be
       0.094875656 0.449782 0.033366285 -0.23668168
000070 f1 b4 aa bd 2a fd 39 3c 56 c3 0e 3e 2a 1b c5 be
       -0.08335293 0.011351863 0.13941702 -0.38497287

bn3.running_mean f4 [32]
000000 ff f6 3c 3f 89 cb 45 3e 85 c3 4f 3e b9 1b a8 3e
       0.73814386 0.19315924 0.20289429 0.3283365
000010 0b e1 02 40 af 6b a0 3d 47 97 74 3e 53 83 78 3d
       2.0449855 0.07833039 0.23885833 0.060672116
000020 be 78 2a 3d 19 12 e9 3d 85 52 88 3d 61 de 39 3e
       0.041619055 0.11380405 0.06656364 0.18151237
000030 01 4b de 3e 9e 5d 41 3e b9 65 a0 3f 72 fd 1c 3f
       0.43416598 0.18883368 1.2531043 0.61324227
000040 50 4b 36 3f 82 6e 0e 3e 81 56 8f 3f 31 4a e4 3d
       0.7120867 0.13909343 1.1198274 0.111469634
000050 72 f9 ec 3f b7 f3 83 3f c6 e9 ce 3d 2a 20 83 3e
       1.8513625 1.0308751 0.101031825 0.25610477
000060 eb f2 04 3e 4f 15 a0 3e 28 d0 c0 3e 8a e0 06 3f
       0.12983291 0.31266257 0.3765881 0.5268637
000070 2a a5 70 3e ce af 93 3e e8 78 9c 3e 59 4f 10 3f
       0.23500505 0.28845066 0.30560994 0.56371075

bn3.running_var f4 [32]
000000 5a 39 9d 40 f0 31 c2 3e 24 88 0d 3f 33 54 e8 3f
       4.913251 0.37928724 0.5528586 1.8150696
000010 2b d5 a0 3f a6 46 68 3e 7e 0b 40 3f 06 e2 1f 3e
       1.2565054 0.226832 0.75017536 0.15613565
000020 0c 01 9e 3d bd a2 83 3e 45 b1 6a 3e f8 a7 16 3f
       0.077150434 0.25710097 0.22919185 0.5885005
000030 67 af 0a 3e 35 99 e1 3e 80 dc dc 3e 0b 20 7b 40
       0.13543473 0.440622 0.43136978 3.9238307
000040 ef 1c 83 40 3a 1b a4 3e a2 cf e7 3e c0 f8 cf 3e
       4.097282 0.32052022 0.452756 0.4061947
000050 7d 65 45 3f ca 62 bc 3e 66 a9 e4 3e c0 9b 52 3f
       0.77107984 0.3679412 0.4466049 0.82268906
000060 39 b7 e3 3e 6a 57 86 3f 6c b3 d2 3f 66 15 38 40
       0.44475725 1.0495427 1.6461005 2.876306
000070 64 98 52 3f 24 94 96 3f 43 67 ab 3f 24 77 de 40
       0.8226378 1.1763959 1.3390888 6.9520435

conv4.weight f4 [64, 32, 3, 3]
000000 7a f2 c6 bd cf 43 96 be 2f 27 8a be c0 37 14 bd
       -0.097142175 -0.2934861 -0.2698302 -0.03618598
000010 cc 3d 86 bd 6a 2c 1c be db de b2 3c 3d e5 98 bd
       -0.065547556 -0.15251318 0.021834781 -0.07465599
000020 91 8c 51 be 2a 68 a7 ba ff e9 c5 bd ab f7 ab bd
       -0.20463778 -0.0012772132 -0.09663772 -0.08396848
000030 fc 34 01 bc c0 f6 e3 3b 96 bd d6 ba 7d 11 a9 bd
       -0.007886168 0.006956905 -0.0016383405 -0.08255289
000040 cb a1 37 be 7d 9b 9c bd c8 af 8f 3c e7 02 28 bd
       -0.17932813 -0.076468445 0.017539874 -0.041018393
000050 1c 18 80 bd 38 40 b8 3c 21 1d 75 3d 1a a7 cf bd
       -0.062545985 0.02249156 0.059842233 -0.10139294
000060 e4 e5 9c 3c c5 e3 c9 3d b2 ac df 3d f9 87 a1 bd
       0.01915259 0.09857897 0.10921611 -0.07887263
000070 bf 75 85 3b b4 86 18 bd 06 0f 29 3e 14 37 8c 3d
       0.0040728743 -0.037237838 0.16509637 0.06846443
000080 44 0d 70 3d 3e ac f9 3d 9f 50 17 3e 1d 71 83 3d
       0.0586064 0.12191056 0.14776848 0.06418059
000090 a8 32 27 3d f4 d1 24 3e 31 7c 8d 3e 3f 10 e1 3d
       0.040819794 0.16095716 0.27633813 0.10989427
0000a0 7c f7 2a 3e 40 e0 6c 3e 9e 81 2f 3c 9f 55 ba 3d
       0.1669597 0.2313242 0.0107120555 0.09098362
0000b0 f1 17 92 3d 70 09 bd bd 44 9b 75 be 47 ec 2a be
       0.07133473 -0.09230316 -0.2398501 -0.16691695
0000c0 4f cc b2 bd 0a 03 95 bd 14 ac 8d bd fa 36 eb 3d
       -0.08730375 -0.0727597 -0.06917587 0.11485095
0000d0 76 58 81 bd e2 fd 88 bc ff 51 81 3d 12 ae 13 3e
       -0.06315701 -0.016722623 0.06314468 0.14421871
0000e0 bb 87 2a 3e a9 10 3d bd bd 9c 8e bd b4 c2 0c bd
       0.1665334 -0.046158466 -0.06963489 -0.03436537
0000f0 4e ae 68 3d d9 34 d8 3c d5 9a 82 3d e2 a2 4d 3d
       0.056806855 0.026392387 0.06377188 0.050204165
000100 b7 72 9b bc 6c da 1b 3e 27 79 22 3c 80 c0 8a bc
       -0.018975599 0.1522004 0.00991658 -0.016937494
000110 45 6e 80 bc a3 59 ff bd 88 30 27 be 03 79 27 be
       -0.01567758 -0.12468269 -0.16327107 -0.16354756
000120 07 38 a3 bc 42 e9 5d 3b 0d 0f 06 3d 56 ec 20 3d
       -0.019924177 0.0033860956 0.032729197 0.039287888
000130 04 c6 a1 3d 01 71 d6 3d 3a e7 a7 3d 60 8c 16 3e
       0.078990966 0.104707725 0.081984 0.14701986
000140 fb 6b 94 3d e7 aa 24 3d a7 07 41 3d 8b 05 0a be
       0.07247158 0.040202048 0.04712644 -0.13478677
000150 6c 2c cc bc c6 d9 0d 3b 37 d3 75 3d 95 06 c2 3d
       -0.024923526 0.0021644696 0.060015883 0.09473912
000160 3a b8 56 3d 07 f8 e6 bd db ea 83 bd 59 06 70 3c
       0.052421786 -0.11277776 -0.064412795 0.014649951
000170 f6 33 29 bc 8d 05 51 bd 4f 23 8e bd 6f c6 5b bd
       -0.01032733 -0.051030684 -0.06940328 -0.053656038
000180 f6 2b 42 3c 6e 37 aa bd 30 d4 81 bd c6 aa 27 bd
       0.011851301 -0.083113536 -0.063393 -0.040934347
000190 a9 d4 a8 3c 1b b5 b0 3d cd 6b c5 bc b2 28 a2 3d
       0.020609217 0.08628293 -0.024099255 0.07917918
0001a0 5c 61 ca 3d 04 30 b4 bd da cf 23 bd 6d 71 40 bc
       0.09881851 -0.08798221 -0.039993145 -0.011745793
0001b0 5b cd 43 bd 94 25 02 be 89 63 b2 bd 48 46 4a 3c
       -0.047803264 -0.12709647 -0.08710391 0.012345858
0001c0 18 52 0b 3d 53 fd c8 3c f9 cd 58 bd 86 fe 74 bd
       0.034013838 0.024534857 -0.052930806 -0.059813045
0001d0 70 f7 49 bd 9e 8d 38 be d8 4e ff bc f3 9b 83 be
       -0.04930824 -0.18022773 -0.031165525 -0.25704917
0001e0 84 f5 f8 3d 6a 95 3d 3e c7 0a 9f 3d 7c f5 06 bd
       0.121562034 0.18514028 0.077657275 -0.032948956
0001f0 19 e1 86 bc 20 68 f7 b9 d9 c9 3a be 19 15 bf 3b
       -0.016464757 -0.0004718909 -0.18241061 0.0058313725
000200 d8 24 79 3b 03 97 f1 bc 93 fa 78 bd 34 d5 e2 bd
       0.0038016345 -0.029490953 -0.06078584 -0.110758215
000210 c8 6f 86 bd c1 81 20 be 6b fe 98 bc 9a f3 c5 bb
       -0.06564289 -0.15674497 -0.018676003 -0.0060410025
000220 76 7c 6e 3e 79 4a c1 3d 13 0f 01 be de 6d 86 bd
       0.23289666 0.09438033 -0.12603407 -0.06563924
000230 3a 2a 66 bd d9 75 8e 3d 63 a7 bf 3c 3d be 20 3e
       -0.056192614 0.069560714 0.023395246 0.1569757
000240 30 53 ac 3d 6b de 3b bd 07 72 1c bd 2e d5 3a bd
       0.08414304 -0.04586641 -0.038194682 -0.04561346
000250 de a5 30 bc 63 a5 78 3d 44 ff 0d bd 2d 17 c1 3d
       -0.010781733 0.0607046 -0.03466727 0.094282486
000260 53 68 10 be 90 22 bf 3d c8 3f 6d bc 45 db b7 3c
       -0.14102297 0.09332764 -0.014480539 0.022443423
000270 80 ea 8e bd b6 dd a3 3c 27 7d 2c 3d 83 bf 92 3d
       -0.06978321 0.020003181 0.042111542 0.07165434
000280 90 9a 16 bc f7 1d bc bc 33 65 95 bb 9b 8b 94 bd
       -0.009192124 -0.022963507 -0.004559183 -0.0725319
000290 35 30 25 3d 54 5c b6 3d 04 d9 41 3d 64 de c8 3c
       0.040329177 0.08904329 0.047326103 0.024520107
0002a0 1f 0f 16 3d 2a 94 b4 3d 2c c5 8b 3c 0b 16 64 bd
       0.036635514 0.088173226 0.017061792 -0.055685084
0002b0 dc 57 be 3b d8 89 2a bc 97 2b 8d bd 28 e0 8e 3c
       0.0058088135 -0.010408841 -0.0689308 0.01744087
0002c0 2b 36 21 3d a4 6b d6 3d 48 1f b9 3d 6d fd cf 3c
       0.0393583 0.104697496 0.090391695 0.025389398
0002d0 00 98 8a 3d 79 98 8b 3d 48 e6 04 3e f8 ba d9 3d
       0.06767273 0.06816191 0.1297847 0.106313646
0002e0 93 51 c5 3c f0 8e 1b 3e a5 9b 5e 3d 39 c6 5f 3d
       0.02408675 0.15191245 0.054347653 0.0546324
0002f0 a2 47 14 bd d5 3b f8 bd 86 d1 2a be 69 eb f7 bd
       -0.036201127 -0.12120787 -0.1668149 -0.12105448
000300 71 2d b0 bd 95 e1 18 bd bf a4 cf bd 18 a2 3f bd
       -0.08602417 -0.037324507 -0.10138845 -0.046785444
000310 44 38 41 be da 12 f7 bd 4d aa a2 bd e3 7c 77 3d
       -0.1886912 -0.120641425 -0.079426385 0.060421836
000320 58 39 1c bd 1e 69 45 bd 09 81 11 bd d2 01 89 bc
       -0.038140625 -0.04819595 -0.03552345 -0.0167245
000330 16 8f 9c 3c 3f 42 73 3e cb cd 1b 3e 31 a9 f8 bd
       0.019111197 0.2375574 0.15215223 -0.12141646
000340 ba 0f 03 be 5f 8f 36 bb 28 63 15 3e 0b 14 23 3e
       -0.12798968 -0.0027856452 0.14588606 0.15925615
000350 15 31 12 3e bc a3 ad bd 7e e1 44 bd f3 32 29 bd
       0.14276536 -0.084784955 -0.04806661 -0.041308355
000360 ed 95 a1 3c a7 d3 d6 bc bc 75 ed 3d f4 12 ad bd
       0.01972481 -0.02622397 0.11594722 -0.08450881
000370 93 29 da bd 48 49 ef 3b 46 09 db bd 9f 2a d3 bc
       -0.10652461 0.007302437 -0.10695128 -0.02577716
000380 66 b0 0a 3c 48 0b b6 bd b7 a7 b2 bc 28 49 33 be
       0.008464908 -0.088888705 -0.021808488 -0.17508376
000390 d5 c6 b1 3c 68 32 06 bc d4 3e e2 bd b9 74 92 bd
       0.021701256 -0.008190729 -0.1104714 -0.07151169
0003a0 ad c2 1e be 0a 2c 2b be 32 74 1e 3c 7c 74 83 3d
       -0.1550395 -0.16716018 0.009671258 0.06418702
0003b0 3d a6 66 3e 48 a2 db bc d0 48 5c 3d 7c de b4 3d
       0.22524352 -0.02681078 0.053780377 0.08831498
0003c0 76 2b 8e 3d 16 01 d0 3c 46 7e 25 bd 04 1b 13 3d
       0.06941883 0.025391143 -0.040403627 0.035914436
0003d0 fd eb 97 bb 9f ae 95 bc cb 38 3b bd 51 24 9b bc
       -0.0046362863 -0.018271742 -0.04570846 -0.018938215
0003e0 6b 89 73 3d ef 49 bc 3d d9 a8 fb bc 8f d9 9b 3d
       0.059457224 0.09193789 -0.030720161 0.076098554
0003f0 db f4 b1 bd ca df 4b 3d dd b6 49 bd bc 06 2c be
       -0.086892806 0.04977397 -0.049246658 -0.16799444

conv4.bias f4 [64]
000000 00 a8 39 be 31 d4 12 be f0 ee 89 be c5 88 ed bd
       -0.18130493 -0.14338757 -0.26940107 -0.11598352
000010 1e af 69 3d 97 04 d6 bd ac d0 c9 be e2 60 b7 be
       0.05705177 -0.10450094 -0.39417017 -0.35816103
000020 ca f6 93 be a5 07 bc be d0 1f 68 be d8 48 9b be
       -0.28899223 -0.36724582 -0.22668386 -0.30329013
000030 3e fe 39 be 2f 8c a3 bd 3c 32 0e be 24 6d da be
       -0.18163392 -0.07985722 -0.1388635 -0.42661393
000040 68 84 a1 bd 3e 5f 9b 3d 32 53 77 bd 32 c1 aa be
       -0.078865826 0.075865254 -0.060382076 -0.3335052
000050 19 60 7e be 1b 79 c1 3c 00 6c 29 be 93 f8 96 be
       -0.24841346 0.023617318 -0.16545105 -0.29486522
000060 6e 4c 12 3e 86 df e9 be a2 5a df be 9f cc f1 3d
       0.14286968 -0.45678347 -0.43623835 0.118066065
000070 d3 41 39 3e 47 f0 d1 bd 24 2c 7f bd fb e6 25 3e
       0.18091516 -0.102509074 -0.062297955 0.16201393
000080 21 1e 04 be e0 86 cb bd 71 04 62 be 9f dc 84 bd
       -0.12902118 -0.09937835 -0.22072007 -0.06487393
000090 9f bc ab 3c 5d a6 79 bd 5f 60 a8 be 6e 1e 8e be
       0.020963965 -0.060949672 -0.32886025 -0.2775759
0000a0 da ca 2a 3e 06 9b b5 3e 70 cd 27 be 3e bc ee bd
       0.16678944 0.35469836 -0.16386962 -0.11656998
0000b0 8d 0f 64 be 59 25 13 be c1 43 03 bd a5 7a f9 3a
       -0.22271557 -0.14369716 -0.032047037 0.0019033743
0000c0 50 eb cc be 9d 42 8c 3c 4a bc ab be 5a 80 af be
       -0.4002328 0.017121607 -0.3354209 -0.34277612
0000d0 35 1d 1c 3e aa 71 a4 be 2b a6 44 be c0 b3 70 bd
       0.15245517 -0.3211797 -0.19204013 -0.058765173
0000e0 8b bf 43 bd 48 e6 80 be b6 0d d8 3c 74 be 6d bd
       -0.04779009 -0.2517569 0.026373725 -0.05804296
0000f0 fb 8f 8b be c7 b3 74 be d8 e2 4a be 66 11 3e be
       -0.27258286 -0.23896705 -0.19813097 -0.18561324

bn4.weight f4 [64]
000000 1f 60 10 40 48 c4 28 40 21 08 3b 40 8d 06 12 40
       2.2558668 2.63698 2.9223711 2.2816498
000010 38 1d f9 3f 25 65 40 40 71 47 37 40 19 ba 2d 40
       1.9462042 3.0061734 2.8637354 2.7144835
000020 9a 96 2c 40 7e 90 33 40 02 57 20 40 33 82 3a 40
       2.696692 2.805694 2.5053105 2.9141967
000030 a5 75 31 40 da 8b 04 40 3a 1f 21 40 d2 07 4b 40
       2.7728055 2.0710359 2.517531 3.1723523
000040 c9 2c 1a 40 0a 49 1e 40 5d 68 29 40 a2 77 42 40
       2.4089835 2.473208 2.6469948 3.0385518
000050 fb 62 34 40 db 33 0d 40 39 1c 40 40 36 b0 2b 40
       2.8185413 2.20629 3.0017226 2.68263
000060 8c 90 27 40 7c 1c 34 40 4a da 48 40 30 9e 10 40
       2.6181974 2.8142385 3.1383233 2.259655
000070 3f 80 24 40 58 44 1a 40 91 7e 3e 40 5f bf fa 3f
       2.5703275 2.4104214 2.976475 1.9589652
000080 8d a1 3f 40 35 cd 32 40 6f fb 2f 40 dd 18 1e 40
       2.9942353 2.7937748 2.7497213 2.4702675
000090 4c d9 12 40 ed 98 0d 40 95 16 3d 40 e7 43 3d 40
       2.2945127 2.2124588 2.9545033 2.9572694
0000a0 45 3b 0e 40 6e ac fe 3f 1c bf 23 40 09 92 0a 40
       2.2223675 1.9896371 2.5585394 2.1651633
0000b0 b6 e4 35 40 3f 7f 27 40 c3 58 23 40 57 ee 1b 40
       2.8420844 2.6171415 2.5522926 2.436422
0000c0 12 e5 4c 40 ce 0d 20 40 51 0c 3e 40 26 4c 3b 40
       3.2014813 2.5008426 2.9695017 2.9265227
0000d0 5b 45 0d 40 29 30 43 40 1a 5c 37 40 d5 ef 1a 40
       2.2073581 3.0498145 2.8649964 2.4208882
0000e0 37 7b 15 40 20 b7 42 40 d9 33 0b 40 79 67 12 40
       2.3356454 3.042427 2.1750395 2.2875655
0000f0 5d 14 31 40 17 b1 41 40 dc 9c 31 40 1b 6e 42 40
       2.7668679 3.0264337 2.775199 3.0379703

bn4.bias f4 [64]
000000 43 34 1f 3e d7 ac 32 be 74 48 46 be fc 52 9b 3e
       0.1554728 -0.17448746 -0.19363576 0.3033675
000010 c2 72 61 3e ab 3f 85 3e 0c e9 56 3e 54 77 51 3e
       0.22016433 0.26025137 0.20987338 0.20455676
000020 9d d7 86 3e 9b 8f 22 3e 30 53 24 3e 5a 3f 53 be
       0.26336375 0.15875094 0.16047359 -0.20629635
000030 b7 bd 32 3e 65 76 0b be df 85 40 3e 88 b7 a9 be
       0.17455183 -0.13619383 0.18801068 -0.33147836
000040 39 c0 11 be 65 16 3b 3e 4d b9 31 3e 74 54 59 be
       -0.14233483 0.18270262 0.17355843 -0.21223623
000050 7f 29 48 be 51 e5 33 be ed 14 9b be 63 24 9f be
       -0.1954708 -0.17567946 -0.30289403 -0.31082448
000060 00 cf 5d 3e 0b 1e 81 be a8 98 cb 3d 7b 9f a8 3e
       0.21660995 -0.25218233 0.09941226 0.32934174
000070 54 7a 92 3e 70 cd 14 3e d2 78 07 be 15 4c a3 3e
       0.28608954 0.14531493 -0.13229683 0.31893983
000080 30 1b 87 3e 9b b2 88 3e 15 e1 65 3e 16 33 43 3e
       0.2638793 0.26698765 0.22449143 0.19062456
000090 cf dd 87 be 6f a5 24 3e 0d 50 6c be b7 4b 6f be
       -0.26536414 0.16078733 -0.23077412 -0.23368727
0000a0 eb c3 ab 3e 33 23 5e 3e 94 76 1f 3e 89 ff 66 3e
       0.3354791 0.21693115 0.15572578 0.22558416
0000b0 00 c3 22 3e 38 fd 48 3e 66 a1 57 be c4 39 42 3e
       0.15894699 0.19627845 -0.21057662 0.18967348
0000c0 15 3f d7 bd 9e 98 b0 3e ca ce 07 3e 36 8a 45 be
       -0.10510079 0.34491438 0.13262478 -0.19291005
0000d0 60 fa 19 3e 9a 9f 31 be 1f 7f 12 be 74 31 64 be
       0.15036917 -0.1734604 -0.14306305 -0.2228449
0000e0 d2 95 6a 3e 34 56 a4 be 20 af 41 3e c9 d0 44 3e
       0.22908714 -0.32097018 0.18914461 0.1922027
0000f0 7a 0d 6a be c9 53 6f be 45 b2 86 be 33 35 83 be
       -0.22856703 -0.23371805 -0.26307884 -0.25626525

bn4.running_mean f4 [64]
000000 7e b9 0f 3d 53 55 35 3e c1 98 73 3c 2c 32 40 3f
       0.03508901 0.1770833 0.014867962 0.75076556
000010 f4 20 16 3f 97 fa 62 3d 91 d5 da 3c 98 cf 00 3d
       0.5864403 0.055414762 0.026713165 0.031447977
000020 94 bb 05 3d dc 9a b2 3c a3 09 8f 3d 2c 9b 2d 3c
       0.03264959 0.021802358 0.0698426 0.010596078
000030 9f ad 48 3d de 30 2e 3f 66 e8 f5 3d c8 11 ba 3c
       0.048993703 0.68043315 0.12007217 0.022713557
000040 e7 af 99 3e 59 12 99 3d 2a 3f b9 3d 5f f5 3d 3c
       0.30017015 0.07474203 0.09045251 0.011594146
000050 dd e8 83 3c 0c 4f e6 3e fb d7 0a 3d 1c f6 02 3d
       0.016102249 0.44982183 0.03389738 0.03197299
000060 01 33 ba 3d 42 41 2f 3c 18 91 0b 3d d4 53 65 3f
       0.090917595 0.010696711 0.03407392 0.89581037
000070 b1 0c 19 3f 75 85 b6 3d 61 58 99 3d 1c ca 91 3f
       0.5978499 0.08912174 0.0748756 1.1389804
000080 65 85 0f 3d 07 87 68 3d f9 e6 03 3d fc b8 fe 3d
       0.035039324 0.056769397 0.032202695 0.12437627
000090 68 45 2b 3f 66 a8 24 3e da 9f 59 3c 75 56 fe 3c
       0.6690278 0.16079864 0.0132827405 0.031047085
0000a0 15 3a 91 3f f6 58 c5 3f 44 51 5f 3d 9c ac e6 3c
       1.134585 1.5417774 0.05452086 0.028158478
0000b0 e7 fe fa 3c 72 f8 9c 3e 87 15 0d 3f dd 70 14 3f
       0.030639125 0.306583 0.55110973 0.57984716
0000c0 e3 a3 7f 3c a6 bf ca 3e 12 00 29 3d 5a 98 c4 3c
       0.0156030385 0.3959934 0.041259833 0.023998428
0000d0 46 83 5d 3f f1 b9 62 3c 94 60 39 3d fd 45 ba 3e
       0.8652843 0.013838277 0.04525812 0.36381522
0000e0 5e c1 ed 3d d3 4e 48 3c 0a 53 16 3e 07 86 f0 3d
       0.116091475 0.012225824 0.14680114 0.11744314
0000f0 3d 73 a6 3c c7 62 0e 3d 1b ad 01 3d 0c 3d ca 3c
       0.020318622 0.03476217 0.031659227 0.024687313

bn4.running_var f4 [64]
000000 37 2f 83 3d f1 63 26 3e a7 72 14 3d ad 05 11 3f
       0.0640549 0.16249062 0.036242153 0.56649286
000010 4d 09 9e 3e 04 3b f0 3d 6f ab 42 3d 23 2e 90 3d
       0.3086647 0.11730006 0.047526773 0.0704005
000020 a9 e3 5e 3d 3d 3c 1d 3d ca fd 01 3e e0 86 c8 3c
       0.054416332 0.038387526 0.12694469 0.024478376
000030 05 b0 f6 3d 54 19 10 3f 06 a6 ab 3e 27 d2 2d 3d
       0.12045292 0.5628865 0.33525103 0.042436745
000040 b0 38 bc 3e ae a6 17 3e d0 22 08 3e 2f 01 d8 3c
       0.36762 0.14809677 0.1329453 0.026367752
000050 f5 e5 0e 3d a8 b3 8d 3e e9 af 68 3d 54 4b 82 3d
       0.034887273 0.2767613 0.056808386 0.06362024
000060 57 e7 46 3e 1c 9e b5 3c 3a 00 b4 3d 9d 88 ff 3e
       0.19424187 0.022170119 0.08789106 0.49908915
000070 72 6f af 3e ec d0 0d 3e d9 dc 3d 3e 45 95 f8 3e
       0.34264714 0.13849229 0.18541278 0.48551384
000080 05 a2 c5 3d 7c f0 90 3d 64 16 7e 3d 47 0c be 3e
       0.096500434 0.07077119 0.062033072 0.37118742
000090 b7 b4 a7 3e d8 9d a3 3e 35 91 be 3c 66 b6 63 3d
       0.32755062 0.31956363 0.0232626 0.05559387
0000a0 ab d7 2d 3f 00 ff 38 3f 82 56 e1 3d 93 64 53 3d
       0.6790721 0.722641 0.11002828 0.051609587
0000b0 89 d9 86 3d 29 ba c4 3e 5b 9d c3 3e 27 4e 25 3f
       0.0658446 0.3842328 0.3820599 0.64572376
0000c0 2b d9 e4 3c 3c ee e1 3e 47 c5 c3 3d 88 35 84 3d
       0.027935585 0.4412707 0.09559112 0.06455523
0000d0 d5 7e e1 3e 50 a8 09 3d b8 65 04 3e e8 18 6c 3e
       0.44042078 0.03360778 0.12929428 0.23056376
0000e0 2f 28 67 3e a3 0a f1 3c 4c 18 8d 3e d0 24 5a 3e
       0.22573923 0.029424017 0.275576 0.21303105
0000f0 e2 0e 38 3d b9 d5 80 3d 21 d6 76 3d da 15 33 3d
       0.04493607 0.06290764 0.060262803 0.04372201
