NCC_Code/models/2022-08-26_13-07-05_model.pt (torch, 115275 bytes, 50 tensors)

conv1.weight f4 [8, 2, 5, 5]
000000 dd ed e3 3e 3a fc 88 3f ce 08 3c 3f 50 19 d0 3f
       0.44517413 1.0701973 0.73450935 1.6257725
000010 36 59 93 3f 65 ca 29 3f 69 0e 90 3f 05 6a 79 3f
       1.15116 0.66324455 1.1254398 0.974274
000020 fd 7d c8 3f 36 b2 e2 3f 42 0f 41 be 47 13 b7 be
       1.5663449 1.7710636 -0.18853477 -0.35756895
000030 c9 dc a1 bd 72 d5 2f bf 6d b3 5f be 09 55 e6 3d
       -0.079034396 -0.68685067 -0.21845789 0.11246688
000040 f1 a7 00 bf 09 9d c1 be 51 49 5b bf e4 83 11 bf
       -0.5025626 -0.3781512 -0.85658747 -0.56841874
000050 dc 05 92 bc 24 a6 e4 bd f4 0f b8 be 09 ee 21 bf
       -0.01782506 -0.11164501 -0.3594967 -0.6325384
000060 83 44 1c bf 9a 2c 23 3f bf 18 e2 3e 7c 68 76 3e
       -0.6104204 0.6373993 0.44159505 0.24063295
000070 64 d6 8a 3f 35 63 b2 3f cf 58 3d 3f 23 e5 8c 3f
       1.0846677 1.3936526 0.73963636 1.1007427
000080 a8 53 57 3f 51 25 9a 3f d0 65 f0 3f 2a 15 e2 bd
       0.84112024 1.2042638 1.8781071 -0.11039193
000090 89 d6 89 be 48 b8 8b bd 53 71 37 bf e3 09 ae be
       -0.2692149 -0.06822258 -0.71657294 -0.33991918
0000a0 ea 07 cf 3d 5d d8 59 bf 34 1d 60 be 85 38 35 bf
       0.10108931 -0.8509577 -0.2188614 -0.70789367
0000b0 8f 8f 0c bf 8c e2 82 bd c8 d4 b4 be 6f 46 f5 bd
       -0.54906553 -0.06390867 -0.3531859 -0.11976325
0000c0 7b 92 d0 be 8c 4b 42 bf 57 27 0d bf 26 cc 6c bf
       -0.40736756 -0.75896525 -0.5513815 -0.92499006
0000d0 04 41 3f bf bb ce 8d bf e5 3f 71 bf 4f cb f4 3f
       -0.7470858 -1.1078714 -0.9423812 1.9124545
0000e0 56 68 f8 3f 8c ea a4 3f 25 9c 7e 3f 55 b7 26 3f
       1.9406841 1.2884078 0.9945701 0.6512349
0000f0 ae a8 93 be b5 4e f6 bd c5 18 60 bd 0f 49 07 bf
       -0.2883963 -0.12026731 -0.054711122 -0.52845854
000100 66 4a c0 be 66 93 e3 be 53 6c 3c bf c9 ac 1b be
       -0.37556762 -0.44448394 -0.7360279 -0.15202631
000110 3d 3e 0c bf 1c 43 37 be 04 d2 02 3f bd 39 f6 3d
       -0.5478247 -0.17896694 0.5110171 0.120227315
000120 ab 86 2c 3f c8 7e 33 be b8 ce 46 bf b1 18 cc be
       0.67392987 -0.17528832 -0.7765918 -0.39862588
000130 44 12 06 bf 67 44 79 bf a3 1c 6d bf 02 04 74 bf
       -0.5237162 -0.9737 -0.9262182 -0.95318615
000140 9c 3e a2 3f 53 fb f6 3f 2d b1 93 3f a4 23 8e 3f
       1.2675357 1.9295448 1.1538445 1.1104627
000150 db d1 20 3f 99 09 f8 bd 64 bc 23 bf 33 21 94 be
       0.62820214 -0.121112056 -0.63959336 -0.2893158
000160 0d 93 66 be 79 e0 2d bf 2e 8f 3a be ab 37 b6 be
       -0.22517033 -0.67920643 -0.18218681 -0.35589346
000170 02 43 00 bf 52 c6 a3 be e6 bb cc be 3b 45 f3 3d
       -0.50102246 -0.31987244 -0.39987105 0.11878439
000180 cf 0d 70 3f ea d2 6b 3e 80 7b 36 be 85 ac 2a bf
       0.9377107 0.23029676 -0.17820549 -0.66669494
000190 eb f8 9b 3d 07 68 4a be 2e b2 58 3d 86 07 dd be
       0.07615837 -0.19766246 0.0529043 -0.43169802
0001a0 91 77 61 be 92 23 33 3f 3b 5b 60 3f d1 c6 1d 3f
       -0.22018267 0.6997615 0.87639207 0.61631495
0001b0 12 d9 52 bf 75 69 85 bf a3 f5 95 3f 62 d3 b1 3f
       -0.82362473 -1.0422808 1.1715587 1.3892634
0001c0 d7 46 bd 3f f0 cd a4 3e 29 68 d3 be 2d 4a 45 bf
       1.4787244 0.32188368 -0.41290405 -0.7706631
0001d0 f3 30 6a bf d8 af 79 bf e3 ed c0 bf aa ba 3c bf
       -0.9148094 -0.9753394 -1.5072597 -0.73722327
0001e0 0f dd 13 3f 46 16 4f 3e 5e 8b d7 3c a8 2c 37 bd
       0.57759184 0.2022334 0.026311573 -0.044720322
0001f0 f1 91 32 be fb 11 da 3d 8f ae 68 3e cf 20 94 3d
       -0.17438485 0.10647961 0.22722839 0.0723282
000200 02 81 38 be 95 18 b3 be 73 99 ea 3e 02 ea 46 3f
       -0.18017963 -0.34979692 0.45820197 0.7770082
000210 8b da eb 3e 05 1c f6 be 8a 05 5e bf d7 7c 86 3f
       0.46065173 -0.48068252 -0.867272 1.0506848
000220 5e cf e4 3f 45 26 a6 3f 9d d3 a8 3e 0c 71 08 bc
       1.7875783 1.2980429 0.32973948 -0.008327734
000230 be a5 3b bf 96 7b 9c bf 4a a1 8d bf 0c f1 b0 bf
       -0.7329978 -1.2225215 -1.1064847 -1.3823562
000240 4c 37 2e bf 2b 0d 17 3e 6a 0a a4 3e 83 43 07 3f
       -0.68053126 0.14751117 0.32039195 0.5283739
000250 87 fd 16 3e 5d f2 4c be c2 30 a1 3f d2 57 b9 3f
       0.1474515 -0.20014329 1.2593005 1.4479926
000260 a2 e2 4d 3f b4 21 1b 3f fd b8 21 3f 3a 1a 91 3e
       0.8042394 0.605983 0.63172895 0.28340322
000270 1e f0 11 3f 16 2c 16 3e 04 44 b2 be ef 8d 8b be
       0.57007015 0.14665255 -0.34817517 -0.27256724
000280 fe 03 bb be c7 44 f3 be 71 3c c3 be ef 3a 55 bf
       -0.36526483 -0.4751341 -0.3813205 -0.8329305
000290 96 0b 11 bf 89 7c e3 be d9 28 2a bf a5 61 3d bf
       -0.56658304 -0.4443095 -0.6646858 -0.7397712
0002a0 21 40 42 bf 8b 90 a5 be f2 c1 fe bd 27 f6 ee be
       -0.758791 -0.3233684 -0.12439336 -0.46672174
0002b0 ee c6 5a bf 1d a6 5d bf 6a 2b 2f bf 58 16 79 3f
       -0.8545979 -0.86581594 -0.6842562 0.9729972
0002c0 ab ab cb 3f 69 44 82 3f d0 99 99 3f 63 5d 2c 3f
       1.5911764 1.0177127 1.2000065 0.67329997
0002d0 68 16 e6 3e ba 6a 12 3f a2 8d 03 be 49 b4 33 3d
       0.4493897 0.571941 -0.12846997 0.043873105
0002e0 c1 45 3a be 57 90 8c be da 41 00 bf 8f 2f 0e bf
       -0.18190672 -0.27453873 -0.5010048 -0.5554132
0002f0 53 b1 53 bf 5c e2 f6 be d5 d1 6c be 0e ad 51 bf
       -0.8269245 -0.48219573 -0.2312692 -0.81904685
000300 3d 9c 58 bf c4 0a 6b bf 63 dd 45 bf 2e 9a f4 be
       -0.846134 -0.918133 -0.77290934 -0.4777388
000310 ad 9d 50 bf 39 f7 0d bf 66 50 79 bf 60 db 3f bf
       -0.81490594 -0.55455357 -0.97388303 -0.74944115
000320 cd 50 48 3f be 8e 3b 3f 7c 16 1e 3f 73 10 c4 3f
       0.7824829 0.7326468 0.6175306 1.531752
000330 f6 53 98 3f 20 fb 70 be 12 c4 72 bf de 86 cf be
       1.1900623 -0.23533297 -0.9483043 -0.40532583
000340 50 13 74 3c 4b 3c 6e 3d 5c 9f 52 be 98 4b 91 bf
       0.014897183 0.05816297 -0.20568603 -1.1351194
000350 1e 64 36 bf 10 db 39 bf 98 7f 72 bf 2f 10 66 3d
       -0.71246517 -0.7259989 -0.9472594 0.056167778
000360 e3 5e 90 be 83 96 2b bf c4 dd 1f bf 14 f1 64 bf
       -0.28197393 -0.6702654 -0.6244776 -0.89430356
000370 b7 81 6e 3f e9 15 c3 3f 23 08 75 3f 20 69 a8 3f
       0.9316668 1.5241061 0.9571554 1.3157082
000380 02 48 05 3f f8 95 97 bb 6e da 2e 3f 49 16 39 3f
       0.52063 -0.004626032 0.6830205 0.7229963
000390 ac d0 96 3f 4b 69 96 3f fc 1c c9 be b0 f9 dd be
       1.1782432 1.1750883 -0.39279926 -0.4335456
0003a0 f0 1c 3a be 31 3b 04 3f 1a 57 2a be 74 da d4 bd
       -0.18175101 0.5165282 -0.16634789 -0.10393229
0003b0 aa 30 ef be 6a 8f 37 bf b9 85 f4 be e7 f2 8a bf
       -0.46716815 -0.7170321 -0.47758272 -1.0855378
0003c0 54 50 14 3c f1 59 51 be 09 2f bf be 01 94 b9 be
       0.009052355 -0.20444466 -0.37340572 -0.3624573
0003d0 9a a6 5b bf e9 dc 6b 3f 69 d4 9f 3f 5f bf 8d 3f
       -0.8580109 0.9213396 1.2486697 1.1074027
0003e0 89 4a a1 3f 09 aa 29 3f 6c b3 4f be 40 b0 3c bf
       1.2600871 0.6627508 -0.20283288 -0.73706436
0003f0 4e 72 e8 be 78 88 36 bf b9 f7 4f bf 00 b2 50 bf
       -0.45399708 -0.71301985 -0.8123737 -0.81521606

conv1.bias f4 [8]
000000 1c 17 99 bf 84 4c 26 3d d6 03 72 be fe 2f 90 3e
       -1.1960177 0.040600315 -0.23634276 0.28161615
000010 93 ff f8 be fe ab d2 bf dc 75 2f 3f c2 88 f9 bf
       -0.48632488 -1.6458738 0.68539214 -1.949486

bn1.weight f4 [8]
000000 9e 68 98 3f be b4 12 40 58 69 90 3f 4d 86 ab 3f
       1.1906927 2.2922816 1.1282148 1.340036
000010 d8 6d b2 3f c6 7d a4 3f 0e a2 ba 3f 62 a9 76 3f
       1.3939772 1.2850883 1.4580705 0.9635221

bn1.bias f4 [8]
000000 ff 8a 15 be c3 7d a2 3d a5 76 3d be e6 70 e2 3e
       -0.14603804 0.079341434 -0.1850229 0.4422676
000010 99 6e 87 3e 2b 48 53 3e 60 05 3d 3f 07 59 8d 3e
       0.26451567 0.20632999 0.73836327 0.27606985

bn1.running_mean f4 [8]
000000 09 8d 52 40 4a ff 0f 40 5e bb bf 3f 80 ec 3a 40
       3.289858 2.2499566 1.4979055 2.9206848
000010 b6 2c 07 40 8f b1 cc 3f 00 86 e0 40 ab 28 d2 3f
       2.112104 1.5991687 7.0163574 1.6418661

bn1.running_var f4 [8]
000000 a0 07 4b 42 c8 6a 1f 42 c2 16 f2 40 41 c2 2a 41
       50.757446 39.85428 7.565278 10.672425
000010 aa 55 df 41 01 f5 b9 41 f1 60 28 42 50 cf 62 41
       27.916828 23.24463 42.09467 14.175613

conv2.weight f4 [16, 8, 3, 3]
000000 cb 5b 51 3f 16 91 e6 3e 00 e4 9f 3e be 0b d8 3d
       0.8178069 0.45032567 0.31228638 0.10549115
000010 51 26 56 3e 70 e6 03 3f a7 d4 9d bd 26 c8 17 3e
       0.20913054 0.51523495 -0.07706576 0.14822444
000020 4e 34 75 3f b7 55 36 bf 81 1b 63 bd 94 86 a0 3d
       0.95782936 -0.7122454 -0.05544615 0.07838169
000030 f3 a5 bc 3f c8 db ea 3f 58 fa a1 3f 44 59 34 bc
       1.4738144 1.8348322 1.2654524 -0.011007611
000040 89 9c 37 3e b5 48 ae be 39 d4 2e 3e 56 6e d0 be
       0.17930807 -0.34039846 0.17073144 -0.4070918
000050 45 c6 b1 be 11 eb b4 3e 83 72 29 3f 7c a5 2b 3f
       -0.3472158 0.3533559 0.66190356 0.67049384
000060 75 c3 65 3f 26 8b 45 3f fb 63 f7 3e dc 83 b2 be
       0.8975137 0.7716545 0.48318467 -0.34866226
000070 46 8a 31 bf 9e 73 3b bf ab e1 ca 3e cf cf c0 3e
       -0.69351614 -0.7322329 0.39625296 0.37658545
000080 f6 89 97 3e 2a 0f 96 3e 4c 78 69 3f 5f be 46 3f
       0.29597443 0.29308444 0.91199183 0.77634233
000090 81 68 f5 bc 97 9f d1 3e 6e 8a 98 3e ee 38 f7 3e
       -0.029957058 0.4094207 0.29793113 0.4828562
0000a0 1f 06 0b 3f 10 a6 03 3f f0 61 ee bf 5d 27 06 c0
       0.54306215 0.51425266 -1.8623638 -2.0961525
0000b0 98 88 b1 bf 92 56 7e bf 9e 35 b3 bf e1 e2 7e bf
       -1.386981 -0.99350846 -1.4000738 -0.9956494
0000c0 3c 5c 8b 3f 21 95 32 3f 69 82 ad 3f d1 f1 c0 bf
       1.0887523 0.697588 1.3555423 -1.5073797
0000d0 4f 90 e0 bf 48 79 bf bf 1e 16 05 3e ae bf 0e bf
       -1.754404 -1.4958887 0.12996718 -0.5576123
0000e0 16 23 6d bf 12 cf e5 3d 64 d3 0a bf ca f8 16 bf
       -0.9263166 0.11221136 -0.54228806 -0.5897337
0000f0 de 2f 37 3d 96 d7 71 bd 7f 11 4a 3d 2d e5 08 3f
       0.044723384 -0.05904349 0.04933309 0.53474694
000100 35 ee 1a 3f a5 02 66 3f 43 83 e0 3e 8b cb a4 3e
       0.60519725 0.89847785 0.43850145 0.3218654
000110 ce c1 03 3f 3c 43 6e 3e 30 4d ba 3e 68 68 a1 3f
       0.514676 0.23267835 0.36387014 1.2609987
000120 18 da 08 3f 80 d7 5e 3e 39 1a 32 3f c0 ab b2 bf
       0.53457785 0.21761894 0.6957126 -1.3958664
000130 c5 2b b4 bf 01 7e bd bf 86 d3 5e be 2e 3e d7 3c
       -1.4075857 -1.4804078 -0.21760377 0.026274767
000140 a9 68 82 3e 51 c7 77 3d c1 66 30 be 01 36 66 bd
       0.25470474 0.060492817 -0.17226698 -0.056203846
000150 3c 56 a9 3e 24 37 2c 3f 71 e2 1a 3d 80 c8 33 bf
       0.33073604 0.6727164 0.037813608 -0.70227814
000160 73 3c 37 bf ab 48 27 bf 67 e9 cb 3e 8a 7d 4d 3f
       -0.71576613 -0.6534526 0.3982651 0.8026968
000170 e0 e2 11 3e 4c 3c ef 3d 77 df 5c be b1 23 24 be
       0.14246702 0.116814226 -0.2156962 -0.1602924
000180 79 11 1b bf cf 75 34 be 1a 2d ca 3e d9 36 61 3d
       -0.60573536 -0.17623065 0.39487535 0.054983947
000190 05 88 af be c1 ce bd be ce b9 81 bd 4f 6b 2f bf
       -0.34283462 -0.37071803 -0.063342676 -0.68523115
0001a0 25 53 f8 bd f5 64 0a be 4a 89 41 bf fe ef 10 bf
       -0.121252336 -0.13515075 -0.7560011 -0.566162
0001b0 9e 23 df 3e 3d 1e 2e bd f4 de dd 3e 94 a2 2b bf
       0.4358186 -0.042509306 0.43334162 -0.6704495
0001c0 04 63 37 bf 03 81 27 be f5 ad 5b 3f 64 14 92 3f
       -0.7163546 -0.16357808 0.8581231 1.1412473
0001d0 be d2 88 3f 7e f7 22 3f 61 98 9a 3e 0c 66 12 3f
       1.0689313 0.63658893 0.3019438 0.5718696
0001e0 42 94 52 3f fb 65 a8 3f b0 c6 86 3f bf 0c 0e 3f
       0.82257473 1.3156122 1.0529385 0.554882
0001f0 42 36 98 3f 58 52 45 3f b4 a6 b2 bf 12 f9 49 bf
       1.1891558 0.7707877 -1.3957124 -0.78895676
000200 ef 67 50 bf c0 fd 76 bf c9 0b 8c bf 7b 42 99 be
       -0.8140859 -0.9648094 -1.0941097 -0.29933533
000210 0b e4 8f 3f a7 40 e4 3e b2 3a c4 3e ec c9 bc 3e
       1.1241468 0.44580576 0.3832603 0.36872804
000220 94 b0 1f 3f 6c da d0 3e 91 cd e0 bf e5 d8 1d c0
       0.6237881 0.40791643 -1.7562734 -2.4663632
000230 3c eb e8 bf 25 7b eb be 30 05 95 be f6 9f 12 3d
       -1.8196788 -0.4599239 -0.2910552 0.035797082
000240 a7 c3 ae bd b2 c1 2a bb 19 d3 5e 3e 89 d4 8a bf
       -0.085334115 -0.0026055393 0.21760215 -1.084611
000250 83 8f 33 bf 2b 5d 33 bf 0b e9 4e 3f fe c2 73 3f
       -0.70140857 -0.7006404 0.80824345 0.9521941
000260 79 3c 5a 3f c3 5a a3 be 2a f4 11 bf f7 69 8f be
       0.85248524 -0.31905183 -0.5701319 -0.28010532
000270 1c c8 6c be 3b d0 f9 bd ad 2e b5 3e 78 a9 3f 3f
       -0.2312321 -0.1219792 0.35387173 0.74867964
000280 fd 60 3f 3f b1 05 27 3f 70 93 44 be a7 0a 49 bf
       0.7475737 0.6524306 -0.19196868 -0.7853188
000290 d6 32 4a bf 23 08 10 bf 75 75 e5 be 65 50 07 bf
       -0.7898382 -0.56262416 -0.44816175 -0.5285705
0002a0 03 e3 36 3f 0f ec 98 3e 81 7b 91 3e c5 f1 a4 3e
       0.7144014 0.29867598 0.28414539 0.32215706
0002b0 cd 75 b6 3e ee f6 58 3f d7 f6 8a bf 14 f7 92 bf
       0.3563675 0.84751785 -1.085658 -1.1481652
0002c0 54 3c ed be f9 f6 28 bf 32 dd 89 bf 19 71 5e bf
       -0.4633509 -0.6600185 -1.0770628 -0.86891323
0002d0 d4 8d a0 3f a1 ba ba 3f 69 b0 a3 3f 60 b5 aa bf
       1.2543283 1.4588205 1.2788211 -1.3336601
0002e0 26 8d bb bf a6 cd c6 bf 6f 6a 26 3f 3f e8 e7 3e
       -1.465245 -1.5531509 0.65006155 0.45294377
0002f0 01 d0 b8 3e 1b a3 47 3f b7 29 8c 3f 4a a5 10 3f
       0.36096194 0.77983254 1.095023 0.5650221
000300 f9 3a 24 3f 37 26 d3 3e 5c 9a 97 be d4 70 af 3e
       0.64152485 0.41240093 -0.29609954 0.3426577
000310 b3 cf 3e bd 51 52 9c be fb 6e 33 3e 45 ee cb 3e
       -0.046584796 -0.30531552 0.17522804 0.39830223
000320 77 df 26 3f 01 db ef be 8f 1e 2b be 30 08 31 3f
       0.6518473 -0.46846774 -0.16710876 0.6915312
000330 ca ca c7 bf 6b 2c e1 be 29 2c 50 be a7 fa 0c 3f
       -1.5608761 -0.439792 -0.20329346 0.55069965
000340 7e 48 07 3a f1 7b aa 3e c4 c4 da bf 96 1a bf bf
       0.00051606435 0.33297685 -1.7091298 -1.4929988
000350 f0 b5 b9 bf 54 04 15 3f f4 a3 35 3f 99 80 21 3f
       -1.4508648 0.5820973 0.709533 0.6308685
000360 e5 52 69 bf bf 4f 6c bf 2d 62 89 bf 2f 2b 39 bf
       -0.9114211 -0.9230918 -1.0733086 -0.7233152
000370 fc ad d4 be 47 b3 be be ef 96 f6 3e 32 d9 ad 3d
       -0.4153899 -0.37246153 0.48162028 0.08488692
000380 5b b7 d7 be d4 6a b1 3e ad 78 f3 3e 12 9e b0 3e
       -0.42132077 0.34651816 0.47553006 0.34495598
000390 cc 18 56 3e 3c 7f 49 3f 16 52 82 3f 7b ec 5e bf
       0.20907897 0.7870977 1.0181301 -0.8707959
0003a0 2b 50 a1 be 03 7e 86 bf 76 4d 86 3e 7b b5 94 be
       -0.31506476 -1.0507206 0.26230973 -0.2904471
0003b0 88 6f 5c be c3 43 7d 3f 30 79 45 3f 4a 99 29 3f
       -0.21526921 0.9893152 0.7713804 0.66249526
0003c0 2d c0 4a 3e 9a d8 08 bf e2 66 c7 bf 86 f9 e4 be
       0.19799872 -0.5345551 -1.5578272 -0.4472162
0003d0 b8 78 01 bf 0e 8b a8 be 58 a2 d8 bf 35 2a d8 bf
       -0.5057483 -0.3291859 -1.6924543 -1.688788
0003e0 41 88 c4 bf d2 5b 9b 3f 0f 23 99 3f c7 18 91 3f
       -1.5354081 1.2137396 1.1963824 1.1335686
0003f0 df 42 09 3f 23 08 23 3f e2 8d 15 3e 9f 45 81 3e
       0.5361766 0.6368429 0.14604905 0.2524843

conv2.bias f4 [16]
000000 07 f0 ef bd 4e e7 87 bf 06 45 97 3e 74 7b 46 bf
       -0.117157035 -1.0617464 0.29544848 -0.77532125
000010 7f b6 61 bf 45 72 04 bf 23 50 97 3f 57 f7 9e bf
       -0.8816909 -0.5173686 1.1821331 -1.2419232
000020 8f 87 9e bf 1d 3e c6 bf 04 d5 2e bf 4d a7 06 bf
       -1.2385119 -1.5487705 -0.68293786 -0.5259903
000030 b0 86 cc 3f be db 19 bd 44 00 65 3f dc 5f 0a c0
       1.5978603 -0.037563078 0.8945353 -2.1621008

bn2.weight f4 [16]
000000 91 31 8d 3f d9 5b d2 3f c3 5f ce 3f 79 8c c1 3f
       1.1030751 1.643428 1.6122974 1.5120994
000010 00 ca bf 3f b4 3d b4 3f 34 f9 8e 3f 95 f1 74 3f
       1.498352 1.408133 1.1169801 0.95681125
000020 11 bb d2 3f ee e2 c8 3f 94 05 ba 3f a6 f1 9f 3f
       1.6463338 1.5694253 1.4532952 1.249562
000030 73 88 5e 3f b7 5c a8 3f 49 fd bc 3f dd 9e b9 3f
       0.86926955 1.3153294 1.4764796 1.4501606

bn2.bias f4 [16]
000000 75 82 84 3e 36 9c 2e bf 31 5a 0b 3f 06 35 82 3e
       0.2588078 -0.6820711 0.54434496 0.2543108
000010 b3 fc e0 3d 2f 58 27 3f 85 a3 fb 3c 8a a0 c0 3e
       0.109856986 0.6536893 0.03071762 0.37622482
000020 17 49 cc 3e 9c a7 1f 3d 40 79 3a 3e 5b ee bc 3e
       0.39899513 0.038978204 0.18210316 0.369006
000030 7e 96 07 bf a5 09 01 3f ff b0 43 3f f7 23 f4 bd
       -0.5296401 0.5040534 0.7644195 -0.11920922

bn2.running_mean f4 [16]
000000 9a 48 26 40 61 ec d7 3f 18 f1 4f 40 c7 66 5c 40
       2.5981812 1.6869012 3.2490902 3.443773
000010 dc ee de 3f ff ef 23 40 7b 47 2b 40 b9 e7 df 40
       1.7416644 2.5615232 2.6762378 6.9970365
000020 66 87 07 40 12 56 31 40 e0 35 d6 3f 26 d6 c5 40
       2.117639 2.7708783 1.6735191 6.182391
000030 e2 14 d6 40 83 28 b2 40 69 5c 5f 40 6b 02 56 40
       6.690049 5.5674453 3.4900153 3.3438976

bn2.running_var f4 [16]
000000 30 ce 0c 42 f6 92 b9 41 9c a2 2d 42 63 4c 7e 42
       35.201355 23.196758 43.4088 63.574596
000010 ad 30 b7 41 34 a3 11 42 d8 d8 cb 41 73 0c 9d 42
       22.898767 36.409378 25.48088 78.524315
000020 78 54 db 41 1d 11 5e 42 2d 69 cb 41 30 87 2e 42
       27.416245 55.516712 25.426355 43.63202
000030 f6 a0 ea 41 9c 27 7a 42 e0 0d 32 42 8e 49 db 42
       29.328594 62.53868 44.51355 109.64366

conv3.weight f4 [32, 16, 3, 3]
000000 d1 b5 b0 be 8b 64 08 3d a2 18 09 be 9e 23 df 3d
       -0.34513715 0.03329901 -0.13388303 0.10895465
000010 bd c6 f1 be a8 4b 78 bf bd 91 b9 be 57 c9 36 3e
       -0.47221938 -0.9699044 -0.36244002 0.17850243
000020 51 b2 2e 3f 8f 6e 1f 3f f8 6f 80 3f 80 ec 45 3f
       0.6824084 0.62278074 1.003417 0.77313995
000030 f5 93 f1 3d 38 5b 30 bd c2 23 8a be 91 e1 38 3e
       0.11795799 -0.043055743 -0.26980406 0.18054797
000040 f8 bf 4c ba 1c 4e 8c 3d 30 1d bf 3e 44 04 70 3e
       -0.0007810588 0.06850836 0.37326956 0.23439127
000050 42 55 b1 bd 69 fb 0e c0 f1 41 0c c0 64 15 9f bf
       -0.0865884 -2.2340949 -2.1915247 -1.2428403
000060 be 2b 82 be 16 29 43 3e 1e 22 3b bd b8 25 ea 3e
       -0.25423998 0.19058642 -0.045686834 0.45731902
000070 dc cd 6f bf 99 84 73 bf 2c ee 96 3f e1 dc 22 3f
       -0.9367349 -0.951242 1.1791434 0.63618284
000080 5d a0 f1 3c ca 26 51 bd d1 fb c8 3e 69 d4 4b 3f
       0.029495412 -0.051062383 0.3925462 0.7962099
000090 b0 49 82 bf d5 71 f3 bf 0b 4b b6 bf ca 69 2a 3f
       -1.0178738 -1.9019114 -1.4241651 0.6656767
0000a0 47 71 16 3f 5b ad 5b 3f 88 ef db 3e 00 c6 17 3f
       0.587666 0.85811394 0.42956185 0.592865
0000b0 6e 2a 27 3f 76 50 b2 bf 06 2c 96 bf 8b 17 b1 bf
       0.6529912 -1.3930805 -1.1732185 -1.383531
0000c0 88 71 86 3f 35 bb 2d 3f fe 09 cf 3e 52 82 99 3e
       1.0503397 0.6786378 0.4043731 0.2998224
0000d0 e7 d4 58 3f 1c 0f 32 3f 9e 70 50 3e 05 ed 02 3f
       0.84699863 0.69554305 0.2035546 0.51142913
0000e0 20 6f 25 3f 86 93 de bd ac cf c0 bd 3d ea cc be
       0.6462269 -0.108679816 -0.0941461 -0.4002246
0000f0 f1 ee be be 28 e8 b8 be 00 89 d6 be c7 61 12 3f
       -0.37291673 -0.3611462 -0.41901398 0.57180446
000100 83 81 e6 bd 36 8a 39 3e e1 29 a9 3d f1 3d 81 bf
       -0.11255171 0.1811913 0.08259941 -1.0097028
000110 c1 69 85 bf 06 5c 99 be 1b d3 1d 3d 51 c9 c6 be
       -1.0422899 -0.2995302 0.038531404 -0.38825467
000120 95 67 71 bf b2 40 9c bf 82 c6 ea bf ef ce 12 bf
       -0.9429868 -1.2207243 -1.834183 -0.57347006
000130 e5 f7 5f bf 9d 0b 4f bf 67 a2 9e 3f 72 0d 41 3f
       -0.8748763 -0.80877095 1.2393311 0.7541114
000140 ba 23 05 3f 36 7b 15 bf fc ef a0 bf 41 57 93 bf
       0.5200764 -0.5839113 -1.2573237 -1.1511003
000150 73 72 58 3e ee 63 a4 bd dc 03 4c be 76 21 63 3e
       0.21137409 -0.080268726 -0.19923347 0.22180733
000160 01 64 b0 3d b7 39 99 3e 8f ce a3 bf 01 1a 8b bf
       0.08612824 0.29926845 -1.2797412 -1.0867311
000170 7f b4 95 bf 37 23 6c 3f e7 1a f5 3e 86 09 4c bc
       -1.1695708 0.92241234 0.47872087 -0.012453442
000180 fb 4a 6a bc dc c2 f3 bc bf e9 9b 3e 7a 24 ac 3e
       -0.014300103 -0.029756002 0.30451772 0.3362158
000190 0d b5 8a 3e b2 76 75 3e 4a 8a 35 bf 7f a6 7b bf
       0.27091256 0.2397106 -0.7091414 -0.9830093
0001a0 38 07 88 bf cb 53 1c bd 76 1b 77 be b1 75 cb be
       -1.0627203 -0.03816585 -0.2413157 -0.3973823
0001b0 50 8a e3 be 6a c2 8a be 5d 73 fd bd e7 a3 fd be
       -0.44441462 -0.2710145 -0.123755194 -0.4953911
0001c0 a0 4e 85 bd 2e 61 6e 3f 40 dc 7f 3e 61 b9 bb be
       -0.06509137 0.93117034 0.24986362 -0.3666487
0001d0 7a 4c 97 be 58 60 a3 bf 04 e3 d9 bf 0f ae 8f bf
       -0.29550534 -1.2763777 -1.7022405 -1.1224993
0001e0 13 b9 07 bf 40 45 9a be 4c 95 5d 3e 2a a7 0f bf
       -0.53016776 -0.3013096 0.21638983 -0.5611445
0001f0 b7 d3 3a 3e 9e af 94 3f b4 e2 39 be dd f5 75 bf
       0.18244825 1.1616094 -0.18152887 -0.9607828
000200 10 e2 9d bf be ab 01 c0 1b a4 fc bf 2c 46 09 c0
       -1.2334614 -2.0261073 -1.9737581 -2.144908
000210 6a 66 db 3d 25 c1 a5 be 9f 65 2d bf 9d db fd 3e
       0.10712893 -0.3237392 -0.67733186 0.49581614
000220 5c a6 86 3f 46 4a db 3e 67 87 78 bf 02 5c 86 be
       1.0519519 0.42830104 -0.9708161 -0.2624207
000230 6b f4 05 be 6b 81 39 3f 05 08 3a 3f a5 40 b9 be
       -0.1308152 0.724631 0.72668487 -0.36182132
000240 e8 52 53 3d cd 72 4f bf 5f d3 5e bf c5 e8 f3 be
       0.051592737 -0.8103455 -0.87041277 -0.47638527
000250 ea 2e bb be 4c a4 68 be da c1 3b bf 53 a8 f0 be
       -0.3655923 -0.22718924 -0.7334267 -0.4700342
000260 8f d0 08 bf 94 2a 9b be 60 e4 28 bf 32 d5 17 bf
       -0.53443235 -0.30305922 -0.6597347 -0.59309685
000270 e7 a1 63 bf 6f a4 53 bf b5 8b 98 bf 7e 5e a1 3e
       -0.8891892 -0.8267278 -1.1917635 0.31517404
000280 8c a3 07 3f c3 23 3d 3f a9 30 a5 bf f0 5c be bf
       0.5298393 0.73882693 -1.2905475 -1.4872112
000290 c0 63 30 bf 52 9a 0d bf 1a bc 53 bf a4 81 ba be
       -0.68902206 -0.553136 -0.82708895 -0.36427033
0002a0 e1 02 6b bf db b3 38 bf 83 05 ef be b6 c5 f9 be
       -0.9180127 -0.7214944 -0.46683893 -0.48783654
0002b0 b9 82 16 bf 73 5d 49 bf 17 da 95 bf c1 c6 58 bf
       -0.58793217 -0.7865822 -1.1707181 -0.84678274
0002c0 d6 e1 57 bf 1b f9 f2 be e3 af 25 3f 62 da 8e 3e
       -0.84328973 -0.47455677 0.64721507 0.27900988
0002d0 75 a9 90 3e ff 55 46 3f 18 59 42 3f 09 f1 e0 3e
       0.28254285 0.7747497 0.75917196 0.43933895
0002e0 d1 63 8a 3f b2 13 8c 3f f8 a4 d6 be 2e 4b ba be
       1.0811712 1.094351 -0.41922736 -0.36385483
0002f0 6f da 05 3e 0c eb 07 be 9e be 25 bf b1 b1 09 bf
       0.13071607 -0.13273257 -0.64743984 -0.5378676
000300 0a f3 3b be 4f 61 c5 bd 7f 2d 80 be 8d 47 0d 3e
       -0.18354431 -0.09637701 -0.2503471 0.13796826
000310 5a cf 1e bf 80 1e 35 bf 17 0f a5 3f 3c 0d 0a 40
       -0.62035143 -0.70749664 1.289523 2.1570578
000320 b5 f4 f2 3f 60 71 dc bd 79 2d 96 3e 2f ff 91 3e
       1.8980929 -0.10763812 0.29331568 0.28515002
000330 37 34 c1 be 6a b0 05 bd 03 50 5b be bb c2 2b bf
       -0.3773515 -0.032638945 -0.21417241 -0.6709401
000340 81 4b ab bf c7 9b 1b bf 9c 41 d4 bd 89 2a 9f bf
       -1.3382417 -0.6078457 -0.103640765 -1.2434856
000350 a5 9b 65 bf 1e 58 ae be 99 bb 54 bf 23 7c be bf
       -0.8969062 -0.34051603 -0.8309875 -1.4881634
000360 04 4c 5f 3f ae e2 22 3f 2a 20 1e 3f c4 1a 05 bf
       0.87225366 0.63627136 0.6176783 -0.51993966
000370 23 b8 1d bf 82 a2 5f bf 3a bc b9 be 8b 96 c7 be
       -0.61609095 -0.8735734 -0.36276418 -0.38982043
000380 0a f2 52 bf 17 f3 76 be d3 58 4b 3e f0 d4 ee bd
       -0.8240057 -0.24116169 0.19858103 -0.11661708
000390 e5 e8 04 bf 96 27 95 3e 18 64 f9 3e 2e a3 51 bf
       -0.5191787 0.29131764 0.48709178 -0.8188962
0003a0 95 9a 49 bf 7d f4 38 bf 60 a2 4d bf cc 6e 33 bf
       -0.787515 -0.7224806 -0.8032589 -0.7009094
0003b0 8e 34 31 bf d9 66 54 3f 9b 5b 8b 3f 88 7d 22 3f
       -0.6922082 0.82969433 1.0887331 0.63472795
0003c0 05 fb 7c bf 60 66 6f bf 31 d3 8d bf 4a 7e fb be
       -0.98820525 -0.93515587 -1.1080076 -0.49119788
0003d0 e0 2c f0 be 72 f4 b9 bd 77 b7 ae bf 4c 77 9b bf
       -0.46909237 -0.09079827 -1.3649739 -1.2145782
0003e0 3e fe a0 bf a2 40 b6 be 97 e5 14 bf 13 7e df be
       -1.2577589 -0.35596186 -0.58162826 -0.43650874
0003f0 db 50 57 bf d1 ac 47 bf 25 f3 67 3c 33 31 87 3f
       -0.8410775 -0.7799807 0.014157091 1.056189

conv3.bias f4 [32]
000000 46 57 8a bf cb 91 13 be 61 7f 63 bf 38 0b 70 3e
       -1.0807884 -0.14411084 -0.8886624 0.2344178
000010 09 fc 68 be 15 fc ca bf 3f b4 a5 be 02 6c e5 bf
       -0.22752394 -1.5858179 -0.3236408 -1.7923586
000020 5c 9a 68 bf 19 7e ce bf fa 75 cc bf e8 90 b5 bf
       -0.90860534 -1.6132232 -1.5973504 -1.4184847
000030 2e 04 3f bf 06 e3 c8 bf 70 1d 6a bf 24 fe a6 3e
       -0.7461575 -1.5694282 -0.9145117 0.3261577
000040 97 c7 79 bf 75 db 96 bf 6b 10 e5 bf fc 76 03 c0
       -0.97570175 -1.1785723 -1.7895635 -2.0541372
000050 72 fa 46 be e1 9a 0e c0 ff 42 15 c0 40 23 bf be
       -0.19431475 -2.228203 -2.332214 -0.3733158
000060 30 a9 c9 bd 28 69 49 3e f6 52 14 3f c0 5e 59 be
       -0.09846723 0.1966902 0.5793909 -0.2122755
000070 6a c0 d1 be c0 4a 37 bf 48 64 95 bf 2f b1 10 bf
       -0.40967113 -0.71598434 -1.1671228 -0.5652036

bn3.weight f4 [32]
000000 65 ff c7 3f 6f 7a 98 3f 0a 13 cf 3f 48 43 ad 3f
       1.5624815 1.1912364 1.6177685 1.3536158
000010 89 d6 ef 3f 4f 94 ae 3f 8a bb d9 3f f8 ec ab 3f
       1.8737346 1.363901 1.7010357 1.3431692
000020 6b c1 88 3f 5a 76 ac 3f fa 73 b7 3f e0 ff a9 3f
       1.0684026 1.3473618 1.4332268 1.3281212
000030 eb 95 c1 3f 4b 3b ca 3f 0f ae ad 3f b3 f7 ad 3f
       1.5123876 1.5799345 1.3568743 1.3591217
000040 76 83 9b 3f 64 12 c1 3f 15 91 9f 3f db 11 83 3f
       1.2149494 1.5083737 1.246615 1.0239824
000050 0a d1 a1 3f 50 dc a6 3f ff a9 93 3f b0 b2 d8 3f
       1.2641919 1.3035984 1.1536254 1.6929531
000060 f4 20 bd 3f c9 ae 96 3f b1 e5 b9 3f 69 5a ab 3f
       1.4775681 1.177209 1.4523221 1.3386966
000070 c8 d6 c9 3f df 1c b8 3f f2 d8 8d 3f 76 fe ce 3f
       1.5768671 1.4383811 1.1081831 1.6171405

bn3.bias f4 [32]
000000 c6 55 d8 3e 22 90 22 3d 7e 41 e1 3d ad 47 07 3e
       0.4225294 0.039688237 0.1099882 0.13210936
000010 47 0a 93 3f 58 7b a6 3e c3 a9 0c 3f 39 d3 fe 3e
       1.1487511 0.3251598 0.54946536 0.49770525
000020 d7 68 4c 3f 4f 6b 68 3e ed f1 d9 be 20 2d 81 3e
       0.7984747 0.22697185 -0.42567387 0.2522974
000030 49 75 5f 3f 39 4e 39 3e c3 8e e2 3d f9 3e 0e be
       0.8728834 0.18096246 0.11062386 -0.1389121
000040 69 91 34 3f f6 44 c6 3e 12 45 8b 3e f8 95 a6 3e
       0.7053438 0.38724488 0.27201134 0.32536292
000050 8b ab d7 3e f7 85 a5 3e a5 16 4d 3e 1a 97 13 3f
       0.42123064 0.3232877 0.2002817 0.5765244
000060 4f e9 8b 3e 12 eb f8 be ca a9 23 3f cc 4f 1f 3f
       0.27326438 -0.48616844 0.6393095 0.62231135
000070 ea a5 84 3f 55 b2 d2 3e b9 47 9e 3e b7 a1 d7 3e
       1.0363133 0.41151682 0.30914095 0.42115566

bn3.running_mean f4 [32]
000000 9e f7 82 3f d1 95 ba 3f f8 2d 4e 40 84 41 03 41
       1.0231817 1.457697 3.2215557 8.203495
000010 4d ce 1f 41 98 bc d4 3f 71 eb 1b 40 a0 ff 7f 40
       9.987866 1.6620054 2.4362452 3.999977
000020 26 18 57 40 16 7e fb 3f 06 2e cc 3f 39 15 b6 3f
       3.360849 1.9647853 1.5951545 1.4225227
000030 9e a8 00 40 49 65 79 40 3a c4 38 40 f5 0d 9f 40
       2.0102916 3.896807 2.8869767 4.9704537
000040 6f 32 51 3f 8b a7 4d 40 ae 65 0a 40 b9 b6 6f 40
       0.8171758 3.213351 2.162456 3.7455275
000050 d2 fb 9d 40 d8 d8 a1 3f ca c1 7e 40 a7 0e 47 40
       4.93699 1.26443 3.980578 3.1102693
000060 c9 2f 82 40 50 0e 82 40 e3 73 fa 40 db e3 93 40
       4.068333 4.064247 7.8266463 4.6215644
000070 ab bc da 40 2a 0c 9e 40 03 94 71 40 41 46 2b 41
       6.8355308 4.938985 3.774659 10.704652

bn3.running_var f4 [32]
000000 39 2e b1 41 cc 13 bb 41 d0 ee ae 42 bf ed 8e 42
       22.14757 23.384666 87.46643 71.46435
000010 b6 1b 47 43 8a 9d 66 42 bb 3c 8c 42 dc 8f 04 43
       199.10825 57.653847 70.118614 132.56195
000020 93 0f 88 42 0d f3 2d 42 70 ab 08 42 af 7d e1 41
       68.03042 43.487354 34.16742 28.186369
000030 9d 9a 1f 42 c3 65 ee 42 05 55 7f 42 50 bf 85 42
       39.90099 119.19875 63.833027 66.87366
000040 0e a7 dc 41 02 e5 6e 42 a2 54 3a 42 37 b9 9c 42
       27.58157 59.72364 46.58265 78.36175
000050 7a 75 85 42 e4 95 10 42 eb 27 a4 42 69 cc 53 42
       66.72945 36.146378 82.077965 52.94962
000060 01 02 86 42 49 00 31 42 22 66 b2 42 e8 ea d0 42
       67.003914 44.25028 89.19948 104.4588
000070 f4 ce f8 42 cc 3d b9 42 11 3e 8b 42 dd e2 26 43
       124.404205 92.6207 69.62122 166.88618

conv4.weight f4 [64, 32, 3, 3]
000000 7f fc 1e 3f 42 3b cf 3e ab 23 06 3f 1a 26 9e 3e
       0.6210403 0.40474898 0.52398175 0.30888444
000010 8f 7a a4 bf 4e 3b c1 bf 43 71 b7 bf 3f 25 92 bf
       -1.2849902 -1.5096223 -1.433144 -1.1417617
000020 af 0d 74 be 4e e3 a5 bf d3 8b 93 bf 30 0e 65 be
       -0.23833345 -1.2959993 -1.1527046 -0.22368693
000030 4d ba 2d be 7c 72 11 be 66 3b 9e be 3b 5e ef bf
       -0.169656 -0.14203829 -0.30904692 -1.8700632
000040 c9 42 58 bf e2 f4 82 bf 2a 6e 1c 3f 24 07 a1 3e
       -0.84476906 -1.0230982 0.61105597 0.3145076
000050 45 cb ae be 80 3e f0 3e 67 77 a5 3f 17 68 6f 3f
       -0.34139457 0.46922684 1.2927064 0.93518203
000060 3e 3a 5a bf 21 4d 04 c0 c0 43 99 bf ea 9b 37 3f
       -0.8524512 -2.0672076 -1.1973801 0.7172228
000070 60 3d 35 3f f7 ac 1c 3f 1d d5 5a be cb 96 b1 be
       0.70796776 0.61201423 -0.21370359 -0.34685358
000080 c9 70 57 3e dc 97 04 be 13 12 6b be ba d5 5e 3f
       0.21039118 -0.12948555 -0.22956114 0.8704487
000090 44 34 93 be b8 86 08 be ae 1c 93 bd 63 6c 66 be
       -0.28750813 -0.13332641 -0.071832046 -0.22502284
0000a0 5d a5 6d bf 5e 69 92 be ae 9e 1c c0 d2 45 be bf
       -0.9283045 -0.28596014 -2.447185 -1.4865057
0000b0 d8 97 c3 be 48 b6 81 be 88 8f 40 be cf b3 94 3c
       -0.38201785 -0.25334382 -0.18804753 0.018152146
0000c0 44 ad 9c bf aa 3c a6 bf f5 4a 48 bf 01 0f a2 bf
       -1.2240376 -1.2987263 -0.78239375 -1.2660829
0000d0 ed d6 09 bf 1e 08 51 be 5d 43 45 3f 93 95 88 3f
       -0.53843576 -0.20413253 0.77055913 1.0670646
0000e0 58 7e 7a 3f 10 2e 5f be a0 82 8d be 14 45 ce 3c
       0.97849035 -0.21794915 -0.2763872 0.025179423
0000f0 d8 cc 97 bf 4e e9 fa bf f3 c7 46 bf aa 90 cb bf
       -1.1859388 -1.9602449 -0.7764885 -1.5903523
000100 9c 78 60 bf 23 02 19 bf 33 4c 80 3e f7 f7 1e 3f
       -0.87684035 -0.59768885 0.25058135 0.62097114
000110 93 1c 5f 3f 1e 04 d8 3d 29 5d 65 3f 55 7a 40 bf
       0.87152976 0.1054766 0.89595276 -0.75186664
000120 9f 71 02 bf 17 ec 31 be 66 d2 95 be 7f e3 9b be
       -0.5095462 -0.17375217 -0.29262084 -0.30447003
000130 50 01 7b bf c8 49 99 bf bc b0 4f bf a1 07 9b bf
       -0.9804888 -1.1975641 -0.8112905 -1.2111703
000140 b1 8e cd bf 77 bd b8 3e 76 84 5a 3f 44 4a 77 3e
       -1.6059171 0.3608205 0.8535837 0.24149424
000150 a0 6e 9e bf 43 7d 90 bf ab dc 61 bc f5 90 98 3e
       -1.237751 -1.1288227 -0.0137855215 0.29798093
000160 3d 8d 3b bf 1b 5c 84 bf 0c 4e b7 be aa 4f ae bc
       -0.7326239 -1.0340608 -0.35801733 -0.021278221
000170 7b c4 9a 3e 69 72 85 3e 7a a5 9b bd 86 b5 f0 be
       0.30228028 0.2606385 -0.075999215 -0.4701349
000180 6a 59 e8 bd c5 7c 83 3f 07 db b3 bd f8 e2 64 bd
       -0.113451794 1.0272452 -0.087820105 -0.055880517
000190 d5 a6 b4 be c1 cd 5b bf 55 5a e8 be d3 c9 30 bf
       -0.35283533 -0.8586083 -0.45381418 -0.6905796
0001a0 2d f8 0c bd a6 15 a7 bd b3 da 1b bd 6c 21 3a 3f
       -0.034416366 -0.08158426 -0.038050365 0.7270725
0001b0 e6 37 12 b9 35 7e 2d be 4d a6 06 bf ba d7 c9 bf
       -0.00013944469 -0.16942675 -0.52597505 -1.576896
0001c0 ad 45 8c bf f3 d0 ea be 4d 66 ae be 0b f4 4a bf
       -1.0958763 -0.4586254 -0.34062424 -0.7927863
0001d0 41 aa e5 be f4 74 a7 3f 6d df 5d 3f a6 af 8b 3f
       -0.44856456 1.3082566 0.86669046 1.0912979
0001e0 5a df 49 bf 80 ec 2a be a1 04 ad 3e e8 fc 6f 3f
       -0.7885643 -0.1669178 0.33792594 0.9374528
0001f0 45 43 9e 3f cd 3f 31 3f 43 01 29 bf 0c 26 0b c0
       1.2364279 0.6923798 -0.6601755 -2.1741972
000200 bf 05 b5 bf 13 89 f4 3c 4e 59 41 bf 74 af fe be
       -1.4142379 0.029850518 -0.75526893 -0.49743235
000210 64 87 c5 3e f9 ca b5 3f 8f 03 de 3f 1b ed ab be
       0.38579857 1.4202567 1.7344836 -0.33579335
000220 e7 d2 87 3f f4 c1 7e 3f ec 92 91 bd cd d9 83 3c
       1.0611237 0.995147 -0.07108101 0.016095066
000230 8e cb e7 3e 46 a8 da 3e 48 29 ab 3f 12 73 17 3f
       0.45272487 0.42706507 1.3371973 0.5915996
000240 bd e2 fa be 98 74 4a 3e 67 98 be bd 69 e2 b3 be
       -0.49001113 0.1977104 -0.09306412 -0.35133675
000250 08 22 d6 be 69 da 1c be 0d 5e 32 bf 30 3f 3b be
       -0.4182284 -0.15317692 -0.6967476 -0.18285823
000260 24 5a 85 bf 92 af 66 be 6f f3 8e 3d d4 bb cc bd
       -1.0418134 -0.22527912 0.06980025 -0.09996763
000270 85 39 a0 be 0b 81 35 bf 6a f6 89 bf 9e 00 99 be
       -0.31293884 -0.7090003 -1.0778325 -0.29883283
000280 f6 fc 5e be df df c3 3c 0c 48 80 3f 16 9a af 3f
       -0.21776184 0.023910461 1.0021987 1.3718898
000290 39 2e 8c 3f 92 c8 c1 3d 9c 93 07 bf 9a 28 84 bf
       1.0951606 0.09462084 -0.5295961 -1.0324891
0002a0 13 02 da bf 32 0f 97 bf 95 0a 25 bf 0b 07 2a be
       -1.7031883 -1.1801512 -0.6446927 -0.16604249
0002b0 04 e0 2b be e1 c3 2e bf bd fe a0 3f c4 92 aa 3f
       -0.16784674 -0.6826764 1.257774 1.3326039
0002c0 01 a0 2a 3f 78 42 23 3f 4c 0a 06 bd 6b f2 52 bf
       0.66650397 0.637733 -0.032724664 -0.8240115
0002d0 98 00 a3 3c 95 f3 96 be 24 b4 ec be e0 be 26 be
       0.019897744 -0.29482713 -0.46231186 -0.1628375
0002e0 b0 bb 70 be 3b 28 9a be 2a fc 61 3d 4a 1d bd bd
       -0.23509097 -0.30108818 0.055172123 -0.09234102
0002f0 96 42 06 bf 1f 06 43 be 00 ea 43 be 5d ea d7 be
       -0.5244535 -0.19045304 -0.19132233 -0.42170992
000300 0a ce c4 bf a0 a7 1a c0 60 f8 4f bf 97 2f 72 3f
       -1.5375378 -2.416481 -0.81238365 0.94603866
000310 f7 82 52 3f c3 fd d5 3e 7d 87 32 bf b7 ea c8 be
       0.82231086 0.41795167 -0.6973799 -0.39241573
000320 50 17 5f bf 74 aa 70 3e 3e 94 71 3e 78 98 22 be
       -0.8714495 0.23502523 0.23591706 -0.15878475
000330 61 8e 6f 3f ce 14 b0 bc 48 fa 44 3f 18 20 46 3e
       0.9357663 -0.021494295 0.769444 0.1934818
000340 4a 54 d7 bf aa d2 ff bf 76 b4 07 3e 0b e0 92 be
       -1.6822598 -1.9986165 0.13252434 -0.28686556
000350 4d 86 82 be 33 b5 f4 be 45 85 0e bf e3 c0 37 bf
       -0.25493088 -0.47794494 -0.55672103 -0.71778697
000360 2e c9 c1 bd 41 ab a1 bf 81 30 1a bf cd e4 72 3d
       -0.094622 -1.2630388 -0.6023026 0.059300233
000370 4e f2 f7 3d ee a8 3c 3f 5b 8a f6 be 66 69 c5 3d
       0.12106763 0.73695266 -0.48152432 0.09639244
000380 64 11 36 3f 1e 3c e5 bf af 64 89 bf 72 48 06 bf
       0.71120286 -1.7908971 -1.0733851 -0.5245429
000390 6b 8e 73 3e 0d 3f 1b 3f b5 87 b2 be 7a fa 71 3f
       0.23784797 0.6064308 -0.3486916 0.9452282
0003a0 84 b3 7d 3f c9 e7 8f 3f be e1 da bf d0 43 4b c0
       0.99102044 1.124261 -1.7100141 -3.176014
0003b0 e9 38 e8 bf f0 40 d3 3e 67 d4 1d 3f d3 9d 1f 3f
       -1.8142368 0.4126048 0.61652225 0.62350196
0003c0 0e 2b 33 be ee 9f 09 3f d4 36 42 3f 45 a4 be bd
       -0.17496893 0.5375966 0.7586491 -0.09308676
0003d0 a3 f9 7f 3e 1e 89 93 bd 07 f7 97 bf fb 38 80 bf
       0.24997573 -0.072038874 -1.1872262 -1.0017389
0003e0 c4 40 9b 3e 8f f2 b0 3e d6 93 c4 3e 94 71 60 3e
       0.3032285 0.34560058 0.3839404 0.21918327
0003f0 ca 41 f9 be 39 ff 1a be 6f 0f b3 be 27 ce c1 bf
       -0.48683006 -0.15136422 -0.34972712 -1.5141038

conv4.bias f4 [64]
000000 86 08 aa bf 6a 96 80 be 11 17 90 bf d6 2a c8 bf
       -1.3283851 -0.25114757 -1.1257039 -1.5638072
000010 47 1f 19 bb 06 ec 8e 3e b4 3b a6 bf 4c 1b 5f bf
       -0.002336459 0.27914447 -1.298697 -0.87151027
000020 d6 27 5a be ce 87 c7 bf 08 13 67 bf 99 61 c1 bf
       -0.21304259 -1.5588319 -0.90263414 -1.510791
000030 de f9 ca bf 89 e3 83 bf 7e 4d 0a bf 9e 0a 67 bf
       -1.5857503 -1.0303813 -0.54024494 -0.90250576
000040 f9 90 92 bf 77 51 15 bf 8b 5e 50 bf 34 ef 7c bf
       -1.1450492 -0.5832743 -0.8139426 -0.98802495
000050 ec 3c dd be ac f0 bf bf 64 64 12 be f2 37 9e bd
       -0.43210542 -1.4995322 -0.14296108 -0.077255145
000060 b4 18 89 3d ad 5d 9f bf 24 5d 75 bf 52 98 11 bf
       0.06694165 -1.2450463 -0.95845246 -0.5687305
000070 f8 bf a7 bf 72 c0 6f 3e fe dc 39 bf 9c cc 42 bf
       -1.3105459 0.23413256 -0.7260283 -0.7609346
000080 19 eb 65 bc dd fa 09 bf 07 db 2b bf 2b d9 e5 be
       -0.014033102 -0.5389841 -0.67131084 -0.4489225
000090 f5 f3 4c be 18 c5 be be cc e1 ab bf 0c 7d 27 3f
       -0.20014937 -0.37259746 -1.3428283 0.6542518
0000a0 b9 d0 b2 bf a3 89 42 3f 8b 72 6e be 93 b1 90 be
       -1.3969947 0.75991267 -0.23285882 -0.28260478
0000b0 72 99 02 be 49 52 76 bf 83 d3 d6 be a7 99 87 be
       -0.12753847 -0.9621931 -0.41958246 -0.26484415
0000c0 45 7c d9 3e 44 48 39 bf e6 ea a3 bf 6c c6 b8 bf
       0.42477623 -0.72375894 -1.280606 -1.4435554
0000d0 b2 06 c5 be e4 ec 44 bf cb 1e eb be c6 7f b0 bf
       -0.3848167 -0.76923966 -0.4592193 -1.3788993
0000e0 91 0b 54 bf ad f7 7b bf 90 95 af be 50 8e c3 3e
       -0.8283015 -0.984248 -0.34293795 0.38194513
0000f0 dd a9 4a bf 0d f2 b7 be 08 c1 89 bf 92 eb 2e be
       -0.7916544 -0.35926858 -1.0762033 -0.1708205

bn4.weight f4 [64]
000000 d7 1f a9 40 60 95 76 40 76 95 86 40 68 8e ad 40
       5.2851367 3.8528671 4.2057447 5.4236336
000010 c5 4c 7d 40 2c ab b1 40 c1 9f ac 40 88 cd 8b 40
       3.9578106 5.552145 5.394501 4.3688393
000020 47 5e b4 40 92 05 9b 40 8c 1d a8 40 03 7e a3 40
       5.6365085 4.84443 5.253607 5.1091323
000030 6e 95 86 40 9e 5b 8c 40 4c 26 9c 40 6d 02 9f 40
       4.205741 4.3861837 4.879675 4.969046
000040 8f 2f bc 40 a6 f8 94 40 a0 7a 98 40 5e e1 72 40
       5.8808055 4.6553526 4.764969 3.7950053
000050 da 64 92 40 16 f5 9c 40 5d 02 9d 40 5a 4b ae 40
       4.574811 4.9049177 4.9065385 5.446698
000060 8b 8a 9e 40 d0 1f 97 40 8a 0a aa 40 a6 b1 a5 40
       4.954412 4.7226334 5.3137865 5.1779356
000070 b3 b6 9a 40 bb 0a 0e 40 17 f3 99 40 04 12 ac 40
       4.834802 2.219405 4.810924 5.377199
000080 15 87 8a 40 25 67 af 40 a1 11 a0 40 78 9a 9c 40
       4.3289895 5.481341 5.002152 4.893856
000090 f5 80 83 40 64 00 9b 40 b8 32 8f 40 14 26 54 40
       4.109492 4.8437977 4.4749413 3.314824
0000a0 7a 91 83 40 13 b8 8d 40 8e 30 83 40 5f 91 a2 40
       4.1115084 4.42872 4.099677 5.0802455
0000b0 e0 56 8a 40 fc d0 97 40 b5 50 b9 40 f3 0f 8c 40
       4.323105 4.744261 5.791102 4.376947
0000c0 c4 9a 88 40 71 95 6b 40 a0 bd a9 40 51 4b 9a 40
       4.2688923 3.6809962 5.3043976 4.821694
0000d0 9b 73 45 40 b9 ef 99 40 50 c8 9d 40 7a 96 77 40
       3.085181 4.810513 4.930702 3.8685594
0000e0 55 c1 a3 40 c5 c0 96 40 70 89 98 40 ff 95 90 40
       5.11735 4.7110314 4.766777 4.51831
0000f0 a3 7f 69 40 d0 59 9f 40 54 f7 57 40 d0 39 40 40
       3.6484153 4.9797134 3.3744707 3.0035286

bn4.bias f4 [64]
000000 12 50 ab 3d 3a 08 b1 3c 84 20 1a 3e d3 c2 80 3d
       0.083648816 0.021610368 0.15051466 0.0628716
000010 1b 19 1e 3d 58 d5 f7 3d 17 90 17 3e b5 f9 ea bd
       0.03859816 0.12101239 0.1480106 -0.11473409
000020 10 8b cb bd d4 88 05 3e f0 4a d0 3b f7 7f 16 3e
       -0.099386334 0.13040477 0.0063565895 0.14697252
000030 b0 df 14 3e 2f 50 ba bd 4f c4 4a 3e 82 a3 2b 3e
       0.14538455 -0.09097325 0.19801448 0.16761592
000040 5f e8 fa 3d f7 23 53 3d 4b 3d 26 be df cb 26 bc
       0.122513525 0.05154797 -0.16234319 -0.010180443
000050 aa ac f6 bd 0f 74 97 bd f8 4f 03 3e d5 32 09 3e
       -0.12044652 -0.07395183 0.12823474 0.13398297
000060 17 36 36 3e 2e 5f 40 3e 15 f8 df 3d 08 e0 b0 3b
       0.17794071 0.18786308 0.1093599 0.0053978004
000070 47 3b 67 3e 75 1b d0 3d 6e 18 c5 bc 67 23 46 bb
       0.22581206 0.10161487 -0.0240595 -0.0030233504
000080 ae 55 b5 3d 9a bd 30 3d 94 8e 4c 3e 4b 03 f4 3c
       0.08854233 0.04314957 0.19976264 0.029786726
000090 2b 98 64 3d f0 9b 3e 3e 7c 1b 8a 3e 0a be a2 3d
       0.05580918 0.18614173 0.26974094 0.07946403
0000a0 15 59 1e 3d 27 98 6c 3e 66 48 3a 3e fe a6 03 bc
       0.038659174 0.23104917 0.1819168 -0.0080354195
0000b0 c4 97 39 3e 66 07 2c 3e 89 6c 83 3e b9 46 88 3d
       0.181243 0.16799697 0.25668743 0.06654114
0000c0 46 46 ca 3a 00 30 a2 3d 96 d8 ff bc 17 8c 8d 3e
       0.001543232 0.079193115 -0.031231206 0.27645943
0000d0 4a bb 0e 3e 71 cf 9e bd e7 7e 52 3e 43 9c c5 3b
       0.13938633 -0.0775441 0.20556222 0.0060305907
0000e0 0a e6 92 3d 6b 20 34 3b ec 35 01 3d b5 46 29 3e
       0.07172783 0.0027485143 0.031545565 0.16530879
0000f0 d0 12 e8 3a 57 36 ec 3d d5 16 21 3d dd 51 8c 3d
       0.0017705802 0.11533802 0.039328415 0.06851552

bn4.running_mean f4 [64]
000000 41 97 0b 3f ba f8 80 3f fa e4 a6 3f 04 ec 02 3f
       0.5452767 1.0075905 1.3038628 0.5114138
000010 cd ea 68 3f e1 cc 86 3f b3 af 84 3f 9b ac 9b 3f
       0.9098328 1.0531274 1.0366119 1.216205
000020 e9 83 0d 40 a7 2a 43 3f f5 74 87 3f f3 21 92 3f
       2.2111762 0.7623696 1.0582567 1.141661
000030 01 57 0d 3f 82 2c 08 3f 8b ed dc 3f 2e 92 73 3f
       0.5521088 0.53192914 1.7259992 0.9514493
000040 7a 23 4e 3f 93 bd c2 3f 2a 83 7f 3f 3b 55 4a 3f
       0.8052288 1.5214103 0.99809515 0.790363
000050 52 63 b8 3f 0a f0 97 3f c7 c8 56 3f 0e 1a d0 3f
       1.440531 1.1870129 0.8390011 1.6257951
000060 2f ae 88 40 5f 29 bc 3e 3a 36 c8 3f 07 6d ab 3f
       4.2712626 0.36750314 1.5641549 1.3392648
000070 93 5e d3 3f 59 1c 51 41 64 b8 b9 3f f5 b6 94 3f
       1.6513237 13.069421 1.4509397 1.1618334
000080 10 e6 d8 3f 59 b8 ce 3f 87 c0 c1 3f 2e 36 7d 3f
       1.694521 1.6150008 1.513688 0.98910797
000090 5d 98 50 3f 7e 4e 16 40 a5 cf b6 3f c2 6b 0a 41
       0.8148249 2.3485408 1.4282118 8.651308
0000a0 3e fd d7 3f a5 f8 55 40 80 97 4b 40 05 29 8f 3f
       1.6874158 3.343301 3.1811218 1.1184393
0000b0 0a 6b 23 40 67 f4 05 3f 66 85 b8 3f 13 a2 25 3f
       2.5534081 0.52326053 1.441571 0.6470043
0000c0 72 2e 65 3f e6 d2 3d 3e b4 5f 83 3f 31 3e e6 3f
       0.89523995 0.18537483 1.0263581 1.7987729
0000d0 34 d3 0c 41 19 75 b1 3f 15 d0 85 3f cc 10 df 3f
       8.801563 1.386386 1.0454127 1.7427001
0000e0 82 48 21 3f 82 04 2c 3e 9d 22 4f 3f d7 8f d3 40
       0.63001263 0.16798595 0.8091219 6.6113086
0000f0 c4 00 e0 3e 6f db fd 3f c0 d6 c2 3e 2b 6a 9e 41
       0.43750584 1.9832591 0.38054466 19.80184

bn4.running_var f4 [64]
000000 52 16 a6 41 85 dc a8 41 ee 20 17 42 e5 54 91 41
       20.760899 21.107676 37.782158 18.166452
000010 ee 98 c3 41 98 e0 d4 41 bc 41 3a 42 78 6b 00 42
       24.449673 26.609665 46.564194 32.10495
000020 40 07 2d 42 06 e6 b6 41 29 d1 b9 41 fb 6c 24 42
       43.25708 22.862316 23.227129 41.106426
000030 1d 25 8f 41 e7 84 61 41 f0 a4 49 42 7f 29 16 42
       17.893122 14.094947 50.41107 37.540524
000040 6a 85 d2 41 6c c2 01 42 51 e9 d3 41 de 5b 85 41
       26.315144 32.439865 26.488924 16.669857
000050 8b b2 d6 41 0a 0a 24 42 d2 71 bc 41 77 9d f9 41
       26.83718 41.009804 23.555576 31.201887
000060 1b af dc 42 f1 57 60 41 f7 19 25 42 88 7c 0a 42
       110.342 14.02147 41.275356 34.621613
000070 e3 0b 64 42 4e 47 64 43 41 00 18 42 2c 1d 3f 42
       57.01161 228.27853 38.000248 47.77849
000080 0a 1e 37 42 dc 74 07 42 f0 31 09 42 e3 f0 09 42
       45.779335 33.86412 34.298767 34.48524
000090 10 05 81 41 36 16 8e 42 f7 fd 3a 42 31 25 14 43
       16.127472 71.04338 46.748013 148.14528
0000a0 10 e6 7b 42 02 e5 ba 42 33 f3 d3 42 63 6d 02 42
       62.97467 93.44728 105.975 32.606823
0000b0 4d 4e 66 42 88 e7 50 41 4d 34 2f 42 3a 89 9c 41
       57.576466 13.056526 43.801075 19.567005
0000c0 a5 c8 9f 41 80 61 5a 40 39 1b d3 41 96 c1 99 42
       19.972971 3.412201 26.388292 76.8781
0000d0 04 f1 4e 43 5f 3e ea 41 7d 81 c9 41 89 00 4e 42
       206.94147 29.280455 25.188227 51.500523
0000e0 ea 50 7a 41 03 c3 54 40 0d b3 9c 41 eb ae 37 43
       15.644754 3.3244026 19.587427 183.68327
0000f0 ff 05 36 41 c5 ac 2e 42 9b ff 2e 41 ce 39 a9 43
       11.376464 43.66872 10.937404 338.4516

lin.weight f4 [10, 64]
000000 4e 75 b7 bf 1b 7e 3c bf a1 74 60 3f 49 00 3c 3f
       -1.4332674 -0.7362992 0.8767796 0.73437935
000010 63 f0 c7 be b7 de 05 bf c0 fc 19 40 ac 47 8f bf
       -0.39050588 -0.5229296 2.4060516 -1.1193748
000020 96 68 68 bf d4 bc 29 bf 74 ed 02 bf 5f e1 bf 3f
       -0.90784585 -0.66303754 -0.51143575 1.4990653
000030 49 b2 bb 3f 35 d3 5c bf 87 42 be 3f 37 31 0b 3e
       1.4663783 -0.86259776 1.4864053 0.13592993
000040 87 95 58 bd 3d ca f9 bf 1b 94 06 c0 41 a5 f0 3e
       -0.052876975 -1.9514843 -2.1027896 0.4700108
000050 63 7d 42 bf 03 67 bc bd a2 b4 dd 3f e9 45 bc 3e
       -0.75972575 -0.091993354 1.732075 0.36772087
000060 62 13 a5 3f 73 9e 0c 40 56 d1 10 bf 80 a6 bc be
       1.289654 2.197171 -0.5656942 -0.3684578
000070 86 a3 ac 3f 8a 59 aa 3e a6 17 03 c0 26 7c d4 bf
       1.3487403 0.33271438 -2.0483184 -1.6600387
000080 0b a9 6e bf 23 c1 bc 3f b2 27 b6 3e 70 6e 94 bf
       -0.9322669 1.4746441 0.3557716 -1.1596203
000090 fa 7d 02 bd 34 09 c7 3f b0 31 20 3f fd 25 63 3b
       -0.03185842 1.5549684 0.6257582 0.0034660094
0000a0 fc 85 fc 3c 27 66 25 3f 49 c1 80 3d 93 de 5d 3e
       0.030825607 0.64609 0.06286866 0.21666937
0000b0 2b 70 60 3f ac 3a 31 bf 4b 1d 20 bf 7c f7 67 bf
       0.87671155 -0.6923015 -0.625447 -0.90612006
0000c0 bb 62 ff be e3 ef 3f be bb d4 bd bf 24 a8 98 bf
       -0.49880013 -0.18743853 -1.4830545 -1.1926312
0000d0 5e aa 33 3e 12 10 2d be 4e c6 25 3e 90 60 a8 bf
       0.17545459 -0.16900662 0.16188928 -1.3154469
0000e0 b1 95 0a 40 d9 93 06 bf 05 e1 a6 bf 25 32 16 3f
       2.1653864 -0.5256935 -1.303742 0.58670264
0000f0 63 b4 82 bf d1 d4 50 3f f9 56 51 3f 1b 23 60 bd
       -1.02113 0.8157473 0.81773335 -0.05472098
000100 6b e5 de bf d6 1c 72 bf d5 27 b6 bf 63 ea 25 40
       -1.7413763 -0.9457525 -1.4230906 2.5924308
000110 09 da f5 3f 38 24 aa bf b7 10 50 bf fa 5c 7e bf
       1.9207164 -1.3292303 -0.81275505 -0.9936062
000120 91 5d e0 bf 7c 03 f0 be 17 ef 1c 40 56 40 55 3e
       -1.7528554 -0.46877658 2.452093 0.20825323
000130 5c db ba bf 88 c1 6f 3f ca 29 91 bf 7b 76 b9 bf
       -1.4598193 0.9365468 -1.1340878 -1.4489282
000140 b4 e7 e4 be 0f 75 8f 3e 09 8a a6 3f 78 ee 34 bf
       -0.44708025 0.28018996 1.3010875 -0.70676374
000150 38 b9 53 bf aa c7 a9 3f a9 52 a6 3d c1 22 b9 3f
       -0.82704496 1.3264058 0.08121235 1.4463731
000160 3d fc 5d be 22 07 68 bf f6 b8 dc bf 8c 58 4b bf
       -0.21678253 -0.90635884 -1.7243946 -0.79431987
000170 d0 8b 97 bf d3 df 14 bf 06 97 ea 3e 0d 35 45 3f
       -1.1839542 -0.5815403 0.45818347 0.77034074
000180 a0 fe a2 bf b6 28 e4 3f b8 d0 72 bd 39 a5 a0 bf
       -1.2733955 1.7824924 -0.05928108 -1.2550422
000190 61 bf 40 bf ae 13 23 c0 45 d8 b8 bf 65 a5 60 bf
       -0.7529202 -2.5480762 -1.4441 -0.8775237
0001a0 a3 ae 3a bf 5a 53 8c bf 70 a8 87 3f 24 ab cb 3f
       -0.72922724 -1.0962937 1.0598278 1.5911603
0001b0 48 bd 96 3f 57 d1 6f 3f 16 9c c9 bf 6f d2 30 40
       1.1776514 0.936788 -1.5750759 2.7628438
0001c0 be 33 9b bf ac db 1f 3f de b5 5b bf 67 35 ec bf
       -1.2125165 0.6244457 -0.8582438 -1.8453797
0001d0 89 57 13 be e6 5f 2c bf b7 b8 e3 3f 85 71 03 3f
       -0.14388861 -0.6733383 1.7790745 0.5134509
0001e0 f6 f7 02 c0 c5 cd 45 bf 33 51 8e 3f 14 9f 72 3f
       -2.0463843 -0.77267104 1.111853 0.94773984
0001f0 fd ec 5c bf dd 3b d0 bf 97 71 c0 3e 86 d3 4f be
       -0.86299115 -1.6268269 0.37586662 -0.20295534
000200 d8 6e d5 3f 10 de e4 3e 80 2e fc be 34 d1 0a 3f
       1.6674452 0.4470067 -0.49254227 0.5422547
000210 e3 1a 09 bf 24 1b 26 3f cc 0e d3 be 67 90 c6 3f
       -0.5355665 0.64885163 -0.41222227 1.5512818
000220 46 7e 98 3f b7 22 b4 bf 37 f9 00 c0 9e c0 e9 bf
       1.1913536 -1.4073094 -2.0152109 -1.8261907
000230 51 2f 10 bf 80 39 69 bf 82 a3 38 3f ad d4 02 40
       -0.563222 -0.91103363 0.72124493 2.0442307
000240 f6 6e c4 bf bb 88 0e 3f cd 04 52 bd 80 af 20 bf
       -1.5346363 0.55677384 -0.05127411 -0.6276779
000250 31 d0 7a bf 51 c2 42 bf 5e 08 cb bf 02 aa 85 3f
       -0.97973925 -0.76077753 -1.5861928 1.0442507
000260 34 2c b7 3f db 5d 8b 3f c9 69 e8 3f 9c 4b 1b be
       1.4310365 1.0888017 1.8157283 -0.15165561
000270 54 3c 28 c0 b8 51 43 be f1 5f 94 bf e6 79 7a 3f
       -2.6286821 -0.19074142 -1.1591779 0.9784225
000280 61 6e b9 bf ad 0c fd bf 3c a8 98 3e fc 9d 62 be
       -1.448681 -1.9769493 0.29815853 -0.22130579
000290 70 5c c5 be af 6b 54 bf ab e1 8a 3f 2c 94 11 3f
       -0.38547087 -0.8297681 1.0850118 0.5686672
0002a0 9c 6e de 3f aa 8e a8 3e 84 23 59 bf 85 a1 e7 3e
       1.7377505 0.32921344 -0.8481982 0.45240417
0002b0 67 2c 40 3f df 52 70 be c1 4c 82 3f ba 05 c2 be
       0.7506775 -0.23469113 1.0179673 -0.37894994
0002c0 eb 6d 84 bf d1 bd a7 3f 52 8d 95 bf 02 7b d0 3f
       -1.0346044 1.3104802 -1.1683753 1.6287539
0002d0 eb 0b c0 3e 78 14 d3 bf f6 ea 0c 3f be 24 a2 3f
       0.37509093 -1.6490622 0.5504602 1.2667463
0002e0 69 d8 c1 bf 9b 78 a5 3f dc 7a 8c 3e a0 fe d8 3f
       -1.5144168 1.2927431 0.27437484 1.6952705
0002f0 2e 76 32 3f 44 72 82 bf f0 67 49 3b 1b 62 28 3f
       0.6971158 -1.0191121 0.0030732118 0.657747
000300 05 da 78 3f 21 52 ba 3f 2b 3b 89 3e 22 3c 9f bf
       0.9720767 1.4556314 0.26802954 -1.2440226
000310 8c 56 e9 3f 31 39 a9 be d6 6f 9b 3f c1 38 7e bf
       1.8229537 -0.33051446 1.2143505 -0.9930535
000320 2a 5f 58 3f 43 c9 81 bf a9 7c 91 3e 91 d4 20 c0
       0.8452021 -1.0139545 0.2841542 -2.512974
000330 a2 88 b4 3f 6e 97 a5 bf a7 a0 da bf df 95 a4 be
       1.4104197 -1.2936838 -1.7080277 -0.32145593
000340 39 ae 0d c0 94 5a 08 3f a4 c0 2f 3e 32 74 20 bc
       -2.2137587 0.5326321 0.1716333 -0.009793328
000350 08 65 44 3e 83 f1 01 be ed 99 90 bf 18 f8 0c bf
       0.19179165 -0.12689786 -1.1296974 -0.5506606
000360 5b 74 a3 bf 0a 94 d3 bf d1 c6 ea bf e5 09 86 bf
       -1.2769884 -1.6529553 -1.8341924 -1.047177
000370 59 c1 0e 3e c5 21 3f 3f c0 e2 0b bf 9e 88 e9 bf
       0.13940944 0.74660903 -0.5464287 -1.8244817
000380 01 c3 9f 3f 8c 91 23 bf 37 bb 29 c0 ac 1f c7 3f
       1.2481385 -0.6389396 -2.6520517 1.555654
000390 ab e0 19 3f 3d 07 77 3e e5 78 57 3f 33 03 9b 3f
       0.6010844 0.24123855 0.84168845 1.2110351
0003a0 f3 dd 36 be 49 93 b6 3f b9 14 95 3f 22 61 1d bf
       -0.17858104 1.4263698 1.1646949 -0.6147634
0003b0 b1 f3 1c 3f cd d9 bd 3f 2f 16 0e c0 10 e9 8d 3e
       0.61309344 1.4832093 -2.220104 0.27716875
0003c0 69 42 94 3f b8 83 57 bf 18 c7 b7 3f 50 38 ae be
       1.1582767 -0.8418536 1.4357634 -0.34027338
0003d0 f7 b8 d9 bd 5e 1e 20 40 c9 f0 08 c0 8a f4 75 3f
       -0.10630982 2.5018535 -2.1396964 0.9607626
0003e0 4b 59 ff 3e 15 55 7e be 29 6c 15 40 54 60 ca be
       0.49872813 -0.24837144 2.3347266 -0.39526618
0003f0 82 6c 6d be db bb f8 bf 8c 84 96 3e 16 1f 28 3e
       -0.23185924 -1.9432329 0.29398 0.16418108

lin.bias f4 [10]
000000 9e ff ac 3e 62 3f c1 bd fd e9 e0 3d cb 24 01 bd
       0.3378877 -0.094359174 0.1098213 -0.03152923
000010 94 e1 49 be 07 b8 83 bf 60 bf 2c bf 65 ba 8e bc
       -0.19714957 -1.0290536 -0.67479515 -0.017422864
000020 e9 f0 b1 3e 71 b6 17 bc
       0.34754112 -0.009259806
