NCC_Code/models/2022-08-25_18-13-43_model.pt (torch, 115275 bytes, 50 tensors)

conv1.weight f4 [8, 2, 5, 5]
-0.34819978 -0.38602364 -0.233558 -0.32684115 -1.2749014 -0.10251425 0.079169 0.4260143
-0.2125893 -0.41664806 -0.40538824 0.20514603 0.5301968 0.36820048 -0.4046631 -0.1399768
-0.17502476 0.3186972 -0.36020708 -1.1721181 -0.9694195 -0.11328301 -0.062429465 -0.14996311
-0.3714699 -0.64677376 -0.20016962 0.25382796 -0.32374746 -0.90216845 0.19186305 -0.15051147
0.6419659 0.21541055 -0.64728427 0.060366847 0.045751803 0.188125 -0.34546003 -0.19226241
-0.067632034 0.011999837 0.13175014 -0.581511 -0.69605345 -0.37756616 -0.08815066 0.4353942
-0.36174154 -0.48906764 0.3039809 0.5291337 0.36060983 0.5255465 0.19335349 -0.09998245
-0.0787765 -0.09929575 -0.12209056 -0.09153096 -0.48888844 -0.26396927 -0.13721605 0.0442415
0.2930383 -0.12792604 0.18470903 0.2976409 0.32356346 0.23544185 0.9874643 0.76891136
0.63000655 1.304004 0.7518994 0.21691573 0.11461581 -0.119243264 0.3362945 0.40986618
0.20424184 0.008715799 -0.13329722 0.017827405 0.28572828 -0.3946279 -0.12848178 -0.3117135
-0.24359557 0.03807308 0.4837301 -0.20943606 0.017097117 0.18207565 0.2525289 0.78433174
1.1706306 1.0785887 1.0303844 0.7961833 -0.5105368 -0.86764556 -0.83440614 -0.28067857
-0.46831116 -0.27835345 -0.4017873 -0.20739207 -0.20000577 -0.23691393 0.13034467 0.18418984
0.15563652 0.27374524 0.2197441 -0.043781947 0.25074828 0.27982488 0.57089335 0.57887113
-0.32477936 -1.0637352 -0.12981813 0.17929856 0.037571326 -0.3687864 -0.7679062 -0.62719595
-0.8263062 -0.39299262 -0.283769 -0.29777065 -0.19797368 -0.10424829 -0.047038827 0.42415634
0.27885345 0.62862134 0.6626169 0.6108606 0.26777974 -0.10274504 0.28930122 0.31710848
0.57083863 -0.5303141 -0.5227851 -0.2787005 0.015479247 -0.18549244 -0.19318838 -0.5099313
-0.15130292 -0.5196059 -0.3473528 0.18604971 0.3316651 0.4757825 0.05538858 0.020751683
0.9561678 1.1120433 0.6885449 0.40454313 0.18959734 -0.100166656 -0.28100735 -0.32054114
-0.52251047 -0.35914373 -0.098636754 -0.27342695 -0.13279794 -0.3444766 -0.27174178 -0.34592962
-0.35512897 -0.393525 -0.3906817 -0.4667287 0.34046334 0.46055052 0.033459425 0.014353597
-0.27575412 1.1856629 0.96575797 0.9780196 0.77787435 0.08418736 -0.26196596 -0.517165
-0.07282277 -0.26187834 -0.3833125 0.17781301 0.042659 -0.23390898 0.114371575 0.06483831
-0.09443664 -0.25957426 -0.20147659 -0.27697566 -0.07934014 0.14623334 -0.11214557 0.2806956
-0.14785045 0.035651814 -0.076018974 -0.20125237 -0.22182553 -0.4093796 -0.00616783 0.6039847
1.1963471 0.72558653 1.1889367 0.7607369 0.07889322 -0.4925393 0.31706133 -0.45499262
-0.1420254 -0.36168593 -0.24592414 -0.22951467 -0.2173512 -0.22307013 0.07062947 0.0869479
-0.2222208 0.090776905 -0.0023416108 -0.06399681 -0.20487873 -0.24190614 -0.23112157 -0.44128382
-0.08157762 0.73536104 1.1599913 1.2236496 0.9905531 -0.5039001 0.12628037 -0.48308834
-0.1732128 -0.103884935 0.2488294 0.699645 0.469415 0.48085552 0.30308822 0.5619088
00000000: 3e47 b2be e4a4 c5be d429 6fbe b957 a7be
00000010: f82f a3bf fef2 d1bd 5b23 a23d 8c1e da3e
00000020: 02b1 59be e552 d5be 0c8f cfbe cd11 523e
00000030: faba 073f c684 bc3e 0030 cfbe 1456 0fbe
00000040: b139 33be 482c a33e 106d b8be f707 96bf
00000050: e02b 78bf ec00 e8bd 0ab6 7fbd ee8f 19be
00000060: 4d31 bebe f792 25bf 44f9 4cbe bdf5 813e
00000070: 3ac2 a5be 83f4 66bf bf77 443e ae1f 1abe
00000080: e157 243f 9594 5c3e 6cb4 25bf 3a43 773d
00000090: 3e66 3b3d d7a3 403e 23e0 b0be 70e0 44be
000000a0: aa82 8abd f79a 443c 82e9 063e e8dd 14bf
000000b0: 8f30 32bf 5a50 c1be 5588 b4bd fdeb de3e
000000c0: 3036 b9be 1367 fabe 62a3 9b3e 4e75 073f
000000d0: daa1 b83e 378a 063f 75fe 453e 99c3 ccbd
000000e0: 9355 a1bd 925b cbbd 9e0a fabd 9574 bbbd
000000f0: 964f fabe fb26 87be 5d82 0cbe 9336 353d
00000100: 1e09 963e 0bff 02be 5d24 3d3e 6364 983e
00000110: 1caa a53e ab17 713e 76ca 7c3f 60d7 443f
00000120: 1c48 213f 9ae9 a63f 7b7c 403f 281f 5e3e
00000130: b2bb ea3d d035 f4bd cb2e ac3e fbd9 d13e
00000140: c624 513e b6cc 0e3c 117f 08be c70a 923c
00000150: fa4a 923e ab0c cabe ba90 03be e998 9fbe
00000160: 1e71 79be 85f2 1b3d 79ab f73e 6876 56be
00000170: 410f 8c3c 0a72 3a3e 784b 813e f7c9 483f
00000180: 39d7 953f 320f 8a3f a3e3 833f abd2 4b3f
00000190: 8ab2 02bf 051e 5ebf a49b 55bf 1ab5 8fbe
000001a0: 7bc6 efbe 5884 8ebe 11b7 cdbe 965e 54be
000001b0: 50ce 4cbe 9199 72be 1379 053e 439c 3c3e
000001c0: 2e5f 1f3e 5628 8c3e 9904 613e b354 33bd
000001d0: 1462 803e 3545 8f3e 1126 123f e630 143f
000001e0: 7b49 a6be 7a28 88bf 0bef 04be 0b9a 373e
000001f0: 64e4 193d 92d1 bcbe 8095 44bf ea8f 20bf
00000200: ce88 53bf 5436 c9be 2c4a 91be 6575 98be
00000210: 9db9 4abe 2180 d5bd c9ab 40bd 052b d93e
00000220: e1c5 8e3e 54ed 203f 43a1 293f 5c61 1c3f
00000230: 6d1a 893e fe6b d2bd 4a1f 943e 0b5c a23e
00000240: 7b22 123f aac2 07bf 3fd5 05bf d5b1 8ebe
00000250: ab9c 7d3c bbf1 3dbe 2dd3 45be dc8a 02bf
00000260: 27ef 1abe e404 05bf 3ad8 b1be d183 3e3e
00000270: 02d0 a93e c499 f33e 23df 623d 6fff a93c
00000280: 6ac7 743f 6f57 8e3f 7b44 303f 4720 cf3e
00000290: ce25 423e 2d24 cdbd 32e0 8fbe f81d a4be
000002a0: 3fc3 05bf b0e1 b7be 1102 cabd 9efe 8bbe
000002b0: 2ffc 07be 3d5f b0be bd21 8bbe b01d b1be
000002c0: 77d3 b5be 1c7c c9be 6f07 c8be 10f7 eebe
000002d0: 3651 ae3e 47cd eb3e c00c 093d 592b 6b3c
000002e0: a52f 8dbe cdc3 973f ea3b 773f 7e5f 7a3f
000002f0: c622 473f 6c6a ac3d 6720 86be ed64 04bf
00000300: 1b24 95bd eb14 86be 8941 c4be 9d14 363e
00000310: 34bb 2e3d d685 6fbe a53b ea3d f3c9 843d
00000320: ff67 c1bd ebe6 84be e14f 4ebe c1cf 8dbe
00000330: 157d a2bd 31be 153e 94ac e5bd 55b7 8f3e
00000340: 1c66 17be a307 123d d6af 9bbd 1a15 4ebe
00000350: 3b26 63be 349a d1be 821b cabb be9e 1a3f
00000360: e721 993f 0ac0 393f 142f 983f a7bf 423f
00000370: c592 a13d 1c2e fcbe dd55 a23e cbf4 e8be
00000380: 1b6f 11be e62e b9be 8ad3 7bbe e505 6bbe
00000390: 5091 5ebe 7f6c 64be 2fa6 903d be11 b23d
000003a0: d98d 63be 3ee9 b93d b675 19bb c210 83bd
000003b0: bbcb 51be 3eb6 77be 22ab 6cbe f4ef e1be
000003c0: 2b12 a7bd 9f40 3c3f 987a 943f 8da0 9c3f
000003d0: e394 7d3f 99ff 00bf a44f 013e 5b57 f7be
000003e0: b25e 31be a0c1 d4bd 22cd 7e3e ef1b 333f
000003f0: 2a57 f03e b232 f63e 612e 9b3e 41d9 0f3f

conv1.bias f4 [8]
0.86755425 -0.3407534 0.68885815 -0.63822216 -1.0531851 -0.70605046 0.29352632 -0.32585666
00000000: 0918 5e3f 3b77 aebe 0259 303f 8762 23bf
00000010: c5ce 86bf b9bf 34bf 1549 963e afd6 a6be

bn1.weight f4 [8]
0.69176847 1.0519435 0.7700602 1.2393125 0.9958849 1.559901 0.8684618 0.10508151
00000000: bd17 313f 16a6 863f aa22 453f cba1 9e3f
00000010: 50f2 7e3f d6aa c73f 8353 5e3f fa34 d73d

bn1.bias f4 [8]
0.65682906 -0.43716222 0.6110867 -0.33036858 -0.5364726 -0.17700389 0.08159126 -0.79260653
00000000: f325 283f bad3 dfbe 2e70 1c3f 1226 a9be
00000010: 4556 09bf 8240 35be 5219 a73d 43e8 4abf

bn1.running_mean f4 [8]
3.161771 2.8441257 2.0787244 0.9445107 0.69959676 1.2776008 1.4546927 1.5616919
00000000: 755a 4a40 2806 3640 d209 0540 74cb 713f
00000010: c618 333f 6c88 a33f 5f33 ba3f 85e5 c73f

bn1.running_var f4 [8]
8.488748 50.380127 5.7490864 3.592873 3.7627892 8.838173 3.038578 14.038944
00000000: e9d1 0741 4085 4942 84f8 b740 a2f1 6540
00000010: 8ad1 7040 2869 0d41 1078 4240 849f 6041

conv2.weight f4 [16, 8, 3, 3]
0.1641752 0.27561894 0.03800129 -0.3553275 0.026146531 -0.19518818 -0.22532466 0.10217296
-0.51222056 0.49579847 0.15266633 -0.52628016 -0.019611644 -0.6129957 -0.73141885 -0.18575332
-0.41622835 -0.66495895 0.012885104 -0.36728925 -0.06052106 0.05477137 -0.36829928 -0.2566405
0.30917677 0.1630616 -0.25230432 0.18108134 0.086495034 -0.07383714 0.5957302 0.59809554
0.5172156 -0.3181417 -0.033029642 0.39169565 0.73321617 0.25920925 -0.42766714 -0.3815268
-0.47033095 -0.8045529 0.36913335 0.19511026 0.15072541 0.57724667 0.39377308 0.12762052
0.37991166 0.34779695 -0.17145741 -0.030935926 0.036112927 -0.59390503 0.5874926 0.5831769
0.5811824 0.32173485 -0.1631449 -0.23105177 0.07446265 -0.29865465 -0.2348609 0.46301988
0.5484866 0.47214356 0.6600228 0.87868494 0.5891252 0.2858454 0.35876453 0.4173007
-0.26808542 -0.48577324 0.24557 -0.5165486 -0.64793056 -0.43227175 -0.13769847 -0.42354396
-0.10785381 0.29368097 0.16932353 0.44049597 -0.49646786 -0.14101222 -0.1711491 -0.6423134
-0.3500111 -0.1559009 -0.55562264 -0.4492289 0.09753244 -0.55497897 -0.6372346 -0.16693518
0.50493085 0.5240545 0.26468042 -0.7121722 -0.84650844 -0.68146485 0.82446724 0.7367888
0.6896277 -0.15179119 0.0027908597 -0.1284313 0.2034423 0.23627087 1.0155281 -0.51075613
-0.4435141 -0.3228146 -0.06327607 -0.21145362 -0.10048977 0.2760559 0.2525418 0.111791804
0.24548922 0.6491239 0.45100138 -0.09077384 0.19313179 0.30523214 -0.01749335 0.09276226
0.04158418 -0.1194873 0.17401893 0.15092854 -0.6852167 -0.5486978 -0.3499313 -0.22364129
-0.2356179 -0.22194214 0.3196756 0.343358 0.12993845 -0.18507433 -0.021018066 0.078594446
-0.25050724 -0.33128592 -0.081609346 0.030589908 -0.1104815 0.5068071 -0.22526732 -0.43592107
0.6062366 0.06389971 0.1994375 0.18402672 0.49055028 0.41509992 0.17637584 0.80941576
0.34063423 0.14999613 -0.37876445 0.3153619 0.53180784 -0.17886211 -0.17527775 -0.28874788
-0.44460663 0.06110372 -0.2293623 0.24705395 0.1481536 -0.07508888 -0.081070594 -0.5643356
-0.56342745 0.2537898 -0.14361522 0.0008733748 0.7109585 0.6234337 0.28048718 0.23640136
0.2742653 0.3798697 0.13167737 0.1483954 0.08428388 -0.76748145 -0.8027516 -0.7542514
0.3787574 0.6304992 0.529431 -0.09201842 -0.1752228 -0.28416365 0.034940526 -0.24590907
0.0707841 -0.41745812 -0.32135427 -0.2924193 -0.089128934 -0.35107535 -0.615986 0.072951004
0.046634685 -0.068718836 0.12682773 0.09037452 0.038671806 0.076452225 0.15972833 -0.016246384
-0.085193135 -0.48363703 -0.12815057 0.16866548 -0.5487293 -0.20131436 0.13389017 -0.26842
-0.28660366 0.2209005 -0.104579374 -0.025431909 0.20217331 0.039910484 -0.0934887 0.20862587
0.21719225 0.38129008 0.86265415 0.68000704 0.46360186 -0.85391563 -0.57869387 -0.44005173
-0.33557385 -0.08763103 -0.22687735 -0.3166048 -0.18982682 0.026127618 -0.09550452 -0.17993273
-0.33383504 0.16490902 0.1963369 0.39016947 0.035039607 -0.00271324 -0.0101577155 0.9075295
00000000: 8b1d 283e ed1d 8d3e 3ea7 1b3d 7ced b5be
00000010: 4031 d63c 69df 47be 82bb 66be 0f40 d13d
00000020: e320 03bf 4cd9 fd3e 9054 1c3e 4cba 06bf
00000030: 99a8 a0bc 49ed 1cbf 443e 3bbf 1e36 3ebe
00000040: e21b d5be c03a 2abf 0b1c 533c 560d bcbe
00000050: eee4 77bd f257 603d b991 bcbe 6266 83be
00000060: 6b4c 9e3e 9ff9 263e 082e 81be 636d 393e
00000070: 4f24 b13d ed37 97bd c681 183f ca1c 193f
00000080: 3e68 043f 78e3 a2be 174a 07bd 558c c83e
00000090: 0eb4 3b3f 13b7 843e 30f7 dabe 7b57 c3be
000000a0: 38cf f0be 2ef7 4dbf 0cff bc3e fcca 473e
000000b0: c357 1a3e 70c6 133f a09c c93e f4ae 023e
000000c0: c883 c23e 7112 b23e 8892 2fbe 576d fdbc
000000d0: 26eb 133d 290a 18bf ea65 163f 154b 153f
000000e0: 5fc8 143f 6eba a43e 750f 27be d698 6cbe
000000f0: e07f 983d 43e9 98be 607f 70be f110 ed3e
00000100: 9e69 0c3f cdbc f13e 41f7 283f 7ff1 603f
00000110: e9d0 163f 545a 923e fcaf b73e 70a8 d53e
00000120: 7e42 89be 45b7 f8be b476 7b3e 873c 04bf
00000130: c7de 25bf b952 ddbe d400 0dbe c1da d8be
00000140: 75e2 dcbd 5a5d 963e 2663 2d3e b088 e13e
00000150: 0931 febe 8265 10be b641 2fbe a76e 24bf
00000160: a834 b3be 7ca4 1fbe 493d 0ebf 5501 e6be
00000170: 17bf c73d 1a13 0ebf cf21 23bf 0ef1 2abe
00000180: 2643 013f 7028 063f 3184 873e eb50 36bf
00000190: c7b4 58bf 7b74 2ebf 4910 533f 319e 3c3f
000001a0: 718b 303f 266f 1bbe dbe6 363b 7f83 03be
000001b0: 2e53 503e fef0 713e d3fc 813f eac0 02bf
000001c0: 4814 e3be f547 a5be e296 81bd 4c87 58be
000001d0: 95cd cdbd 3357 8d3e 294d 813e 1af3 e43d
000001e0: 8761 7b3e fc2c 263f a7e9 e63e a3e7 b9bd
000001f0: 57c4 453e 6347 9c3e 374e 8fbc 24fa bd3d
00000200: 2c54 2a3d c2b5 f4bd 0532 323e 038d 1a3e
00000210: 5d6a 2fbf 7677 0cbf 322a b3be 3902 65be
00000220: d245 71be cd44 63be 85ac a33e 9fcc af3e
00000230: 960e 053e 2084 3dbe 142e acbc 20f6 a03d
00000240: 7c42 80be 4f9e a9be cd22 a7bd b097 fa3c
00000250: 2044 e2bd 1cbe 013f 7aac 66be 0c31 dfbe
00000260: 5232 1b3f dadd 823d 5839 4c3e 8071 3c3e
00000270: 6829 fb3e fa87 d43e de9b 343e df35 4f3f
00000280: 9c67 ae3e 9698 193e 6aed c1be 1d77 a13e
00000290: 8f24 083f a127 37be 037c 33be c3d6 93be
000002a0: 7ba3 e3be e547 7a3d f3dd 6abe b6fb 7c3e
000002b0: 94b5 173e 33c8 99bd 5708 a6bd 4c78 10bf
000002c0: c83c 10bf bdf0 813e de0f 13be 31f3 643a
000002d0: 6001 363f 5a99 1f3f 049c 8f3e 3313 723e
000002e0: 806c 8c3e 487e c23e 6fd6 063e f7f4 173e
000002f0: 079d ac3d aa79 44bf 2181 4dbf 9f16 41bf
00000300: 7dec c13e 6568 213f ca88 073f 2774 bcbd
00000310: 9b6d 33be e67d 91be cc1d 0f3d 96cf 7bbe
00000320: 41f7 903d 12bd d5be 8c88 a4be fcb7 95be
00000330: 3b89 b6bd 26c0 b3be 42b1 1dbf 5667 953d
00000340: 0304 3f3d 76bc 8cbd 21df 013e 4716 b93d
00000350: 5466 1e3d fc92 9c3d d38f 233e 2317 85bc
00000360: bd79 aebd 469f f7be e739 03be a5b6 2c3e
00000370: 8679 0cbf 5a25 4ebe 811a 093e 596e 89be
00000380: b7bd 92be be33 623e b62d d6bd 9456 d0bc
00000390: 8506 4f3e 2d79 233d 0177 bfbd 05a2 553e
000003a0: a567 5e3e 7438 c33e e7d6 5c3f f114 2e3f
000003b0: 395d ed3e 379a 5abf 4825 14bf 764e e1be
000003c0: 56d0 abbe e677 b3bd 8952 68be 061a a2be
000003d0: f661 42be 9609 d63c e097 c3bd 4940 38be
000003e0: 6dec aabe e9dd 283e 8a0c 493e 4bc4 c73e
000003f0: b185 0f3d 9dd0 31bb 8c6c 26bc da53 683f

conv2.bias f4 [16]
-0.8201305 -0.22524491 -0.20522848 0.17211625 -0.8212894 -1.5126646 -0.4920286 -0.19689652
0.094309315 -0.15087624 -1.4522135 -0.25843942 -0.70030373 -0.8400291 -0.1688538 -0.4758609
00000000: 13f4 51bf 9aa6 66be 6a27 52be 3e3f 303e
00000010: 0640 52bf fe9e c1bf 2ceb fbbe 3e9f 49be
00000020: 3e25 c13d 4d7f 1abe 22e2 b9bf 2c52 84be
00000030: 1b47 33bf 260c 57bf 03e8 2cbe 0aa4 f3be

bn2.weight f4 [16]
0.8863878 0.9897743 1.0940652 1.3373014 1.1944077 1.23043 1.1152487 0.76710534
1.0658783 0.94397366 1.1265237 1.2479132 0.97559136 0.97453713 1.3450093 1.0711884
00000000: 50ea 623f d961 7d3f 540a 8c3f b12c ab3f
00000010: 5ae2 983f bb7e 9d3f 78c0 8e3f 0461 443f
00000020: b36e 883f 42a8 713f ee31 903f 9fbb 9f3f
00000030: 5bc0 793f 447b 793f 4429 ac3f b41c 893f

bn2.bias f4 [16]
0.38387161 -0.07794768 0.20111254 0.67919 0.4155535 0.02886389 0.2524312 -0.3931742
0.32197186 0.75954634 -0.3628929 0.14777996 0.007499754 0.17358238 -0.20249921 -0.16736746
00000000: d28a c43e 09a3 9fbd 72f0 4d3e 65df 2d3f
00000010: 6ec3 d43e f773 ec3c aa3e 813e 214e c9be
00000020: 7fd9 a43e a171 423f 19cd b9be a153 173e
00000030: 7fc0 f53b 94bf 313e f45b 4fbe 6062 2bbe

bn2.running_mean f4 [16]
0.21958393 0.8583443 0.5448185 1.0054183 0.60899854 0.22652593 0.40841493 1.0419251
1.4427998 9.040736 0.25195625 0.38598627 0.22555102 0.27534828 0.9334677 0.70065606
00000000: 9cda 603e 74bc 5b3f 3a79 0b3f 8cb1 803f
00000010: 54e7 1b3f 6af6 673e c31b d13e cd5d 853f
00000020: aaad b83f dba6 1041 6900 813e fe9f c53e
00000030: d9f6 663e 73fa 8c3e bdf7 6e3f 325e 333f

bn2.running_var f4 [16]
1.319869 8.226782 4.944109 8.825633 8.514462 2.4011989 3.7070992 12.301915
22.607075 28.038975 2.32559 2.5444677 2.244613 2.0688472 10.188625 7.2138114
00000000: 78f1 a83f e6a0 0341 2436 9e40 cb35 0d41
00000010: 3d3b 0841 3ead 1940 1d41 6d40 a5d4 4441
00000020: 4adb b441 d24f e041 77d6 1440 8fd8 2240
00000030: bda7 0f40 fe67 0440 9c04 2341 8bd7 e640

conv3.weight f4 [32, 16, 3, 3]
-0.13972084 0.1660031 0.30977696 0.14124517 0.17367278 -0.51945883 0.2936395 0.42560548
0.19153994 0.13624863 0.3478126 -0.09747369 -0.9199265 -1.1487585 -1.1799538 0.5729013
0.29524082 -0.23347773 -0.30827847 0.20955503 0.46182293 0.18440755 -0.046452638 -0.010497324
0.2674907 0.10860199 -0.32068866 -0.56172526 -0.9248059 -0.9617038 -0.3166616 0.28489056
0.64611465 -0.3314433 -0.2606735 0.068685934 -0.5135412 -0.2229964 0.020478822 0.27855843
-0.44214836 -0.68071723 0.14482318 0.03507299 0.37850064 -0.62447685 -0.22454853 -0.9033842
-0.76294124 -0.7577753 -0.51488703 0.61918706 0.8037241 0.9531515 -0.48273557 -0.059299823
0.28527114 0.16506164 -0.009579935 -0.13972576 0.096067265 0.27974713 0.62605166 0.14932461
-0.1383154 -0.054121573 0.25749642 0.501299 0.21470803 -0.48796123 -0.11234187 -0.1957389
0.14989129 -0.11938483 -0.22248109 -0.56601 -0.5614719 -0.43892616 -0.37510148 -0.5573299
-0.7618066 -0.7942161 -0.4807118 -0.24380326 -0.5960725 -0.8429478 -0.33742693 -0.5757473
-0.7784831 -0.7240583 0.32444948 0.24562411 0.092638865 -0.27817217 0.0016039454 -0.2282255
-0.30728748 -0.12389213 0.282209 -0.37545097 -0.15190424 -0.06366125 -0.18316779 0.22801013
-0.037789796 0.04330039 -0.32648614 -0.03003963 0.374306 -0.01989399 -0.24305551 0.3081458
0.42616516 0.46399117 0.5650169 -0.0932728 0.07235905 -0.099115424 0.05059756 -0.6423982
-0.12927882 0.10334803 0.04929863 -0.25457004 -1.2472651 -1.1153684 -0.25678188 0.1392234
0.5723932 0.75895435 0.432782 0.10747238 0.33718643 0.36763203 0.2966586 0.42024317
0.17435837 0.036218815 0.17162277 0.03868043 -0.31175783 -0.9703227 -0.9608459 -0.18719923
-0.5130357 -0.6090486 -1.0123925 -0.65071154 -0.14393114 -0.2750331 0.5685376 0.42445588
-0.028251838 0.19331314 0.07914788 0.25573638 -0.06812058 -0.62835383 -0.6584633 0.1813261
-0.19468166 -0.62962675 0.11394313 -0.18726361 -0.4811123 -0.35891968 -0.48550397 -0.18758318
0.19240062 0.18478668 0.18119504 -0.15949522 -0.21989158 0.18342379 0.39643833 0.11652722
0.16205247 0.26201573 0.22694632 0.1840534 0.23286821 0.019440541 -0.50047696 -0.15234622
-0.3923696 -0.5605307 0.21694358 -0.26816928 -0.42589575 0.17580271 0.07859472 0.0016917645
-0.20160507 -0.8288832 -0.7788529 0.22214298 0.36345422 -0.12679732 -0.07298919 -0.00918567
-0.3648677 -0.85841405 -0.7372488 -0.52083313 0.05756325 -0.08553035 0.14346042 -0.17714088
-0.072312735 -0.07427655 0.03966364 0.124891415 -0.009888616 0.13585576 -0.083316885 0.0112584
-0.17294067 -0.6030535 -0.55480605 0.099471785 -0.57938874 -0.9306863 -0.28128552 -0.5844136
-0.42846096 -0.5234661 -0.57538223 -1.3425357 0.032200087 0.20664628 -0.27521002 -0.15010387
-0.046238538 -0.6697111 0.15033436 -0.081092075 -0.10596181 0.12873203 -0.01385519 -1.22569
0.8056891 0.49490905 -0.2816067 0.37876877 0.6622885 0.41690823 0.34383902 0.3354371
0.39097354 -0.8918918 -0.7324808 -0.46017876 -0.5809386 -0.39424536 -0.37792104 0.05634635
00000000: fb12 0fbe b7fc 293e 169b 9e3e 93a2 103e
00000010: 47d7 313e 41fb 04bf eb57 963e f6e8 d93e
00000020: 0c23 443e c384 0b3e 7e14 b23e 49a0 c7bd
00000030: 4e80 6bbf 850a 93bf ba08 97bf a9a9 123f
00000040: ce29 973e c914 6fbe add6 9dbe 9895 563e
00000050: 0e74 ec3e 55d5 3c3e 1f45 3ebd f8fc 2bbc
00000060: 8bf4 883e b86a de3d 4e31 a4be 3acd 0fbf
00000070: 14c0 6cbf 3832 76bf 7821 a2be 2ddd 913e
00000080: c567 253f f0b2 a9be ff76 85be 36ab 8c3d
00000090: 7077 03bf 2b59 64be 34c3 a73c 369f 8e3e
000000a0: 4561 e2be 7c43 2ebf 874c 143e b2a8 0f3d
000000b0: d6ca c13e b7dd 1fbf 0df0 65be 3044 67bf
000000c0: 1e50 43bf 90fd 41bf a3cf 03bf 0b83 1e3f
000000d0: ddc0 4d3f bd01 743f 1e29 f7be 5fe4 72bd
000000e0: 0f0f 923e eb05 293e 29f5 1cbc 4514 0fbe
000000f0: eabe c43d 043b 8f3e ec44 203f 8de8 183e
00000100: 8da2 0dbe 95ae 5dbd 92d6 833e 2255 003f
00000110: 6cdc 5b3e 0ed6 f9be 7f13 e6bd c76f 48be
00000120: 1a7d 193e 0980 f4bd 15d2 63be 08e6 10bf
00000130: 9fbc 0fbf eeba e0be 4d0d c0be 2cad 0ebf
00000140: c205 43bf bf51 4bbf db1f f6be 90a7 79be
00000150: 3598 18bf 6dcb 57bf 39c3 acbe 2d64 13bf
00000160: ab4a 47bf e25b 39bf 3e1e a63e e384 7b3e
00000170: 72b9 bd3d 956c 8ebe 7a3b d23a f2b3 69be
00000180: c954 9dbe 28bb fdbd b37d 903e 1c3b c0be
00000190: c98c 1bbe d460 82bd 5690 3bbe 7d7b 693e
000001a0: 79c9 1abd c05b 313d 3129 a7be ac15 f6bc
000001b0: 09a5 bf3e b9f8 a2bc 8be3 78be 49c5 9d3e
000001c0: 5232 da3e 4090 ed3e f3a4 103f cf05 bfbd
000001d0: fb30 943d 07fd cabd 633f 4f3d 3574 24bf
000001e0: ab61 04be 22a8 d33d 5ced 493d 0157 82be
000001f0: 62a6 9fbf 64c4 8ebf ea78 83be 9490 0e3e
00000200: 5c88 123f d54a 423f 9a95 dd3e 7b1a dc3d
00000210: b3a3 ac3e 443a bc3e a3e3 973e 1d2a d73e
00000220: 008b 323e 2e5a 143d e1bd 2f3e 5f6f 1e3d
00000230: b99e 9fbe 1267 78bf fff9 75bf 28b1 3fbe
00000240: 4f56 03bf 9cea 1bbf 1496 81bf 0895 26bf
00000250: af62 13be 23d1 8cbe ae8b 113f 4852 d93e
00000260: 6670 e7bc e1f3 453e 4918 a23d e1ef 823e
00000270: cd82 8bbd ccdb 20bf 0d91 28bf 8dad 393e
00000280: a15a 47be 382f 21bf 045b e93d 08c2 3fbe
00000290: 5a54 f6be 52c4 b7be fa93 f8be ce15 40be
000002a0: ab04 453e b838 3d3e 318b 393e b752 23be
000002b0: 422b 61be 72d3 3b3e f7f9 ca3e d3a5 ee3d
000002c0: 15f1 253e ed26 863e 9e64 683e 7f78 3c3e
000002d0: 0175 6e3e c541 9f3c 421f 00bf a600 1cbe
000002e0: abe4 c8be f17e 0fbf 7526 5e3e 7c4d 89be
000002f0: 020f dabe a005 343e 45f6 a03d 32be dd3a
00000300: 8f71 4ebe b031 54bf e762 47bf 7379 633e
00000310: ac16 ba3e 28d7 01be 5b7b 95bd 7e7f 16bc
00000320: f0cf babe 06c1 5bbf 56bc 3cbf 5255 05bf
00000330: 71c7 6b3d 892a afbd 4ae7 123e 6b64 35be
00000340: b318 94bd 4e1e 98bd 5776 223d 12c7 ff3d
00000350: dd03 22bc c61d 0b3e 0ba2 aabd 2775 383c
00000360: 5c17 31be b761 1abf c507 0ebf ddb7 cb3d
00000370: d252 14bf 7541 6ebf a804 90be 219c 15bf
00000380: 3c5f dbbe e001 06bf 404c 13bf 36d8 abbf
00000390: 3de4 033d 159b 533e 54e8 8cbe d4b4 19be
000003a0: 9f64 3dbd 3072 2bbf 40f1 193e 9a13 a6bd
000003b0: 8102 d9bd 54d2 033e e100 63bc 69e3 9cbf
000003c0: a441 4e3f b864 fd3e c12e 90be fbed c13e
000003d0: bd8b 293f ff74 d53e ab0b b03e 69be ab3e
000003e0: af2d c83e 0553 64bf dd83 3bbf 8d9c ebbe
000003f0: 64b8 14bf 87da c9be de7e c1be 6ecb 663d

conv3.bias f4 [32]
-0.028736457 -0.47264042 -0.68958455 -0.44846782 0.35997283 -0.454863 0.1380207 -1.0429997
-0.655296 -0.19417626 -1.5134677 -0.42907414 -0.66107476 -0.5136927 -0.59406155 -0.41201985
-1.1170564 -0.2042121 -0.87578577 -0.2985258 0.6867037 0.07008211 -1.4020065 -0.8066686
-0.017597962 0.49045178 -0.8446896 -0.7748308 -0.1391762 -0.68631464 -0.44263995 -0.7491941
00000000: b868 ebbc edfd f1be 9d88 30bf 939d e5be
00000010: 5c4e b83e cee3 e8be 4c55 0d3e 0481 85bf
00000020: 7bc1 27bf 24d6 46be 4fb9 c1bf 9baf dbbe
00000030: 323c 29bf 5d81 03bf 6b14 18bf 44f4 d2be
00000040: b4fb 8ebf fa1c 51be 7f33 60bf 60d8 98be
00000050: d0cb 2f3f 3687 8f3d f374 b3bf d581 4ebf
00000060: 9a29 90bc 7f1c fb3e 943d 58bf 505b 46bf
00000070: 3584 0ebe 51b2 2fbf b4a1 e2be 2fcb 3fbf

bn3.weight f4 [32]
0.89331454 0.9254938 1.1118642 1.0580242 0.92559236 1.1979687 1.1248937 0.9847336
1.249746 0.95361143 1.1559361 1.1186988 1.3205024 0.9906977 0.51046085 1.1079532
1.0267397 1.1292022 1.0222572 1.1156577 0.8720139 0.90020955 0.9802635 1.0086972
1.0131379 1.1834433 0.94929457 1.4625684 1.1460027 1.1412612 1.0904915 1.0540894
00000000: 43b0 643f 29ed 6c3f 9151 8e3f 566d 873f
00000010: 9ff3 6c3f 0a57 993f 84fc 8f3f 8017 7c3f
00000020: adf7 9f3f e11f 743f b7f5 933f 8631 8f3f
00000030: 3906 a93f 5d9e 7d3f 90ad 023f 69d1 8d3f
00000040: 356c 833f b389 903f 53d9 823f dfcd 8e3f
00000050: 4e3c 5f3f 2274 663f 8cf2 7a3f fd1c 813f
00000060: 81ae 813f 127b 973f f804 733f 7135 bb3f
00000070: 37b0 923f d914 923f 3a95 8b3f 67ec 863f

bn3.bias f4 [32]
0.44620693 -0.3532637 0.91341823 0.46192476 -0.29061273 0.9518236 0.0065678204 -0.031119313
0.16125609 -1.197365 0.7487274 -0.013556003 0.19025639 -0.15247129 -0.440171 0.7014687
-0.12660256 -0.19918808 -0.06304945 0.19750379 -0.10038258 0.19234033 -0.37770995 0.13133937
0.28132886 0.29028308 -0.19712314 0.42077273 0.40847275 0.18487023 -0.06674257 0.048814446
00000000: 3c75 e43e fbde b4be c7d5 693f 6781 ec3e
00000010: 31cb 94be b6aa 733f df36 d73b eeed febc
00000020: 5120 253e 4243 99bf 99ac 3f3f ff19 5ebc
00000030: 92d2 423e 6f21 1cbe 185e e1be 7493 333f
00000040: 1aa4 01be f6f7 4bbe 1220 81bd 6f3e 4a3e
00000050: 6295 cdbd ddf4 443e 3363 c1be d47d 063e
00000060: 560a 903e fc9f 943e a6da 49be 866f d73e
00000070: 5723 d13e 9f4e 3d3e 54b0 88bd a8f1 473d

bn3.running_mean f4 [32]
0.50848144 0.33111688 0.83368474 0.6977399 4.2695775 0.8614767 1.0102955 0.64972264
0.64641106 0.58704376 0.2201284 0.6302236 0.5270956 0.4238869 0.054330267 0.50963336
0.42257905 0.9297042 0.48371202 0.24952027 3.4538963 0.29209846 0.50251216 0.35213
0.4418884 5.6903925 0.31054783 1.1748405 0.5507775 2.2991767 0.99586797 1.272699
00000000: d72b 023f 2788 a93e 5d6c 553f 159f 323f
00000010: 61a0 8840 bd89 5c3f 5d51 813f 3954 263f
00000020: 327b 253f 8048 163f 5769 613e 5556 213f
00000030: bdef 063f b407 d93e 6a89 5e3d 5577 023f
00000040: 485c d83e 1801 6e3f 1aa9 f73e 3e82 7f3e
00000050: a30c 5d40 ee8d 953e a3a4 003f 624a b43e
00000060: 323f e23e b217 b640 2000 9f3e 2c61 963f
00000070: c1ff 0c3f b625 1340 34f1 7e3f cde7 a23f

bn3.running_var f4 [32]
6.2594867 3.7508473 20.754007 14.102439 5.9304676 17.495358 12.35016 9.05782
14.52404 4.9824996 4.5541897 11.928089 7.6334057 6.9353676 0.3115716 5.084737
7.9118276 5.378589 5.641334 2.0277543 6.844708 3.0192544 10.348728 3.3346667
7.2993183 29.960844 4.3611846 24.739271 4.186263 17.312248 16.012434 31.062836
00000000: b74d c840 e20d 7040 3508 a641 97a3 6141
00000010: 64c6 bd40 7ef6 8b41 419a 4541 d5ec 1041
00000020: 7862 6841 a370 9f40 ecbb 9140 74d9 3e41
00000030: dc44 f440 88ee dd40 5086 9f3e 2ab6 a240
00000040: b12d fd40 671d ac40 cf85 b440 bac6 0140
00000050: d907 db40 773b 4140 6494 2541 2e6b 5540
00000060: 0494 e940 cfaf ef41 d38e 8b40 07ea c541
00000070: def5 8540 7c7f 8a41 7719 8041 b080 f841

conv4.weight f4 [64, 32, 3, 3]
-0.72195053 -1.3167119 -1.4451959 -0.6425806 -0.4617094 -0.058504045 -0.13975625 -0.2726877
0.12693606 -0.18061179 -0.5119299 -0.75821865 0.33246985 0.11110305 -0.5081319 0.48382208
0.103758335 -0.08515007 -0.044169348 -0.5980612 -0.4823503 -0.741932 -0.523645 0.03447083
-0.028563699 -0.16026855 0.035039593 0.22001301 0.35619053 0.5196452 0.42682463 0.21655008
-0.1740674 -0.31405792 0.20792267 0.14138229 0.4267763 -0.18249446 0.04591716 0.16066302
0.0014638192 -0.008648491 0.94035625 0.362315 0.28624544 0.27405635 0.15166558 -0.32841408
-0.2873705 -0.323909 -0.1595868 0.16813661 0.011708592 -0.06582395 0.22179522 -0.08766252
-0.10557921 -0.061147295 0.04917838 0.68788177 0.25124913 0.3219023 0.15786932 0.077584445
0.112269804 0.15088344 -0.68620265 -0.3912261 -0.18824022 0.22641236 -0.3724827 -0.7601125
-0.59974414 -0.6876407 -0.38107407 -0.58654696 -0.8024563 -0.9317672 -0.33556005 -0.26758832
0.313576 0.87518346 0.7764869 -0.19117162 -0.01729859 0.46415016 0.34617707 0.45393756
0.7881477 0.48822805 0.28797442 0.2870711 0.6051934 -0.940905 -1.1158973 -1.4718224
-0.29675007 -0.41877487 -0.2730908 -0.4012031 -0.5373087 -0.4922906 0.25636896 0.48495093
0.1531502 -0.21986692 -0.25649264 -0.28937593 -0.5059356 -1.1428257 -0.38105905 0.40711692
-0.039400738 0.15500554 -0.10252187 -0.045954324 -0.1920613 0.054344602 0.5044661 0.5811609
-0.13802904 0.072089225 0.4746294 0.5470217 0.4284844 -0.0039653312 0.2633558 0.61827534
0.30927047 0.50223315 0.39460787 0.2507989 -0.015308113 0.4669455 0.7436969 -0.8328525
-0.5199026 -0.28783807 -0.21301937 0.012728346 -0.37422973 -0.7157435 -0.6379988 -0.4487763
0.28446046 -0.13435924 -0.08623237 0.122514725 0.49505806 -0.031559102 -0.25932008 -0.5293511
-0.1592748 0.27060273 0.25929108 -0.3474344 0.06384994 -0.5613865 -0.6203727 0.3124527
0.8915303 0.2590934 -0.34917584 -0.5894142 -0.13889022 -0.63599676 -0.019565834 0.4001842
0.7044582 0.81338036 0.6113983 -0.71919227 -1.0642056 -1.3477275 0.3326848 0.6228686
0.18948162 0.49285147 0.78354555 0.8150134 -0.07343984 -0.0076727797 -0.02279494 -0.030196836
-0.21840575 -0.25192314 -0.5451057 0.22644717 -0.06915906 -0.40153784 -0.5937468 0.044121847
-0.23622543 -0.36243266 0.09022333 0.5492869 -0.47897857 -1.0099069 -0.43264237 -0.55198896
-0.27261132 1.0266424 1.1391934 0.5022454 0.41191393 0.34985697 0.09774616 -0.064166136
0.03507618 -0.008773849 0.48977435 0.18962711 0.35957626 -0.71427286 -0.10324428 -0.24086899
-0.058680397 -0.535371 -0.34886 -0.5157125 -0.05802239 0.23997606 0.2813953 0.5290975
0.3919299 -0.038073707 0.0030983454 0.23327656 -0.46852598 -0.10958186 -0.1804526 0.074347325
0.24748155 -0.21719195 0.4810448 0.73415077 0.38201836 0.25299802 -0.35072392 -0.5467758
-0.3401727 -0.22443546 -0.043894436 0.7193183 0.6921613 0.419204 -0.06146977 0.023032526
0.03777032 -0.06271236 -0.6260008 -0.48483714 -0.048817765 -0.849297 -0.51292914 -0.49171695
00000000: c0d1 38bf 048a a8bf 2efc b8bf 2a80 24bf
00000010: 2d65 ecbe f0a1 6fbd 431c 0fbe b99d 8bbe
00000020: 87fb 013e 4cf2 38be d70d 03bf 9e1a 42bf
00000030: 7d39 aa3e ff89 e33d ef14 02bf 87b7 f73e
00000040: 407f d43d 2963 aebd ebea 34bd 8a1a 19bf
00000050: 9ef6 f6be 41ef 3dbf 990d 06bf 4931 0d3d
00000060: 6bfe e9bc 701d 24be ad85 0f3d 174b 613e
00000070: 9b5e b63e 7807 053f c288 da3e 4ebf 5d3e
00000080: b93e 32be 33cc a0be aee9 543e 85c6 103e
00000090: 6c82 da3e d4df 3abe a213 3c3d d984 243e
000000a0: 9fdd bf3a 67b2 0dbc 30bb 703f 5a81 b93e
000000b0: c38e 923e 1d51 8c3e 394e 1b3e e425 a8be
000000c0: 3a22 93be 67d7 a5be b96a 23be 012c 2c3e
000000d0: 65d5 3f3c b5ce 86bd 491e 633e 6888 b3bd
000000e0: ea39 d8bd 9675 7abd 456f 493d 0519 303f
000000f0: baa3 803e 61d0 a43e 7fa8 213e 98e4 9e3d
00000100: b6ed e53d 3081 1a3e faaa 2fbf ca4e c8be
00000110: 0bc2 40be a4d8 673e 0db6 bebe bc96 42bf
00000120: d588 19bf 3909 30bf 241c c3be f127 16bf
00000130: c76d 4dbf 4c88 6ebf 87ce abbe 5601 89be
00000140: 098d a03e 060c 603f d8c7 463f 7ec2 43be
00000150: c6b5 8dbc 17a5 ed3e 1f3e b13e 816a e83e
00000160: 0cc4 493f 07f9 f93e 6271 933e fcfa 923e
00000170: f4ed 1a3f 26df 70bf b9d5 8ebf ad64 bcbf
00000180: a0ef 97be a969 d6be 8fd2 8bbe 7e6a cdbe
00000190: 108d 09bf 830d fcbe cb42 833e 7d4b f83e
000001a0: 68d3 1c3e cb24 61be 0153 83be 1529 94be
000001b0: ff84 01bf 1d48 92bf 2c1a c3be a171 d03e
000001c0: ab62 21bd c6b9 1e3e fcf6 d1bd 9a3a 3cbd
000001d0: b8ab 44be 7298 5e3d b124 013f f6c6 143f
000001e0: 7c57 0dbe 84a3 933d a002 f33e 9d09 0c3f
000001f0: 4f62 db3e 9cef 81bb 92d6 863e 4b47 1e3f
00000200: b358 9e3e 5a92 003f 0b0a ca3e b768 803e
00000210: e1ce 7abc 7b13 ef3e ec62 3e3f d235 55bf
00000220: 5618 05bf 835f 93be c021 5abe 8d8a 503c
00000230: 0a9b bfbe f73a 37bf e453 23bf 02c6 e5be
00000240: cda4 913e 7895 09be 999a b0bd 00e9 fa3d
00000250: 4078 fd3e 1e44 01bd 9ac5 84be 8e83 07bf
00000260: ef18 23be 718c 8a3e cdc1 843e ece2 b1be
00000270: c2c3 823d 07b7 0fbf bfd0 1ebf cdf9 9f3e
00000280: 543b 643f e4a7 843e 2dc7 b2be d9e3 16bf
00000290: 3d39 0ebe afd0 22bf 8748 a0bc f2e4 cc3e
000002a0: 5f57 343f b239 503f 9984 1c3f fc1c 38bf
000002b0: e437 88bf 5682 acbf a955 aa3e 5174 1f3f
000002c0: 7807 423e 0757 fc3e 7196 483f b8a4 503f
000002d0: a067 96bd f16b fbbb 74bc babc 5b5f f7bc
000002e0: c2a5 5fbe 12fc 80be 0c8c 0bbf c4e1 673e
000002f0: 44a3 8dbd 5e96 cdbe caff 17bf 1cb9 343d
00000300: 14e5 71be c690 b9be 02c7 b83d 119e 0c3f
00000310: ae3c f5be a144 81bf 4d83 ddbe 264f 0dbf
00000320: b693 8bbe 0569 833f 17d1 913f 2893 003f
00000330: 62e6 d23e 7420 b33e 242f c83d 8969 83bd
00000340: 0aac 0f3d 31c0 0fbc b4c3 fa3e 9c2d 423e
00000350: 611a b83e 96da 36bf bd71 d3bd 5ca6 76be
00000360: db5a 70bd 130e 09bf c79d b2be bc05 04bf
00000370: e3a8 6dbd 49bc 753e 0b13 903e ef72 073f
00000380: 09ab c83e 2df3 1bbd 9c0d 4b3b 0de0 6e3e
00000390: a3e2 efbe 746c e0bd 91c8 38be 6943 983d
000003a0: ce6b 7d3e 9167 5ebe 814b f63e 4ef1 3b3f
000003b0: e997 c33e f588 813e 1692 b3be 80f9 0bbf
000003c0: 1e2b aebe 69d2 65be a7ca 33bd 3e25 383f
000003d0: 7c31 313f e8a1 d63e bac7 7bbd b5ae bc3c
000003e0: 0db5 1a3d 566f 80bd 9741 20bf 933c f8be
000003f0: 23f5 47bd 876b 59bf 534f 03bf 53c2 fbbe

conv4.bias f4 [64]
-1.2451197 -1.119738 -0.46497557 -0.14373179 -0.5065332 -0.2526048 -0.22771282 -0.78446
-0.27998394 -0.8845861 -1.005694 -0.9510729 -0.19999917 -0.5212216 -0.4743346 -0.69933134
-0.34613386 -0.26989192 0.20881842 -0.28279093 -0.410888 -0.46693543 -0.6488862 -0.7685265
-0.3102998 -0.08180024 -0.3899596 -0.25689 -0.5934533 -0.57003385 -0.3447869 -0.7372949
-0.58070105 -0.46363097 -1.2908598 -1.3672305 -0.53148264 -0.49351022 0.46887743 -0.6063303
-0.693817 -0.36579093 -0.14530933 -0.30517703 -1.1194913 0.21200265 -0.46425232 -0.8859615
-0.445924 -0.088532455 -0.35513502 -0.22337414 -1.2124965 0.25732914 -0.5262929 -0.9833535
-0.21330757 0.5575206 -0.50673336 -0.09853887 -0.41335618 -0.30682948 -0.5025292 -0.08753468
00000000: 1560 9fbf 9353 8fbf 4711 eebe 6d2e 13be
00000010: 29ac 01bf 6b55 81be 8d2d 69be 5fd2 48bf
00000020: 0e5a 8fbe 3c74 62bf 95ba 80bf 8379 73bf
00000030: 95cc 4cbe c76e 05bf fcdb f2be 6107 33bf
00000040: 7538 b1be 462f 8abe 7fd4 553e f9c9 90be
00000050: e95f d2be 2912 efbe 681d 26bf 27be 44bf
00000060: 9edf 9ebe e286 a7bd c9a8 c7be 1687 83be
00000070: 8eec 17bf bded 11bf e987 b0be 5cbf 3cbf
00000080: d3a8 14bf 0a61 edbe e53a a5bf 6901 afbf
00000090: 3f0f 08bf 5fad fcbe b410 f03e 7638 1bbf
000000a0: fe9d 31bf f348 bbbe f8cb 14be 2a40 9cbe
000000b0: 7e4b 8fbf 3917 593e 7bb2 edbe 5fce 62bf
000000c0: 2750 e4be 8150 b5bd 42d4 b5be 31bc 64be
000000d0: 1633 9bbf a5c0 833e 22bb 06bf 0ebd 7bbf
000000e0: 4d6d 5abe acb9 0e3f 47b9 01bf bfce c9bd
000000f0: 6ca3 d3be c118 9dbe c1a5 00bf 6245 b3bd

bn4.weight f4 [64]
5.826269 5.598338 5.566006 4.9052086 5.2870755 5.2695346 5.4458857 5.886473
5.632926 5.147405 4.782208 5.4948463 4.1854563 4.7698784 5.3958273 5.7922792
4.5928364 3.2219644 3.6943672 7.0158978 5.020894 4.471121 4.759235 5.6186547
4.0767593 3.4879441 5.8306913 4.9733 4.145913 5.949113 5.0937386 5.7247205
4.973039 5.197862 6.063173 5.823977 4.6481752 4.87252 2.538319 4.6939874
6.5127344 4.4344215 3.310147 4.1306186 6.0138373 1.9981421 6.187399 4.1274266
5.194081 3.4910455 5.814026 4.606288 6.0906563 2.2030709 6.0504646 4.592391
4.6308093 2.1708975 5.059046 5.8347507 4.922485 3.336195 4.7985144 4.6464567
00000000: cc70 ba40 9625 b340 b91c b240 78f7 9c40
00000010: b92f a940 07a0 a840 b244 ae40 fd5d bc40
00000020: ee40 b440 8bb7 a440 d907 9940 c8d5 af40
00000030: 42ef 8540 d8a2 9840 9eaa ac40 5a5a b940
00000040: 84f8 9240 aa34 4e40 8370 6c40 3c82 e040
00000050: 2aab a040 6c13 8f40 a74b 9840 05cc b340
00000060: d074 8240 7a3a 5f40 0695 ba40 4625 9f40
00000070: 52ab 8440 225f be40 e8ff a240 e930 b740
00000080: 2323 9f40 e354 a640 8305 c240 055e ba40
00000090: dabd 9440 afeb 9b40 d273 2240 2535 9640
000000a0: 5268 d040 c8e6 8d40 73d9 5340 072e 8440
000000b0: 5b71 c040 1fc3 ff3f 2cff c540 e113 8440
000000c0: e935 a640 4a6d 5f40 800c ba40 b666 9340
000000d0: a8e6 c240 1dff 0c40 689d c140 def4 9240
000000e0: 972f 9440 fcef 0a40 b4e3 a140 47b6 ba40
000000f0: ff84 9d40 3884 5540 6e8d 9940 c6af 9440

bn4.bias f4 [64]
0.122426584 -0.12217268 0.13575256 0.14098993 0.1275448 0.15073907 -0.17203674 -0.15198451
-0.09580279 -0.0867574 0.14491624 -0.14456694 -0.1200536 -0.16408058 0.14939918 -0.09260542
-0.11951702 -0.05278557 -0.07660166 -0.11720728 -0.04889902 0.13778773 0.10707599 -0.13066655
0.1457982 0.16525474 -0.09465342 -0.1602817 -0.12687862 -0.12074799 -0.18204221 -0.18572322
0.14866783 -0.08845807 0.14627458 -0.118586525 -0.1006776 -0.17977981 -0.04426294 0.1529485
-0.2125855 0.15873328 0.14265794 0.16097549 -0.14864847 0.018464038 -0.18267292 0.12455156
0.15230407 0.1586739 -0.05667609 0.15941586 -0.105367705 -0.11228083 -0.2141198 0.16294102
0.17659444 -0.08870766 0.16657262 -0.09207694 -0.071776696 -0.13145895 -0.12331437 -0.07330059
00000000: caba fa3d ac35 fabd b802 0b3e aa5f 103e
00000010: 1b9b 023e 585b 1a3e 662a 30be d4a1 1bbe
00000020: 4134 c4bd ddad b1bd ec64 143e 5b09 14be
00000030: a9de f5bd bd04 28be 19fc 183e e9a7 bdbd
00000040: 57c5 f4bd af35 58bd 55e1 9cbd 5f0a f0bd
00000050: 574a 48bd 3a18 0d3e a84a db3d 74cd 05be
00000060: 204c 153e 8a38 293e a7d9 c1bd e320 24be
00000070: 78ec 01be b94a f7bd 4669 3abe 3a2e 3ebe
00000080: 613c 183e 8129 b5bd 01c9 153e 7edd f2bd
00000090: 0f30 cebd 3318 38be 0e4d 35bd 889e 1c3e
000000a0: 03b0 59be fa8a 223e ec14 123e c2d6 243e
000000b0: 4e37 18be e541 973c 9c0e 3bbe e314 ff3d
000000c0: 99f5 1b3e 697b 223e 3025 68bd e93d 233e
000000d0: 06cb d7bd 7ef3 e5bd 3942 5bbe 03da 263e
000000e0: 2cd5 343e 5dac b5bd 0392 2a3e d692 bcbd
000000f0: a9ff 92bd 2d9d 06be 3f8c fcbd 9f1e 96bd

bn4.running_mean f4 [64]
0.081056654 0.1745801 0.23164566 0.14774314 0.23707691 0.25092077 0.08510168 0.20514959
0.27660236 0.11931272 0.24433163 0.14582688 0.5315408 0.20472588 0.313675 0.05745998
0.12943959 0.35030547 0.1734768 0.15001547 0.14154106 0.38710815 0.07225872 0.1931366
1.3092061 1.0079865 0.07462357 0.29234397 0.09120531 0.16631392 0.377394 0.08723842
0.1899907 0.16457632 0.15025453 0.07435674 0.41702333 0.1718846 5.703842 0.21655825
0.120408446 0.39080742 0.8091748 0.52464706 0.11179422 3.971811 0.15610604 0.13036151
0.19138098 1.0612122 0.09861356 1.0898584 0.24636708 8.380824 0.108758524 0.3386366
0.34301937 10.952265 0.20274885 0.28069845 0.22119252 2.4247868 0.2073445 0.3181909
00000000: 0801 a63d 20c5 323e 8534 6d3e fa49 173e
00000010: 4ac4 723e b078 803e ca49 ae3d bc12 523e
00000020: d39e 8d3e 3a5a f43d 1232 7a3e a453 153e
00000030: 0f13 083f a9a3 513e 029a a03e 285b 6b3d
00000040: d08b 043e 3d5b b33e e7a3 313e a89d 193e
00000050: 24f0 103e 0a33 c63e 61fc 933d 9ac5 453e
00000060: 1194 a73f b405 813f 3ed4 983d 1cae 953e
00000070: d9c9 ba3d 324e 2a3e c939 c13e 0faa b23d
00000080: ec8c 423e b286 283e 53dc 193e 5948 983d
00000090: 1584 d53e 8402 303e e085 b640 72c1 5d3e
000000a0: b498 f63d e917 c83e 1426 4f3f 454f 063f
000000b0: 5ef4 e43d 2732 7e40 43da 1f3e 7d7d 053e
000000c0: 60f9 433e cdd5 873f e8f5 c93d 7b80 8b3f
000000d0: a747 7c3e db17 0641 cabc de3d c761 ad3e
000000e0: 3ca0 af3e 7a3c 2f41 659d 4f3e b5b7 8f3e
000000f0: 4b80 623e b52f 1b40 1e52 543e ebe9 a23e

bn4.running_var f4 [64]
1.5822146 2.8421533 3.3677285 2.5425909 5.6846747 6.598139 1.5075964 3.6063123
4.797101 2.438069 5.9081206 3.7388823 8.711098 3.8105621 5.2744627 1.0643144
2.2420125 3.4253561 2.2415652 2.1875505 2.7221496 6.286935 1.249267 3.0490534
38.896835 19.514364 1.1736631 3.5886316 1.5230185 2.594813 5.736805 1.3579928
3.9508824 2.3509078 4.569279 1.3764313 5.7423377 2.6318293 28.70003 4.543473
2.5550582 5.182496 12.7343235 10.610955 2.2158167 9.737704 3.546403 2.3454669
2.9707658 20.622272 1.3794998 30.375147 4.175004 26.895187 2.153029 7.173183
7.6977563 49.86451 3.751162 4.820448 3.5075247 6.4058146 2.3653579 3.1041594
00000000: 0286 ca3f d7e5 3540 dd88 5740 cfb9 2240
00000010: dbe8 b540 f423 d340 ebf8 c03f d2cd 6640
00000020: da81 9940 5309 1c40 530f bd40 d949 6f40
00000030: a860 0b41 40e0 7340 66c8 a840 743b 883f
00000040: 227d 0f40 0939 5b40 ce75 0f40 d400 0c40
00000050: b337 2e40 922e c940 fbe7 9f3f b123 4340
00000060: 5c96 1b42 6b1d 9c41 983a 963f 24ac 6540
00000070: 45f2 c23f 6b11 2640 e893 b740 b5d2 ad3f
00000080: 42db 7c40 4675 1640 8937 9240 e72e b03f
00000090: 3bc1 b740 e46f 2840 a999 e541 2164 9140
000000a0: 1386 2340 02d7 a540 cabf 4b41 79c6 2941
000000b0: f1cf 0d40 a3cd 1b41 44f8 6240 211c 1640
000000c0: 0721 3e40 6afa a441 7393 b03f 4d00 f341
000000d0: a299 8540 5829 d741 3acb 0940 b78a e540
000000e0: 0554 f640 4275 4742 0a13 7040 1c41 9a40
000000f0: 497b 6040 6ffc cc40 0662 1740 8caa 4640

lin.weight f4 [10, 64]
1.1956702 -2.0073392 1.1893494 1.4220284 2.1849322 2.2255135 1.3118804 0.81462264
-1.0292073 -1.4572289 2.0713336 -1.2099417 1.4810939 0.5774913 0.78457904 -0.2179923
-1.0874182 -0.28510752 -0.26140484 -0.9294683 -1.0968382 0.74022955 -1.2260969 -2.020762
0.7947771 0.61965287 -1.2323815 -1.136542 -1.3211149 -0.9453395 0.82333827 1.2764843
0.7995416 -1.5627261 1.3123776 -1.5302966 -0.5760501 1.6857563 -0.16474523 0.20415233
1.6984149 0.7026637 0.8098914 0.44278136 -1.0482985 -0.4934572 0.6521403 1.2974435
-1.1174421 0.21421833 -0.15870598 0.6417427 -1.5743421 -0.45962298 1.216494 1.7961992
1.3738012 0.028219076 -0.60218436 -0.5155828 -1.43846 -0.0067491815 -0.11461018 -1.1085527
1.7464572 1.229037 0.030907428 -0.83266276 -0.5264646 -1.0043402 -0.62448484 -2.1526575
-1.5533644 2.8391259 -1.093908 2.5460932 -0.25408596 -0.84134537 1.7986581 -1.7234409
0.7328644 0.43533915 -0.01680611 -0.99519 -0.1890736 -0.2053975 1.0337057 2.2447712
0.81254244 -0.06523067 -0.7263128 -0.59294987 1.6690797 -1.5122013 -0.9758795 -1.5580761
-1.859825 -0.12853402 1.2722217 3.1418679 -1.1026478 -0.67177325 -0.87912345 1.7241669
-1.1083138 0.16692084 0.18793209 -0.26103547 3.1545618 0.35677832 0.2594328 -0.8383878
0.8874945 0.3867662 -0.28761363 0.7085053 -0.2331928 -0.17468582 -0.82530355 0.017813163
-2.0525253 -0.181946 1.2520322 -0.4625094 2.4192655 -0.7141704 -0.99494743 -0.23103361
-0.77217346 -0.73579913 1.9627262 0.9532456 1.5280659 0.71663225 -0.43684748 -1.1577469
1.1942867 -0.31615546 -0.38681555 -0.19018936 -0.8606132 -0.73958486 -1.2447217 0.6366876
3.1077223 1.5280778 2.6524985 -0.9276658 -0.7850618 -0.07555464 0.41820452 -0.11678374
-1.2794951 -3.2994704 2.6572497 0.5973638 -0.30057785 1.7259415 -0.63939846 -0.92527837
0.8888913 2.7017488 0.019564878 0.02966471 -0.45972088 -0.47229758 -0.30065626 -3.2726362
1.3339522 -2.8608038 -2.8101451 -1.8882095 -0.3313527 0.35895613 2.0833867 -1.3657721
-2.9204683 -3.318748 1.8715043 -2.0587006 -1.318831 1.4721878 1.62978 -1.3670219
0.5165563 1.0117378 -3.2324615 0.5638371 0.22353047 1.7835848 -0.48618212 1.4382974
-3.2911627 1.9597061 -1.7471694 0.4055068 -2.5749605 -1.8382807 -1.4665905 1.9143574
3.2550454 -0.23500152 -0.17386822 -0.6160854 -0.16260354 1.0688262 -2.1533465 2.8599365
-0.43588513 -1.0809823 -0.63510364 0.11134605 0.20070823 0.9576969 -0.99986255 0.96050876
0.30972728 0.6021875 2.0622094 2.1030362 1.0121543 1.6836451 -1.031697 0.7365289
1.0657107 1.0080122 -3.7988963 -1.057828 2.8486185 -1.3097421 0.4640155 -1.3797957
-1.5167632 1.0260291 0.433372 1.2105284 -1.332778 -0.019169137 -1.4682912 0.34469548
1.8071796 0.92519456 -1.734348 0.7305212 0.459797 -0.34775868 -1.2427584 -1.6090759
0.47738963 -0.5266551 0.8737124 -1.3027854 0.44559973 -0.362819 2.6254003 -0.121046886
00000000: b90b 993f 3f78 00c0 9a3c 983f 0705 b63f
00000010: eed5 0b40 d06e 0e40 b2eb a73f 1c8b 503f
00000020: 11bd 83bf 7a86 babf bb90 0440 5fdf 9abf
00000030: 7c94 bd3f 78d6 133f 2cda 483f 6039 5fbe
00000040: 8530 8bbf 9df9 91be dbd6 85be a2f1 6dbf
00000050: 3265 8cbf af7f 3d3f bef0 9cbf 2a54 01c0
00000060: 8376 4b3f 92a1 1e3f adbe 9dbf 357a 91bf
00000070: 4b1a a9bf c501 72bf 4cc6 523f d663 a33f
00000080: c2ae 4c3f 6907 c8bf fdfb a73f c2e0 c3bf
00000090: 0578 13bf ddc6 d73f f9b2 28be 4f0d 513e
000000a0: a965 d93f c5e1 333f 0b55 4f3f 3db4 e23e
000000b0: a52e 86bf 6ca6 fcbe abf2 263f a112 a63f
000000c0: 5808 8fbf 0d5c 5b3e d283 22be 4049 243f
000000d0: 0b84 c9bf b453 ebbe 13b6 9b3f dbe9 e53f
000000e0: b8d8 af3f b12b e73c c128 1abf 3cfd 03bf
000000f0: 751f b8bf 3d28 ddbb beb8 eabd 0ee5 8dbf
00000100: e98b df3f 1651 9d3f 9331 fd3c 6329 55bf
00000110: 62c6 06bf 388e 80bf 3dde 1fbf 24c5 09c0
00000120: a5d4 c6bf 3db4 3540 2d05 8cbf 31f3 2240
00000130: 8e17 82be 6962 57bf 6e3a e63f b699 dcbf
00000140: 009d 3b3f c6e4 de3e f8ac 89bc c6c4 7ebf
00000150: 839c 41be b953 52be 7850 843f 55aa 0f40
00000160: c802 503f a897 85bd a3ef 39bf 90cb 17bf
00000170: 67a4 d53f d08f c1bf 3dd3 79bf 0a6f c7bf
00000180: bf0e eebf 6c9e 03be 29d8 a23f 5d14 4940
00000190: 9023 8dbf 55f9 2bbf 3c0e 61bf 80b1 dc3f
000001a0: 3add 8dbf 4ced 2a3e 4571 403e 71a6 85be
000001b0: 57e4 4940 a6ab b63e 60d4 843e 95a0 56bf
000001c0: d732 633f 3806 c63e 1842 93be 9a60 353f
000001d0: 18ca 6ebe d7e0 32be 1847 53bf e9ec 913c
000001e0: 935c 03c0 0d50 3abe 9742 a03f 08ce ecbe
000001f0: 3fd5 1a40 dfd3 36bf e0b4 7ebf 1394 6cbe
00000200: 29ad 45bf 555d 3cbf 9d3a fb3f e707 743f
00000210: aa97 c33f 3675 373f 79aa dfbe 0d31 94bf
00000220: 63de 983f 21df a1be b00c c6be 00c1 42be
00000230: 2651 5cbf 6f55 3dbf 0a53 9fbf f5fd 223f
00000240: ece4 4640 0e98 c33f 89c2 2940 827b 6dbf
00000250: cff9 48bf 64bc 9abd e71e d63e 502c efbd
00000260: 7fc6 a3bf 862a 53c0 6110 2a40 d6ec 183f
00000270: 57e5 99be a7eb dc3f 9eaf 23bf 0bdf 6cbf
00000280: 618e 633f 74e9 2c40 8646 a03c 6803 f33c
00000290: 8960 ebbe fdd0 f1be 9eef 99be df72 51c0
000002a0: f2be aa3f 6917 37c0 6bd9 33c0 d9b0 f1bf
000002b0: 10a7 a9be 19c9 b73e 3556 0540 9fd1 aebf
000002c0: f4e8 3ac0 5e66 54c0 748d ef3f c0c1 03c0
000002d0: 74cf a8bf a670 bc3f a29c d03f 93fa aebf
000002e0: 093d 043f a080 813f a6e0 4ec0 a157 103f
000002f0: 2ce5 643e 824c e43f ddec f8be 211a b83f
00000300: 69a2 52c0 a6d7 fa3f 3fa3 dfbf 969e cf3e
00000310: 27cc 24c0 c84c ebbf 3db9 bbbf aa09 f53f
00000320: aa52 5040 3da4 70be 830a 32be c6b7 1dbf
00000330: 8b81 26be 4ccf 883f 6ed0 09c0 3309 3740
00000340: 562c dfbe a15d 8abf 2796 22bf 6609 e43d
00000350: 7586 4d3e a02b 753f fef6 7fbf e7e3 753f
00000360: 9394 9e3e f628 1a3f 3dfb 0340 2598 0640
00000370: 468e 813f af81 d73f a60e 84bf 288d 3c3f
00000380: 3569 883f 8b06 813f 1e21 73c0 e866 87bf
00000390: c44f 3640 a1a5 a7bf 7193 ed3e 259d b0bf
000003a0: 4c25 c2bf ec54 833f efe2 dd3e 98f2 9a3f
000003b0: 7898 aabf 9808 9dbc f7f0 bbbf ed7b b03e
000003c0: a951 e73f 8dd9 6c3f 1eff ddbf 7003 3b3f
000003d0: 836a eb3e 6d0d b2be b512 9fbf 33f6 cdbf
000003e0: 6a6c f43e ded2 06bf 9eab 5f3f acc1 a6bf
000003f0: a625 e43e 69c3 b9be 8f06 2840 6ee7 f7bd

lin.bias f4 [10]
-0.0027927752 0.2147269 0.040067874 0.14563659 -0.0478175 -0.7133926 -0.7038799 -0.7586753
-0.75783944 -0.66276276
00000000: fe06 37bb 5ee1 5b3e 361e 243d c221 153e
00000010: 48dc 43bd e6a0 36bf 7931 34bf 8b38 42bf
00000020: c401 42bf d2aa 29bf
