NCC_Code/models/2022-08-25_15-54-08_model.pt (torch, 115275 bytes, 50 tensors)

conv1.weight f4 [8, 2, 5, 5]
00000000: 62fa 2a3f e226 a23f 84d9 8a3f d39a 583f
00000010: 0b0c 8e3d 5ebd fdbd 1d9f 2bbd bfe4 243e
00000020: 1de7 51be f1ef ce3d 0b21 17be 03eb 21bd
00000030: 616b b2be cc32 d9be e287 93be 5819 debc
00000040: 8442 d3be b111 c9be 66ea dbbe b018 433e
00000050: c4ef 9dbe 4f9c e7bc 78f1 fc3d f44c c4be
00000060: 48fb afbe 1fb1 503f 1485 a23f d2b3 7a3f
00000070: d182 983e 7a26 3a3b f56d e13c 53f5 ac3c
00000080: f1f2 02be 9b50 94bb a669 58bd 51bc c63d
00000090: 289f a7be 26d8 f6bd db5e 42be b939 8ebe
000000a0: b062 f2bd d511 83bd d3e6 87be 5245 bdbd
000000b0: 63f8 acbe d633 823d 3a5e f4bd 7a1b 6abe
000000c0: 7594 8dbe 6738 56be 861b 9bbd e30c 9bbe
000000d0: af55 e3bd 4864 1cbf acc8 12bf 683f 55bf
000000e0: 4677 15bf 96a9 3ebe 9cb2 4ebf 507a 44bf
000000f0: 8ce9 2dbe 80d2 babe c876 eabd b9a2 09be
00000100: 738f 273d ac48 59be 3542 01bf 5388 35bd
00000110: d990 99be 2d8e 44bd b222 05be 0455 4dbe
00000120: c8b5 38bd 5012 94be 8b1c 12be 8db3 403e
00000130: 2efe 06bf ff4d 6fbe eff0 38be fafb 13bf
00000140: 1da1 e6be c8fe 1cbf 0b38 6fbe 2d43 04bf
00000150: 991d c2be 9a99 f83d 970d b7bd 9294 533d
00000160: f55d 3dbc 72da e1be f3b1 3cbe bfb2 09be
00000170: 0248 15be 4ab7 b0be b6f3 c63e 1f28 68be
00000180: 2b25 d13d d5ba 273e 5093 20be b0da 95be
00000190: bd8d c03e d0b5 293e 02ae 133d 2650 873b
000001a0: 0b8a a53e d015 233e 4e00 cb3d 2683 acbc
000001b0: 004b 3b3d 4585 1b3d 28aa 34be 8123 f9be
000001c0: 7031 823e e7f8 07be 7067 22be 1a8c 38bf
000001d0: da7d a0bf 52b3 e5be 2874 97bf 224f 3abf
000001e0: f312 443e 436e fbbe a351 85be 658d 7fbe
000001f0: ba67 593d 026e f93d 13d9 603e 932b 843e
00000200: c16e c33e 32e4 e23d 78e5 8ebe 5e49 073d
00000210: 0415 d93e f344 703e 9c65 89be 7e9b cfbd
00000220: b1da a1bd 78b5 b5be 0928 96be 4d1f 8ebe
00000230: 19a9 8bbf bd0b a0bf 4818 b7be 632d 41bf
00000240: ef6e 29bf 56e7 113f 30f8 d93d a315 82be
00000250: 091c 3abe cab0 5dbd 78f1 3bbe 389b fb3c
00000260: e3d0 02be d2a4 4cbd 5b22 803e bed8 2ebe
00000270: eea5 b4be 6479 38be f762 b6be 850e 67be
00000280: 3e38 303e 544a 173d cb84 0b3d b850 503d
00000290: 4fde 53be 48a3 403f eb55 3c3f 1dec 3b3f
000002a0: da87 b63f 7781 0b3f fd9f a4be a455 f5be
000002b0: c9dd 77be 047e 14bf ca6a 53be df0f fa3d
000002c0: 7289 3d3d 46c9 4e3e 1f14 323e f21f 50bd
000002d0: 3254 86be a856 47be 6853 f2be f528 dfbe
000002e0: 74fc 74be 4430 96be 32c0 f3be 0fb7 5abe
000002f0: 5e5c 92be c7ca 5fbe e187 583f c93d 883f
00000300: 6818 873f 236b ca3f 4467 f93e 0e4d d8bd
00000310: 958a 5fbe a5b6 04be d023 74be 0f06 d8be
00000320: c0f7 233d 7008 f03d 453f 4fbe 9121 753e
00000330: 1872 073e f2e1 3abe 2418 1abf 1798 6bbe
00000340: e190 d6be 8e17 85be 7816 60be 66ac 90bd
00000350: 9026 a6be 8179 83be c313 d8be 4348 aabd
00000360: bfbf 5e3d 7410 203e 36b4 833d b338 1ebe
00000370: c2cf 723f 23cb 813f 5fe7 643f 8cbe 613f
00000380: 66b8 243e f2bd 443d 560e 083e 4e83 ea3e
00000390: d916 bc3d 0a1f a9bb 34ce 4bbe d7a1 0ebe
000003a0: 371c 99be 4843 c9bd 79de 68be 8d90 d3bd
000003b0: fac0 0abf 1226 86be 4da7 13bf 5ad6 66be
000003c0: 9ce3 ebbc ea67 e1bd 34be 003c 3849 a2be
000003d0: 2c69 6bbd fc29 7a3f 0419 863f 57bb 4d3f
000003e0: ac13 6c3f 93b3 b63e 8c54 98be 8d44 57bf
000003f0: 8b71 6dbf 1d7e 63be bfa1 233e 08d3 1d3f
0.66788304 1.2668116 1.084763 0.84611243 0.06935891 -0.123896345 -0.04189979 0.16102885
-0.20498319 0.10104359 -0.14758699 -0.039530765 -0.3484755 -0.42421567 -0.28814608 -0.027111694
-0.41261685 -0.3927131 -0.4295227 0.19052386 -0.3084699 -0.028272776 0.12350744 -0.3833996
-0.343714 0.81520265 1.2696862 0.97930634 0.29787305 0.0028404281 0.027518252 0.021113073
-0.12787987 -0.0045262105 -0.05283513 0.09703887 -0.32738614 -0.12052946 -0.18981497 -0.27778414
-0.118352294 -0.063998856 -0.26543292 -0.092417374 -0.33783254 0.06357543 -0.11932035 -0.22862044
-0.27652326 -0.20919953 -0.07573609 -0.3028327 -0.11100327 -0.6109052 -0.5733745 -0.83299875
-0.5838512 -0.1861938 -0.80741286 -0.76749134 -0.16983622 -0.36488724 -0.11448437 -0.1344098
0.04090829 -0.21219128 -0.5049165 -0.044319462 -0.29993322 -0.047987152 -0.13001516 -0.20051962
-0.045095235 -0.2892022 -0.14268701 0.18818493 -0.527316 -0.23369597 -0.18060659 -0.5780636
-0.45044795 -0.61326265 -0.23361222 -0.51665 -0.37913206 0.12138672 -0.08938139 0.05165536
-0.011558046 -0.44111973 -0.18427257 -0.13447092 -0.1457825 -0.34514838 0.38857812 -0.22671555
0.10212167 0.16379865 -0.15681195 -0.29268408 0.37608138 0.16573262 0.03605462 0.0041294275
0.3233188 0.1592629 0.099121675 -0.02105863 0.045725822 0.037968893 -0.17643034 -0.486599
0.25428343 -0.13278542 -0.15859771 -0.7208878 -1.2538407 -0.44863373 -1.1832323 -0.72777
0.19147854 -0.4910756 -0.26038846 -0.24956281 0.053077437 0.121791855 0.21957807 0.25814494
0.38170436 0.11078681 -0.27909446 0.033028953 0.42398846 0.23463802 -0.26835334 -0.1013708
-0.0790304 -0.35490012 -0.2932742 -0.27758256 -1.091098 -1.2503582 -0.35760713 -0.7545988
-0.66184896 0.56993616 0.10643041 -0.25407133 -0.18174757 -0.054123677 -0.18353832 0.030713663
-0.12774996 -0.049961872 0.2502621 -0.17074868 -0.35282844 -0.18015057 -0.3562238 -0.22564133
0.17208955 0.03693612 0.034062188 0.05085823 -0.20690273 0.7524915 0.735686 0.73407155
1.4260209 0.5449442 -0.3215331 -0.479169 -0.24205698 -0.58004785 -0.20646206 0.122100584
0.046273656 0.20193967 0.17390488 -0.050811715 -0.2623611 -0.1946665 -0.4732926 -0.43585935
-0.23924428 -0.293337 -0.4760757 -0.21358894 -0.28586096 -0.21854697 0.84582335 1.0643855
1.0554323 1.5813946 0.48711598 -0.10561572 -0.21830209 -0.12960298 -0.23841786 -0.42192122
0.040031195 0.11720359 -0.20238979 0.23938586 0.13227117 -0.18250254 -0.60193086 -0.23007236
-0.4190741 -0.25994533 -0.21883571 -0.070641324 -0.32451296 -0.25678638 -0.42202577 -0.08314564
0.054382082 0.15631276 0.06430857 -0.15451317 0.94848263 1.0140117 0.89415544 0.88181376
0.16085967 0.04803271 0.13286719 0.45803303 0.09184045 -0.005161171 -0.19902879 -0.13928925
-0.2990434 -0.09827286 -0.22741117 -0.10330305 -0.5420071 -0.2620092 -0.57677156 -0.22542706
-0.028795056 -0.11006148 0.007857848 -0.31696486 -0.057473347 0.97720313 1.0476384 0.8036398
0.92217517 0.3568388 -0.29752004 -0.84088975 -0.9275138 -0.22216077 0.1597967 0.61650133

conv1.bias f4 [8]
00000000: b067 aabf 4cd0 8e3f ec55 c53e 5102 82bf
00000010: 2bca 40bf d66a 1dbe 7040 b6bf 620f 33bf
-1.3312893 1.1157317 0.38542116 -1.0156957 -0.75308484 -0.15372786 -1.4238415 -0.6994535

bn1.weight f4 [8]
00000000: fa8d b63f 390d 303f a734 f53e 1fbf b23f
00000010: 2b43 a03f ccfc aa3e 4ef5 9a3f 36a4 343f
1.4262078 0.68770176 0.47891733 1.3964576 1.2520498 0.33395994 1.2106111 0.70563066

bn1.bias f4 [8]
00000000: b7eb 953b d527 583f a2b9 9c3e 9d4b 82be
00000010: 5835 8bbe 63e0 7f3e 072c ae3c c0e7 ecbe
0.0045752185 0.8443578 0.30610377 -0.25448313 -0.27189136 0.2498794 0.021261228 -0.4627056

bn1.running_mean f4 [8]
00000000: c2b7 403f a56f 7140 d9e0 1d40 69a2 483f
00000010: 0d45 693f eec4 c63f 2454 0a40 b830 e93f
0.7528039 3.7724392 2.4668486 0.7837282 0.9112099 1.5528848 2.1613855 1.8217993

bn1.running_var f4 [8]
00000000: 6449 5040 484c 0a41 5f68 d440 0915 8540
00000010: 2116 8f40 a9ed ae40 75c2 1542 8856 b141
3.2544794 8.643623 6.6377406 4.158818 4.4714513 5.4665112 37.4399 22.167252

conv2.weight f4 [16, 8, 3, 3]
00000000: 8d50 4b3e 16d1 ad3e 36e4 333e fe0b cc3d
00000010: e336 71bd 2b43 153e 4296 983c ee8f 2c3e
00000020: adbf 4e3e 0a8d 7fbd e5d1 bb3c f340 7ebe
00000030: 2dba 033e be92 84be 8af4 57be 8be4 153d
00000040: 346d 253e 6359 fbbe 3f73 18bc 79e3 b9be
00000050: bacd 6bbe c97c 50bc 6659 e8be 11d3 89be
00000060: 3ead 85be 34ed d33d d72d 29be 19ef 243f
00000070: d1bc 033f 345e d53e cfe3 b2bf fa52 a8bf
00000080: 888e cebf 5412 e33e 1a09 353f a70b 4b3f
00000090: ee36 823e f64b 4c3d d727 38be b541 29be
000000a0: 51cb f5bd 78d9 59be 3b50 d03d 8e09 623d
000000b0: 5fac b23e 2320 fb3d c14e 093f 56bf 273e
000000c0: d516 9e3d 19ea ccbe d167 bbbe c409 363e
000000d0: b4a6 a73e 42f9 c63e c8fc 893e 75f0 b83e
000000e0: ac78 2c3d 8355 d03d 7abc a43c 685c 0dbe
000000f0: 0cc1 0e3e ea6c 07be 7d39 653d e0e7 833d
00000100: a66e 233e c020 8a3e c148 113f c646 ac3d
00000110: 6d25 b93d 9b42 59be 064d fcbc 5d01 4abf
00000120: e23a 10bf 3e52 00bf 3efd d9be a0f0 103f
00000130: f694 ba3e fd09 2f3e 71c5 70be 6624 bcbd
00000140: 3e1c 3d3e 06c4 82bf 6039 21bf bf88 98be
00000150: 549e 25bf f5a9 0abe 8adc b6bd 2767 54bf
00000160: ddd4 1cbf d1a3 a0be c1ba 83be fad6 593e
00000170: 64ae 4d3e 1ee2 d6be 5670 8fbe a6b2 8dbe
00000180: 704a d8be 01d2 07bd 7fc8 8fbc 927d 83be
00000190: 58dc 04bf fbf5 d6be 9224 dbbe f16d 86be
000001a0: 4e72 3bbe b913 cd3e c4b9 e03e 430f 503e
000001b0: 215d bf3d cafb e33b c00a 6a3e f1ca 273f
000001c0: 8461 193f cb1b bf3e 1cd1 36bf e7ff aabe
000001d0: b180 b2be cb2b 11be 0587 dd3e 6469 f7bd
000001e0: 31f2 a8be 2ae4 ecbe c571 50be 792a a2be
000001f0: 8be8 7f3e b22b 1d3e f52f 87be d523 fcbe
00000200: 4d63 60bf 37c8 8b3d 4fed 92be fbbb 28bf
00000210: a5dd 19be e688 c3be 3423 44bf f3f9 d13e
00000220: f1a9 473e 1a51 1bbe 59bd acbd 7feb 9bbe
00000230: 28d1 35bf 8796 373e 5bfa 8cbe b024 13bf
00000240: dcde f83e 3503 a83e 8446 393e 64bb 56bf
00000250: 662f 20be ed18 01bf 8839 083f 8124 3e3f
00000260: 6b22 293f 4574 b4be adfe f0be a2d1 4cbf
00000270: 3bb7 abbe 3c1a ebbe 1c5f f9be 954a aabc
00000280: 33f4 1bbe 8f6e f0bd 2b0b 7a3e fe31 813e
00000290: 1299 92be e45e a13e c6be 8cbd 1d39 d83e
000002a0: 23b3 3bbe fd32 e53d 3637 bc3d b343 4ebe
000002b0: 2640 1ebe 2198 a2be 5e44 29bf 6dda 9dbe
000002c0: 736b 51be 3155 9ebc bd36 87bd acb9 de3d
000002d0: 88e3 ac3e 8aca e23e 8797 813e 0434 30bf
000002e0: 47f8 8bbe c636 e0bd 8639 ce3d 4109 923e
000002f0: 58ff 3a3e b7da 2dbd 98e3 21be 37e1 fcbe
00000300: 9dd0 4f3e 6c71 32be 6608 073d 08c7 2ebe
00000310: cc63 9cbe 03f1 60be 0ed3 debe 5cdc 513e
00000320: f3cd fdbd 4c88 89be ec27 acbe d7fa 3cbf
00000330: 231e 1fbf 64e0 21bf 8c59 94bf 971d 153e
00000340: 0af9 c0be 6d56 c6be a56e fb3d 390b c9ba
00000350: 5be9 5cbd 4079 ccbe 5fa0 cabe 6d52 3abe
00000360: 5249 e4be e5d0 b8be 6249 efbd b4c0 8a3e
00000370: 802e 643e b45c 6abe 8dc3 dcbe 6e01 cb3c
00000380: 6b36 de3c 81b6 ffbc ec4c b73e 673a 9c3e
00000390: 1976 313f ac19 df3e 8fa6 073f f27c 04be
000003a0: 0049 db3d cad2 8e3e d288 ca3e 6fb6 043f
000003b0: 80b7 b73e 572d fc3d c83e 65bd 6bc6 f3bd
000003c0: 5684 923e 80dd 263e 9c03 003d a3ce ab3e
000003d0: bd62 a43e 30d8 453f eaf7 4fbf 5101 6dbf
000003e0: bf76 73bf 0d90 24be 7cbb 2c3e 4b89 083f
000003f0: 0634 65be 2701 9bbe 4384 4cbe fe3e 4ebf
0.19854946 0.33948582 0.17567524 0.09963225 -0.058890235 0.14576404 0.018626336 0.1685178
0.20190306 -0.062390365 0.022927234 -0.24829464 0.12863989 -0.25893205 -0.21089378 0.03659491
0.16154939 -0.49091634 -0.009304821 -0.3630636 -0.23027697 -0.012725064 -0.45380706 -0.26918843
-0.26108736 0.10347977 -0.16521393 0.64427334 0.51459986 0.41673434 -1.3975772 -1.3150322
-1.6137247 0.4434992 0.7071701 0.79314655 0.25432533 0.04987713 -0.17983948 -0.16528971
-0.1200167 -0.21274364 0.10171553 0.055184893 0.34897134 0.12261989 0.53635794 0.16381583
0.077191986 -0.40022352 -0.36602643 0.17777163 0.32744372 0.38862044 0.2695067 0.36120954
0.04210727 0.1017256 0.020109404 -0.13804781 0.13940829 -0.13225141 0.05596303 0.06440711
0.15960178 0.2697811 0.5675164 0.084119365 0.090403415 -0.21216814 -0.030798446 -0.7890833
-0.5633985 -0.5012549 -0.4257602 0.56617165 0.36441773 0.17093654 -0.23512818 -0.0918663
0.18467805 -1.0216072 -0.6297817 -0.2979183 -0.64694715 -0.13541396 -0.08928783 -0.829699
-0.61262304 -0.31374982 -0.2572842 0.21273413 0.20086056 -0.4196939 -0.28015393 -0.2767536
-0.4224429 -0.03315926 -0.017551659 -0.2568174 -0.5189872 -0.41984543 -0.42801338 -0.26255754
-0.18305323 0.4005411 0.43891728 0.20318322 0.09343935 0.006957506 0.22855663 0.6554404
0.5991442 0.37325892 -0.71412826 -0.33398363 -0.3486381 -0.14176862 0.43267074 -0.120806485
-0.32997277 -0.46267825 -0.203559 -0.3167303 0.24991052 0.153487 -0.26403776 -0.49246088
-0.8765152 0.06825297 -0.28696677 -0.65911835 -0.15025957 -0.38190383 -0.76616216 0.4101101
0.19498421 -0.15167657 -0.08434553 -0.30453107 -0.7102227 0.17928515 -0.27534756 -0.57477856
0.48607528 0.32814947 0.18093306 -0.83879685 -0.15643081 -0.5042866 0.53212786 0.7427445
0.6606814 -0.35244957 -0.47069302 -0.80007374 -0.3353823 -0.45918453 -0.48705375 -0.020787517
-0.15229873 -0.117398374 0.24418323 0.25233454 -0.28632408 0.31517708 -0.06872325 0.42231074
-0.18330054 0.11191366 0.09190218 -0.20143013 -0.15454158 -0.3175669 -0.66119945 -0.30830708
-0.20451145 -0.019327732 -0.066022374 0.10875258 0.33767343 0.4429515 0.2531092 -0.6882937
-0.27337858 -0.10947947 0.100695655 0.28522685 0.18261468 -0.04244491 -0.15809476 -0.49390575
0.20294423 -0.1742608 0.032966994 -0.17068112 -0.3054489 -0.21966939 -0.43520397 0.20494217
-0.12392797 -0.268618 -0.33624208 -0.7382025 -0.6215536 -0.6323302 -1.1589828 0.14562069
-0.37690002 -0.38737813 0.12276963 -0.0015338428 -0.053933483 -0.39936256 -0.39575478 -0.18195505
-0.4458719 -0.36096874 -0.116839185 0.27100146 0.22283363 -0.22886926 -0.43117943 0.024780955
0.027125558 -0.031214954 0.35800874 0.30513307 0.6932083 0.43574274 0.52988523 -0.12938288
0.10707283 0.27895194 0.3955751 0.5184087 0.35882187 0.123133354 -0.055968076 -0.119030796
0.2861659 0.16295433 0.031253442 0.3355609 0.3210658 0.77283 -0.8123766 -0.92580134
-0.9510307 -0.16070576 0.16868395 0.5333449 -0.22383127 -0.30274317 -0.19972329 -0.8056487

conv2.bias f4 [16]
00000000: 97ad f13e 60d7 acbe c789 4dbf 640e 123e
00000010: 09bf 13bf 6d8a f43e c469 1bbf 46ed 58bf
00000020: 4c7e 41bf 2404 523e 317f febe b01f debe
00000030: 114f 3bbf 48a8 20bf 5b7b b0be 01c0 7c3c
0.4720275 -0.33758068 -0.80288357 0.14263302 -0.5771337 0.4776186 -0.6070826 -0.8473705
-0.7558334 0.20509392 -0.49706414 -0.4338355 -0.7316752 -0.62756777 -0.34469113 0.015426637

bn2.weight f4 [16]
00000000: 542c bf3f be93 233f 0604 103f 420f 683f
00000010: 6a75 9a3f 78ed 3b3f c3d6 653f 68c3 573f
00000020: 66e4 6f3f 7969 5e3f bd20 353f 5301 a43f
00000030: a407 a03f 1993 983f 464a b23f 075d 8a3f
1.4935403 0.6389731 0.5625614 0.9064828 1.2067082 0.73409224 0.89780825 0.8428254
0.93707883 0.8687969 0.7075308 1.2812904 1.2502332 1.1919891 1.3928916 1.080964

bn2.bias f4 [16]
00000000: 3519 1d3f 08ef cfbe 8d89 11bf 64a6 943f
00000010: 45a9 483d ece5 83be 2ae3 25bf 36c9 71be
00000020: 2625 0abd cd25 cc3e 5b2d 22bc 8702 aebd
00000030: e907 32be 9791 fd3d 55b9 ec3d 209b 36bf
0.6136659 -0.40612054 -0.5685051 1.1613278 0.048989553 -0.25761354 -0.6479975 -0.23611912
-0.033726834 0.3987259 -0.009898509 -0.08496576 -0.1738583 0.12381285 0.11558787 -0.7133045

bn2.running_mean f4 [16]
00000000: e1dd 9b3f da79 7f3e 3b9a f13e ade7 ed40
00000010: 91bf 9d3f ea8b b940 a0ce 383f a2fd e03e
00000020: 96f2 b13f 7547 183f e570 1a40 18b2 f53f
00000030: 6bf9 f63e 961c 083f 280d 6b3f 09d3 403f
1.2177087 0.24948826 0.4718798 7.4345307 1.2324086 5.7983294 0.72190285 0.43943506
1.3902156 0.59484035 2.4131405 1.9194975 0.48237166 0.5316862 0.9181695 0.75322014

bn2.running_var f4 [16]
00000000: b85f 2841 8225 513f 1170 e93f 2dbd 8341
00000010: fa0b a941 ee4f 4041 bd8c 1a41 dc7c 4740
00000020: d1ff b741 69e4 1440 a9b3 9140 4f81 2942
00000030: 5658 6b40 7f7d c940 579d 4d41 06ca a740
10.523369 0.8169786 1.8237325 16.467371 21.130848 12.019514 9.65936 3.1169958
22.99991 2.326441 4.553181 42.376278 3.6772666 6.2965693 12.850913 5.243411

conv3.weight f4 [32, 16, 3, 3]
00000000: 3785 89be af4e a6be 7fb9 823c a824 763e
00000010: 1120 b23e 1e5b e43e 0d78 f23d 5476 503e
00000020: e05d 443d aa88 76bd 3c99 5bbe 5fab 85be
00000030: af2c 033e 825c 73be 437d d8be 6be8 d93e
00000040: ca19 043f 416d 2d3e 7baf 713c eaf5 60be
00000050: df07 bc3c faf1 36be 3bbc c3bd 8466 673d
00000060: 74af 48bf f6fa bcbe 9fbf 3cbe e33b 0abf
00000070: cef5 c13c 4ddb 05bf 511b 86bf 29ba 28bf
00000080: e296 b6be 90d9 2f3f 78b5 083f 9474 043f
00000090: 1db7 19be 43d4 8ebe f7bf 8cbe d0d2 bd3e
000000a0: 905d 163f 1e14 d63e af26 41bf e6bf d3be
000000b0: 1e38 94bd 47cf 68be 890f 43be 1042 68be
000000c0: c11b d73e 142c 093f 7007 b23c 3e21 183d
000000d0: 68a2 0d3e cbda de3d ae11 a1bc 8f42 a3bd
000000e0: 4cdc a5be e4db e5be fcb7 cbbd d960 b93d
000000f0: 4ade ed3e 1bda 3a3f 0d20 373f 0c5d f4be
00000100: 89f7 c6be 1728 d7bd 5c51 1bbe 99c1 ad3e
00000110: 892f 113f cb72 9b3e d9d5 153f 7df0 0d3f
00000120: 4c50 e03e 0950 413f a388 0e3f d0bd 1b3f
00000130: 1591 203e 7444 213e f5bd 0dbf b3be 2dbf
00000140: 5938 79bf f9a8 91be d439 c5be 8bce 55be
00000150: cedb 85be 0864 193d 334e f0bc c286 1f3f
00000160: 098f ae3e c022 103f dd52 9ebe 8a54 25bf
00000170: 245b e8be 5b01 93bd 79d0 963e 5924 17bd
00000180: 697d aa3e ef28 ad3e 5d90 ec3d 5825 ca3e
00000190: b2af 0d3f 3637 b83e d73f d93e a3af 073f
000001a0: 2cc7 f93e cf6b 3cbd d3e0 89be ed09 7abf
000001b0: cb01 f1bd 25e8 c43d 681e 683e 77e4 a93d
000001c0: 718b 45be f230 b9be dca3 bdbe f8ad 08bf
000001d0: 538b 0bbf 8bef de3d 95e7 383f 3ecb b63e
000001e0: 12b0 c33e a22f 263f b5ee b83e 5352 29bf
000001f0: 01ed 8bbf 99de 36bf d024 8bbe 3245 9b3d
00000200: b288 b5bd f507 02be f0b4 3cbd 6181 c93d
00000210: 4787 febc cb95 89bd c32a d1be d7a4 833e
00000220: 2c67 af3e 6918 993e eba6 5e3e 8de0 cf3d
00000230: 6888 12be 6f6e 933e 58fe bb3e 0a04 063f
00000240: 650e 35bf 4d79 eabe 2476 2abf 150f f6be
00000250: dc86 c5be fc3f 23bf 5887 df3e 56f0 333f
00000260: 89aa 493f bfc6 1fbe 8fa2 46be e946 713e
00000270: 80b3 c53e c4bf ce3e 5d74 123e bb46 503f
00000280: b7f7 033f 7d86 813e b028 953e c864 4f3e
00000290: 0d6a e4bd e270 0d3e 9d12 a9bd b6d1 773e
000002a0: a673 693e 5e1a a23e 0346 fc3d fa25 ff3e
000002b0: b0ce f33d b4ef cbbe e69b ffbb 9f55 90be
000002c0: a514 e4be a118 b1bc 240d a73d 8685 673e
000002d0: 77a5 6dbf bfca 3cbf 8d88 4abf 44cc c1be
000002e0: 46f6 97be f846 17bd bd65 40be 2843 3c3e
000002f0: 46bd 1a3e 8b85 bd3e f890 f03e 504e bb3e
00000300: f4cf 053f d169 c13e 9141 063d eeb6 ac3e
00000310: 230c 253d 0df0 21be 5705 c6bf b74d 81bf
00000320: 2bfa 87bf 2c0d 133f 57a9 123f 5428 113f
00000330: eb01 663e 9b49 1f3e 8b79 8dbd 133a fcbe
00000340: 0a5f fbbe 127c 48bf 834f 63ba 50bd f13e
00000350: c082 ec3e bd60 533d b56f ad3e ee1f 553e
00000360: d4b9 43bf 5a00 31bf 3ae2 2ebf 7a1e 26bf
00000370: 0a3a b7be 8257 acbe 9ac9 50be 8c04 05bd
00000380: 53fa 973e 39e7 8ebd 8ac5 c83d 83c9 e6be
00000390: 383f 5abe b7ae 8dbe 1281 41bf 9763 30bd
000003a0: 73fc a3be 248f c9be b8f6 3e3e c7b2 423f
000003b0: 6e75 babc 18d0 8c3e aadb 0b3e 2154 353e
000003c0: f95c f93d 52d7 9abe 58d4 20bf d311 96be
000003d0: fbf4 c6be c384 8ebb b498 e1be 070b 7a3e
000003e0: e791 123e 83ec 12bf 4512 bdbd ef27 8fbd
000003f0: 0111 5c3e 3bf4 203f a658 a73e 305f 83be
-0.26859447 -0.32481906 0.015957592 0.24037421 0.3479009 0.44600767 0.11839304 0.20357639
0.04794109 -0.060188927 -0.21445173 -0.26107308 0.12810014 -0.23765758 -0.42283067 0.42560133
0.5160185 0.16936208 0.01475131 -0.21968809 0.022952972 -0.17865744 -0.095573865 0.05649425
-0.7839272 -0.36910218 -0.18432473 -0.5399763 0.02367678 -0.5228775 -1.0477086 -0.6590906
-0.3566199 0.6869135 0.534019 0.51740384 -0.15011258 -0.27896318 -0.27490208 0.370749
0.58736515 0.41812223 -0.7544965 -0.41357344 -0.07237266 -0.2273532 -0.19048895 -0.22681451
0.42013362 0.5358288 0.021732062 0.037141077 0.13831484 0.10881575 -0.01966175 -0.079716794
-0.32394636 -0.44894326 -0.099472016 0.09051675 0.46458656 0.7298905 0.7153328 -0.4772724
-0.3886073 -0.105056934 -0.15167755 0.33936766 0.5671316 0.30361018 0.5852943 0.5544508
0.43811262 0.7551275 0.5567724 0.60836506 0.15680344 0.15748769 -0.55367976 -0.6786911
-0.97351605 -0.28449228 -0.38520682 -0.20879571 -0.2614426 0.037448913 -0.029334163 0.62315
0.34093502 0.56303024 -0.30922595 -0.6458212 -0.45382035 -0.07177993 0.29455927 -0.0368999
0.33298805 0.33820292 0.115509726 0.39481616 0.55346215 0.35979623 0.42431518 0.53002375
0.4878477 -0.04600125 -0.2692934 -0.97671396 -0.1176792 0.096145906 0.22667849 0.08295529
-0.19291474 -0.36170155 -0.37039077 -0.53390455 -0.54509467 0.10885533 0.72228366 0.35701936
0.38220268 0.6491643 0.3611962 -0.6614124 -1.0931703 -0.7143341 -0.27176523 0.07581557
-0.08863963 -0.12698348 -0.046070993 0.0983913 -0.031070365 -0.06718024 -0.40852937 0.257117
0.342584 0.29901436 0.21743362 0.101502515 -0.14309847 0.28795192 0.36717486 0.52349913
-0.7072509 -0.4579567 -0.6658652 -0.48058382 -0.38579452 -0.6376951 0.43657947 0.702886
0.7877584 -0.1560316 -0.19397949 0.23562206 0.3861351 0.4038068 0.14302202 0.81357926
0.5154986 0.2529792 0.29132605 0.20253289 -0.1115304 0.13812593 -0.08255503 0.24201092
0.22798023 0.31660742 0.12318041 0.4983366 0.11904657 -0.39831316 -0.007800567 -0.28190324
-0.44547 -0.02161819 0.08156803 0.22609529 -0.92830604 -0.73746866 -0.7911461 -0.37851155
-0.2968008 -0.036932915 -0.1878881 0.18384993 0.15111265 0.37015948 0.46985602 0.36583185
0.52270436 0.37776044 0.032777373 0.33733314 0.040294778 -0.15814228 -1.547038 -1.0101842
-1.062322 0.57441974 0.5728964 0.5670216 0.22461669 0.15555422 -0.06907948 -0.49263057
-0.49095947 -0.78314316 -0.0008671211 0.47214746 0.46193504 0.05160593 0.33874288 0.20812961
-0.76455426 -0.6914116 -0.68313944 -0.64890254 -0.35786468 -0.33660513 -0.20389405 -0.03247504
0.2968317 -0.06977696 0.098033026 -0.45075616 -0.21313179 -0.2767236 -0.7558757 -0.043063726
-0.3202854 -0.3936702 0.18648803 0.7605404 -0.022761073 0.27502513 0.13658014 0.17707874
0.12175936 -0.302424 -0.6282401 -0.29310474 -0.3885878 -0.0043493225 -0.44061816 0.24418269
0.1431347 -0.5739214 -0.09232 -0.069900386 0.21490861 0.62872666 0.3268482 -0.2565856

conv3.bias f4 [32]
00000000: ae70 0bbf f70a 25bf 6133 b6bd 0c53 72bf
00000010: d45e 81bf ba09 e7be 36bc 24bf 95ac 1cbf
00000020: 9af0 7fbf 497a fcbe 7c47 4fbf 3700 1cbf
00000030: 2c13 733f 7a40 91bd 41bc 25bf 954f 1cbf
00000040: fc35 bbbe b802 26bf 001f fdbe 8a09 85bf
00000050: 6640 62be 2d34 63bf f8f8 2bbf a7be dc3d
00000060: 623d 88bf 5418 1bbf 97ab 75bf e6ff c4be
00000070: dcdc 1dbe e352 85bf 5b6c 363e 462b 45bf
-0.5446881 -0.64469856 -0.088965185 -0.9465797 -1.0107064 -0.45124608 -0.6434969 -0.6120084
-0.99976504 -0.49312046 -0.8096845 -0.6093783 0.9495113 -0.07092376 -0.6474038 -0.6105893
-0.36564624 -0.648479 -0.49437714 -1.0393536 -0.22094879 -0.8875149 -0.6717677 0.107785515
-1.0643733 -0.60583997 -0.9596495 -0.38476485 -0.15416282 -1.041592 0.17814772 -0.77019155

bn3.weight f4 [32]
00000000: d23f 913f ed54 553f 7610 663f 5f62 8c3f
00000010: a556 893f bc7c 443f 446b a33f 3866 363f
00000020: ce72 563f 9f55 3f3f c9ed 803f b0c5 753f
00000030: 82c6 2e3f 48a4 d23f 0056 8c3f 616f 813f
00000040: e902 973f 3050 5b3f cb66 613f 91fe 6a3f
00000050: d8f1 833f b738 433f 3cf8 843f 82e5 483f
00000060: 8cfa ad3f 4f47 ac3f 3389 603f c42b 803f
00000070: 2d1c 983f b7b0 bf3f 125d 8c3f d4e3 8d3f
1.1347601 0.8333271 0.8986887 1.096752 1.0729567 0.7675283 1.276711 0.71249723
0.8376893 0.7474002 1.0072566 0.9600477 0.6827165 1.6456385 1.0963745 1.0112115
1.1797763 0.8566923 0.88047475 0.9179469 1.030818 0.76258415 1.0388255 0.784752
1.3592086 1.3459262 0.8770935 1.0013356 1.1883599 1.4975804 1.0965903 1.1085153

bn3.bias f4 [32]
00000000: 61f7 65be f8d7 133f 5e65 d93d fad2 44be
00000010: 8e50 4abe 6d5e 45be ed1d 643f 7ebb d93b
00000020: a587 abbc 7a85 983e 4620 b8bd b18e ddbe
00000030: 7e09 8a3f 0ad0 613f 8ef6 19bd 51c3 86be
00000040: 36cb cf3d de05 2dbc 5cc2 583d 0ff2 8abd
00000050: 5400 8e3e e02c 88be 6a2d f03e 44f4 cd3e
00000060: 5952 d23e ec0e 7e3e 552e 063f 6d2c eb3e
00000070: 1218 ae3e 6246 193f 99df 663e 4744 973e
-0.22457649 0.5775142 0.106150374 -0.19221106 -0.19757292 -0.19274302 0.89108163 0.0066446653
-0.020938704 0.29789335 -0.08990531 -0.43272927 1.0784147 0.8820807 -0.03758865 -0.2632089
0.10146181 -0.010560481 0.05291973 -0.0678445 0.27734625 -0.26596737 0.46909648 0.40225422
0.4107845 0.2481038 0.5241445 0.45932332 0.3400274 0.5987302 0.22546233 0.2954428

bn3.running_mean f4 [32]
00000000: 38fe b13f 1e3f cd3e 5a31 e53e a37e 213f
00000010: b976 a53e ac40 003f dd28 8d3f fe80 643f
00000020: 790b ac3e 84ae a73e 7572 3d3f f2e8 c23f
00000030: 64ac 1841 b059 f13f cb77 793f 2b84 583f
00000040: 79e0 0a3f 100d 5c3e e886 2c3e d453 0a3f
00000050: 4c46 e13e dc56 d63e 73d2 7d3f b64e 8640
00000060: 2ca6 f23e 5940 263f 4982 c03e 01c9 633f
00000070: 402f 113f 7e75 203f a363 6b40 3b0c 883e
1.3905706 0.40087217 0.44764215 0.6308386 0.3231714 0.5009868 1.1028095 0.89259326
0.33602503 0.32750332 0.7400277 1.5227339 9.542088 1.8855495 0.97448415 0.8457667
0.5424877 0.21489358 0.16848338 0.5403416 0.43998945 0.41863143 0.99149245 4.1971083
0.47392404 0.64941937 0.375994 0.8897858 0.5671272 0.6267928 3.6779563 0.2657183

bn3.running_var f4 [32]
00000000: 24a4 d341 8fd5 8140 49b6 8640 6edc 5241
00000010: 3159 aa40 655a 8640 4f1d ab41 ed71 0241
00000020: 06a8 7240 032d 3340 3c42 8541 de22 4141
00000030: f7c7 b741 d913 9d41 95e7 6d41 2d43 6241
00000040: 3329 0241 fd63 0a40 6bc3 b53f 8909 6e40
00000050: 7a1c 8e40 05a5 8a40 2fcb 4f41 64b7 4141
00000060: 4050 2041 d4c8 fa40 33f6 8040 6afa 0941
00000070: 3262 e540 cb62 5b41 24fa 2e41 5796 7b40
26.455147 4.057319 4.2097516 13.178816 5.3233876 4.1985345 21.38931 8.152814
3.7915053 2.7996223 16.657341 12.0710125 22.97264 19.634691 14.869039 14.1414
8.135058 2.1623528 1.4200262 3.719332 4.440976 4.332644 12.987105 12.107273
10.019592 7.837015 4.0300536 8.623636 7.1682367 13.711619 10.9360695 3.931051

conv4.weight f4 [64, 32, 3, 3]
00000000: 5d60 0dbf f6c7 cebd c587 203e 4add 213f
00000010: 4502 3a3f 1489 ef3e 5078 5ebd c05d e13d
00000020: e5cc 583e a986 05bf c578 e4be be6e d1be
00000030: f017 bcbe 73cc 9bbe bee1 20be 1714 e4bd
00000040: fa0a 00bf a2e3 91be f056 2abe 3cab f0bd
00000050: 341a 413e f88d 9d3d d672 82bc 3c13 3abe
00000060: 57e1 87bc 6f91 2abe debc 86bd 5ed8 3abe
00000070: 19f7 c9bd 3ba0 e23d 5e27 41bf bf0e ddbe
00000080: c6e9 67bf 1ca9 d33e f24f 073d 97d7 ebbe
00000090: ef30 63bd fd7c 48be 6c6b 4ebf 8f30 b4be
000000a0: 153a b9bd 01c4 b43c 494f 8fbe 9361 8bbe
000000b0: 3f12 ac3e 95a8 5cbe d719 6d3e b686 3f3e
000000c0: c9fd 99be 1ff5 5f3c 7102 453e ccf8 583e
000000d0: a911 c43e ac6a 5a3e 258d 1fbf eb96 9bbf
000000e0: 47a4 91bf 09df febe 9e59 a8be 63a4 643e
000000f0: 19eb c2be 131f 8cbf 1f67 abbf feea 5fbe
00000100: f0db 3c3d 0ee8 5d3e e312 db3c ce73 c8bd
00000110: 7058 54be cd62 ef3e 4c1f 803e e1b5 1ebe
00000120: 85cf e43e 9e20 7abe ef86 06bf e47b bc3e
00000130: 232d 293f 76ae 293f 3c41 6a3e 1d7d 083f
00000140: 3790 b33e 2bee d7bd 7234 e83c 973f fdbe
00000150: 0347 20bf 7355 96be b676 a5be 6808 2d3f
00000160: e28d e03e 4a29 89bd 5635 f63d 69bb d9bd
00000170: f416 88bd 8f7a 9a3d de78 debb a470 2abe
00000180: 7495 02bf 5da9 c6be 31f7 f2be edb2 81bf
00000190: 6931 bfbe deb6 3abe 5b09 2cbf e74b 05bf
000001a0: f72e 0ebf 7b55 38bd f2f7 303c cf68 89bd
000001b0: 81bc 943b 246a 483e 96a7 0b3f 8a36 8abe
000001c0: 8bc1 bcbd f752 2fbe fc6e b73e 2a42 af3e
000001d0: be4b ab3e 3bed 1dbf da94 d0be f3c1 093e
000001e0: 934a b5bd 7e19 bd3d 451b 8fbe bf3b 493f
000001f0: 905b bf3d ac96 2bbe 9aed 4c3e e93c 9e3e
00000200: b18b 053f 8073 333f f793 c53d bbd7 aa3d
00000210: 7a97 46be 0f45 f4be 5528 edbe 89b8 123d
00000220: 2830 903e 7133 083f 9ed3 2abe 79fd 623e
00000230: e472 eb3d 9291 183f 45f5 853e d1c9 0a3f
00000240: 3221 50bf dc91 09bf 1506 78be 4711 8fbd
00000250: 9aaf c63e 0501 2a3d 84f8 ecbe 76d9 d8be
00000260: 26c5 acbe 42bc 30be 2481 1f3e a37b 753e
00000270: 8c8e 1a3f 6db8 943e c2d7 ee3d cd77 85be
00000280: 36b3 0ebf d93e a7be a583 ccbe 1845 9cbe
00000290: 0b44 f8bd 72cb 0d3f 9c6e af3e 0cf1 ea3e
000002a0: 812d 0d3e d2c8 7cbe 0e8a 14bd bff6 983d
000002b0: 3b8b 2d3f d9e5 ff3d fe1e 27bf 4927 65bd
000002c0: 1eba 5e3e 3854 e23e 8b95 023f 8d53 043f
000002d0: 2147 3ebe 6e51 c6be ac73 c6be c2c1 3d3d
000002e0: acec cfbe 4d6c 5fbf 09f6 a33c 2328 bfbe
000002f0: 6bb4 83be 783b e6be ee21 2cbe a526 5d3e
00000300: 9142 ac3e 8871 673f 2ecd 0f3f e484 463e
00000310: 9132 dcbd 24dd 50be 7d72 42be 6bd3 49be
00000320: 54f7 b2be b7f1 26bd acd4 0cbf 71d3 5ebf
00000330: c57d 01be 948c 3b3d a9bb 2a3e 3b6d 12be
00000340: 4cb0 56bd 5328 053f 6d7f 24bf ed0c 803c
00000350: dc16 273d ff6b 71bf d845 90be 9dda 0dbe
00000360: c896 953d f157 d63e 893b 833e 9d63 0b3e
00000370: 7a5a e23e a010 b23e 14cf 873e 3055 bb3e
00000380: f899 2a3c b306 5a3e 5ac0 643f 7c72 e93e
00000390: 2e9a 353d f48d ffbe bab6 eabe 0bfa c03d
000003a0: 67d9 9d3e 6d6d b73e 2893 33bd 84cc c33e
000003b0: 5fa6 a03d 7fff e43e aae7 813d 2f4b 00bf
000003c0: 10fa e23e 7348 1e3f a52e 9a3d d185 5abf
000003d0: d185 4cbf be4d 30be 51f0 8fbd a2d2 35be
000003e0: a6a9 16be a005 8bbf 0a5e 41bf ea10 14bf
000003f0: 3750 673e 8de2 dabc dc02 ccbb 2918 17bf
-0.55225164 -0.10096733 0.15676792 0.63228285 0.72659713 0.4678427 -0.054313958 0.110042095
0.21171911 -0.521586 -0.4462339 -0.40904802 -0.36737013 -0.3042942 -0.15711114 -0.11136644
-0.5001675 -0.28493983 -0.16634727 -0.1175141 0.18857652 0.07693094 -0.015923899 -0.181714
-0.016586943 -0.16657041 -0.06578992 -0.182466 -0.09861583 0.11065718 -0.75450695 -0.43175313
-0.90591085 0.41339958 0.033035226 -0.4606292 -0.05546659 -0.19578929 -0.8063266 -0.35193297
-0.090442814 0.022066118 -0.27990177 -0.2722288 0.3360767 -0.21548684 0.23154388 0.18703732
-0.30076435 0.013669281 0.19239213 0.21188658 0.38294724 0.21329755 -0.62324744 -1.2155432
-1.1378258 -0.49779537 -0.32880872 0.22328334 -0.3806999 -1.0946983 -1.3390845 -0.21866986
0.046108186 0.21670553 0.026742404 -0.09787713 -0.20736861 0.46755067 0.25023878 -0.15499069
0.44689575 -0.24426505 -0.5254964 0.3681327 0.660845 0.6628183 0.22876447 0.5331591
0.35070965 -0.10543474 0.02834532 -0.49462578 -0.62608355 -0.29362068 -0.32317132 0.6759095
0.43858248 -0.066973284 0.12021892 -0.10631449 -0.06645003 0.075429074 -0.006789311 -0.16644531
-0.510093 -0.3880109 -0.47454217 -1.0132729 -0.37342384 -0.18233821 -0.67201775 -0.5206894
-0.5554041 -0.045003396 0.010801302 -0.06709444 0.004539073 0.1957174 0.5455259 -0.26994735
-0.09216603 -0.17121492 0.35826862 0.34230167 0.33456224 -0.6169011 -0.40738565 0.13452892
-0.088521145 0.09233378 -0.27950493 0.7860679 0.09343636 -0.16756696 0.20012513 0.30905846
0.5216628 0.70098114 0.09647363 0.083419286 -0.19393721 -0.47708938 -0.46319833 0.035820518
0.2816174 0.53203493 -0.16682288 0.22167005 0.11496523 0.5959712 0.26163688 0.542142
-0.8130065 -0.5373819 -0.2422107 -0.06985717 0.38805848 0.04150488 -0.46283352 -0.4235341
-0.33744162 -0.17259315 0.15576607 0.23972945 0.6037376 0.29046956 0.11662246 -0.26067963
-0.55742204 -0.32665136 -0.39944187 -0.30521464 -0.12122353 0.5538856 0.34264076 0.4588703
0.1378689 -0.24685982 -0.03626447 0.07468938 0.67790574 0.12495012 -0.65281665 -0.05594567
0.21750686 0.4420488 0.51009434 0.5168999 -0.18581821 -0.38734 -0.38760126 0.04632736
-0.40610254 -0.8727463 0.02001478 -0.3733531 -0.25723585 -0.44967246 -0.16809818 0.21596773
0.33644536 0.9040761 0.56172454 0.19386631 -0.10751832 -0.20396858 -0.18988986 -0.19709556
-0.3495432 -0.04075786 -0.5501201 -0.87041384 -0.12645634 0.045788363 0.16673149 -0.1429948
-0.052414224 0.52014655 -0.64256936 0.015631163 0.040793285 -0.94305414 -0.28178287 -0.13852926
0.0730415 0.4186397 0.2563136 0.13612218 0.44209653 0.3477831 0.26525176 0.3658843
0.010412686 0.21291618 0.89356005 0.45595157 0.04433649 -0.4991299 -0.45842534 0.09422692
0.30829927 0.35825673 -0.04384151 0.3824197 0.07844233 0.44726178 0.063430145 -0.5011472
0.44331408 0.618293 0.07528428 -0.8536044 -0.7989169 -0.17217156 -0.070282586 -0.17756131
-0.14713153 -1.0861092 -0.7553412 -0.5783831 0.22589193 -0.026719356 -0.006225927 -0.5902124

conv4.bias f4 [64]
00000000: b750 4fbf 52e5 55bf 9236 9bbe 364a 2ebf
00000010: 4b7a 17bf 9f01 87bf 89e9 1abf 4719 083d
00000020: 8f37 21bf 4b7d 8abe 2990 4d3f c579 713f
00000030: 0627 56bf dd04 30bf 9263 0abf 5898 70bf
00000040: bcac a6be 91ba 6dbf 1f8e abbe 38c9 44bf
00000050: b0aa 00be be08 55bf 09e2 2dbf b1bd 89bf
00000060: 842e 093e 5d6b 23bf 4bc6 63bf d7a6 4cbf
00000070: 9dbf 73be 2d19 5cbf 4da5 04bf 43e9 72be
00000080: e934 10bf 08c8 ecbe b1b1 74bf df2c 713c
00000090: a1d7 12bf 67d3 43bf fb2f 7bbe a596 e7be
000000a0: 2174 40be 9505 2abd 41f5 6bbf 85a3 88be
000000b0: 7f0e 14be 8f61 b0bb 1619 f4be 606f 38be
000000c0: 4893 88be d809 09bf 2e96 84bf 37e0 03bf
000000d0: eaf2 ccbe 43ef c7be eedc 01be e90e 193e
000000e0: 29a9 4bbc dbf5 863e c629 48bf 99ab 6fbf
000000f0: d997 4fbf 13fb 35bf 8d75 29be 6265 23be
-0.80982536 -0.8355304 -0.3031507 -0.68081987 -0.5917098 -1.054737 -0.60512596 0.03322723
-0.629754 -0.27048716 0.80298096 0.9432643 -0.83653295 -0.6875742 -0.5405818 -0.9398246
-0.3255366 -0.928628 -0.33506867 -0.76869535 -0.12565112 -0.83216465 -0.6792303 -1.0761014
0.1339665 -0.638357 -0.88974446 -0.7994208 -0.23803563 -0.85975915 -0.5181473 -0.23721795
-0.56330734 -0.46246362 -0.95583636 0.014720171 -0.57360274 -0.7649445 -0.24530022 -0.4523212
-0.187943 -0.04150923 -0.921711 -0.26687256 -0.14458655 -0.0053827236 -0.4767539 -0.18011236
-0.26674867 -0.53530645 -1.0358331 -0.51514 -0.4002908 -0.3904973 -0.12681934 0.14947094
-0.012430468 0.26359448 -0.7818874 -0.9362121 -0.81091076 -0.71086234 -0.16548748 -0.15956643

bn4.weight f4 [64]
00000000: cf29 a940 e26b 9a40 2b70 9b40 e129 a640
00000010: f760 ae40 3b7a b540 667b b640 a6a7 2340
00000020: 68ab cf40 00d2 9e40 2719 0040 1584 1b40
00000030: 2ecf c440 2581 8f40 f803 9540 a42d b240
00000040: 4fe0 8c40 e09f c540 b82f 8b40 75c2 a740
00000050: 6033 7e40 b97c ca40 d2fe 9b40 c2f5 c440
00000060: 3c60 9040 8a26 9640 29ec b140 2e38 a940
00000070: 0dc0 bb40 8189 9940 d927 8a40 19b5 da40
00000080: be80 ad40 eb08 8e40 26b7 ba40 b2d9 6540
00000090: 5b77 cc40 8c19 b240 a81d c140 7565 9b40
000000a0: 072d 8d40 b797 e83f ff5e ab40 ab65 d040
000000b0: c6f5 3740 28ec 7440 9e5a 9940 5da3 9440
000000c0: 367f 9540 e812 ad40 3708 b140 b849 bd40
000000d0: 2651 aa40 ac8d 9940 1418 0a40 aeb7 1840
000000e0: 0a9f 2140 b2b3 0940 d0e1 a440 5257 ab40
000000f0: c873 d540 c31f ac40 f900 9840 eb59 a640
5.2863536 4.8256693 4.8574424 5.192612 5.4493365 5.6711707 5.7025633 2.5571074
6.4896736 4.963135 2.0015352 2.4299366 6.1502905 4.4845147 4.6567345 5.5680714
4.4023814 6.175766 4.349575 5.2424874 3.9718857 6.327725 4.874856 6.1549997
4.5117474 4.6922045 5.560078 5.288108 5.8671937 4.798035 4.317364 6.8346066
5.4219656 4.4385886 5.834857 3.591412 6.3895698 5.5656185 6.03487 4.856135
4.4117465 1.81713 5.355346 6.5124106 2.8743758 3.8269138 4.7923117 4.644942
4.6717787 5.408558 5.532253 5.915249 5.322406 4.798544 2.1577196 2.386211
2.525332 2.1515927 5.152565 5.354409 6.6703835 5.378877 4.7501187 5.1984763

bn4.bias f4 [64]
00000000: d88f 57bd 2bd5 0e3e de1a a2bd 3628 35be
00000010: 1eb1 123e a2c9 5bbe b8c6 e8bd 4ca3 16be
00000020: d51d eabd 982b fa3d 56a3 ddbd 3339 f5bd
00000030: 382e 023e 84c6 263e c88a f23d f391 c5bd
00000040: c45f 54bd a4a9 0b3e 0304 053e 7b24 293e
00000050: 2aee 213e 117e 513e 1176 1a3e 9d14 39be
00000060: 0e82 08be 1a9b fa3d 1765 f3bd 932e b1bd
00000070: a0d4 373e 84aa 0d3e 31d3 0f3e 77d2 febd
00000080: e1a5 0cbe 3062 1cbe 8b34 15be 64d9 003e
00000090: 1940 5bbe a0fc 733e cce6 13be e95b 383e
000000a0: 51b9 293e 9ca8 0a3d 6097 083e 887d 403e
000000b0: 441b b8bd 3617 7ebc 3f3a 043e 8185 aabd
000000c0: 5e6b 173e b1ae fbbd 34fe d7bd 32e5 2c3e
000000d0: 3cd5 153e 2aae 28be 7af0 28bb bc91 e2bc
000000e0: 1307 9a3d 9928 dbbd e28e 113e 65ff df3d
000000f0: 6ff7 07be e5ba 2fbe 5c4c 883e f82c 333e
-0.052627414 0.13948505 -0.07915281 -0.1769112 0.14325377 -0.21463636 -0.113660276 -0.1471073
-0.11431471 0.12215346 -0.108221695 -0.119738005 0.12712944 0.16286665 0.11842877 -0.09646978
-0.05184914 0.13638932 0.12989812 0.16517822 0.15813509 0.20458247 0.15084101 -0.1807427
-0.13330862 0.122366145 -0.11884516 -0.086514615 0.17952204 0.13834578 0.14045407 -0.12442487
-0.13735153 -0.1527183 -0.14570825 0.12582928 -0.2141117 0.23826838 -0.14443511 0.18003811
0.16574599 0.033852205 0.13338995 0.18797886 -0.089895755 -0.015508464 0.12912844 -0.08326245
0.14787051 -0.12289179 -0.10546532 0.16884306 0.14632124 -0.16472688 -0.00257781 -0.027657382
0.075208806 -0.10701103 0.14214662 0.109373845 -0.13277982 -0.17161138 0.26620758 0.17497623

bn4.running_mean f4 [64]
00000000: 3c63 8e3d ce73 5f3e f028 433e 06a4 d63d
00000010: ee8e 983e 2cc9 3d3e 3430 453e 3e8b e740
00000020: d4ad 3a3e 5c90 103e 859a 2e41 d5a3 2841
00000030: fb30 cc3d cf82 a83e 1ef1 6b3e 0832 a33d
00000040: d26c 113e 859b 793d a40d 933e 844e 333e
00000050: 0cac 623f cc87 d03d f4af 173e c40e 093e
00000060: 3947 ba3e 186a 513e 8383 fd3d 3c5b 523e
00000070: 2adc 5b3e f254 3a3e 4c49 893e 41dc 0e3e
00000080: f218 563e 53c7 f53e 6a44 823d 2e1b bb3e
00000090: 9330 8b3e e724 a63d de22 453e 8852 0f3f
000000a0: 863a 093e a091 c940 5d42 243e 5b2b b43e
000000b0: f310 5240 2b8c c03e ec29 b93e feda dc3d
000000c0: 733f a93e 59b5 a83e 477f 0f3e 3cc6 1f3e
000000d0: 364c b93e 5984 973e 6e22 dd3e 715d 8d3f
000000e0: d69f cd3f 60b9 cd40 4ff1 1a3e 9d56 803e
000000f0: 568b 263e 33b3 663e af97 843e d9f2 a13e
0.06952521 0.2182152 0.19058585 0.10480504 0.29796547 0.18533772 0.1925667 7.2357473
0.18230373 0.14117569 10.9127245 10.539998 0.0997028 0.329123 0.23041198 0.07968527
0.14201668 0.06093933 0.28721344 0.1751042 0.8854377 0.10182151 0.14813215 0.13384539
0.36382464 0.20450628 0.123785995 0.20542616 0.21470705 0.18196467 0.26813734 0.13951208
0.20907953 0.48003635 0.06360705 0.36544174 0.27185497 0.08112507 0.19251582 0.5598531
0.13401231 6.2990265 0.1604094 0.35189328 3.2822845 0.3760694 0.36164796 0.10783957
0.3305622 0.32950857 0.14013396 0.15602964 0.36190957 0.2959316 0.4319033 1.1044141
1.6064403 6.428879 0.15131114 0.2506608 0.1626409 0.22529297 0.25896975 0.3163059

bn4.running_var f4 [64]
00000000: efe7 913f de76 5740 152c 1540 30e1 df3f
00000010: 448f 9c40 2109 7240 25f0 6240 0726 c741
00000020: ead5 3540 b57c db3f 538c 2a42 9c7e 2542
00000030: ba99 0240 21cc ed40 9352 6740 56f2 893f
00000040: 0ae3 ca3f 8fd9 853f a927 9940 913c 5e40
00000050: 48b4 3141 b4d1 0c40 934a 0940 fcaa 3040
00000060: e5f1 aa40 02a5 3c40 e011 1d40 3a16 8b40
00000070: 6a02 2440 5484 9040 9c8f 8e40 ebe6 f13f
00000080: cd55 4040 8a51 1741 a8bb 7a3f 246f 4440
00000090: 626f 7940 fde8 833f 6796 4340 8a7d 1b41
000000a0: 44c2 dc3f e5a4 db41 77b0 0940 f92a ba40
000000b0: e2b6 2441 b401 9840 284a fc40 4cfd fe3f
000000c0: ca73 9640 47fe 9640 80c4 3b40 4a79 eb3f
000000d0: 1e2e f640 94d1 7040 7b10 8140 792e 0941
000000e0: 5451 4641 a151 a741 4297 f73f a0c2 a140
000000f0: 4cf8 4440 ddf9 3e40 16df 7940 710b 8740
1.1398906 3.36663 2.3308156 1.7490597 4.8924885 3.7818072 3.5459073 24.893568
2.8411813 1.7147433 42.637035 41.373642 2.0406327 7.431168 3.614415 1.077708
1.5850537 1.0457019 4.7860913 3.4724467 11.106514 2.2002993 2.1451766 2.760436
5.342028 2.9475713 2.454216 4.346463 2.5626473 4.5161533 4.4550304 1.8898596
3.0052369 9.457407 0.9794259 3.0692835 3.8974233 1.0305477 3.0560548 9.718149
1.7246785 27.455515 2.1513956 5.8177457 10.294649 4.750208 7.8840523 1.992105
4.7016344 4.7185397 2.9338684 1.839639 7.6931295 3.7627916 4.033262 8.573846
12.3948555 20.914858 1.9343035 5.055008 3.0776548 2.9840004 3.904241 4.2201467

lin.weight f4 [10, 64]
00000000: 9e86 93bf 5711 eb3e 0957 3a3f 8d1a 05c0
00000010: 6d4b bc3f a102 aa3f a33d d53e 3a70 86be
00000020: d278 52be 1af5 b23f fdc5 a6be 42e7 6ebe
00000030: 850e 3340 7147 6a3f 4626 373f fa28 42bf
00000040: 5bce 043e 56a5 bd3e 211c cb3f 1b91 88bf
00000050: ce0e 453f 04aa 9abf ee59 20bf 4ce1 5c3e
00000060: dead 92bf 5532 f63e 8599 d6bf e5da ecbf
00000070: e6a4 7abf ad35 d73f ecc3 973d ed56 153f
00000080: 6304 39bf 4e80 6d3f 2265 63bf 6818 91bf
00000090: 9670 e43d 5ab3 c1bf b6b1 943f 470a 14be
000000a0: 7d1e 733d 3bec 33be 7624 0840 618f 863e
000000b0: 33e8 cabe 6dcf 60be d29d ae3f d4ab e2bf
000000c0: f5bf a03f 288d febf dd14 e6bf 04be 343f
000000d0: 5384 ef3f 1bfe a9be cc77 cebe 9756 24be
000000e0: 3965 8abe 1640 dbbe 66e0 943f 99da 0840
000000f0: 9637 e4bf fed1 42bf 0f10 7abf c3a3 a2bf
00000100: b2ec 8abf fe7b 8a3f 6e97 fbbe 3c44 1b40
00000110: ccdb 1ebf 741a dbbf 1368 aabf 5110 a7be
00000120: ea63 15c0 781f 5fbf 3551 97be 40f0 c6be
00000130: c578 c9bf 302d 613f 5b92 a93f 489e e4bf
00000140: 065b 8fbf 5ede aebe 8a71 dabf b204 b43f
00000150: 418c 27bf c5f2 ea3f 9953 ce3f 697c 0640
00000160: 4ac3 853f 2b50 8cbf f835 2140 17db e93f
00000170: 2508 1bbf bebd 4a3f d14e bc3f 48d1 97be
00000180: 4c4d b7bf fe3d 90bf d5ce 2340 157f 293f
00000190: 1c63 c0bf 9ff2 5e3e 44f9 98be 4584 0c3f
000001a0: 8adc 87be b348 573e eea1 273e 6aa4 c73f
000001b0: 4655 9abe c17b 0ebf 114e 843f f4d9 0e3f
000001c0: 19f9 fabe 50d0 b33f 3f1c 1f40 d162 b4bf
000001d0: a127 3abf dbf3 a7bf 3921 423e 52bb c0bc
000001e0: 5d20 1a3f 9f50 32bf 099c 02bf f380 03c0
000001f0: 3801 9dbf 0aac cdbe d1f8 21be c666 ee3d
00000200: 7861 3d40 6a28 7dc0 6435 c63e 00ec 9ebe
00000210: 56b6 62c0 432c 53bf eb24 1740 bc46 2f3e
00000220: cfa8 923f e780 0840 91fb b13f 2cf4 e73f
00000230: 756e 213e 34f0 c0bf 950e 6a3f 33b3 febe
00000240: 1c4a 5640 b00a 7abf ec42 16c0 368c 53bf
00000250: d010 46c0 fa0f c4bf 07d8 553e 1751 66bf
00000260: 6eac cebe 1e9f d1bf 0ad6 f4be 2d2a bebe
00000270: 2152 97bf dc74 e0bf 66d6 1bc0 d669 5f40
00000280: fd89 babe d383 d93f 5a70 e7be 43ed 0d3f
00000290: 27e0 74bf bcea 5fbe c32f a33f 5f4d 9dbf
000002a0: 8f73 98bf 16f9 f43e 53b6 3ebf 3401 fb3f
000002b0: 1f44 0840 5693 afbe 1f27 afbe 6560 f23f
000002c0: 4967 17c0 5f40 3cbd 23e4 cf3e f8e9 b1bf
000002d0: 8544 1fc0 3eb0 35bf 88eb 6e3f 1fbd b43e
000002e0: 147b 233b 19e3 663f 1b3a 5a3d 31b8 063f
000002f0: 65a9 e93f fd3d 74bf 8601 693e 53d4 8b3c
00000300: 60b3 db3f 5775 0ebe ad46 ecbf 8c5e cc3e
00000310: be47 5a3f 4929 053f c880 773f ebb9 8a3f
00000320: 5bea 2440 84e7 82bf b4ff cabd 237a c6be
00000330: 4980 00c0 d84e babe dd42 07c0 f58b 6340
00000340: 6b8b e5be 45e3 a9bf 2aba 213f 9ccc 8b3f
00000350: 591c 8f3f fb91 bcbf 1141 20be fb48 07c0
00000360: ebf4 da3f b33e cc3f 6f73 1fbf 552e eb3f
00000370: f7bb a13f d04f ebbf 1ab3 0ebd d85d ebbf
00000380: a113 543f 479b 3ebf 62fc b3bf 4d12 183e
00000390: 18ff 6d3e c0c8 de3f c9c7 17c0 6dac 9b3f
000003a0: 2def c33f f46a 85be 3c5a f7bf 6680 21c0
000003b0: cd15 c83c 2f16 27bf aaa6 b6bf a36f ce3e
000003c0: c7d2 753f 9705 bb3f e21c f6be f115 eb3f
000003d0: 16a6 2f3f 0117 2a40 80b8 2abf 6086 77bf
000003e0: c817 1cbf 2a4b c43e 80bd 683f 4d6a fabf
000003f0: 44c5 b83f 4f85 4940 e927 993f 9280 0d3f
-1.1525457 0.45911667 0.72789055 -2.0797455 1.4710518 1.3282052 0.41648588 -0.26257497
-0.20553902 1.3981049 -0.32572928 -0.23330405 2.7977612 0.9151526 0.71542776 -0.75843775
0.12969343 0.37040204 1.5867959 -1.0669283 0.76975715 -1.2083135 -0.6263722 0.21570319
-1.145931 0.48085275 -1.67656 -1.8504301 -0.97907865 1.6813256 0.07410416 0.58335763
-0.7227232 0.927739 -0.8882619 -1.1335573 0.111542866 -1.5132859 1.1616733 -0.14457045
0.059355248 -0.17570584 2.1272254 0.26281264 -0.3963028 -0.21954127 1.3641913 -1.7708688
1.2558581 -1.9886827 -1.7975117 0.7060244 1.8712257 -0.3320168 -0.40325773 -0.16048656
-0.27030352 -0.4282233 1.1630981 2.1383421 -1.7829463 -0.7610167 -0.97680753 -1.2706226
-1.0853484 1.081909 -0.4913897 2.4260397 -0.62054133 -1.7117448 -1.3313011 -0.32629636
-2.3342233 -0.8715739 -0.29554144 -0.3885517 -1.5739981 0.87959576 1.3247789 -1.7860804
-1.1199653 -0.34154028 -1.7065899 1.4063933 -0.65448385 1.8355337 1.6119262 2.1013434
1.0450222 -1.0961965 2.518919 1.8269986 -0.605593 0.79195774 1.4711553 -0.29651856
-1.4320464 -1.1268919 2.559499 0.66209537 -1.5030246 0.2177224 -0.29877675 0.5488933
-0.26535445 0.21023826 0.16370365 1.559705 -0.30143183 -0.55657583 1.0336324 0.5580132
-0.4901817 1.4047947 2.486099 -1.4092656 -0.7271672 -1.3121294 0.18957986 -0.023526821
0.6020563 -0.6965427 -0.5101934 -2.0547454 -1.2265997 -0.40170318 -0.15817572 0.11640696
2.959074 -3.9555917 0.3871261 -0.3103943 -3.542379 -0.82489413 2.3616283 0.17116827
1.1457766 2.1328676 1.3904897 1.812139 0.15764792 -1.5073304 0.914285 -0.49746093
3.3482733 -0.9767256 -2.3478346 -0.8263582 -3.0947762 -1.5317376 0.20883189 -0.89967483
-0.40365928 -1.6376684 -0.4781955 -0.37141553 -1.1821939 -1.7535663 -2.4349608 3.4908347
-0.36433402 1.6993355 -0.45202905 0.5544016 -0.9565453 -0.21866888 1.2748951 -1.2289237
-1.1910266 0.47846287 -0.74496955 1.9609742 2.1291578 -0.34292096 -0.34209535 1.8935667
-2.365679 -0.045959827 0.40603742 -1.3899527 -2.488557 -0.7097205 0.9332814 0.35300538
0.0024945186 0.90190274 0.05327807 0.52624804 1.825482 -0.95407087 0.22754487 0.017069018
1.7164116 -0.13911949 -1.8459069 0.39915884 0.8526572 0.5201612 0.9668088 1.0837988
2.576804 -1.0226903 -0.09912053 -0.38765058 -2.00783 -0.36388278 -2.113456 3.5554173
-0.4483293 -1.3272482 0.6317469 1.0921817 1.1180526 -1.473205 -0.15649821 -2.1138294
1.7105993 1.5956634 -0.6228551 1.8373514 1.2635487 -1.8383732 -0.034838773 -1.8388014
0.8284245 -0.74455684 -1.4061396 0.14850731 0.23241842 1.7405014 -2.371569 1.2161995
1.5307366 -0.2605816 -1.9324412 -2.5234618 0.024424458 -0.65268224 -1.4269612 0.40319547
0.96024746 1.4611081 -0.4806891 1.8366071 0.686128 2.657654 -0.66687775 -0.96689415
-0.6097379 0.38338596 0.90914154 -1.956369 1.4435201 3.1487615 1.1965305 0.5527431

lin.bias f4 [10]
00000000: 92e5 cc3d f83c ac3d ed00 4e3d a9cc df3d
00000010: c84d b0bd 9132 29bf 214c 2dbf b7c9 09bf
00000020: d3fa 15bf f274 3bbf
0.100047246 0.08410066 0.05029385 0.10927708 -0.086085856 -0.66092783 -0.6769429 -0.5382342
-0.5858585 -0.7322532
