NCC Code/2022-06-24_16-06-41_model.pt (torch, 115275 bytes, 50 tensors)

conv1.weight f4 [8, 2, 5, 5]
00000000: 0bec 43be 39cf dbbe 3e8f 4bbd 8402 6fbe
00000010: e821 b43a cb62 69bc da83 953e 9123 c23d
00000020: 343e 653d 39be abbd 1070 333c e84c 81be
00000030: d5b7 8d3d bb56 033e 4009 d4bd e30e a7be
00000040: d950 cdbe 8ce0 e3bc 4e0e c5be edff a8bd
00000050: 4002 563e a484 c9bd 9f76 5a3e eeaf 1a3c
00000060: 4076 41be 2082 57be 8adb eabd f844 d2be
00000070: 3dad 26bd 9959 d03c a2ea abbd d289 b23c
00000080: 8542 9a3c 7fb4 013e 9056 a03e 8d41 f4bd
00000090: 1b6e ea3d 35f0 e8bd 614f 2ebe 2ec7 11be
000000a0: 2eea 893d 5958 3f3e 33e4 8bbe 9e71 7cbd
000000b0: e56c ce3c ebac aebe a2b0 8f3d fbf4 b4bd
000000c0: ab6c 1fbd 9104 04bd f011 38be 5c38 8ebd
000000d0: 3946 113b f7cd 233c 9f25 9cbe adcd e23e
000000e0: 023a 2ebe eb53 d63e ff43 2fbd 9e8c d9ba
000000f0: 9e88 fabe 6b6c b6be 982e e8be 9aa1 f7bd
00000100: 9d1b 40bd ed19 19be 67f3 2cbe 399f 17be
00000110: 98e1 e43c 8e9d 19be 0d9b ad3e 256f ab3d
00000120: bf1d 8f3e 81f8 733d b855 c73c bd50 a83e
00000130: 5d11 843e 3fc3 c73c 6f8e 7ebe dc0f 283d
00000140: fdea 5ebe 26ec 11be ef62 8fbe e61c cabd
00000150: 0816 09be 6abd 3ebe d294 0abe 652f 283d
00000160: af7c 7c3d 8b91 103b 3a26 aebd 3146 f7bc
00000170: 8638 49be 8a97 6dbe e0d6 2abd 0cc9 2d3e
00000180: 67a5 073e 2237 00bc 07c0 c9bd 249a 003e
00000190: 0ce4 7dbe d625 24be 22af 523e 98e0 43bd
000001a0: ba10 063f 530c 493e f6d9 e4bd 30db 20be
000001b0: 9841 d4bd 6791 52be 1f1b ecbc 7c90 533e
000001c0: 821c 183e 727d b9be f217 3ebe b91a 5a3e
000001d0: 778b 843e 5b12 c63e cc6c d23e e75c 513e
000001e0: 3df8 4f3d de17 2bbe cf59 42bd aaae a3bd
000001f0: b088 34bd eab0 ba3d a235 463d 036b 0abd
00000200: 6cff 7d3e 4e9b 5bbe c136 9bbd a2a2 fe3d
00000210: 373e 86bd 61a3 263d 7014 103e 0d47 22be
00000220: 6643 9cbe 123d a6be f9e1 df3d 5335 71be
00000230: ed0b 313e 3b7e 013e 2a87 743e ca3f c53b
00000240: 810b b63d b6fd 5a3d 589d 163e c886 29be
00000250: e3e5 b13d 840a 1abe 4cfa 9f3c 101b 9bbe
00000260: 37ba d3bc 0a56 a1be 1c64 35be f4e0 253e
00000270: c1e6 b13d 6322 8c3d 39ce be3c 05b1 e3bc
00000280: 4e20 b23c 6412 143c 4a30 abbd 6986 7bbe
00000290: d2dc 3d3d 2f24 983e 0f44 19be a285 5e3d
000002a0: 17cb f13d 788d 283d 258b a3bd 14ff 903e
000002b0: 49e7 01bd ff3d 163e ef5d bebd 9254 f43e
000002c0: c667 e63e b8b0 bdbd 02e5 4dbd 11d9 92be
000002d0: 5e28 93be b210 3ebd 32d8 13be e0c7 12be
000002e0: b441 cfbd 8807 43bd d94d a5bd ff8a 53be
000002f0: c15e a4be bb19 10bf 7873 263e b514 2f3e
00000300: 0ba7 903e 9672 da3b a4a7 abbd db58 e03d
00000310: b7da bd3d f9be 543b db51 23bd f148 0cbd
00000320: 34d8 9db9 799c 8abe d62f de3d a358 51be
00000330: 0112 a53d 7d93 aebe 13d5 0bbf cff4 e0be
00000340: a672 c9be ddc9 77be ac52 573d 998b fcbd
00000350: 3c98 4bba 5f66 1f3e e5f7 9abb 3c67 80be
00000360: 270f c1be eada 48be c0e7 fcbd 3825 15be
00000370: ec62 12be 883f 343c b876 b2bd b9c1 03be
00000380: 8f4b 6cbd 86b0 a53b b3ec 943e a357 a6bd
00000390: c589 abbd 1bb6 85be 623d 33bd 10ac 2a3e
000003a0: f633 4e3d f7d2 63bd e954 0e3e 970e ce3d
000003b0: 32a3 713b d3aa 163e 5454 9f3c 14bc 10be
000003c0: bed0 78be db67 433d fe5a 14be 421c 53be
000003d0: 0d9a 0ebd ffe2 4b3e 2a74 89bc ce73 c4bd
000003e0: adff 44be 409a 24be 2a04 cc3e 494f 523e
000003f0: 88ca 533d 62bd 303e e7dc debd e8cd 463d
-0.19133012 -0.42931536 -0.049697153 -0.23340803 0.0013743015 -0.0142447455 0.29202157 0.0947944
0.055967525 -0.083858915 0.010952011 -0.25253987 0.06919829 0.12826054 -0.10353327 -0.32628545
-0.40100744 -0.027817033 -0.38487476 -0.08251939 0.20899296 -0.09839752 0.21334313 0.009441359
-0.18892765 -0.21045732 -0.11467655 -0.41068244 -0.040692557 0.025433348 -0.08394362 0.021794233
0.018830547 0.1266651 0.31316042 -0.11926565 0.11446782 -0.11373941 -0.17022468 -0.14236137
0.06734119 0.18686046 -0.2732254 -0.06163179 0.02519841 -0.341163 0.07016112 -0.08835789
-0.038921993 -0.032230917 -0.17975593 -0.069443434 0.00221671 0.009997836 -0.30497453 0.44297543
-0.17014316 0.418609 -0.042789456 -0.0016597693 -0.48932356 -0.3562959 -0.45348048 -0.1209137
-0.046901334 -0.14951296 -0.16889726 -0.14806832 0.027939603 -0.15001509 0.33907357 0.083708085
0.27952382 0.059563164 0.024332866 0.32874098 0.25794497 0.024385093 -0.24859022 0.04103075
-0.21769328 -0.1425024 -0.28005168 -0.09868793 -0.1338731 -0.18626943 -0.13533333 0.041060824
0.061642345 0.0022059407 -0.08503385 -0.030184837 -0.19650468 -0.23202339 -0.041708827 0.16971225
0.1324669 -0.007825645 -0.098510794 0.125588 -0.24794024 -0.16030058 0.2057462 -0.04782161
0.5236927 0.19633608 -0.11174385 -0.15708613 -0.103640735 -0.20563279 -0.028821526 0.20660585
0.14854625 -0.3622852 -0.18563822 0.21299256 0.25887653 0.3868588 0.4109863 0.20445596
0.050773848 -0.16708323 -0.04744893 -0.07992299 -0.044075668 0.09115775 0.048390992 -0.03379346
0.24804467 -0.21445963 -0.07578803 0.124333635 -0.06554835 0.040683154 0.14070296 -0.15847416
-0.3052017 -0.32468468 0.10931773 -0.23555498 0.17289706 0.1264581 0.23879686 0.006019567
0.08888913 0.053464614 0.1470846 -0.16555321 0.086864255 -0.15043074 0.01952853 -0.30294085
-0.02584563 -0.31510955 -0.1771397 0.16199094 0.08686591 0.06842496 0.023291694 -0.02779437
0.02174392 0.009037588 -0.0835882 -0.24562992 0.04635317 0.29715106 -0.14967369 0.05432666
0.118063144 0.04115054 -0.07985524 0.2831961 -0.03171471 0.14672087 -0.0929526 0.47720772
0.45001048 -0.09262222 -0.050267227 -0.28681234 -0.28741735 -0.04640264 -0.1443794 -0.14334059
-0.10119954 -0.047614604 -0.08071489 -0.20658492 -0.32103541 -0.5628926 0.16254985 0.17097743
0.28252444 0.0066664917 -0.08381584 0.10954448 0.09270232 0.0032462461 -0.039872985 -0.03424925
-0.00030106457 -0.27072504 0.10848968 -0.20443968 0.080600746 -0.340969 -0.54622 -0.43936774
-0.39345282 -0.24198098 0.052569076 -0.12331314 -0.000776652 0.15566395 -0.0047292584 -0.25078762
-0.37706873 -0.19614759 -0.1234889 -0.14564979 -0.14295548 0.011001475 -0.0871405 -0.12866868
-0.057689246 0.0050564436 0.29086837 -0.08122184 -0.08375887 -0.26115498 -0.04375971 0.16667199
0.050342523 -0.055621114 0.13899578 0.100613765 0.0036870954 0.14713602 0.01944939 -0.14134246
-0.24298379 0.047706466 -0.14487836 -0.20616248 -0.034814883 0.19910811 -0.016779024 -0.095924005
-0.19238158 -0.16074467 0.39846927 0.20538057 0.05170682 0.17259744 -0.108819775 0.04853621

conv1.bias f4 [8]
00000000: 502f 223e 266e bb3d 56ee 54be efd9 0e3e
00000010: 7e05 043e 96af 12be 684d 5dbd 3e57 bbbd
0.15838361 0.091518685 -0.20794043 0.13950323 0.1289272 -0.14324793 -0.0540289 -0.091474995

bn1.weight f4 [8]
00000000: ae25 623f 2a95 503f 600a 813f 4ec7 5c3f
00000010: acde 803f 8d77 863f d03f 8e3f c2b2 8a3f
0.88338745 0.81477606 1.0081291 0.86241615 1.0067954 1.0505234 1.1113224 1.0835803

bn1.bias f4 [8]
00000000: ac1b 83bd 7902 15bd 8072 58be 424e 123b
00000010: 67f2 09be 0be0 c63c 97ac f6bd 8e4d a8bd
-0.06401762 -0.03637931 -0.21137428 0.0022324477 -0.13471375 0.024276754 -0.12044638 -0.082179174

bn1.running_mean f4 [8]
00000000: 1a61 843f c462 413f 0c33 623e 6a24 093f
00000010: 346e b23f eabc ff3e 750b ec3e e9f8 813f
1.0342133 0.7554133 0.22089785 0.5357119 1.3939881 0.49948817 0.4610249 1.0154086

bn1.running_var f4 [8]
00000000: 9e77 783f 6272 133f 44ec 9c3e c4ec b33e
00000010: 26ad e33f 26da 4b3f 5dfb 553f 0359 9240
0.9705752 0.5759641 0.30649006 0.35141575 1.7787216 0.79629743 0.83586675 4.5733657

conv2.weight f4 [16, 8, 3, 3]
00000000: fe1e a63c 273f bdbe 03a3 f83b 50b9 903e
00000010: 5cb8 e83d cd04 973d 1c2e 093e 8f20 833e
00000020: 1d0a 6a3e 3e40 aabd 5c26 823d 3dc7 333e
00000030: 1b9a acbe af32 53b9 73f7 ecbd 72ab 97bd
00000040: fece a2bd 20b4 4dbd b474 7c3e e58a 46bd
00000050: e98c d03d cd88 783e 08f0 2bbe 2468 423e
00000060: ace5 963c 3f48 2f3e 3e7f 8f3e 92f1 ec3d
00000070: 7bd1 a23e bb1e ba3e 6fb5 75be 6a5a 9e3c
00000080: 021d 84be 73e1 553d a8c2 913d 879c 193e
00000090: 2330 fa3d 9c74 d83d 9959 2abe 9816 573e
000000a0: 7233 1abe 0cab c43c 197c adbe 266c 86bd
000000b0: 458a 74bd 9c45 183e 1355 23bb 22ec 5abc
000000c0: 53ab 15bd 99a7 2ebd 397f ddbe 79cd bd3d
000000d0: ee67 a43d c25e 0b3e 720f ce3d a185 823e
000000e0: cb8f 1a3e 4963 003e f82b c3bd 9fc7 083d
000000f0: f0fa 833c a127 c23d 258f 2b3e 3087 b93e
00000100: 4504 ed3e 63b6 913e d938 43bd de00 093e
00000110: f693 b83d c6f8 ccbd 0e45 e13c a61a b33d
00000120: 9cb3 58be 8552 353e fb3a cebd 0e9a 95be
00000130: b993 71bd 667f 573e 6816 8c3d 8fff d23d
00000140: 598d 7a3e e546 82be 1647 f93d 5350 8dbd
00000150: d5c5 8ebe 8877 823e ff79 cd3d 42d8 123e
00000160: 487f b236 bce9 4cbb 4a0f c53c 3893 363e
00000170: 3941 56bd 59de 56be cb31 243d b4a7 6abe
00000180: 3afc bfbc d5f1 bcbd 2254 09bf b70b 193d
00000190: 3eb4 343e b63a 9a3e 2369 d0bd e62a 933e
000001a0: 84b5 043e aed6 cc3d 4cbf 0d3e 7183 723c
000001b0: 41c7 7bbe 542f 47bb 968c 393e b1b1 71be
000001c0: dc00 0a3e 70c8 e03c 07cb debd 0203 743d
000001d0: ac55 6e3e 4e8a a9be 5ab7 ddbd d45b f8bc
000001e0: 395e 573c f7c8 a03b e894 0cbe bdb3 cbbd
000001f0: ab74 6ebe 1eb8 eabd 83e2 d0bd 9e5a 3ebe
00000200: 6ee6 9cbe b949 fb3d ee5c a4bb 0d89 66bd
00000210: 738b 213e 0d22 97be ed08 443e 72e7 3ebd
00000220: f903 80be ecc6 12be 7e50 58bd 3497 9cbe
00000230: 2bd6 b5be 294b 103e f455 90be 0fad bfbe
00000240: 1b25 08bd 32ed c7bc fa6e 563e 5f24 ca3e
00000250: 09e8 d43d eef2 273e 8c59 b9bb 059c 02be
00000260: 472e 7e3e 6189 e63d 43e8 63bc ef08 12be
00000270: 5c83 dbbc 193c 213e d7ea d0bc 25f8 26be
00000280: 291c a7bc 8346 ae3e 3379 4c3e fa2b 0cbd
00000290: 4a3f 063d 195d 123e 2e31 2d3e cb5c c3bd
000002a0: fd60 8f3d 3db0 3abd b4f5 87bb e681 563b
000002b0: f234 48bd fafc 0b3e 9f57 2a3e 6244 25bd
000002c0: 1fa9 d53c 19fe 21be c02f 93bd 45f3 9e3d
000002d0: a64a 14be d90c 6f3e 9671 8e3e af7d 5fbe
000002e0: 877c 1bbd 1165 b73e c023 f43d 4880 813d
000002f0: 6dee d5bd 63f0 dc3e 1b82 583e b296 813e
00000300: f8d4 523b 96a7 17be 98e0 05be a3b3 af3c
00000310: 77e5 043e 8767 bdbd d5dd 4fbd 2f18 4d3e
00000320: 1705 323e 5c62 87be e559 16bd 65ff e43c
00000330: 3442 96be ae50 433e 79ba c5bc 53b9 303c
00000340: 90cc 003e 0ddd a5bd 1755 993e 8a2b 39be
00000350: b5e2 a03e 6579 87bd 4377 6a3e 2260 17be
00000360: b71b 8a3e d480 aa3d 6740 d0bc 0c7b 423e
00000370: c38d a1ba 1a10 f6bd d528 273e b205 cbbd
00000380: 025e 323e 30aa 5d3e b251 193e b246 393e
00000390: 7713 f4bd 4bfd 043d e06a 963c 1579 34be
000003a0: a8f6 c8bd 621f ffbd 0a28 91be 1495 15be
000003b0: 8bce 5abd d9a6 153e c617 ad3c 6c03 0d3d
000003c0: c251 08be 8f3e 91bd bedb d7bd 1b0f eb3c
000003d0: c366 693e e8d8 22be 8182 be3d 8a90 21be
000003e0: bba2 af3d fcb8 41bd 582a 843e 5f67 13bd
000003f0: 33bc ba3c 01a4 d43d 13ea aa3e 203f 143f
0.02027845 -0.36962244 0.007587792 0.28266382 0.11363289 0.073739626 0.13396496 0.25610778
0.2285542 -0.083130345 0.06354973 0.17556472 -0.33711323 -0.00020141409 -0.11570635 -0.074057475
-0.07949637 -0.05022061 0.24653894 -0.048472304 0.101831265 0.24270935 -0.16790783 0.18985039
0.018420063 0.17117403 0.28026766 0.115695134 0.31800446 0.3635157 -0.23994993 0.019330222
-0.2580338 0.05221696 0.07117206 0.15001117 0.122162126 0.105691165 -0.16635741 0.21004713
-0.15058687 0.024007343 -0.33883741 -0.065635964 -0.059702177 0.14870304 -0.0024922534 -0.0133619625
-0.03654034 -0.042640302 -0.43261126 0.092677064 0.080276355 0.13610366 0.1006154 0.25492576
0.15093915 0.12537874 -0.09529871 0.0333935 0.016110867 0.09480215 0.16753824 0.36235952
0.4629232 0.28459463 -0.047661636 0.13379237 0.09012596 -0.10008387 0.027498748 0.08745317
-0.21162266 0.1770726 -0.100698434 -0.29219097 -0.05897877 0.21044692 0.06840211 0.1030265
0.24467982 -0.25444713 0.12171762 -0.06900086 -0.2788531 0.2548182 0.100330345 0.14340308
5.319631e-06 -0.0031267246 0.024055142 0.17829597 -0.052308295 -0.20983256 0.04008655 -0.22915536
-0.0234357 -0.09225813 -0.53644 0.037364688 0.17646882 0.30122918 -0.10176303 0.28743666
0.12959868 0.100018844 0.13842505 0.014801846 -0.24587728 -0.00303932 0.18120036 -0.2360294
0.1347689 0.027439326 -0.10878568 0.05957318 0.23274869 -0.3311333 -0.10825987 -0.030317225
0.013145023 0.0049067694 -0.13728678 -0.09946392 -0.23286693 -0.11460899 -0.10199454 -0.18589255
-0.30644554 0.12269921 -0.005015961 -0.056283046 0.15775852 -0.29518166 0.1914403 -0.046607442
-0.2500303 -0.14333695 -0.05281114 -0.3058411 -0.3551496 0.14091171 -0.28190577 -0.3743672
-0.03323851 -0.024405096 0.20940772 0.39480874 0.1039582 0.16401264 -0.005656427 -0.12754829
0.24822341 0.11256672 -0.013910356 -0.1426122 -0.026796035 0.15745582 -0.025502605 -0.16305597
-0.02039917 0.3403817 0.19968109 -0.034221627 0.0327752 0.14293326 0.16913292 -0.09539183
0.07000921 -0.04557823 -0.004149163 0.0032731234 -0.048878618 0.13670722 0.16634987 -0.040348418
0.02608162 -0.15819587 -0.07186842 0.07761244 -0.14481601 0.23344745 0.27821034 -0.21825288
-0.037960555 0.35819295 0.11920881 0.06323296 -0.10445867 0.4315215 0.21143381 0.25310284
0.0032170396 -0.14810023 -0.13073957 0.021447962 0.12978159 -0.09248262 -0.050748665 0.20028757
0.17384754 -0.2644223 -0.036706824 0.027953813 -0.29347384 0.19073746 -0.024136769 0.010786372
0.12578034 -0.08098803 0.2994773 -0.18083015 0.31422964 -0.06614951 0.22897057 -0.14782766
0.2697427 0.08325353 -0.025421334 0.18992251 -0.0012325573 -0.1201479 0.1632417 -0.09913196
0.17418674 0.21646953 0.1497257 0.18093374 -0.11917775 0.03246812 0.018361509 -0.17624314
-0.09812671 -0.12457158 -0.2835086 -0.1460765 -0.05341963 0.14614429 0.0211295 0.03442709
-0.13312438 -0.0709201 -0.10539959 0.028693726 0.22793107 -0.15903056 0.093022354 -0.15777794
0.0857596 -0.047295555 0.25813556 -0.035987254 0.022794819 0.10382844 0.3338171 0.5790882

conv2.bias f4 [16]
00000000: 3fe3 1bbd 2834 913d 5343 ecbd 9f7f b63d
00000010: 46e9 03bd 8d21 d9bd 2a16 7cbe dcba da3d
00000020: 192e ffbc b7b0 a0be 253c 9cbc a99b bcbb
00000030: 4cec 08be 7cec edbd b279 a8bd c1f0 90bd
-0.038058516 0.07090026 -0.115362786 0.089110605 -0.03220489 -0.106021024 -0.2461783 0.10680172
-0.03114991 -0.31384823 -0.019071648 -0.005755861 -0.1337139 -0.116173714 -0.082263365 -0.0707717

bn2.weight f4 [16]
00000000: e87d 753f 7690 783f 30c3 573f 7aef 843f
00000010: fcc5 843f 007a 7d3f dd54 823f 537b 6d3f
00000020: 649f 6e3f 7b50 8d3f f7a5 843f 9beb 553f
00000030: 75a3 833f 0904 7d3f 6c02 823f 9b6b 7a3f
0.9589524 0.9709543 0.8428221 1.0385582 1.037292 0.9901428 1.0182148 0.927663
0.9321196 1.1040186 1.0363148 0.8356263 1.0284258 0.9883428 1.0156989 0.9782044

bn2.bias f4 [16]
00000000: 605e 39bd 6dcb 1cbe aa85 7d3e 5924 233c
00000010: 2b73 bdbd 1020 843e 3b40 ab3d 0f32 7fbe
00000020: 4d0d 333e 7f43 d8bd 11a8 c53d 594d c93e
00000030: 9dd9 66bd 6f36 be3e a6c3 b73c 3d8f 153e
-0.04525602 -0.15311976 0.2475802 0.009957396 -0.09250482 0.25805712 0.0836186 -0.2492144
0.17485543 -0.10559749 0.09651197 0.39316824 -0.056359876 0.37150905 0.02243216 0.14605422

bn2.running_mean f4 [16]
00000000: 855b 653f 34ca cd3f 7b6a 073f f785 a83f
00000010: 1fef 453f 9143 a33e 182f c53e 3f4b 953f
00000020: ab84 df3e 5bb0 f63e 740c 893f 859f 283f
00000030: 973f 873f 5767 b53e 2c1e b73e b1cf b63e
0.8959277 1.6077332 0.5289685 1.3165883 0.77317995 0.31887487 0.38512492 1.1663588
0.43655905 0.48181424 1.0706925 0.6586841 1.0566281 0.35430405 0.35765207 0.3570533

bn2.running_var f4 [16]
00000000: df95 6440 26cf e43f 8c3b 543f 7efe 2c40
00000010: bdaa 3d40 8272 143f f783 643f cb8b 893f
00000020: 4596 4d3f 2d88 9b3f fef7 b33f 42c2 d93e
00000030: fc71 663f 43e6 ea3e 60de 1a3f 68d3 b83e
3.5716474 1.7875717 0.8290336 2.703033 2.963546 0.57987225 0.8926386 1.0745786
0.8030742 1.2150933 1.4060056 0.4253102 0.90017676 0.458788 0.6049557 0.3609879

conv3.weight f4 [32, 16, 3, 3]
00000000: 6904 c63d 6b07 873d 7553 23bd d198 a53d
00000010: 511a 253c 1dba a3be 7447 4a3e 1ac1 cebd
00000020: f6ef 7cbe e455 babd 6dda a8bd 52b4 903d
00000030: 75cb 9abc 6a83 ce3c 81c2 623e 7af8 ffbd
00000040: af1e bebd c999 153e 04a5 9c3d 4aa2 4ebd
00000050: fdc3 ef3d 3229 8cbc 63d8 57be 9f40 b4bc
00000060: 84a4 0bbd 1c96 a93d 9d86 1dbe 44ac bcbd
00000070: cd29 6abd 2ecf 8fbe 9a76 f6bd 0c36 423e
00000080: 782c 2c3e dcee b7bc 2867 38be 6696 643d
00000090: 7ca5 a3bd 7580 f7bc 63b2 52be e107 3c3e
000000a0: c90a 513d 3be9 8ebd 90bd b6bc 1191 0fbd
000000b0: 005e 3cbd 6cb5 fdbd 8b6e 8dbe fecc 053b
000000c0: 6357 453e 9195 f93d bea8 923d db9d ec3d
000000d0: a51a 80bd bffe e7bd be9a 5b3e 150d 0a3e
000000e0: 198c 813d 783d 4abd fc3f 05be dd28 46be
000000f0: a730 e33a 3d58 4cbe 165c b1bd c154 f8bd
00000100: c64b 17be 5fe3 dcbb 5d04 3a3e d1fd 403d
00000110: e9cd 373e 4ca4 323d cd31 16be 7df8 bb3d
00000120: 7b81 7bbe 58b8 d5bd 98fa 26be 992f 70bd
00000130: 2910 bebd 6d6f 4bbe f53a f43c 2831 593e
00000140: 1e40 cb3d fc0e 03be 99bc 21bc ca60 cf3d
00000150: b704 eabd dedc 4cbe 3a31 f3bd dcd4 313d
00000160: 88c5 1d3e 2b49 36be e59c c23d e2e3 3b3d
00000170: 9162 a6bd 6610 3ebd c814 71bd f152 173d
00000180: 0524 2b3c 6933 ae3c a4f1 403e feae 1f3e
00000190: 6d98 0cbe 9c04 64bd 8da0 953c af37 943d
000001a0: 1c89 693c 8a46 b1be 6328 cb3c fce6 923d
000001b0: 195b 543d 52b3 9a3d f812 5cbd 6673 17be
000001c0: b654 56bb 86da b9bd c7f6 383e d3ab 4d3c
000001d0: 3b4a 6d3d 9c21 fa3b 065d 87be a030 17be
000001e0: 6e1a a6be 46fc 0ebc 0e07 0ebd 48e2 c8bd
000001f0: 4ce0 4cbe 317c a83c b09f 243e c608 fc3d
00000200: c194 7a3e 0bff d2bd e540 0dbe dea0 babd
00000210: 1bd6 afbd 13e2 62bd c408 a0bd 0376 1abe
00000220: 4c2e 1b3c 8afc dfbd ef9b 02be c354 afbd
00000230: 59c0 c9bd 45d7 283d ffda 9c3d 0c02 73bd
00000240: 6f7e 8c3e 1c5e a1bd 0e66 c33d b7ce bdbd
00000250: e415 dd3c b05d 13be 48ca 2c3d e699 fdbd
00000260: dbbd 643d b845 98be 2941 32be d478 0abe
00000270: 3f83 8fbd 95a0 36be 6d20 f8bd 8db1 0bbc
00000280: 349a a73d 2fce 9e3d 133b 24be ff5f 80be
00000290: b72d 83bc 288c 2d3c dab5 143e 5452 903d
000002a0: 1003 8b3e fc32 823d ca07 13bc aa9c 01bc
000002b0: e568 7c3d 7166 ca3d 5da4 70bd 7376 7a3d
000002c0: 8b2e 243e 680d 60be 3975 e5bc 9df6 b33d
000002d0: d1e6 56bd 5cd4 debc 8099 debc 59bf a9bd
000002e0: a1ab 43bd 6be1 f6bc 96a6 853e c7f3 c53d
000002f0: 3fc6 b7bd 970b 073c a4a6 8e3c 5b20 f33d
00000300: b273 19be a0ed e43d 45b1 393e 0c92 21be
00000310: 9a74 563c c5af 1cbe 55bb 90bd bd92 183d
00000320: 4666 61bd b1bb b8bd 782f 9bbd 5c04 f1bc
00000330: 33fd 05bc cd4a bd3d 30a6 713e 0d4b 2ebd
00000340: 7549 14be e07e ebbd e637 173e b5b0 ef3c
00000350: d1d6 793d d193 a4bc 9585 56bd f56c 1c3d
00000360: b544 93bc b69c 883d 3cf6 97bd 864d 1bbe
00000370: ba73 a2bd b52c 83be 47df 553d 298b 2fbd
00000380: d2ef e9bd 2d3d 3abd ecf9 23bd 57ce 9bbe
00000390: 6c58 59be d5e7 02be ec8e a0bd 7b50 893e
000003a0: 9876 673d 7450 e13d 4796 5f3c 0283 d6bc
000003b0: f541 163c 218e 89bc a822 fbbd 99e4 88bd
000003c0: 869d 0ebe b86e 0d3b 796f 0cbe 662b 14be
000003d0: 5790 7ebe abbd febd c5f7 7e3d c9ca 103e
000003e0: b604 5e3d 1271 bd3d 21e6 083e 5e8f f83d
000003f0: 5dbe 153e 8036 25bd 21e0 0d3e d60a 8abe
0.0966881 0.06593212 -0.039874513 0.08085788 0.010077075 -0.3197793 0.1975382 -0.10095425
-0.24700913 -0.090984136 -0.082447864 0.07065643 -0.018895844 0.025209147 0.2214451 -0.12498565
-0.09283196 0.14609446 0.07648662 -0.05044774 0.11707304 -0.017109487 -0.21078639 -0.02200347
-0.03409244 0.08280584 -0.15383382 -0.092125446 -0.05716877 -0.28087753 -0.1203434 0.1896593
0.16813838 -0.022452764 -0.18008101 0.055807494 -0.07990548 -0.03021262 -0.20575862 0.1836238
0.051035676 -0.06978079 -0.022307187 -0.035050455 -0.045988083 -0.12388119 -0.276234 0.0020416374
0.19271617 0.12186731 0.07161091 0.11553546 -0.06255082 -0.11327886 0.21445748 0.13481553
0.0632555 -0.049375027 -0.1301269 -0.19351526 0.0017333225 -0.19955535 -0.08660142 -0.121255405
-0.14774999 -0.006740972 0.18165727 0.04711706 0.17949642 0.043613717 -0.14667435 0.09178255
-0.24561112 -0.104355514 -0.16306531 -0.058639143 -0.09280426 -0.19866724 0.02981327 0.21210158
0.09924339 -0.12798685 -0.009871625 0.10125883 -0.114266805 -0.20006129 -0.118746236 0.04341589
0.15407383 -0.17801349 0.095025815 0.045871623 -0.08124269 -0.046402358 -0.05885771 0.036944333
0.010445599 0.021264749 0.18842179 0.15594098 -0.13730021 -0.05566846 0.018265033 0.07237183
0.014253881 -0.3462413 0.024799531 0.07172963 0.05184469 0.07553734 -0.053729028 -0.14790115
-0.00327043 -0.09074883 0.18062888 0.012553173 0.05793212 0.007633401 -0.2643816 -0.14764643
-0.3244204 -0.008727139 -0.034674697 -0.09808785 -0.20007437 0.020567032 0.16076541 0.12306361
0.24470808 -0.10302552 -0.13794287 -0.09112714 -0.08585759 -0.055391382 -0.07814172 -0.1508408
0.009471487 -0.1093684 -0.12754796 -0.08561089 -0.098511405 0.041220922 0.07658958 -0.059328124
0.2744021 -0.07879278 0.0954095 -0.09267943 0.026987977 -0.14391208 0.042185098 -0.123828694
0.055845123 -0.2974069 -0.17407669 -0.13522655 -0.07007455 -0.17834695 -0.1211556 -0.008526218
0.08183709 0.0775417 -0.1603816 -0.2507324 -0.01601301 0.010592498 0.14522496 0.07046953
0.27150774 0.06357381 -0.008974025 -0.007910887 0.061623473 0.098828204 -0.0587505 0.06114812
0.1603338 -0.21880114 -0.028009998 0.08787272 -0.052466217 -0.02720087 -0.027172804 -0.0828845
-0.0477711 -0.030136785 0.26103657 0.096656375 -0.08973359 0.008242509 0.017413445 0.11871406
-0.1498554 0.11178136 0.18134029 -0.15778369 0.013089323 -0.15301426 -0.07066981 0.037249316
-0.055029176 -0.09020174 -0.07577413 -0.029421024 -0.008178043 0.09242783 0.23598552 -0.042552043
-0.14481147 -0.11498809 0.14767417 0.029259065 0.06099588 -0.020090016 -0.052373488 0.038189847
-0.017977098 0.06670515 -0.07420012 -0.15166292 -0.07932229 -0.25620046 0.052214887 -0.042857323
-0.11422695 -0.045468498 -0.040033266 -0.30430862 -0.21225137 -0.1278375 -0.0783976 0.26819214
0.056509584 0.11001673 0.013646669 -0.026185516 0.009170999 -0.016791405 -0.122624695 -0.066842265
-0.13927278 0.0021580886 -0.13714398 -0.1446968 -0.24859749 -0.1243852 0.06224801 0.14139856
0.05420371 0.09250082 0.13369037 0.1213672 0.14623399 -0.04033518 0.1385503 -0.26961392

conv3.bias f4 [32]
00000000: 07cc 11bc 9f15 efbc 22b6 e1bd d6c6 14be
00000010: 39b1 53be 89b1 e8bd af74 8bbd dcc5 7e3d
00000020: 9fc9 44be a421 fdbc eab2 b8bd 3664 d6bd
00000030: 2580 94be 2e21 d3bd 6255 a3be fef9 9dbe
00000040: c944 61be 5a0b 07bf 2212 12be 84f6 18bd
00000050: 155e 963c 31ed 94be 5aa3 01bc 50df b13d
00000060: e3a6 ffbd 55c7 77bd 4b35 07be a25d 103d
00000070: 31fc 50be 33f8 f7bc 414a 1ebe d6c1 2bbe
-0.008898742 -0.029185114 -0.11021067 -0.14528975 -0.20673074 -0.11361987 -0.06809365 0.062200412
-0.19217537 -0.03089983 -0.090185 -0.104683325 -0.29004017 -0.10309063 -0.3190108 -0.3085479
-0.21998896 -0.52751696 -0.1426473 -0.03734447 0.018355409 -0.29087213 -0.007912481 0.086851716
-0.12483003 -0.060492832 -0.13203923 0.035245545 -0.20408703 -0.030269718 -0.15458013 -0.16773161

bn3.weight f4 [32]
00000000: 3268 773f d0a9 7e3f 99d2 7d3f 3945 5a3f
00000010: b6b0 893f ccfd 693f 738b 7d3f 14bd 5a3f
00000020: 2821 8d3f e178 7c3f e84d 7f3f 15ad 823f
00000030: 90fb 7b3f 5017 663f 74ec 7e3f 7613 843f
00000040: 44b5 6d3f 54d3 8d3f a052 703f cde4 6c3f
00000050: ebb2 7d3f daef 883f 120d 8c3f 46e7 663f
00000060: da7f 863f b62d 543f 50bd 803f 80cc 7a3f
00000070: 6105 673f 1b35 713f 7e21 813f db16 843f
0.96643364 0.99477863 0.9914947 0.85261875 1.0757053 0.9140289 0.9904091 0.8544476
1.1025743 0.98621947 0.9972825 1.020907 0.9843073 0.8987932 0.9957955 1.0318439
0.92854714 1.1080117 0.93876076 0.9253662 0.9910113 1.0698197 1.0941489 0.90196645
1.0507767 0.8288225 1.0057774 0.9796829 0.9024258 0.9422166 1.0088346 1.0319475

bn3.bias f4 [32]
00000000: d93b 233e 146a 4e3e d4ed 2b3e aa71 4a3e
00000010: 25e2 58be 3a81 55be edf1 003e 4e62 003f
00000020: 4c60 23be 577b 7fbc 0de4 ac3e d752 433d
00000030: d903 ae3d a38e 35be 9126 a23e bc04 a83c
00000040: ed87 863e 0fe4 97be 3da3 b7bd 8e5f b53d
00000050: 56f5 d93d 5c6c a2be 0ed9 ae3e 101b bbbd
00000060: ba15 893e 1268 143e 5282 67bd f929 b23e
00000070: 899b 923d df15 bc3d 1dd9 783d baa0 353e
0.15940799 0.20157653 0.16789943 0.19769922 -0.21180017 -0.20850077 0.12592287 0.5015
-0.15954703 -0.015593371 0.3376774 0.047686424 0.08496828 -0.17730193 0.3167005 0.02051007
0.26275578 -0.29666182 -0.08966682 0.08856116 0.10642497 -0.31723297 0.34149975 -0.09136021
0.2677439 0.14492825 -0.056520768 0.34797648 0.07158572 0.09183859 0.06075393 0.17737094

bn3.running_mean f4 [32]
00000000: 62df e83e 145b ef3e e24f 993e d140 363f
00000010: 2f98 6b3e 8d62 473f 1004 d23e cd93 bb3e
00000020: fef8 853e 75f6 073f 2659 bc3e 2c74 773e
00000030: 4cd7 9b3e de57 fb3e 24d2 3b3e 696f b03e
00000040: ed2e e93e aa0d fe3d 68f3 e13e 6f7f 493f
00000050: 6ad4 883f cb23 053e fdd6 e03e 514a 7f3f
00000060: adb5 813f 0955 9f3e 9ac0 b33e 1e2f 713f
00000070: df20 033f 8395 9e3e ccea 053f 963e 653e
0.45482928 0.46749175 0.29943758 0.7119265 0.23007272 0.7788475 0.41018724 0.366362
0.26166528 0.5311044 0.36786765 0.2416541 0.30437696 0.49090475 0.18341881 0.3446
0.45543614 0.1240495 0.44131017 0.78710073 1.0689824 0.13001935 0.43914023 0.9972277
1.0133568 0.31119564 0.3510788 0.9421252 0.5122203 0.30973443 0.52311397 0.22387156

bn3.running_var f4 [32]
00000000: 3bea 033f 5245 373f f4a4 103f cfed 853f
00000010: 248a ce3e 45b2 c43f 7b02 083f 1836 193f
00000020: 9c9b 093f 2174 653f c601 823f 9c47 d33e
00000030: 9ec5 093f 0f6e 9e3f 0915 503e 4a5d bc3e
00000040: 7901 583f a0b4 333e 8fca 753f 7830 b63f
00000050: e03e bf3f 8321 703e 0172 f63e ad6f 1c40
00000060: d965 f73f 7d96 0c3f ddcc 0e3f 9752 7f3f
00000070: 16f1 533f 7b60 013f 044c 753f 78f0 d03e
0.5152928 0.7159015 0.565017 1.0463198 0.40339768 1.5366904 0.53128785 0.59848166
0.53753066 0.89630324 1.0156791 0.4126557 0.53817165 1.2377337 0.20320524 0.36789924
0.8437725 0.17549372 0.96012205 1.4233541 1.4941063 0.23450284 0.48133853 2.4443161
1.9327956 0.54917127 0.55781347 0.997354 0.8278974 0.5053784 0.95819116 0.40808463

conv4.weight f4 [64, 32, 3, 3]
00000000: 7642 2cbc 604c 9b3a aeab 033e f30c a13c
00000010: d557 e53d f101 103e 8c37 0d3d 1cee d23d
00000020: cf71 19bd 43b5 98bd 17df e9bd 140b b3b9
00000030: 51c2 93bc b641 7f3c ae0c ccbd a779 9a3d
00000040: 1f2d e9bb 8113 1cbd 92c2 843d b518 a53d
00000050: fb57 1cbd f2f6 633e d714 063e 7fdf 343e
00000060: b239 81bd 32d9 93bd 643a b2bc 7de0 063e
00000070: e8ee 563c 5a36 003c e304 573d f534 1cbd
00000080: af67 b73b e3ca 76bd 8d98 c3bd 3faa f3bd
00000090: 5dbc c43d 22bd f73a 476b 7dbd 7985 693d
000000a0: 1d7a e9bc efd2 953d 84f3 6dbd b325 1dbd
000000b0: d698 a53d 63fc 0f3e 1175 02bd 41bf 1dbd
000000c0: ee0a 92bc 32e9 bdbd 08b6 5abe 5ef2 2a3e
000000d0: c79d 133d b829 343e c125 c53d 49d8 b43d
000000e0: 003e 04bd 5ab9 8f3d 67b3 8d3c 0306 be3d
000000f0: fec1 3ebe b8c1 253d bcc4 febd 9854 08be
00000100: 83ee ac3a 92c2 353d 4a87 823d 5105 f33c
00000110: 319c eebd 43c6 3bbe ff2f bebd 6e99 aebc
00000120: 7f0d 903d 1879 8a3d 4f11 4abb a731 7b3a
00000130: 0fe4 70bd cb7e 16bd 1a35 18be 5f62 22be
00000140: 58a9 4ebd 0edd 15be bf69 15be 4edd 3e3c
00000150: 9695 06be 8fa3 fcbc bf95 42bc b1e6 b5bc
00000160: 2be5 063e ee10 da3d 1f6a b3bd a0de 473d
00000170: a9e2 da3b 5271 16bd 252f 613d 01f6 99bd
00000180: 6439 71bc 7211 c2bc 9fb6 bc3c 5b43 893d
00000190: 0c8f cbbd 3df3 9abd 2d9b 3cbe 3b9e 57be
000001a0: 1479 7fbe 90d2 f7bd 7ccd 09be b24e 16bc
000001b0: debc 543e df87 16bd f401 76bc be48 ef3b
000001c0: 1b8d cd3d 69fe 613d bcee 063e 8707 e73d
000001d0: 06f2 f83c d825 93bc 9f22 80bd b5f3 143c
000001e0: 00c1 0c3e 6343 49be 767d f8bc 3fc1 63bd
000001f0: b18b f3bc 35b6 a6bd 81be f3bd a424 fabc
00000200: 8397 b3bd d212 cebd 8bbe b3bd eae2 53bd
00000210: 88a2 333d 38c1 ccbc 8cb3 ee3c bf9f ad3c
00000220: ac6e d43c 0c65 d6bd d3ae 9f3c 7848 d53d
00000230: 1e4d bdbc b9ed 0f3e c3aa 5fbd d2c6 18bd
00000240: 2df5 a2bc 597f 8ebd 9136 3f3d 7a93 11be
00000250: 0afe 7ebe 6632 6ebe 7cbd c9bb f375 833d
00000260: 8ad1 d4bc c97a 2d3e b091 04bd 012e acbd
00000270: 1a71 89bc 9af1 ecbd 77fe 19bd 11e1 863d
00000280: d795 343d 5113 88bd 5619 983d b12e f53c
00000290: faf4 6d3d 5c1f 803d 00d3 98bb ca5d 40bd
000002a0: 97e2 4bbd 20a7 bf3d d579 4bbd 0830 283e
000002b0: c5ad f23d 19ca 7a3e 205f 543d 9418 91bd
000002c0: 0458 27be c13d 0fbd 10ed 823d 8d0b a9bd
000002d0: 322b a5be dee6 85bd 8ee4 0ebd aef0 cdbc
000002e0: d6d7 86bd 7189 ae3d 6ae1 03bd 0082 59bc
000002f0: 3222 d23c 8719 a73c b775 ac3d 2ffa 503d
00000300: 816b 703e 9e94 863e 02f0 2b3e eb9d c2bc
00000310: 4fbd 893d f855 ed3c aaa7 753c f16b dc3d
00000320: ea84 74bc db08 80be e28b 51be 9d32 82be
00000330: da74 2a3c ac2a 3abd 5004 da3d 53df c13c
00000340: 2cff e93c c168 b33d f3fb 383e 02f8 6f3d
00000350: 2176 1e3e 3b81 e03c b283 2a3d 0e2c 12be
00000360: 7fd1 5abe e7a2 f33c 2eec 8a3c 6944 5abd
00000370: b319 513b 43df 2e3c 0759 f03d 20f6 133d
00000380: 4c3c 663e 982e 803d c87b 64be dd3d fbbd
00000390: 177c 463c 49d1 9b3d b1c0 bbbc 5b0b 7cbe
000003a0: 223b b8bd 2cab edbb ac08 0fbd a8ad 8fbc
000003b0: 8f2a 96bc c535 563e 305d 883e 4d31 153e
000003c0: f5f2 313e d778 fd3d f5ba aa3d eaf9 a0bd
000003d0: f5dc 9b3d 2632 533d 61f6 4ebe 92f0 a9bd
000003e0: d91c 2cbe 071a 4abb b53e 883d 62bd 1c3e
000003f0: a1b2 913c 7cdc ae3d 3415 d4bc 1a9e 123d
-0.010513892 0.0011848323 0.1285846 0.019659495 0.11198393 0.1406324 0.0344768 0.10299322
-0.037462052 -0.07456448 -0.11419504 -0.00034149794 -0.018036993 0.015579632 -0.09963356 0.075427346
-0.0071159746 -0.038104538 0.06482424 0.08061353 -0.038169842 0.22262171 0.13093887 0.17663382
-0.06309833 -0.07219161 -0.021756358 0.13171573 0.013118483 0.007825458 0.052494895 -0.03813644
0.005597077 -0.06025208 -0.09550581 -0.11897706 0.0960624 0.001890097 -0.061869886 0.057012055
-0.028500611 0.07315623 -0.058093563 -0.03836603 0.08085792 0.14061122 -0.031849924 -0.038512472
-0.017827477 -0.09272994 -0.21358502 0.16694018 0.03603914 0.1759404 0.096263416 0.088303156
-0.03228569 0.07017775 0.01729746 0.092784904 -0.1862869 0.040467948 -0.12439868 -0.1331352
0.0013193641 0.04437501 0.063734606 0.029665621 -0.11650885 -0.1833735 -0.09286498 -0.021313395
0.07033824 0.06761378 -0.003083307 0.0009582289 -0.058811244 -0.036742013 -0.14864007 -0.15857838
-0.050454468 -0.14635107 -0.1459112 0.011649443 -0.13143 -0.03083971 -0.011876523 -0.022204729
0.13173358 0.1064776 -0.08760475 0.048796296 0.006679852 -0.036729164 0.0549766 -0.07517625
-0.014723156 -0.02368996 0.0230363 0.067023 -0.099393934 -0.07565925 -0.1841857 -0.21056454
-0.24948531 -0.121007085 -0.13457292 -0.009174036 0.20775172 -0.03675067 -0.015015114 0.0073023727
0.10036679 0.055174265 0.13177007 0.112807326 0.030388843 -0.017962381 -0.062566034 0.009091307
0.13745499 -0.19654612 -0.030333262 -0.055604216 -0.029729696 -0.08140222 -0.1190157 -0.03053505
-0.08769133 -0.100621834 -0.087765776 -0.051730074 0.043856174 -0.024994478 0.029138349 0.021194337
0.025931679 -0.10468492 0.019492542 0.10414213 -0.023108061 0.14055528 -0.05460621 -0.037298985
-0.0198923 -0.069578834 0.046682898 -0.14216414 -0.24901596 -0.23261413 -0.0061566215 0.064189814
-0.025978822 0.1694137 -0.0323655 -0.08407212 -0.016777564 -0.11569519 -0.037596192 0.06585897
0.04408821 -0.06644309 0.074267074 0.02992949 0.058094956 0.06255981 -0.004663825 -0.046964444
-0.04977664 0.093580484 -0.049676735 0.16424572 0.1184955 0.24491157 0.05184853 -0.07084766
-0.16342169 -0.034971002 0.06392872 -0.08254156 -0.32259518 -0.06538175 -0.034885935 -0.02513918
-0.06584136 0.085223086 -0.032197393 -0.013275623 0.025651071 0.020397915 0.0842089 0.051019844
0.2347851 0.2628526 0.16790774 -0.023756942 0.06725561 0.028971657 0.0149935875 0.10762776
-0.014924267 -0.25006756 -0.20463517 -0.2542924 0.010403836 -0.04545085 0.10645354 0.02366606
0.028564058 0.087602146 0.18064861 0.058586128 0.1547475 0.027405372 0.0416295 -0.14274618
-0.21368979 0.029740764 0.016958322 -0.053287897 0.0031906187 0.010673347 0.117357306 0.036123395
0.22483939 0.06258887 -0.22312844 -0.12267659 0.012114546 0.07608277 -0.02291903 -0.24613707
-0.08995654 -0.0072530713 -0.03492038 -0.01753886 -0.01833084 0.20918949 0.26633596 0.14569588
0.17377837 0.12376564 0.083364405 -0.07860167 0.076105036 0.051561497 -0.20211174 -0.08297838
-0.1680788 -0.0030838267 0.066525854 0.15306619 0.017785372 0.08538148 -0.025889017 0.03579531

conv4.bias f4 [64]
00000000: f868 41be eaad 21be 98b3 63bd b20b 1cbe
00000010: 224b 86be 06e6 e3be 55bd a5be 5f75 d5bd
00000020: b627 97be 1958 74bc 8557 92be a0aa 20be
00000030: c3de 6abe d3ff b53d da71 20bd 418c 75be
00000040: d6de 823c 4b19 12be 959a 34be a471 1cba
00000050: 6cc3 99bd 19fa c2be 66e2 0bbe d841 38bd
00000060: 25de 06be 53ae 5dbe e4b2 e7bd 7e3f f6bd
00000070: 440a 45be 93ca 62be e0cb 80bd bdf4 6cbe
00000080: ed30 c13c 4ea0 1bbe 45fb 89bd 866f d7bc
00000090: 12cd dabe e2ea fcbd 760e eabd eade 23be
000000a0: 6dbf 633c f06f dabd 9563 78bd bdd7 66be
000000b0: 9fd3 cdbd a3d3 50be 73b9 eabb f56a b2be
000000c0: ebc1 043d 6ea9 4dbe c4a7 55be 4b56 2c3c
000000d0: eddb 86be 52d8 75bd 0f3e 013d b0e5 e6bd
000000e0: 47d8 2bbd 5c65 cbbd acf4 9bbd 0cb6 dbbd
000000f0: e441 1dbc bf73 89bc 4e50 80be b4c7 cc3b
-0.18887699 -0.15788999 -0.055591196 -0.15238836 -0.26229197 -0.4451143 -0.3237101 -0.104227774
-0.29522485 -0.014913582 -0.28582397 -0.15690088 -0.2293654 0.08886685 -0.039171077 -0.23979284
0.015975397 -0.14267461 -0.17637093 -0.00059678615 -0.07507977 -0.38081434 -0.13660583 -0.04498467
-0.13170679 -0.2164853 -0.113134176 -0.12023829 -0.19242197 -0.22147588 -0.06288886 -0.23140235
0.0235829 -0.1519787 -0.06737379 -0.026298296 -0.4273458 -0.12349488 -0.114285395 -0.16003004
0.01390062 -0.10665882 -0.060641844 -0.22543235 -0.10050129 -0.20393233 -0.0071632206 -0.34847227
0.032411497 -0.20084164 -0.20864779 0.010518621 -0.26339665 -0.060020752 0.031553324 -0.11274278
-0.041954305 -0.09931442 -0.07615027 -0.10728082 -0.009598229 -0.016778825 -0.25061268 0.0062493924

bn4.weight f4 [64]
00000000: f212 f03f c440 ee3f e75a d73f d2c3 f43f
00000010: 0468 e73f a302 0840 3c25 cf3f 2915 dc3f
00000020: bd3a e93f 40f2 d93f b5da e73f e4c7 fa3f
00000030: 6040 eb3f 1df3 c93f 6325 ea3f 4475 d23f
00000040: 8989 f43f 58a6 cd3f a044 d63f 0759 cd3f
00000050: 60f7 ca3f 71f8 0640 60b8 d63f 7c0e d43f
00000060: e8e6 db3f 3394 ec3f f381 d13f 3664 f93f
00000070: 4b72 f93f 0c74 f73f 3093 d33f c956 eb3f
00000080: 2554 be3f d92b ce3f 9e09 cc3f 667b c93f
00000090: 8ce4 0540 fab7 f43f 637e da3f 366b e43f
000000a0: da64 b83f a8f5 df3f 7a4a d63f c635 d43f
000000b0: 2052 ca3f 36f2 e53f a217 cd3f db91 ef3f
000000c0: 3140 d03f 72de ce3f a3c2 0140 8449 ef3f
000000d0: e768 e83f 0642 f33f 59df ab3f 1c74 fa3f
000000e0: ed73 e53f ca79 dd3f 5890 da3f 60f9 e73f
000000f0: 2d6b d43f 072f c53f edfb df3f cf1a de3f
1.8755782 1.8613515 1.6824616 1.912226 1.8078618 2.125161 1.6183238 1.7193958
1.822105 1.7027054 1.8113619 1.9592252 1.8379021 1.5777317 1.829266 1.6442037
1.9104472 1.6066389 1.6739693 1.6042794 1.5856743 2.1089137 1.6775017 1.656692
1.7179842 1.8482727 1.6367782 1.9483707 1.9488004 1.933229 1.6529293 1.838586
1.4869429 1.6107131 1.5940435 1.5740783 2.0920744 1.9118645 1.706982 1.7845218
1.4405777 1.7496843 1.6741478 1.657891 1.5806313 1.7964542 1.6022837 1.8716387
1.626959 1.6161635 2.0275047 1.869431 1.8157014 1.9004524 1.3427535 1.9566684
1.7926003 1.7302792 1.70753 1.8122978 1.6595207 1.5404977 1.7498757 1.7351931

bn4.bias f4 [64]
00000000: 92dc 423e 3f95 463e ecc6 78be 4c68 cabd
00000010: 0dc4 83be 8db4 8abe af92 97be 1c22 9e3e
00000020: 6cca 1ebe d206 8f3e 6fc7 3bbe 56b1 973e
00000030: b549 7bbe eef5 813e 0a20 89be 4b5c 84be
00000040: f25d bdbe bcb6 81be 9ac0 54be c64c 5a3d
00000050: e8f6 743e c9fa 91be b6a6 583c 6039 723e
00000060: a81c d13d 75e0 93be 87c7 73be 3fb3 8b3e
00000070: e29d 30be 1650 60be 5397 393e 26b8 68be
00000080: b3c4 d3bd 7048 2bbe 28b3 dabd 2bc7 84be
00000090: d39e 6dbe 4d84 853e d1ef 6dbe d5d0 6f3e
000000a0: b3dc 75be bd3e f43d 68fa 7f3e fdec 8ebe
000000b0: 360d 583e 63cf 673e f4b5 6bbe b107 7abe
000000c0: 3fa5 5c3e 369c 77be 0425 8c3e e65f a6be
000000d0: a3f3 63be bf4a 813e 26d0 913e c1bb 45be
000000e0: 0df2 4fbe eb88 883e a9c7 b4bc e0c9 adbe
000000f0: a1a5 183d a85f 7fbe a107 ad3d 63ae 443e
0.19029453 0.1939287 -0.24294633 -0.09883174 -0.25735512 -0.27090874 -0.29604098 0.30885398
-0.15506905 0.2793489 -0.18337797 0.29627484 -0.24539836 0.25382942 -0.26782256 -0.25851664
-0.36985737 -0.25334728 -0.20776597 0.053295873 0.23922312 -0.28511646 0.013223341 0.236547
0.10210544 -0.28882185 -0.23806582 0.2728519 -0.17247728 -0.2190555 0.18124132 -0.22726497
-0.10340252 -0.16726851 -0.106787026 -0.25933203 -0.23205118 0.260775 -0.23236014 0.23419507
-0.24009971 0.11926029 0.24997866 -0.27915183 0.2109879 0.22637706 -0.23018628 -0.24416997
0.21547411 -0.24180683 0.2737199 -0.3249504 -0.22260909 0.2525234 0.28479117 -0.19309904
-0.20307179 0.2666696 -0.022067862 -0.3394308 0.03726733 -0.24938834 0.08448721 0.19207148

bn4.running_mean f4 [64]
00000000: badc 613e 5b2a cf3d a41c 1a3e 0c86 223e
00000010: 5cf4 063e f5db 323d d119 943d 39fb e23e
00000020: c908 d43d 6bf0 c43e 1f6b 733e 1eee 7d3e
00000030: 3425 6f3e a5e7 013f 82bf 4d3e 7969 163e
00000040: 6767 013f a04a 0c3e a799 813e 9ac4 d73e
00000050: 811d b93e 0fd7 2a3e 64f6 8b3e 4445 003f
00000060: 4ee7 523e 900d db3d 6b0e 883d 0f31 623e
00000070: cc11 073e d6dc 403e 2d8e a93e 212d 1a3e
00000080: 7ae4 8c3e 6ad4 753e b3f7 943e 01fb 683e
00000090: cf23 1b3e 1d49 ad3e 5f1a 673e 6308 333e
000000a0: 4c06 833e 6f8a 9a3e 2d8b 073f aff1 bd3d
000000b0: 2f46 8d3e 4b71 7a3e 06ed 753e 5f79 a43d
000000c0: 4056 ab3e a32e 733e 9df0 813e e70b 283e
000000d0: 98c7 a83d 7ebf 333e 0980 c13e e349 073e
000000e0: e09d 4f3e dbef b23e f907 773e a822 073e
000000f0: 67e0 cc3e 43a4 763e 9d46 c73d 054c 693e
0.22056857 0.101155005 0.15049988 0.15871447 0.13179153 0.0436668 0.072314866 0.44332293
0.10353238 0.38464674 0.23771332 0.24797866 0.23354036 0.50744087 0.20092586 0.14688672
0.50548404 0.13700342 0.2531254 0.42142183 0.36155322 0.16683601 0.2733642 0.5010569
0.20596048 0.10695946 0.06643375 0.22089027 0.13190383 0.18834242 0.33116284 0.15056278
0.27518064 0.24006811 0.2909523 0.22752 0.15150379 0.33844844 0.22568654 0.17483668
0.25590742 0.3018374 0.5294674 0.09274613 0.27592608 0.2445728 0.24016199 0.08030962
0.3346424 0.23748259 0.25378886 0.1641079 0.082411945 0.17553517 0.37792996 0.1321178
0.20275068 0.3494862 0.24124135 0.13196814 0.40014955 0.24086098 0.09730265 0.22782905

bn4.running_var f4 [64]
00000000: d8ad 043f 396b 073e d3a1 473e 8805 a93e
00000010: 2b90 813e 141e 903d a2f1 b53d f9ba 6e3f
00000020: 97a9 5d3e 90cd 2b3f b779 273f 28e6 203f
00000030: 2e13 f33e 03d6 1e3f 99fc d73e bb3f 733e
00000040: 9f6e 233f 0dd3 403e 5533 0e3f 3aa4 653f
00000050: 37a3 243f fc29 993e 6116 3b3f 5039 833f
00000060: 4c87 083f 0dbe 213e 05be 133e 2745 e23e
00000070: 0326 bf3e 5e2b 083f eb91 183f a382 c43e
00000080: ac79 023f a783 2e3f c6cc 173f 2dae b13e
00000090: 1e21 d23e c6d6 393f c94a 123f 103a 9a3e
000000a0: 31c5 f03e b4c4 f83e c3ad 7c3f 1f64 1b3e
000000b0: 07d4 083f be5c e63e 78e7 dd3e 07b9 4c3e
000000c0: 7329 023f 660a 283f f0c9 013f af63 633e
000000d0: e0bb 123e e282 713e 431c 213f 7873 9f3e
000000e0: ef1f 0e3f 49c2 663f c409 cd3e 4cc5 4a3e
000000f0: 0549 7c3f 6f4b ce3e 7276 5d3e 8162 b63e
0.51827765 0.13224496 0.19495325 0.33012033 0.25305304 0.07036987 0.088839784 0.9325405
0.21646725 0.6711054 0.654201 0.6285119 0.4747557 0.62045306 0.42184904 0.2375478
0.6384067 0.1883051 0.55547076 0.89703715 0.64311546 0.29914844 0.7308102 1.0251865
0.53331447 0.15795155 0.14427955 0.44193384 0.37333688 0.53191173 0.59597653 0.38380918
0.50966907 0.68169636 0.59296834 0.34703198 0.4104089 0.72593343 0.57145363 0.30122423
0.47025445 0.48587573 0.9870264 0.15174912 0.5344853 0.44992632 0.4334066 0.19992457
0.50844496 0.65640867 0.5069876 0.22205995 0.14329481 0.23585084 0.6293375 0.31142783
0.55517477 0.90140206 0.40046513 0.19801825 0.9854892 0.40291926 0.21627215 0.35622028

lin.weight f4 [10, 64]
00000000: 12f7 11bf 6fba f8bd e84f 9dbe 6d6e 0e3f
00000010: 07f2 b6be eae9 08bf fd37 53be d248 db3e
00000020: 611f cdbe 6daf 153f 1459 923d 491f 04be
00000030: e9d4 00bf 24a1 8abe b79f a9be a146 893e
00000040: 4506 44bd 5b3a 15bd 8032 d03e ecfb 883e
00000050: 9d96 8a3e a649 e43e 8eb9 d33e 8b61 f63e
00000060: 78ed ea3e 845d a9be 989b 02be f080 ecbe
00000070: 49f3 9a3d dd78 e8bd a5f0 ab3d c658 ccbe
00000080: 8076 d7be 47d8 b03e a07d 9c3e 68b8 a5be
00000090: 7c42 dabe b575 f8be 9df1 c8be b841 1f3f
000000a0: 29df b2be 9408 a9be 3dfb d63e b625 babe
000000b0: 6626 053f a28a 613d 1e47 91be ace7 8cbe
000000c0: 34d1 d63e a666 eebe 9d04 5abd 66a6 95be
000000d0: 5bdb f5be 8cd5 9a3e c73c 923c 8215 843d
000000e0: 3bbe 813e 4065 ba3e 1acb 0d3f 8ef8 263e
000000f0: d876 dd3e e4cc e7be 5116 14bf 03bf 513e
00000100: e675 113f f2c5 2a3f b210 a1be c6f7 00bf
00000110: e248 ea3e 5028 0d3f 8f60 bfbe ed48 c13d
00000120: 02b4 013f d2f2 12bb eae5 e1be 3ccf c93c
00000130: 1e81 4a3e 9fd0 9c3d 8879 1a3e d073 d2be
00000140: 730c 7c3d 9e07 09bf 37ef d7be 6008 bf3e
00000150: 84a6 d3be c204 d4be faac dcbe 0821 543e
00000160: 3381 21bf 2cb7 a23e aee0 acbe 9a92 113f
00000170: dcb1 f3be 184e d5be a57e da3e 91c4 1abe
00000180: 09db 1b3e 132b ccbe 9349 cdbe eacd 81be
00000190: 644d 563c 299d 003f 07bb 183d 42f4 99be
000001a0: 8ed8 65be e40c 7dbe d668 a53e 4d38 69bd
000001b0: 68ac 15be cce9 2a3f cfb8 e2bd f7f6 bebe
000001c0: 255b a93e fa33 5ebd dbb0 f63e 3a8c dcbc
000001d0: 682c fd3e de35 1e3d bb67 323e 70ab e8be
000001e0: 5cf2 96be ed0e 48be de02 30bc af69 a6be
000001f0: 0d52 78be 39c1 e23d d3a1 343f f3b8 0a3f
00000200: 1893 0dbf 61dd c6be 3dd4 87bd 4adb 31be
00000210: 0289 2a3e d08c e73e 2657 503f 8900 96be
00000220: c208 45be 715e 03bf d2e3 3abe abfb f2be
00000230: 295f 053f ea04 863d b460 a83e 7210 393f
00000240: 3ce5 113f 17a8 4a3f 0fec d6bd 513c 7ebe
00000250: 2934 f2bd 2412 ca3e e213 dfbe 7311 dabe
00000260: 1614 8dbe c0f1 183f c920 b53b 2862 33bf
00000270: 8b01 71be 7a2d 9ebe d0cf 503e 7545 92be
00000280: ff82 303e 6bac 37be 4dc1 c1be b268 393e
00000290: cd43 ebbd 4ff2 1bbf 7792 aa3d fc56 00bf
000002a0: 7128 3d3e 9bff 88be 3ba3 d3be 200e 483f
000002b0: 968a 83bd dc6b eabe 9b25 28be c6f5 0fbe
000002c0: a6b2 adbe a565 89bc a8c4 67bf d9e0 e33e
000002d0: af38 34be b22d d63e 4a4c 663e 57b9 acbe
000002e0: 9f1a 4abe 9510 19bf 44a3 91be 6a00 303f
000002f0: 48ba a1be cd4b b93e f281 9cbe 739b dfbe
00000300: eec6 db3e 4ebf b8be 2656 9b3d 0396 b9be
00000310: 2ba6 b9be 1526 95be 1c89 e93c 7084 653e
00000320: bfd9 dbbe fee1 88be fb25 2d3f ca2f 323f
00000330: 94fa 7f3e 05c9 bc3e bc06 debe 1a07 65be
00000340: babf b1be 8fea 84be 3be7 c73d 9eb0 03bf
00000350: 635e d73e 540d c1be d003 813e e39a eabe
00000360: c790 eb3e 833a 9abe 7d90 1cbe c333 2b3e
00000370: 6b4c 3e3f db05 ea3e 62c9 29bf 930c 173f
00000380: f3f2 793e 13bb 323e 5926 9e3e 3e4e 973e
00000390: 5c8d 613f 81db e83e 626f 243f 9a28 f43d
000003a0: 43f2 ad3e 0b94 0a3f ad19 b0be fefb 82bc
000003b0: da97 cbbe d13e aabe 5c1b ee3e bc4d 33be
000003c0: f212 91be 5ca1 803e 1c3d 1abf e551 b4be
000003d0: d0ea 81be 0976 dabe abaa 0cbe af22 c33d
000003e0: 366e d0be 93f5 103f 4a5d fcbe d034 b9be
000003f0: 420b 233e 0c0f a43c e707 6ebe b5b8 e9be
-0.57017624 -0.121449344 -0.30725026 0.55637246 -0.35731527 -0.53481925 -0.20626827 0.42828995
-0.40063003 0.58470803 0.071458966 -0.1290256 -0.50324875 -0.27076066 -0.33129665 0.26811698
-0.04785754 -0.036432605 0.40663528 0.267547 0.27068034 0.4458744 0.41352504 0.48121294
0.458843 -0.3307916 -0.12754667 -0.46192122 0.07565934 -0.11351178 0.08395509 -0.3991148
-0.42082596 0.34540007 0.30564594 -0.32367253 -0.4262885 -0.48527303 -0.39246836 0.62209654
-0.34935883 -0.33014357 0.41988555 -0.36356896 0.52011716 0.05506385 -0.2837457 -0.27520502
0.41956484 -0.4656269 -0.053227056 -0.29228514 -0.48018917 0.30241048 0.017851247 0.06449415
0.25340447 0.36405373 0.55388033 0.16305754 0.43254733 -0.45273507 -0.5784655 0.20483021
0.56820524 0.6670829 -0.3145805 -0.5037807 0.4575873 0.55139637 -0.37378356 0.094377376
0.50665295 -0.0022422564 -0.44120723 0.02463495 0.19775817 0.07656979 0.15085423 -0.41103983
0.06153531 -0.5352725 -0.42174694 0.37311077 -0.4133798 -0.4140988 -0.4310072 0.20715725
-0.6308777 0.31780374 -0.33765167 0.5686432 -0.47596633 -0.41661143 0.42674747 -0.15114047
0.15220274 -0.39876613 -0.40095195 -0.25352412 0.013079975 0.5023981 0.03728774 -0.30069166
-0.2244589 -0.24711949 0.32306546 -0.05693846 -0.14616549 0.66762996 -0.11070406 -0.37297794
0.3307735 -0.054248787 0.48181805 -0.026922334 0.49447942 0.03862559 0.17422383 -0.45443296
-0.2948178 -0.19536944 -0.010742871 -0.32502505 -0.2425005 0.110720105 0.70559424 0.5418846
-0.5530257 -0.38840774 -0.06632278 -0.17368808 0.16653827 0.4522462 0.8138298 -0.29297283
-0.19241622 -0.5131598 -0.18250969 -0.47457632 0.5209833 0.06543906 0.3288628 0.7229072
0.5699041 0.79162735 -0.10494243 -0.24827696 -0.11826355 0.39466965 -0.43569857 -0.42591438
-0.27554387 0.5974388 0.00552759 -0.7007165 -0.23535745 -0.3089407 0.20391774 -0.28568617
0.17237471 -0.17936866 -0.3784279 0.18106344 -0.11487541 -0.6091661 0.08328717 -0.5013273
0.18472458 -0.26757511 -0.41335472 0.78146553 -0.064229175 -0.45785415 -0.16420595 -0.14058599
-0.3392536 -0.0167721 -0.9053445 0.44507483 -0.17599748 0.41831738 0.2249004 -0.33735153
-0.19736718 -0.5979093 -0.28444874 0.6875063 -0.31587434 0.36190644 -0.3056789 -0.43673286
0.4292521 -0.36083454 0.07584791 -0.36247262 -0.3625959 -0.29130617 0.028507762 0.22413802
-0.42939565 -0.26734918 0.6763608 0.6960417 0.24997932 0.36872116 -0.43364513 -0.2236599
-0.34716588 -0.25960204 0.097609006 -0.5144137 0.420642 -0.3770548 0.2519822 -0.45821294
0.46008894 -0.30122766 -0.15289493 0.16718964 0.74335355 0.45707592 -0.6632291 0.5900356
0.24409084 0.17454176 0.30888632 0.29551882 0.8810632 0.45479968 0.64232457 0.11921807
0.33973894 0.54132146 -0.3439459 -0.0159893 -0.3976429 -0.3325105 0.4650525 -0.17510122
-0.28334767 0.25123107 -0.60249496 -0.3521873 -0.2537446 -0.4266818 -0.1373698 0.095281
-0.40709084 0.56624717 -0.49289924 -0.36173105 0.15922263 0.020026706 -0.23245202 -0.45648733

lin.bias f4 [10]
00000000: 34fd 293e 5626 213e 7877 8cbd 796a 513e
00000010: 6fd8 0c3d 8760 6cbe 7819 e0bd 6b57 59be
00000020: 1801 7cbe 5615 73be
0.16600496 0.1573728 -0.06858724 0.20450772 0.034386095 -0.23083697 -0.10942358 -0.21224754
-0.24609792 -0.23738608
