NCC_Code/2022-08-09_00-33-54_model.pt (torch, 115275 bytes, 50 tensors)

conv1.weight f4 [8, 2, 5, 5]
0	0x3e85760d	0.26066628
1	0x3cbc3e3e	0.022978898
2	0xbde869d4	-0.1134831
3	0x3e093819	0.13400306
4	0x3d4d9e95	0.050200064
5	0xbe2ba1e5	-0.16760977
6	0xbeb2eb57	-0.34945175
7	0xbeb994cd	-0.36246338
8	0xbe614375	-0.21998389
9	0xbee2c21e	-0.44288725
10	0x3ded66c2	0.11591865
11	0x3d8214d4	0.06351629
12	0x3cc398fb	0.023876658
13	0x3eb7490e	0.35797924
14	0x3ebc1768	0.36736608
15	0x3deae57e	0.114695534
16	0x3e6c5947	0.23080932
17	0x3e9a187f	0.30096814
18	0x3e9239df	0.28559777
19	0x3e829663	0.2550536
20	0x3ea3b73c	0.31975734
21	0xbd06c48c	-0.032902285
22	0x3e909c01	0.28244022
23	0x3def1f82	0.116759315
24	0xbce2f52f	-0.027704803
25	0xbddd80c6	-0.10815577
26	0xbdcf925b	-0.10135337
27	0x3e3e90b2	0.18609884
28	0xbe4e8f0e	-0.20171759
29	0xbe533423	-0.20625357
30	0x3bfa33cc	0.007635569
31	0xbd60639f	-0.054782506
32	0xbe2dfe8c	-0.16991633
33	0xbeac533b	-0.3365725
34	0x3d943ec5	0.07238535
35	0xbcc11e63	-0.02357406
36	0x3d8cd141	0.068758495
37	0x3d86b239	0.06576962
38	0xbd9063f4	-0.070503145
39	0x3c9908f9	0.018681036
40	0xbd82c925	-0.063860215
41	0x3d5710f8	0.052506417
42	0x3da1b5ca	0.07896002
43	0x3dadbb3d	0.084829785
44	0xbe295404	-0.16535956
45	0xbcc3ac36	-0.023885828
46	0x3ebf032b	0.37307104
47	0x3d351cde	0.044216983
48	0x3e85fff1	0.2617183
49	0x3ed9ab85	0.42513672
50	0xbe5237c8	-0.20529091
51	0x3e103f2f	0.14086603
52	0xbe72551a	-0.23665276
53	0xbde089a1	-0.10963751
54	0x3dad23e0	0.08454108
55	0x3e722035	0.23645099
56	0xbe29433f	-0.16529559
57	0x3e4efea0	0.20214319
58	0x3ee6c991	0.45075658
59	0x3e92b164	0.28650963
60	0x3d25ef33	0.04051132
61	0x3c645a32	0.01393752
62	0x3a3a41dd	0.00071051513
63	0x3e1091b9	0.14118089
64	0x3d27b9c5	0.040948648
65	0x3e5d2417	0.21595798
66	0x3ea41da1	0.32053855
67	0xbc1dfc19	-0.009642624
68	0x3e4ab0d3	0.19794016
69	0x3f0b81d6	0.5449499
70	0x3e308ec0	0.17241955
71	0xbd11ca98	-0.0355936
72	0xbe907b25	-0.28218952
73	0x3cbb69bb	0.022877565
74	0xbdea9acd	-0.11455307
75	0x3e6cc7e5	0.23123129
76	0xbf021db7	-0.5082659
77	0xbe803a11	-0.250443
78	0xbe01ffa9	-0.12695183
79	0xbe6689d3	-0.22513513
80	0x3e62fcea	0.22166792
81	0x3edd6027	0.4323742
82	0x3dddda68	0.10832673
83	0x3ea7c2e6	0.32765883
84	0x3d3e1cf7	0.04641434
85	0xbe454fc4	-0.1926871
86	0x3e107946	0.14108762
87	0x3b6f1fbc	0.003648742
88	0xbcae8d18	-0.021307513
89	0x3e112ccb	0.14177243
90	0xbdabae68	-0.08382875
91	0x3e2f9d02	0.17149737
92	0x3f41c034	0.75683904
93	0x3e94f9c6	0.29096812
94	0x3ed7960e	0.4210667
95	0xbe3187fa	-0.17337027
96	0xbe00efc6	-0.12591466
97	0xbebf40a4	-0.37354004
98	0xbe04ef1c	-0.12981838
99	0xbed81ad8	-0.4220798
100	0x3e0aba55	0.13547643
101	0x3e878d39	0.26474932
102	0x3e87a2d9	0.2649143
103	0x3d2608d7	0.040535774
104	0x3e8f1dd4	0.27952445
105	0x3d5f67ad	0.054542232
106	0x3cffe405	0.031236658
107	0x3dc87615	0.09788147
108	0x3e622c70	0.22087264
109	0x3e0dc2c5	0.1384383
110	0xbcd88fb5	-0.026435712
111	0xbd54171f	-0.051779862
112	0x3dafdc78	0.08586973
113	0x3d1e99d1	0.03872091
114	0x3e42d206	0.1902543
115	0xbe6329e0	-0.22183943
116	0x3eab59e3	0.33467016
117	0x3e897afc	0.26851642
118	0x3ee94da4	0.45567048
119	0x3e3cfa7e	0.1845493
120	0x3eb12bdd	0.34603778
121	0xbe315eb5	-0.17321284
122	0x3d907efd	0.07055471
123	0x3dbfb3cf	0.09360468
124	0x3e8f656d	0.2800707
125	0x3c824d75	0.015906075
126	0x3e243e1b	0.16039316
127	0xbc5e4b42	-0.013567748
128	0x3e932fb9	0.28747347
129	0x3d0d3f47	0.034484174
130	0xbea75bb6	-0.32687157
131	0xbd6b3ccd	-0.05743103
132	0x3e381d31	0.17979886
133	0xbdfddf5c	-0.12396118
134	0x3e2b6e8b	0.16741388
135	0xbd2f55f1	-0.04280657
136	0x3e3fc2b2	0.18726614
137	0xbd0081aa	-0.031373657
138	0x3e1c733a	0.1527833
139	0x3ddc53fb	0.107582055
140	0x3e85f69e	0.26164716
141	0x3dcf57ad	0.10124145
142	0x3f06d75b	0.52672356
143	0x3e612593	0.2198699
144	0x3e95c2c5	0.2925016
145	0xbe48a3d4	-0.19593745
146	0x3e53aa06	0.20670328
147	0xbde00449	-0.10938317
148	0x3ca25da4	0.019820042
149	0x3c889e8e	0.016677167
150	0xbe9076fe	-0.28215784
151	0xbea2038f	-0.3164334
152	0xbde1aa95	-0.11018864
153	0xbe6cdf3a	-0.23132029
154	0xbe8c87a6	-0.27447242
155	0xbe221b4d	-0.15830727
156	0xbdbdc020	-0.092651606
157	0x3e073e63	0.13207392
158	0x3d8e1b74	0.0693883
159	0x3e66afec	0.22528046
160	0x3e7f7bfc	0.2494964
161	0xbd0e4184	-0.03473045
162	0x3e816e82	0.25279623
163	0x3df758c3	0.12077477
164	0xbd4f49ad	-0.050607372
165	0x3d6e380f	0.05815893
166	0xbe80ff15	-0.25194612
167	0xbd6442cf	-0.055727776
168	0xbd7190b6	-0.058975898
169	0xbd6f6391	-0.058444563
170	0xbda382f9	-0.079839654
171	0xbe061661	-0.13094474
172	0xbd85d350	-0.06534445
173	0xbd02dfd3	-0.031951737
174	0xbe34b8a1	-0.17648555
175	0xbdd5b3c8	-0.10434681
176	0xbe96f865	-0.29486385
177	0xbebf300e	-0.3734135
178	0xbe926e25	-0.2859966
179	0xbe6913fc	-0.2276153
180	0xbe12aecb	-0.1432449
181	0xbe840c61	-0.25790694
182	0xbe1ff6a1	-0.15621425
183	0xbe29b20b	-0.16571824
184	0xbd6ac1f9	-0.057313893
185	0xbe5e22d2	-0.2169297
186	0x3d91a6a5	0.07111863
187	0xbe4758a1	-0.19467403
188	0x3e2f046e	0.17091534
189	0x3cdec1e0	0.027192056
190	0xbe91e07f	-0.2849159
191	0xbc47ddf0	-0.01219891
192	0xbe42f01a	-0.19036904
193	0xbe69c9d1	-0.22830893
194	0x3e02893a	0.1274766
195	0xbe0df7ef	-0.1386411
196	0xbea01b63	-0.31270894
197	0xbdabac87	-0.08382516
198	0x3d9182d8	0.071050346
199	0xbdbde0b9	-0.09271378
200	0x3e427754	0.18990833
201	0xbe76b6d9	-0.24093188
202	0x3cef67c7	0.02922429
203	0x3e5c05fe	0.21486661
204	0x3e2c021f	0.16797684
205	0xbeb5128c	-0.35365713
206	0xbe89ea65	-0.2693664
207	0xbeb1a93c	-0.34699428
208	0xbe920e3b	-0.28526482
209	0xbd94197f	-0.072314255
210	0x3d3cd678	0.04610297
211	0xbe2e5437	-0.17024313
212	0xbe5d1c62	-0.21592858
213	0xbe297d5e	-0.1655173
214	0x3e0b96d3	0.13631754
215	0x3e481545	0.19539364
216	0x3dd33c8f	0.10314285
217	0xbcbb0b8f	-0.02283266
218	0x3e0653b0	0.13117862
219	0x3e3893b0	0.18025088
220	0x3c691539	0.014226251
221	0x3e53e495	0.20692666
222	0x3d39cb0b	0.045359652
223	0xbd8e65d4	-0.06953016
224	0x3db425a1	0.0879624
225	0xbe0b17e1	-0.13583328
226	0x3e88acd0	0.26694345
227	0xbc800b35	-0.015630344
228	0xbddc2c91	-0.10750688
229	0xbde7ccd1	-0.113183625
230	0xbdfa0039	-0.12207074
231	0xbec865fe	-0.39140314
232	0xbeae133a	-0.33999044
233	0xbecb5885	-0.39715973
234	0xbe91dfd5	-0.28491083
235	0xbdeaa249	-0.11456735
236	0xbe69b166	-0.22821578
237	0xbda70764	-0.081557065
238	0xbe4b70e0	-0.19867277
239	0xbeb96222	-0.36207682
240	0xbe771ac5	-0.24131306
241	0xbc944fb9	-0.018104421
242	0x3d53e66c	0.05173342
243	0x3c97173f	0.018443702
244	0xbd323849	-0.04351071
245	0xbd50c720	-0.05097115
246	0xbe8ab436	-0.27090615
247	0xbe051efd	-0.13000102
248	0xbbbeb994	-0.0058204625
249	0xbe8796d2	-0.26482254
250	0xbea28ba3	-0.3174716
251	0x3cc4a48c	0.024004243
252	0xbdae2214	-0.08502594
253	0xbe99fed9	-0.30077246
254	0xbcf9f936	-0.03051434
255	0x3ce37c91	0.027769359

conv1.bias f4 [8]
0	0x3d86eaf5	0.06587783
1	0xbdfc413d	-0.12317131
2	0xbc8215b2	-0.015879486
3	0x3e8600a0	0.26172352
4	0x3eb814b5	0.35953298
5	0xbe23e8a4	-0.16006714
6	0xbda1368b	-0.07871731
7	0x3e1fc6f9	0.15603246

bn1.weight f4 [8]
0	0x3f956973	1.1672806
1	0x3f85633b	1.0420908
2	0x3f6cb23f	0.9245948
3	0x3f5b2551	0.85603815
4	0x3f71820a	0.9433905
5	0x3f7d5efc	0.9897306
6	0x3f815563	1.0104183
7	0x3f7c4472	0.9854194

bn1.bias f4 [8]
0	0xbdd9fcca	-0.10643919
1	0xbc48141e	-0.012211828
2	0xbe2028f0	-0.15640616
3	0xbdf551be	-0.11978482
4	0x3de7f0db	0.113252364
5	0xbd28132e	-0.041033916
6	0x3de63e26	0.112423226
7	0x3e05e1c7	0.13074408

bn1.running_mean f4 [8]
0	0x3f05d244	0.52273965
1	0x3f860a8e	1.0471971
2	0x3fcaedfe	1.585388
3	0x3fc60991	1.547167
4	0x3fbd2dac	1.4779563
5	0x3e86e5f0	0.26347303
6	0x3f143030	0.5788603
7	0x3f218a18	0.6310134

bn1.running_var f4 [8]
0	0x3fa189fe	1.2620237
1	0x40bd5fa7	5.9179263
2	0x41210538	10.063774
3	0x3ff262db	1.8936418
4	0x3fd81378	1.6880941
5	0x3eae995c	0.3410138
6	0x404ad541	3.169266
7	0x3f736f3c	0.95091605

conv2.weight f4 [16, 8, 3, 3]
0	0x3e0c7265	0.13715513
1	0x3e488b2c	0.1958434
2	0x3dc5dc50	0.09661162
3	0x3e8fe133	0.281015
4	0xbd651c7b	-0.055935364
5	0xbe08664f	-0.13320278
6	0xbcb4d8f4	-0.022076108
7	0x3e3f658a	0.18691078
8	0x3e46b7f7	0.19406115
9	0x3df63ec2	0.12023689
10	0x3db1b3c1	0.086768635
11	0x3e8ee68b	0.27910265
12	0xbe0720e8	-0.13196146
13	0xbe1cf46b	-0.15327613
14	0xbe02d982	-0.12778285
15	0x3e5d94cf	0.21638797
16	0xbccb3547	-0.024805678
17	0x3d68f45d	0.056873668
18	0xbda3acdd	-0.079919554
19	0xbe5ced12	-0.2157481
20	0x3c43a9a2	0.011942299
21	0x3d4b628d	0.049654532
22	0x3ed95fd6	0.4245593
23	0xbbd5e5ce	-0.006527639
24	0x3e0a83b2	0.135268
25	0x3e6630a6	0.22479495
26	0x3d8b7f8e	0.068114385
27	0xbc0d9156	-0.008640608
28	0xbd5b9b12	-0.053614683
29	0x3e13fed0	0.14452672
30	0xbe65a875	-0.22427543
31	0xbd100f55	-0.03517087
32	0xbd4a7e3a	-0.049436785
33	0x3e7c0e25	0.2461477
34	0x3d85a251	0.065251
35	0x3d8e34e8	0.06943685
36	0x3c7cfbac	0.015440863
37	0xbdf297c3	-0.118453525
38	0xbc552863	-0.013010117
39	0xbe863fe9	-0.26220635
40	0xbe358415	-0.17726167
41	0x3dfc3545	0.12314848
42	0x3e383b3d	0.17991348
43	0x3a387f48	0.00070380094
44	0x3ca9a73f	0.020709632
45	0x3e20a8fc	0.15689462
46	0x3e90e7ac	0.28301752
47	0xbd4be833	-0.04978199
48	0xbe9fddec	-0.31224
49	0xbe36a93f	-0.17838
50	0xbd5b7802	-0.053581245
51	0xbc6c282b	-0.014413874
52	0x3dcfefaf	0.10153138
53	0x3da55242	0.0807233
54	0x3db0a1e7	0.086246304
55	0x3e94cdaf	0.29063174
56	0x3dc6711a	0.09689541
57	0x3e99d673	0.30046424
58	0x3cb1a7bc	0.021686427
59	0xbe6d0d0c	-0.23149508
60	0xbd9eb8df	-0.07750105
61	0xbd5c43f4	-0.053775743
62	0xbe79c1b5	-0.243903
63	0x3e65de2a	0.2244803
64	0x3d6168e5	0.055031676
65	0x3d6185f2	0.05505938
66	0x3be90e6b	0.0071123145
67	0x3def295b	0.1167781
68	0xbe3487a9	-0.17629875
69	0x3e2abeba	0.16674319
70	0xbea5f243	-0.32411394
71	0x3d4a9cc0	0.049465895
72	0x3e08251a	0.13295403
73	0xbd2e4d27	-0.042554047
74	0xbe9607bd	-0.2930278
75	0xbeb24529	-0.3481839
76	0xbe0ef2ec	-0.13959855
77	0x3e2ec7da	0.17068425
78	0xbe012539	-0.12611856
79	0xbd14b1b0	-0.03630227
80	0x3e1bce10	0.15215325
81	0x3d7cff41	0.061766867
82	0xbdc409d4	-0.09572187
83	0xbdef4ca5	-0.11684541
84	0xbe5211e1	-0.20514633
85	0xbe2a89a8	-0.16654074
86	0xbdfb4f7d	-0.122710206
87	0xbb0c5a37	-0.0021416077
88	0xbe90fc26	-0.28317374
89	0x3dd977e7	0.10618573
90	0xbf0c2560	-0.5474453
91	0xbe8cafdb	-0.27477917
92	0xbeb7d406	-0.3590395
93	0xbd691db1	-0.05691308
94	0xbe244198	-0.16040647
95	0x3d485a51	0.048914257
96	0xbf2099bc	-0.6273458
97	0xbd54088f	-0.051765975
98	0x3d1e0a82	0.03858424
99	0xbe1af64d	-0.15133019
100	0xbe3e5e10	-0.1859057
101	0xbd694ca9	-0.056957874
102	0xbdc68b8e	-0.09694587
103	0x3ca0728b	0.019585868
104	0xbdd88828	-0.10572845
105	0xbda4c575	-0.080454744
106	0xbde7731d	-0.11301253
107	0xbe13bdc4	-0.14427859
108	0x3e678ff9	0.22613515
109	0xbd10ba0b	-0.035333674
110	0xbcc48258	-0.023987934
111	0x3b9bfc05	0.0047602677
112	0x3d8f7554	0.070048004
113	0xbd5c2a58	-0.05375132
114	0x3eabec54	0.33578742
115	0xbd821e72	-0.06353463
116	0x3ebf3b07	0.37349722
117	0x3e4b215e	0.19836947
118	0x3e8519f7	0.25996372
119	0xbc6dc92d	-0.014513296
120	0x3dcfbeab	0.10143789
121	0x3d09d771	0.033652727
122	0x3d4fdffa	0.05075071
123	0x3bec5efd	0.007213472
124	0x3d6ec8ab	0.05829684
125	0xbc4f604b	-0.012657235
126	0xbd9ba358	-0.07599515
127	0xbd05602d	-0.032562423
128	0xbe9e565c	-0.30925262
129	0xbdd1a2d4	-0.10236135
130	0x3d33245b	0.043735843
131	0x3d463a50	0.048395455
132	0x3d3da85d	0.04630314
133	0xbd1f409e	-0.038879983
134	0xbd2e0de9	-0.042493735
135	0xbd2126fd	-0.039343823
136	0xbd75321b	-0.059862237
137	0xbe3667ff	-0.17813109
138	0xbe575963	-0.21030192
139	0xbc16ffb2	-0.009216236
140	0x3e1fd63f	0.15609072
141	0xbeaaa7a5	-0.33331028
142	0xbe6a86dd	-0.22903009
143	0xbe872b97	-0.26400444
144	0x3e5759af	0.21030305
145	0xbc5b51df	-0.013386219
146	0x3e5f5668	0.21810305
147	0x3e520e01	0.20513155
148	0x3dd9d0ad	0.10635505
149	0x3ea5ac0d	0.32357827
150	0xbcde14b1	-0.027109476
151	0x3cce50e1	0.02518505
152	0x3c508b4f	0.012728526
153	0xbe96e09a	-0.29468232
154	0xbcc511f2	-0.024056409
155	0xbd999cc3	-0.07500603
156	0x3e8ee62d	0.27909985
157	0xbdb6299f	-0.08894657
158	0x3de97c2d	0.11400638
159	0x3e88c6ca	0.26714164
160	0x3da62f80	0.08114529
161	0x3e1a17ac	0.15048093
162	0xbd407558	-0.046986908
163	0x3d985e24	0.07439831
164	0x3e884881	0.26617816
165	0x3c3e7324	0.011624131
166	0x3d30090c	0.042977378
167	0x3d16dc19	0.036830995
168	0x3d369622	0.04457677
169	0xbc13a1e0	-0.009010762
170	0xbc66f388	-0.014096148
171	0x3bfeab00	0.0077718496
172	0x3eaa5f87	0.33276007
173	0x3cc0c300	0.023530483
174	0xbe77fdec	-0.24217957
175	0x3e98f154	0.2987162
176	0xbb4b844d	-0.00310542
177	0xbe17b042	-0.14813331
178	0xbc8106fc	-0.0157504
179	0xbcac0a23	-0.021000927
180	0xbd16bcbb	-0.03680108
181	0x3df02cf7	0.11727326
182	0x3e691074	0.22760183
183	0x3dfd1074	0.12356654
184	0xbe1e653e	-0.15468308
185	0xbd605e80	-0.054777622
186	0xbab017c6	-0.0013434819
187	0x3d585e07	0.052824046
188	0x3d695bd0	0.056972325
189	0xbed39a0a	-0.4132846
190	0xbe91d251	-0.2848077
191	0xbe85f14d	-0.2616066
192	0x3eb9fa88	0.36323953
193	0x3c7c9970	0.015417442
194	0xbd84c8b4	-0.064835936
195	0xbe802aee	-0.25032753
196	0xbe28e8e4	-0.1649509
197	0xbdeb7579	-0.114970155
198	0x3e607310	0.21918893
199	0x3e99f510	0.3006978
200	0x3dc14b24	0.0943816
201	0xbd8e5538	-0.06949848
202	0x3dec6187	0.11542039
203	0x3d263d3e	0.04058575
204	0xbe2d05bf	-0.16896723
205	0x3ea076d7	0.31340668
206	0xbdb824d4	-0.089913994
207	0xbde029a2	-0.10945441
208	0xbd8dca92	-0.06923403
209	0xbefd75b5	-0.49503866
210	0xbc5d006f	-0.013488873
211	0xbde2e1d6	-0.11078231
212	0x3d2ea182	0.042634495
213	0x3d21a3dc	0.03946291
214	0x3c648efd	0.013950107
215	0x3eb89ca0	0.36056995
216	0x3d88df07	0.06683164
217	0x3dcf6f9c	0.1012871
218	0x3e46c761	0.19411995
219	0x3e615883	0.22006421
220	0x3ece88f7	0.4033887
221	0x3c6040b9	0.013687306
222	0xbeac15dc	-0.33610427
223	0xbebf3031	-0.37341455
224	0xbf05b2cf	-0.52225965
225	0xbe0d77f7	-0.13815294
226	0x3e12d6f8	0.14339817
227	0x3e4a6c17	0.19767796
228	0x3eb73028	0.35778928
229	0x3d956249	0.07294137
230	0x3dd1ca1e	0.10243629
231	0x3da681ba	0.08130212
232	0x3e5c851e	0.21535155
233	0x3ef47d37	0.4775178
234	0xbd027be3	-0.03185643
235	0x3eae4462	0.34036547
236	0xbd2963d0	-0.041354954
237	0x3e18d374	0.14924413
238	0x3daedb91	0.08537973
239	0x3e30f13f	0.17279528
240	0xbdbdabab	-0.09261259
241	0xbdc5c182	-0.09656049
242	0xbdb8eb77	-0.09029286
243	0x3d1c6d59	0.03819022
244	0xbd2b9665	-0.041891474
245	0xbe688b67	-0.22709428
246	0x3f054ffd	0.5207518
247	0x3e40a6f0	0.18813682
248	0x3ceab2a5	0.028649637
249	0x3c9bc590	0.019015104
250	0x3ce30f7d	0.027717346
251	0x3e5a9eca	0.21349636
252	0x3e84be23	0.25926313
253	0xbd8a44fc	-0.06751439
254	0xbd2f2ee7	-0.04276934
255	0xbe00eede	-0.1259112

conv2.bias f4 [16]
0	0xbe269445	-0.16267498
1	0x3e315f43	0.17321496
2	0xbc38cd40	-0.011279404
3	0xbd2f18e8	-0.04274836
4	0xbc1e184a	-0.009649346
5	0xbdc4da1a	-0.09611912
6	0xbd9eb52d	-0.077494
7	0xbd833409	-0.06406409
8	0x3e182b13	0.14860182
9	0x3cb30d7f	0.021857021
10	0xbda1ada2	-0.07894446
11	0x3ddf8b84	0.10915282
12	0xbd5e69c4	-0.054300085
13	0xbcfad86f	-0.030620782
14	0x3dc2efb0	0.09518373
15	0xbe27e573	-0.16396122

bn2.weight f4 [16]
0	0x3f7a63f5	0.9780877
1	0x3f7341cb	0.9502227
2	0x3f6849fb	0.90737885
3	0x3f8fdf50	1.1240025
4	0x3f92279e	1.141834
5	0x3f730731	0.9493285
6	0x3f7c8363	0.9863798
7	0x3f7955fd	0.9739683
8	0x3f773e1f	0.96579164
9	0x3f8000fa	1.0000298
10	0x3f7e92fd	0.99443036
11	0x3f602f51	0.875722
12	0x3f917d53	1.1366371
13	0x3f7e51c8	0.9934354
14	0x3f54265d	0.8287104
15	0x3f43abf9	0.76434284

bn2.bias f4 [16]
0	0xbe9edad7	-0.31026337
1	0x3df13035	0.11776773
2	0x3e47c19c	0.1950745
3	0x3e66ad42	0.2252703
4	0x3e8bef6e	0.27331108
5	0x3c8ff7c8	0.017574206
6	0xbec312af	-0.38100192
7	0x3e9d79e1	0.3075705
8	0x3e604624	0.21901757
9	0xbe81415f	-0.25245187
10	0x3e9dff78	0.3085897
11	0x3d354aac	0.044260666
12	0x3ddf70e2	0.109102026
13	0x3ecee12b	0.40406165
14	0x3d868022	0.06567408
15	0x3d1aeeeb	0.037825506

bn2.running_mean f4 [16]
0	0x3f399e1d	0.72506887
1	0x3fb1183a	1.3835518
2	0x3f0ebd6c	0.55757785
3	0x3edc6bad	0.430509
4	0x3f38390d	0.7196205
5	0x3eccc1e9	0.39991692
6	0x3e94d700	0.29070282
7	0x3edb4c61	0.4283171
8	0x3f8125ee	1.00897
9	0x3ec3af76	0.38219804
10	0x3f2b3c1e	0.66888607
11	0x3f5366bf	0.82578653
12	0x3f31d1f3	0.6946098
13	0x3f38d568	0.7220063
14	0x3fd3bad7	1.6541394
15	0x3f5455e1	0.8294354

bn2.running_var f4 [16]
0	0x40a9c5d5	5.3053994
1	0x3f5d1960	0.86366844
2	0x400db2ef	2.2140462
3	0x3f9b62fe	1.2139585
4	0x3fa6ba23	1.3025554
5	0x3f0ba59d	0.5454958
6	0x3ef8189f	0.48456284
7	0x3f9a9a2e	1.2078302
8	0x3fa939cc	1.3220763
9	0x3ef289f0	0.47370863
10	0x3f383647	0.7195782
11	0x3f748676	0.9551767
12	0x3f5df29d	0.86698323
13	0x3f7ea2d2	0.99467194
14	0x3fa24253	1.267649
15	0x3fee0d16	1.8597744

conv3.weight f4 [32, 16, 3, 3]
0	0xbe0b560d	-0.13607045
1	0xbe94365a	-0.28947717
2	0xbe19cf56	-0.15020499
3	0xbd260237	-0.040529456
4	0x3c370511	0.0111706415
5	0x3ca12142	0.019669179
6	0x3e2252e6	0.15851936
7	0x3ce7bf69	0.028289514
8	0x3c16de5c	0.009208288
9	0x3e22c437	0.15895163
10	0x3e6a66b9	0.22890748
11	0x3e469583	0.19392972
12	0x3e05e2fc	0.13074869
13	0x3db93700	0.090436935
14	0x3d79c0a0	0.060974717
15	0x3d1357c6	0.03597238
16	0xbd9fe77a	-0.078078225
17	0x3c9b3fdb	0.018951347
18	0xbee73340	-0.45156288
19	0xbf028f29	-0.50999695
20	0xbeb80155	-0.35938516
21	0xbd95af1b	-0.07308789
22	0xbe476b13	-0.1947444
23	0xbd01d475	-0.031696755
24	0xbda2cf8b	-0.07949742
25	0x3ddb9644	0.1072202
26	0x3e4605e2	0.19338182
27	0x3d879a7f	0.06621265
28	0xbe263a06	-0.16233072
29	0xbe070cdc	-0.13188499
30	0xbd946dc3	-0.07247498
31	0xbe78e80f	-0.24307273
32	0xbd3aba38	-0.04558775
33	0x3c20b17e	0.009807942
34	0xbd67aa2b	-0.05655877
35	0x3d953717	0.07285898
36	0xbe8ac2c9	-0.27101734
37	0xbe98bdb1	-0.29832223
38	0xbd2f7dbf	-0.04284453
39	0x3caabcba	0.020841945
40	0x3d0a271e	0.03372871
41	0x3c131937	0.00897818
42	0x3eaf75cf	0.34269568
43	0x3e6be4c7	0.2303649
44	0xbb20d0bf	-0.0024538485
45	0xbd50beb9	-0.050963137
46	0xbac6129f	-0.0015111751
47	0xbae2e004	-0.0017309193
48	0xbdc5f54c	-0.09665927
49	0xbe22c270	-0.15894485
50	0x3b8a5c4c	0.0042224284
51	0x3d34eab3	0.04416914
52	0x3cbb153a	0.02283727
53	0x3e0c7e37	0.13720022
54	0x3b19aab3	0.0023447692
55	0x3d435892	0.04769189
56	0xbe3fe6dd	-0.18740411
57	0xbdd2eae7	-0.1029871
58	0x3dc42627	0.095775895
59	0x3e38fcc0	0.18065166
60	0x3dd1bf97	0.10241621
61	0x3e09c80e	0.13455221
62	0x3e49534e	0.19660684
63	0x3e68d612	0.22737911
64	0x3ec6187e	0.3869056
65	0x3c913af0	0.017728299
66	0x3d70aff2	0.058761545
67	0xbd6b7e13	-0.05749328
68	0x3d9661fa	0.07342906
69	0xbed1ebdc	-0.4100026
70	0xbeaad7c5	-0.33367744
71	0xbea19eea	-0.31566554
72	0xbe0ce4b8	-0.13759124
73	0xbecdad8a	-0.40171462
74	0xbe632576	-0.22182259
75	0x3d07aa5d	0.033121455
76	0x3d7709d0	0.060312092
77	0x3e04267a	0.12905303
78	0xbb0a9e9f	-0.0021151674
79	0xbaedf2e1	-0.0018154049
80	0x3cee228f	0.029069213
81	0xbe7f36cf	-0.24923252
82	0xbe4b4c29	-0.19853272
83	0xbe1537ec	-0.14572114
84	0x3dccd50d	0.10001574
85	0x3e46c0e0	0.19409513
86	0x3e0b76fb	0.13619606
87	0x3e132cdf	0.14372586
88	0xbd44f780	-0.048087597
89	0xbdb91208	-0.09036642
90	0xbdbfc6d6	-0.09364097
91	0x3d4189ac	0.047250435
92	0x3e68414b	0.22681157
93	0x3e168b82	0.14701656
94	0xbc98a329	-0.018632488
95	0xbd33de4c	-0.04391317
96	0x3e662295	0.2247413
97	0x3e14c862	0.14529565
98	0x3da197a1	0.07890249
99	0xbe394cdf	-0.1809573
100	0xbe07366a	-0.13204351
101	0xbd9193c2	-0.07108261
102	0x3d565331	0.05232543
103	0xbe16f60b	-0.14742295
104	0xbd1eb24b	-0.038744252
105	0xbdef036e	-0.11670576
106	0x3d6d6fb1	0.057967845
107	0x3e518a96	0.20463023
108	0xbddfdc87	-0.10930734
109	0xbdd67b59	-0.104727454
110	0xbe235ec5	-0.1595412
111	0x3e0509d9	0.12992038
112	0xbdacab68	-0.08431131
113	0xbdc9a699	-0.09846229
114	0x3d6dd72a	0.058066525
115	0xbc94cd9e	-0.018164452
116	0xbe199cfa	-0.15001288
117	0x3d324cc1	0.04353023
118	0x3e0cf9ac	0.13767117
119	0x3e31b2ca	0.17353359
120	0xbde1051d	-0.109873034
121	0xbbe7182b	-0.0070524416
122	0x3d5ee95f	0.05442178
123	0xbe3a3c8f	-0.18187164
124	0xbb16b47d	-0.0022995763
125	0x3d1d55c9	0.03841189
126	0x3c09feb2	0.0084225405
127	0xbb936889	-0.0044985455
128	0x3e160960	0.14652014
129	0x3c71bc1b	0.0147543205
130	0x3dbe7ecd	0.09301529
131	0x3dd44c90	0.10366166
132	0xbe0affcc	-0.13574141
133	0xbe2d3801	-0.16915895
134	0xbc25c26a	-0.010117153
135	0xbdf6e230	-0.120548606
136	0x3d782257	0.060579624
137	0xbe6c62f6	-0.23084626
138	0x3e0e7c4b	0.13914602
139	0x3dda2246	0.106510684
140	0x3e06bc14	0.13157684
141	0xbd9ea6e3	-0.07746675
142	0x3e0aabf7	0.13542162
143	0xbd91a39f	-0.07111286
144	0xbe1bdb27	-0.15220319
145	0x3dbaf72c	0.091291755
146	0xbdd86c4a	-0.105675295
147	0x3ddcf4e3	0.10788896
148	0xbd9fbbb7	-0.07799476
149	0x3b6de5f1	0.0036300386
150	0xbe23dd53	-0.16002397
151	0xbe04ed87	-0.12981234
152	0xbe63ee4a	-0.22258869
153	0x3dab63d9	0.08368654
154	0xbdfbcd9f	-0.122950785
155	0xbd05d08f	-0.0326696
156	0xbdbd4f51	-0.09243644
157	0xbe08ecda	-0.13371602
158	0xbd8656e9	-0.065595455
159	0xbe53b00a	-0.20672622
160	0xbead4b65	-0.33846584
161	0xbea90c76	-0.3301732
162	0x3c3d7da8	0.011565603
163	0xbe2928c6	-0.1651946
164	0x3e4b3913	0.19845991
165	0xbdbc4774	-0.09193316
166	0xbd6784b5	-0.056523044
167	0xbe58441e	-0.21119735
168	0xbe173d77	-0.1476954
169	0xbd97753b	-0.07395407
170	0xbe01c018	-0.12670934
171	0x3d1cc738	0.038275927
172	0xbea08e41	-0.3135853
173	0xbea4211f	-0.3205652
174	0x3eaa3745	0.33245292
175	0x3ed9caf8	0.42537665
176	0x3eadc030	0.3393569
177	0xbe089db9	-0.13341416
178	0x3c46e569	0.012139657
179	0xbdb1aed0	-0.08675921
180	0x3dadf540	0.08494043
181	0x3d10c17f	0.035340782
182	0xbb6bcc93	-0.003598009
183	0xbd34d72b	-0.044150513
184	0xbd326c40	-0.043560266
185	0x3d67b0c4	0.05656506
186	0xbd8dabf5	-0.06917564
187	0xbe0ce748	-0.13760102
188	0xbd968832	-0.07350196
189	0xbdbbcaa6	-0.091695115
190	0x3d50d41d	0.050983537
191	0x3c7810e6	0.015140748
192	0x3ddf8015	0.109131016
193	0x3d85ef17	0.065397434
194	0x3d212859	0.03934512
195	0xbe8e9418	-0.27847362
196	0xbe7359fe	-0.23764798
197	0xbe4f7317	-0.20258747
198	0x3d117f67	0.03552189
199	0x3da556b2	0.080731764
200	0xbd0d4ab3	-0.034495067
201	0x3db67d4b	0.089106165
202	0x3e2edfd0	0.17077565
203	0xbcd59a2e	-0.026074495
204	0x3d27a86c	0.040932104
205	0x3d3d0517	0.046147432
206	0x3d4d527a	0.050127484
207	0xbd9ccf19	-0.07656688
208	0xbdf0f2a9	-0.11765034
209	0xbe2f18d5	-0.17099316
210	0x3e2a739e	0.16645667
211	0x3df390fe	0.118928894
212	0x3dbbbcd4	0.091668755
213	0x3d4c472e	0.04987257
214	0x3b9206bb	0.0044563687
215	0xbc41f7f4	-0.011838902
216	0xbe429dc1	-0.19005491
217	0xbdb468bb	-0.08809038
218	0xbac895a7	-0.0015303389
219	0xbd9f120c	-0.07767114
220	0x3cd33651	0.025782736
221	0xbdc99e33	-0.09844627
222	0x3dca5ae6	0.09880619
223	0x3e68a06a	0.22717443
224	0xba87f63b	-0.0010373065
225	0xbba0fe9e	-0.0049131652
226	0x3d7f61f5	0.06234928
227	0x3e98286d	0.29718342
228	0x3cb13b7b	0.021634808
229	0xbb7f7c2a	-0.003898392
230	0x3da892bd	0.08231113
231	0xbb87d4b2	-0.0041452283
232	0xbe216b80	-0.15763664
233	0xbd34cb41	-0.04413915
234	0xbe8701ee	-0.2636866
235	0xbd0f3829	-0.034965668
236	0x3e70a197	0.23499142
237	0xbb291015	-0.002579694
238	0x3bf8f07f	0.0075970287
239	0x3d017827	0.031608727
240	0x3db03b27	0.086050324
241	0x3e41c858	0.18924081
242	0x3d68942f	0.056781944
243	0xbd9a14a8	-0.07523471
244	0xbdf0c8c0	-0.1175704
245	0xbe81122e	-0.25209183
246	0x3d978544	0.07398465
247	0x3e22be69	0.15892948
248	0xbd2e5880	-0.04256487
249	0x3dddeb02	0.1083584
250	0x3dfc00e4	0.123048574
251	0x3ea5a1b8	0.32349944
252	0x3d7f54c2	0.06233669
253	0x3d2a0bdc	0.041515216
254	0x3e544c86	0.20732316
255	0x3e2dfcd8	0.16990983

conv3.bias f4 [32]
0	0xbda37b23	-0.07982471
1	0xbdb60e2c	-0.08889422
2	0xbd8027e1	-0.06257606
3	0xbe54d5f3	-0.2078474
4	0xbb91df33	-0.0044516562
5	0x3d523729	0.051322136
6	0xbe8af672	-0.27141148
7	0x3c7138e0	0.014723033
8	0x3dce6009	0.10076911
9	0xbe2acca3	-0.16679625
10	0xbdc4326f	-0.09579932
11	0xbe283397	-0.1642593
12	0xbebf4a0f	-0.3736119
13	0xbe53c820	-0.2068181
14	0xbe456f71	-0.19280793
15	0xbe8e1d9d	-0.27756968
16	0xbe20822e	-0.1567466
17	0xbe108dfa	-0.1411666
18	0xbe792e43	-0.24334054
19	0x3d41b6fa	0.04729364
20	0xbd0192ec	-0.031634256
21	0xbe77f9d3	-0.24216394
22	0xbe4daea7	-0.20086156
23	0xbe2fc538	-0.17165077
24	0xbe29aab9	-0.16569032
25	0xbea2f1bf	-0.31825063
26	0xbe28f085	-0.16498001
27	0xbe1b2bdc	-0.1515345
28	0xbf0e4f6c	-0.5558994
29	0xbd24bbfd	-0.040218342
30	0xbe2ec7a9	-0.17068352
31	0x3da33d20	0.07970643

bn3.weight f4 [32]
0	0x3f543634	0.8289521
1	0x3f8ab47a	1.0836327
2	0x3f6f83c7	0.9356045
3	0x3f837c2f	1.0272273
4	0x3f51e937	0.8199648
5	0x3f76bea9	0.96384674
6	0x3f60a3fe	0.8775023
7	0x3f88a529	1.0675403
8	0x3f54ae8b	0.8307883
9	0x3f793a38	0.9735446
10	0x3f77ed0b	0.96846074
11	0x3f4822be	0.7817801
12	0x3f6c19ab	0.92226666
13	0x3f436ec1	0.7634087
14	0x3f78ff13	0.9726421
15	0x3f7860fa	0.97022974
16	0x3f7a8020	0.97851753
17	0x3f8368fe	1.0266416
18	0x3f759a14	0.9593823
19	0x3f84a1c8	1.0361872
20	0x3f7ee75d	0.9957178
21	0x3f86d8b5	1.0534884
22	0x3f8bc624	1.0919843
23	0x3f6a7c6f	0.9159612
24	0x3f86eef1	1.0541669
25	0x3f8609bb	1.047172
26	0x3f5c9093	0.861581
27	0x3f81fa00	1.0154419
28	0x3f8632e7	1.0484284
29	0x3f7b8bb9	0.98260075
30	0x3f91a356	1.1377971
31	0x3f6eb94f	0.9325151

bn3.bias f4 [32]
0	0x3e216953	0.15762834
1	0x3cf6d756	0.030131977
2	0x3e20aa0f	0.15689872
3	0x3e4e664b	0.20156209
4	0xbe39278a	-0.18081489
5	0xbe668aac	-0.22513837
6	0x3e374aef	0.17899679
7	0x3dd5cbf0	0.104392886
8	0x3efb9864	0.49139702
9	0xbe5e7ec7	-0.21728049
10	0xbde2ec35	-0.11080209
11	0x3f04d049	0.5188032
12	0x3e80fa33	0.25190887
13	0xbf0c2e07	-0.5475773
14	0x3e452c88	0.19255269
15	0x3da68f96	0.081328556
16	0x3e180326	0.14844951
17	0xbd554b09	-0.052073512
18	0x3cd895a4	0.026438542
19	0x3c1db272	0.009625064
20	0xbe3eaf88	-0.18621647
21	0x3e9778b4	0.29584277
22	0x3ea423e5	0.32058635
23	0xbe9deeee	-0.3084635
24	0x3dd866b1	0.10566462
25	0x3e9dd964	0.30829918
26	0xbe88b1d9	-0.26698187
27	0x3ebbb1f6	0.3665921
28	0x3d3d09b8	0.046151847
29	0x3e940920	0.28913212
30	0xbd66ac73	-0.056316804
31	0x3eba9aab	0.36446127

bn3.running_mean f4 [32]
0	0x3f29eaac	0.66373706
1	0x3f3694a2	0.71320546
2	0x3f301cb0	0.68793774
3	0x3ef30c3c	0.47470272
4	0x3f237544	0.6385081
5	0x3f32e206	0.69876134
6	0x3e7a6e44	0.24456125
7	0x3f4a85c8	0.79110384
8	0x3f62b33a	0.8855473
9	0x3e4c8235	0.19971545
10	0x3eb66998	0.35627437
11	0x3f045079	0.5168529
12	0x3def95b0	0.116984725
13	0x3eb733a9	0.357816
14	0x3ee39bab	0.44454703
15	0x3dea479f	0.11439442
16	0x3e80e87d	0.25177374
17	0x3e765b5c	0.24058288
18	0x3dfe923e	0.12430237
19	0x3f53eb92	0.82781327
20	0x3f087804	0.5330813
21	0x3ea66abc	0.32503307
22	0x3ee43c15	0.4457709
23	0x3ec6ff3f	0.38866612
24	0x3f0d42bb	0.5517995
25	0x3efe2f4c	0.4964546
26	0x3f7e0f5c	0.99242187
27	0x3f0d07fb	0.550903
28	0x3ed78f21	0.42101386
29	0x3f1a8ca8	0.60370874
30	0x3eb3ce80	0.35118484
31	0x3f84ed4e	1.038492

bn3.running_var f4 [32]
0	0x3f18252e	0.5943173
1	0x40034a5c	2.0514135
2	0x3f8e553a	1.1119759
3	0x3fa9db2e	1.3270013
4	0x3f791dbf	0.97311014
5	0x3fb59561	1.4186212
6	0x3f15bba6	0.58489454
7	0x4003d045	2.0595868
8	0x3f92ab64	1.1458554
9	0x3ed1aea1	0.40953544
10	0x3f69dd1d	0.9135302
11	0x3f998b9e	1.1995733
12	0x3e87e23d	0.26539794
13	0x3f2818b3	0.6566269
14	0x3f5dfb85	0.86711913
15	0x3e57eb25	0.21085794
16	0x3ead444a	0.33841163
17	0x3f0c16a7	0.54722065
18	0x3e47982e	0.19491646
19	0x3fb34df7	1.4008168
20	0x3fc1c2d2	1.513758
21	0x3f7d83ea	0.9902941
22	0x3f5c94e7	0.86164707
23	0x3f003656	0.5008291
24	0x3fcc5c44	1.5965657
25	0x3f9f1f07	1.2431344
26	0x3fc3a72e	1.5285394
27	0x3f7af6ee	0.98033035
28	0x400003be	2.0002284
29	0x3f69ca2b	0.9132411
30	0x3f59f843	0.8514444
31	0x4043c071	3.0586207

conv4.weight f4 [64, 32, 3, 3]
0	0xbdff4b13	-0.12465491
1	0xbdcbc6c4	-0.09950021
2	0x3b383abb	0.0028111178
3	0xbd8f6a4a	-0.07002695
4	0xbe1e77db	-0.15475409
5	0xbd6f4eee	-0.058424883
6	0xbdb9a8c8	-0.090653956
7	0xbe761d58	-0.24034631
8	0xbe251494	-0.16121131
9	0x3c6a6e0e	0.014308466
10	0xbd6faf47	-0.058516767
11	0xbd7ec98e	-0.062203936
12	0xbd015816	-0.031578146
13	0xbe29e183	-0.16589932
14	0xbd8552df	-0.06509947
15	0x3da72d9b	0.081629954
16	0xbe0f8e0f	-0.14019035
17	0x3d2520f5	0.040314633
18	0x3d9345fc	0.07191083
19	0x3d0d6792	0.0345226
20	0x3d01fb5f	0.031733867
21	0xbdef68cc	-0.1168991
22	0xbe3b25b2	-0.18276098
23	0x3c6adbc5	0.014334624
24	0x3d702eda	0.05863843
25	0x3deba5a7	0.11506205
26	0x3d8fcd24	0.07021549
27	0xbd130c34	-0.03590031
28	0x3dad87ea	0.08473189
29	0xbd5b6cc6	-0.05357053
30	0xbdf2f444	-0.11862996
31	0xbdded141	-0.10879756
32	0xbe842535	-0.25809637
33	0xbd4c00ce	-0.049805455
34	0x3e52e536	0.2059525
35	0x3db74c5f	0.089501135
36	0xbd3d09bf	-0.046151873
37	0xbda41187	-0.080111556
38	0xbe3963d3	-0.18104486
39	0xbdd7896d	-0.10524259
40	0xbd2242a8	-0.03961435
41	0x3d738cbd	0.05946039
42	0xbda4825a	-0.08032675
43	0xbc0ab520	-0.008466035
44	0x3c9e4d60	0.019324005
45	0xbc0899f7	-0.008337489
46	0x3cb0e1ad	0.021591986
47	0xbd817833	-0.06321754
48	0x3aa2887a	0.0012400292
49	0x3d8ab1db	0.067722045
50	0x3cd12d5a	0.02553432
51	0xbd84bfe3	-0.06481912
52	0x3e07db59	0.13267268
53	0xbd7ec3cc	-0.062198445
54	0xbc407329	-0.011746206
55	0xbd8ba62b	-0.068188034
56	0xbe3156b5	-0.17318232
57	0xbcf241bc	-0.02957236
58	0xbde3de1e	-0.1112635
59	0xbb97d20b	-0.0046331934
60	0xbdba7f5e	-0.091063246
61	0xbc8fef94	-0.017570294
62	0x3c0e483b	0.008684213
63	0xbd498448	-0.04919842
64	0x3dac22ee	0.084051
65	0x3df850ec	0.121248096
66	0x3de19569	0.11014826
67	0x3e2d086f	0.16897748
68	0x3e2f5626	0.17122707
69	0x3c8a4310	0.016877681
70	0xbd33ad24	-0.04386629
71	0xbdc6b7b6	-0.09703009
72	0x3c651b64	0.013983581
73	0xbda9af13	-0.08285346
74	0xbe56687e	-0.20938298
75	0xba9044dc	-0.001100685
76	0x3e3b7e74	0.18309957
77	0x3d7d6c95	0.06187113
78	0x3c909d3a	0.017653096
79	0xbdfe8bb8	-0.12428993
80	0xbd884251	-0.06653274
81	0xbd967304	-0.07346156
82	0x3cb57250	0.022149235
83	0x3d2e0144	0.042481676
84	0xbdc01f51	-0.09380973
85	0x3c8328c6	0.016010653
86	0x3d805250	0.062657
87	0xbd8c5d4b	-0.06853732
88	0xbdb483bd	-0.088141896
89	0xbccc1ee1	-0.024917068
90	0xbddd60a3	-0.108094476
91	0xbcb4b358	-0.022058174
92	0xbcdab5fc	-0.026698105
93	0x3da43f2e	0.08019863
94	0x3d298771	0.041388933
95	0x3a09664e	0.000524138
96	0x3ab314a9	0.0013662773
97	0xbdccbd34	-0.09997025
98	0x3b3953c7	0.0028278695
99	0xbdecd76d	-0.11564527
100	0xbe13aa73	-0.1442049
101	0xbe316e50	-0.17327237
102	0x3d969e1a	0.07354374
103	0x3e454a64	0.19266659
104	0x3d890416	0.066902325
105	0xbe06e8e0	-0.13174772
106	0xbdcadcf4	-0.09905425
107	0xbdb39d66	-0.08770256
108	0xbe15efaa	-0.14642206
109	0xbda987dd	-0.08277867
110	0x3cb23259	0.021752523
111	0xbe1798e8	-0.14804423
112	0xbd9f234f	-0.077704065
113	0xbe3e0c71	-0.18559434
114	0xbdd24f92	-0.10269083
115	0xbdca1807	-0.09867864
116	0x3ccc41b5	0.024933675
117	0xbddaba90	-0.10680115
118	0x3d8d881c	0.069107264
119	0x3ccd815c	0.025086097
120	0x3e40dfda	0.18835393
121	0x3db727d7	0.08943146
122	0x3e904b83	0.2818261
123	0xbd9389e8	-0.07204038
124	0xbdb41b6d	-0.087942936
125	0x3d781d66	0.06057491
126	0x3d1b65c0	0.037938833
127	0xbdbb69b0	-0.09151018
128	0xbda0c44b	-0.0784994
129	0x3d7622bd	0.060091723
130	0x3e2b1521	0.16707279
131	0x3e5e5e0b	0.21715562
132	0xbe0aa00b	-0.13537614
133	0xbc512269	-0.012764552
134	0x3c60aeb9	0.013713532
135	0x3d8302e7	0.06397038
136	0x3e333072	0.17498949
137	0x3e44c5bf	0.19216059
138	0xbbf56e32	-0.007489943
139	0x3dfa313e	0.122164235
140	0xbe0cdc2d	-0.13755865
141	0xbdaa538c	-0.083167166
142	0x3bef8a69	0.007310201
143	0xbd7d4acf	-0.06183892
144	0xbe81d590	-0.25358248
145	0x3db8d5ea	0.09025176
146	0x3e25bb42	0.16184714
147	0xbd91056f	-0.070811145
148	0x3dc3bf06	0.09557919
149	0xbd212816	-0.03934487
150	0xbe5232e1	-0.20527221
151	0x3c93ad0b	0.01802685
152	0x3d5ffe29	0.054685745
153	0x3dddce8e	0.10830413
154	0x3e163e1d	0.14672132
155	0x3df4f4da	0.11960764
156	0x3c5ea18a	0.013588319
157	0xbd2de168	-0.042451292
158	0x3e39598d	0.18100567
159	0x3d2b8d55	0.04188283
160	0x3dc197b3	0.094527625
161	0x3d39df76	0.045379125
162	0xbbe354c6	-0.006937596
163	0x3cdd40dd	0.027008468
164	0xbde0482b	-0.10951265
165	0x3da71e8f	0.081601255
166	0x3d20d170	0.039262235
167	0xbd8b064c	-0.067883104
168	0xbd12cd00	-0.035840034
169	0x3d2947f8	0.0413284
170	0xbd2598a4	-0.040428773
171	0x3e099367	0.13435136
172	0x3904cc99	0.0001266472
173	0x3d45c2d8	0.04828152
174	0x3be7bbe7	0.0070719603
175	0x3cf8ca42	0.030369882
176	0x3df667ec	0.1203154
177	0x3e98b9a7	0.29829141
178	0x3d49a2e0	0.049227595
179	0x3d6d1b40	0.057887316
180	0x3ddbabeb	0.1072615
181	0x3e3533d2	0.17695549
182	0x3e28ea61	0.16495658
183	0x3da2575e	0.0792682
184	0x3da4eaba	0.08052583
185	0x3e8205ea	0.25395137
186	0xbd98d8f6	-0.07463257
187	0x3d462b0d	0.0483809
188	0x3e25d160	0.16193151
189	0x3e40f112	0.18841961
190	0x3d01c72c	0.031684086
191	0xbe412e15	-0.18865235
192	0xbe30a5be	-0.17250726
193	0xbe36f22b	-0.17865817
194	0xbcef3538	-0.029200181
195	0x3e2ee588	0.17079747
196	0x3e2672a2	0.16254666
197	0xbc6dbf86	-0.014510995
198	0xbe4e6110	-0.20154214
199	0xbeca76a1	-0.39543632
200	0x3c088275	0.008331885
201	0xbcf54a38	-0.029942617
202	0xbda4f59f	-0.08054661
203	0x3dd45166	0.10367088
204	0xbe9bc1d5	-0.3042132
205	0xbe6e04dd	-0.23244043
206	0xbe348cd7	-0.17631851
207	0x3d561f5d	0.052276004
208	0xbc76baff	-0.015059232
209	0xbdc1ba90	-0.09459412
210	0xbd025056	-0.031814896
211	0x3d6fb83c	0.05852531
212	0xbccea7f4	-0.02522657
213	0x3e1cb0e4	0.15301853
214	0xbd1a7a13	-0.037714075
215	0xbca6c080	-0.020355463
216	0xbcc5697e	-0.024098154
217	0x3ca3a111	0.019974263
218	0x3cf72cec	0.030172788
219	0x3dec089a	0.11525078
220	0x3e311688	0.17293751
221	0x3e79fd02	0.24412921
222	0x3e760fbb	0.24029438
223	0x3e4ab349	0.19794954
224	0x3e41234f	0.18861125
225	0xbd9e4844	-0.07728627
226	0xbd7134db	-0.058888298
227	0xbe074ab3	-0.13212089
228	0xbcde016d	-0.02710029
229	0xbc8bafa5	-0.017051527
230	0xbd10438f	-0.03522068
231	0xbd0c94d6	-0.03432163
232	0x3d19a98e	0.037515216
233	0xbc4fec07	-0.012690551
234	0xbda88184	-0.08227828
235	0x3d3e8d43	0.046521436
236	0xbe20e6eb	-0.15713088
237	0xbd7d737b	-0.06187771
238	0xbdaa3799	-0.08311386
239	0xbe0da27f	-0.13831519
240	0x3d595962	0.053063758
241	0x3e0721cb	0.13196485
242	0x3d942a21	0.07234598
243	0xbe7a56cc	-0.24447173
244	0xbd7b92e3	-0.06141938
245	0xbd770c97	-0.06031474
246	0x3d966d32	0.07345046
247	0x3e41455c	0.18874115
248	0x3e62fc9c	0.22166675
249	0xbe347088	-0.17621052
250	0xbe435a8d	-0.19077511
251	0xbe85dbb2	-0.26144177
252	0x3c8c8522	0.017153326
253	0xb91929ea	-0.00014606831
254	0xbe1e2fc4	-0.15447909
255	0x3e2cb85c	0.16867203

conv4.bias f4 [64]
0	0xbdfe0319	-0.124029346
1	0xbefb20f0	-0.49048567
2	0xbea8112b	-0.32825598
3	0xbd8b5d40	-0.068048954
4	0xbeb554fa	-0.35416394
5	0xbe0cc20d	-0.137459
6	0xbe226740	-0.15859699
7	0xbd7156aa	-0.05892054
8	0xbcddbfb4	-0.02706895
9	0xbe336e97	-0.17522655
10	0xbe4d5e26	-0.20055446
11	0xbe738901	-0.23782732
12	0xbe6d1b3a	-0.23154917
13	0xbe4d08c3	-0.20022874
14	0xbe07ae68	-0.13250124
15	0x3e1226c9	0.14272608
16	0xbe96a782	-0.29424673
17	0xbea9331d	-0.3304681
18	0xbcbbef86	-0.022941362
19	0xbcb074c0	-0.021540046
20	0xbed57da9	-0.41697434
21	0xbe9ee764	-0.31035912
22	0xbe4936c0	-0.19649792
23	0xbea779f7	-0.3271024
24	0xbea05eb4	-0.31322253
25	0xbd9d4249	-0.076786585
26	0x3be7cfe2	0.007074342
27	0xbe8c7d74	-0.27439463
28	0xbecb3af7	-0.39693424
29	0xbec1ffc9	-0.3789046
30	0xbe9b3192	-0.30311257
31	0xbe21e97e	-0.15811726
32	0xbe0c6437	-0.13710104
33	0xbe4eb3e0	-0.20185804
34	0xbe9ffa20	-0.31245518
35	0xbd44f47d	-0.048084725
36	0xbe3150b6	-0.17315945
37	0xbe4c7d14	-0.19969589
38	0xbe91fb52	-0.28512055
39	0x3c931fae	0.017959442
40	0xbdb84ff2	-0.08999623
41	0xbeb7a7f8	-0.35870337
42	0xbe6a887b	-0.22903626
43	0xbdf6c9b5	-0.12050191
44	0xbe9165d4	-0.28398
45	0xbef4cecb	-0.4781402
46	0xbe9c0c2b	-0.30478033
47	0xbe9f32f3	-0.3109356
48	0xbea37d71	-0.31931642
49	0xbe0f26d6	-0.13979658
50	0xbcdc3344	-0.026879914
51	0xbec707d8	-0.38873172
52	0xbe758e0b	-0.23979966
53	0xbe2a1dc9	-0.16612925
54	0xbed0d7ce	-0.40789646
55	0xbef0cbf6	-0.4703061
56	0xbd3b8402	-0.04578019
57	0xbdd726c9	-0.105054446
58	0xbba7c12c	-0.0051194634
59	0xbd34027d	-0.043947686
60	0xbec22b3b	-0.37923607
61	0xbecfc3c1	-0.40579036
62	0xbe343299	-0.17597426
63	0xbc03187b	-0.008001442

bn4.weight f4 [64]
0	0x40209166	2.5088744
1	0x405e95e1	3.477898
2	0x4042f970	3.0464745
3	0x40052d79	2.0809004
4	0x4023ca7e	2.5592341
5	0x401399cc	2.306262
6	0x40259d4f	2.5877264
7	0x403aae1b	2.9168766
8	0x40202ece	2.5028567
9	0x4020feb0	2.515545
10	0x40228103	2.5391243
11	0x40224868	2.5356693
12	0x40434849	3.051287
13	0x4031813a	2.7735124
14	0x401d25fd	2.4554436
15	0x4010753a	2.257155
16	0x4022711a	2.5381532
17	0x4020543b	2.505141
18	0x400caade	2.197929
19	0x403c4f13	2.9423263
20	0x4031b440	2.7766266
21	0x404a9ea0	3.1659317
22	0x4002ef84	2.0458689
23	0x40223100	2.5342407
24	0x4029ddce	2.654163
25	0x40026425	2.0373623
26	0x4033b5a1	2.8079607
27	0x40444bbf	3.0671232
28	0x403a6e1c	2.9129705
29	0x401da912	2.4634442
30	0x405cee1c	3.452033
31	0x3ffb8b3b	1.9651865
32	0x4023f6d9	2.5619414
33	0x401da353	2.4630935
34	0x406091b8	3.508894
35	0x4009df12	2.1542401
36	0x4045d06f	3.0908468
37	0x4013ccd2	2.3093762
38	0x401bcd00	2.4343872
39	0x400f03a7	2.234598
40	0x40203379	2.5031416
41	0x40263377	2.5968912
42	0x4033258f	2.7991674
43	0x40036637	2.0531137
44	0x40108e28	2.2586765
45	0x40313100	2.7686157
46	0x402957e9	2.6459906
47	0x401b1795	2.4233143
48	0x4043c86f	3.0591085
49	0x403d6845	2.959489
50	0x4013e1e6	2.3106627
51	0x402e14be	2.720016
52	0x40157105	2.3350232
53	0x4009f588	2.155611
54	0x402dc1ff	2.7149656
55	0x4044d7b1	3.0756648
56	0x4022a556	2.5413413
57	0x402e99eb	2.7281444
58	0x401c435c	2.4416113
59	0x401a6caf	2.4128835
60	0x4045e3ae	3.0920215
61	0x4039dc1b	2.9040592
62	0x402dcd19	2.7156432
63	0x401f6744	2.4906778

bn4.bias f4 [64]
0	0xbe436a0e	-0.19083425
1	0x3e79a1f6	0.2437819
2	0xbe8532e5	-0.26015392
3	0x3e342417	0.17591892
4	0xbe360be4	-0.17777973
5	0x3e0cf94b	0.13766973
6	0x3e61e9e9	0.22061886
7	0xbe56888d	-0.20950527
8	0x3e696781	0.2279339
9	0x3e526106	0.20544824
10	0x3e2eb744	0.17062098
11	0xbe950ff3	-0.2911373
12	0xbe3b6ac5	-0.18302448
13	0x3e6296b6	0.22127804
14	0x3e8adadb	0.27120098
15	0xbe861f9b	-0.26195988
16	0x3e231268	0.1592499
17	0x3e8923e3	0.26785192
18	0x3e607579	0.21919812
19	0x3e4373b7	0.1908711
20	0xbe367d1c	-0.17821163
21	0xbe85938f	-0.2608914
22	0x3e30ace1	0.17253448
23	0x3e37346a	0.17891088
24	0x3e7a9ee6	0.24474677
25	0x3e4b5868	0.19857943
26	0x3ea1ff37	0.31640026
27	0x3e9ef6de	0.3104772
28	0xbe491877	-0.19638239
29	0xbd13d49c	-0.036091432
30	0xbe492ffd	-0.19647212
31	0x3e45fc65	0.19334562
32	0x3e7714d1	0.24129035
33	0x3df341ae	0.11877762
34	0xbe395ac0	-0.18101025
35	0xbe757077	-0.23968683
36	0x3e5a847c	0.21339601
37	0xbe3c541f	-0.18391465
38	0xbe3ea183	-0.186163
39	0xbe50f2d2	-0.20405129
40	0xbe5d39c8	-0.21604073
41	0x3e5ecabb	0.21757023
42	0xbe5cf262	-0.21576837
43	0x3e28603c	0.1644296
44	0x3e253dcf	0.1613686
45	0x3e2004d7	0.15626846
46	0x3e2c916a	0.16852346
47	0x3e49a70a	0.19692627
48	0xbe58d30d	-0.2117426
49	0x3e86ed9b	0.26353154
50	0x3e46707a	0.19378844
51	0xbe3a3d26	-0.18187389
52	0xbe1bc19f	-0.1521058
53	0xbe3165d3	-0.17323999
54	0xbe31867a	-0.17336455
55	0xbe534885	-0.20633133
56	0x3e7e150b	0.24812715
57	0x3e869f35	0.2629334
58	0x3e6dc188	0.23218358
59	0xbe2b123f	-0.16706179
60	0xbe75735a	-0.23969784
61	0xbe46f89c	-0.19430774
62	0xbe78d702	-0.24300769
63	0x3eabd39b	0.3355988

bn4.running_mean f4 [64]
0	0x3e250287	0.16114245
1	0x3d072293	0.032991957
2	0x3dd9093d	0.10597465
3	0x3eb10865	0.34576717
4	0x3d95fa34	0.07323113
5	0x3e38ea9e	0.1805825
6	0x3d95dbe2	0.0731733
7	0x3e1d0937	0.15335546
8	0x3e9aec30	0.30258322
9	0x3e33c82d	0.1755683
10	0x3e47d2a0	0.19513941
11	0x3ddddd76	0.10833256
12	0x3e15e8e5	0.14639623
13	0x3dca1d2f	0.098688476
14	0x3e11d514	0.14241439
15	0x3fa6367d	1.2985379
16	0x3e23b361	0.15986396
17	0x3d8b4c6b	0.06801685
18	0x3ed82964	0.4221908
19	0x3e917d56	0.28415936
20	0x3dabd990	0.08391106
21	0x3e0e8c3c	0.13920683
22	0x3ea49cac	0.3215078
23	0x3dd2aa32	0.102863684
24	0x3e4e18b2	0.20126608
25	0x3efee17f	0.49781415
26	0x3ea6b30d	0.3255848
27	0x3d8db566	0.06919365
28	0x3d8ad49b	0.067788325
29	0x3e28e925	0.16495188
30	0x3d62884f	0.055305775
31	0x3ebe02d5	0.37111536
32	0x3df5f370	0.12009323
33	0x3e3418de	0.17587611
34	0x3e099747	0.13436614
35	0x3f35aaf3	0.7096397
36	0x3e71cb4b	0.23612706
37	0x3df42155	0.1192042
38	0x3dac8a2d	0.084247924
39	0x3f057e42	0.5214578
40	0x3e11afdd	0.14227243
41	0x3d4381e1	0.047731284
42	0x3dd62744	0.10456708
43	0x3e9b7274	0.30360758
44	0x3e653ad2	0.2238572
45	0x3e024bb7	0.12724195
46	0x3e3691da	0.17829075
47	0x3e05e7f8	0.1307677
48	0x3db9f3d0	0.09079707
49	0x3de09284	0.10965446
50	0x3ea39f8b	0.3195766
51	0x3d70b03c	0.05876182
52	0x3dbe7aea	0.09300788
53	0x3e1e3132	0.15448454
54	0x3d68293a	0.05667994
55	0x3dc70d20	0.097193
56	0x3e1f9069	0.15582432
57	0x3e572dd3	0.21013574
58	0x3e9e242b	0.3088697
59	0x3e11dac7	0.14243613
60	0x3d70cf21	0.058791284
61	0x3d80be39	0.06286282
62	0x3e1297bc	0.14315695
63	0x3ddc4c5a	0.107567504

bn4.running_var f4 [64]
0	0x3eaca7f3	0.33721885
1	0x3d7fcd4c	0.062451646
2	0x3e863d12	0.26218468
3	0x3f2bf53e	0.67171085
4	0x3e54e4e8	0.20790446
5	0x3e99d429	0.30044678
6	0x3dc1d2ca	0.09464033
7	0x3e826483	0.2546731
8	0x3f11f7ab	0.57018536
9	0x3e9931d2	0.29920822
10	0x3edb93c9	0.4288619
11	0x3e2b515f	0.1673026
12	0x3e6c43ba	0.2307271
13	0x3e7c9768	0.24667132
14	0x3ed08cef	0.40732524
15	0x3fcc8440	1.597786
16	0x3e916ff4	0.28405726
17	0x3de35eb5	0.11102048
18	0x3f515a99	0.81778866
19	0x3ee9af41	0.4564152
20	0x3e065d87	0.13121615
21	0x3e696b76	0.227949
22	0x3f2ede3c	0.6830785
23	0x3e47d674	0.19515401
24	0x3ebf7b3c	0.37398708
25	0x3f724e50	0.94650745
26	0x3edc9729	0.43084076
27	0x3e09cbc0	0.1345663
28	0x3e041ee0	0.12902403
29	0x3ef5fffb	0.4804686
30	0x3dbd32c4	0.092381984
31	0x3f5b596d	0.8568333
32	0x3e3b605d	0.18298478
33	0x3ed80a42	0.42195326
34	0x3e98ed4c	0.29868543
35	0x3f854877	1.041274
36	0x3eb9942e	0.36245865
37	0x3e49809f	0.19677971
38	0x3e3de592	0.18544605
39	0x3f4982ad	0.7871502
40	0x3e8f691c	0.2800988
41	0x3e0274f8	0.12739933
42	0x3e344997	0.17606197
43	0x3f07a2c8	0.5298276
44	0x3eeed688	0.4664805
45	0x3ea9f80d	0.3319706
46	0x3ed03354	0.4066416
47	0x3ea120a8	0.31470227
48	0x3e30e4ed	0.17274828
49	0x3e6274ae	0.22114822
50	0x3f4e635c	0.8062036
51	0x3dfa9e9b	0.12237283
52	0x3e29f6fc	0.16598123
53	0x3e3655ef	0.17806219
54	0x3e33d0c8	0.17560112
55	0x3e2cc7c9	0.16873087
56	0x3e9874c0	0.29776573
57	0x3ed8c829	0.4234021
58	0x3f128f88	0.5725026
59	0x3e89d12a	0.26917392
60	0x3dee457b	0.11634346
61	0x3e044f21	0.1292081
62	0x3e89c1f2	0.2690578
63	0x3e4c7747	0.19967376

lin.weight f4 [10, 64]
0	0xbf29ab01	-0.66276556
1	0x3f152240	0.58255386
2	0x3f36061f	0.7110309
3	0x3eec99e7	0.46211168
4	0xbf61ca7c	-0.8819959
5	0x3f1692d0	0.5881777
6	0xbf11242d	-0.56695825
7	0xbf6d177e	-0.9261397
8	0xbe0dc25f	-0.13843678
9	0x3f0375f5	0.51351863
10	0x3ee5f545	0.44913688
11	0x3f1cca51	0.6124621
12	0xbf23dc93	-0.64008445
13	0xbf3ee6a6	-0.7457069
14	0x3e79fcba	0.24412814
15	0xbb0a56dd	-0.0021108903
16	0x3f8da7ed	1.1066872
17	0xbebe3766	-0.3715164
18	0x3dc09f2b	0.09405359
19	0x3f829e1a	1.0204499
20	0xbf3edf87	-0.74559826
21	0x3f0b4d89	0.54415184
22	0x3f1b50d6	0.6067022
23	0x3f404b46	0.7511486
24	0x3e9a722f	0.3016524
25	0x3eeb6315	0.4597403
26	0xbf635d7a	-0.8881451
27	0xbf00c5d1	-0.50301844
28	0xbed4b84d	-0.4154686
29	0xbeaefe10	-0.3417821
30	0xbf198e1f	-0.59982485
31	0x3ee6c334	0.45070803
32	0xbdbaaa0d	-0.09114466
33	0x3f1ded33	0.6169006
34	0xbf7db1ff	-0.99099725
35	0xbd04de35	-0.032438476
36	0x3f3d5067	0.7395081
37	0xbf184543	-0.59480685
38	0xbf2220e3	-0.6333143
39	0xbe2515e7	-0.16121636
40	0x3db1bcf1	0.08678616
41	0xbef4676d	-0.47735158
42	0xbeddfd5c	-0.4335736
43	0x3f266275	0.64993984
44	0x3f554006	0.83300817
45	0x3f41ae9d	0.75657064
46	0x3f8ab47f	1.0836333
47	0x3f6fbeb8	0.9365039
48	0xbec10a7e	-0.37703317
49	0xbf0a2683	-0.53965014
50	0x3f4c68d7	0.7984747
51	0xbf8a2819	-1.0793487
52	0xbf6bfb08	-0.9217992
53	0xbef083be	-0.4697551
54	0xbf68d5b6	-0.90951097
55	0xbeef263a	-0.46708852
56	0xbe8d1970	-0.2755847
57	0xbfa70207	-1.3047494
58	0xbe29c065	-0.16577299
59	0xbf64a566	-0.8931488
60	0xbf261574	-0.64876485
61	0xbd916e4b	-0.07101115
62	0xbe245f45	-0.16051967
63	0xbf282534	-0.6568177
64	0xbeb34878	-0.35016227
65	0xbfa921b4	-1.321341
66	0xbf200b7a	-0.6251751
67	0xbdd5e520	-0.10444093
68	0x3f906cea	1.1283238
69	0x3e2ee59e	0.1707978
70	0x3f3862f1	0.7202597
71	0x3f316799	0.692987
72	0x3f1e448d	0.6182335
73	0xbfbc014f	-1.4687899
74	0x3f2a2e8f	0.6647729
75	0xbf1c2e4a	-0.6100813
76	0xbede3315	-0.43398347
77	0x3f86e88e	1.053972
78	0xbfad5c97	-1.3543881
79	0xbe8bf9c0	-0.27338982
80	0xbed2e038	-0.4118669
81	0x3f2c5e35	0.6733125
82	0x3ee2b9b7	0.44282314
83	0xbedf2d96	-0.43589467
84	0xbea5d36f	-0.32387874
85	0xbee88535	-0.4541413
86	0xbe8cd326	-0.27504843
87	0x3e0fc68b	0.14040582
88	0xbf9a8faf	-1.2075099
89	0xbdde766b	-0.1086243
90	0x3e8ef541	0.2792149
91	0x3ebfabb1	0.37435678
92	0xbf3d0ed5	-0.73850757
93	0x3f9a25bd	1.2042767
94	0xbf6b0ec0	-0.9181938
95	0x3d906b67	0.07051735
96	0x3f20ec08	0.62860155
97	0x3f1a2652	0.6021472
98	0xbeb31a5c	-0.34981048
99	0xbef34a56	-0.4751765
100	0x3e47d991	0.19516589
101	0xbd0f7266	-0.03502121
102	0x3f82df40	1.022438
103	0xbf12ab3f	-0.5729255
104	0x3f6feb4c	0.9371841
105	0x3f8b75d6	1.0895336
106	0xbeb7c538	-0.35892653
107	0xbdc3c9f5	-0.095600046
108	0x3de69c06	0.11260228
109	0x3f06889a	0.5255219
110	0xbfb8c3bc	-1.4434733
111	0xbf808ca4	-1.004292
112	0xbf7eabb1	-0.9948073
113	0x3f33be66	0.702124
114	0xbf3fdfd7	-0.7495093
115	0x3f4215c8	0.75814486
116	0x3f943005	1.1577154
117	0xbe8d1448	-0.27554536
118	0x3fa56cf9	1.2923881
119	0xbf53c1b2	-0.8271743
120	0x3f18abc6	0.59637105
121	0x3f0b56e4	0.5442946
122	0x3f0b3a7d	0.5438612
123	0x3e8b9448	0.27261567
124	0xbd02edc1	-0.03196502
125	0xbece8117	-0.40332863
126	0xbe90073b	-0.28130516
127	0x3ed6dc7a	0.41965085
128	0x3e20b3f3	0.15693645
129	0xbdce54b0	-0.100747466
130	0x3f85edf8	1.0463247
131	0xbf62347f	-0.8836135
132	0xbde97d95	-0.11400906
133	0xbfb41ae6	-1.4070709
134	0xbe1ecc08	-0.15507519
135	0x3eb9302b	0.36169562
136	0xc000bb64	-2.0114374
137	0xbee1586e	-0.4401278
138	0xbe558add	-0.20853753
139	0xbeb37ef4	-0.35057795
140	0x3fc099ea	1.5046971
141	0xbfa007cb	-1.2502378
142	0x3d94f0dc	0.07272503
143	0x3f135a81	0.57559973
144	0xbf3d92e2	-0.7405225
145	0x3f27840e	0.65435874
146	0xbf8e7ece	-1.1132448
147	0x3f47412b	0.77833813
148	0x3d802082	0.062562004
149	0x3fe04708	1.7521677
150	0xbf5fa8cf	-0.87366956
151	0xbf473884	-0.7782061
152	0x3f110347	0.56645626
153	0xbf9762be	-1.1827009
154	0xbecdc7ef	-0.401916
155	0xbe9ec07b	-0.31006226
156	0xbe343cf3	-0.17601375
157	0xbee41ca3	-0.44553098
158	0xbeda0dc3	-0.42588624
159	0xbf537ac8	-0.82609224
160	0x3f048605	0.51767
161	0xbf1bd76e	-0.60875595
162	0xbf8de282	-1.108475
163	0x3e8e5268	0.27797246
164	0x3f1f97db	0.6234109
165	0x3f9ec3be	1.2403486
166	0xbe7cbf2b	-0.246823
167	0x3f01a6f2	0.50645363
168	0xbeb16ea1	-0.34654716
169	0xbe8a565d	-0.27019015
170	0x3f2b32fb	0.66874665
171	0xbfb7d609	-1.4362193
172	0xbec4e427	-0.38455316
173	0xbed9b91f	-0.4252405
174	0x3f10177f	0.5628585
175	0x3d5e52dd	0.054278243
176	0xbeb30147	-0.34961912
177	0x3f1e482a	0.61828864
178	0xbf44a8fe	-0.7682036
179	0xbe34e67e	-0.17666051
180	0xbe8270af	-0.25476596
181	0x3fa6d3f8	1.3033438
182	0x3e243789	0.1603681
183	0x3dffebb5	0.124961294
184	0xbea1c5fe	-0.3159637
185	0x3eb65202	0.35609442
186	0xbf1619a8	-0.586329
187	0x3f8404b5	1.0313936
188	0xbf176631	-0.59140307
189	0x4004e388	2.0763874
190	0x3f032b4e	0.5123795
191	0x3f0e55ca	0.55599654
192	0x3d515292	0.051104136
193	0x3f850ffe	1.0395505
194	0xbf3ece72	-0.7453376
195	0x3ef883b0	0.4853797
196	0xbe5bd965	-0.21469648
197	0xbf40a6ca	-0.752545
198	0xbf2eae6f	-0.68234915
199	0xbee467b7	-0.44610378
200	0x3eadf830	0.33978415
201	0x3f3ae1be	0.73000705
202	0xbf91356b	-1.1344427
203	0x3ddb4df3	0.10708227
204	0x3f325d97	0.69674057
205	0x3e07f0f4	0.1327551
206	0x3ec58ea1	0.3858538
207	0xbf238ec2	-0.63889706
208	0xbf5e87b1	-0.869258
209	0xbf446b6e	-0.76726425
210	0x3e98a07d	0.29809943
211	0xbeaabf89	-0.33349255
212	0x3fcebce3	1.6151394
213	0xbf0a9ad2	-0.5414249
214	0x3ea375d4	0.31925833
215	0xbf3f22e5	-0.7466262
216	0x3f54f01e	0.8317889
217	0x3ef35695	0.47526994
218	0x3f01f834	0.5076935
219	0x3f5958ed	0.84901315
220	0x3fc3ff00	1.5312195
221	0xbf1b238d	-0.6060112
222	0x3fc4c299	1.5371886
223	0x3e6553e9	0.2239529
224	0xbfa2c1fd	-1.271545
225	0xbf8c00d8	-1.0937757
226	0x3f9a8404	1.2071538
227	0xbef837f5	-0.48480192
228	0xbfeb91cc	-1.8403869
229	0x3ea88211	0.32911733
230	0x3ddab9cc	0.10679969
231	0xbe610991	-0.21976306
232	0xbf07ea1d	-0.53091604
233	0xbf00b1a1	-0.5027104
234	0xbdfa36ac	-0.12217459
235	0x3d555d41	0.052090887
236	0xbf79aa97	-0.97525924
237	0xbffba2d2	-1.9659064
238	0xbbc2baa0	-0.0059426576
239	0xbf10d066	-0.5656799
240	0x3f720519	0.9453903
241	0x3ed4796f	0.41498896
242	0xbc9d68eb	-0.019215068
243	0x3dc46c3b	0.09590956
244	0x3e7f6b6f	0.24943326
245	0xbea34057	-0.31885025
246	0xbeddb88b	-0.43304858
247	0x3feb7c7b	1.8397363
248	0x3f05f0af	0.5232038
249	0x3ebbd186	0.3668329
250	0x3effe1d3	0.49976978
251	0x3da3bd01	0.07995034
252	0xbf11f512	-0.5701457
253	0xbe791475	-0.2432421
254	0x3f7214ae	0.94562805
255	0xbe232aac	-0.15934247

lin.bias f4 [10]
0	0xbc18c29f	-0.009323745
1	0xbc5ee7d6	-0.013605079
2	0x3d84dfc6	0.06487994
3	0x3e3311ba	0.17487231
4	0xbc6061fd	-0.013695237
5	0xbeb7f5a8	-0.35929608
6	0xbe41d71e	-0.18929717
7	0xbe890ca4	-0.26767457
8	0xbe8e410e	-0.27784008
9	0xbecf8771	-0.4053302
