NCC_Code/2022-08-23_22-04-52_model.pt (torch, 115275 bytes, 50 tensors)

conv1.weight f4 [8, 2, 5, 5]
0	0x3f87019c	1.0547366
1	0x3e2f82c3	0.17139725
2	0x3e03a5dd	0.1285624
3	0xbf2df74f	-0.6795549
4	0xbf7e6b36	-0.9938234
5	0x3f20e1e7	0.628447
6	0x3ed68942	0.41901594
7	0x3de9bd9c	0.11413118
8	0xbf963384	-1.1734471
9	0xbfa3a76d	-1.2785469
10	0x3e69ef3b	0.22845165
11	0xbe072fb7	-0.13201796
12	0xbf7573a6	-0.9587959
13	0xbf9bae7e	-1.2162626
14	0xbf80e876	-1.0070941
15	0x3ec3ebed	0.38265935
16	0xbe43d10b	-0.19122712
17	0xbee1c9c4	-0.44099247
18	0xbf40c728	-0.7530389
19	0xbf0e2049	-0.55518013
20	0x3f23d5a5	0.6399787
21	0x3d93185d	0.07182381
22	0xbf3c559b	-0.73568124
23	0xbf8a15dc	-1.0787921
24	0xbf187b85	-0.59563476
25	0x3f48d49f	0.78449434
26	0x3ed35f80	0.41283798
27	0xbe5a7bbc	-0.21336263
28	0xbf72f48e	-0.9490441
29	0xbf18b847	-0.59656185
30	0x3f8a0ddd	1.0785481
31	0x3f2478bd	0.6424673
32	0xbf05b068	-0.522223
33	0xbf7c7faa	-0.986323
34	0xbf9c7c27	-1.2225388
35	0x3f8a273d	1.0793225
36	0x3dc1e5b7	0.09467643
37	0xbf15e157	-0.58546966
38	0xbf903f4d	-1.1269318
39	0xbf4de02e	-0.80420196
40	0x3eb56a45	0.3543264
41	0xbefd7237	-0.49501202
42	0xbf4ffa4e	-0.8124131
43	0xbf488bd1	-0.7833834
44	0xbf60cb11	-0.87809855
45	0x3ec8f372	0.39248234
46	0x3e49c019	0.19702186
47	0xbf12b090	-0.57300663
48	0xbf6ba12e	-0.92042816
49	0xbf0c87d4	-0.5489476
50	0x3ea2c6de	0.3179235
51	0x3ece29d2	0.4026628
52	0x3e99463e	0.29936403
53	0xbf70cc9c	-0.9406221
54	0xbfb6f112	-1.4292319
55	0xbde2fdfc	-0.110836
56	0x3e444c7b	0.191698
57	0x3d7d6f15	0.061873514
58	0xbf2ec914	-0.6827557
59	0xbf548de0	-0.83028984
60	0xbc6b9b42	-0.014380278
61	0x3d9c6490	0.07636368
62	0xbed2d9c2	-0.4118176
63	0xbf8a791a	-1.0818207
64	0xbf797a48	-0.9745221
65	0x3f12834c	0.57231593
66	0x3f61de9c	0.882303
67	0x3ddafcf6	0.1069278
68	0xbf256225	-0.6460288
69	0xbe59f59c	-0.21285099
70	0x3f214b79	0.6300579
71	0x3fb1eecd	1.3901001
72	0x3f9a08f6	1.2033985
73	0xbf2bfe0d	-0.67184526
74	0xbf3273ab	-0.69707745
75	0x3f466826	0.7750267
76	0x3f8308b1	1.0237027
77	0x3e958117	0.2920005
78	0xbf97936a	-1.1841862
79	0xbf9c4016	-1.2207057
80	0x3c9c20cd	0.01905861
81	0x3f200958	0.6251426
82	0x3e5ac884	0.21365553
83	0xbf673474	-0.9031441
84	0xbf72a441	-0.9478188
85	0xbe6390e5	-0.22223242
86	0x3a2d719f	0.0006616357
87	0xbedd3b7a	-0.4320944
88	0xbf347627	-0.70492786
89	0xbf53b466	-0.8269714
90	0x3e4c4294	0.19947273
91	0x3f3473fb	0.7048947
92	0x3ef9194a	0.48652107
93	0xbe0d9db8	-0.13829696
94	0xbf59f2b1	-0.8513594
95	0x3f084af5	0.53239375
96	0x3fc906bc	1.570518
97	0x3f977e1a	1.1835358
98	0xbe860176	-0.2617299
99	0xbf916fcc	-1.1362243
100	0xbe05f218	-0.13080633
101	0xbd6de9bd	-0.05808424
102	0xbe91991c	-0.28437126
103	0x3e5dacc4	0.21647936
104	0x3dfec571	0.12440003
105	0x3cd9e360	0.026597679
106	0xbd2e6881	-0.04258013
107	0x3ed20e19	0.4102638
108	0x3e1e8bae	0.15482971
109	0x3eb84e12	0.35997063
110	0xbd90240c	-0.070381254
111	0xbf59965a	-0.84995043
112	0xbf40ba0f	-0.752839
113	0xbf346f50	-0.7048235
114	0xbf5b65d0	-0.8570223
115	0xbe17cb17	-0.14823566
116	0xbe337a0b	-0.17527024
117	0xbc036b8d	-0.008021248
118	0xbec345b8	-0.3813913
119	0xbdebab15	-0.11507241
120	0x3faf1887	1.367936
121	0x4007ee32	2.1239133
122	0x3fe40640	1.7814407
123	0x3fd7cde7	1.6859711
124	0x3f7738c2	0.9657098
125	0xbd199c9a	-0.037502863
126	0xbe5e5364	-0.21711498
127	0xbd32eb9e	-0.043681733
128	0x3e24ad4d	0.16081734
129	0x3da468aa	0.080277756
130	0x3ec039b5	0.37544027
131	0x3ea26a7b	0.31721863
132	0x3e1e6ffd	0.15472408
133	0x3ee881b1	0.45411447
134	0x3eaa6a60	0.33284283
135	0xbf0958e1	-0.53651243
136	0xbf56de57	-0.83933014
137	0xbf31ec4d	-0.6950119
138	0xbf89bc43	-1.0760578
139	0xbf374295	-0.7158597
140	0x3d7af030	0.061264217
141	0xbf03985e	-0.5140437
142	0xbd446c73	-0.047954988
143	0xbebfd1ce	-0.37464756
144	0xbef51636	-0.47868508
145	0x3feaac1e	1.8333776
146	0x3fc055f0	1.5026226
147	0x3fa53107	1.2905587
148	0x3fc7dc60	1.5614128
149	0x3f7acc91	0.97968394
150	0x3fdebf82	1.7402194
151	0x40013377	2.0187662
152	0x3fbea404	1.4893804
153	0x3faad51f	1.3346289
154	0x3e8827f8	0.26592994
155	0x3ef12acb	0.4710296
156	0x3e558752	0.20852402
157	0x3e960dff	0.29307553
158	0xbdeeb544	-0.116556674
159	0xbeb6037c	-0.35549533
160	0xbd90e8cb	-0.07075652
161	0xbe695d56	-0.22789511
162	0xbe2463a4	-0.16053635
163	0xbe71c55a	-0.2361044
164	0xbeeb4fa7	-0.45959207
165	0xbe0a6a6f	-0.13517164
166	0xbf0ee156	-0.55812585
167	0xbf748814	-0.9552014
168	0xbf7aa523	-0.9790823
169	0xbed0335f	-0.40664193
170	0xbdb123bf	-0.08649396
171	0x3d416935	0.047219474
172	0xbe7c3ba2	-0.24632123
173	0xbf1f371c	-0.62193465
174	0xbf3ae190	-0.7300043
175	0x3fae4ccc	1.3617187
176	0x3fe3f781	1.7809907
177	0x3fb4870b	1.4103712
178	0x3f7e6f16	0.99388254
179	0x3e1662bd	0.14686103
180	0xbc1bbf42	-0.009506049
181	0x3e42596f	0.18979429
182	0x3e9cded7	0.30638763
183	0x3e343791	0.17599322
184	0xbd6454e8	-0.055745035
185	0xbd3d3567	-0.046193507
186	0xbd856a38	-0.065144
187	0xbe5106d7	-0.20412765
188	0xbeb7dd24	-0.35910904
189	0xbc8a78c5	-0.01690329
190	0xbee396e0	-0.44451046
191	0xbede7680	-0.43449783
192	0xbe291e4f	-0.16515468
193	0xbf24c812	-0.64367783
194	0xbf13b0fd	-0.5769194
195	0xbef8a817	-0.48565742
196	0xbec1f21d	-0.3788003
197	0xbe7ead10	-0.24870706
198	0xbf466d04	-0.77510095
199	0xbf2582d3	-0.64652747
200	0xbeccb144	-0.39978993
201	0xbf06ebc1	-0.5270348
202	0xbea874e8	-0.32901692
203	0xbf14d359	-0.5813499
204	0xbf40c10c	-0.75294566
205	0xbedeade6	-0.4349205
206	0xbeffa7e0	-0.49932766
207	0xbea2b5b4	-0.31779253
208	0xbedfb343	-0.43691453
209	0xbe5812c6	-0.21100911
210	0xbdf6328d	-0.120213605
211	0xbecd2c68	-0.40072942
212	0xbf218fd4	-0.6311009
213	0xbef28df3	-0.47373924
214	0xbf3ff627	-0.74984974
215	0x3ebad3c1	0.3648968
216	0xbe9d016d	-0.3066515
217	0xbe29c172	-0.165777
218	0xbdd145fa	-0.10218425
219	0xbed9ecdf	-0.4256353
220	0xbf3795cb	-0.7171294
221	0xbf4949b4	-0.7862809
222	0xbf62093c	-0.8829534
223	0xbf2452e6	-0.6418899
224	0xbf7f4a50	-0.99722767
225	0x3d7cde04	0.061735168
226	0xbed6f038	-0.41980147
227	0xbec67fb7	-0.38769314
228	0xbf1e41a9	-0.6181894
229	0xbf3fa55e	-0.74861705
230	0xbeb8e32e	-0.36110824
231	0xbe0486ae	-0.12942001
232	0x3ea34108	0.31885552
233	0xbf1e072c	-0.61729693
234	0x3e52bb6c	0.20579308
235	0xbe843bca	-0.25826865
236	0xbea9e97d	-0.3318595
237	0xbf1d9e1a	-0.6156937
238	0xbe43f915	-0.19137986
239	0xbf5c2b6c	-0.86003757
240	0x3e18849b	0.14894335
241	0xbf18ff94	-0.5976498
242	0xbecc7e6b	-0.399402
243	0xbf0ec1e1	-0.55764586
244	0xbefb4216	-0.49073857
245	0xbf51018e	-0.81643
246	0xbf4a3afa	-0.7899624
247	0xbefe8b92	-0.4971586
248	0xbefda3fd	-0.49539176
249	0xbe8c059e	-0.27348036
250	0xbd67696c	-0.056497023
251	0xbe79239b	-0.24329989
252	0xbe73b3d7	-0.23799072
253	0xbf0c1e5b	-0.5473382
254	0xbf3e00a7	-0.74219745
255	0xbe2f39ab	-0.17111842

conv1.bias f4 [8]
0	0xbe8bd1fa	-0.27308637
1	0xc002398a	-2.034762
2	0xbfef910f	-1.8716143
3	0xbf8f8f8a	-1.121568
4	0x3ffa8347	1.9571313
5	0xbf5983c7	-0.849667
6	0xbee5620d	-0.4480137
7	0xc00cfe61	-2.203026

bn1.weight f4 [8]
0	0x3f030c34	0.51190495
1	0x3f426b95	0.7594541
2	0x3f8d7309	1.1050731
3	0x3fd937a2	1.6970103
4	0x3f7a46f5	0.9776452
5	0x3f91c4bd	1.1388165
6	0x3fee95a4	1.8639417
7	0x3faed90a	1.3659985

bn1.bias f4 [8]
0	0x3f7717c4	0.9652064
1	0xbe0c4064	-0.13696438
2	0xbec313a5	-0.38100925
3	0xbe4d1da1	-0.20030834
4	0x3f5768b3	0.84144133
5	0xbeaca8a9	-0.33722427
6	0xbe5838f9	-0.21115483
7	0xbfa7cd42	-1.3109515

bn1.running_mean f4 [8]
0	0x408b3ec7	4.3514132
1	0x3ffae564	1.9601254
2	0x3fe1a0f8	1.7627249
3	0x3ff0777b	1.8786463
4	0x40d3d68e	6.6199408
5	0x3fd9b876	1.7009418
6	0x3fe79a95	1.809405
7	0x4024d16f	2.5752828

bn1.running_var f4 [8]
0	0x41c42c25	24.521555
1	0x416ca404	14.790043
2	0x419dd08e	19.726833
3	0x4169b0cf	14.605666
4	0x41c32afe	24.395992
5	0x418e5a2b	17.794027
6	0x41389b36	11.537893
7	0x42513dab	52.310223

conv2.weight f4 [16, 8, 3, 3]
0	0xbedc0b41	-0.42977336
1	0xbf25caea	-0.6476275
2	0xbe020f1c	-0.12701076
3	0xbf71648c	-0.9429405
4	0xbfaa7871	-1.3318006
5	0xbf7dda21	-0.99160963
6	0xbfd50f83	-1.6645359
7	0xbffcd5d5	-1.9752756
8	0xbfca31ec	-1.5796485
9	0x3f764562	0.9619962
10	0x3f0d90f2	0.55299294
11	0x3f86c755	1.0529581
12	0x3f549f41	0.830555
13	0x3f06ccd8	0.52656317
14	0x3f3b16e0	0.7308178
15	0x3e32ab1d	0.17448087
16	0x3d9e1c73	0.0772027
17	0xbe188672	-0.14895037
18	0x3cde7233	0.027154064
19	0x3ebc33f0	0.36758375
20	0x3e8548c1	0.2603207
21	0x3ee57689	0.44816998
22	0x3f2cb0b5	0.67457134
23	0x3e904405	0.28176895
24	0xbf1d3ffb	-0.6142575
25	0xbece0797	-0.40240166
26	0xbe744d9b	-0.23857729
27	0x3dc56cba	0.096398786
28	0xbeb646fe	-0.35601038
29	0xc002aa96	-2.0416617
30	0xbf0a9ff5	-0.54150325
31	0xbf40a657	-0.75253814
32	0xbf256a83	-0.6461565
33	0x3c4a1d4b	0.012336086
34	0xbe9c2427	-0.30496332
35	0xbe6c8fa2	-0.23101667
36	0x3e76dc5d	0.241075
37	0xbd892519	-0.06696529
38	0x3f08d0ce	0.5344361
39	0x3ede6819	0.43438795
40	0xbcce5f57	-0.025191946
41	0xbccd95c8	-0.025095835
42	0x3f3e7653	0.743993
43	0x3e7b083f	0.24514864
44	0x3d3833a3	0.04497112
45	0x3ed10803	0.40826425
46	0x3eb41ca9	0.35178116
47	0x3f9a1f31	1.2040769
48	0x3f797430	0.97442913
49	0x3f913296	1.1343563
50	0x3f3dfb8e	0.74211967
51	0xbe2b9e64	-0.1675964
52	0x3ee5ca3c	0.44880855
53	0xbf0dd1f2	-0.55398476
54	0xbfa32d8a	-1.2748272
55	0xbfa01fa2	-1.2509654
56	0xbfa9b041	-1.3256913
57	0x3f064460	0.5244808
58	0x3f33d7c7	0.70251125
59	0x3ef611bb	0.48060402
60	0x3ce2043e	0.027589913
61	0xbf083ac8	-0.53214693
62	0xbf10002c	-0.5625026
63	0xbe7b9ff8	-0.24572742
64	0xbf81e285	-1.0147253
65	0xbf0763f9	-0.5288692
66	0x3ee1559b	0.44010624
67	0x3eb76b59	0.35824087
68	0xbd6443c3	-0.055728685
69	0x3fbae011	1.459963
70	0x400bdc92	2.1853375
71	0x3f9be8d8	1.2180433
72	0xbe35d814	-0.17758209
73	0xbebaa5f0	-0.36454725
74	0xbeb7c6f1	-0.35893968
75	0xbe690c90	-0.22758698
76	0xbf1869f0	-0.5953665
77	0xbf2c4f25	-0.67308265
78	0x3cd5b3c4	0.026086695
79	0xbf43e334	-0.7651856
80	0xbf4d8241	-0.80276877
81	0xbf99a7c7	-1.2004327
82	0xbf145956	-0.57948816
83	0xbe93ea12	-0.2888952
84	0xbe855b38	-0.26046157
85	0xbf09b0f0	-0.5378561
86	0xbe382871	-0.17984177
87	0xbecb254a	-0.39676887
88	0xbf457525	-0.77131873
89	0xbe06a8a1	-0.13150264
90	0xbf2fe7f1	-0.6871329
91	0xbf56e901	-0.83949286
92	0xbf32337b	-0.696098
93	0x3f30f0f0	0.6911764
94	0x3eb1d528	0.34732938
95	0x3e1c3974	0.15256292
96	0xbda6602c	-0.08123812
97	0xbf3342e4	-0.7002394
98	0xbf5bc3a4	-0.858454
99	0xbc6261cb	-0.013817261
100	0x3e4d83ff	0.20069884
101	0x3f151c2b	0.58246106
102	0x3fce5650	1.612009
103	0x3fc65e3e	1.549751
104	0x3f9db30d	1.2320267
105	0xbf2c704f	-0.6735887
106	0xbeaa7268	-0.3329041
107	0xbeba2d36	-0.36362618
108	0xbf3ceb33	-0.73796386
109	0xbf526a0a	-0.8219305
110	0xbf76ecc5	-0.9645503
111	0xbee7f1b1	-0.45301583
112	0xbf23c783	-0.63976306
113	0xbf350430	-0.70709515
114	0xbea43ac0	-0.32076073
115	0xbea3efed	-0.32018986
116	0xbeb15914	-0.34638274
117	0x3eb6b6a4	0.3568622
118	0x3f0f5ba9	0.5599924
119	0x3e9b6e4f	0.30357596
120	0x3f6307c8	0.8868375
121	0x3f154cb7	0.5832018
122	0x3e8a876f	0.27056453
123	0xbf2ab853	-0.66687506
124	0xbf26452a	-0.64949286
125	0xbf6bc263	-0.92093486
126	0x3f4bdaf8	0.79630995
127	0x3f16fef8	0.589828
128	0x3e69ac21	0.22819568
129	0xbfd9f3e3	-1.7027553
130	0xbf9a2b2c	-1.2044425
131	0xbfe1da0a	-1.7644665
132	0xbca8b379	-0.020593392
133	0x3d9851a5	0.074374475
134	0x3e486705	0.19570549
135	0x3f1bdae5	0.6088088
136	0x3ea6c19a	0.3256958
137	0xbdc12264	-0.094303876
138	0xbf76cba6	-0.9640449
139	0xbf8b809e	-1.0898626
140	0xbfa27c15	-1.2694117
141	0x3f7710a1	0.9650975
142	0x3f41ddd3	0.757291
143	0x3ecea852	0.40362793
144	0xbf53f180	-0.82790375
145	0xbf68db4c	-0.9095962
146	0xbf12a17a	-0.57277644
147	0xbf31d9be	-0.69472873
148	0xbea64c40	-0.3248005
149	0xbf13c315	-0.57719547
150	0xbf349fcc	-0.7055633
151	0xbe1420a7	-0.14465581
152	0xbe8bd7f7	-0.27313206
153	0x3f21e7c8	0.63244295
154	0x3ea409de	0.32038778
155	0x3f21f844	0.6326945
156	0x3f4cb99c	0.7997072
157	0x3ec8a4b8	0.3918817
158	0x3e89f441	0.26944163
159	0x3f0a9f57	0.54149383
160	0x3f25105a	0.64478076
161	0x3f1bf96f	0.6092748
162	0xbe9fd98f	-0.31220672
163	0xbf075c14	-0.52874875
164	0xbe912b50	-0.28353357
165	0xbf8b5a26	-1.0886886
166	0xbf87fd46	-1.0624168
167	0xbf3c6524	-0.7359183
168	0xbf17257b	-0.59041566
169	0xbf585844	-0.8450968
170	0xbf795aeb	-0.97404355
171	0xbe31f430	-0.17378306
172	0xbf28d1b0	-0.6594496
173	0xbfc0c664	-1.5060544
174	0x3d521edb	0.051298957
175	0x3eb8277f	0.35967633
176	0x3d91b164	0.07113913
177	0x3f1bd6f5	0.60874873
178	0x3f2b41e9	0.66897446
179	0x3ebc1469	0.36734322
180	0xbf312e03	-0.69210833
181	0xbf88086f	-1.0627574
182	0xbf431882	-0.7620927
183	0xbfa25a44	-1.2683797
184	0xbfbfdeca	-1.4989865
185	0xbfab0c44	-1.3363118
186	0xbf89f7ef	-1.0778788
187	0xbf3fec40	-0.74969864
188	0xbf722ea9	-0.9460245
189	0x3f80b873	1.005629
190	0x3f454943	0.77064914
191	0x3f923bc4	1.1424489
192	0xbf83fd3a	-1.0311654
193	0xbf4e2755	-0.80528766
194	0xbeb9c503	-0.3628312
195	0xbf358bcd	-0.70916444
196	0x3d01e915	0.031716425
197	0xbf6df1c8	-0.92947054
198	0xbfda8b0d	-1.7073685
199	0xbfb95242	-1.4478228
200	0xbfa04967	-1.2522401
201	0x3f7660cd	0.96241456
202	0x3f0f7e24	0.5605185
203	0x3f3a5f2a	0.7280146
204	0xbe6f45e7	-0.2336651
205	0xbdc9082c	-0.09816012
206	0x3cc24e39	0.02371894
207	0x3e8af89e	0.27142805
208	0x3e0c1af5	0.13682158
209	0x3edbb148	0.42908692
210	0x3df89ad0	0.12138903
211	0xbdbf525e	-0.09341882
212	0x3e1ed572	0.1551111
213	0xbf3e8325	-0.7441886
214	0xbf30b194	-0.6902096
215	0xbf1fd658	-0.6243644
216	0xbf1e06d8	-0.6172919
217	0x3f07fe8b	0.53122777
218	0xbe50d4c1	-0.20393659
219	0xbf848974	-1.0354447
220	0xbda7245a	-0.081612304
221	0xbe704d68	-0.23467028
222	0xbf3b7d66	-0.7323822
223	0x3efe402b	0.4965833
224	0x3e01a6c2	0.1266127
225	0x3f1c963f	0.6116676
226	0x3e891395	0.26772752
227	0xbeaed373	-0.34145698
228	0x3e14f8c7	0.14548026
229	0x3ebfaadf	0.37435052
230	0xbd907479	-0.070534654
231	0x3e33e24f	0.17566799
232	0xbdb792d0	-0.08963549
233	0xbef4dc23	-0.478242
234	0x3f18a6ea	0.5962969
235	0x3ebeb7dc	0.3724965
236	0x3ef1381f	0.4711313
237	0x3f2b7312	0.6697246
238	0x3f24a9bf	0.6432151
239	0x3e9320a4	0.2873584
240	0x3f47e726	0.7808708
241	0x3f52c8cb	0.82337636
242	0x3e315910	0.17319131
243	0xbfe3695d	-1.7766529
244	0xc00e6ce2	-2.2253957
245	0xc00d4a40	-2.2076569
246	0xbe99a63d	-0.30009642
247	0xbf3c0773	-0.73448867
248	0xbf283bb0	-0.65716076
249	0xbd36ede4	-0.044660464
250	0x3cfdfb57	0.031003637
251	0xbe5084e8	-0.203632
252	0xbf86c097	-1.0527524
253	0xbe97e866	-0.29669493
254	0xbf287d71	-0.6581641
255	0xbe668d8c	-0.22514933

conv2.bias f4 [16]
0	0xc05df8d7	-3.468313
1	0x3e38ac0f	0.18034385
2	0xbfd082d4	-1.6289926
3	0xbeafd12b	-0.3433927
4	0xbf6c01b3	-0.9219009
5	0xbf69372b	-0.91099805
6	0xc003568b	-2.0521572
7	0xbfa1c837	-1.2639226
8	0xbf953a83	-1.1658481
9	0xbf530265	-0.8242553
10	0xbfc61c41	-1.5477372
11	0xc0101024	-2.2509851
12	0xbf3c2e2e	-0.73507965
13	0xbe9f2fbe	-0.31091112
14	0x3e0a23fc	0.1349029
15	0xbed6389e	-0.4184007

bn2.weight f4 [16]
0	0x3fecfec7	1.8515252
1	0x3fb20ccc	1.3910155
2	0x3f9a7653	1.206736
3	0x3fcf2f87	1.6186379
4	0x3fb294fc	1.3951716
5	0x3f9e61d7	1.2373608
6	0x3fb50e13	1.414492
7	0x3f758463	0.9590513
8	0x3f123862	0.57117283
9	0x3f856633	1.0421814
10	0x3fc320bc	1.5244365
11	0x4002285a	2.0337129
12	0x3f944302	1.1582949
13	0x3fb4350a	1.4078686
14	0x3f9459d0	1.1589909
15	0x3fbdf185	1.4839331

bn2.bias f4 [16]
0	0x3f540f85	0.8283618
1	0xbf3e8829	-0.74426514
2	0x3f0648a9	0.5245462
3	0xbefea381	-0.4973412
4	0xbf4dacfb	-0.8034207
5	0xbf318501	-0.6934357
6	0x3f290ccd	0.6603516
7	0xbd56fe2a	-0.052488483
8	0x3eb58cf7	0.3545911
9	0x3eb7f554	0.35929358
10	0x3d666c35	0.056255538
11	0x3e9c4878	0.3052404
12	0xbe393fec	-0.1809079
13	0x3e20bb2e	0.15696403
14	0x3f0e4df4	0.555877
15	0xbe4ba200	-0.19886017

bn2.running_mean f4 [16]
0	0x3f0948b4	0.5362656
1	0x3fbe6119	1.4873382
2	0x3f918452	1.1368506
3	0x3fe1a504	1.7628484
4	0x3fb0d42a	1.3814747
5	0x3f889d54	1.0673013
6	0x403fb7e3	2.9955986
7	0x400917dc	2.1420813
8	0x409167b4	4.543909
9	0x3fc7c7b8	1.5607824
10	0x3fec07c8	1.8439875
11	0x3fba23b4	1.4542146
12	0x3f975650	1.1823215
13	0x401ffc9f	2.4997938
14	0x3fd6f143	1.6792377
15	0x402ac362	2.6681752

bn2.running_var f4 [16]
0	0x419198c1	18.199587
1	0x41dad341	27.353151
2	0x418380c1	16.437868
3	0x425c79bb	55.118877
4	0x420dba21	35.431767
5	0x4190cd55	18.10026
6	0x42a126e0	80.57593
7	0x4211faef	36.495052
8	0x43760ca3	246.04936
9	0x419b5c22	19.419987
10	0x427cdc99	63.215427
11	0x4252c70e	52.69439
12	0x41ba40af	23.281584
13	0x4284a45c	66.321014
14	0x41f2711d	30.305231
15	0x42a2dc7a	81.43062

conv3.weight f4 [32, 16, 3, 3]
0	0xbf8bbcaf	-1.0916957
1	0xbf5a9a56	-0.8539175
2	0xbf133c6f	-0.5751409
3	0xbf17ce41	-0.59299093
4	0xbef61a87	-0.48067114
5	0xbf12a37a	-0.57280695
6	0xbfca8db1	-1.5824491
7	0xbff39777	-1.9030598
8	0xc024b3d4	-2.5734758
9	0x3e7bcb62	0.24589303
10	0xbf129420	-0.5725727
11	0x3de4f54e	0.11179601
12	0x3f526dae	0.8219861
13	0x3eead821	0.45868018
14	0xbe0a87f8	-0.1352843
15	0xbf7803c7	-0.96880764
16	0xbf80f169	-1.0073673
17	0xbfd05d39	-1.6278449
18	0xbf66ca76	-0.9015268
19	0xbe8cc4c8	-0.27493882
20	0xbf6d04a6	-0.9258522
21	0xbedf190f	-0.43573806
22	0xbefd0d8b	-0.49424395
23	0xbec08443	-0.37600908
24	0xbf357fd6	-0.7089819
25	0xbfb10a18	-1.3831205
26	0xbfa3fbb0	-1.2811184
27	0xbf96cc4a	-1.1781094
28	0xbf269d31	-0.65083605
29	0xbf89273a	-1.0715096
30	0x3efc1b3b	0.49239525
31	0x3eb3fffe	0.35156244
32	0x3f397b25	0.7245353
33	0x3ecbbc59	0.39792135
34	0x3e110af8	0.1416434
35	0xbccb3eb1	-0.024810167
36	0xbb75f888	-0.003753217
37	0x3f302f2b	0.6882197
38	0x3f549f2c	0.83055377
39	0xbe0ea973	-0.13931827
40	0x3f12f498	0.5740447
41	0x3effd01e	0.49963468
42	0xbe0593a2	-0.13044599
43	0x3ee98647	0.45610258
44	0x3f33add9	0.70187145
45	0x3fb56b91	1.4173452
46	0x3fa183ed	1.2618386
47	0x3f90eb98	1.1321898
48	0xbfd0515d	-1.627483
49	0xbfc4111f	-1.5317725
50	0xc0171385	-2.3605664
51	0xbdcfca50	-0.1014601
52	0xbe310e60	-0.1729064
53	0x3e04096c	0.12894219
54	0xbdc6f6b1	-0.097150214
55	0xbde28e4c	-0.11062297
56	0xbe1b53a6	-0.15168628
57	0x3e1e8c9b	0.15483324
58	0x3ea35e64	0.31907952
59	0x3f5ff7ac	0.8748729
60	0x3f1bed5f	0.60909075
61	0x3f91a898	1.1379576
62	0x3fb3a712	1.4035361
63	0x3ee3b3ac	0.44473016
64	0x3ebf8788	0.3740809
65	0xbf083bde	-0.5321635
66	0xbf80371c	-1.0016818
67	0xbfa8bddb	-1.3182939
68	0xbfb03202	-1.3765261
69	0x3e22d27f	0.1590061
70	0xbef0e102	-0.47046667
71	0x3e897e06	0.2685396
72	0x3f8ccf03	1.1000675
73	0x3f3b0b40	0.7306404
74	0x3f3fd099	0.7492767
75	0x3e94c2b8	0.2905481
76	0x3dfa2d75	0.122157015
77	0x3f435cef	0.7631368
78	0x3f446859	0.7672172
79	0x3e1ff1e3	0.15619616
80	0x3f028ebc	0.50999045
81	0xbe1d929d	-0.1538796
82	0x3d5d4b83	0.05402709
83	0xbf653062	-0.8952695
84	0xbf5880ac	-0.8457134
85	0xbf1aa0b6	-0.60401475
86	0xbd99ff69	-0.07519419
87	0xbe2d3025	-0.16912897
88	0xbcc91e43	-0.024550563
89	0x3f46df92	0.7768489
90	0x3ecb4a3c	0.39705074
91	0x3f277831	0.6541777
92	0x3f4d5dcc	0.8022125
93	0x3e73d7ae	0.23812744
94	0x3e69dc16	0.22837862
95	0x3dee7e59	0.11645193
96	0xbfbd4eec	-1.478971
97	0xbfefdc56	-1.8739116
98	0xbfc433ef	-1.5328349
99	0x3de5a68b	0.11213406
100	0xbeb01817	-0.3439338
101	0xbeed7dab	-0.4638494
102	0x3f05bbbd	0.5223959
103	0x3edef150	0.43543482
104	0x3edc23d9	0.429961
105	0x3eb20e6d	0.3477663
106	0x3f8db4ea	1.1070836
107	0x3f6f0dc8	0.93380404
108	0x3f0498a6	0.51795423
109	0xbda3a2ca	-0.07990034
110	0x3ebbd739	0.3668764
111	0xbf9c89c1	-1.2229539
112	0xbfce4b72	-1.6116774
113	0xbfb45528	-1.4088488
114	0x3f406452	0.75153077
115	0x3f2955b4	0.661464
116	0x3dc161e1	0.09442497
117	0x3e386ae3	0.18009524
118	0x3ecc0955	0.3985087
119	0x3f0df67c	0.5545423
120	0xbe87ae62	-0.2650023
121	0x3d9db148	0.07699829
122	0x3f0e536b	0.55596036
123	0x3fbafb3f	1.4607924
124	0x3fa9e1a4	1.3271985
125	0x3fc20d4a	1.5160306
126	0x3ea2391e	0.31684202
127	0x3e1eff37	0.15527044
128	0xbe1eb896	-0.15500101
129	0xbeb4dcc4	-0.3532468
130	0xbf4a9809	-0.7913824
131	0xbea14ff2	-0.31506306
132	0xbf1a589f	-0.60291475
133	0xbf3bbfac	-0.73339343
134	0xbf790ba5	-0.97283393
135	0xbe382368	-0.17982256
136	0x3ba09462	0.004900501
137	0x3ec96f62	0.3934279
138	0x3ebb0eab	0.36534628
139	0x3ece5d4e	0.4030556
140	0x3f821b17	1.0164517
141	0xbf00c3f8	-0.50299025
142	0xbde80396	-0.11328809
143	0x3d4c4355	0.0498689
144	0x3edc6acd	0.43050233
145	0x3f52b2e0	0.8230419
146	0x3e6d7fc2	0.23193267
147	0xbde786b0	-0.113049865
148	0xbeb2a797	-0.34893486
149	0x3e767f8d	0.24072094
150	0xbe8d731f	-0.27626893
151	0xbf7f5607	-0.9974064
152	0xbeca8b2d	-0.39559308
153	0x3f3900bd	0.7226675
154	0x3f74f8a5	0.956919
155	0x3f346828	0.7047143
156	0x3d736454	0.059421852
157	0xbd21a369	-0.03946248
158	0xbe8d7e6d	-0.27635518
159	0xbd7acbb4	-0.061229423
160	0xbe606c94	-0.2191642
161	0x3f0198f8	0.50624037
162	0x3f2ebad7	0.68253845
163	0x3eac6477	0.336704
164	0xbede3aa8	-0.43404126
165	0x3c9cb55e	0.019129451
166	0x3dc2d5ca	0.09513433
167	0x3eacd388	0.33755136
168	0xbfcc543f	-1.596321
169	0xbf76e0d6	-0.9643682
170	0xbf26eb57	-0.6520285
171	0x3eb74dba	0.35801488
172	0x3f806ce7	1.0033234
173	0x3faa2080	1.3291168
174	0xbdd2ebd8	-0.1029889
175	0x3d9719bf	0.073779576
176	0x3e3efee0	0.18651915
177	0xbfcbeccb	-1.5931638
178	0xbf9b67af	-1.2141017
179	0xbf96645b	-1.1749376
180	0x3e19ae49	0.15007891
181	0x3f1c33de	0.61016643
182	0x3f8b97f9	1.0905753
183	0xbff94c4d	-1.947641
184	0xbfdec53b	-1.740394
185	0xc00a2e32	-2.1590695
186	0x3f754bb9	0.9581867
187	0x3f39fb59	0.7264915
188	0x3efa3387	0.48867437
189	0x3f561669	0.83627945
190	0x3fdd594e	1.7292879
191	0x3f6f9e24	0.9360068
192	0xbfbf76c1	-1.4958116
193	0xbf806e7d	-1.0033718
194	0xbea848d6	-0.3286807
195	0xbf04da29	-0.51895386
196	0xbe3e8c98	-0.1860832
197	0xbeaa47f7	-0.3325803
198	0xbf7bf15f	-0.9841518
199	0xbeec84aa	-0.46194965
200	0xbe40b79f	-0.18820046
201	0x3f56697c	0.83754706
202	0x3e59ce4b	0.21270101
203	0x3f225883	0.6341631
204	0xbff350eb	-1.9009069
205	0xbfce8b91	-1.6136342
206	0xbf495219	-0.78640896
207	0x3d29c52a	0.041447796
208	0x3f307cad	0.6894024
209	0x3f5479bb	0.82998246
210	0x3c8dd5cc	0.01731386
211	0x3eefa2b2	0.46803814
212	0x3f02f153	0.5114948
213	0x3de528f8	0.11189455
214	0x3e8b883d	0.2725238
215	0x3e8db004	0.27673352
216	0xb9b0f3b7	-0.00033750918
217	0x3d15ae93	0.03654344
218	0xbe88fcae	-0.2675528
219	0x3eb706ce	0.3574738
220	0x3f81eb79	1.0149986
221	0x3f3daf0c	0.74095225
222	0xbdeb4c46	-0.114891574
223	0x3ef55b1d	0.47921076
224	0x3e97a266	0.29616088
225	0x3ef7d34e	0.484034
226	0x3e9d5522	0.30729014
227	0x3f3f3702	0.7469331
228	0xbf4db73a	-0.80357707
229	0xbf8d7ddc	-1.1054034
230	0xbf5cdae5	-0.86271507
231	0xbe6319d0	-0.22177815
232	0x3f1a5ddc	0.6029947
233	0x3f383681	0.71958166
234	0x3ef6f897	0.48236534
235	0x3d6082ee	0.054812364
236	0xbd7f9162	-0.062394507
237	0xbf9ae0d9	-1.2099868
238	0xbf483af7	-0.78214973
239	0xbea616d8	-0.32439303
240	0x3eae6e8b	0.34068713
241	0x3d162893	0.03665979
242	0x3e25a355	0.16175587
243	0xbfb4995c	-1.4109302
244	0xbf3f6007	-0.747559
245	0xbf4670b3	-0.77515715
246	0xbeed47c5	-0.46343818
247	0xbf0db604	-0.5535586
248	0xbedece77	-0.43516895
249	0xbfc7c4c8	-1.5606928
250	0xbef5c668	-0.48002934
251	0xbc9ad6e3	-0.018901294
252	0xbf8b0a4d	-1.0862519
253	0x3d0dee87	0.034651306
254	0xbf13063f	-0.57431406
255	0x3f68045b	0.90631646

conv3.bias f4 [32]
0	0xbfc5a0c4	-1.5439687
1	0xbcb43536	-0.02199803
2	0xbf9c0c61	-1.2191278
3	0xbeead62c	-0.45866525
4	0x3f8ebdd6	1.1151683
5	0x3e4f74bd	0.20259376
6	0xbf08526c	-0.53250766
7	0xbfd4e48f	-1.663225
8	0xbeced3a2	-0.40395838
9	0xc0115676	-2.2709022
10	0xbcf605b7	-0.030032022
11	0xbee81426	-0.45327872
12	0xbf1bd0dd	-0.60865575
13	0xbf6f2d68	-0.9342866
14	0xbf8d1d02	-1.1024477
15	0x3ed29678	0.41130424
16	0xbfa8690d	-1.3157059
17	0xbf4ffde9	-0.8124681
18	0xbf59bb6d	-0.85051614
19	0xbfa7ab53	-1.3099159
20	0xbf3a9f02	-0.72898877
21	0xbe9ef317	-0.31044838
22	0xbf21c8c7	-0.63196987
23	0x3eb9dbeb	0.36300597
24	0xbf9b8607	-1.2150277
25	0xbfe96be2	-1.8236048
26	0xbff48e4d	-1.9105927
27	0xc00b9532	-2.1809812
28	0x3d477a39	0.048700545
29	0xbf377df6	-0.71676576
30	0xbfaa600e	-1.3310564
31	0x3ee8be12	0.45457512

bn3.weight f4 [32]
0	0x3fc77ace	1.5584352
1	0x3fdbacb9	1.7162086
2	0x3f9cc295	1.2246882
3	0x3fce8a65	1.6135985
4	0x3f918e40	1.1371536
5	0x3fa0c613	1.2560447
6	0x3fdae6c6	1.7101676
7	0x3f376c32	0.7164947
8	0x3faf21e1	1.3682214
9	0x3fae8fad	1.3637596
10	0x3fb2cee9	1.3969394
11	0x3fc3fd1b	1.5311617
12	0x3f9df546	1.2340477
13	0x3faf320a	1.3687146
14	0x3fa820ea	1.3135045
15	0x3fd3bf37	1.6542729
16	0x3fba4797	1.4553097
17	0x3fbb3e02	1.4628298
18	0x3fad972a	1.3561757
19	0x3f82ebd2	1.0228217
20	0x3faa28b0	1.3293667
21	0x3fa33e61	1.2753412
22	0x3fa682ba	1.3008645
23	0x3f80937e	1.0045011
24	0x3fa8fd0d	1.3202225
25	0x3f89a58b	1.0753645
26	0x3f869a62	1.0515864
27	0x3fed07f6	1.8518054
28	0x3fb886ae	1.4416101
29	0x3fc4b455	1.5367533
30	0x3fbdc030	1.4824276
31	0x3f7cff87	0.98827404

bn3.bias f4 [32]
0	0x3f261c52	0.64886963
1	0x3f4f210d	0.80909806
2	0xbf04e54c	-0.5191238
3	0x3e5c3c54	0.21507388
4	0x3e247e47	0.16063796
5	0x3f46aaa3	0.7760412
6	0x3f708d48	0.9396558
7	0xbf810e22	-1.0082438
8	0xbe918e93	-0.28429088
9	0x3f57f69d	0.84360677
10	0x3f09579b	0.536493
11	0xbe34e945	-0.1766711
12	0xbe24b411	-0.16084315
13	0x3e1cb88d	0.15304776
14	0x3e804294	0.25050795
15	0x3f0762c3	0.52885073
16	0x3e0589fe	0.13040921
17	0x3e3497f9	0.17636098
18	0xbeb843e6	-0.35989302
19	0xbc8b8d0b	-0.017035028
20	0x3eef098f	0.4668698
21	0x3d2e682d	0.04257982
22	0x3ec15e28	0.37767148
23	0x3de4c700	0.11170769
24	0x3d64264d	0.05570059
25	0xbec13ca7	-0.37741587
26	0xbf626423	-0.88434047
27	0x3f7b12f4	0.98075795
28	0xbe3b333b	-0.18281262
29	0x3fa73dcc	1.3065734
30	0x3ef458cb	0.47723994
31	0x3e907ed1	0.28221753

bn3.running_mean f4 [32]
0	0x4002d255	2.0440876
1	0x40286089	2.630892
2	0x3eed3fac	0.4633764
3	0x40065ead	2.0995286
4	0x41b40437	22.502058
5	0x3f84c6aa	1.0373127
6	0x3fcc2240	1.5947952
7	0x3fba78e9	1.4568149
8	0x3fb7ddce	1.4364564
9	0x3f125e8d	0.57175523
10	0x3f984ab9	1.1897804
11	0x3fc06591	1.5030996
12	0x3fc6c022	1.5527384
13	0x3fc0d4cb	1.5064939
14	0x3ed635dd	0.4183797
15	0x40c3a522	6.113908
16	0x3ef501a2	0.47852808
17	0x3f369d67	0.71333927
18	0x3f6d15bc	0.9261129
19	0x3f65a502	0.89704907
20	0x3f623d8d	0.8837517
21	0x412f1504	10.942631
22	0x3fb86e84	1.4408727
23	0x4070fc1e	3.765388
24	0x3f96c46b	1.1778692
25	0x3f48a7b2	0.7838088
26	0x3f80c2f2	1.0059493
27	0x400367e4	2.053216
28	0x400fd4e3	2.2473686
29	0x3fa813d4	1.3131051
30	0x4012bdcc	2.2928343
31	0x41075891	8.459123

bn3.running_var f4 [32]
0	0x42e72b98	115.585144
1	0x42af36fb	87.60738
2	0x41ad544a	21.666157
3	0x42b7a2fd	91.81834
4	0x42ebcd3d	117.900856
5	0x424236c9	48.5535
6	0x42c94545	100.63529
7	0x42a2c346	81.38139
8	0x42174d8f	37.82574
9	0x4182a368	16.329788
10	0x42407fac	48.12468
11	0x42605deb	56.091717
12	0x425a4b97	54.57382
13	0x4287874e	67.76427
14	0x4108d9c7	8.553168
15	0x4330e998	176.91248
16	0x4183c890	16.47293
17	0x42206476	40.098106
18	0x423c8798	47.132416
19	0x4214d076	37.203575
20	0x41f7fb3c	30.997673
21	0x42aeaa3d	87.3325
22	0x42240440	41.00415
23	0x43074675	135.27522
24	0x424d0508	51.254913
25	0x420e5b01	35.58887
26	0x425f654c	55.848923
27	0x43129dc9	146.61635
28	0x42940f29	74.02961
29	0x4213a7ff	36.91406
30	0x42bd51be	94.65965
31	0x4269a141	58.407475

conv4.weight f4 [64, 32, 3, 3]
0	0xbf851d01	-1.0399476
1	0xc012d93d	-2.2945092
2	0xbf7fd9e5	-0.99941856
3	0xbc5f2a2a	-0.013620893
4	0xbf640f8e	-0.89086235
5	0x3e8332fd	0.25624838
6	0xc0129c90	-2.2908058
7	0xbfc5152a	-1.5397084
8	0xbf37fe28	-0.71872187
9	0xbfa6b770	-1.3024731
10	0xbfeacedf	-1.8344382
11	0xbe496284	-0.19666487
12	0x3e3e08ce	0.18558046
13	0xbd8e9ef3	-0.06963911
14	0x3e247636	0.16060719
15	0x3f124bd4	0.57146955
16	0xbdedf8a2	-0.116196886
17	0x3f086e3f	0.5329322
18	0xbfc0e9d9	-1.5071365
19	0xbf17745c	-0.59161925
20	0xc011a4d7	-2.275686
21	0x3e6055b2	0.2190769
22	0x3f8b4d6c	1.0883002
23	0x3fbff2b7	1.4995946
24	0xbdcd7f68	-0.100340664
25	0xbf13fd6c	-0.57808566
26	0xbf5dc6e4	-0.8663161
27	0xbf80c2e0	-1.0059471
28	0x3cf679d5	0.03008739
29	0x3da1b738	0.07896274
30	0xbe3edd03	-0.18638997
31	0x3fbbf218	1.4683256
32	0x3f23a8d9	0.63929516
33	0xbfb9d5a2	-1.451832
34	0xbfd3125c	-1.6489978
35	0xbfaae3e0	-1.3350792
36	0x3f21cabd	0.6319998
37	0x3f1f014c	0.62111354
38	0x3f0fda37	0.56192344
39	0x3f0f174d	0.5589493
40	0x3f188b50	0.59587574
41	0x3d4debc5	0.050273675
42	0x3eb5e4b3	0.35526046
43	0x3e564738	0.20925605
44	0xbf0603e4	-0.52349687
45	0x3e51b8cc	0.2048065
46	0x3eadc61b	0.33940205
47	0x3e62175e	0.22079226
48	0x3f7e451d	0.9932421
49	0xbe067009	-0.13128676
50	0xbf126063	-0.57178324
51	0xbebf9e32	-0.3742538
52	0x3e643f3e	0.2228975
53	0xbeccf326	-0.40029258
54	0xbcb797c3	-0.022411233
55	0x3f4449a6	0.7667488
56	0x3f264035	0.6494172
57	0xbf957623	-1.1676677
58	0xbfb794fc	-1.4342341
59	0xbfdf4125	-1.7441756
60	0xbe501d37	-0.20323645
61	0x3e77f51d	0.24214597
62	0x3de5d41c	0.11222097
63	0xbd1c4285	-0.038149375
64	0xbe536ed5	-0.20647748
65	0x3eac4cab	0.33652243
66	0x400491c4	2.0713968
67	0x3f848e63	1.0355953
68	0x3efd2dad	0.4944891
69	0x3f1903c4	0.5977137
70	0xbe9c4e93	-0.30528697
71	0x3d8657b1	0.065596946
72	0x3f24665c	0.6421869
73	0x3e9f337b	0.31093964
74	0x3f221344	0.63310647
75	0x3f64d005	0.8937991
76	0x3e4eed62	0.20207742
77	0x3f37f1a6	0.718531
78	0x3eff38a7	0.4984791
79	0x3db9d489	0.09073741
80	0x3f59d7ee	0.8509511
81	0xbf258565	-0.6465667
82	0xbf49aa0b	-0.7877509
83	0xbfa48267	-1.2852296
84	0xbf384ef2	-0.7199546
85	0xbf3d963e	-0.74057376
86	0xbf5144c2	-0.8174554
87	0x3f25e4fe	0.6480254
88	0xbef3ba77	-0.476032
89	0xbf7d0649	-0.98837715
90	0x3d3d7a8c	0.046259448
91	0xbc4a40f4	-0.012344588
92	0x3c4f355d	0.012647
93	0x3e4eb095	0.20184548
94	0x3ec31cb2	0.3810783
95	0xbfd16579	-1.6359092
96	0xbf15fd5c	-0.5858972
97	0xbf85ca7e	-1.0452421
98	0x3eab86aa	0.33501178
99	0xbf6b4049	-0.91894966
100	0xbe921d37	-0.28537914
101	0xbee47c2e	-0.44625992
102	0xbfbf7477	-1.4957417
103	0x3f6f1801	0.93396
104	0x3fa8f473	1.31996
105	0x3f8ee1f1	1.1162702
106	0x3f222a58	0.6334586
107	0x3f1f82a7	0.62308735
108	0x3f99c976	1.2014606
109	0x3f1d46d1	0.6143618
110	0x3f0ff230	0.56228924
111	0xbfb944db	-1.4474138
112	0xbfb8e157	-1.4443768
113	0xbfa55289	-1.2915813
114	0x3f5f245b	0.8716485
115	0x3f2d4a91	0.67691904
116	0x3fb7a862	1.4348261
117	0x3f2b06e2	0.6680738
118	0x3ee79a77	0.45235035
119	0x3f15c3ba	0.5850178
120	0x3ea2133d	0.31655303
121	0x3f43db02	0.76506054
122	0xbea7f943	-0.3280736
123	0xbfd5c4af	-1.6700648
124	0xc002c486	-2.0432448
125	0xbf9f58e0	-1.2448997
126	0x3f30f4cd	0.69123536
127	0x3f560d64	0.8361418
128	0x3e06daf3	0.1316946
129	0xbf0dfb53	-0.55461615
130	0xbfa3c2bf	-1.2793807
131	0xbe222a9e	-0.1583657
132	0x3f1e21c7	0.6177029
133	0xbd17c7bb	-0.037055712
134	0x3ece8815	0.40338197
135	0x3e8b1b67	0.27169344
136	0xbf5a7c8d	-0.853463
137	0xbe5e6c38	-0.2172097
138	0x3ef3b532	0.4759918
139	0x3f34c7f0	0.7061758
140	0x3eba4dab	0.3638738
141	0xc0335aac	-2.8024092
142	0xc01cae14	-2.448125
143	0xbfc91c62	-1.5711787
144	0xbfd5702a	-1.6674855
145	0xbf953d96	-1.165942
146	0xbda4d257	-0.08047932
147	0x39dfffbc	0.00042724411
148	0xbccd2514	-0.025042094
149	0x3ef11b6c	0.47091234
150	0xbf076af2	-0.5289756
151	0xbf21e188	-0.6323476
152	0xbf086208	-0.53274584
153	0x3e90ebc7	0.28304884
154	0x3f82f283	1.0230259
155	0xbf616ec4	-0.8805964
156	0x3ebb19de	0.36543173
157	0x3fa309db	1.2737383
158	0x3f957c50	1.1678562
159	0x3f6ff18b	0.9372794
160	0xbf0d8095	-0.55274326
161	0xbf50cd32	-0.81563103
162	0x3f144dcc	0.5793121
163	0x3f15417a	0.58303034
164	0x3cca6f1b	0.024711182
165	0xbe23f3fe	-0.16011044
166	0x3f8630d3	1.048365
167	0x3f94a1a5	1.161183
168	0xbf730928	-0.94935846
169	0xbd1272ac	-0.03575389
170	0xbe3266ca	-0.17422023
171	0xbf8c6a17	-1.0969876
172	0xbf1de340	-0.6167488
173	0xc03322b3	-2.7989929
174	0x3fb9abad	1.4505516
175	0x3fa1eecb	1.2650999
176	0x3e4684e4	0.19386631
177	0xbf22fb93	-0.6366512
178	0xbe90c8cd	-0.282782
179	0xbf4042ce	-0.75101936
180	0xbe4daa51	-0.20084502
181	0x3ea9f4af	0.3319449
182	0x3ee5be9f	0.44871995
183	0xbf47ef10	-0.78099155
184	0xbfc152bb	-1.5103372
185	0xbf5e1b5b	-0.8676049
186	0xbf38e600	-0.7222595
187	0xbf1c8e92	-0.61155045
188	0xbe186b06	-0.14884576
189	0x3ec6f7c5	0.38860908
190	0xbed301b1	-0.41212228
191	0x3e85f137	0.26160595
192	0xbe51d202	-0.20490268
193	0x3ea9f948	0.33198
194	0x3f8332ba	1.0249856
195	0xbd196fb3	-0.03746004
196	0xbf551064	-0.83228135
197	0xbff7abfe	-1.9349363
198	0x3e3bbec6	0.18334493
199	0xbf0f92aa	-0.56083167
200	0xbeca95cc	-0.3956741
201	0x3e03cc54	0.12870914
202	0xbbdeea10	-0.006802805
203	0x3e37fc68	0.17967379
204	0x3f113de3	0.56735057
205	0x3eafe454	0.34353888
206	0x3e7de533	0.24794464
207	0x3d9c97e0	0.07646155
208	0xbe88408d	-0.26611748
209	0xbe1b9847	-0.15194808
210	0xbf242afc	-0.6412809
211	0xbf5441ab	-0.829127
212	0xbf901532	-1.1256468
213	0xbf8596c8	-1.043664
214	0xbee29b5b	-0.44259152
215	0xbc50b362	-0.012738081
216	0xbf46d207	-0.77664226
217	0xbef1e690	-0.47246218
218	0xbdeaa244	-0.11456731
219	0x3f505011	0.8137217
220	0x3e942038	0.2893083
221	0xbf0cc9c8	-0.54995394
222	0xbfacdf73	-1.3505691
223	0xbf94df84	-1.1630712
224	0xbdbcada4	-0.09212807
225	0x3eb0b2a0	0.3451128
226	0x3f9ba30d	1.2159134
227	0x3f840376	1.0313556
228	0x3eb05da4	0.34446442
229	0x3ebfb996	0.37446278
230	0x3f517873	0.81824416
231	0x3f97d9e4	1.186337
232	0x3fe6b807	1.8024911
233	0x3f80f6d1	1.0075322
234	0xbf13a91a	-0.57679904
235	0xbf924fb3	-1.1430572
236	0xbf3d8b53	-0.74040717
237	0x3e8e59d6	0.27802914
238	0x3ef77656	0.4833247
239	0xbf02215d	-0.5083216
240	0x3fc7590c	1.557405
241	0x3ffa00e1	1.9531518
242	0x3f3508d8	0.7071662
243	0x3f1975b3	0.5994522
244	0x3f9d9f3b	1.2314218
245	0xbd9e7654	-0.07737413
246	0xbf252994	-0.6451657
247	0xc00c15e6	-2.1888366
248	0xbfe6d67d	-1.8034207
249	0xbf3609c4	-0.7110865
250	0x3e67fa32	0.22654036
251	0x3b451e7c	0.0030077985
252	0x3f49c474	0.7881539
253	0x3f8c2c48	1.0951014
254	0x3e7aabfc	0.2447967
255	0xbf0b7f6b	-0.544913

conv4.bias f4 [64]
0	0xbfb70cf0	-1.4300823
1	0xc006191c	-2.0952826
2	0xbf281529	-0.6565729
3	0xbf74d4a0	-0.9563694
4	0xbe3592a5	-0.17731722
5	0xbf3fe99c	-0.74965835
6	0xc007034a	-2.1095757
7	0xbf6cecef	-0.9254903
8	0xbf8f12e1	-1.1177636
9	0xbe99fe47	-0.3007681
10	0xbf24f8e4	-0.64442277
11	0xbf22b5e7	-0.6355881
12	0xbfaebedc	-1.3651996
13	0xc010cf02	-2.2626348
14	0xbed2c0bb	-0.41162667
15	0x3f9b804d	1.2148529
16	0xbf9b5c0a	-1.2137463
17	0xbf45982c	-0.7718532
18	0xbf2d957a	-0.6780621
19	0xbf017eca	-0.5058409
20	0xbea4f148	-0.32215333
21	0xbf5b3758	-0.8563132
22	0xbf770fc5	-0.9650844
23	0xbf9462d0	-1.1592655
24	0xbdbabaec	-0.09117684
25	0xbf2ca74c	-0.67442775
26	0xbf10ed75	-0.5661233
27	0xbe45e030	-0.19323802
28	0xbf2f908c	-0.68579936
29	0xbf7fba4a	-0.9989363
30	0xbf08f585	-0.53499633
31	0x3d8bf13a	0.0683312
32	0xbf176a4c	-0.5914657
33	0xbe808015	-0.2509772
34	0xbe93c236	-0.2885911
35	0xbe4adc08	-0.19810498
36	0xbeff23b2	-0.4983192
37	0xbf87f6e3	-1.0622219
38	0xbf824255	-1.0176493
39	0xbf71e26a	-0.94486105
40	0xbf804614	-1.0021386
41	0x3f244f4f	0.64183515
42	0xbd354aa3	-0.044260632
43	0xbef4813c	-0.47754848
44	0xbf695fb6	-0.9116167
45	0xbf134306	-0.57524145
46	0xbffc926f	-1.9732188
47	0xbfa16e95	-1.2611872
48	0x3ddd223d	0.10797546
49	0x3fd63e2b	1.6737722
50	0xbf81c45c	-1.0138049
51	0xbea52aed	-0.32259312
52	0xbf300e0c	-0.68771434
53	0x3f20f280	0.62870026
54	0xbef57868	-0.47943425
55	0xbfa184f8	-1.2618704
56	0xbfb8f8c1	-1.4450914
57	0xbed313da	-0.41226083
58	0xbf49caae	-0.7882489
59	0xc037e202	-2.8731694
60	0x3f8b2a69	1.0872318
61	0x3ee6a2a6	0.45045966
62	0xbe613e51	-0.21996428
63	0xbecedede	-0.4040441

bn4.weight f4 [64]
0	0x40c8c601	6.2741704
1	0x40e63ced	7.194937
2	0x40d185a2	6.5475626
3	0x40c3f34e	6.1234503
4	0x409164f1	4.543572
5	0x40ca2518	6.317028
6	0x40ba4bda	5.821759
7	0x4099b48e	4.8032904
8	0x4091c469	4.555226
9	0x40bd1ae8	5.9095345
10	0x40bb7e1e	5.859145
11	0x40c21739	6.065335
12	0x40c9fcbb	6.312101
13	0x40b94b5e	5.79045
14	0x40e311ab	7.0959067
15	0x3f8f5bf6	1.1199939
16	0x40cc330b	6.381231
17	0x40b8fcc5	5.7808557
18	0x40cf2ba2	6.4740763
19	0x40b06720	5.5125885
20	0x40c83275	6.2561593
21	0x40a5e81a	5.1845827
22	0x40c49be6	6.1440306
23	0x40d1c4f9	6.5552945
24	0x407f8ba7	3.9928987
25	0x40c9ee20	6.310318
26	0x40e8509f	7.2598414
27	0x40d65732	6.698144
28	0x4099968b	4.799627
29	0x40e833a3	7.2563033
30	0x40c3a500	6.1138916
31	0x404c0648	3.1878834
32	0x4089841f	4.297378
33	0x40bfd593	5.994821
34	0x4091f8dc	4.5616283
35	0x403ae224	2.9200525
36	0x40a54cf0	5.165642
37	0x40f682f4	7.7034855
38	0x40dc453a	6.8834505
39	0x40d43b7e	6.632262
40	0x40be2828	5.942402
41	0x3fa71c0e	1.3055437
42	0x40ac705a	5.388715
43	0x40a749c9	5.227757
44	0x40c2904c	6.0801144
45	0x40b2a686	5.5828276
46	0x40d1db81	6.558045
47	0x40e9c886	7.305728
48	0x4091e06c	4.5586452
49	0x4029fa07	2.6558855
50	0x40d5475f	6.6649623
51	0x409f86ae	4.9851904
52	0x40d11fd3	6.535135
53	0x3fd63018	1.6733427
54	0x40c0e884	6.0283833
55	0x40d529ed	6.661368
56	0x40c388fd	6.110472
57	0x41017835	8.091847
58	0x40eeecd1	7.4664083
59	0x40d4f321	6.654679
60	0x3faf94d6	1.3717296
61	0x406607dc	3.5942297
62	0x409b92b6	4.861659
63	0x40a345dd	5.102278

bn4.bias f4 [64]
0	0x3e0d60cb	0.13806455
1	0x3e5c2529	0.2149855
2	0xbca8a7b1	-0.020587774
3	0x3db9f1cf	0.090793245
4	0xbd8eb1be	-0.069674954
5	0x3e0ccf6e	0.13751003
6	0xbb104b42	-0.0022017513
7	0xbd71fb0f	-0.05907732
8	0x3e13ae28	0.14421904
9	0x3d8423ef	0.06452166
10	0xbd7c9e4d	-0.061674405
11	0x3e5eced7	0.2175859
12	0xbc0351bd	-0.008015093
13	0x3e2e6b47	0.1703311
14	0x3e154da1	0.14580394
15	0xbc3473b0	-0.01101391
16	0xbd83b3d0	-0.06430781
17	0x3e1bc4f1	0.15211846
18	0x3e1f7bc7	0.15574561
19	0x3e3c01f6	0.18360123
20	0x3d20a286	0.039217494
21	0x3e0f1403	0.13972478
22	0x3db6bb29	0.08922417
23	0x3e2372c7	0.15961753
24	0xbda9850f	-0.08277332
25	0x3dd39bca	0.10332449
26	0x3e2dda80	0.16977882
27	0xbd5fb0f9	-0.054612134
28	0x3dfd75b9	0.123759694
29	0x3de8a868	0.11360246
30	0x3b9c9d5c	0.004779501
31	0x3dc455d4	0.09586683
32	0x3e153d97	0.14574276
33	0x3d9cc5af	0.07654893
34	0x3e03feb6	0.12890133
35	0x3d53420c	0.05157666
36	0x3de61a93	0.112355374
37	0xbd2d2433	-0.04227085
38	0x3e1854f4	0.14876157
39	0xbd65a750	-0.056067765
40	0xbd5f60d1	-0.05453569
41	0xbc9e28e4	-0.019306608
42	0x3d84101f	0.06448387
43	0x3da0acde	0.07845472
44	0xbc9d3621	-0.01919085
45	0x3dfa9870	0.122361064
46	0xbd08ecea	-0.033429064
47	0xbd2f79f8	-0.042840928
48	0xbe1553ad	-0.14582701
49	0xbcacc17a	-0.02108835
50	0x3dfd30f7	0.12362855
51	0xbd65a045	-0.056061048
52	0xbdb06912	-0.086137906
53	0xbc25c18a	-0.010116944
54	0xbdb3a6df	-0.087720625
55	0xbc37f2cf	-0.011227324
56	0x3c5a4308	0.013321646
57	0xbdf86528	-0.12128669
58	0xbd838f80	-0.06423855
59	0xbc8cb75c	-0.017177276
60	0xbcec5cc2	-0.028852824
61	0xbe0a6645	-0.13515575
62	0x3d99e524	0.07514408
63	0x3dabba60	0.083851576

bn4.running_mean f4 [64]
0	0x3ebd1a7f	0.36934277
1	0x3e9c2d52	0.30503327
2	0x3f35296a	0.7076632
3	0x3f02b6a3	0.5105993
4	0x3eb5337c	0.35390842
5	0x3eec7e9a	0.4619034
6	0x3e8232ea	0.2542947
7	0x3ed176e0	0.40911007
8	0x3fa1403a	1.2597725
9	0x3f6c4248	0.9228864
10	0x3f1568ce	0.58363044
11	0x3faf9a39	1.371894
12	0x3efc603a	0.49292165
13	0x3f5f6f36	0.8727907
14	0x3f0ff6cb	0.5623595
15	0x41ba3230	23.274506
16	0x3e3742e3	0.17896609
17	0x3eba8ee9	0.36437157
18	0x3f7e98ce	0.9945191
19	0x3ed2549b	0.41080174
20	0x3f81f82a	1.0153859
21	0x3e93be4a	0.28856117
22	0x3f15b775	0.5848306
23	0x3f19d384	0.6008837
24	0x415737c2	13.451113
25	0x3eb6b536	0.35685128
26	0x3f9a8d9f	1.2074469
27	0x3f108632	0.56454766
28	0x3ef9869b	0.48735508
29	0x3e51f9b4	0.2050541
30	0x3e28fad9	0.16501941
31	0x3fd0bb90	1.630724
32	0x3f3a3783	0.72740954
33	0x3f0abfc1	0.54198843
34	0x3f94aa3c	1.1614451
35	0x3fd8bc73	1.693251
36	0x3f01d89b	0.5072114
37	0x3ecc0d28	0.39853787
38	0x3ee17a16	0.44038457
39	0x3e9bab3e	0.30404085
40	0x3e8b42c6	0.27199382
41	0x419c5333	19.540625
42	0x3f4b272c	0.79356647
43	0x3f2205e5	0.63290244
44	0x3f0d2553	0.5513508
45	0x3f29cada	0.6632515
46	0x3e292459	0.16517772
47	0x3f5ef93b	0.87099046
48	0x41765219	15.395043
49	0x41ecd62a	29.604572
50	0x3e8aee97	0.27135155
51	0x3f260113	0.6484539
52	0x3e95f5d5	0.29289117
53	0x41373597	11.450583
54	0x3f07dc56	0.5307058
55	0x3e46d859	0.19418468
56	0x3eaecc73	0.34140357
57	0x3e84a5e0	0.25907803
58	0x3ee82766	0.4534256
59	0x3e9c3b82	0.3051415
60	0x41b86095	23.04716
61	0x41af4a30	21.911224
62	0x3f530f35	0.8244508
63	0x3f5fa0c3	0.8735468

bn4.running_var f4 [64]
0	0x41a34c5a	20.412281
1	0x41ae4e83	21.788336
2	0x42213a83	40.30714
3	0x41dea246	27.829235
4	0x412a7e1c	10.655788
5	0x41a07aa2	20.05988
6	0x415129e7	13.07273
7	0x41aa47b7	21.285017
8	0x42896ae4	68.70877
9	0x422ea3ab	43.659832
10	0x41b137cf	22.15225
11	0x429ce174	78.44034
12	0x418fab79	17.958727
13	0x4261acc1	56.418705
14	0x41ff2a1d	31.895563
15	0x42f47e12	122.24623
16	0x41295d7b	10.585322
17	0x4183062e	16.378017
18	0x4241608b	48.34428
19	0x418530d5	16.648844
20	0x423c880e	47.132866
21	0x412d7c1e	10.842802
22	0x41ec2b12	29.52103
23	0x421ca850	39.164368
24	0x42d9c319	108.88105
25	0x41a4502b	20.539145
26	0x42594306	54.315453
27	0x41f4fdf5	30.624002
28	0x4208c1cf	34.189266
29	0x4143b3c4	12.231388
30	0x40e2964c	7.080847
31	0x42c422b9	98.06782
32	0x4209bd04	34.434586
33	0x41e42ed3	28.522863
34	0x4271a3fa	60.410133
35	0x429bfbfd	77.992165
36	0x41e47ce8	28.56099
37	0x41abfe27	21.499098
38	0x4202e625	32.72475
39	0x41773feb	15.453105
40	0x41345429	11.270547
41	0x4304d4df	132.83153
42	0x421f837b	39.8784
43	0x42030992	32.759346
44	0x41acf9fa	21.622059
45	0x420a66c1	34.600346
46	0x4115c068	9.359474
47	0x424ff8af	51.992855
48	0x42cf4950	103.64319
49	0x437b9d01	251.6133
50	0x417c5be2	15.772432
51	0x4215c18a	37.439003
52	0x4184240e	16.517605
53	0x42f0dc1f	120.429924
54	0x41bcb1fe	23.58691
55	0x41336348	11.211739
56	0x41870d72	16.881565
57	0x413fda93	11.990863
58	0x4201769b	32.365826
59	0x41a92bfd	21.146479
60	0x43018981	129.53712
61	0x4307df0c	135.87128
62	0x4228c6ec	42.19426
63	0x421dff69	39.499424

lin.weight f4 [10, 64]
0	0xbf7fc2d2	-0.9990665
1	0x4002a7c1	2.041489
2	0xbf5e1110	-0.86744785
3	0xbfd867c4	-1.6906667
4	0xbedfb015	-0.43689027
5	0x3fdf61a9	1.7451679
6	0xbfa4da94	-1.2879205
7	0xbfa63ee7	-1.2987946
8	0x3f3818d3	0.7191288
9	0xbffc2d01	-1.9701234
10	0xbf8c6aec	-1.097013
11	0x3f72968c	0.94760966
12	0xbfd38a63	-1.6526607
13	0x3f5c175f	0.8597316
14	0x400d0ac9	2.2037833
15	0xbdf8f07e	-0.12155245
16	0xbff395d1	-1.9030095
17	0x3fa4f5ff	1.2887572
18	0x3c8d26f2	0.017230485
19	0x3fb84368	1.4395571
20	0xbf2021eb	-0.62551755
21	0x3f425978	0.7591777
22	0xc015b68e	-2.3392673
23	0xbf5794a7	-0.842112
24	0x3dbfaab9	0.09358735
25	0xbde6a25d	-0.11261437
26	0x3f634156	0.8877157
27	0x3e9e1ca2	0.3088122
28	0x3f067694	0.52524686
29	0x3ff6f5c0	1.9293747
30	0x3ff3ed1c	1.9056735
31	0x3f5d2012	0.8637706
32	0x3fa16eab	1.2611898
33	0x3f113248	0.5671735
34	0x3f7e2303	0.99272174
35	0x3df856f5	0.12125961
36	0x3fe4ed17	1.7884854
37	0xbf8d67d1	-1.1047307
38	0x40066552	2.099934
39	0x3fc90053	1.5703224
40	0xbecb512f	-0.39710376
41	0xbdc62658	-0.09675282
42	0x3f9f20cf	1.2431887
43	0x3f4fd0af	0.811778
44	0x3fa5cc45	1.2952963
45	0x3f9788d7	1.1838635
46	0x3f17a22c	0.5923183
47	0xc0019d9b	-2.0252445
48	0x3c822b6b	0.015889844
49	0x3d90211b	0.07037564
50	0x3ffe9b5f	1.9891165
51	0xbfb3b59f	-1.4039801
52	0xc00a2245	-2.1583416
53	0xbeadc71a	-0.33940965
54	0x3e7b894f	0.24564098
55	0xbf4cda8e	-0.8002099
56	0x3fa2d15e	1.2720144
57	0xbf90d8f8	-1.1316214
58	0xbf72bee9	-0.94822556
59	0xbfaa555e	-1.3307302
60	0xbe04b5cb	-0.12959974
61	0xbea760d6	-0.32691067
62	0xbf69b939	-0.9129825
63	0xbf789d45	-0.97114974
64	0x3fb0936a	1.3794987
65	0x3fa192c7	1.2622918
66	0xbf5449d0	-0.8292513
67	0x3fe2d461	1.7721063
68	0xbf91e4b9	-1.1397926
69	0xc00bbb69	-2.1833136
70	0x40047d63	2.070153
71	0x3eed802b	0.46386847
72	0x3f576421	0.8413716
73	0x3f299e9a	0.6625763
74	0x400a7d29	2.1638892
75	0x3e0d092a	0.13773027
76	0x401d7227	2.4600923
77	0x3fcc60d8	1.5967054
78	0xbf77c9f9	-0.9679256
79	0xbd89ea40	-0.06734133
80	0x3fd551da	1.6665604
81	0xbf985fcb	-1.1904234
82	0xbf4c48ad	-0.79798394
83	0x3f549138	0.83034086
84	0xc0007ae3	-2.0075004
85	0x3fbf30ae	1.4936731
86	0x3f515abb	0.8177907
87	0x3f3f33c7	0.7468838
88	0xbd558a57	-0.052133884
89	0xbfaab5e4	-1.3336759
90	0x3f8c428a	1.0957806
91	0xc01f23f3	-2.4865692
92	0x3faed1ba	1.3657753
93	0x3e90a589	0.28251293
94	0xbf50cbb1	-0.8156081
95	0xbef919bf	-0.48652455
96	0xbc3186d8	-0.010835372
97	0xc01501e7	-2.328241
98	0x3d117808	0.03551486
99	0xbedb9ad0	-0.4289155
100	0xbe1c403b	-0.15258877
101	0x404745b2	3.1136289
102	0x3ea83347	0.32851622
103	0xbf9734a0	-1.1812935
104	0xbfe91339	-1.8208991
105	0xbe97e53d	-0.29667082
106	0xbe8b2ba8	-0.27181745
107	0xbeb725fe	-0.35771173
108	0xbff423c6	-1.9073417
109	0xc015e248	-2.341936
110	0xc0098c68	-2.1491947
111	0xbf57e205	-0.84329253
112	0xbf3931e4	-0.7234175
113	0xbdb86eeb	-0.09005531
114	0xbfc9f634	-1.577826
115	0xbe51aecb	-0.20476834
116	0x3f871e89	1.0556194
117	0xbe61568b	-0.2200567
118	0xbfd45a78	-1.6590109
119	0x40308838	2.7583141
120	0xbfcda0a6	-1.6064651
121	0xbf7a0f0b	-0.97679204
122	0xbf85028c	-1.0391402
123	0x4037a882	2.86966
124	0xbe3c5bd7	-0.18394409
125	0xbe80e390	-0.25173616
126	0x3f343857	0.7039847
127	0x3f8c437a	1.0958092
128	0xc005e6b2	-2.0922055
129	0xc011c83f	-2.277847
130	0xbfb08fdd	-1.3793904
131	0xbfa7871c	-1.3088107
132	0xbe14475c	-0.14480346
133	0x40115b68	2.271204
134	0xbefc122e	-0.4923262
135	0x3e0fed61	0.14055397
136	0xbf0a5c39	-0.5404697
137	0xbe106f79	-0.14105023
138	0xbf7124da	-0.94196856
139	0xc019d72e	-2.4037585
140	0xbf47819e	-0.77932155
141	0x3eb22346	0.34792536
142	0x400746fe	2.113708
143	0x3e8537cd	0.26019135
144	0x3f45325c	0.7702997
145	0xc050a4f1	-3.2600672
146	0xbff61b1a	-1.9227021
147	0xc053cf36	-3.3095222
148	0x3fdd1dcf	1.7274722
149	0xbfef42a1	-1.8692209
150	0xbd968c86	-0.073510215
151	0xc0796cd8	-3.8972683
152	0x3ff5ba24	1.9197431
153	0x3f89aebb	1.0756449
154	0x3fd9d175	1.7017046
155	0x3ff7da12	1.9363425
156	0xbfe3221a	-1.7744782
157	0x3f5bbe0a	0.8583685
158	0x3f3bb100	0.73316956
159	0x3f2501c6	0.6445583
160	0xc05a7856	-3.4135947
161	0x3f017e06	0.5058292
162	0xbffc787b	-1.9724268
163	0xbf116ea6	-0.5680946
164	0xbffd6241	-1.979561
165	0x3f3d447f	0.7393264
166	0x3fa28fba	1.2700112
167	0x3f8ec8b4	1.1155
168	0xbf3e40f4	-0.7431786
169	0x3f03aa44	0.5143168
170	0x4003ff5b	2.0624607
171	0xbf89144b	-1.0709318
172	0x3efb574a	0.49090034
173	0xc0200eb3	-2.5008972
174	0xbf34617a	-0.7046124
175	0xbfb96c95	-1.4486262
176	0x400a68df	2.1626508
177	0x3f5485a2	0.8301641
178	0xbdb8beb2	-0.09020747
179	0x4001831c	2.0236273
180	0x405d664d	3.459369
181	0x3df4bdf3	0.119502924
182	0xbf0b1f2b	-0.54344434
183	0x3f224f05	0.63401824
184	0x3e9dcde9	0.3082116
185	0x408c4594	4.3834934
186	0x3fb7a7da	1.4348099
187	0xbeacef67	-0.337764
188	0x3f3afa95	0.7303861
189	0x3ff8e357	1.9444379
190	0xbfb0a840	-1.3801346
191	0xc001949b	-2.0246952
192	0x3fa28174	1.2695756
193	0xc0677e37	-3.6170785
194	0x3dabd11e	0.08389495
195	0x3f5aa855	0.85413104
196	0x3feb185d	1.836681
197	0xbf1c9869	-0.6117006
198	0xbeb02612	-0.34404045
199	0x3fe6f109	1.8042308
200	0xbd923086	-0.07138161
201	0x3fc1cf25	1.514134
202	0xbfa1a83e	-1.2629468
203	0x3fc1c91a	1.5139496
204	0x3f34d523	0.7063772
205	0xc02372ab	-2.5538738
206	0xc018cabb	-2.3873737
207	0xbeb24713	-0.3481985
208	0xbf81c2d5	-1.0137583
209	0x3f92cb0d	1.1468216
210	0x4026cd64	2.606286
211	0xbf517579	-0.81819874
212	0x3e7f9382	0.24958614
213	0xbff063ed	-1.8780495
214	0x4000554a	2.0052056
215	0x3fff4901	1.9944154
216	0xbf5d0671	-0.86337954
217	0x400aafd4	2.1669817
218	0xbf01b527	-0.5066704
219	0x3fc4faee	1.5389078
220	0xbfb07b00	-1.3787537
221	0xc0727a82	-3.7887273
222	0xbfafa476	-1.3722064
223	0xbf1cdd08	-0.61274767
224	0xbdf430e5	-0.119233884
225	0x3fe740be	1.8066633
226	0x3f14dae1	0.5814648
227	0xba103f75	-0.000550262
228	0xbea19dd4	-0.31565726
229	0xbff8e548	-1.9444971
230	0xc0805dfa	-4.0114717
231	0xbf80b345	-1.0054709
232	0x403eb926	2.9800506
233	0xbdd45326	-0.10367422
234	0xc01b95e0	-2.4310226
235	0xbffe189b	-1.9851259
236	0x3ef34985	0.47517028
237	0x3eddd100	0.43323517
238	0x3ffc57bd	1.9714276
239	0x3f35136e	0.7073277
240	0xbf2afb7a	-0.6678997
241	0xbf6ea694	-0.9322293
242	0xc0155c5e	-2.3337626
243	0xbe37cf5a	-0.17950192
244	0x3e82679e	0.2546968
245	0x3e59c52e	0.21266624
246	0x404c10c9	3.1885245
247	0xbfdfc385	-1.7481543
248	0xbe662428	-0.2247473
249	0x3ffd5405	1.9791266
250	0xbf819279	-1.0122825
251	0xbf98bae2	-1.1932032
252	0xbda2a2f2	-0.079412356
253	0xbf3fc5eb	-0.74911374
254	0x3fb540b6	1.4160373
255	0x3fa6b5c9	1.3024226

lin.bias f4 [10]
0	0x3e1acebb	0.15117924
1	0x3e93b4af	0.28848788
2	0xbd62012a	-0.05517689
3	0x3d1f7014	0.038925245
4	0xbdbc0527	-0.0918067
5	0xc0329ada	-2.7907014
6	0xc031a567	-2.7757204
7	0xc02f2d6e	-2.7371478
8	0xc03660b3	-2.849652
9	0xc02e2144	-2.7207804
