NCC_Code/2022-08-14_14-52-05_model.pt (torch, 115275 bytes, 50 tensors)

conv1.weight f4 [8, 2, 5, 5]
000000 c1 f0 35 3d 29 b1 8e 3e a3 11 4a be aa f2 44 be
       0.044419054 0.27869537 -0.1973329 -0.19233194
000010 e7 77 0d 3d de 40 76 bd 35 00 a2 3d d3 7a a9 be
       0.034538176 -0.060120456 0.07910196 -0.3310152
000020 98 12 af be 7f f8 27 be 14 12 b0 be d9 f5 6d bd
       -0.34193873 -0.16403387 -0.34388793 -0.058095787
000030 53 f0 ac be d1 1e 56 be 30 cf 7a bd d6 13 fa bd
       -0.33777103 -0.20910193 -0.061232746 -0.12210815
000040 f1 be 0a bd 64 dd f2 bd 09 37 8a be a5 b5 ed 3d
       -0.033873502 -0.11858633 -0.26995113 0.116069116
000050 ec d3 68 be 4d bb a9 bd 09 a1 b3 be 96 ec d2 be
       -0.22737092 -0.08287678 -0.35083798 -0.41196126
000060 4b 99 dc 3d f9 5c ab 3d 2b ca 92 be e3 1b e7 bd
       0.10771426 0.083673425 -0.28669867 -0.11284616
000070 a6 bb eb 3d 42 12 36 3e bf 17 83 be 7c 74 ac be
       0.115104005 0.17780402 -0.25604054 -0.3368262
000080 3c 4a 28 bd 8b 74 dd bc b0 77 24 be 70 f7 08 3e
       -0.04108642 -0.027033111 -0.16061282 0.1337564
000090 7d d5 65 be dc b4 1f be 24 c2 a7 be 62 ad 13 3e
       -0.2244472 -0.15596336 -0.32765305 0.14421609
0000a0 12 66 35 3c b4 32 ad be bb e5 c0 be 47 ea a1 be
       0.011071699 -0.33827746 -0.3767527 -0.31624052
0000b0 1a c5 3a be f7 eb 27 3d ae b4 a9 be 36 73 7a be
       -0.18239251 0.040996518 -0.3314566 -0.24458012
0000c0 f8 73 a5 bd a5 87 a1 be 4b ea 11 be 4b d2 a5 3c
       -0.0807876 -0.315488 -0.14249532 0.020241877
0000d0 4b d5 c2 be 03 00 95 be 24 b5 f6 3d 70 70 1a 3e
       -0.38053355 -0.2910157 0.120462686 0.15081954
0000e0 62 78 c6 bc 67 a3 3f be b7 05 9b be 93 55 d9 3d
       -0.024227325 -0.18714677 -0.30277798 0.10612025
0000f0 0a cb a1 3d ae ea e0 3d 5f 2b 01 3f 1a 23 0f 3e
       0.07900055 0.109822616 0.50456804 0.13978234
000100 ff 7f 38 bd 19 77 24 bd 31 5e 17 3e de 4d 5e 3d
       -0.04504394 -0.040152643 0.14782025 0.05427348
000110 8b b9 94 bd 1f 23 a7 bd 72 1a 7f 3e 58 38 b6 3e
       -0.07261952 -0.08160996 0.24912432 0.35589862
000120 01 a6 08 3f 96 d8 21 3f 6b a0 d6 3e 91 4b 49 3e
       0.533783 0.6322111 0.41919264 0.19657733
000130 01 6a 48 be 6f f0 40 3e 34 74 03 be b6 a1 f7 be
       -0.19571687 0.18841718 -0.12837297 -0.48365563
000140 f2 a4 a7 be f7 88 88 be 6d 7f 6a bd 12 68 36 3d
       -0.3274303 -0.26666996 -0.05725043 0.044532843
000150 29 20 67 be b6 14 21 3a 40 0a 83 bd 9a 07 a0 be
       -0.22570862 0.0006144749 -0.063984394 -0.312558
000160 ce 7d 0f 3d 8c 7b cb 3d b8 c9 0e 3d 02 f0 b4 3c
       0.035032086 0.09935674 0.034860343 0.0220871
000170 7d b1 e6 3d 08 97 27 3e 3e fb 38 3e d3 fb 9c 3e
       0.11264322 0.16366208 0.18064591 0.30660877
000180 a3 a4 06 3f 0b ce 0f 3f d7 e4 eb 3e c9 e0 c8 3d
       0.52594966 0.5617377 0.46073028 0.09808499
000190 1f 39 c9 bd f5 3d 82 bd bd 69 0e bd 7b 6e 83 be
       -0.09825348 -0.063594736 -0.03476881 -0.25670227
0001a0 f2 68 aa bd a8 f1 9a 3d 35 fb 1d 3f a7 bf e8 3e
       -0.08320798 0.075656235 0.61711437 0.4545872
0001b0 32 88 0f 3d c5 cd a2 3e c4 92 00 3f ba 7b 93 3e
       0.035041995 0.31797615 0.50223947 0.28805333
0001c0 80 aa ad 3d e5 4d 8f bd 20 f8 86 3c 22 b3 48 bd
       0.08479786 -0.06997279 0.016475737 -0.04899896
0001d0 ac 28 3f be 88 06 e4 bd 03 a1 bc be b1 36 74 3e
       -0.18667859 -0.11134058 -0.36841592 0.23848988
0001e0 cb 8a 3f 3c e7 58 be be fc 08 91 bc a1 02 c8 bd
       0.011690806 -0.37177202 -0.01770448 -0.097661264
0001f0 46 d6 4d be 68 df 35 3c ec c8 48 be 2d 52 22 be
       -0.2010127 0.0111006275 -0.19607896 -0.1585166
000200 4e 24 ba 3c d1 81 0e be ba 8f 89 3e 96 46 56 3e
       0.02272239 -0.13916709 0.26867467 0.20925364
000210 dc 76 b1 3e 2e da 3c 3f 07 68 f0 3d 74 92 df be
       0.34660995 0.73770416 0.11738592 -0.43666422
000220 60 d6 a0 be b2 0c 39 bc 41 79 c0 3d 7f 0d 98 3c
       -0.31413555 -0.011294531 0.09398127 0.018561123
000230 c6 e1 1d bd 8d bf 24 bd de 7f 29 be 82 d0 cc 3d
       -0.038545392 -0.04022174 -0.16552684 0.10000707
000240 55 7e c0 be ff 92 93 3d 51 07 a3 3e 02 36 a2 bd
       -0.37596384 0.07205772 0.3184152 -0.079204574
000250 4b f0 2b bd 38 6b 9d 3b 26 55 f6 bc cb 69 11 be
       -0.041977208 0.0048040412 -0.030069899 -0.14200513
000260 72 09 9d bd 0e 26 4c be c0 87 57 be 98 f8 10 3d
       -0.07667817 -0.19936392 -0.21047878 0.035393327
000270 84 2e 47 bd 29 a1 3c 3e 5e 99 b5 bd 99 65 33 be
       -0.048628345 0.18420853 -0.08867143 -0.17519225
000280 10 7c 8f 3e e8 e7 06 3f 8d 12 a4 3e 10 09 b0 3e
       0.2802434 0.5269761 0.32045403 0.34381914
000290 7a c3 1c 3e 5e 12 fb bd 3f e8 6f 3e f5 40 f6 3d
       0.15308943 -0.12259363 0.23428439 0.12024108
0002a0 42 c2 f1 3d a5 03 c6 3d 20 de cd 3b 00 85 9f bd
       0.1180463 0.09668664 0.006282583 -0.077890396
0002b0 72 f4 6f bd 5d 40 aa be 7b f0 d6 be 11 ed 54 bd
       -0.05858273 -0.3325223 -0.41980347 -0.051983897
0002c0 a3 62 9a 3d 5c 8f a7 bd bd 1d 51 bd 5f b6 2a bd
       0.07538345 -0.081816405 -0.05105375 -0.04167783
0002d0 c6 d6 4b 3e 30 7c c9 3c 19 82 11 be b9 3c 06 bd
       0.19906148 0.02459535 -0.14209785 -0.032772753
0002e0 ca 30 29 bd 5e 8a 67 3d 36 b6 0e 3f 56 40 ec 3d
       -0.041306295 0.05652844 0.5574678 0.115357086
0002f0 b9 89 43 3e ef 05 ad 3e a3 f0 47 3e 6f 8f 46 be
       0.19095506 0.3379359 0.1952539 -0.19390653
000300 0d 25 02 bd 6d 9b 13 3d 49 f9 aa bd 7e c3 99 be
       -0.031773616 0.036036897 -0.083483286 -0.3003196
000310 0e 6c b5 be 8b 17 3a be 8b 9e 89 3c 70 99 39 3e
       -0.35434002 -0.18173043 0.016799232 0.18124938
000320 af 4f 33 bd 3d e8 5b bb fd a3 7b 3e 95 84 fe 3c
       -0.043777164 -0.0033555173 0.24574275 0.03106908
000330 a9 be 7b be 9c 88 4d 3c fa b8 95 be 33 ea 4e 3e
       -0.2458445 0.012544777 -0.29242688 0.20206527
000340 f0 d2 d3 be 32 7b ca bd ff eb 03 be 32 99 00 bd
       -0.4137187 -0.09886779 -0.12882994 -0.0313961
000350 22 5e 8a be 2d e6 83 3d 68 b8 11 bc de 81 5a bd
       -0.27024943 0.06440387 -0.0088940635 -0.053346507
000360 93 bd da be b2 57 ef 3d 0a cd cf 3d 72 1e e3 be
       -0.4272276 0.116866484 0.1014653 -0.44359165
000370 08 4e c4 bc 68 51 81 bd 2a 84 39 be 91 9c 8d be
       -0.02396299 -0.06314355 -0.18116823 -0.27658513
000380 e9 6b ee be b3 a7 90 bc 0a 1f b7 be fd cf c4 bc
       -0.46566704 -0.01765809 -0.35765868 -0.024024958
000390 45 09 53 be 4f 05 30 be e2 43 43 be 65 64 6f be
       -0.20609005 -0.17189525 -0.19068864 -0.23378141
0003a0 9a fa 67 3e 1f 7c 19 be 56 40 8a be 47 f1 cb 3b
       0.2265419 -0.14988755 -0.2700221 0.006223831
0003b0 95 8c 52 3e d9 22 23 3e 6d 2d d5 bc 70 d5 40 be
       0.2056144 0.15931262 -0.026022637 -0.1883142
0003c0 b8 6d ae 3d b9 ce d0 be 3c 42 10 be 70 07 97 be
       0.08517021 -0.40782717 -0.14087766 -0.29497862
0003d0 bb 45 02 bf 2c 83 8d bd 04 93 10 3e 9a 63 fb bc
       -0.5088765 -0.06909785 0.14118582 -0.030687142
0003e0 f1 9b 56 3d 70 bc d1 bd b4 7c 6c 3e 0a 7a 9c 3e
       0.05239481 -0.1024102 0.23094445 0.30561858
0003f0 05 b1 22 bc 65 74 ea 3e 32 e0 81 3e 6c b7 c9 bc
       -0.0099299 0.45791927 0.2536636 -0.024623595

conv1.bias f4 [8]
000000 73 05 f8 3e 6f 9b 6c be cc da bf be f5 18 3a bf
       0.48441657 -0.23106168 -0.37471616 -0.7269433
000010 a3 9b 66 3e 39 b5 1d bf 9e 19 c2 bd 1d ca 8a 3e
       0.22520308 -0.6160465 -0.09477542 0.27107325

bn1.weight f4 [8]
000000 3f 98 47 3f 5e 2c 9a 3f 87 ba 95 3f 4c bf 3f 3f
       0.77966684 1.204479 1.1697549 0.7490127
000010 5d 2b fe 3e d9 f3 9a 3f 47 e0 74 3f 85 c1 18 3f
       0.4964246 1.2105666 0.9565472 0.5967029

bn1.bias f4 [8]
000000 74 c6 30 3e 69 00 82 be 47 29 20 bf f5 d6 d1 be
       0.17263204 -0.25390938 -0.62562984 -0.40984312
000010 f3 0f f9 3e 5e 9e bf bd c7 16 4c be 36 2b be bc
       0.4864498 -0.09356378 -0.19930564 -0.023213964

bn1.running_mean f4 [8]
000000 00 4f f6 3f 5e a5 3f 3f 2b a2 9f 3e ff 8e 73 3e
       1.9242859 0.74861705 0.31178412 0.23785017
000010 37 7d b3 3f 2a f3 19 3f 7c 4c 2c 3f 1d 2c cc 3f
       1.4022588 0.60136664 0.67304206 1.5950962

bn1.running_var f4 [8]
000000 c3 1b 18 40 8a 33 83 40 ca 5a 0d 3f 30 34 05 3f
       2.3766944 4.1000414 0.5521666 0.52032757
000010 ac fe d9 3f 56 1e 45 40 67 99 8a 3f 2c 22 03 40
       1.7030845 3.0799766 1.0828065 2.0489607

conv2.weight f4 [16, 8, 3, 3]
000000 b5 23 51 3d b3 b4 01 3e 57 8b c2 3d 0f 26 2f 3e
       0.051059444 0.12666588 0.09499233 0.17104362
000010 43 50 66 3e b9 a6 0c 3d 09 ee 6c 3e d3 4d bc bd
       0.22491555 0.034338687 0.23137678 -0.09194531
000020 64 21 fc 3d 9b 24 a2 3e 3f a9 9a 3e b9 50 c7 3d
       0.12311056 0.31668553 0.3020725 0.097321935
000030 62 4b 22 3d 08 d3 3d 3e 57 80 0e 3e ec ca 72 be
       0.039622672 0.18537533 0.13916145 -0.23710221
000040 68 32 27 bd d8 52 27 be 55 5e 1e 3d bb 19 94 3d
       -0.040819556 -0.16340196 0.03866418 0.0723147
000050 90 09 19 3e 9e 11 1c 3d 6d e0 82 3e 64 7d 64 3e
       0.14945054 0.03810274 0.25561848 0.22313458
000060 60 dc b9 3e 65 2d d0 3e f9 3e ab 3e 4c 64 90 3e
       0.36300945 0.40659633 0.33446482 0.2820152
000070 c5 c0 56 3e b7 59 d0 bd 16 a6 18 3e 10 06 07 3e
       0.20971973 -0.10173362 0.14907107 0.13185906
000080 2f f1 44 3e fe 72 3b 3e 7a 2a 1d 3b 3d d5 1a be
       0.19232629 0.18305585 0.0023981617 -0.15120406
000090 91 14 47 3d 5d 93 61 3c 1c de 6f 3b 6e 17 58 3e
       0.048603598 0.013768044 0.0036600893 0.21102688
0000a0 4f 28 90 3e 1e 43 41 3c 22 c8 29 3d 32 e8 54 bd
       0.28155753 0.011795787 0.041450627 -0.05197925
0000b0 a9 32 4c be 0e 53 08 bf f2 b4 6c 3d f5 27 95 3d
       -0.199412 -0.5325173 0.05778975 0.07283012
0000c0 b3 0a e2 3d 9e 36 8b 3e 15 59 20 3e b1 6e 75 3d
       0.11037197 0.27190107 0.15658982 0.059920017
0000d0 3b bf d7 bd 08 cd a1 3e 01 79 76 be 1a ce f9 bd
       -0.10534521 0.3160174 -0.24069597 -0.12197514
0000e0 25 1a dc bd 88 45 2e bb dc ca 45 bd 6c 20 48 be
       -0.10747174 -0.0026591737 -0.048289165 -0.19543618
0000f0 97 bc 71 be 9d bc 7f be 2d ea 02 3c 8e 70 ce bd
       -0.23607098 -0.24974294 0.007990402 -0.10080062
000100 c1 e3 b5 3d 50 d1 80 3d 75 10 67 3e 3e fe 63 3e
       0.08881331 0.06289923 0.22564872 0.22264954
000110 9e 36 aa 3e e8 aa 26 3d 3d 5b 82 3d b2 c1 c0 3d
       0.33244795 0.040690333 0.063650586 0.094119444
000120 4e 13 36 3d 70 11 7c be 2a 98 87 be 54 a6 39 be
       0.044452004 -0.24616027 -0.2648328 -0.18129855
000130 0f 16 b2 bc 6b 4b 88 3e 48 79 c6 bd 47 b4 27 be
       -0.021739034 0.2662004 -0.09691101 -0.16377364
000140 b8 ba 99 be 18 cf a7 be 91 70 0f be 82 8d 2e be
       -0.30025268 -0.32775187 -0.14007784 -0.17046168
000150 bc 19 15 be ad 94 2b be 52 ad 87 be 98 17 6e be
       -0.14560598 -0.16755934 -0.2649942 -0.23251188
000160 29 82 de be 69 8a 31 3d a4 cb 46 bc 2d dd f1 bd
       -0.4345868 0.04334489 -0.012133513 -0.11809764
000170 1d c8 2d 3d 63 64 5f be 04 13 e7 be 73 60 d8 be
       0.04242717 -0.21815638 -0.45131695 -0.42261085
000180 3b 92 93 3d da 62 a0 3d 9a 0c 92 3c 66 1a bf bd
       0.072056256 0.078313544 0.017828275 -0.09331207
000190 a1 35 1e bc 54 87 da 3d 53 9d f8 3b 6c d4 b9 3d
       -0.009656341 0.10670343 0.007587114 0.090737194
0001a0 50 23 54 3d 2d 87 f9 bd 03 67 c4 bd 18 b7 21 3e
       0.05179149 -0.12183986 -0.095899604 0.15792501
0001b0 3d 86 71 be c6 38 da 3d a9 1e 6d 3b 65 6a c2 3d
       -0.23586364 0.1065536 0.0036181605 0.094929494
0001c0 98 50 7d 3d 47 b7 08 3e f5 13 19 be 97 3a 2d bd
       0.06184444 0.13351165 -0.14949019 -0.042292204
0001d0 66 86 3c be 0f e7 1e bf 3f e7 f1 be 0d 92 38 be
       -0.18410644 -0.6207132 -0.4724674 -0.18024464
0001e0 e3 13 03 bf 0a 22 13 bf 7c 28 aa be fd 30 9e be
       -0.5120222 -0.57473814 -0.33234012 -0.3089675
0001f0 d4 cb 3c be f0 bb bd 3d 66 65 f6 bd c1 d9 8b 3c
       -0.1843713 0.09264362 -0.12031059 0.017071607
000200 df e4 63 bd f9 4e 4f be b2 a4 8a bd 3d 29 d4 3c
       -0.05563819 -0.2024497 -0.067696944 0.02589857
000210 b8 94 08 be 03 da 91 bd 64 8c 4b bc 58 c5 37 be
       -0.13337982 -0.071216606 -0.012423608 -0.17946374
000220 9c ba 61 be cc 63 37 3c 24 fa e7 bd 28 92 b6 3d
       -0.22043842 0.011193227 -0.113270074 0.08914596
000230 6c b1 0a be 3b d8 3e be 24 b9 0d bd f4 02 74 bd
       -0.13544244 -0.18637173 -0.034600392 -0.05957313
000240 8f 32 1f 3c 10 8f 76 be 42 60 ff bd 5f 39 ac bd
       0.009716644 -0.24078012 -0.124695316 -0.0840938
000250 79 20 0c bd 8f 5f ef bd 83 04 cd 3d 77 3a 0d 3e
       -0.034210656 -0.11688148 0.10010626 0.13791834
000260 0d 30 9a bd 5c 19 88 bd b4 03 c4 be d6 55 29 3e
       -0.07528696 -0.06645462 -0.38284075 0.1653665
000270 e9 55 76 be 36 21 ab be 6a 6a 54 be 09 7b 87 3e
       -0.2405621 -0.33423775 -0.20743719 0.26461056
000280 30 1e 33 3e fd 42 11 3e 7f 14 ff 3e 7c 3d ab 3e
       0.17491984 0.1418571 0.49820325 0.33445346
000290 fd ab cf 3e 13 57 f7 3d 36 7c 10 3e c9 71 80 3e
       0.40560904 0.12077155 0.14109883 0.2508681
0002a0 4d 89 0d bf 87 0e 4b be 87 42 b3 be 07 92 61 3e
       -0.5528763 -0.1982976 -0.35011694 0.22028361
0002b0 75 53 87 bd 34 96 c3 3b 26 8a 98 3e 5e 90 1f 3e
       -0.06607715 0.0059688333 0.297929 0.15582415
0002c0 78 4f ed 3a 9d 1c 99 be 1b 32 79 be 64 fe 76 bc
       0.0018105349 -0.29904643 -0.2433552 -0.0150753
0002d0 18 0b df be d5 92 a5 be 0a 45 96 be e4 56 8e be
       -0.4356315 -0.32338586 -0.29349548 -0.27800667
0002e0 eb 8e 21 bf 0b 22 da be 15 20 68 3d dc ea b3 bd
       -0.631087 -0.42604098 0.05667122 -0.0878503
0002f0 9c 75 4f be c6 7b 72 3e d3 cf 07 3e 61 80 db 3d
       -0.20259708 0.23680028 0.13262872 0.10717846
000300 2d c1 4c 3e 25 96 9c bd 7d 12 14 be c0 87 9d be
       0.19995566 -0.07645825 -0.14460178 -0.30767632
000310 e0 c8 75 be 8b 0d 61 be b8 cb 18 3d d1 47 db bd
       -0.24002409 -0.21977822 0.037303656 -0.10707057
000320 bc e8 49 be 4a dc af bd ba 6c 27 bd f0 80 0c bc
       -0.19717687 -0.08586939 -0.040875174 -0.008575663
000330 9a 18 38 be ab 91 43 3e 10 a9 2f 3e 53 28 ac 3c
       -0.17978135 0.19098537 0.17154336 0.021015322
000340 e4 fd b0 bd cd 8a ca 3d 23 a5 5d bd 9b cb b4 be
       -0.08642176 0.098897554 -0.054112565 -0.3531159
000350 55 47 8b bd e6 c2 55 be 6b 14 b2 3d 31 a1 1b be
       -0.06800715 -0.20875129 0.08695301 -0.15198208
000360 c4 bb 3b 3e 55 96 cc bd 31 e0 ca b8 0c 8b f3 bd
       0.18333346 -0.09989611 -9.6738695e-05 -0.118917555
000370 35 fc 5f bd a0 b2 1c be a3 74 b2 bd 6c 0b 13 3d
       -0.054683883 -0.15302515 -0.08713653 0.035899565
000380 57 a3 a8 bd 8b 29 7f 3e 1f 50 86 3e 71 f1 5d 3e
       -0.082342796 0.24918191 0.26233003 0.21674134
000390 7c 20 48 3d e3 01 03 3d c5 08 00 3d 87 83 e4 bb
       0.048859105 0.03198422 0.031258363 -0.006973687
0003a0 bf 71 12 3e 1f d2 2a 3e e8 e7 66 be 02 c3 5d bd
       0.14301203 0.16681717 -0.22549403 -0.054141052
0003b0 42 65 08 be 8a 76 e2 3d 9f b9 9a bc bc 35 9b 3e
       -0.13319877 0.11057766 -0.01888734 0.30314434
0003c0 5a ef bc 3c 01 aa ba bd 67 c0 45 be b5 1d 39 3e
       0.02306335 -0.09114457 -0.19311677 0.18077739
0003d0 92 74 f4 3d ec 0d a7 3e 85 e7 12 be 87 df d0 be
       0.119362965 0.3262781 -0.1434613 -0.40795538
0003e0 df 04 9e be 66 79 0a 3e 2f 76 69 3e 41 12 60 3e
       -0.3086309 0.13522872 0.2279899 0.21881963
0003f0 55 e8 6b 3e 16 3d de bc aa 7e 07 be eb 08 eb bd
       0.23037846 -0.027128737 -0.13231912 -0.1147631

conv2.bias f4 [16]
000000 a1 d4 5c be 3c 3a c3 3e 87 b1 86 be 9c 28 fb bd
       -0.21565486 0.38130367 -0.26307318 -0.12263605
000010 86 71 8f be db 73 c8 be e2 c7 2e bf 8a 3d 5d be
       -0.280163 -0.3915089 -0.68273747 -0.21605507
000020 5c c0 c6 be 64 7d 57 be 1c d6 8b be f1 34 60 be
       -0.38818634 -0.21043926 -0.2731179 -0.21895196
000030 a1 70 c9 be 92 8d 91 be 2f ef 72 be bd f8 83 be
       -0.39343742 -0.28428322 -0.23724054 -0.2577571

bn2.weight f4 [16]
000000 25 47 8f 3f 22 06 8b 3f c7 da 7a 3f b6 f5 75 3f
       1.1193587 1.0861247 0.9799008 0.9607805
000010 2e 5b 86 3f d1 7b 2e 3f 0a da 6f 3f f7 b8 52 3f
       1.0496576 0.6815768 0.93692076 0.82313484
000020 62 37 9c 3f 58 9e 6d 3f 90 16 8f 3f 01 02 74 3f
       1.2204401 0.9281974 1.117876 0.9531556
000030 5e 22 3e 3f 3a b0 50 3f 5b 34 61 3f ec 52 80 3f
       0.7427119 0.815189 0.87970513 1.0025306

bn2.bias f4 [16]
000000 1f f1 73 bd f7 0e 60 be 20 97 49 be ab 57 ea bd
       -0.059556123 -0.21880709 -0.19686556 -0.114425026
000010 28 83 f8 3e 85 96 07 3f 72 c0 86 3e 1a 6d e5 3c
       0.48537564 0.5296405 0.263187 0.028006125
000020 20 cd d5 3e 3d e2 c7 be 54 9c 07 bf db b7 86 bd
       0.4175806 -0.39039794 -0.5297291 -0.065780364
000030 47 ce 95 be 11 9a 5a 3d 3f f8 dc 3d 0d 48 1c bf
       -0.2925894 0.053369585 0.10789537 -0.6104744

bn2.running_mean f4 [16]
000000 0f 75 e2 3e ea cb 30 40 6a 79 98 3e 34 bc d4 3e
       0.44229934 2.762446 0.29780132 0.41549838
000010 6b e5 93 3e 92 7a 27 3e 4b 1c 45 3e 29 1c 53 3f
       0.2888597 0.1635535 0.19249074 0.82464844
000020 75 ce fb 3e 85 ba 3d 3f 4e d9 9c 3e e3 bb 4f 3e
       0.49180952 0.7411273 0.3063454 0.20286517
000030 47 44 ae 3e 86 12 85 3e 25 75 f5 3e 7a 51 ed 3e
       0.34036466 0.25990695 0.47940937 0.46351224

bn2.running_var f4 [16]
000000 2e a1 7e 40 00 63 fd 3f bd be ac 3f d8 0e e4 3f
       3.9785876 1.9795837 1.3495709 1.781703
000010 78 26 9c 3f 37 65 3a 3f ba 03 4c 3f 72 37 b3 3f
       1.219924 0.7281069 0.79693186 1.4001296
000020 c9 52 66 40 c5 af 61 40 c7 be 5f 3f f9 98 50 3f
       3.5988028 3.5263531 0.8740048 0.8148342
000030 f9 f3 85 3f e3 40 c1 3f 98 b4 c6 3f 40 6e eb 3f
       1.046508 1.5097927 1.5523863 1.8393021

conv3.weight f4 [32, 16, 3, 3]
000000 2b 0e 38 be 11 a1 b0 be 75 ad a1 be c8 10 5f be
       -0.17974155 -0.34497884 -0.3157765 -0.21783745
000010 c8 bf 73 be 89 67 d0 be 5b 72 53 be 84 f2 de bd
       -0.23803627 -0.4070399 -0.20649092 -0.108861
000020 bc fc 21 bd a7 58 ea bd 07 93 27 be 68 c2 00 bd
       -0.039547667 -0.1144269 -0.1636468 -0.0314354
000030 17 6d 08 be 99 6b 20 be a1 fa 24 be 26 f1 9d bd
       -0.13322864 -0.15666045 -0.16111232 -0.07712011
000040 2d c0 31 be 35 6c 34 bd ad ec 05 be da 6e 22 3c
       -0.17358465 -0.044048507 -0.13078566 0.009914124
000050 71 e4 a2 3d 49 a6 b2 3e e8 50 59 3e 77 56 68 bd
       0.07953728 0.3489249 0.2122227 -0.056723084
000060 05 03 9d 3d 50 03 36 3e 3a 12 50 3c e9 95 5f bd
       0.076665916 0.17774701 0.012699658 -0.054586325
000070 e3 c2 66 be be 65 0b be c1 6a 6a 3e fd 8d 46 bd
       -0.22535281 -0.1361303 0.22892286 -0.048475254
000080 90 f8 8b bd 77 a1 b9 be b6 fa 61 be 83 22 c4 bc
       -0.06834519 -0.36256 -0.22068295 -0.023942238
000090 96 22 16 be 6c 46 0a 3e 18 af d5 3d a8 38 77 3e
       -0.14661631 0.13503426 0.10433787 0.24142706
0000a0 12 5d 3d 3e 39 64 43 3e 05 2a 1f be 47 97 f5 bc
       0.18492535 0.190812 -0.15543373 -0.029979361
0000b0 a0 8b 52 3d eb ad 0d be 50 41 ac bd 21 1c 1e 3d
       0.051402688 -0.13835876 -0.08410895 0.038601045
0000c0 d4 f6 de bc 6a 79 00 be ed 01 0d be 1c a8 a4 3d
       -0.027217306 -0.12546316 -0.13770266 0.08039877
0000d0 59 1b 89 3c 26 34 d7 bc fc 7c 14 3e d1 fa 4e 3e
       0.016736673 -0.026269984 0.14500803 0.20212866
0000e0 a4 9c 19 3c f2 94 57 be 32 60 85 be 6d f3 b8 bd
       0.009375725 -0.21052912 -0.26049954 -0.09030805
0000f0 fb 73 10 be ab 99 44 3d c7 f8 13 3d ff 35 2c 3c
       -0.14106743 0.04799811 0.036125924 0.010510921
000100 99 ca a2 bb 4b 6e 06 3e 48 ac 30 be 5a 4a 48 be
       -0.004967999 0.13128011 -0.1725322 -0.19559613
000110 af 7c 81 be 8e 06 56 be e9 90 f0 bd a2 d6 59 3d
       -0.2529044 -0.20900938 -0.117463894 0.053183205
000120 4c 23 8d bd ab 02 4f bd e3 19 69 3a 60 d5 1c be
       -0.06891498 -0.050539654 0.0008892102 -0.15315771
000130 dc 22 88 be 3e 31 34 bc 7a 49 58 bd a0 b4 60 be
       -0.26589096 -0.010998068 -0.052804448 -0.21943903
000140 66 87 bf be 3a 87 ca be d9 e5 e8 bd 02 df 2b be
       -0.37407988 -0.39556295 -0.11371965 -0.1678429
000150 49 9d 92 be ba 46 8a be f5 e5 62 be f1 e8 a3 be
       -0.28635624 -0.27007085 -0.22158034 -0.32013658
000160 e3 c3 90 bd b0 21 e4 bb b8 ba 3f 3b d7 0d 92 3d
       -0.070686124 -0.0069620237 0.002925558 0.07131546
000170 5e 5a 9f 3b fd 49 06 3e 6b 95 85 3e c0 7e f3 bc
       0.0048630675 0.13114162 0.2609056 -0.029723525
000180 bf 55 af bd 2d 8f 42 be 80 bd 37 3d 43 2d c6 be
       -0.08561277 -0.1899993 0.044858456 -0.38706407
000190 65 ae a7 be 8a 8d 96 be a5 94 69 be 3d 01 9a be
       -0.3275024 -0.2940486 -0.2281061 -0.3007907
0001a0 34 6d 49 be 20 f0 38 3d ea 7d 7f 3e 00 7c 9d 3e
       -0.19670564 0.045150876 0.24950376 0.30758667
0001b0 ff 50 97 bd 8c 64 57 be 26 e6 b0 3d af f1 fb 3c
       -0.07388496 -0.2103445 0.08637647 0.030754892
0001c0 aa 77 83 3e 26 31 15 3e 72 f6 65 3e cc 81 b9 3d
       0.25677234 0.1456953 0.22457293 0.0905796
0001d0 98 60 70 3d fe a2 79 bd 52 48 a5 3d 61 14 4f 3c
       0.05868587 -0.060946457 0.08070435 0.012639136
0001e0 5a 43 0c bd 6e fd d9 bd 4a ab 82 bd d5 68 98 bd
       -0.03424392 -0.10644041 -0.06380327 -0.0744187
0001f0 e3 4e bd bd 5a b8 2d bd 86 f3 2d bd e6 a4 7a 3d
       -0.09243562 -0.04241214 -0.04246857 0.061192416
000200 4e 59 1e 3e f6 85 75 3e b8 11 a2 3e b9 a1 39 3e
       0.15463755 0.23976883 0.31654143 0.18128099
000210 53 38 46 3e 88 a8 e4 3d 70 95 d9 3d d0 f1 8e 3e
       0.19357423 0.11164957 0.10624206 0.27918863
000220 71 af 83 bd 91 b8 1c be 64 42 0a bf 70 85 c9 be
       -0.06429947 -0.15304781 -0.54007554 -0.39359617
000230 3a a8 dd be 49 d6 f9 3d 73 3c 13 3e 3d 01 48 3e
       -0.4329241 0.12199075 0.14378528 0.19531722
000240 8e 7b 4d be 7a ef 2f be f4 d0 c2 3d 69 fc 31 3e
       -0.20066664 -0.17181197 0.09512511 0.17381443
000250 68 e5 a0 3d 40 c3 43 3d 89 eb 25 bd 16 02 71 be
       0.07856256 0.047793627 -0.040507827 -0.23535952
000260 34 19 e3 be 7c 0d 32 be bc 03 43 be dd fa 89 be
       -0.44355166 -0.17387956 -0.19044393 -0.26949206
000270 11 ff 55 3e 77 f2 89 3d 45 9a b3 3c 51 be 78 3e
       0.20898081 0.067356996 0.021924147 0.2429135
000280 02 4b c4 3d 38 9e 8e bd 1a 73 0a 3e 24 e4 e8 3c
       0.09584619 -0.069637716 0.1352047 0.028429098
000290 1b 7a 35 bb 2a 36 53 3e 35 ae cb 3e c1 16 a1 3e
       -0.0027691189 0.2062613 0.39781347 0.31462672
0002a0 65 bb bc be 6e 4e 3b be c3 ee a3 3d 38 79 f9 bd
       -0.3686172 -0.18291637 0.080045246 -0.12181324
0002b0 2d d2 2e bc c5 0a 1c 3b bb 9d 85 bc 4b ed 5c be
       -0.010670227 0.002381013 -0.016310563 -0.21574895
0002c0 a0 ff 55 bc d4 08 fb bc 02 a7 62 bd 4d fe 1e 3d
       -0.013061434 -0.030643858 -0.055335052 0.03881674
0002d0 81 14 b6 bd 2d b2 58 bd 74 27 09 be 82 f7 63 3d
       -0.088906296 -0.052904297 -0.13393956 0.055655964
0002e0 ed 30 0b 3e a6 88 25 3e 67 3f be be 9b 27 af be
       0.13592882 0.16165408 -0.37157747 -0.34209904
0002f0 1c c0 75 be e6 4e bd bd 38 26 36 be 1c 3e 51 be
       -0.23999065 -0.09243564 -0.17788017 -0.20433849
000300 bb d8 9e 3e c7 8a 64 3e ca 9e ef 3d ce 21 5e be
       0.31024727 0.22318564 0.117002085 -0.21692583
000310 66 40 5b bd 71 7c 37 3e e9 67 8f bc 82 bd 77 3d
       -0.053528212 0.17918564 -0.017505603 0.060483463
000320 7e c2 8b 3d 01 d9 f0 3d 84 9c c3 3d 98 8c 90 3c
       0.06824206 0.1176014 0.09551337 0.017645165
000330 73 bd 0d bd e5 39 9e bd 8d 42 4c bd 6a 08 33 bd
       -0.0346045 -0.07725886 -0.049868155 -0.043709196
000340 fc 0f e0 bd 40 42 4c be 61 fd c7 bd d4 d0 7c bd
       -0.10940549 -0.19947147 -0.09765125 -0.06172259
000350 55 49 0b 3e cc 73 f1 bd a4 88 3a 3e b7 83 c9 3c
       0.13602193 -0.117896646 0.18216187 0.02459894
000360 33 8a 2a 3e e7 f0 6c 3e 75 10 34 bc f3 33 10 bf
       0.16654281 0.23138772 -0.010990252 -0.5632927
000370 40 fd 19 bf 21 7d 02 bf 92 83 03 bf 87 8c ee be
       -0.60152054 -0.5097218 -0.51372635 -0.4659159
000380 d9 ef b6 be b4 82 a1 3e b2 11 cd 3e 2a 3f bf 3d
       -0.35729864 0.3154503 0.40052563 0.093382195
000390 42 57 9b 3c f0 aa e6 3d d3 d9 dd 3b ad 21 9c 3d
       0.018962506 0.112630725 0.0067703514 0.07623611
0003a0 67 f6 b4 3d 8f 10 cf bd 41 cd dd bd be 22 21 be
       0.0883606 -0.1011058 -0.10830165 -0.1573591
0003b0 fc 51 09 be 6c 4c 17 3e 96 0e 2c 3e 8f 10 ee 3d
       -0.13410181 0.14775246 0.16802439 0.11624252
0003c0 29 8e f8 3d 37 59 ed bb 88 4b 02 3e 6a 3c 54 be
       0.1213649 -0.0072433013 0.12724125 -0.20726171
0003d0 9f 92 b0 bd 85 a5 18 bd 7a f4 d5 3d 44 52 3b 3d
       -0.08621716 -0.037267227 0.10447021 0.04573275
0003e0 c4 f3 16 be e0 95 a7 3d 43 ea e2 3b 01 ea e3 3d
       -0.14741427 0.08182883 0.006924899 0.11128617
0003f0 a2 e8 c6 bd 87 b2 13 be bb 4e 82 be 28 a3 94 bd
       -0.0971234 -0.14423572 -0.25450692 -0.07257682

conv3.bias f4 [32]
000000 d6 df d3 bc 50 ff b8 be 13 be 2b bc da f9 94 be
       -0.02586357 -0.36132288 -0.010482329 -0.29096872
000010 f8 67 bb be f6 75 15 3e 06 5f ba be 02 9d ce be
       -0.3660276 0.1459578 -0.36400622 -0.40354162
000020 82 32 53 be 62 b0 5e be a6 4a 89 be ee 82 62 be
       -0.20624736 -0.21746972 -0.26814765 -0.22120258
000030 7a d6 97 be fd 75 87 be 27 1c 22 bf dc 31 ac bd
       -0.2965582 -0.26457205 -0.6332421 -0.084079474
000040 29 62 c6 bd 0a 72 e1 be d7 93 f9 be 9e b8 8c be
       -0.09686691 -0.44032317 -0.48745605 -0.27484602
000050 f9 57 24 bf 47 81 c1 be 4d 19 45 be 78 2f 9c be
       -0.64196736 -0.37793943 -0.19247933 -0.30504966
000060 c0 76 f7 be 0e 41 78 be 09 93 4a be f6 58 bc be
       -0.48332787 -0.24243566 -0.19782652 -0.36786622
000070 92 8e b1 be 55 05 0d bf d9 3b 5c 3e c4 27 aa be
       -0.34679085 -0.5508626 0.21507205 -0.33233464

bn3.weight f4 [32]
000000 91 e1 82 3f 04 66 82 3f 01 a9 5e 3f ee 5d 9c 3f
       1.0225087 1.0187383 0.8697663 1.2216165
000010 40 0a 84 3f b3 a3 4c 3f f5 91 82 3f 38 16 84 3f
       1.0315628 0.79937285 1.0200793 1.0319281
000020 7e 98 87 3f 52 82 5a 3f a0 98 87 3f 6a d4 95 3f
       1.0593412 0.85355103 1.0593452 1.1705449
000030 21 41 88 3f 02 93 86 3f 0b 0b 6d 3f 71 13 7b 3f
       1.0644876 1.0513613 0.92594975 0.9807654
000040 dd a2 60 3f 33 5e 4d 3f 32 62 8c 3f 29 d9 54 3f
       0.8774851 0.8022186 1.0967467 0.8314386
000050 5b 75 68 3f 79 bd 7e 3f 71 01 76 3f 99 c8 6a 3f
       0.9080407 0.9950786 0.9609595 0.9171234
000060 fc 6e 6e 3f 98 74 7a 3f c7 4f 80 3f bd 2b 77 3f
       0.931381 0.9783416 1.0024346 0.96551114
000070 49 8d 80 3f cb 0d 89 3f c9 b5 40 3f 7a 32 69 3f
       1.0043117 1.0707334 0.7527738 0.91092646

bn3.bias f4 [32]
000000 05 e7 26 3e 49 ae df 3e ef 1a 31 bd 2e bd 3e be
       0.16299064 0.43687657 -0.043238577 -0.18626854
000010 ce be c5 be 2c e4 a7 3e cd 9f 0e 3f 1d 3d f9 3e
       -0.38622135 0.3279127 0.55712587 0.48679438
000020 86 74 cb 3e e5 72 55 3e 51 50 a9 3d 5f 8e b7 3d
       0.39737338 0.2084461 0.08267272 0.08962702
000030 b5 cc a2 3d ce f2 2a be 32 a4 0b 3e d8 53 91 be
       0.07949201 -0.16694185 0.13636854 -0.2838428
000040 8d 36 c0 be d2 89 44 3e 12 dc 80 3d 4b 2a d8 be
       -0.3754162 0.191932 0.06291975 -0.42219767
000050 43 d5 ac 3e 3e a3 b7 3d f7 2a 03 be 03 ac a8 3e
       0.33756456 0.08966683 -0.12809359 0.32943735
000060 74 2f 98 3d ae 1d 62 be b0 d5 ec 3e d9 ed dc be
       0.07430926 -0.22081634 0.4625678 -0.43150213
000070 c5 3a 2a 3e 82 82 bb bd a9 04 55 be 35 d2 9c be
       0.16623981 -0.09155752 -0.20802559 -0.30629125

bn3.running_mean f4 [32]
000000 4f e7 f9 3f ec a1 b6 3d 77 b0 c6 3f 99 9b 50 3e
       1.9523715 0.08917603 1.5522603 0.20371856
000010 08 57 df 3e 8f 11 a5 3f dd 3e a4 3d 91 0b 1f 3f
       0.43621087 1.2895983 0.08019803 0.62127024
000020 d1 6e 2a 3e 15 48 a7 3d bb 95 d6 3e ba cf 86 3e
       0.16643836 0.081680454 0.4191111 0.26330358
000030 01 83 8a 3e 6e 6b 55 3e 92 c1 10 3e e5 93 12 3f
       0.27053073 0.20841762 0.14136341 0.5725692
000040 34 76 82 3f 63 53 59 3d b7 69 67 3d 9d 70 6f 3e
       1.0192323 0.05305804 0.056497302 0.23382802
000050 97 3e 47 3d ac 18 88 3e 6e cb 8b 3f 86 79 46 3e
       0.048643675 0.26581323 1.0921457 0.19382295
000060 a6 2a 16 3e 1b dd 0e 3e f5 54 29 3e f3 f4 b7 3e
       0.14664707 0.13951533 0.16536315 0.3592907
000070 87 d2 1d 3e d2 cf 48 3e 9d 8f ad 3f ac 58 90 3e
       0.15412341 0.19610527 1.3559452 0.2819265

bn3.running_var f4 [32]
000000 76 3f ba 3f 4b 3f 9e 3e 9a a9 f6 3f ac 2f 99 3f
       1.4550617 0.30907664 1.9270508 1.1967673
000010 88 ba 08 40 ba 01 43 3f 50 e5 05 3f 0a b0 37 40
       2.136385 0.7617451 0.5230303 2.8701196
000020 51 e3 74 3f f2 70 59 3e 39 36 3c 40 af 5f c5 3f
       0.9565936 0.21234491 2.9408095 1.5419825
000030 fe fe b0 3f 01 86 87 3f 55 5c 57 3f 10 f0 31 40
       1.3827817 1.058777 0.8412526 2.7802773
000040 06 9d 87 3f 85 8a 49 3e 7c d3 ad 3e fc a3 08 3f
       1.0594795 0.19681747 0.33950412 0.5337522
000050 6a 5c 95 3e 0d 3b 00 40 d2 a5 61 40 df b5 0f 3f
       0.2917207 2.0036042 3.5257459 0.5613689
000060 f2 b0 2b 3f 42 e5 20 3f 07 1f 55 3f 9c 83 01 40
       0.6706687 0.6284982 0.8325047 2.0236578
000070 af 76 2b 3f 5b 9d a6 3f 09 b6 4d 3f e2 2e a0 3f
       0.6697797 1.3016771 0.8035589 1.2514307

conv4.weight f4 [64, 32, 3, 3]
000000 fe 1d 0a be c1 9c 85 be 70 c9 2a be 7a 4a 24 3e
       -0.13488004 -0.26096156 -0.16678405 0.16044036
000010 bb 12 8a 3d e7 ed 1b 3c 48 f3 e5 3d af f2 9a be
       0.06741854 0.00951717 0.11228043 -0.30263278
000020 dd ba 03 bf dc ff 72 bd 9b 24 b5 bd 66 53 dc bd
       -0.51457006 -0.059326038 -0.088448726 -0.107580945
000030 ad 33 eb bb ab 1b 65 38 d5 27 9c bc e3 61 ff 3c
       -0.007177791 5.4623622e-05 -0.019061962 0.031174606
000040 60 f5 e6 bb 9b 3c 3e bd 7c 38 72 3d a1 4c f5 3b
       -0.007048294 -0.046444517 0.0591359 0.0074859415
000050 09 05 1e be 12 47 8f bc 0e 63 52 be 4e c8 03 be
       -0.15431608 -0.017489944 -0.20545599 -0.12869379
000060 84 96 1a 3e e5 26 45 3e c7 50 95 3d dc 7a 5e be
       0.1509648 0.19253118 0.07290798 -0.21726555
000070 57 92 4e bd c1 2f aa bd dc 91 8e be 5d c6 4b be
       -0.05043253 -0.083098896 -0.27845657 -0.19899888
000080 78 e7 3e bd df 7d bf bb 66 a6 f5 bc da 4f b0 bd
       -0.046607465 -0.0058438624 -0.029986572 -0.086089805
000090 9c 46 35 bd 7c e2 c7 be a3 32 d7 be e7 1c c3 3e
       -0.04425679 -0.3903998 -0.4203082 0.38107988
0000a0 55 94 ac 3e 0c c9 d9 3e c6 fe ac 3d a1 5e e5 bd
       0.33706918 0.425362 0.08447032 -0.1119969
0000b0 b5 9b 82 bd b5 0f c0 bd 93 06 68 3d c5 fa 8d bd
       -0.06377355 -0.09377996 0.056646895 -0.06932596
0000c0 72 89 a6 bd 34 25 f7 bd 14 d4 61 be 46 83 26 3d
       -0.08131684 -0.12067643 -0.22053558 0.040652536
0000d0 34 be 87 bd 46 22 9e 3c 39 5b 85 3d 50 3f 07 be
       -0.06628075 0.019303452 0.0651154 -0.13207746
0000e0 46 32 c4 bc 2a 45 0a bd 8f ed 2a bd 84 86 3d bd
       -0.023949753 -0.033757366 -0.04173046 -0.046270862
0000f0 2b 2e a7 be c6 ee 67 be e1 ec 98 be 82 4f 9f bd
       -0.3265241 -0.22649679 -0.29868224 -0.07778837
000100 5d 68 8f bd b5 a3 93 3d ab 88 53 be 17 30 e2 bd
       -0.070023276 0.07208959 -0.20657603 -0.11044329
000110 42 ba 31 bd f2 92 0a be 7c ad 53 be ad 26 d6 bd
       -0.04339052 -0.13532618 -0.20671648 -0.104565956
000120 47 5a 55 bd 45 fb b1 3d c9 e2 09 be e6 c9 8e 3d
       -0.05208805 0.08690504 -0.13465418 0.06972103
000130 97 88 b9 3c 01 19 5c 3d 37 82 ca bd 89 88 c6 3c
       0.022648139 0.053734783 -0.09888118 0.024235027
000140 ea 3b 14 3e e6 d0 94 be 71 dd 88 bd 30 0a 8a bd
       0.1447598 -0.29065627 -0.066828616 -0.06740224
000150 66 e8 bb 3d 57 0d bf 3d 85 88 c9 3d 8a 19 d5 3d
       0.09175186 0.09328716 0.09840492 0.10405262
000160 26 36 05 3d 6c 63 e9 3c b5 b2 a2 3d d5 23 9b bd
       0.032522343 0.02848979 0.07944242 -0.07575194
000170 b5 80 f9 bd 00 64 f8 3c ad d2 8a 3d 6f e3 1e bd
       -0.12182752 0.030321121 0.067784645 -0.038791116
000180 01 22 c4 bd 07 c5 9b bd 00 4d 24 3d bc c3 97 bb
       -0.09576798 -0.07605939 0.040112495 -0.0046314877
000190 39 82 79 bd ae 38 27 bd bb 55 59 3e 39 b5 9b 3e
       -0.060915206 -0.04082554 0.2122411 0.304117
0001a0 fc 20 e5 3e d4 50 0d bd a6 b5 a1 bd 15 14 d6 bc
       0.44751728 -0.03450091 -0.07895975 -0.026132623
0001b0 62 62 90 be b0 9a 43 be ac cf 85 bd 0c c2 24 3e
       -0.2820006 -0.19101977 -0.06533751 0.16089648
0001c0 15 bc 4c 3e f9 a5 56 3e 6b 4b 70 3e c9 3b 34 3e
       0.19993623 0.20961751 0.2346627 0.17600931
0001d0 49 09 9e 3e 87 65 0c 3c e4 bd cd 3c 97 35 e0 bc
       0.3086646 0.008569128 0.025114961 -0.027369304
0001e0 db 07 4e bd 36 9c 1d be d5 af 2b be 40 02 01 3e
       -0.05030046 -0.15391621 -0.16766293 0.12598515
0001f0 8d bf ac bd 4e 8a 17 be ce b4 4e bd ae 0d 25 bc
       -0.08434973 -0.14798853 -0.050465398 -0.010074062
000200 22 1d d2 3c d1 ce ac 3d 2c 42 71 3d 22 b7 be 3d
       0.025648657 0.084378846 0.058900997 0.093122736
000210 b2 90 5f 3e 42 40 15 3d 7e 60 ea 3d 09 71 ec 3d
       0.2183254 0.036438234 0.11444186 0.11544997
000220 59 16 a1 3d 71 be d7 bd 94 ab 31 bd 60 54 e1 3c
       0.078655906 -0.10534371 -0.04337652 0.027506053
000230 54 44 8c 3d a9 44 a0 3b b0 68 37 be 09 ec 03 be
       0.0684897 0.0048909974 -0.17911029 -0.12883009
000240 d2 27 ef bc 80 95 fa bd 7b 13 0d be 4d 6d 74 3e
       -0.029193792 -0.12235546 -0.13776962 0.2386982
000250 74 f0 8b 3e 03 ef 1f 3e 4f 3e 3b 3e 87 c6 b6 3e
       0.2733189 0.1561852 0.18285488 0.3569834
000260 7f 30 8f 3e 5d 4f 1f be 11 0e 3c bd 40 17 fa bd
       0.27966687 -0.15557618 -0.045911852 -0.12211466
000270 91 5e 18 3e be 51 4b 3e 9f ce 45 bc 48 3e 29 3e
       0.14879824 0.19855401 -0.012073188 0.16527665
000280 5a 2a 34 3e e3 a3 f9 3d 6a d7 42 be ab 90 8c bd
       0.17594281 0.12189462 -0.19027486 -0.06863531
000290 65 34 1b bd 50 59 4e bd f5 b3 d0 bd 6c cd 8e be
       -0.037891764 -0.050378144 -0.10190574 -0.278911
0002a0 df 59 91 bd 8e 13 22 bc fd 61 92 3d d8 d1 53 3c
       -0.0709722 -0.0098923575 0.07147596 0.012928449
0002b0 74 2c b8 be 60 0d 2a be 4b 59 4b 3e 3f d3 00 3d
       -0.35971415 -0.16606665 0.19858281 0.03145146
0002c0 1c 2a 70 3d 86 4f 11 3e fa d7 97 3b b8 5e 9b 3d
       0.05863391 0.14190492 0.0046339007 0.075864255
0002d0 01 9a 29 bd bc 0b af bd 06 00 af be 83 d5 51 bd
       -0.041406635 -0.0854716 -0.34179705 -0.05122901
0002e0 be 71 55 bd fd 02 63 bc 5b f3 ea bc a4 fb c4 bc
       -0.052110426 -0.013855693 -0.028680494 -0.024045773
0002f0 6f 26 62 3d 2d 72 95 3c ef 21 b7 3b b0 89 ac ba
       0.055212434 0.01824292 0.005588762 -0.0013163593
000300 d2 6a e7 bc 33 07 f3 bd 70 9d d3 bd 15 52 0f 3e
       -0.028249178 -0.118666075 -0.10332763 0.13996156
000310 81 6b 4c 3e 6c cc 02 3e 08 90 3b be bd ce 73 bd
       0.19962884 0.12773293 -0.18316662 -0.059523333
000320 8a a3 18 3e ee d1 ae 3e fc f9 8e 3e f3 f3 c6 3e
       0.14906135 0.3414454 0.27925098 0.38857993
000330 de 85 b1 bd 37 15 5d 3d 2d 92 e0 3d 01 f3 a2 3b
       -0.08668111 0.05397531 0.10965381 0.004972816
000340 f5 91 9d 3d 5d 11 e1 3d 95 a2 41 bd 71 ea 97 bd
       0.07693855 0.1098964 -0.04727419 -0.07417763
000350 15 eb 97 3d 1f 35 5b 3e 36 ab 29 3e fa 6d 64 3e
       0.07417885 0.21406983 0.16569218 0.22307578
000360 cd d3 17 be 38 4b cf bd 56 e9 05 be e9 d0 9c be
       -0.1482689 -0.10121769 -0.13077292 -0.30628136
000370 12 1c b3 be bf f2 1c bf 16 01 d7 3d d3 49 ac 3d
       -0.34982353 -0.613079 0.10498254 0.08412518
000380 7f 66 f3 3c 23 79 b0 3d 06 e6 c9 bd f7 9d 90 be
       0.02971196 0.08616855 -0.098583266 -0.28245518
000390 36 10 7d bd 63 c0 d8 3d 82 f9 b3 3d a5 2e ec 3d
       -0.061783038 0.1058357 0.08787824 0.11532334
0003a0 fc 84 22 3e 8b a0 10 3e 0b c5 c2 bc fd 03 86 bd
       0.15871042 0.14123742 -0.023775598 -0.065437295
0003b0 09 a7 05 bd eb 12 0f bf f7 bd 26 bf 55 8f ab be
       -0.03263 -0.5588824 -0.65133613 -0.3350779
0003c0 f5 42 ba bc d2 a0 30 bc c8 20 03 3e 17 ed da bc
       -0.022737006 -0.01078053 0.12805474 -0.026724381
0003d0 ad 5f ae 3b 33 96 03 3d f5 0a 63 3e cc ed 24 3e
       0.005321464 0.032125663 0.22172149 0.16106337
0003e0 e2 f1 48 3e f2 f6 a5 3d fc 19 5a bc 81 3c cd 3d
       0.19623521 0.08103742 -0.013311859 0.10021306
0003f0 fd 04 93 be 67 70 a4 be bf a8 a8 bd e0 16 af 3d
       -0.28714743 -0.32117006 -0.08235311 0.08549285

conv4.bias f4 [64]
000000 89 f0 81 be 0b 26 c6 be 8f c8 e8 be 2f 72 cf be
       -0.25378826 -0.387009 -0.45465514 -0.40516803
000010 ea 07 9f 3e 85 40 22 be 48 45 64 be d3 d4 c0 bd
       0.31060725 -0.15844925 -0.22292054 -0.09415593
000020 3e 82 dd bd 09 5c 84 bd 06 64 bf be f7 db e6 3c
       -0.10815857 -0.06462867 -0.37381 0.02818106
000030 5e da b0 be b9 05 63 3d 85 e8 80 be 3f 32 46 bd
       -0.345416 0.05542538 -0.25177398 -0.048387762
000040 2c 1b 8a 3c 4d c0 11 be dc 5b b3 3e 08 f0 5e be
       0.01685866 -0.14233513 0.3503102 -0.21771252
000050 45 dd 7c be 02 ca cd bd 60 d6 0b 3d c8 ba 79 be
       -0.24693783 -0.100482956 0.03413999 -0.24387658
000060 fa 4e 73 bc ae ee 8a be f9 40 00 3d 88 c9 15 be
       -0.014850372 -0.27135223 0.031311963 -0.1462766
000070 e9 dc 48 be ca f4 da be 65 57 b7 3e c8 3f 02 bf
       -0.1961552 -0.42764884 0.35808864 -0.5087857
000080 b2 36 2d be b7 1a 23 be 15 81 81 bc 3e 77 cc be
       -0.16915396 -0.1592816 -0.015808621 -0.39934725
000090 4e 82 4c 3e f9 f7 cc be fe 7c 3c be a8 43 5f bd
       0.19971582 -0.40032938 -0.18407056 -0.05450788
0000a0 ce bd 47 bd c6 a5 88 3e a1 d6 ad be 60 bd 75 be
       -0.048764996 0.26688975 -0.3395281 -0.23998022
0000b0 78 68 07 be 50 c5 00 be ed b6 80 be e0 11 59 be
       -0.13223445 -0.12575269 -0.2513956 -0.21198225
0000c0 95 14 bd 3e c8 41 06 bf 90 af 12 be a9 3b ab be
       0.36929765 -0.52444124 -0.14324784 -0.33443955
0000d0 79 02 96 be 43 7c 39 be 59 77 5c be 91 09 b2 be
       -0.2929876 -0.18113808 -0.21529903 -0.34772924
0000e0 ba 89 2b be dd cc 89 be 29 c8 9e be 4f 9a 0b be
       -0.16751757 -0.2691411 -0.31012085 -0.13633083
0000f0 3e ef c9 3d f1 d4 c9 3c b9 69 ac be 70 86 13 be
       0.09860085 0.024637671 -0.3367441 -0.14406753

bn4.weight f4 [64]
000000 8b 23 85 40 be fe 82 40 62 ec 9f 40 b5 88 a7 40
       4.1605887 4.0935965 4.9976053 5.235438
000010 91 52 fb 3f 3d 37 8f 40 d4 35 80 40 73 ad 8d 40
       1.9634572 4.475493 4.006571 4.427423
000020 c0 c2 6d 40 fe d9 9f 40 44 4d 94 40 b6 0b 8b 40
       3.7150116 4.9953604 4.634432 4.3451796
000030 cb 4d 93 40 2e 8d 83 40 b0 1d 9c 40 cd a6 86 40
       4.603246 4.110984 4.878624 4.2078614
000040 7f 02 d9 3f 31 c8 91 40 1d d6 20 40 57 d7 79 40
       1.6953887 4.5556874 2.5130684 3.9037683
000050 a3 76 c1 3f 0a 49 32 40 dc ff 6c 40 95 3d 9d 40
       1.511433 2.785708 3.7031164 4.9137673
000060 4c 8c 90 40 6f 9b 82 40 6e c4 7c 40 ab 23 6a 40
       4.517126 4.081474 3.949489 3.658427
000070 cd bd 9e 40 3c c4 81 40 22 9b 12 40 25 70 a8 40
       4.960669 4.0552044 2.2907186 5.2636895
000080 5d 15 8f 40 e7 b8 72 40 39 20 74 40 3d bf 93 40
       4.471358 3.7925355 3.8144667 4.6170945
000090 22 ba e8 3f b5 e0 9f 40 75 a8 7a 40 db fb 5c 40
       1.8181803 4.99618 3.9165318 3.452872
0000a0 63 48 77 40 92 c1 22 40 fd 18 76 40 a0 6b 85 40
       3.8637931 2.5430646 3.8452752 4.169388
0000b0 51 75 98 40 f4 52 92 40 32 db a7 40 54 41 8c 40
       4.764321 4.572626 5.2455072 4.3829746
0000c0 8e e7 e3 3f af 5b b6 40 ca 02 49 40 5a 85 91 40
       1.780504 5.698692 3.1407952 4.5475283
0000d0 19 cb 8a 40 ab 1f a4 40 c6 97 7b 40 e4 a3 95 40
       4.337292 5.1288657 3.9311385 4.676256
0000e0 4a 83 8c 40 0a 7d 9a 40 28 c2 76 40 7a 51 9b 40
       4.3910265 4.8277636 3.8556004 4.853696
0000f0 8f fa 15 40 92 64 4b 40 c7 32 60 40 78 fb 82 40
       2.343418 3.1780133 3.5030992 4.093197

bn4.bias f4 [64]
000000 21 7b b9 3d 12 41 3c be de fb 08 3e 66 8e 2f be
       0.09056688 -0.18384197 0.1337733 -0.17144164
000010 b0 29 2b be e0 a4 b7 3e 1b 14 85 be f7 6b 84 be
       -0.16715121 0.35867977 -0.25991902 -0.2586362
000020 f4 92 d7 3d 4b 88 ab 3e 0f a5 33 be 1c 63 33 3e
       0.10526076 0.3350242 -0.17543434 0.17518276
000030 42 a8 04 be df dc 5c be 3d 65 7b be 95 03 57 3e
       -0.1295481 -0.2156863 -0.24550338 0.2099746
000040 c6 d2 ec 3d 51 e7 9d 3e 87 eb 47 be ea 90 2d 3e
       0.11563639 0.30840543 -0.1952344 0.16949812
000050 9b 67 70 be ef a8 4c 3e 88 ed c5 3e 92 1d 05 3e
       -0.23477022 0.19986318 0.38657784 0.12999561
000060 21 18 84 be c6 b6 51 3e 19 bb 14 be 98 98 3c 3e
       -0.2579966 0.20479879 -0.14524497 0.18417585
000070 cf 5d 14 be f4 da 3b 3e c6 64 19 be 62 cb 44 be
       -0.1448891 0.18345243 -0.14979848 -0.1921821
000080 90 ac 92 3e 3f 87 3d 3e 4e 6c 75 3e 2e 76 20 be
       0.2864728 0.18508624 0.23967096 -0.15670082
000090 48 fc c3 3e ff bd ef bd aa c0 06 be 01 92 4f 3e
       0.38278413 -0.11706161 -0.13159433 0.2027054
0000a0 2e 89 14 3e fc 88 8b 3e 15 b8 7d be b4 bc 93 be
       0.14505455 0.27252948 -0.24777253 -0.28854907
0000b0 88 c5 65 3e dd 5a 43 be f7 ce f1 3d fa d9 6e be
       0.22438633 -0.1907763 0.118070535 -0.23325339
0000c0 66 c7 a8 3e 85 97 2e be 55 29 3c 3e e7 04 6c 3e
       0.3296463 -0.17049988 0.18375142 0.23048745
0000d0 82 3d 55 3e dc a9 55 be d2 22 b8 3d 59 f2 d2 3d
       0.20824245 -0.20865577 0.089910164 0.103001304
0000e0 4e 0e 03 be 0b 31 e4 3d 12 93 91 3d 5f cd f6 bd
       -0.12798426 0.11142167 0.071081296 -0.1205089
0000f0 5a 4b 0f be cf 1b 57 3e 84 6f cc 3d f2 39 4a be
       -0.13993588 0.21006702 0.099822074 -0.19748667

bn4.running_mean f4 [64]
000000 de 41 80 3e 27 68 22 3d 16 b0 2d 3d f3 62 cf 3c
       0.25050253 0.03965011 0.042404257 0.025315737
000010 df 1e db 3f 44 d7 13 3d 63 16 58 3d 27 95 77 3d
       1.7118796 0.036093965 0.052755725 0.060444977
000020 67 2b b8 3d 75 7c 50 3d 7c 8d 43 3d e0 3a 4e 3d
       0.08992653 0.05089994 0.047742352 0.050349116
000030 9b 43 fc 3c cd 31 c7 3d 39 49 ef 3c 63 eb 00 3e
       0.030793956 0.097262956 0.02920972 0.12589793
000040 08 05 99 3f a8 60 e3 3d 53 90 dd 3f 67 16 27 3e
       1.195466 0.1110242 1.7309669 0.1631714
000050 03 7d 66 3f 42 eb 16 3f 08 81 29 3e 09 91 8a 3d
       0.900345 0.58952725 0.16553128 0.067659445
000060 ef 72 10 3d c4 8a 92 3d f8 37 89 3d eb 9a b0 3d
       0.03526586 0.07155374 0.06700128 0.08623298
000070 d6 c5 dc 3c 30 dc 57 3d 9e 91 f3 3f e4 12 a0 3c
       0.026949804 0.05270022 1.9028814 0.019540258
000080 57 b5 d7 3c 9c 9b 88 3d 6a 65 a5 3d 02 1d 67 3d
       0.026331587 0.06670305 0.08075984 0.05642415
000090 ec 64 d8 3f 28 b0 3e 3d 35 0c 89 3d a5 a6 79 3d
       1.6905799 0.046554714 0.066917814 0.06094994
0000a0 63 c3 80 3e 07 3a 9c 3f 78 08 a9 3d 72 96 7d 3d
       0.25149068 1.2205209 0.082535684 0.061911054
0000b0 aa 5c 9a 3d 3a a7 92 3d 01 bf 0f 3d 3e 6a 36 3d
       0.075372055 0.07160802 0.035094265 0.044534914
0000c0 c6 6d 13 40 9b 33 47 3d 81 27 a2 3d 84 b1 56 3d
       2.303575 0.0486332 0.07917691 0.052415386
0000d0 79 fc a4 3c a2 4e 50 3d d2 34 00 3e 83 7e 66 3d
       0.02013992 0.05085624 0.1252015 0.056272995
0000e0 7a de f4 3d 6e d3 49 3d 00 9e c8 3d 14 d4 b0 3c
       0.119564965 0.0492739 0.09795761 0.021585502
0000f0 72 32 95 3f dd b7 c6 3e ca 9b 90 3d 2b 76 2f 3e
       1.165602 0.38812152 0.070609644 0.17134921

bn4.running_var f4 [64]
000000 3b 9e d8 3f db 5b 24 3e 2e 3c 75 3e f5 94 d0 3d
       1.6923288 0.16050665 0.23948738 0.10184661
000010 13 2a 9e 3f 6d 4b 0d 3e 70 2f 44 3e 35 8c aa 3e
       1.235659 0.13798304 0.19158721 0.33310094
000020 62 cc db 3e 73 e3 81 3e 1f da 72 3e e8 14 1f 3e
       0.4292937 0.25368842 0.23716019 0.15535319
000030 70 d6 0c 3e 69 db ab 3e 84 7e c1 3d 83 a7 01 3f
       0.13753676 0.33565834 0.09447959 0.5064623
000040 54 e9 a0 3f 90 9d bc 3e 26 54 0b 40 30 1f 0a 3f
       1.2571206 0.3683896 2.177011 0.5395384
000050 75 18 a7 3f d9 81 f5 3f 09 90 be 3e 03 f3 9f 3e
       1.3054339 1.9180251 0.37219265 0.3124009
000060 e4 25 26 3e 2d 09 7d 3e 7f fc 43 3e 41 6a 02 3f
       0.16225392 0.24710532 0.19139288 0.5094338
000070 6e c7 e9 3d 93 8c 6e 3e 4b 72 03 40 ad 79 03 3e
       0.11414991 0.23295812 2.053851 0.12839384
000080 df ad e7 3d 56 6e 97 3e 05 a4 c0 3e 1f 45 9b 3e
       0.1131246 0.29576367 0.37625137 0.30326173
000090 45 b4 ff 3f 53 1a 63 3e 60 7c 42 3e bb 7e 05 3e
       1.9976889 0.2217801 0.18992758 0.13036625
0000a0 56 2e b8 3f 78 a8 c8 3f cb f7 bf 3e 02 72 97 3e
       1.4389141 1.5676413 0.3749374 0.2957917
0000b0 a4 35 c6 3e ee e2 90 3e 55 d1 2e 3e 33 d0 23 3e
       0.387128 0.28298134 0.17072041 0.1599739
0000c0 b8 2c 24 40 fc 47 21 3e ed f6 77 3e f0 dd 1d 3e
       2.5652294 0.15750116 0.24215288 0.15416694
0000d0 20 6b a5 3d 92 c0 6c 3e ad 05 06 3f c0 f9 8e 3e
       0.08077073 0.23120335 0.5235241 0.2792492
0000e0 a6 72 26 3f de fc 44 3e 2e 22 36 3f cb 15 c1 3d
       0.6501869 0.19237086 0.71145904 0.09427985
0000f0 8a f2 86 3f ae 1c 5e 3f 53 00 d9 3e b4 cc e7 3e
       1.0542767 0.8676251 0.4238306 0.45273364
