NCC_Code/2022-06-24_12-33-34_model.pt (torch, 114443 bytes, 50 tensors)

conv1.weight f4 [8, 2, 5, 5]
000000 93 37 cf bd dd f0 92 bd 2f 62 44 3c a3 38 11 be
       -0.10118022 -0.07174847 0.011986299 -0.14181761
000010 93 35 2b bc de e1 8b be 2f fc d3 bd 55 a6 99 bc
       -0.010449785 -0.2732076 -0.103508346 -0.018756071
000020 aa e2 03 bd a7 87 9d be 42 d8 e7 bc 8d e2 19 be
       -0.032198586 -0.30767557 -0.028301362 -0.15027829
000030 50 57 c2 3d c4 48 2c 3e ce c7 d3 bd 91 42 bd 3e
       0.0948931 0.16824633 -0.10340844 0.3696485
000040 83 8c 7b bd 49 5f 80 3e ea e6 9d bc 80 31 18 3e
       -0.0614133 0.25072697 -0.019275147 0.14862633
000050 25 94 3c bd d2 27 84 bd 4d 89 bc be 86 5b 0c 3d
       -0.04603972 -0.064529076 -0.36823502 0.03426697
000060 1b cf 44 bc f6 81 34 3e 45 2c 05 3c cc 6d e8 3e
       -0.012012268 0.17627701 0.00812823 0.45396268
000070 db a4 0a 3d 41 8c 83 be dd 7c 88 3c 22 ac 61 3d
       0.033848625 -0.25692943 0.016661102 0.0550958
000080 61 a0 76 3d 6c e9 a9 be c1 1b db bd 80 39 bb bd
       0.060211543 -0.331859 -0.10698653 -0.09141827
000090 48 c0 c2 bc ff 41 3a 3b 7b 19 64 3d 6c c7 02 3e
       -0.023773327 0.0028420684 0.055688363 0.12771386
0000a0 13 2b 1a 3e 8c a4 2d 3a a6 24 e1 3d 50 7d ea bd
       0.15055494 0.00066239457 0.10993318 -0.11449683
0000b0 12 c8 54 3d 19 ad 9c bd 15 5d d2 bd cb fa bc 3e
       0.051948614 -0.07650203 -0.1027166 0.3691009
0000c0 81 63 db 3d 34 66 42 be 17 96 4f be b5 64 f3 3e
       0.10712338 -0.189843 -0.20272098 0.4753777
0000d0 0c 2f cb be 33 f5 7d 3d 59 0b ad 3e 16 42 8e bd
       -0.3968433 0.06200142 0.3379772 -0.06946199
0000e0 83 24 8b 3e 53 27 82 3e 77 0d 86 be 93 2f 81 be
       0.27176294 0.25420627 -0.26182148 -0.2523161
0000f0 1d b7 51 3e c5 61 39 be 77 82 92 be 66 53 85 bc
       0.20480008 -0.18103702 -0.28615162 -0.016275119
000100 07 ec 66 be 46 0e 6b 3e 94 6e 5a 3e b1 6e 3e 3e
       -0.22550975 0.22954664 0.21331245 0.18596913
000110 70 fd 5e bd 8e 78 85 3e 3d cb 0a be 49 04 64 bd
       -0.054440916 0.26068538 -0.13554092 -0.05566815
000120 4a 6c 05 be 7b e2 e7 be 90 b7 08 3d 82 bd 0f be
       -0.1302959 -0.45289978 0.033378184 -0.14037135
000130 d7 f4 29 be 94 eb 07 3e 8b f3 3d bd 67 16 02 bd
       -0.16597305 0.1327346 -0.04637484 -0.031759646
000140 0c b1 dd be a5 44 a7 bc 10 ea 2d 3e 9b 5c ac bd
       -0.4329914 -0.020418474 0.16983819 -0.084161006
000150 e0 79 86 3d c7 db 3d 3e 7f 81 d6 bd 08 58 6d bd
       0.065662146 0.1854087 -0.10473918 -0.05794528
000160 03 d6 b9 3d b6 63 e6 3d eb c5 7d b9 91 be bc 3d
       0.090740226 0.11249487 -0.0002420169 0.09216035
000170 f9 a0 dd bc e3 45 a6 3e 11 5f bc 3d 52 65 33 be
       -0.027054297 0.32475194 0.0919782 -0.1751912
000180 ad 1d 12 be 58 b2 39 be 92 e5 d0 bd 28 a9 a7 be
       -0.14269133 -0.18134439 -0.10200037 -0.32746243
000190 b9 ca 5f bd db c6 b9 bd 84 23 b6 3d 0c c0 9a 3d
       -0.05463669 -0.09071132 0.08893493 0.07556161
0001a0 1c 9f 12 bb 7b c3 98 3e 9e 6c 1a 3e 20 eb b9 3c
       -0.0022372669 0.2983664 0.15080497 0.022695124
0001b0 d2 ad 98 bd e4 21 5e be a9 2e c8 bd c6 40 9c be
       -0.074550286 -0.21692616 -0.09774525 -0.30518168
0001c0 ad 1c a2 3e 59 19 fe bd 1d 4b 8b 3e 75 52 56 be
       0.31662503 -0.124071784 0.27205744 -0.20929892
0001d0 af 40 03 bd f5 65 22 be 8d a3 97 3b f2 44 24 be
       -0.03204411 -0.15859206 0.004627651 -0.16041926
0001e0 0d ac 8a be 21 c1 37 bd 11 07 a9 3d c8 42 77 be
       -0.2708439 -0.044861916 0.08253301 -0.24146569
0001f0 cb 6c 8c bd b9 dc 9a bc ad 21 4e 3e 6c 4e 32 be
       -0.06856688 -0.018904077 0.20130034 -0.17412728
000200 cc 95 43 be cc b0 1a 3e 19 b3 8f 3c 17 c8 17 be
       -0.19100112 0.15106505 0.017541455 -0.14822422
000210 e8 a0 33 be 37 a9 19 be ce b6 9a bd 03 1c 49 be
       -0.1754185 -0.15005957 -0.075543985 -0.19639592
000220 a8 55 28 3c 9f 89 0c be 67 4d e8 bd 0d 5a 51 be
       0.010274328 -0.13724373 -0.11342888 -0.20444508
000230 b7 7c 4c 3b 5b 52 94 be 53 32 94 3d 34 e3 1f be
       0.0031202266 -0.28969082 0.07236161 -0.15614015
000240 88 30 89 3d 8b bc d4 3c 1e 8a 54 be 2e 2b c6 3e
       0.0669871 0.02596881 -0.20755813 0.38704818
000250 f2 64 8a 3d 95 cd bd be 82 de 2f be c3 70 11 3e
       0.06757535 -0.3707091 -0.17174724 0.14203171
000260 7e dc 81 bd af 08 53 be d4 76 a2 bd 56 b0 10 3e
       -0.06340884 -0.20608781 -0.07932821 0.14129767
000270 67 3b cf bc 22 09 6e 3e a7 ca e1 3d c3 b7 c9 3e
       -0.02529688 0.23245671 0.11024981 0.39398012
000280 62 b3 80 3d 70 c6 e5 3c 3a 80 a6 bd b5 09 cd be
       0.062842146 0.028048724 -0.08129926 -0.40046468
000290 99 eb 9d 3e ad fb 4f 3e 08 8f ef be 5a e1 c3 bd
       0.3084381 0.2031085 -0.46788812 -0.09564467
0002a0 50 e1 fc bd 78 c2 e2 bd ae 00 8c 3c 41 7c 83 be
       -0.123476624 -0.11072248 0.017090168 -0.25680736
0002b0 8b 32 c3 bd 56 8e 98 bd 3d 32 9a 3e 7d 41 54 bd
       -0.09531125 -0.074490234 0.30116454 -0.051820267
0002c0 ae ef 99 bd 87 22 b5 bd 9b 69 c0 3c be ff 24 3d
       -0.075164184 -0.08844476 0.023487857 0.040282957
0002d0 db 18 a3 3d cf b0 8b 3e c5 7d ae be d2 a2 65 3e
       0.07963725 0.27283332 -0.3408033 0.22425392
0002e0 d5 7e d1 3d 21 16 15 be 10 e0 99 bc cf 3f 5c be
       0.102292694 -0.14559223 -0.0187836 -0.21508716
0002f0 62 fc 19 3e 6e c7 d2 bd 13 d2 0a be 5d c0 c1 3c
       0.15037683 -0.102919444 -0.135567 0.023651296
000300 0c d4 5e be 26 ef 1a be 12 ef 17 3e 5c 31 96 be
       -0.21760577 -0.1513029 0.14837292 -0.29334533
000310 42 9c 9d bd f8 fc 98 be d2 ed 23 3d 9e d9 bc bd
       -0.076958194 -0.298805 0.040021725 -0.09221195
000320 a1 2b ed bd d3 e2 35 3e 2a cf 05 be 4b 8e 0f bd
       -0.11580587 0.17762308 -0.13067308 -0.03504781
000330 0d 4a 0e 3e 53 3d 93 be 3b f2 3f be d9 6f a5 bc
       0.13895436 -0.28757724 -0.18744747 -0.020194935
000340 35 04 5a 3d 6d 90 2a 3e d9 98 48 3e fe 39 0a 3d
       0.05322667 0.16656657 0.19589557 0.033746712
000350 28 34 90 be cb 4c 21 bd 35 c1 96 be fa 90 ca be
       -0.28164792 -0.039379876 -0.2944428 -0.39563733
000360 a3 61 37 be 22 42 ae 3d a3 af 4f bc 5f 7e 2a 3e
       -0.17908339 0.085087076 -0.012676152 0.16649769
000370 f1 a2 07 3d 2b 98 ac 3c 8b 28 1f bf c0 27 6c 3e
       0.033114377 0.021068653 -0.6217124 0.23062038
000380 a0 0b e6 3e ae f8 34 3d d3 01 26 3e 6c df 80 be
       0.44930744 0.044182472 0.16211633 -0.25170457
000390 34 d0 9a 3e 91 ef 22 bd c7 e8 d4 bd b2 a3 8d bd
       0.3023697 -0.03977925 -0.10395961 -0.06915988
0003a0 7e 9a 2a 3c 76 c2 20 be e2 fc 98 3e 0a be bb bc
       0.01041281 -0.15699181 0.29880434 -0.022917766
0003b0 b3 27 89 be fc 73 8a 3d 15 36 c8 be 7c 15 bc be
       -0.267881 0.067604035 -0.3910376 -0.3673514
0003c0 01 3b 58 3d 44 af 9e be a8 13 47 bc de 5f ad be
       0.052790646 -0.30993092 -0.0121506825 -0.33862203
0003d0 e9 35 f7 bb 30 45 e4 bd fd bd 37 be e2 d1 95 bd
       -0.0075442684 -0.11146009 -0.17943569 -0.073154226
0003e0 e4 bd 23 3e 2a fb bc be 0d ba 98 bd a4 68 0b bf
       0.15990406 -0.36910373 -0.07457361 -0.54456544
0003f0 91 13 d0 3d e4 bf a1 3d af 3a 95 be d2 92 f4 3d
       0.10159982 0.07897928 -0.29146335 0.11942066

conv1.bias f4 [8]
000000 b0 fb 22 bd 14 fd 42 3d 52 a3 1d 3c b3 23 2d 3d
       -0.03979081 0.047604635 0.009621458 0.042270374
000010 74 3f 67 3c 45 39 16 bd 9c bf ac 3c d9 a1 eb bc
       0.0141142495 -0.03667571 0.02108746 -0.028763698

bn1.weight f4 [8]
000000 75 e3 72 3f d4 85 7e 3f 47 90 7e 3f 80 d4 80 3f
       0.9487832 0.99422956 0.994389 1.006485
000010 28 ea 82 3f ef 1f 83 3f ea d0 7d 3f 8e 89 82 3f
       1.0227709 1.024412 0.991469 1.0198228

bn1.bias f4 [8]
000000 a3 82 c3 3b 76 cf b6 ba e0 aa 67 bc 69 fd 0e 3d
       0.005966501 -0.0013947326 -0.014139861 0.03490964
000010 3f f5 5b 3c 85 f9 cc 3a 59 22 27 ba f6 cb 33 bc
       0.01342517 0.0015638327 -0.00063756626 -0.010973921

bn1.running_mean f4 [8]
000000 ab 19 65 3e c7 a7 c3 3e 6f 37 43 3f 74 7e 18 3f
       0.22373073 0.3821394 0.7625646 0.5956795
000010 e7 12 6c 3f 3a 14 e2 3e d8 bd cb 3e c2 47 8f 3e
       0.9221634 0.44156057 0.39793277 0.27984434

bn1.running_var f4 [8]
000000 bf 36 18 3e 77 11 3f 3e 43 59 17 3f d4 c8 f7 3e
       0.14864634 0.18659006 0.5912058 0.48395407
000010 f7 ba 5b 3f 72 f0 a1 3f 69 a8 86 3f 3a 7d db 3e
       0.8583216 1.2651503 1.0520145 0.42868978

conv2.weight f4 [16, 8, 3, 3]
000000 e3 60 45 bd 10 00 f8 3c 61 5f 0a 3e 8a ee f4 bd
       -0.0481881 0.030273467 0.13512947 -0.1195956
000010 15 4d 89 3d 7a d1 5c be 94 6b ee bd 63 92 bb bd
       0.06704155 -0.21564284 -0.11641613 -0.091587804
000020 51 f9 23 3e dc 52 29 3e 98 90 a5 bd 15 25 3b be
       0.16013075 0.16535515 -0.0808422 -0.18275864
000030 0b ca 07 3b be bb 40 be ea 77 89 be bd 13 83 be
       0.0020719792 -0.18821618 -0.268493 -0.25600997
000040 7c c3 86 bd c5 26 72 bd 9b ca df bd 97 6d 39 bd
       -0.065802544 -0.059119005 -0.10927316 -0.04527053
000050 5c 9d 82 3c 16 cd 91 3d 8e 65 ce be b4 91 f3 bd
       0.015944175 0.07119195 -0.40311855 -0.11893025
000060 31 03 1f be bc ba 78 be 63 1b 9f 3e d5 28 98 3d
       -0.15528561 -0.24289984 0.31075582 0.07429663
000070 e3 84 b5 3d 3c 0e 4f bd 53 b1 a2 3d 1b 57 63 3c
       0.08863237 -0.050550684 0.07943978 0.013875748
000080 c4 07 93 bd 83 c8 66 bd 4b 2b 54 be 12 59 e3 3d
       -0.071792156 -0.056343567 -0.2071964 0.11100973
000090 c7 fe 42 3d 58 e7 5a 3d f9 c4 1e be 82 3c a5 bd
       0.047606256 0.053443283 -0.15504827 -0.080681816
0000a0 ca dc ae bd c7 27 7d 3d 52 3d da 3c 36 26 0a bd
       -0.08538206 0.061805513 0.026640568 -0.033727847
0000b0 7b da 5a be 87 10 79 bd 5b 69 33 bd be a8 a0 bd
       -0.21372406 -0.060806777 -0.043801647 -0.07844685
0000c0 10 00 9a be 11 c8 2e 3e 61 56 c5 bd 25 64 4b 3e
       -0.30078173 0.17068507 -0.09635616 0.19862421
0000d0 04 82 bf bd 90 9e b2 bd b5 70 b7 3e 3e 1b 84 be
       -0.093509704 -0.0872165 0.35828176 -0.25802034
0000e0 86 11 76 3e 16 b5 6d be 3b 0a da bc 45 ca de bd
       0.24030122 -0.2321361 -0.026616206 -0.108784236
0000f0 d1 9a 05 3e d0 90 45 be 78 35 60 3e 03 7a e9 3c
       0.13047339 -0.19293523 0.21895397 0.028500563
000100 8d c8 f0 3d 17 46 42 be a7 1f 9f bd 88 5c 65 3d
       0.11757002 -0.1897205 -0.07769709 0.055996448
000110 ce ca 2c be c7 95 78 be 2d de 15 be e6 9e 41 be
       -0.16874239 -0.24275886 -0.14635535 -0.18908271
000120 c3 92 a5 bd 1a 45 84 3e ef d1 05 bd b9 b1 cb 3d
       -0.08084633 0.2583397 -0.03267091 0.09946007
000130 e4 90 51 be 2f d2 6e 3e df 8c 64 3d fa 5d b1 3e
       -0.20465428 0.23322366 0.055798408 0.3464201
000140 d9 c2 ef 3d 06 06 5e be 2c 1a 3e bd fe 58 5f bc
       0.11707086 -0.21681985 -0.04641168 -0.013632057
000150 9c c2 64 3d 7c bc 1d bc 9a d9 22 bd 18 10 a9 bd
       0.055849656 -0.009627458 -0.039758302 -0.08255023
000160 06 30 fc 3b 4d b2 c1 3d 0f b3 c2 bb 18 5b 9d 3b
       0.0076961545 0.09457836 -0.0059417556 0.004802119
000170 a1 41 74 be bc 2b 88 bd fb ad e6 bb e0 9d c5 bd
       -0.2385316 -0.06648967 -0.007039783 -0.09649253
000180 45 7a 58 3e 33 32 53 3d d7 45 ee 3c e3 d4 70 bd
       0.21140392 0.051561546 0.029086037 -0.058796775
000190 17 30 d6 be 56 d4 b2 3c d7 e3 8e bc 8b cd c0 3d
       -0.41833565 0.021829765 -0.017442627 0.09414204
0001a0 a7 36 73 be ca e2 9e bd 99 56 89 bc 43 86 ff bd
       -0.23751317 -0.077581 -0.016764926 -0.1247678
0001b0 e1 7c f3 3d fd 4f b9 be 9e 96 9b be 6c 67 4b be
       0.11889053 -0.3619384 -0.3038835 -0.19863671
0001c0 9d 50 11 3e 22 f2 2c bb 19 19 a9 bd 74 7e 68 3e
       0.14190908 -0.002638944 -0.0825674 0.22704488
0001d0 56 53 72 bd f8 34 07 be e4 d9 58 bd 09 a7 ac be
       -0.059161507 -0.132038 -0.05294217 -0.33721188
0001e0 57 76 32 3e 5f b9 1c be 14 a0 a3 bd a9 c6 e2 3c
       0.17427956 -0.15305088 -0.07989517 0.02768262
0001f0 04 12 bb be b4 16 20 be ae a4 84 be 6e 2d 0d 3c
       -0.36537182 -0.1563366 -0.2590689 0.008616788
000200 53 60 aa 3e e5 78 e8 3d 0c cb 1a be 98 44 4d be
       0.33276615 0.11351184 -0.15116519 -0.20045698
000210 ce 34 3b bd 8d 40 c6 3c 1a 8d e0 3e 07 fe 4e 3d
       -0.045704655 0.024200702 0.43857652 0.050535228
000220 6b 65 ae be 5a 22 60 3d a6 18 da bd 20 99 6e 3e
       -0.3406175 0.05472026 -0.106492326 0.233006
000230 cb e6 58 3c 86 5a 6e 3e 7c d6 f6 3d 07 60 34 be
       0.013238619 0.2327672 0.120526284 -0.17614757
000240 79 68 49 3e fb fc 2b bd 79 cf 02 3d 02 92 85 bc
       0.1966876 -0.041989308 0.031936143 -0.016304974
000250 94 29 19 3c ec 98 ed 3d f3 b3 4b be 08 ee 0d 3d
       0.009348292 0.11601433 -0.19892864 0.034650832
000260 e8 8b 59 3d 11 79 8b be dd 82 d0 be a0 83 31 3e
       0.05311194 -0.27240804 -0.4072484 0.17335367
000270 e9 43 ff bc 61 ec 7f 3d 14 6d 03 3d b1 df 04 3d
       -0.031160312 0.062481288 0.032086447 0.03243989
000280 c0 69 93 be 1e e2 b7 3d d3 52 13 3e 19 f8 a2 bc
       -0.28791618 0.08978675 0.14387064 -0.019893693
000290 f9 82 ba 3e 8a 97 78 3e f2 7c e5 bd c9 cb a9 bc
       0.3642805 0.24276558 -0.11205472 -0.020727055
0002a0 9e d3 75 be 4b 2e a1 3d dd 23 13 3e cd 56 a2 be
       -0.24006507 0.07870158 0.1436915 -0.3170685
0002b0 2c 40 dd 3d 1b 1d a8 3e d3 45 4b bd 94 91 37 3e
       0.108032554 0.32834706 -0.049627136 0.17926627
0002c0 dd 09 2a 3e 05 7e 97 bc d3 7a ea bb 0d e0 51 be
       0.16605325 -0.018492708 -0.007155755 -0.20495625
0002d0 5d ab 40 bd 1c 0c fc 3d c1 6e e5 bd d5 f1 15 3b
       -0.047038425 0.12306997 -0.11202765 0.0022879739
0002e0 03 b5 1d 3d ff 36 f1 3b da 4e d3 bd 75 bc 57 3e
       0.038502704 0.0073612924 -0.10317774 0.21067984
0002f0 b3 a5 82 3d ff 34 45 3e 79 63 3c 3e c3 d0 7f 3d
       0.06379261 0.19258498 0.18397321 0.06245495
000300 7d 78 f5 3d fa 72 48 3e f8 14 88 3e 54 0f 4d be
       0.11985872 0.1957511 0.26578498 -0.20025378
000310 f1 44 00 be dc e3 dc 3d 3d 7e 63 ba 6f 36 89 bd
       -0.12526299 0.10785648 -0.0008678174 -0.066998355
000320 23 04 e2 bd 6b 2b 78 3c cc ce 71 be ee ed 39 bd
       -0.11035945 0.01514707 -0.23614043 -0.045392923
000330 73 50 50 3d 2b e0 1d 3e 47 b8 fc bd cf 8a 18 3d
       0.050857972 0.15417545 -0.123398356 0.037241753
000340 d0 d1 f9 3d 6d 75 b2 be 04 1b 68 be c6 ec 4d be
       0.12198222 -0.34855214 -0.22666556 -0.20109853
000350 f8 45 9e 3d 11 b7 03 be fd 7e 91 be 92 c3 5c 3d
       0.07728189 -0.12862803 -0.28417197 0.053897448
000360 68 38 1a 3e dc 2e 87 3e e5 9b 2d bd c5 43 c3 3d
       0.1506058 0.26402938 -0.042385 0.095344104
000370 c1 8c c9 bd de 31 17 3d 80 d0 00 3d 2a b1 c2 3d
       -0.098413 0.03691279 0.03144884 0.095064476
000380 7d 65 4d 3d 5e d2 af bc 98 41 07 3e ae be c9 bd
       0.050145615 -0.021462616 0.13208616 -0.098508224
000390 f3 f5 3a bc 72 0c 52 bd c2 8c 21 be e8 ed f2 ba
       -0.011411178 -0.0512814 -0.15776351 -0.0018534036
0003a0 8a 43 0d 3e 9e 2f 29 3e 41 78 11 bd 3b e0 c3 bd
       0.13795295 0.16522071 -0.035515074 -0.09564253
0003b0 05 b2 22 3d f6 82 9a 3d dc 81 f6 3d 34 49 16 bc
       0.039720554 0.0754451 0.120364875 -0.009172726
0003c0 b0 3b dc bc 35 34 ad 3d d8 f5 3d bc 68 d8 d6 bd
       -0.02688393 0.08457223 -0.011594258 -0.10490495
0003d0 4d 57 1d 3e 6a 05 ab 3e da 90 98 bc 8c 73 b4 be
       0.15365334 0.33402568 -0.018623758 -0.35244405
0003e0 d5 20 3a be 91 a7 32 3d 99 d0 54 3d 20 6e da bd
       -0.18176587 0.043616835 0.051956747 -0.10665536
0003f0 78 f2 78 3d 59 c5 7b bd cd 85 59 be 16 da 63 3e
       0.06077811 -0.061467502 -0.21242447 0.22251162

conv2.bias f4 [16]
000000 ea f0 c9 bc 40 ac 9e 3b a7 a0 af 3c 4b 1c 03 bb
       -0.02465101 0.004842311 0.02143891 -0.0020005878
000010 97 aa 07 3d 03 be 94 3c e1 bc 12 bd 96 ea 9f 3c
       0.03312167 0.01815701 -0.03582466 0.019521039
000020 cb 19 3b 3a 21 6d e7 bb 6e 53 80 3b c4 a9 8c bb
       0.00071373273 -0.0070625697 0.0039161956 -0.0042926986
000030 af d9 d5 3c e2 72 51 3b 64 2f ad bb 1a f6 f3 3b
       0.026104776 0.0031959345 -0.0052851904 0.007445109

bn2.weight f4 [16]
000000 fb 4b 80 3f 20 43 75 3f 88 9d 81 3f 38 b4 7f 3f
       1.0023187 0.9580555 1.01262 0.99884367
000010 65 d9 81 3f 5c ba 7c 3f 1f 00 81 3f f6 34 76 3f
       1.0144469 0.9872186 1.0078162 0.9617456
000020 43 02 80 3f ba db 82 3f 9b 06 7a 3f 4b 41 7e 3f
       1.000069 1.0223305 0.9766633 0.9931838
000030 b3 ae 7f 3f e6 6e 82 3f 11 51 81 3f 04 75 82 3f
       0.99875945 1.0190094 1.0102865 1.019196

bn2.bias f4 [16]
000000 b0 09 c6 bc 80 a0 12 bc 68 6f 4d 3c 18 cb ef bb
       -0.024174541 -0.008949399 0.012538768 -0.007317912
000010 e2 d1 bc bc c5 fc c7 3c d7 63 09 bd c5 25 ec bc
       -0.023049299 0.024412522 -0.03354248 -0.028826604
000020 2d ec 72 bb bf 0a 9b 3c a7 b3 16 bd da 2e 0a 3d
       -0.0037067041 0.018926023 -0.036792424 0.033736087
000030 49 a1 a8 3c 37 35 cb bc 68 5c 4b bc c2 e0 cd bc
       0.02058472 -0.024805648 -0.012412168 -0.025131587

bn2.running_mean f4 [16]
000000 59 fc 1a 3f 53 b5 fc 3e 30 23 01 3f b7 32 d5 3e
       0.605413 0.4935709 0.50444317 0.41640255
000010 76 f2 1f 3f e3 e4 41 3f e0 6c 02 3f cc a4 3c 3f
       0.6247934 0.7573988 0.5094738 0.7368896
000020 bd c2 07 3f b0 d6 c7 3e ef b8 ee 3e f8 aa dd 3e
       0.5303152 0.3903098 0.46625468 0.432945
000030 4c 8a 01 3f 60 3a 0a 3f dc 54 f9 3e 3b 09 02 3f
       0.5060165 0.53995323 0.48697555 0.50795335

bn2.running_var f4 [16]
000000 90 f2 1a 3f f9 f8 e3 3e e3 8e d8 3e 56 46 13 3f
       0.6052637 0.4452589 0.42296514 0.575292
000010 f1 25 28 3f 8e 43 92 3f f5 4a cc 3f 42 81 15 3f
       0.65682894 1.1426866 1.5960375 0.58400357
000020 2b 8b 17 3f 48 d4 fd 3e 3b 65 fa 3e 21 3e 5b 3f
       0.5919673 0.4957602 0.48905358 0.85641676
000030 89 1e 6f 3f 9d c1 2a 3f 28 27 dd 3e e8 ee 31 3f
       0.9340597 0.6670168 0.43193936 0.69505167

conv3.weight f4 [32, 16, 3, 3]
000000 9b 78 df 3c bb 65 56 3e 0f 41 a2 3d 66 68 55 bd
       0.027279189 0.20937245 0.07922565 -0.052101515
000010 35 27 ef 3c 8f 7b 00 3e 59 6a f0 bd 37 ab 21 bc
       0.0291935 0.12547134 -0.11739034 -0.009867481
000020 a8 df e2 bd 59 10 df bc 9d e0 aa bc 33 19 d2 3c
       -0.11077815 -0.027229475 -0.020859057 0.025646782
000030 9c 41 3f 3d d8 2f dd 3c 40 4b 47 3c aa 94 e8 3c
       0.04669343 0.027000353 0.012163937 0.028391201
000040 5c 72 a4 bd 1f a1 a2 3a f7 10 cc 3c 6c 4a ac bd
       -0.08029625 0.0012407637 0.024910433 -0.08412632
000050 54 a3 b2 bd c0 7d 8f 3d ea 6b e1 3d c7 34 11 3d
       -0.087225586 0.07006407 0.11006911 0.035450723
000060 44 3a 55 3e 8b a4 d5 3d f6 59 bc be fa df e9 3d
       0.20823008 0.10431775 -0.36787385 0.11419673
000070 6c 9e df 3c 54 1e 1b 3b cb 96 19 bd 26 bf c5 bd
       0.027297221 0.00236692 -0.037497323 -0.09655599
000080 2f a4 5a bd 55 a9 b3 3d d5 18 37 3d 97 ca c3 3d
       -0.053379234 0.08772532 0.044701416 0.09560125
000090 72 a7 99 bd e1 97 b3 3c c9 ed 1a 3e 0e 33 f3 bb
       -0.07502641 0.021923007 0.1512977 -0.0074218577
0000a0 9d 2a 0a 3d 25 f8 9b 3d c0 8c 64 be d1 4c bf 3d
       0.033732045 0.07615689 -0.22319317 0.093408234
0000b0 4d ce 3b bd 56 1a 42 bc 26 9f 19 3e 19 48 ab 3d
       -0.04585104 -0.011847099 0.15002117 0.08363361
0000c0 0f a1 fb 3c 10 ec 06 bd a1 cf c7 3d ea 81 18 3e
       0.030716447 -0.03293997 0.09756399 0.14893308
0000d0 83 83 69 38 18 58 07 be 44 5e 91 bd c8 cf bd bd
       5.567401e-05 -0.13217199 -0.07098058 -0.09268147
0000e0 81 3b 8c 3c 5b 8c b2 bd 6e be 48 3d ff 5c e2 bd
       0.017118217 -0.08718177 0.049009733 -0.11052894
0000f0 82 bb 4f 3d ac c2 b7 3d c2 19 3b 3d 38 37 59 3d
       0.05071593 0.089726776 0.04567886 0.053031176
000100 35 8c 5c 3d ba f4 29 be 66 66 1b bc 8b c2 ef bb
       0.05384465 -0.16597262 -0.009484863 -0.0073168925
000110 a7 a6 13 3d 8a 23 c7 3d 95 09 1d 3d 30 b7 da bd
       0.036047604 0.097235754 0.038339216 -0.106794715
000120 43 f8 98 3c 54 15 90 3e eb 60 f8 bd 93 71 0b 3e
       0.018673068 0.28141272 -0.12127861 0.13617544
000130 b1 0f a0 3d 77 3a 18 3e db 25 54 3d ed 7f 89 3d
       0.07815493 0.14866053 0.051793914 0.06713853
000140 8a b4 c3 3d 86 3a 8e 3e 93 9e 86 be 36 4c f4 3d
       0.095559195 0.27779025 -0.26292858 0.119285986
000150 44 7a d5 3d fe b6 bd 3d 11 ec f8 3d 8b d1 e6 3d
       0.10423711 0.092634186 0.12154401 0.11270436
000160 1e 75 32 bd 02 bb a6 3d 81 9c 22 3e 6d 94 fb 3d
       -0.043568723 0.08141138 0.15880014 0.12284169
000170 4c 99 84 3e af a5 96 3d 53 e5 1c be e8 73 2a bd
       0.25898206 0.073558204 -0.15321855 -0.041614443
000180 53 2b 86 3d 1d a7 b5 3d 50 f4 e6 bd 22 20 ca 3d
       0.06551232 0.08869765 -0.11277068 0.0986941
000190 12 8a 63 be 20 de 18 bd 4f 58 84 3d 81 7c 11 bd
       -0.22220638 -0.03732121 0.06462156 -0.035519127
0001a0 c5 8a fc bc 48 b5 f1 ba f2 88 12 3b af bf 81 3d
       -0.03082789 -0.0018440867 0.0022359458 0.06335389
0001b0 59 39 45 3e 4c 85 2b bd 2c 16 73 3b 48 46 5b bc
       0.19260158 -0.04187517 0.0037092073 -0.013383456
0001c0 c8 2d eb bd f6 a7 47 bd 09 15 e8 3d 96 8e 83 bd
       -0.114833415 -0.048744164 0.11332137 -0.064236805
0001d0 14 e2 eb bd eb 15 99 bd 05 49 13 be 4f db bd 3a
       -0.1151773 -0.07474884 -0.14383323 0.0014484915
0001e0 94 6e f9 3d 2e c6 2f bc 63 61 f5 3c 8a 5e a3 3d
       0.12179294 -0.010728402 0.029953664 0.07977016
0001f0 3e 0d 47 be 87 c2 ee bb 38 b2 81 be e1 14 32 bd
       -0.19438645 -0.007286373 -0.25331283 -0.043476943
000200 28 4e 1f bd 27 62 f6 bb 58 eb ad bd 89 2a 68 3d
       -0.038892895 -0.007519025 -0.08492154 0.05668119
000210 6f f4 39 be c9 72 7b 3e f5 b6 99 3e 3e 5c f4 3c
       -0.1815965 0.24555506 0.30022398 0.02982914
000220 c2 7c 84 3c c5 65 8e 3d 4b b9 c7 bd 57 a9 fb 3c
       0.01617277 0.06953005 -0.09752139 0.030720396
000230 c8 e2 5c 3e c5 1c 17 3e 4c aa b1 bd 3f bf b0 be
       0.21570885 0.14757068 -0.0867506 -0.3452091
000240 05 6b 5a bd f7 d1 47 bc 54 23 3c be b1 0b 1a bd
       -0.053324718 -0.012196056 -0.18372852 -0.037608806
000250 8f 5b 4f 3e 2b d9 46 bc 8d 6f c0 3c bb c9 32 3d
       0.2024977 -0.012136738 0.023490692 0.043649416
000260 fe b7 42 bd cb 1a f7 bb cd ac 1e 3e d4 a3 c2 bc
       -0.04753875 -0.007541036 0.15495606 -0.02375976
000270 a6 96 6e 3e 58 40 91 3d 5e fe 3f bc 81 b6 c1 bd
       0.23299655 0.07092351 -0.011718361 -0.09458638
000280 fb e6 fb bd 54 60 60 3e 07 19 28 3d ce 9f 8a 3e
       -0.122999154 0.21911746 0.041039493 0.27075046
000290 26 7e 40 3e 4a 50 47 bd b6 0c df bd c3 82 a1 3d
       0.18798122 -0.048660554 -0.10891096 0.07886269
0002a0 c6 64 2d 3e d2 49 0b 3e 34 74 9e 3d d9 2f 35 3d
       0.16932973 0.13602379 0.07737008 0.044235084
0002b0 2b 82 2e 3d b8 ea 1c 3e 1a 65 ef 3d 57 cc d9 3d
       0.042604607 0.15323913 0.116892055 0.10634678
0002c0 68 f3 95 3d 80 5e e7 3d 04 b9 01 3e 94 b8 77 bd
       0.07321817 0.11297321 0.12668234 -0.06047876
0002d0 17 51 36 be 11 fd d7 bd 53 ee 6d bd 76 5a a7 bd
       -0.17804371 -0.105463155 -0.05808861 -0.08171551
0002e0 9f 2d 43 be 32 a4 eb bd d9 86 db bd 70 90 9c 3d
       -0.19060372 -0.11505927 -0.107190795 0.07644737
0002f0 e8 fe d5 3c f1 46 29 bd b3 85 27 be c7 25 79 3d
       0.026122525 -0.04132742 -0.16359596 0.060827043
000300 c0 36 bd bd b3 bd 9a 3d 3e 1f 55 be 41 88 53 be
       -0.09238958 0.075557135 -0.20812699 -0.20657445
000310 c1 f1 14 3b e1 82 74 bc 4a fe 8b bc 42 3f f2 bd
       0.0022727104 -0.014923782 -0.017089028 -0.11828472
000320 0f c4 47 be 48 ea 5f 3d 51 bb 49 bd 93 ff 48 be
       -0.19508384 0.054666787 -0.049250904 -0.19628744
000330 df 69 31 3d 14 5b f1 bd 57 ee 27 3e fb bb c8 bc
       0.043313857 -0.1178495 0.16399513 -0.024503699
000340 b4 aa be be c6 12 5c 3e a8 35 6e be 32 64 3c 3d
       -0.3723961 0.21491536 -0.23262656 0.04599399
000350 f5 5c 08 bd ba 19 31 bd 20 3b 9b bd 1b 54 8b 3d
       -0.033291776 -0.043237425 -0.075796366 0.06803151
000360 99 12 83 bd eb 07 c2 bc 2b 58 63 3d a5 48 2d bd
       -0.064000316 -0.023685416 0.055504005 -0.042305607
000370 03 65 a4 bd 81 e3 60 bc 2e 09 dd bd 02 f4 a7 bc
       -0.08027079 -0.013726116 -0.107927665 -0.020502094
000380 09 7b 89 be 7e bc 00 be 01 11 2b bc 4d 73 3d be
       -0.2685168 -0.12571904 -0.010441066 -0.18501015
000390 d3 48 1d 3e 71 4a 89 bd 2c 3d a2 3e 28 52 60 3c
       0.15359811 -0.06703652 0.31687295 0.013691463
0003a0 e1 f8 c6 bd 37 82 07 be 34 a2 29 be 14 9f 30 3d
       -0.09715439 -0.13233267 -0.16565782 0.04312046
0003b0 de 9b 0f be 0f fe 34 3c e6 33 05 be 4f 9e ca bd
       -0.14024302 0.0110469 -0.13008079 -0.09893476
0003c0 9c d6 67 bd 64 d1 1e 3d ff 5e a1 bc bc 7e e6 3d
       -0.05660115 0.03877391 -0.019698618 0.112546414
0003d0 02 b7 90 be bd af 87 bd 4a ad 65 bc 6f 41 10 3e
       -0.28264624 -0.06625316 -0.014018366 0.14087461
0003e0 83 c1 d1 3d 35 ea 46 3d 78 17 66 3d 84 03 0e bd
       0.102419876 0.0485632 0.056174725 -0.03467132
0003f0 4b 41 a2 bd 6d ca da 3c 0d 49 ed bc e6 07 6f bc
       -0.0792261 0.026707852 -0.028965497 -0.0145892855

conv3.bias f4 [32]
000000 31 f8 97 3c 8d b4 be 3c 27 cf 05 bd b6 45 a9 3c
       0.018550964 0.023279453 -0.03266826 0.020663124
000010 46 72 29 bd f2 fe 0b bd f1 08 1e 3d 6a 77 7d 3c
       -0.041368745 -0.03417868 0.038582746 0.015470365
000020 d6 0a b8 bc c1 17 83 3c 71 60 1a 3b d9 cc d2 3c
       -0.022466104 0.016002538 0.0023556019 0.025732445
000030 43 4d 85 3c dc c0 ef bc aa b3 0f 3d 7c d0 d0 ba
       0.016272193 -0.029266767 0.03508345 -0.0015931274
000040 74 87 bd 3c 4c 49 6b 3c 0e ec 8d bc 03 49 24 3c
       0.023135878 0.014360737 -0.017324474 0.010027173
000050 2d fb 96 3a fa e5 a0 3c 5b af a0 bc ee d7 1b 3c
       0.0011518948 0.019640911 -0.019614866 0.009511931
000060 45 6a 98 3c 89 03 a5 bc 4a 21 58 bc 5b dd 27 bc
       0.01860536 -0.020143287 -0.0131915305 -0.010245646
000070 f0 20 f9 3b 22 33 86 bc 10 0f 56 bb ce c1 8a 3a
       0.0076028034 -0.016381804 -0.0032662787 0.0010586323

bn3.weight f4 [32]
000000 94 53 80 3f 34 08 80 3f b2 d4 86 3f 94 e1 80 3f
       1.0025506 1.0002503 1.053366 1.0068841
000010 a8 a8 80 3f 18 64 7b 3f 74 7a 80 3f 9f 0c 7e 3f
       1.005147 0.98199606 1.003737 0.9923801
000020 5c f4 79 3f bd f0 76 3f 38 32 81 3f 65 e1 75 3f
       0.9763849 0.9646109 1.009345 0.9604705
000030 78 04 7b 3f eb 92 80 3f bd e0 7b 3f b6 b5 81 3f
       0.98053694 1.0044836 0.983898 1.0133579
000040 c9 da 85 3f 9d ad 80 3f 12 17 80 3f e0 b7 7a 3f
       1.0457393 1.0052983 1.000704 0.9793682
000050 6c 5a 79 3f 00 e4 79 3f 6a 7c 7b 3f 17 b5 83 3f
       0.974036 0.97613525 0.98236716 1.0289639
000060 59 8b 7d 3f 81 a5 81 3f a8 8f 80 3f ae 32 81 3f
       0.9904075 1.0128633 1.004384 1.0093591
000070 38 16 75 3f f7 b2 76 3f 74 7b 82 3f 22 f2 7b 3f
       0.9573703 0.9636683 1.0193925 0.9841634

bn3.bias f4 [32]
000000 2a c6 8e bc 6e ae 13 3c 3a 52 17 bc 64 2f 48 bc
       -0.017428476 0.009013755 -0.009235913 -0.01221833
000010 2f 4f cd 3b 91 72 a7 bc a7 5c 35 3b a2 6c 07 3d
       0.006265543 -0.020440372 0.0027673633 0.033062585
000020 c9 93 3e bb f1 7a c4 bc e1 c4 26 bc d0 c9 4c b9
       -0.0029079786 -0.023984404 -0.0101787755 -0.00019530137
000030 e7 94 6b 3c 9e 72 17 bc bf 35 3a 3c f9 26 22 bc
       0.014378763 -0.009243635 0.011365353 -0.009896987
000040 27 04 72 3c 7b 34 1d bd f0 bc 95 3c ae 4f 36 3c
       0.014771498 -0.038380127 0.018278569 0.011127396
000050 ab ee 95 3b 28 ab 3e 3c 6d c8 10 3a ad 46 6b 3c
       0.0045755706 0.0116374865 0.000552303 0.014360112
000060 5f ff 97 bc 6c e7 91 bb db 27 4a bc 31 3b 4d bd
       -0.018554388 -0.0044526365 -0.012338604 -0.050105277
000070 45 b9 53 3c a1 c4 70 3b 77 ff 68 bc 39 d1 f4 3b
       0.01292259 0.0036738294 -0.014221064 0.0074712303

bn3.running_mean f4 [32]
000000 a6 59 f2 3e df 6d c9 3e 78 7c 39 3f e3 23 27 3f
       0.4733402 0.39341637 0.7245555 0.65289134
000010 31 7c be 3e 41 8c 10 3f b0 f1 d4 3e e4 87 27 3f
       0.37204126 0.5646401 0.41590643 0.6544173
000020 38 d7 24 3f 77 34 0a 3f b8 72 20 3f cb 0f 71 3f
       0.643909 0.53986305 0.62675047 0.94164723
000030 99 00 d4 3e 42 7b 1e 3f 06 d4 3e 3f ec 14 04 3f
       0.41406706 0.61906826 0.7454227 0.51594424
000040 50 1d fb 3e 75 53 09 3f 67 f7 07 3f 4d 4d 2d 3f
       0.490458 0.5364297 0.5311188 0.67696077
000050 ce 44 2d 3f 71 96 6d 3f 2a d5 c4 3e 76 f4 cc 3e
       0.6768311 0.9280768 0.3844388 0.4003026
000060 6a f3 dd 3e 81 c1 1f 3f 72 e8 0a 3f 2e 27 54 3f
       0.43349773 0.6240464 0.54260933 0.82872283
000070 0c 5b 0f 3f e4 2f 29 3f 2e 74 bc 3e 2e a7 00 3f
       0.559983 0.660887 0.36807388 0.50255096

bn3.running_var f4 [32]
000000 66 05 1b 3f 02 42 cf 3e c6 76 7e 3f 12 70 2c 3f
       0.6055511 0.40480047 0.99399984 0.67358506
000010 34 f5 c4 3e 39 04 41 3f 00 91 08 3f 87 ef 82 3f
       0.38468325 0.7539707 0.5334625 1.0229348
000020 b6 02 b5 3f 0c 30 24 3f f9 e7 34 3f 90 cb aa 3f
       1.4141452 0.64135814 0.7066646 1.3343372
000030 bc b2 b1 3e 60 da 9a 3f 56 a2 86 3f ce 8c 61 3f
       0.34706676 1.2097893 1.0518291 0.88105476
000040 f7 73 ce 3e 7b 80 12 3f 8e 8e 2c 3f c8 7b 91 3f
       0.4032285 0.57227296 0.6740502 1.13659
000050 74 bc 25 3f c8 a1 da 3f dd 76 d0 3e b5 99 df 3e
       0.6474068 1.7080622 0.40715685 0.43671957
000060 52 1e 05 3f 9b 06 76 3f 7b 7b 8f 3f 2a 79 95 3f
       0.5199939 0.9610383 1.1209558 1.1677601
000070 f6 ac 51 3f da 85 80 3f 17 d9 de 3e a1 7f 3d 3f
       0.8190454 1.0040848 0.43525 0.7402287

conv4.weight f4 [64, 32, 3, 3]
000000 5f dc ee 3c 3d 0d f4 3c 73 4a bc 3d 93 4f 74 3d
       0.029157816 0.029791469 0.091938876 0.0596462
000010 29 3f e2 bc 34 20 80 3c 23 aa 21 3d b5 0c 31 bd
       -0.027618008 0.015640356 0.039468896 -0.04322501
000020 8e 84 26 bd c2 e3 3f bd d1 a7 41 3d 4e 7d 87 bd
       -0.040653758 -0.046848066 0.047279183 -0.06615697
000030 cd ba 1c be ba f7 a7 3d 33 c8 57 bd 6b 68 35 3d
       -0.15305634 0.08201547 -0.05268116 0.044289034
000040 76 ef 47 bd c0 d5 04 bd 47 5e e1 3d 43 76 20 3d
       -0.048812352 -0.03243041 0.1100431 0.039175283
000050 77 87 1c 3e b4 03 44 be fe 4c 43 bd e2 44 3a be
       0.1528605 -0.19142038 -0.047680847 -0.18190339
000060 4f 6f 9f bc 80 7c 89 3c 78 5b 93 3b a0 fe ad bc
       -0.019462256 0.016782999 0.004496988 -0.021239579
000070 fe 7b 8a bd 75 04 8b 3d f0 99 92 3c f1 3c 6c bd
       -0.06761931 0.067879595 0.017895669 -0.057675306
000080 d2 9b 23 3e 91 61 4f be 84 8f dc 3c 7e ba ad bd
       0.1597741 -0.20252062 0.026923902 -0.08482836
000090 5c da 9e bd e1 22 c9 3d 5c cf e6 bb 79 a4 95 3d
       -0.077564925 0.09821106 -0.007043762 0.07306761
0000a0 62 c6 32 3d 48 64 28 3e 87 61 59 3d 0f f5 20 bd
       0.043646224 0.16444504 0.053071525 -0.039296206
0000b0 4d a4 61 3d 38 de 57 bd 46 f3 c7 3d aa 88 ee 3d
       0.05508833 -0.05270216 0.097631976 0.1164716
0000c0 7b fa 2c 3c 26 6b 2c bd c0 9e 3f 3e e7 d4 36 bd
       0.010557766 -0.042094372 0.18712902 -0.044636633
0000d0 08 99 59 3d 50 98 1a 3d 6b 38 2e bd 4a f0 8d bd
       0.053124458 0.037742913 -0.042534273 -0.06930597
0000e0 a4 3f 28 bd a7 3c 4f 3c 49 8c 30 3e 56 2b 96 3d
       -0.041076317 0.012648738 0.17241015 0.073324844
0000f0 63 ae 5d bc a8 05 95 3d 8f 71 5b 3a ae 31 54 be
       -0.013530347 0.072764695 0.00083711086 -0.20722076
000100 80 f6 a6 bd 59 b9 91 bd 09 2b 7e bd f7 61 a1 3c
       -0.08152485 -0.071154304 -0.06205276 0.019700034
000110 65 d4 9b bd af bb dd bd a4 88 68 bd 83 11 49 bd
       -0.076088704 -0.108268134 -0.056770936 -0.049088966
000120 66 b1 93 3d 8c e1 ef 3d 8b aa de 3c 6e 39 f3 3c
       0.072115704 0.117129415 0.02718093 0.02969047
000130 23 5f 10 bd 2e 5d 2b bd 17 93 e6 3d cc 55 92 3d
       -0.03524698 -0.04183691 0.11258524 0.07145271
000140 47 89 7e 3c e1 9f b7 3c 89 05 38 be f9 9f c6 bd
       0.015535659 0.022415103 -0.17970861 -0.09698481
000150 fb 75 b9 ba 41 45 5e 3c 59 69 f3 bc 07 fd c0 3d
       -0.0014149541 0.013566316 -0.02971332 0.09423261
000160 62 16 5d bd 5c c6 16 3d 59 2f fa 3d 28 fa f6 bd
       -0.053976424 0.036810264 0.12216062 -0.12059432
000170 f0 b1 15 3d 1d 29 cb 3b d4 64 c4 bc a3 07 e4 3d
       0.036546648 0.0061999694 -0.02397386 0.11134269
000180 14 c4 1a 3c f2 5d b1 bc ea 68 3c bc 9b 51 a2 3d
       0.009446163 -0.021651242 -0.011499623 0.07925721
000190 78 06 28 3e a9 1f 8e 3d 59 f6 e3 3d 03 1b 2b bd
       0.16408718 0.069396324 0.111309715 -0.041773807
0001a0 aa 55 9d bc fe f6 aa bd 9c aa 86 3d cf a9 89 3d
       -0.019205887 -0.08347891 0.0657551 0.067218415
0001b0 5f bf e9 bc 14 76 10 be 8f 19 08 be 6f 32 72 3d
       -0.028533636 -0.14107543 -0.13291 0.05913013
0001c0 d1 ec 23 3e bc bf 3b bd 66 9b 0d be 86 c8 8d bd
       0.16008307 -0.04583715 -0.13828811 -0.069230124
0001d0 15 8c d1 bc 07 53 d9 3d 94 39 d0 bb c3 15 aa 3d
       -0.025579492 0.10611539 -0.00635452 0.08304932
0001e0 bb 32 52 3d 94 27 b0 bc 3d f1 2b 3c d9 5f a4 3d
       0.05131791 -0.021503247 0.010494527 0.08026094
0001f0 b3 71 79 3d 9b ba d6 3c b2 8d 02 3e 56 c8 14 3c
       0.060899448 0.026212027 0.12749365 0.009080967
000200 9e 43 50 3e 98 cd cc bc 56 9f ed bc cc 4c 4c bd
       0.20338294 -0.025000378 -0.029006641 -0.049877927
000210 f1 8e 55 3c 94 1c 04 3e cc 92 50 bd 55 67 f0 3d
       0.013034568 0.12901527 -0.050921246 0.11738459
000220 76 4b 83 bd 5a b4 2c bd 41 2e 11 3d 0d 6f e1 bc
       -0.064108774 -0.042164184 0.0354445 -0.027518773
000230 2c b4 d4 bd a6 68 17 3d 56 e6 9d bd 21 14 1c 3c
       -0.103859276 0.036965035 -0.07709949 0.0095262835
000240 4c 86 35 bd 96 04 05 be f7 1c eb 3c b3 a8 56 3d
       -0.04431753 -0.1299003 0.028700335 0.052406978
000250 1a 4b 40 be 31 97 e1 3d 50 64 82 bd ce e8 2e 3c
       -0.18778649 0.110151656 -0.06366789 0.010675622
000260 78 fc ae 3b 3d 6b 32 bc b2 ff d1 bc cd 06 94 3d
       0.005340155 -0.010889825 -0.02563462 0.0722786
000270 f1 b3 92 3d 73 46 e5 3d bc d9 b3 3c 5b e4 15 3d
       0.07163227 0.11195078 0.02195441 0.03659473
000280 e2 c5 84 bd 12 8e fb 3d 0d 1e 91 3d c2 1f b2 3d
       -0.06483056 0.12282957 0.0708581 0.086974636
000290 a9 5a 12 3d e6 13 06 3e f4 a2 ad 3c 3b 67 31 be
       0.03573099 0.13093528 0.021195866 -0.17324536
0002a0 1e bf 84 bd 15 c6 82 bd 60 ef 04 bd be ea dc bd
       -0.06481765 -0.063854374 -0.03245485 -0.10786961
0002b0 09 70 29 be 59 92 35 bd ca 88 e3 3d 73 3a 8d 3d
       -0.16546644 -0.04432902 0.11110075 0.06895914
0002c0 7c ef e7 bd 63 d7 d7 bd d2 09 4e bd 3c c9 d2 bd
       -0.11324975 -0.10539129 -0.050302334 -0.10292289
0002d0 f3 6c d7 3c 39 d4 17 be aa 92 41 be 08 15 0f 3d
       0.026297068 -0.1482705 -0.18903604 0.034932166
0002e0 0f d4 13 bd cb 6b 5f bd 63 0f 92 3d 81 35 86 bd
       -0.036090907 -0.05454616 0.07131841 -0.06553174
0002f0 0f 95 11 be 2b 8e 4b 3c c7 3e 88 3d ca b5 e9 3d
       -0.14217018 0.012424032 0.06652599 0.11411627
000300 b5 c6 1b bd 2b 43 7e 3c 87 71 72 bd 25 9f ae 3d
       -0.0380313 0.015518944 -0.0591903 0.08526448
000310 94 49 5b bd 8f 4d 73 3d d0 49 06 be 3c a6 ba 3d
       -0.053536966 0.059400138 -0.13114095 0.09113738
000320 50 d4 8f 3c 0d 0e cd 3d e9 a9 f2 bd 27 6b 0a 3e
       0.017557293 0.100124456 -0.11848814 0.13517438
000330 ae 90 ef bd 4f fa d9 bb b8 e7 f6 bd 57 b2 5f 3d
       -0.11697517 -0.0066521536 -0.120559156 0.054613438
000340 32 34 98 3c a5 2b 2c bd 7c 1b e7 bd 8b 45 59 3e
       0.018579576 -0.04203381 -0.11284539 0.21217935
000350 98 8f 88 3e 48 3b 64 3d 58 4f 8a bb 36 c8 5b bd
       0.26672053 0.055720598 -0.0042208843 -0.053657733
000360 2c e4 04 3d a1 27 d8 3d 66 56 49 3e 5e 4d 47 3e
       0.032444164 0.105544336 0.19661865 0.19463107
000370 10 f0 ec 3d 95 77 b2 3c d5 a3 cb 3d 57 b0 eb 3c
       0.11569226 0.021785537 0.09943358 0.028770609
000380 ab 6a 19 3e 59 1c eb 3d ef 90 db bb b6 2b cb 3c
       0.14982097 0.11480016 -0.006700627 0.024801116
000390 c2 9a f6 3c 69 56 ce 3d 58 51 aa 3c ec b4 36 bd
       0.030103091 0.10075075 0.02079074 -0.044606134
0003a0 2f 7b 8e 3c 9e 87 50 3d 08 ca 24 bd 8c 8c 4c 3c
       0.017392723 0.050910585 -0.040231735 0.012484681
0003b0 ad ce 16 3d 52 f8 f1 3c 63 c9 11 3e 45 ad 84 3c
       0.036818195 0.029537354 0.14236979 0.016195903
0003c0 fc 98 a8 3d a0 ef a1 bd b9 89 93 3d 1e 2f 15 bd
       0.082323045 -0.07907033 0.07204003 -0.036421888
0003d0 54 6b 34 bd 60 ee 04 bd f2 62 32 bd ed 76 be 3d
       -0.04404767 -0.032453895 -0.043551393 0.09300027
0003e0 7a cf 39 3e 36 26 f8 bb 24 e6 81 3d 1e da 60 be
       0.18145552 -0.0075729145 0.06342724 -0.21958205
0003f0 22 b3 6f bd 08 ec af bd 84 e9 2e 3d 6f fe c6 bd
       -0.058520444 -0.08589941 0.042703167 -0.09716498

conv4.bias f4 [64]
000000 9a b2 04 bd e3 23 ed 3a db 3e e9 3c 8d e3 21 3b
       -0.03239689 0.001809236 0.028472355 0.0024702281
000010 28 51 b2 3c 0d 5b 0e 3d b5 93 66 3c f3 c4 3c bb
       0.021767214 0.0347548 0.014073302 -0.0028803914
000020 d4 e0 b0 bb 1e d9 08 3c 42 1c 17 3c 57 51 a4 3c
       -0.0053978954 0.008352546 0.009223046 0.020058317
000030 22 81 1c 3d cc 4e fd bc 0e dc de bc 46 02 b6 3b
       0.03820909 -0.030921362 -0.02720454 0.0055544702
000040 2b 21 09 3c 9a 12 bd 3c 1f c5 80 bb 0b ac 4f bc
       0.008369724 0.023080159 -0.0039297487 -0.012675296
000050 03 89 ca ba 05 c3 34 3c 18 a5 2d bc e6 f8 7f bc
       -0.001545221 0.011032824 -0.010598443 -0.015623307
000060 9d 84 d1 3b 8c 96 de bc 04 40 71 bc ef 17 20 3d
       0.0063939826 -0.027171396 -0.014724735 0.039085325
000070 d9 2d fd 3c 6a 8b 6c 3c ee 90 cc 3b 78 dd 2b 39
       0.03090565 0.014437536 0.006242863 0.00016390334
000080 ca a0 53 bb 4b fe 7d 3c 15 a0 5d 3c 21 75 c7 bc
       -0.0032291883 0.015502523 0.013526936 -0.024347844
000090 37 72 8e 3c 81 b3 2d 3c 93 6f bc 3b 29 e2 48 bc
       0.017388446 0.010601879 0.0057506054 -0.012260952
0000a0 d3 46 48 bc 3b a4 84 3c 31 b9 ca b9 2f 93 bc 3b
       -0.012223917 0.016191592 -0.0003866642 0.0057548503
0000b0 ba ce 90 bc ca af f7 3c 6d 3b b3 3a 16 28 d3 bc
       -0.0176767 0.03023519 0.0013674326 -0.02577595
0000c0 41 a3 59 3c 76 71 39 bc 96 29 89 3c 63 63 c5 3b
       0.013283552 -0.011318555 0.016743463 0.0060238107
0000d0 af 08 b5 3b 56 f3 10 bc 50 45 44 bd 16 5c 38 bc
       0.005524717 -0.008847078 -0.047917664 -0.011252424
0000e0 00 b1 51 3c 06 64 9a 3c 2c 6e 9f bc 2a f9 1b 3d
       0.012798548 0.018846523 -0.019461714 0.03807942
0000f0 16 92 1e bb 15 e6 58 3c 06 ca 45 3d 0c 3c 19 bc
       -0.002419596 0.01323845 0.048288368 -0.009352695

bn4.weight f4 [64]
000000 81 ea 82 3f e1 e2 87 3f 15 b5 81 3f 97 47 84 3f
       1.0227815 1.0616113 1.0133387 1.0334347
000010 9d bc 88 3f 0c 2e 82 3f 7c a4 81 3f f7 dc 87 3f
       1.068256 1.0170302 1.0128322 1.0614308
000020 cb a8 89 3f 71 16 84 3f f1 43 86 3f 57 88 85 3f
       1.0754637 1.0319349 1.0489484 1.0432233
000030 29 2d 85 3f bd 25 85 3f 7c e4 89 3f 6e e7 87 3f
       1.0404407 1.0402142 1.0772853 1.0617502
000040 ed 74 88 3f ba 62 87 3f d8 4d 85 3f b4 11 89 3f
       1.0660683 1.0577004 1.0414381 1.0708528
000050 d8 4c 8a 3f ae 84 83 3f 82 bc 84 3f 8c eb 84 3f
       1.0804701 1.0274866 1.0370028 1.0384383
000060 ff 4e 80 3f 6f 57 80 3f 43 cc 83 3f 94 06 82 3f
       1.0024108 1.0026683 1.0296711 1.0158257
000070 8d 1c 80 3f 63 8f 89 3f ff 37 86 3f a6 44 86 3f
       1.0008713 1.0746883 1.0485839 1.04897
000080 b2 04 88 3f ff be 7e 3f 61 2d 83 3f 22 42 88 3f
       1.0626433 0.99510187 1.0248224 1.0645182
000090 71 6d 84 3f ac 23 88 3f bd db 86 3f 13 b8 88 3f
       1.0345899 1.0635886 1.0535809 1.0681175
0000a0 5b a6 89 3f 37 66 87 3f aa 34 89 3f 09 f2 85 3f
       1.0753893 1.0578068 1.0719197 1.0464488
0000b0 dc 25 81 3f 5f 40 82 3f c6 7e 84 3f de a8 83 3f
       1.0089679 1.0175894 1.0351188 1.0285909
0000c0 79 ed 85 3f a0 a5 86 3f 1d 79 82 3f 28 b9 86 3f
       1.0463096 1.0519295 1.0193211 1.0525255
0000d0 6f 0a 88 3f 56 7c 82 3f e2 11 87 3f 3e 23 88 3f
       1.0628184 1.0194194 1.0552332 1.0635755
0000e0 c8 52 84 3f 96 0a 8b 3f 67 8a 83 3f eb 3d 84 3f
       1.0337763 1.0862606 1.0276612 1.0331396
0000f0 96 14 8b 3f 07 53 87 3f c5 1f 88 3f 75 8d 84 3f
       1.0865657 1.0572213 1.0634695 1.0355669

bn4.bias f4 [64]
000000 90 6b f8 3d 96 a7 df 3d 91 63 fa bd 55 20 e1 3d
       0.12129891 0.10920636 -0.12226022 0.10992495
000010 c8 25 a4 3d f1 3b ef 3d d0 59 f5 3d 83 9f f2 3d
       0.08015019 0.11681355 0.11980021 0.11846831
000020 8d 02 5d bd 0e 93 d2 3d e1 f7 f0 3d 17 32 e6 3d
       -0.05395751 0.10281955 0.11766029 0.11240023
000030 ea 3c c6 3d b7 12 f0 bd f2 66 dd 3d cd 1c fd 3d
       0.09679587 -0.117223196 0.10810651 0.12359009
000040 6a 03 e5 bd 0d ce f1 3d 67 6c f3 bd 5d a4 c6 bd
       -0.11182292 0.11806879 -0.118859105 -0.096993186
000050 5f 1e bf 3d f0 ad ed bd 17 f9 c8 3d fb 80 f2 3d
       0.09331965 -0.116054416 0.09813135 0.11841007
000060 8d b8 f5 3d 94 0f e1 bd cd e5 f1 bd 5a fe fd bd
       0.11998091 -0.109892994 -0.11811409 -0.12402029
000070 e7 a7 e1 3d cc 6d e0 3d 07 ba df bd df 30 dc bd
       0.11018353 0.10958442 -0.10924154 -0.10751509
000080 13 e2 dc bd 5f 73 f2 bd 0f df f0 bd 5a eb e4 bd
       -0.10785308 -0.118384115 -0.11761295 -0.11177702
000090 07 23 e3 bd 70 9b e0 3d 7d ae eb 3d 1c e3 f1 bd
       -0.11090665 0.10967147 0.115078904 -0.11810896
0000a0 7a 2d ea 3d 44 ac e5 3d f8 9c b4 bd b8 bc f2 bd
       0.11434455 0.11214498 -0.08819002 -0.118524015
0000b0 57 05 ce bd f9 50 fb 3d fc 21 e8 bd d0 0d ea bd
       -0.10059612 0.12271304 -0.11334607 -0.11428416
0000c0 ab ba ef bd 66 d5 99 bd 39 26 f5 bd 61 49 e0 bd
       -0.11705526 -0.07511406 -0.11970181 -0.10951496
0000d0 3e 38 c0 3d ca fb e5 3d 93 ed b7 bd a1 ec e7 bd
       0.09385727 0.112296656 -0.089808606 -0.1132443
0000e0 e2 f1 ea 3d fa 41 f0 3d e3 67 f2 3d 13 2b f1 bd
       0.11471917 0.11731334 0.11836221 -0.11775794
0000f0 e5 ba c9 bd 2b 5b f3 3d e2 1e f5 bd 4f 95 d8 3d
       -0.098501004 0.11882623 -0.11968781 0.10575353

bn4.running_mean f4 [64]
000000 1a d0 fb 3e c3 16 30 3f 36 f8 31 3f f6 8b d5 3e
       0.49182206 0.6878473 0.69519365 0.41708344
000010 0a 8b 3a 3f b4 49 70 3f 9c 8c 5f 3f 9a ee 4f 3f
       0.72868407 0.9386246 0.8732393 0.8122345
000020 b6 ad 25 3f ee 2e 2d 3f 2e 0a f0 3e da e0 35 3f
       0.64718187 0.67649734 0.46882766 0.7104622
000030 ef 00 54 3f d3 9b 35 3f d8 84 21 3f d6 4f 13 3f
       0.82813925 0.70940894 0.6309333 0.57543695
000040 d9 cb 68 3f 57 ca 1a 3f 5b 12 57 3f b8 97 d4 3e
       0.90936047 0.60464996 0.84012383 0.41522002
000050 4d 46 1a 3f 0b b2 0a 3f cc 1f 38 3f 9a 0e d8 3e
       0.6026352 0.5417792 0.7192352 0.4219864
000060 91 cb ed 3e a5 d6 fa 3e 21 1a 0e 3f a7 95 0c 3f
       0.4644437 0.48991886 0.5550862 0.5491585
000070 27 ba 2d 3f a5 c3 16 3f cd c5 1c 3f f6 ec d4 3e
       0.6786217 0.5889228 0.6123932 0.41587037
000080 68 0a 28 3f b3 83 2d 3f fb 55 05 3f 9c f8 24 3f
       0.6564088 0.6777908 0.5208432 0.6444185
000090 74 b0 0e 3f c0 bf 15 3f 40 68 43 3f d2 ef 1c 3f
       0.55737996 0.5849571 0.7633095 0.61303437
0000a0 7e f2 2b 3f da 0f 2b 3f 98 ad 0c 3f fd 5f 1d 3f
       0.6716689 0.6682106 0.54952383 0.6147459
0000b0 1e 94 be 3e 7a b6 1c 3f 14 84 26 3f 32 d9 25 3f
       0.3722238 0.6121594 0.65045285 0.6478454
0000c0 99 36 3c 3f e0 66 de 3e 2d 6f 4e 3f 82 b5 f8 3e
       0.7352081 0.43437862 0.8063839 0.4857598
0000d0 39 de 32 3f 91 3a 9f 3f af ce 06 3f b4 0d 32 3f
       0.69870335 1.2439748 0.52659124 0.6955216
0000e0 51 52 26 3f b5 a8 0f 3f 2d 59 ef 3e 61 05 47 3f
       0.64969355 0.561168 0.46747723 0.7774258
0000f0 50 10 0e 3f 55 04 26 3f ac d8 3c 3f 74 5b f6 3e
       0.5549364 0.6485036 0.73768115 0.48116648

bn4.running_var f4 [64]
000000 37 a1 42 3f 3b e9 60 3f 4e 3d 57 3f f1 99 01 3f
       0.76027244 0.8785588 0.8407792 0.5062552
000010 ee f8 9a 3f 29 4c 9f 3f 42 c7 95 3f 3e ec b2 3f
       1.2107217 1.2445117 1.1701434 1.3978345
000020 12 b3 6a 3f d9 08 45 3f 42 fd 33 3f 88 96 73 3f
       0.9167949 0.76966625 0.70308316 0.9515157
000030 2d 15 36 3f 04 a9 8d 3f 0a f6 48 3f 24 6a 28 3f
       0.7112606 1.1067204 0.78500426 0.6578696
000040 48 5c b6 3f 8c 6e 4d 3f 94 3e af 3f 86 56 00 3f
       1.4246912 0.80246806 1.3690972 0.50132024
000050 2b 9d 6a 3f 6b ec 32 3f 8e 41 93 3f 30 e3 28 3f
       0.9164607 0.69891995 1.1504381 0.6597166
000060 c1 f2 1d 3f 17 7a 14 3f 2c 3f 29 3f 41 0c 09 3f
       0.6169854 0.57998794 0.6611202 0.5353432
000070 b7 69 5f 3f 42 b8 37 3f be 9f 46 3f 47 a4 1f 3f
       0.87270683 0.7176553 0.775875 0.6236004
000080 0e 93 3c 3f 6e a0 6a 3f a0 71 1c 3f d6 8b 67 3f
       0.7366189 0.91651046 0.6111088 0.9044775
000090 04 10 35 3f 12 f6 6a 3f 5a 45 94 3f d4 a2 59 3f
       0.7072756 0.91781723 1.1583664 0.8501408
0000a0 63 b7 7b 3f 96 56 56 3f e9 98 48 3f d6 4e 54 3f
       0.983267 0.8372587 0.7835832 0.82932794
0000b0 dd fc 10 3f 74 6a 37 3f a5 83 72 3f af 99 49 3f
       0.5663584 0.7164681 0.94732124 0.7875013
0000c0 4c ce 4a 3f 26 98 0e 3f 36 8d 82 3f bc 5b 35 3f
       0.79221034 0.5570091 1.0199344 0.708431
0000d0 5b 65 7e 3f 47 d6 3a 40 1b 69 6b 3f 95 13 7d 3f
       0.99373406 2.9193285 0.91957253 0.98858005
0000e0 0a 72 5e 3f 35 69 4a 3f 6a 6f 16 3f d2 9b 77 3f
       0.8689276 0.79066783 0.58763754 0.9672214
0000f0 82 d8 3e 3f c9 17 78 3f 0b bc 42 3f 01 46 07 3f
       0.74549115 0.96911293 0.7606818 0.5284119
