NCC_Code/2022-07-08_13-53-17_model.pt (torch, 114443 bytes, 50 tensors)

conv1.weight f4 [8, 2, 5, 5]
0.17600416 -0.037182428 0.059985835 0.4780397 0.26840982 -0.1928717 -0.0717474 -0.38940504
0.12180087 0.07484778 0.3343742 -0.497837 -0.028073788 -0.0876047 -0.101758964 -0.3411504
-0.00059241283 -0.04282891 0.048089158 0.29445603 0.10020657 0.016643768 -0.15566634 -0.055757593
0.11250343 0.087449186 -0.21738395 0.20046201 0.051602114 0.19488898 -0.15694298 0.065053776
-0.13455103 0.020363303 0.21429951 0.20877908 -0.00034148654 -0.15305954 0.14116977 -0.15307516
-0.28188816 -0.26086742 -0.014048884 -0.3250639 0.023028087 0.047685843 0.35472676 0.04557278
0.008619151 -0.20689373 -0.21975163 0.076460734 0.16464901 0.25481388 -0.43290132 -0.17338262
-0.40467864 0.24033456 -0.2434421 -0.24624704 -0.081614636 -0.24996705 -0.27317065 -0.18862411
-0.1417364 0.1727349 -0.061402634 0.18882316 0.15620923 -0.27885342 -0.39524728 0.06982845
-0.11534125 0.21009563 -0.23862743 0.12186665 -0.051668797 -0.38866863 -0.09979798 0.1109108
-0.28879994 0.123986654 -0.1462552 -0.57882565 -0.20044938 0.13243468 0.13464387 -0.24909452
0.37177572 -0.17501907 -0.19870952 -0.1922078 -0.44982386 0.2523193 -0.21734437 0.09692237
0.11869406 -0.108133234 0.1083362 0.23574623 0.25124398 -0.36096758 -0.47551054 0.06434065
-0.16851103 -0.11050501 -0.07336325 0.17350037 -0.2106923 -0.152133 0.121928245 -0.04222236
0.14028388 -0.12013697 -0.1464264 -0.18888992 -0.04931204 -0.017088734 -0.09450275 -0.170415
-0.17595574 0.46921855 0.2465693 0.09366482 0.16401768 -0.050407697 -0.13461167 -0.3766259
0.05269465 0.096943825 -0.08801565 -0.07727196 -0.07859862 -0.088076435 0.1345432 -0.08062748
0.17870176 0.016167438 0.14305484 -0.1110383 0.1496037 0.087603256 0.19963862 -0.014494952
0.50306195 -0.30967438 -0.11573726 0.44237465 0.5916002 0.04392433 0.1523567 -0.24958768
0.07423324 -0.21277268 0.30516258 -0.011635532 -0.08034428 0.031495497 0.020867068 -0.24619426
-0.14230174 -0.2177556 0.25920773 -0.037002377 -0.36587217 -0.015959699 0.14718889 0.015754847
-0.10137638 -0.0477906 -0.22617956 -0.02342279 0.032213952 0.15530819 -0.19424295 0.26762265
-0.07389273 0.023689928 -0.09028679 -0.3394187 -0.047746647 -0.21167944 0.3440366 -0.12511073
-0.07044849 0.15324032 0.35349053 -0.3172521 0.19512068 -0.0859466 0.07510444 0.28958952
0.18068063 -0.19403104 -0.055235177 -0.26497185 -0.036376193 -0.082682565 -0.20659098 -0.012094726
-0.18610655 -0.17490022 -0.41326687 -0.19614865 0.18461923 0.045349382 0.13903517 0.57177293
0.053231314 0.1276317 -0.20305483 -0.06473541 0.15860738 -0.10438184 0.21585284 0.11106591
-0.0989073 -0.37084702 0.07065893 -0.15832025 -0.10655771 0.3623921 -0.057100542 0.27269378
-0.050177604 0.34827873 0.18592824 0.65684116 0.30828196 -0.015301371 -0.020323096 0.15177742
-0.17306767 0.14337392 -0.04312743 0.12367665 0.046310667 0.102522306 -0.17578577 0.44605866
0.15926418 0.1755718 0.033430967 0.15037978 0.13891006 0.13015807 -0.3668868 0.056702387
-0.2140134 0.43493715 0.26837322 0.054156605 -0.057947244 -0.062580876 0.02325169 0.0040329644
00000000: 6f3a 343e 9a4c 18bd b5b3 753d 9fc1 f43e
00000010: 036d 893e 2980 45be 4df0 92bd 1960 c7be
00000020: bc72 f93d cb49 993d 1833 ab3e 7ee4 febe
00000030: 00fb e5bc 186a b3bd 0167 d0bd 44ab aebe
00000040: 274c 1bba 5e6d 2fbd 23f9 443d f1c2 963e
00000050: 1a39 cd3d 8358 883c ff66 1fbe 1362 64bd
00000060: 3368 e63d 8f18 b33d e699 5ebe ea45 4d3e
00000070: bd5c 533d fa90 473e a9b5 20be ea3a 853d
00000080: bfc7 09be f1d0 a63c 5571 5b3e 2fca 553e
00000090: 8c09 b3b9 a4bb 1cbe cf8e 103e bcbf 1cbe
000000a0: a553 90be 6a90 85be 4a2d 66bc c76e a6be
000000b0: 66a5 bc3c 3b52 433d bf9e b53e 86aa 3a3d
000000c0: 5737 0d3c f3db 53be 9206 61be 7297 9c3d
000000d0: c099 283e f776 823e 3ea5 ddbe 378b 31be
000000e0: 0a32 cfbe 431a 763e e348 79be 2f28 7cbe
000000f0: 9325 a7bd 5df7 7fbe 06dd 8bbe ae26 41be
00000100: 5923 11be 6be1 303e 5481 7bbd dc5a 413e
00000110: 50f5 1f3e e0c5 8ebe da5d cabe 3802 8f3d
00000120: 0938 ecbd 4f23 573e c05a 74be 3995 f93d
00000130: a9a2 53bd 93ff c6be e262 ccbd 3425 e33d
00000140: 96dd 93be b7ec fd3d ecc3 15be eb2d 14bf
00000150: 9a42 4dbe f59c 073e 15e0 093e a212 7fbe
00000160: 6359 be3e 3338 33be 827a 4bbe 1fd2 44be
00000170: 504f e6be ff2f 813e 868f 5ebe 3c7f c63d
00000180: df15 f33d f574 ddbd 5fdf dd3d 7667 713e
00000190: 0da3 803e bed0 b8be 1e76 f3be 08c5 833d
000001a0: 288e 2cbe 7350 e2bd 793f 96bd 15aa 313e
000001b0: b9bf 57be c1c8 1bbe 84b5 f93d 5af1 2cbd
000001c0: 94a6 0f3e 5f0a f6bd cdf0 15be 5c6c 41be
000001d0: 6cfb 49bd acfd 8bbc a88a c1bd 4581 2ebe
000001e0: be2d 34be 6a3d f03e aa7c 7c3e 57d3 bf3d
000001f0: 40f4 273e 4d78 4ebd a4d7 09be 1cd5 c0be
00000200: 58d6 573d 7c8a c63d 8d41 b4bd c340 9ebd
00000210: 50f8 a0bd 6b61 b4bd b1c5 093e 0520 a5bd
00000220: 98fd 363e 9371 843c f87c 123e 0c68 e3bd
00000230: b631 193e 5669 b33d 116e 4c3e 3c7c 6dbc
00000240: abc8 003f a48d 9ebe a807 edbd ee7e e23e
00000250: 1c73 173f 00ea 333d 6503 1c3e ea93 7fbe
00000260: 9907 983d 15e1 59be 453e 9c3e f5a2 3ebc
00000270: 8b8b a4bd 6c01 013d 6af1 aa3c 591a 7cbe
00000280: 8cb7 11be 53fb 5ebe e0b6 843e ce8f 17bd
00000290: 9953 bbbe eabd 82bc afb8 163e 4f10 813c
000002a0: 6b9e cfbd 14c0 43bd 9d9b 67be 27e1 bfbc
000002b0: c7f2 033d 1c09 1f3e a0e7 46be d605 893e
000002c0: 1255 97bd 6111 c23c 48e8 b8bd 4ac8 adbe
000002d0: fd91 43bd 7fc2 58be 9125 b03e 071d 00be
000002e0: 4c47 90bd 08eb 1c3e b6fc b43e de6e a2be
000002f0: b7cd 473e c504 b0bd 5bd0 993d 1445 943e
00000300: 5804 393e 13b0 46be 483e 62bd 64aa 87be
00000310: 34ff 14bd 7a55 a9bd 968c 53be f528 46bc
00000320: b792 3ebe 0b19 33be b797 d3be 31db 48be
00000330: d30c 3d3e 46c0 393d 3c5f 0e3e b65f 123f
00000340: 1409 5a3d e2b1 023e 9bed 4fbe 0094 84bd
00000350: f969 223e 25c6 d5bd 8708 5d3e 8676 e33d
00000360: e98f cabd a9df bdbe a1b5 903d b41e 22be
00000370: ee3a dabd 758b b93e 42e2 69bd 859e 8b3e
00000380: 0887 4dbd 9751 b23e f963 3e3e be26 283f
00000390: 22d7 9d3e 9ab2 7abc 9f7c a6bc 8a6b 1b3e
000003a0: a738 31be 9dd0 123e 63a6 30bd 2f4a fd3d
000003b0: 41b0 3d3d 37f7 d13d 2f01 34be cd61 e43e
000003c0: 2616 233e 18c9 333e e9ee 083d 28fd 193e
000003d0: 703e 0e3e 2848 053e 96d8 bbbe c340 683d
000003e0: 5426 5bbe 15b0 de3e 3768 893e 51d3 5d3d
000003f0: 175a 6dbd 672a 80bd 547a be3c f526 843b

conv1.bias f4 [8]
-0.0032342288 0.007891871 0.0053676 0.018966623 0.0019483395 -0.0026422115 -0.0097112 -0.00443494
00000000: 5bf5 53bb e84c 013c b1e2 af3b e45f 9b3c
00000010: 6d5f ff3a f428 2dbb ba1b 1fbc f952 91bb

bn1.weight f4 [8]
1.0064849 0.98728347 0.99619776 1.0015887 1.0072439 1.0014817 0.997875 0.9996046
00000000: 7fd4 803f 9cbe 7c3f d106 7f3f 0f34 803f
00000010: 5eed 803f 8d30 803f bc74 7f3f 16e6 7f3f

bn1.bias f4 [8]
-0.006548666 0.0049730097 -0.0033935986 -0.012418922 -0.005977191 -0.0061825993 -0.010433336 -0.00021931493
00000000: 3196 d6bb a1f4 a23b 2367 5ebb bc78 4bbc
00000010: 50dc c3bb 6797 cabb 95f0 2abc e7f7 65b9

bn1.running_mean f4 [8]
0.3441183 1.146656 0.35490724 0.44886386 0.86172307 0.4702894 0.2794634 0.89410067
00000000: 4630 b03e a0c5 923f 67b6 b53e 7cd1 e53e
00000010: e299 5c3f c6c9 f03e d415 8f3e c8e3 643f

bn1.running_var f4 [8]
0.4548302 1.3895456 0.81199 0.21874057 3.178537 1.1170467 0.2320986 3.949193
00000000: 81df e83e a1dc b13f 94de 4f3f 87fd 5f3e
00000010: 266d 4b40 63fb 8e3f 41ab 6d3e 94bf 7c40

conv2.weight f4 [16, 8, 3, 3]
0.22162876 0.12306161 0.34998965 -0.18207577 0.30954584 0.12127372 0.18136819 -0.04250258
0.18662962 0.0052546845 0.10796984 0.12050275 0.36588106 -0.015072364 -0.16933306 0.23505645
0.045611728 0.017550796 0.04673967 -0.117928244 0.11759028 0.0003695073 0.27944908 -0.02042147
0.08455142 -0.32610312 -0.18523486 -0.15038678 -0.10906911 -0.10886263 -0.11982797 -0.0131305605
0.07722522 0.110886276 0.31600937 -0.30123794 -0.26846665 0.15179531 -0.076089874 0.014124238
-0.044650357 -0.06027282 -0.43972135 -0.13857763 -0.26873568 0.103199266 0.062849775 0.0062294067
-0.019225683 -0.4118102 0.075375445 -0.22821902 0.22528704 -0.044846334 0.17915712 0.31206948
-0.30303368 0.10380716 -0.0055295043 0.12581712 0.097591355 0.12729718 -0.073310286 -0.08380341
-0.34207302 0.13158308 -0.064569145 -0.030956907 0.17499857 -0.019593978 -0.26125735 -0.22906785
0.07596118 -0.09323084 0.25989577 -0.086706705 0.03249734 0.31983742 0.2511552 -0.0024516738
0.16007942 -0.0019420758 -0.19775803 0.00012420313 -0.099791884 0.0235786 0.4236586 0.18170257
-0.14101917 0.26734993 0.077082776 0.1056819 0.27478778 0.015986433 0.03953279 0.17714483
0.20895043 0.13806474 -0.15944466 0.072848424 -0.0034817993 0.04691429 0.19661759 0.29615793
0.16407195 0.1685199 -0.3127053 0.16246454 0.0057552615 -0.062566385 0.04231588 -0.19327265
-0.18407838 0.38125816 0.13003248 -0.06251461 0.011933613 0.08646163 0.0694237 0.080335505
0.025566256 0.07540738 0.043605987 -0.24687864 -0.110626675 0.084883384 0.035400886 0.011501422
0.148206 -0.010629277 0.22244468 0.02565602 0.1360998 0.0824797 0.14634457 -0.0986712
-0.00076819333 -0.053348403 -0.07245812 0.29292738 -0.112010844 0.2310767 -0.1536598 -0.088715285
-0.23963265 0.20158052 -0.12657924 -0.14757381 0.034931462 -0.2128408 0.10863912 0.04081881
0.13085999 -0.17892362 0.1754518 0.008576722 0.04923399 -0.00796297 -0.097113274 0.05233594
0.08434621 -0.046082158 -0.03621373 -0.029326094 -0.23567797 -0.06584098 -0.3403442 0.03848
-0.13238889 0.24174818 0.13311635 0.011802506 0.089546695 -0.24295156 0.345643 0.09586437
0.25723332 0.1618144 -0.46211624 0.10138133 -0.36158323 0.0581737 0.39663583 -0.1406931
-0.25546232 -0.13700561 -0.00628874 -0.107023716 0.22717133 -0.019124368 -0.41405421 -0.050465796
0.23379835 -0.17604029 -0.06459356 -0.16943511 0.0479993 0.12959552 -0.06746503 -0.2137958
0.138166 -0.08841211 0.07097257 0.08644566 0.22724175 -0.17096172 -0.10073712 0.28475893
0.091100544 -0.18311559 -0.145476 0.2946948 -0.12852922 -0.35882363 -0.13606048 0.16086283
-0.18114205 0.040552165 -0.38866264 0.25218314 0.26093298 -0.057891604 0.24707313 0.19158414
-0.15739484 -0.023566755 -0.019554319 0.29549235 0.04846175 -0.1393273 0.17748617 0.083727345
-0.05398662 0.166894 -0.07194107 0.010770689 0.08472491 -0.31334123 0.10673468 -0.14451654
-0.37406686 -0.12312809 0.21525702 0.23265491 -0.059137683 -0.16635421 0.19367832 0.064821586
0.055458367 -0.24159327 0.031536587 0.020745544 -0.0068412554 -0.2752339 0.059306208 -0.25857916
00000000: a6f2 623e ba07 fc3d d831 b33e 1272 3abe
00000010: cb7c 9e3e 5b5e f83d 95b8 393e 2f17 2ebd
00000020: d61b 3f3e 7d2f ac3b 4b1f dd3d 25ca f63d
00000030: c354 bb3e 14f2 76bc a565 2dbe a3b2 703e
00000040: 5dd3 3a3d b0c6 8f3c 1972 3f3d 5d84 f1bd
00000050: 2cd3 f03d 6eba c139 f313 8f3e ed4a a7bc
00000060: 4b29 ad3d fdf6 a6be 35ae 3dbe fefe 19be
00000070: a05f dfbd 5ff3 debd 5e68 f5bd 9021 57bc
00000080: 4228 9e3d 5818 e33d fbcb a13e dc3b 9abe
00000090: 7674 89be 3b70 1b3e 02d5 9bbd 5969 673c
000000a0: 4be3 36bd a2e0 76bd 2823 e1be 4be7 0dbe
000000b0: b997 89be 235a d33d 62b7 803d 0d20 cc3b
000000c0: 2e7f 9dbc c9d8 d2be 715e 9a3d 3fb2 69be
000000d0: a5b1 663e cab0 37bd f774 373e 92c7 9f3e
000000e0: 3b27 9bbe d998 d43d d830 b5bb 34d6 003e
000000f0: fadd c73d 315a 023e b423 96bd 1fa1 abbd
00000100: 3224 afbe b7bd 063e d43c 84bd 5799 fdbc
00000110: d332 333e 8d83 a0bc 86c3 85be c390 6abe
00000120: 8991 9b3d d0ef bebd 0f11 853e 4993 b1bd
00000130: ee1b 053d bbc1 a33e 6a97 803e 43ac 20bb
00000140: dceb 233e 408d feba 1581 4abe 863c 0239
00000150: b05f ccbd e827 c13c c8e9 d83e 3d10 3a3e
00000160: 5467 10be 17e2 883e 93dd 9d3d c16f d83d
00000170: fcb0 8c3e fbf5 823c 23ed 213d 7465 353e
00000180: 1af7 553e d860 0d3e 7645 23be 8e31 953d
00000190: e62e 64bb 3329 403d 1f56 493e 03a2 973e
000001a0: 7a02 283e 7b90 2c3e e91a a0be 1b5d 263e
000001b0: a296 bc3b ce22 80bd 6b53 2d3d 44e9 45be
000001c0: 0b7f 3cbe 4534 c33e 3c27 053e a907 80bd
000001d0: 3385 433c cc12 b13d 032e 8e3d f186 a43d
000001e0: 5370 d13c 2f6f 9a3d 319c 323d c1cd 7cbe
000001f0: 3d90 e2bd 57d7 ad3d 8500 113d 7670 3c3c
00000200: 50c3 173e 6b26 2ebc 8ac8 633e 932c d23c
00000210: bf5d 0b3e 1eeb a83d 5adb 153e 2014 cabd
00000220: 9560 49ba db83 5abd ec64 94bd 94fa 953e
00000230: f165 e5bd 5f9f 6c3e ff58 1dbe 5cb0 b5bd
00000240: 4362 75be 206b 4e3e fd9d 01be 971d 17be
00000250: 4b14 0f3d f0f2 59be 307e de3d a031 273d
00000260: 2900 063e c137 37be a3a9 333e 6185 0c3c
00000270: 95a9 493d 1e77 02bc 53e3 c6bd 365e 563d
00000280: b5bd ac3d a5c0 3cbd d954 14bd 473d f0bc
00000290: 9155 71be a3d7 86bd 9841 aebe 349d 1d3d
000002a0: f490 07be d68c 773e a74f 083e 4c5f 413c
000002b0: 4264 b73d 4bc8 78be 1ff8 b03e 8a54 c43d
000002c0: 16b4 833e adb2 253e 809a ecbe 04a1 cf3d
000002d0: 7021 b9be 8c47 6e3d da13 cb3e da11 10be
000002e0: f5cb 82be 334b 0cbe c611 cebb 402f dbbd
000002f0: 9a9f 683e b5aa 9cbc eafe d3be 39b5 4ebd
00000300: d668 6f3e e843 34be a149 84bd 6680 2dbe
00000310: ea9a 443d b0b4 043e 1b2b 8abd 49ed 5abe
00000320: 637b 0d3e 6911 b5bd 115a 913d 6c0a b13d
00000330: 10b2 683e 9710 2fbe 434f cebd eccb 913e
00000340: ec92 ba3d a782 3bbe a9f7 14be 3de2 963e
00000350: 2a9d 03be bbb7 b7be 7053 0bbe 3ab9 243e
00000360: 4d7d 39be 071a 263d cafe c6be 261e 813e
00000370: 0299 853e bf1f 6dbd bd00 7d3e a22e 443e
00000380: 1d2c 21be 110f c1bc 6130 a0bc c64a 973e
00000390: d47f 463d d1ab 0ebe efbe 353e 3e79 ab3d
000003a0: 1321 5dbd 43e6 2a3e d755 93bd 8b77 303c
000003b0: 4184 ad3d 436e a0be b697 da3d 25fc 13be
000003c0: b185 bfbe 942a fcbd 566c 5c3e 173d 6e3e
000003d0: 5b3a 72bd c258 2abe 9c53 463e 2ec1 843d
000003e0: 5028 633d 3a64 77be 822c 013d 8ff2 a93c
000003f0: 9c2c e0bb 75eb 8cbe 11eb 723d 7d64 84be

conv2.bias f4 [16]
0.013732886 -0.0073757577 0.013138014 0.0004102156 0.0139339 0.0030954147 0.009804876 -0.010116977
-0.019107224 -0.009053674 -0.004535833 0.004262843 -0.007438256 0.000118485674 0.006457911 -0.00060968345
00000000: e6ff 603c 57b0 f1bb d340 573c 3512 d739
00000010: 034b 643c 71dc 4a3b a1a4 203c adc1 25bc
00000020: c186 9cbc dc55 14bc 53a1 94bb 52af 8b3b
00000030: 9dbc f3bb 837b f838 e29c d33b 2ad3 1fba

bn2.weight f4 [16]
0.9993654 0.996171 1.0010016 0.99611926 0.98236734 1.0011901 0.9970506 1.0028663
1.003419 1.0121803 1.0101684 1.0128607 0.99576896 1.0109107 0.9872148 0.9898517
00000000: 69d6 7f3f 1005 7f3f d220 803f ac01 7f3f
00000010: 6d7c 7b3f ff26 803f b53e 7f3f ec5d 803f
00000020: 0970 803f 208f 813f 334d 813f 6ba5 813f
00000030: b7ea 7e3f 8665 813f 1cba 7c3f ec66 7d3f

bn2.bias f4 [16]
-0.0018163057 0.017688213 -0.004538436 0.010111819 0.0020311868 -0.00026672517 -0.017745357 0.009314089
0.0005891424 -0.0037465838 -0.012908337 -0.019061768 -0.0056117726 -0.0026126327 -0.0072569 0.003581029
00000000: 1b11 eeba dfe6 903c 29b7 94bb 0bac 253c
00000010: a91d 053b 3fd7 8bb9 b65e 91bc 1f9a 183c
00000020: ad70 1a3a 3f89 75bb 7d7d 53bc 6d27 9cbc
00000030: f6e2 b7bb b438 2bbb 4acb edbb b2af 6a3b

bn2.running_mean f4 [16]
0.77371216 0.49352816 0.5662001 0.5242893 0.41472512 0.36889088 0.51568204 0.49009055
0.44177812 0.55957997 0.44771743 0.4596921 0.48275632 0.49559477 0.5276577 0.39032865
00000000: 0012 463f b9af fc3e 7df2 103f d337 063f
00000010: da56 d43e 44df bc3e bd03 043f 26ed fa3e
00000020: be30 e23e a240 0f3f 383b e53e c35c eb3e
00000030: d62b f73e 99be fd3e 9314 073f 28d9 c73e

bn2.running_var f4 [16]
0.9955979 0.680642 0.37703544 0.4892546 0.3349245 0.30578884 0.80865264 0.4267489
0.8192602 1.07862 0.39534047 0.92930585 0.59808433 0.77750164 0.7996282 0.27685547
00000000: 81df 7e3f 8e3e 2e3f ca0a c13e 947f fa3e
00000010: 397b ab3e 5b90 9c3e dc03 4f3f d57e da3e
00000020: 09bb 513f 3810 8a3f 116a ca3e fde6 6d3f
00000030: 0e1c 193f 590a 473f 6fb4 4c3f 00c0 8d3e

conv3.weight f4 [32, 16, 3, 3]
0.0040912316 -0.09199454 -0.08484961 -0.020574931 -0.10377616 0.18834394 0.06048252 0.09606426
-0.011660306 -0.06334978 0.07778363 -0.09735866 0.18505786 -0.03885735 0.007706036 -0.060861047
-0.024351085 0.15311934 -0.039771706 -0.13194524 0.07407922 -0.005307793 0.1145191 0.059768945
0.06646166 -0.14579539 -0.036836535 -0.14769994 -0.04337457 -0.023415376 0.05142183 -0.00071252283
-0.19013377 -0.1685933 -0.08273596 -0.1439555 0.13460645 -0.057518315 0.060278364 -0.18734086
0.029270152 -0.009412446 -0.055671293 -0.06278774 -0.10310377 0.096484296 0.17777838 -0.045794535
0.033416342 0.05285743 -0.05123347 -0.13444243 0.06629761 0.031425215 -0.0016238714 0.1690319
-0.02535106 -0.015604743 -0.17605473 0.08549507 0.1413249 -0.12068179 0.31584772 -0.032553244
-0.0355645 -0.11930299 -0.043751176 -0.05614152 -0.09966999 -0.019881953 -0.06969907 0.17998311
0.099341765 -0.10231155 0.08633414 -0.07594466 0.136761 0.055627998 -0.05014977 -0.08509085
-0.07751297 0.17398372 0.0883745 0.10476552 -0.06583371 -0.0098822145 0.11661506 -0.022004534
0.09654285 -0.033562683 -0.076101236 0.047053393 -0.11571842 -0.20009056 -0.094413966 -0.042603366
-0.18140727 -0.18801033 0.041007433 0.080166325 -0.08404177 0.07880488 0.05332995 0.06648911
0.0065750447 -0.054695517 0.19361909 -0.019752586 -0.06147387 -0.13779075 0.033024505 -0.12716955
0.13518667 0.15885575 0.06575582 0.0059177144 0.09278724 -0.12204417 -0.13568461 0.05511204
0.021512916 -0.04600331 -0.017821446 -0.018875035 0.011054394 0.063911915 -0.14364313 0.042206295
0.0038755336 0.010036914 0.15445293 -0.011929107 0.12930423 0.06739234 0.050578 0.18786678
0.15381004 0.08645136 0.05329549 0.0333888 -0.030898333 -0.03131151 0.06833489 0.17506354
0.08749956 0.018690078 0.07419219 0.017689373 0.11376263 -0.13816442 -0.087060444 -0.07260493
0.1659289 0.23194149 0.030508751 0.022618014 -0.09916979 -0.1133692 0.08428114 0.08718705
-0.20672776 -0.002975797 -0.15622622 -0.006982937 -0.11443889 -0.060226105 -0.14778939 0.09779524
-0.11686729 0.0930168 0.005683612 -0.011225179 -0.020051261 -0.21557218 0.068997346 -0.19488513
0.010609773 -0.09209215 -0.12129773 0.27189746 -0.12007319 0.11257756 -0.094448164 0.12140124
-0.0062905075 0.119893715 0.22875248 -0.12013048 0.17256601 -0.0005455381 0.16766855 -0.17133823
0.011333113 -0.015044936 0.20931236 0.04063518 -0.02735828 -0.053711753 0.14320822 -0.028582048
-0.10312469 -0.09028062 0.14673205 -0.17473692 0.08329345 0.13641497 0.21865539 0.16817561
0.202191 0.0634733 0.005579529 -0.0692439 -0.07156712 -0.14502685 0.027631376 0.06657708
-0.011791641 0.055469137 -0.11773836 -0.0671541 -0.10065093 -0.094313174 0.17246316 -0.0926698
0.08617281 0.0039840383 0.018425379 -0.088240355 -0.12562126 -0.063552536 -0.019991567 -0.0015205144
0.2582135 0.018245779 -0.016402146 0.024855006 -0.009876289 0.15628187 0.008900327 0.12886456
-0.019751465 -0.13051663 -0.060608648 0.15635364 -0.027473917 -0.10178258 -0.09303184 0.20849101
0.08916462 0.13781862 -0.07677729 -0.08118968 0.20905963 -0.04480976 0.02555975 0.25233114
00000000: bd0f 863b a267 bcbd a2c5 adbd c28c a8bc
00000010: 9888 d4bd 3cdd 403e 85bc 773d 57bd c43d
00000020: de0a 3fbc 88bd 81bd 064d 9f3d fa63 c7bd
00000030: cf7f 3d3e e228 1fbd ea82 fc3b 6f49 79bd
00000040: ed7b c7bc 51cb 1c3e a8e7 22bd a71c 07be
00000050: d9b6 973d ffec adbb fd88 ea3d 48d0 743d
00000060: 0d1d 883d 634b 15be e8e1 16bd a73e 17be
00000070: 88a9 31bd 9ad1 bfbc b29f 523d 99c8 3aba
00000080: 6db2 42be b9a3 2cbe 7971 a9bd 1269 13be
00000090: 46d6 093e 5398 6bbd 72e6 763d 48d6 3fbe
000000a0: f5c7 ef3c a936 1abc 9507 64bd dc96 80bd
000000b0: 1228 d3bd 8f99 c53d 890b 363e 0d93 3bbd
000000c0: 93df 083d 0881 583d 30da 51bd 47ab 09be
000000d0: 0bc7 873d bab7 003d 15d8 d4ba b316 2d3e
000000e0: 07ad cfbc 09ab 7fbc b147 34be 0a18 af3d
000000f0: 79b7 103e 0428 f7bd cbb6 a13e 8d56 05bd
00000100: 15ac 11bd 2055 f4bd 6f34 33bd a7f4 65bd
00000110: c81f ccbd 7adf a2bc 63be 8ebd 7e4d 383e
00000120: b273 cb3d b888 d1bd f4cf b03d e088 9bbd
00000130: 130b 0c3e 2fda 633d d869 4dbd 1d44 aebd
00000140: 1fbf 9ebd ca28 323e b1fd b43d 4e8f d63d
00000150: d3d3 86bd 03e9 21bc e0d3 ee3d da42 b4bc
00000160: 42b8 c53d 0679 09bd f7da 9bbd 0fbb 403d
00000170: c7fd ecbd 8ae4 4cbe 1c5c c1bd de80 2ebd
00000180: d4c2 39be c885 40be 69f7 273d 3e2e a43d
00000190: 171e acbd 7464 a13d 8170 5a3d 712b 883d
000001a0: 7973 d73b 6808 60bd 1544 463e 2dd0 a1bc
000001b0: 06cc 7bbd 0519 0dbe b444 073d bc38 02be
000001c0: 606e 0a3e 15ab 223e fdaa 863d 63e9 c13b
000001d0: 3d07 be3d 4bf2 f9bd e8f0 0abe 2abd 613d
000001e0: db3b b03c f76d 3cbd 48fe 91bc d19f 9abc
000001f0: 7d1d 353c 40e4 823d 2f17 13be 82e0 2c3d
00000200: aafc 7d3b de71 243c e928 1e3e 4d72 43bc
00000210: 5468 043e ff04 8a3d e02a 4f3d 2660 403e
00000220: 6180 1d3e 690d b13d 5f4c 5a3d b2c2 083d
00000230: 801e fdbc 7f40 00bd 2af3 8b3d db43 333e
00000240: f832 b33d ef1b 993c 13f2 973d 4ee9 903c
00000250: 62fc e83d f97a 0dbe bf4c b2bd e5b1 94bd
00000260: 44e9 293e 1282 6d3e 7ded f93c 6a49 b93c
00000270: 8819 cbbd 1c2e e8bd 979b ac3d 208f b23d
00000280: 71b0 53be 9705 43bb c4f9 1fbe 1fd1 e4bb
00000290: f05e eabd a6af 76bd 1a56 17be df48 c83d
000002a0: 1e58 efbd 987f be3d 983d ba3b d0e9 37bc
000002b0: 8b42 a4bc f4be 5cbe 7b4e 8d3d f88f 47be
000002c0: 9dd4 2d3c cf9a bcbd f26a f8bd 2536 8b3e
000002d0: efe8 f5bd 108f e63d 0a6e c1bd 37a1 f83d
000002e0: 9a20 cebb d68a f53d 173e 6a3e f806 f6bd
000002f0: 25b5 303e 7102 0fba 4eb1 2b3e 4a73 2fbe
00000300: 85ae 393c 097f 76bc fb55 563e 1371 263d
00000310: 791e e0bc db00 5cbd 2da5 123e e624 eabc
00000320: 0a33 d3bd 0ce5 b8bd ed40 163e 3cee 32be
00000330: c295 aa3d 5eb0 0b3e 33e7 5f3e 3a36 2c3e
00000340: 280b 4f3e 4afe 813d 7bd4 b63b bfcf 8dbd
00000350: c891 92bd eb81 14be 325b e23c 9059 883d
00000360: ba31 41bc 9b33 633d cf20 f1bd 1788 89bd
00000370: 1322 cebd 4427 c1bd 2f9a 303e aac9 bdbd
00000380: 5f7b b03d 898c 823b d2f0 963c 5cb7 b4bd
00000390: dca2 00be d527 82bd 5bc5 a3bc ff4b c7ba
000003a0: 8f34 843e 2c78 953c cb5d 86bc ba9c cb3c
000003b0: 29d0 21bc 5b08 203e add2 113c 12f5 033e
000003c0: d3cd a1bc 27a6 05be c640 78bd 2b1b 203e
000003d0: fb10 e1bc 6373 d0bd 7a87 bebd ab7e 553e
000003e0: f19b b63d 5320 0d3e 693d 9dbd c646 a6bd
000003f0: ba13 563e 708a 37bd ae62 d13c 8c31 813e

conv3.bias f4 [32]
0.020851314 -0.0020652383 -0.019892566 -0.0064942394 -0.013604454 0.004535915 0.0032482722 -0.0056552496
0.013373609 0.0013873581 0.0117289815 0.006884225 0.0077886167 -0.009407047 -0.015484619 -0.015428304
0.0116452295 0.010496991 -0.016221073 -0.012733102 -0.016431216 -0.014576028 0.007029764 -0.0064396625
-0.01056331 -0.00018484831 0.0029233615 0.00572546 0.022887845 -0.012549131 -0.011260534 0.01606985
00000000: 60d0 aa3c f358 07bb bcf5 a2bc a1cd d4bb
00000010: 37e5 5ebc 03a2 943b f7e0 543b ac4f b9bb
00000020: fb1c 5b3c 03d8 b53a ea2a 403c 1195 e13b
00000030: a737 ff3b 0420 1abc 33b3 7dbc ffc6 7cbc
00000040: a2cb 3e3c 92fb 2b3c 0ee2 84bc 809e 50bc
00000050: c29a 86bc 4bd0 6ebc ef59 e63b ce03 d3bb
00000060: bc11 2dbc d7d3 41b9 de95 3f3b a49c bb3b
00000070: 4a7f bb3c df9a 4dbc 1a7e 38bc eba4 833c

bn3.weight f4 [32]
1.0316216 0.98916936 1.0171919 0.98456544 1.0084728 0.99722695 0.99968594 1.021299
1.0072073 0.99011916 0.98907185 1.0106128 0.98622036 0.9850879 0.9985456 0.9992704
0.99401563 0.9865508 0.98956203 0.993629 1.0020555 0.9987393 0.99942625 0.993761
1.0103165 0.9937891 0.98121774 0.9879089 1.0098414 1.0257704 1.0078927 0.97713447
00000000: 2d0c 843f 343a 7d3f 5833 823f 7b0c 7c3f
00000010: a315 813f 444a 7f3f 6beb 7f3f edb9 823f
00000020: 2bec 803f 7378 7d3f d033 7d3f c35b 813f
00000030: f078 7c3f b82e 7c3f afa0 7f3f 2fd0 7f3f
00000040: cf77 7e3f 988e 7c3f f053 7d3f 785e 7e3f
00000050: 5b43 803f 61ad 7f3f 66da 7f3f 1f67 7e3f
00000060: 0d52 813f f668 7e3f 1631 7b3f 99e7 7c3f
00000070: 7c42 813f 724c 833f a102 813f 7c25 7a3f

bn3.bias f4 [32]
-0.015288649 0.0002815718 0.014657642 0.0007452194 -0.01728961 0.008724339 0.007886109 -0.0132068135
-0.021011272 0.030306669 0.016608942 -0.0054603987 -0.020943483 0.0024743588 -0.026409362 -0.015141406
0.010845625 -0.005669 -0.019214222 -0.009421835 -0.016518686 0.025473045 -0.0042930883 -0.006849621
-0.010857671 0.01138541 0.011435636 0.009110092 0.025850624 -0.011174797 -0.022523182 0.0026143703
00000000: 3e7d 7abc ed9f 9339 9b26 703c d45a 433a
00000010: f1a2 8dbc 88f0 0e3c bd34 013c 6461 58bc
00000020: d51f acbc b145 f83c 7a0f 883c 25ed b2bb
00000030: ab91 abbc da28 223b 7258 d8bc a913 78bc
00000040: d9b1 313c 05c3 b9bb 2567 9dbc 0a5e 1abc
00000050: 3252 87bc d9ac d03c 09ad 8cbb c972 e0bb
00000060: 5fe4 31bc df89 3a3c 895c 3b3c 7f42 153c
00000070: b0c4 d33c 7f16 37bc 8982 b8bc db55 2b3b

bn3.running_mean f4 [32]
0.61494243 0.62172043 0.5097658 0.59665304 0.5640563 0.5708382 0.6107876 0.58636236
0.5217141 0.4325689 0.39593232 0.62983096 0.6663849 0.40530938 0.71934 0.5339072
0.7536339 0.5842422 0.5249413 0.6600292 0.71752113 0.45654947 0.5612769 0.69293046
0.5743585 0.546605 0.50635624 0.42757207 0.7924019 0.57969594 0.672185 0.6680993
00000000: de6c 1d3f 1229 1f3f 0380 023f 41be 183f
00000010: fe65 103f 7422 123f 935c 1c3f d81b 163f
00000020: 0e8f 053f ac79 dd3e a4b7 ca3e 9a3c 213f
00000030: 3398 2a3f b684 cf3e ab26 383f 24ae 083f
00000040: 27ee 403f e690 153f 8e62 063f acf7 283f
00000050: 77af 373f dac0 e93e d8af 0f3f e463 313f
00000060: 2909 133f 4eee 0b3f 90a0 013f baea da3e
00000070: dada 4a3f f466 143f 5114 2c3f 8e08 2b3f

bn3.running_var f4 [32]
0.7238876 1.3639233 0.5165215 0.5397466 0.7512169 0.8330517 0.95220387 0.92478573
0.64381856 0.44975162 0.2845127 0.58866054 1.1581557 0.45235136 1.5612502 0.84022284
1.0581735 0.53045374 0.7667785 1.2994136 1.558489 0.4252696 0.51163304 0.7223774
0.8326199 0.7076426 0.74162334 0.46392047 0.98070383 0.764649 1.1314993 0.7855396
00000000: b350 393f 0a95 ae3f c13a 043f d52c 0a3f
00000010: c04f 403f e042 553f a2c3 733f c2be 6c3f
00000020: 4bd1 243f d845 e63e a6ab 913e 75b2 163f
00000030: 723e 943f 999a e73e 0cd7 c73f d818 573f
00000040: 3b72 873f d1cb 073f 994b 443f 2f53 a63f
00000050: 917c c73f f0bc d93e 62fa 023f baed 383f
00000060: 9426 553f 1128 353f 07db 3d3f fc86 ed3e
00000070: 680f 7b3f 09c0 433f f8d4 903f 2019 493f

conv4.weight f4 [64, 32, 3, 3]
0.106698364 -0.019861603 -0.062657855 0.07649745 0.24522735 -0.11123356 -0.06559969 0.09866996
0.0011403653 0.028967528 0.027396515 0.102553524 -0.018056558 -0.030673286 0.14935747 -0.0026082792
0.027890924 0.0964113 0.1237413 0.053599793 0.110544264 0.024600158 -0.043527465 -0.050317362
0.059382167 -0.017474594 -0.0218423 -0.06787211 -0.0396351 0.0016954319 -0.048784725 -0.034947906
-0.06982769 -0.09740126 -0.009548118 -0.01228718 -0.0875255 0.08869527 -0.12601154 0.06726217
-0.0020349768 0.13290627 -0.02949485 0.10787684 0.028163679 -0.055883348 -0.021692071 -0.010054429
0.05254289 -0.04684193 -0.03740392 -0.11968959 -0.003181935 -0.11624211 -0.02794844 0.069068715
-0.10857754 0.06525629 0.06273846 -0.13909456 -0.053992786 0.07021857 0.059901454 -0.004217529
0.048676096 -0.012695508 0.037035666 -0.08094577 -0.007203929 0.07947178 0.076118596 0.07559229
0.097199544 -0.1510956 -0.009654546 0.043243345 -0.009310196 0.028759725 -0.12914617 0.07882791
-0.13618363 0.0021146326 0.1341489 -0.02809136 -0.011794347 -0.13394397 -0.018034326 0.003837192
0.005718414 0.07182387 0.09478926 0.057909638 -0.031805236 0.008957643 -0.041799795 -0.14387232
0.085790455 -0.13653576 0.034348395 -0.0433064 -0.16605891 0.09483288 -0.025663015 0.18049458
-0.13352728 0.050969407 0.07666108 0.012547454 0.14001216 -0.0634258 0.052390993 -0.05987048
-0.06365765 -0.04767735 -0.042723555 -0.022234939 -0.14038791 0.074845895 -0.01542459 0.057117626
0.09750502 -0.027543554 0.03202107 0.051986825 0.020881653 0.007333012 -0.020623898 -0.06859909
0.033117723 -0.017095728 -0.037866283 -0.038447224 -0.05491886 -0.039574157 0.061163258 0.030419776
-0.03799834 0.054243263 -0.13300608 -0.059663665 0.03796176 -0.07157549 0.04791398 0.04551961
-0.03544813 0.016205242 0.05253812 0.018631699 -0.020057397 0.055148464 -0.01030652 0.20280348
-0.018745039 0.02967208 -0.07985494 0.01889387 -0.020585155 -0.01155425 -0.026380971 -0.018717522
0.015595372 -0.01989152 -0.108713284 0.06645782 -0.037898857 -0.018443953 -0.12259089 0.021116635
0.0331401 -0.060120404 0.020189721 -0.13656364 0.08833258 -0.10823758 0.12154479 0.04888933
0.15359566 0.055212915 -0.19980407 -0.13518274 0.06410979 0.05121168 -0.073100895 0.14895159
0.0845746 0.0027243057 -0.18208759 0.1629727 0.061791237 0.023171892 -0.08296717 -0.00038611272
0.021498868 0.069399826 -0.08624193 0.0025423502 0.060783107 -0.07887688 -0.08247159 -0.015471724
0.057210136 -5.695822e-05 -0.03334277 0.104007356 -0.11881348 0.016756143 -0.028653642 0.06233052
-0.03284268 0.020213017 -0.047777526 -0.09086355 0.07942467 -0.16641484 -0.15506963 0.14427547
-0.18220371 -0.11460192 -0.07495335 -0.08785142 0.08135058 0.0074674524 0.1206734 0.11398611
-0.072325855 0.002283779 0.17620835 0.069321886 0.11037495 -0.00077075645 -0.01941976 0.080104075
-0.0673509 0.06916543 0.004771399 0.08093474 -0.041720964 -0.21092856 -0.052604817 0.16978194
-0.050750483 -0.0045108786 -0.028729225 -0.0879155 -0.057847515 -0.1317239 0.016352294 0.008005591
0.03874618 -0.003190105 -0.14251113 -0.13177115 -0.07868545 -0.015192975 0.041061383 0.0333468
00000000: ac84 da3d cdb4 a2bc c352 80bd b2aa 9c3d
00000010: e11c 7b3e 6cce e3bd 2159 86bd 7a13 ca3d
00000020: 4f78 953a 4f4d ed3c a86e e03c 9507 d23d
00000030: 59eb 93bc 8b46 fbbc 2af1 183e aaef 2abb
00000040: 827b e43c 4a73 c53d 146c fd3d 758b 5b3d
00000050: 0865 e23d 4586 c93c db49 32bd 9419 4ebd
00000060: b73a 733d e126 8fbc a0ee b2bc 8800 8bbd
00000070: 6a58 22bd 4139 de3a 7ed2 47bd 8925 0fbd
00000080: d201 8fbd 507a c7bd b66f 1cbc 2b50 49bc
00000090: 9240 b3bd dea5 b53d 2b09 01be c0c0 893d
000000a0: 3f5d 05bb 9518 083e 2f9f f1bc 88ee dc3d
000000b0: 84b7 e63c f0e5 64bd 92b3 b1bc 55bb 24bc
000000c0: 3737 573d 53dd 3fbd da34 19bd d11f f5bd
000000d0: 0388 50bb 5810 eebd 20f4 e4bc e673 8d3d
000000e0: e75d debd 17a5 853d 067d 803d ce6e 0ebe
000000f0: 8a27 5dbd c1ce 8f3d 3a5b 753d 3333 8abb
00000100: 9660 473d d200 50bc b6b2 173d e5c6 a5bd
00000110: f00e ecbb 1ac2 a23d 11e4 9b3d 21d0 9a3d
00000120: 8e10 c73d ceb8 1abe 1a2e 1ebc ef1f 313d
00000130: cb89 18bc 8499 eb3c e53e 04be 8770 a13d
00000140: b973 0bbe a695 0a3b 545e 093e da1f e6bc
00000150: 143d 41bc 9c28 09be b9bc 93bc 6679 7b3b
00000160: 8961 bb3b 6518 933d df20 c23d a832 6d3d
00000170: 3546 02bd 14c3 123c 4336 2bbd 4453 13be
00000180: e8b2 af3d 08d0 0bbe e7b0 0c3d 0d62 31bd
00000190: 590b 2abe be37 c23d 3e3b d2bc 92d3 383e
000001a0: 60bb 08be 4cc5 503d 7c00 9d3d d693 4d3c
000001b0: 595f 0f3e 63e5 81bd f097 563d c03a 75bd
000001c0: f15e 82bd 5349 43bd e5fe 2ebd 0c26 b6bc
000001d0: d9c1 0fbe ce48 993d 6bb7 7cbc 2cf4 693d
000001e0: b6b0 c73d 05a3 e1bc 8728 033d 23f0 543d
000001f0: 0010 ab3c c349 f03b 73f3 a8bc ae7d 8cbd
00000200: 73a6 073d 570c 8cbc ad19 1bbd d67a 1dbd
00000210: 99f2 60bd 8318 22bd 5386 7a3d e532 f93c
00000220: 26a4 1bbd 2f2e 5e3d bf32 08be e361 74bd
00000230: ca7d 1b3d 2c96 92bd 7341 443d c572 3a3d
00000240: 0f32 11bd dbc0 843c 3632 573d 81a1 983c
00000250: 694f a4bc 5be3 613d aedc 28bc b7ab 4f3e
00000260: 328f 99bc dd12 f33c fd8a a3bd 51c7 9a3c
00000270: 33a2 a8bc 094e 3dbc e81c d8bc 7d55 99bc
00000280: bb83 7f3c 8af3 a2bc 12a5 debd 0a1b 883d
00000290: d53b 1bbd c617 97bc ef10 fbbd cbfc ac3c
000002a0: eabd 073d d040 76bd ea64 a53c 57d7 0bbe
000002b0: b6e7 b43d aaab ddbd 7aec f83d 2e40 483d
000002c0: 2e48 1d3e f026 623d 7099 4cbe 586d 0abe
000002d0: fe4b 833d 57c3 513d ecb5 95bd c486 183e
000002e0: 7335 ad3d 448a 323b 2b75 3abe 51e2 263e
000002f0: cf18 7d3d fbd2 bd3c b1ea a9bd 2c6f cab9
00000300: 651e b03c 7f21 8e3d 9c9f b0bd 8f9d 263b
00000310: b5f7 783d 348a a1bd dde6 a8bd 1d7d 7dbc
00000320: 2d55 6a3d 6ce6 6eb8 6e92 08bd cf01 d53d
00000330: 7b54 f3bd 2e44 893c 0bbb eabc 4a4e 7f3d
00000340: 0c86 06bd c595 a53c 5eb2 43bd ab16 babd
00000350: 67a9 a23d a768 2abe 93ca 1ebe f3bc 133e
00000360: 9c93 3abe 69b4 eabd 2481 99bd 72eb b3bd
00000370: 229b a63d 88b1 f43b 9e23 f73d 8d71 e93d
00000380: 941f 94bd 74ab 153b f66f 343e a2f8 8d3d
00000390: 430c e23d 970c 4aba 3016 9fbc 9b0d a43d
000003a0: 45ef 89bd 9ba6 8d3d 6559 9c3b 1dc1 a53d
000003b0: 9ae3 2abd a8fd 57be 2678 57bd 51db 2d3e
000003c0: bddf 4fbd fecf 93bb 8d59 ebbc 0b0d b4bd
000003d0: 84f1 6cbd a1e2 06be 3ff5 853c e229 033c
000003e0: 50b4 1e3d 1511 51bb 70ee 11be 04ef 06be
000003f0: d625 a1bd f5eb 78bc fb2f 283d a796 083d

conv4.bias f4 [64]
0.008977185 0.015832756 0.014369906 -0.015580161 -0.004145731 -0.0251212 0.0059795943 -0.017667232
0.008810871 0.010955338 -0.00041284823 0.013235495 0.0043010176 -0.0043731467 -0.015688686 -0.0052296286
-0.0072599775 0.01473609 -0.008497981 -0.017972596 -0.0066181524 0.023728378 0.010737252 0.00980249
-0.014851828 0.0049377223 -0.004283111 0.005439603 -0.0052947886 0.011762368 -0.003304268 -0.0024140363
-0.0102333715 0.012080382 0.014979462 -0.0013271865 -0.007107798 0.02161902 -0.0096053695 0.0027635773
-0.014777779 0.013274949 -0.00019073323 0.0049832882 0.017820848 0.027460722 -0.022811886 0.012442186
-0.0121353995 0.017163448 -0.0055962917 0.004155207 0.024650605 0.0017378064 0.008348257 0.0092143165
0.0016435448 -0.017234236 -0.0055446113 0.010517533 -0.00019651993 0.012154875 -0.0017979942 -0.013715593
00000000: 0b15 133c b2b3 813c c16f 6b3c ee43 7fbc
00000010: ead8 87bb faca cdbc 79f0 c33b dfba 90bc
00000020: 795b 103c 057e 333c 8d73 d8b9 b1d9 583c
00000030: 8def 8c3b 9d4c 8fbb 8f85 80bc 4e5d abbb
00000040: 1be5 edbb a46f 713c 1e3b 0bbc 443b 93bc
00000050: 16dd d8bb 0462 c23c 4deb 2f3c 9f9a 203c
00000060: 1555 73bc 9ecc a13b 5759 8cbb b23e b23b
00000070: e87f adbb f2b6 403c 6b8c 58bb cf34 1ebb
00000080: dfa9 27bc cbec 453c 6b6c 753c fdf4 adba
00000090: 88e8 e8bb 5f1a b13c d75f 1dbc 221d 353b
000000a0: 7f1e 72bc 2c7f 593c 90ff 47b9 da4a a33b
000000b0: 07fd 913c 4ff5 e03c fedf babc 4fda 4b3c
000000c0: 8ed3 46bc 5c9a 8c3c 1961 b7bb 6728 883b
000000d0: 11f0 c93c 1bc7 e33a 21c7 083c a5f7 163c
000000e0: 366c d73a d02e 8dbc 92af b5bb bb51 2c3c
000000f0: eb10 4eb9 3e25 473c adaa ebba 5eb7 60bc

bn4.weight f4 [64]
1.0274842 0.9996146 1.0039988 1.021905 0.9927234 1.008074 1.0184565 1.0083214
0.99331737 1.0262053 1.0142269 1.0077574 1.0045817 1.0075903 0.99895483 0.9864266
1.0240773 1.0048897 0.99919206 0.9949818 1.001557 1.0368053 0.994056 0.997121
1.000799 1.0096396 1.0025157 1.0253502 1.0120645 0.99669546 1.0152383 1.0078064
1.0116156 1.0074879 1.0214196 1.0193824 1.008518 1.0071682 1.0080878 1.0320755
1.0198373 1.0097446 0.99896544 0.9947836 1.009806 1.0254699 1.0140579 1.0053829
1.0035115 1.0079145 1.0016812 1.0082165 1.0084103 0.99846786 1.0008044 1.0264634
1.0185767 1.0225084 0.997215 1.0048535 1.003654 0.99629915 1.0162638 1.0068364
00000000: 9a84 833f bee6 7f3f 0883 803f c8cd 823f
00000010: 1f23 7e3f 9208 813f c85c 823f ad10 813f
00000020: 0c4a 7e3f b25a 833f 30d2 813f 32fe 803f
00000030: 2296 803f b8f8 803f 81bb 7f3f 7486 7c3f
00000040: f714 833f 3aa0 803f 0dcb 7f3f 21b7 7e3f
00000050: 0533 803f 09b6 843f 747a 7e3f 5243 7f3f
00000060: 2e1a 803f df3b 813f 6f52 803f ad3e 833f
00000070: 548b 813f 6f27 7f3f 54f3 813f cdff 803f
00000080: 9f7c 813f 5df5 803f e1bd 823f 1f7b 823f
00000090: 1e17 813f e3ea 803f 0509 813f 0d1b 843f
000000a0: 078a 823f 503f 813f 33bc 7f3f 23aa 7e3f
000000b0: 5341 813f 9942 833f a6cc 813f 63b0 803f
000000c0: 1173 803f 5803 813f 1737 803f 3d0d 813f
000000d0: 9713 813f 979b 7f3f 5c1a 803f 2763 833f
000000e0: b960 823f 8ee1 823f 7b49 7f3f 0a9f 803f
000000f0: bc77 803f 760d 7f3f ef14 823f 04e0 803f

bn4.bias f4 [64]
0.04713752 -0.027927779 0.06879397 0.05119605 -0.058503333 -0.062081434 0.05975551 0.058302123
-0.054235738 0.060983054 -0.065417014 -0.062211927 0.06090333 0.05237728 0.058944333 0.05325363
0.06445244 -0.06438808 -0.055286385 0.059632476 -0.053849287 0.036276765 0.05128061 0.062397454
0.056079186 -0.058647957 -0.032031637 0.047896538 0.06246225 -0.061119042 0.054302968 0.020785745
0.05879599 -0.04936863 0.054735944 0.06141168 0.059615634 -0.05995778 -0.05666186 -0.030628739
-0.055956416 -0.047492567 -0.0642061 0.061367005 -0.061558813 0.0496125 -0.06093671 -0.05301975
-0.04549446 -0.032208443 0.056177575 -0.05409441 -0.056522425 -0.055875815 0.061756015 -0.058015574
-0.051691983 0.026930736 0.062255256 0.060511235 0.060514104 -0.046224702 0.059826747 0.054740433
00000000: 4613 413d ccc8 e4bc dae3 8c3d f3b2 513d
00000010: 31a1 6fbd 1a49 7ebd 32c2 743d 35ce 6e3d
00000020: 4b26 5ebd 5ec9 793d 5bf9 85bd efd1 7ebd
00000030: c575 793d 8f89 563d 9d6f 713d 7a20 5a3d
00000040: a4ff 833d e6dd 83bd fa73 62bd 2f41 743d
00000050: 1291 5cbd f296 143d 9e0b 523d 7994 7f3d
00000060: 4ab3 653d d738 70bd 9b33 03bd 292f 443d
00000070: 6bd8 7f3d f657 7abd ca6c 5e3d de46 aa3c
00000080: 10d4 703d c336 4abd cc32 603d d08a 7b3d
00000090: 862f 743d 4a96 75bd 4416 68bd 1fe9 fabc
000000a0: 8e32 65bd 9187 42bd 7d7e 83bd f85b 7b3d
000000b0: 1825 7cbd 7a36 4b3d c698 79bd 3d2b 59bd
000000c0: 6658 3abd 00ed 03bd 751a 663d 1a92 5dbd
000000d0: 0f84 67bd 0ade 64bd e0f3 7c3d bda1 6dbd
000000e0: f9ba 53bd d99d dc3c 5eff 7e3d a1da 773d
000000f0: a3dd 773d 1d56 3dbd e40c 753d 8137 603d

bn4.running_mean f4 [64]
0.33247477 0.4040617 0.46050334 0.56805706 0.4309255 0.25007957 0.326397 0.5369663
0.44477046 0.72709626 0.4233384 0.6561245 0.52303165 0.5484082 0.5071689 0.7032698
0.6457539 0.47743464 0.48447075 0.37956747 0.51887494 0.88130397 0.50201744 0.46119463
0.6345489 0.4860586 0.7700349 0.7840818 0.630561 0.8134354 0.59630364 0.36109924
0.7812816 0.68999124 0.86840767 1.0571804 0.5691246 0.50880927 0.6997614 0.8195355
0.4328985 0.5696823 0.5989526 0.6897586 0.5571869 0.8755972 0.6266344 0.4724631
0.38354832 0.5360701 0.59470546 0.911427 0.68040335 0.428331 0.6544565 0.8396157
0.703434 0.36376402 0.6568817 0.6178956 0.47906432 0.6103534 0.67424184 0.3153658
00000000: 223a aa3e 2de1 ce3e 18c7 eb3e 306c 113f
00000010: 44a2 dc3e 6e0a 803e 821d a73e a076 093f
00000020: f4b8 e33e fb22 3a3f d0bf d83e c6f7 273f
00000030: 67e5 053f 7b64 0c3f d2d5 013f 7d09 343f
00000040: 2150 253f 5072 f43e 8d0c f83e ab56 c23e
00000050: fdd4 043f 239d 613f 3784 003f b421 ec3e
00000060: cc71 223f acdc f83e 0221 453f 96b9 483f
00000070: 726c 213f 4d3d 503f 5ba7 183f 00e2 b83e
00000080: 1202 483f 44a3 303f f74f 5e3f b051 873f
00000090: 26b2 113f 5341 023f 9023 333f 14cd 513f
000000a0: dfa4 dd3e b3d6 113f f554 193f 0594 303f
000000b0: cda3 0e3f 2327 603f 1d6b 203f afe6 f13e
000000c0: 7260 c43e e43b 093f 9e3e 183f 4853 693f
000000d0: ea2e 2e3f 334e db3e 768a 273f 0ef1 563f
000000e0: 4014 343f 473f ba3e 6629 283f 682e 1e3f
000000f0: eb47 f53e 1f40 1c3f 1d9b 2c3f a077 a13e

bn4.running_var f4 [64]
0.456171 0.37725207 0.4676136 0.88048077 0.52251065 0.26880917 0.30320522 0.72472054
0.4746719 0.8985743 0.44573864 0.71810454 0.56396496 0.60619795 0.6138784 0.60869336
1.0978096 0.531541 0.68966657 0.4995533 0.64786464 0.91320896 0.6025353 0.41260844
0.73922586 0.58668995 0.98167664 0.8028764 1.0225487 1.4526508 0.67659736 0.49844342
1.089001 0.82700866 1.1017532 1.7719778 0.7182591 0.5977312 0.9648023 1.4521924
0.56999606 0.60541487 0.6678242 0.58347744 0.71412295 1.0891151 0.8431867 0.4904258
0.4725574 0.48636043 0.6524731 1.0745919 0.6820468 0.7549619 0.85353553 1.1917524
0.8346774 0.4474466 0.73877305 0.71404946 0.5876518 0.792899 0.75835717 0.39859736
00000000: 3f8f e93e 2f27 c13e 0d6b ef3e 3067 613f
00000010: 42c3 053f 5ba1 893e b73d 9b3e 4987 393f
00000020: 3208 f33e f708 663f db37 e43e b3d5 373f
00000030: 0260 103f ca2f 1b3f 2327 1d3f 54d3 1b3f
00000040: 0685 8c3f 1213 083f fd8d 303f 73c5 ff3e
00000050: 75da 253f 10c8 693f c13f 1a3f 6a41 d33e
00000060: e83d 3d3f 5031 163f 294f 7b3f 4f89 4d3f
00000070: e0e2 823f 76f0 b93f 7c35 2d3f fa33 ff3e
00000080: 6364 8b3f d7b6 533f 4006 8d3f 2bd0 e23f
00000090: d4df 373f e904 193f 49fd 763f 71e1 b93f
000000a0: 43eb 113f 78fc 1a3f 87f6 2a3f c75e 153f
000000b0: c3d0 363f 2068 8b3f 15db 573f 1719 fb3e
000000c0: 0bf3 f13e 3c04 f93e 7a08 273f 3a8c 893f
000000d0: 9e9a 2e3f 2f45 413f 4e81 5a3f 588b 983f
000000e0: 6bad 553f b917 e53e 3b20 3d3f f2cb 363f
000000f0: 5970 163f 6efb 4a3f b223 423f f414 cc3e

lin.weight f4 [10, 64]
-0.016125966 -0.10621121 0.030441225 0.13320643 -0.104576364 -0.02310452 -0.0468555 0.13751051
-0.010614083 0.030018652 -0.07659349 -0.025471173 0.07565331 0.12129033 0.07498568 0.07444608
0.08953954 -0.12204067 -0.078147694 0.12975761 -0.0567402 -0.018573117 -0.026632257 0.12138482
0.13165092 -0.073326625 0.04226573 0.09978211 0.115931876 -0.095516205 0.07829994 0.09490074
0.12784727 0.03547258 0.11299618 -0.029083492 0.15007223 -0.1195011 -0.048673287 0.04245938
-0.10659055 -0.06967751 -0.11925791 0.11486149 -0.1123938 0.037620198 -0.11134446 -0.13043621
0.024599735 -0.122759104 0.11624265 -0.015805054 -0.06639452 -0.116353326 0.0975276 -0.05545276
0.11288384 -0.065410465 0.113794304 0.042458978 0.06294834 -0.055272687 0.12095839 -0.0006108708
0.11361928 0.10436393 0.07276603 -0.018342607 -0.11069107 -0.054814957 0.13737689 -0.09136823
-0.0048811953 -0.041951463 0.012635759 -0.108850904 0.0075559136 -0.07601279 -0.07681057 0.08577026
0.00049888494 -0.011217607 0.00073880504 -0.017932514 0.07385125 -0.12315249 0.115836315 0.13239829
-0.021779131 0.0044190786 0.02897739 -0.13433279 0.07887431 -0.029573463 -0.071793675 -0.111352086
0.1053407 0.020453831 -0.028939279 0.047219716 0.093104415 -0.0826791 -0.019070912 0.07301895
0.041567996 -0.104338735 -0.08415727 0.05799532 -0.054486617 -0.12140769 -0.073092654 0.024406178
-0.0960904 -0.011181953 -0.070677936 -0.037901722 -0.04178055 0.08280743 0.0051978193 0.011282917
-0.11623249 0.1344488 -0.023293711 0.04144411 -0.011225978 0.05204215 0.0476502 0.024587689
-0.041539907 0.057503484 0.048880592 -0.08232039 -0.08583662 -0.11184239 0.05169518 0.00019003385
0.113612026 0.1456136 -0.06740917 0.0032834338 -0.037251055 0.07089273 -0.0010120808 0.07719652
-0.08786788 -0.063762195 -0.008549447 0.025561212 -0.111748695 0.11489757 -0.025357114 0.080787
-0.055168737 -0.06505624 -0.048362326 0.11401407 0.059222765 -0.103046045 -0.07595797 -0.0024627591
-0.10827522 0.13119923 -0.03713006 -0.15648381 0.036466982 0.070310056 0.10201815 -0.0969397
-0.051222052 0.11610213 -0.12820013 0.08624608 0.04214804 0.10748575 0.101808056 0.10668819
0.029202214 0.099647045 -0.048878644 0.13929036 0.08904861 -0.07304585 0.0106941 -0.061552513
-0.0824044 -0.09596577 0.087162904 0.04267676 0.13660434 0.07795803 -0.1351504 -0.11774609
0.10101751 -0.09235469 0.04529713 0.11602546 0.08743208 0.0926314 0.06254161 0.012388795
-0.048708566 -0.050532136 0.056368966 0.0061010467 0.06554965 0.03800078 0.062155858 0.016587721
-0.03797208 -0.08719578 -0.13122836 0.13766341 -0.10211664 -0.000195238 -0.056566697 -0.01624514
0.07822567 0.015339152 -0.07761276 0.09224365 0.011212111 0.03325009 -0.085484535 -0.031003179
0.026501924 -0.11382142 -0.0011465526 -0.069044136 -0.11007044 -0.04673248 0.04065779 -0.10587687
-0.029259464 0.060209285 -0.032144472 -0.117550075 -0.028914828 0.09694255 -0.065265365 0.11380726
0.12849501 0.032639325 0.0870402 -0.06487164 -0.13250579 0.11698067 -0.083590426 0.108337194
-0.12104284 0.064829975 0.026038572 -0.071763866 0.0766563 -0.053261116 0.0046370397 0.10407357
00000000: 9a1a 84bc 4385 d9bd e05f f93c 4467 083e
00000010: 222c d6bd b145 bdbc 8eeb 3fbd 8ecf 0c3e
00000020: b1e6 2dbc ade9 f53c 0cdd 9cbd eca8 d0bc
00000030: 1ff0 9a3d 1167 f83d 1892 993d 3077 983d
00000040: 8260 b73d 75f0 f9bd e60b a0bd 2edf 043e
00000050: 6968 68bd a626 98bc e42b dabc 9b98 f83d
00000060: 80cf 063e 452c 96bd d51e 2d3d 905a cc3d
00000070: b16d ed3d 009e c3bd b85b a03d 525b c23d
00000080: 65ea 023e b24b 113d 8b6a e73d 8140 eebc
00000090: 89ac 193e febc f4bd a45d 47bd e3e9 2d3d
000000a0: 254c dabd 15b3 8ebd 7e3d f4bd 803c eb3d
000000b0: b82e e6bd a317 1a3d 9008 e4bd 1291 05be
000000c0: 6285 c93c 2069 fbbd a010 ee3d 9a79 81bc
000000d0: daf9 87bd a74a eebd 8dbc c73d 6f22 63bd
000000e0: a52f e73d ecf5 85bd fd0c e93d 77e9 2d3d
000000f0: 0feb 803d 9d65 62bd 08b9 f73d d822 20ba
00000100: 3ab1 e83d c2bc d53d 5b06 953d 3c43 96bc
00000110: 00b2 e2bd a685 60bd 87ac 0c3e 441f bbbd
00000120: 6ff2 9fbb 4cd5 2bbd 3706 4f3c 39ed debd
00000130: 9997 f73b 98ac 9bbd dc4e 9dbd 51a8 af3d
00000140: 9ac7 023a 0eca 37bc 5eac 413a 35e7 92bc
00000150: 533f 973d 5f37 fcbd 973b ed3d 6b93 073e
00000160: 266a b2bc ebcd 903b fe61 ed3c 898e 09be
00000170: db88 a13d 0c44 f2bc 9008 93bd 900c e4bd
00000180: ddbc d73d cb8e a73c 1112 edbc 7669 413d
00000190: 87ad be3d a953 a9bd 9a3a 9cbc f68a 953d
000001a0: 3443 2a3d 8caf d5bd a65a acbd 808c 6d3d
000001b0: 5c2d 5fbd 98a4 f8bd 9ab1 95bd 77ef c73c
000001c0: 0bcb c4bd 8334 37bc 98bf 90bd d63e 1bbd
000001d0: 1522 2bbd f196 a93d 7852 aa3b fcdb 383c
000001e0: 4d0b eebd f2ac 093e 74d2 bebc 4dc1 293d
000001f0: 2aed 37bc 262a 553d db2c 433d 1f6c c93c
00000200: c025 2abd c688 6b3d 0437 483d 9897 a8bd
00000210: 1ccb afbd 9f0d e5bd 53be 533d d343 4739
00000220: 6cad e83d bb1b 153e d20d 8abd e12e 573b
00000230: 9094 18bd 3530 913d cca7 84ba 3619 9e3d
00000240: 13f4 b3bd c195 82bd fb12 0cbc bf65 d13c
00000250: 80dc e4bd 6b4f eb3d b9b9 cfbc a873 a53d
00000260: 9df8 61bd 353c 85bd 9317 46bd 3580 e93d
00000270: 9293 723d ce09 d3bd da8f 9bbd 3e66 21bb
00000280: 66bf ddbd 1759 063e b115 18bd 4b3d 20be
00000290: 675e 153d b8fe 8f3d e4ee d03d 5288 c6bd
000002a0: 37ce 51bd f4c6 ed3d e546 03be c9a1 b03d
000002b0: 6ca3 2c3d 7d21 dc3d be80 d03d 567f da3d
000002c0: 7b39 ef3c c013 cc3d f934 48bd 22a2 0e3e
000002d0: 1e5f b63d 1099 95bd 4e36 2f3c 7d1e 7cbd
000002e0: a3c3 a8bd b489 c4bd 7782 b23d d4cd 2e3d
000002f0: 02e2 0b3e 76a8 9f3d de64 0abe dd24 f1bd
00000300: 45e2 ce3d 7524 bdbd 7c89 393d c29e ed3d
00000310: 970f b33d 88b5 bd3d d115 803d 5ffa 4a3c
00000320: a282 47bd c9fa 4ebd 25e3 663d 4aeb c73b
00000330: e53e 863d b5a6 1b3d 2497 7e3d f9e2 873c
00000340: 9d88 1bbd b393 b2bd ba60 06be a3f7 0c3e
00000350: 8722 d1bd cdb8 4cb9 7bb2 67bd 8714 85bc
00000360: c834 a03d 1151 7b3c 70f3 9ebd 3dea bc3d
00000370: 01b3 373c 3f31 083d 8412 afbd 61fa fdbc
00000380: 901a d93c 341b e9bd ec47 96ba 0367 8dbd
00000390: 9c6c e1bd 8f6a 3fbd c888 263d f9d5 d8bd
000003a0: 8bb1 efbc 039e 763d eca9 03bd 18be f0bd
000003b0: cade ecbc d189 c63d d9a9 85bd c813 e93d
000003c0: 3294 033e d0b0 053d 2242 b23d 6cdb 84bd
000003d0: 99af 07be 9093 ef3d 7531 abbd e4df dd3d
000003e0: 4fe5 f7bd 94c5 843d d84e d53c eff8 92bd
000003f0: fafd 9c3d 5428 5abd 4ff2 973b 8624 d53d

lin.bias f4 [10]
0.16559169 -0.04088141 -0.024389992 0.036121257 -0.0957893 -0.033270773 -0.17343184 -0.034162037
-0.011400175 -0.012899347
00000000: de90 293e 4473 27bd 85cd c7bc e2f3 133d
00000010: 2e2d c4bd ef46 08bd 1e98 31be 7eed 0bbd
00000020: cdc7 3abc c857 53bc
