NCC_Code/2022-07-08_13-51-43_model.pt (torch, 114443 bytes, 50 tensors)

conv1.weight f4 [8, 2, 5, 5]
000000 49 f0 44 3d 73 28 0d be 48 77 3d bd ce 21 68 be
       0.048080716 -0.13784961 -0.046256334 -0.22669145
000010 e4 b2 5b 3d dc eb 45 be f1 27 04 3e 03 a0 b2 3d
       0.0536374 -0.19328254 0.12905861 0.08721926
000020 ab 10 a4 3e 6b f7 b6 bd be 00 74 3e 67 74 42 be
       0.32043967 -0.0893391 0.23828408 -0.18989716
000030 32 72 c8 3d 6e 85 c9 be cf d7 df bc a4 fb c8 bd
       0.09787406 -0.3935961 -0.027324585 -0.09813622
000040 21 5b 15 3e f6 83 c5 bd 63 a4 eb 3d 3a 61 25 3e
       0.14585544 -0.0964431 0.11505964 0.1615037
000050 2e d7 c8 3e dd 22 ab be 6b bb b6 3d ff 62 05 3e
       0.3922667 -0.33425036 0.08922466 0.13026045
000060 e2 4c 90 3d 53 e2 02 be da de 9b be bb 03 b6 3d
       0.07045914 -0.12781648 -0.3044346 0.0888743
000070 95 9e eb be b5 1d 94 3c bb da 6d 3e 7a e5 cb 3d
       -0.46019426 0.018080572 0.2322797 0.099558786
000080 12 2d 14 bd 2c a0 61 bd d7 e7 02 bf e7 eb 85 bd
       -0.036175795 -0.055084392 -0.5113501 -0.065391354
000090 8e e8 59 3e f6 f5 c2 3e b4 27 ea bd 63 39 de 3e
       0.21280119 0.38078278 -0.11433354 0.43403158
0000a0 57 0e 59 3e b9 ff 58 bd 67 e0 26 be 31 54 17 3d
       0.21196876 -0.05297825 -0.1629654 0.036945526
0000b0 c1 10 07 3d 78 70 dd 3c b6 61 26 3e 69 d6 23 3e
       0.032974962 0.027031168 0.16248211 0.1599976
0000c0 02 dc c0 bd 39 6f f2 bc 8d 1d b0 bd 44 33 b1 3e
       -0.09416963 -0.02959405 -0.08599386 0.34609425
0000d0 0a cc d0 3d d7 a6 21 be 55 cd 99 be 29 ff c7 3d
       0.10195167 -0.157863 -0.30039468 0.09765465
0000e0 33 60 49 bd d1 53 b2 3e 44 c4 2d bd 27 b9 40 3e
       -0.04916401 0.34829572 -0.0424235 0.1882063
0000f0 f9 9c 6d bd e8 17 92 3c a7 ee dd bd a1 2b 73 be
       -0.05801103 0.017833665 -0.10836535 -0.23747112
000100 aa 09 8b 3d f4 e3 f2 3c 59 80 f4 3d 52 54 98 be
       0.06788953 0.029649712 0.11938543 -0.2975183
000110 c6 83 d9 bb 5c 68 04 3e 8b 1a 26 bd dc b0 dd 3c
       -0.006638023 0.12930435 -0.040552657 0.027061872
000120 37 42 52 be 14 8f 3c bd 7f 49 87 be d0 8a f4 3d
       -0.20533071 -0.046034887 -0.2642326 0.11940539
000130 d7 ac bc 3e 6c c4 0d be eb 1e 2d be ad fb 89 3e
       0.36850616 -0.1384446 -0.16906326 0.26949826
000140 c6 d4 05 be 1c ea cb 3d 54 b7 13 be f7 da ff 3d
       -0.13069448 0.09956762 -0.14425403 0.12492936
000150 5b 58 cf bd ed 15 e6 3d ca 51 99 3e c6 81 a9 3e
       -0.10124274 0.11234651 0.29945213 0.33106822
000160 a4 24 a0 3e eb 70 6b b9 93 24 46 3e bd 47 e5 bb
       0.31277955 -0.00022453412 0.1934989 -0.0069970773
000170 ab 0b ae 3d 90 2b cc be a7 6f 2d be ca 4b 03 be
       0.08498319 -0.39876986 -0.16937123 -0.1282188
000180 ab 6e a2 3b 56 b4 86 be 3e f3 cb be 5d db f3 bd
       0.0049570403 -0.2630946 -0.39834017 -0.119070746
000190 28 75 aa 3d 69 e5 b2 3e c2 7e 3d be 0a f5 94 be
       0.08323127 0.3494065 -0.18505386 -0.290932
0001a0 c5 b8 84 bd 1a fd 88 3e 98 5d 9f 3c 62 b2 15 3e
       -0.064805545 0.267556 0.019453809 0.14618829
0001b0 9b 86 4b be ba 7b 32 be 6d 7c 67 3c 93 ad 97 be
       -0.19875567 -0.1743001 0.0141287865 -0.29624614
0001c0 94 42 c1 3e e0 3c 27 bd c1 62 a1 3e 7c 52 d8 be
       0.37746108 -0.04082954 0.31520656 -0.4225043
0001d0 14 0e 34 3e c4 27 8c be 32 96 7d bd 56 16 5b 3c
       0.17583495 -0.2737409 -0.061910816 0.0133720245
0001e0 47 67 64 3c 72 72 4d 3e fe 19 07 bf 78 3a 96 be
       0.013940639 0.20063189 -0.52774036 -0.29341483
0001f0 97 01 c1 3d 25 47 9b be 9a 8f c7 3d a1 89 69 bc
       0.09424131 -0.30327716 0.09744187 -0.014254005
000200 a2 a1 36 be 7f d0 25 be 08 01 3a be 67 1f 86 bd
       -0.17835096 -0.16192816 -0.18164456 -0.06548958
000210 8e d8 6f be 0f c4 01 3f 9e ad ac be 61 b8 04 3e
       -0.23422453 0.50689787 -0.3372621 0.1296096
000220 35 f5 e2 bc f2 38 55 bc 1a 39 b0 3e 25 97 88 bc
       -0.027704814 -0.013014065 0.34418565 -0.016673634
000230 6e 00 b7 bd 5c f9 6d be fe 12 99 3e 3b 7b a3 bc
       -0.08935629 -0.23239654 0.29897302 -0.019956222
000240 df 80 0a be a7 1c 9f 3c a6 32 62 be 94 cd 85 3c
       -0.13525723 0.019422842 -0.22089633 0.016333379
000250 75 30 68 be 23 2a 62 be 6c f5 df bd 30 fc 51 3e
       -0.22674735 -0.22086386 -0.109354824 0.20506358
000260 13 ba a4 be a7 e4 1e 3e 2a bc b8 be 91 45 84 3e
       -0.32173213 0.15516911 -0.36081058 0.25834325
000270 7b ab 7c 3c ac bb f9 bd dd 07 8d 3d 95 e2 08 3d
       0.0154217435 -0.12193999 0.068862654 0.03341921
000280 69 07 92 3d 64 01 c7 3c 4a cb 8b be f0 3b ff 3d
       0.071303196 0.024292655 -0.27303535 0.12462604
000290 b6 5c d3 bc 94 91 8e 3d a3 05 97 be 37 14 0a 3e
       -0.025801044 0.069613606 -0.29496488 0.13484274
0002a0 9c b2 30 3e ed 4c d5 3d 38 9b 95 be 1f 40 05 3e
       0.17255634 0.10415063 -0.29219985 0.13012742
0002b0 0a cd dc 3d a0 52 4d bd d1 80 f5 bd 40 87 53 3e
       0.107812956 -0.050127625 -0.119874604 0.20657063
0002c0 5c 30 50 be ae c9 25 be da 54 57 3f 0a 65 5c be
       -0.20330948 -0.16190216 0.8411385 -0.21522918
0002d0 5d 83 14 3c 3e cc 14 be 14 41 ad 3e 26 50 79 3e
       0.009064523 -0.14531037 0.33838713 0.2434698
0002e0 7e 1a 1a bd 0f 85 19 be e8 a6 25 be a5 f5 33 3e
       -0.03762292 -0.14992164 -0.16176951 0.17574175
0002f0 6a 06 74 3e 2b 47 44 3e 2e 2b 6c be 45 67 c6 bd
       0.23830572 0.19167773 -0.23063347 -0.09687666
000300 6c 34 0d bc 3b 56 07 bf 93 83 fd 3d 4c 65 25 bd
       -0.008618455 -0.5286595 0.123786114 -0.040379807
000310 53 18 61 3e c8 51 f2 3c 12 a3 1b 3e 24 c3 71 3d
       0.21981935 0.029580012 0.15198925 0.05902399
000320 e9 76 c1 bc fa d0 0e be ee 3e 23 be 1b 28 92 be
       -0.023616271 -0.13946906 -0.15941975 -0.28546223
000330 b3 7e 60 3d fb d9 02 3e 4a 15 3c bc 19 bb 61 be
       0.05480833 0.12778465 -0.011479685 -0.22044028
000340 a1 c8 91 bd 5a 04 cb 3d 5b 0e 95 3c db 78 bc bd
       -0.07118345 0.09912939 0.018195322 -0.09202739
000350 77 78 ec 3d a1 d1 b9 be 11 3f bf bc ef 64 5f be
       0.11546414 -0.36292747 -0.023345502 -0.21815847
000360 c7 e3 99 bd eb 9e e9 3d 1b 73 f4 bd 72 c9 18 3e
       -0.07514148 0.11407264 -0.11936017 0.14920595
000370 4d df 29 3e c3 a2 08 3e 38 4c c9 3b 43 37 0e 3f
       0.16589089 0.13343339 0.006143119 0.5555307
000380 47 45 82 3e 93 f6 1a bd cf 8f a0 be 91 5d 97 3c
       0.2544348 -0.037832808 -0.31359717 0.018477233
000390 26 f1 76 be 79 4b 90 be 81 2d 75 3e da d1 21 3c
       -0.24115428 -0.2818258 0.2394314 0.009876693
0003a0 bc ba 5d 3e a5 b4 37 be 1f 17 be 3e 77 2d 40 3d
       0.21653265 -0.17940004 0.37127015 0.04691836
0003b0 fd f1 75 be fe ef b0 3d f3 db 59 be 32 53 d9 bd
       -0.24018092 0.08639525 -0.2127531 -0.10611571
0003c0 27 ba 2e be b9 e7 f8 bd 81 ac 3c be db 19 19 3e
       -0.17063199 -0.121535726 -0.1842518 0.1495127
0003d0 93 54 a3 bd f8 df 7e be 4a e2 0d 3e bc 4f 0f be
       -0.079751156 -0.24890125 0.13855854 -0.1399526
0003e0 94 35 8e 3e 26 b7 d9 bd 3b e6 b9 be 0e 8a 47 3e
       0.27775252 -0.10630636 -0.36308464 0.19486257
0003f0 fd 35 c1 3c f0 d3 05 3e 85 56 5a be 92 a7 af 3d
       0.023585314 0.13069129 -0.21322067 0.085768834

conv1.bias f4 [8]
000000 06 dc 13 3c 41 1b 24 3c 8e ca ea 3c 95 31 21 3b
       0.009024626 0.010016263 0.028661039 0.0024596204
000010 1f 3c 17 3d 09 39 c1 38 b5 d3 d3 bc 42 0a 40 b7
       0.03692257 9.213581e-05 -0.025857786 -1.144648e-05

bn1.weight f4 [8]
000000 8c 05 7d 3f ac 8f 7d 3f 99 67 81 3f 2e 8e 79 3f
       0.9883659 0.9904735 1.010974 0.97482574
000010 5e eb 82 3f b5 5b 82 3f 3d 6c 7f 3f 6e 35 80 3f
       1.0228078 1.0184237 0.99774534 1.0016305

bn1.bias f4 [8]
000000 e5 95 a2 3c 6e bf 9b 3b db 38 d0 ba a3 96 6e 3c
       0.019846866 0.004753045 -0.0015886085 0.014562282
000010 6c 76 21 3c 74 c3 19 bc d5 c6 09 bc c8 90 4f 3b
       0.009854894 -0.009384979 -0.008409222 0.003167199

bn1.running_mean f4 [8]
000000 28 25 89 3e dd 25 d0 3e ee 83 27 3f d8 d2 91 3e
       0.2678616 0.40653887 0.65435684 0.28481174
000010 fb 76 e0 3e bc 92 c7 3e 42 5e 15 3f 17 8e ad 3e
       0.43840775 0.38979137 0.5834695 0.33897468

bn1.running_var f4 [8]
000000 c1 3d fa 3e 99 05 da 3e ac 32 ea 3e 84 87 03 3f
       0.4887524 0.42582396 0.45741785 0.51378655
000010 89 cc 85 3e fd 74 46 3f 52 2f ee 3f 0d 13 0b 3f
       0.2613261 0.7752226 1.8608191 0.54325944

conv2.weight f4 [16, 8, 3, 3]
000000 0b cb 52 3e 01 28 12 be 72 38 47 bd 68 c4 0a 3e
       0.20585267 -0.14273073 -0.048637815 0.13551486
000010 28 3e 87 be 73 cd 3b 3e 9b af 6a 39 03 ae 00 bc
       -0.2641461 0.18340091 0.00022381397 -0.007853988
000020 b8 d2 88 bb 6d 3a 5d be b3 e2 e2 bd 3a 82 02 be
       -0.0041755103 -0.21604319 -0.11078396 -0.1274499
000030 ce 9c 26 3d 77 b2 cc bc f6 cc 4a bd 8d 91 0d bd
       0.040676884 -0.024987442 -0.049511872 -0.034562636
000040 4f 98 eb bd 83 dd fa bd 33 39 a7 3d 29 5c 8a 3c
       -0.1150366 -0.12249281 0.08165207 0.016889649
000050 52 4d 16 bd 8e 2c ca 3c 5f c9 38 3d af 25 40 be
       -0.036694832 0.024679448 0.045113917 -0.18764375
000060 10 f5 67 3d 84 56 e8 bd b0 5f 9b 3d 20 d5 08 be
       0.056630194 -0.113446265 0.0758661 -0.1336255
000070 e9 ba 6d be 21 d9 43 3e 2a 8e 49 be d3 6b f0 bd
       -0.23215832 0.19125797 -0.19683138 -0.11739316
000080 cd 9d 53 3d 57 5d 00 be 29 1a 49 be 70 ce 7a 3e
       0.051664162 -0.12535606 -0.19638886 0.24492812
000090 40 55 04 3e 45 ac ee bd 04 b2 24 be b7 c3 1f 3e
       0.12923145 -0.116539516 -0.16083533 0.15602003
0000a0 dc 97 85 be 8f e0 30 bd 14 2a 81 bd 4c 01 1e be
       -0.26092422 -0.043182906 -0.06306854 -0.15430182
0000b0 77 d1 0a 3d ff 33 2b 3d 06 c3 aa bc 56 a8 81 3d
       0.033891167 0.041797634 -0.020844948 0.06330936
0000c0 66 6d f0 3d 88 b2 22 3e b6 73 3a 3e c2 6b 46 3e
       0.11739616 0.15888417 0.18208203 0.19377044
0000d0 7b ab e1 bc 6d d4 ed 3e e4 26 9a bd b5 4a 33 3c
       -0.027547589 0.4645113 -0.07526949 0.0109431045
0000e0 89 c4 c0 bd 29 ae 6c be 14 77 55 3e f4 6d 4e 3e
       -0.09412486 -0.23113312 0.20846206 0.20159131
0000f0 40 1d 17 3e b9 2a fb bd a7 28 8d 3d 23 11 c7 be
       0.14757252 -0.12264008 0.068925194 -0.38880262
000100 89 85 6d 3d 12 aa 8a be 01 4b 3d 3e d8 a4 ae 39
       0.057988677 -0.27082878 0.18485643 0.00033310684
000110 d1 1f 50 3e 0f e3 38 3e aa 51 c3 bd 59 ad c2 3d
       0.20324637 0.18055366 -0.095370606 0.0950572
000120 36 1b 16 3e 2f 7f 59 3d 64 18 16 3e ef 03 93 be
       0.14658818 0.053099807 0.14657742 -0.2871394
000130 00 30 f4 3c bc 3e 58 be b5 8b 3c be 52 27 b7 3c
       0.029808044 -0.21117681 -0.18412669 0.022357617
000140 9e d3 01 3e 5c 64 18 bd 13 3d 0c be 16 87 10 3e
       0.12678382 -0.037205085 -0.13695173 0.14114031
000150 f1 e2 aa be 70 f0 0e 3d 5a e3 20 bc 25 db 77 bc
       -0.33376268 0.034897268 -0.00981983 -0.015127932
000160 3b ef 5f 3d 57 3a 17 3e 57 6d fa 3d 72 a2 99 bd
       0.054671507 0.14768349 0.12227886 -0.07501687
000170 14 5c 51 be 97 77 49 bd 95 bd b3 be e0 12 38 bd
       -0.20445281 -0.049186315 -0.35105577 -0.044939876
000180 7e b6 18 bf 83 c1 8a 3e 59 95 ae bd 0f c6 9a bd
       -0.5965346 0.27100763 -0.085245796 -0.07557308
000190 83 ad 8d be d2 51 dd 3c 49 54 88 3e 27 32 27 bd
       -0.2767144 0.027016554 0.26626804 -0.040819313
0001a0 c2 2c ea bc 0f b4 01 3e 72 ce 13 be 54 59 74 3e
       -0.028585795 0.12666343 -0.14434221 0.23862201
0001b0 08 48 c4 bc 62 b1 76 be b8 bb 66 bd 5f ac 12 be
       -0.023960128 -0.24091104 -0.056331366 -0.14323567
0001c0 1a 8c 79 be d4 55 94 be 34 dc 01 be 38 6b 44 be
       -0.24369851 -0.28971732 -0.12681657 -0.19181526
0001d0 e4 ee cb be 38 f3 0e be 33 a2 fa 3d bd 95 ef 3c
       -0.39830697 -0.13959968 0.12237968 0.029246205
0001e0 40 b2 82 be 69 aa 83 be 5e 28 f3 bc 89 eb bf bd
       -0.2552662 -0.2571595 -0.029682335 -0.09371097
0001f0 16 31 71 3e 93 69 53 be 17 5b 24 3e c0 22 8f 3e
       0.23553881 -0.20645742 0.16050373 0.279562
000200 f9 23 3c be 2f 56 4d bd 52 2d 5e be bf 8d 1c 3e
       -0.18373097 -0.05013102 -0.21696976 0.15288447
000210 42 f7 3e 3c 4c aa a7 bc e3 01 95 3b ef 1b 70 3d
       0.011655631 -0.020466946 0.004547344 0.05862039
000220 36 9f 41 be ec b4 8e be c1 69 af 3d 70 7b 95 3e
       -0.1890839 -0.27872407 0.08565093 0.29195738
000230 25 a0 30 3e c0 d8 ee 3c 49 04 e9 3c 8f b7 ca 3d
       0.1724859 0.029156089 0.028444426 0.09898292
000240 96 81 12 3d ab 71 55 3d 09 1a 27 3e 84 fb b3 3d
       0.035768114 0.052110355 0.16318525 0.08788207
000250 66 23 67 bd 69 48 73 3e cb 7f 99 bd 94 78 3e 3e
       -0.056430243 0.23758091 -0.07495078 0.18600684
000260 f3 9a b8 3e f3 68 aa 3e 9a 01 2a 3c 4c 82 5e 3d
       0.36055717 0.33283195 0.010376358 0.05432348
000270 96 f9 a7 be 11 ee 28 3d b4 09 f5 3d 3b e8 d5 3d
       -0.32807606 0.041242663 0.11964741 0.10444685
000280 10 3a a1 3d 2a 25 1a be 54 ee 95 be 36 e2 6d be
       0.07872403 -0.1505324 -0.29283392 -0.23230824
000290 01 3b d8 3d 49 bc cf 3e e4 6f bc be 67 d1 46 bd
       0.10558129 0.40573338 -0.36804116 -0.048539545
0002a0 7d d4 8c bc 94 e0 08 be 4d 88 26 bd 61 bf 5a be
       -0.017191166 -0.1336692 -0.04065733 -0.21362068
0002b0 95 14 08 3e d8 f6 85 3d ce 73 50 3e 1e 48 8e 3e
       0.13289101 0.06541222 0.20356676 0.27789396
0002c0 ff 8e e6 3d bd ad 3c 3e 36 83 33 3d 0a 87 58 3d
       0.11257743 0.18425651 0.043826304 0.05286316
0002d0 13 95 26 3d 35 26 78 3d a6 0c 82 bd e5 ab c3 3c
       0.040669512 0.060583312 -0.06350069 0.023885677
0002e0 d0 e9 92 be 39 36 7a be e4 31 df 3d cc 89 63 be
       -0.2869401 -0.24434747 0.10898188 -0.22220534
0002f0 2b 12 3a be b5 17 01 3e ed 62 9b be 38 9e 8e 3e
       -0.18170993 0.126067 -0.30348912 0.27855086
000300 0a c8 55 3e 51 21 72 3d d3 06 ea be fa a3 f8 bc
       0.2087709 0.059113804 -0.4570833 -0.030351628
000310 75 18 cf 3e ea 63 65 3e 3f aa 7c 3e 3f 6d 8b bd
       0.40448347 0.22401395 0.24674319 -0.068079464
000320 85 b1 1a be b3 d0 9c be 8a 25 f8 bd d5 fc 53 bd
       -0.15106781 -0.30627975 -0.12116535 -0.05175479
000330 d7 3c 96 3e b5 c3 00 be 5f bc 53 3e 13 05 83 3d
       0.29343292 -0.12574656 0.20677327 0.06397452
000340 f0 1b cb 3d 81 d7 8a 3c 32 f4 5b 3e 9e d1 2f be
       0.09917438 0.016948463 0.21479872 -0.17169806
000350 64 f8 4e 3e d8 ba 02 be af b4 d4 3d 12 67 d6 3d
       0.20211941 -0.12766588 0.10386025 0.10468878
000360 3e 91 a0 be 85 ba 89 bc e5 02 ba bd 48 44 14 3d
       -0.3136081 -0.016812572 -0.09082583 0.03619793
000370 de f1 80 bd e1 b9 9f bd 05 29 90 3d 1b 0b 27 3e
       -0.062961325 -0.077991255 0.07039074 0.1631283
000380 55 5b 09 3e 00 97 22 bf 1a 91 36 3d a1 6c 3c 3e
       0.13413747 -0.6351166 0.044571973 0.18400814
000390 b0 37 54 3e ae 79 45 3e 39 d9 17 3e c8 c8 18 3e
       0.20724368 0.19284698 0.14828958 0.14920342
0003a0 d7 b6 5d 3e f1 8b b4 be 21 50 4e 3e 5a cd 8c 3c
       0.21651779 -0.35263017 0.20147754 0.017187763
0003b0 49 de 8f 3d 18 0a 42 3d 41 6d 4b bd cf da 7e 3b
       0.070248194 0.047372907 -0.04966474 0.0038887744
0003c0 ba 4f 69 be 26 a0 4d bd e1 e6 8c be a9 c2 c4 3d
       -0.2278432 -0.050201558 -0.27519897 0.09607441
0003d0 06 65 2c 3e 81 45 17 be 05 f8 a5 bc c7 ca 23 3c
       0.16835412 -0.14772607 -0.020259866 0.009997076
0003e0 35 8e c1 3d 35 4a 50 3e a2 73 fb 3c 1b 6a ad be
       0.09450952 0.20340808 0.030694786 -0.33870015
0003f0 3a 54 ac bd 63 b0 06 3d 45 48 3c 3e da 86 a5 3d
       -0.084145024 0.03288306 0.18386944 0.080823615

conv2.bias f4 [16]
000000 b8 46 ac 39 ca 80 f6 bb 2d 23 a0 3c 30 77 84 ba
       0.00032859086 -0.007522677 0.019548023 -0.0010106321
000010 63 de b1 3b e4 6e 28 bc 62 a3 2c bb 7d 41 07 3c
       0.005428122 -0.010280345 -0.00263425 0.00825536
000020 56 cc 1b bc f3 46 28 bc 4e 2f 1e 38 d6 18 86 39
       -0.009509167 -0.010270822 3.771419e-05 0.00025576976
000030 24 7e 0e 3c 19 35 27 bc 73 78 45 bc d3 6e 6b bb
       0.008697066 -0.010205531 -0.012052643 -0.003592421

bn2.weight f4 [16]
000000 bd 70 7c 3f 06 04 80 3f e8 48 83 3f 6a 94 81 3f
       0.98609525 1.0001228 1.0256624 1.0123417
000010 f5 0c 7c 3f 04 aa 80 3f ad 39 82 3f 20 3f 80 3f
       0.9845727 1.0051885 1.0173851 1.0019264
000020 e4 23 7d 3f 25 3b 7f 3f 9a 5a 80 3f 16 e6 80 3f
       0.9888289 0.9969962 1.0027649 1.0070217
000030 31 5b 7c 3f 93 6c 7f 3f b4 8a 80 3f 13 9d 7c 3f
       0.9857665 0.99775046 1.0042329 0.98677176

bn2.bias f4 [16]
000000 ca 54 9d bb 4b 84 39 3c f9 57 84 bb e3 fa 93 3a
       -0.0048013674 0.011323045 -0.0040388075 0.001128998
000010 a4 35 8d 3b d8 2c 5e 3c f6 ad 8b bc a6 c2 8d 3c
       0.004309373 0.013560496 -0.017050724 0.01730473
000020 38 d4 76 bb d3 71 3f 3a 71 80 ed 3a db bc 10 3c
       -0.0037663113 0.0007303033 0.0018119944 0.008834089
000030 59 4e 37 bc d5 22 0a 3b eb 9d 98 bc d2 8f 8a 3b
       -0.011188113 0.002107789 -0.018629989 0.0042285705

bn2.running_mean f4 [16]
000000 79 8c 0e 3f a0 f5 4b 3f ee f4 50 3f d2 17 e2 3e
       0.55683094 0.7967167 0.81623733 0.44158798
000010 7f 97 f8 3e c0 c5 04 3f 59 4c 33 3f de 26 fa 3e
       0.48553082 0.5186424 0.7003837 0.48857778
000020 7b 9e b3 3e c0 dc ce 3e 08 4c 0a 3f 6e 17 0a 3f
       0.35081849 0.40402794 0.54022264 0.53942
000030 d1 d5 03 3f 12 7e 17 3f 27 4e ad 3e 6a d7 ee 3e
       0.5149813 0.59176743 0.33848688 0.46648723

bn2.running_var f4 [16]
000000 6a d7 e4 3f f7 ad 89 3f 8f e1 10 40 c8 2e 10 3f
       1.7878239 1.0756215 2.263767 0.5632138
000010 7c 3c d6 3e bd 87 04 3f fa b6 93 3f 95 8c 8f 3f
       0.4184302 0.5176962 1.1540215 1.1214777
000020 ac 4e 91 3e 31 84 fb 3e e7 aa c2 3f d3 25 19 3f
       0.28380334 0.49124292 1.5208405 0.5982334
000030 19 3a d0 3e 6a 88 1b 40 da 69 d2 3e 9d 96 31 3f
       0.40669325 2.430201 0.41096383 0.6937044

conv3.weight f4 [32, 16, 3, 3]
000000 48 a2 16 3d 87 00 fe bc 8f d3 9d 3e 7a d4 1d bd
       0.036775857 -0.03100611 0.3082547 -0.03853271
000010 06 61 c5 bc 52 c6 40 3e db bd 8c 3d 49 1e 14 3e
       -0.024094116 0.18825653 0.068721496 0.14464678
000020 1d 92 1f be 73 67 15 3d aa 52 07 3c 0b 45 ed bd
       -0.15583082 0.03647561 0.008259455 -0.115854345
000030 8b d8 02 3e 9e 17 4b 3e 5d 52 ee 3d 37 86 39 be
       0.12777917 0.19833228 0.11636803 -0.18117605
000040 39 88 6f be ea ae 44 3d 1f 5b 1a bd 87 89 0f 3e
       -0.23391809 0.048018374 -0.037684556 0.14017306
000050 42 27 74 3e 37 cb d0 3d 5e 9b a3 bd 0b e1 c8 bd
       0.238431 0.1019501 -0.07988618 -0.098085485
000060 81 3b fa bc 41 b8 be bc 51 7d 1d 3d c1 2f 3e bd
       -0.030545952 -0.023281218 0.03844959 -0.04643226
000070 be 2b 74 be 74 7a c3 bc 22 b6 85 3d 21 28 06 bd
       -0.23844811 -0.023862101 0.0652888 -0.032753114
000080 46 30 57 3e 5c fb ce bd 7f 5a e8 3d 9b e5 5b be
       0.21014509 -0.10106537 0.11345386 -0.21474306
000090 0d 86 31 3d db c5 06 bd 85 0a 90 bd f8 a5 41 bd
       0.04334073 -0.032903533 -0.070332564 -0.04727742
0000a0 7e 05 55 be ec 89 df 3d de b5 c6 3c 74 aa 30 bd
       -0.20802876 0.109149784 0.024256643 -0.043131307
0000b0 12 8c 6a 3c ad ee 2f 3d f6 0b d2 3d 4a 99 95 3d
       0.014315622 0.04295223 0.102561876 0.07304628
0000c0 d0 f3 6c bd 24 c3 ea bd 99 80 43 3e bc 44 b4 3e
       -0.057849705 -0.11463001 0.19092025 0.3520869
0000d0 5c 8c 34 3d 8b a4 ae 3d f5 57 b8 bd 97 3f 9a bd
       0.04407917 0.08527478 -0.090011515 -0.0753166
0000e0 c5 b9 b7 3d f7 7a 1a 3d c3 95 46 3e 93 17 25 bc
       0.089709796 0.037714925 0.19393067 -0.010076421
0000f0 c7 96 42 bd 23 48 cc 3d 7a 71 70 3d 20 b3 88 3d
       -0.047507074 0.099746965 0.05870197 0.066747904
000100 87 e8 96 bd ce 6c 10 bc cf 4e 7a 3e 78 a5 89 3d
       -0.0736857 -0.008815004 0.24444126 0.06721014
000110 30 9c b0 bd 71 57 ee bc a2 3f 9e 3d 44 a7 37 3d
       -0.086235404 -0.02909443 0.07726981 0.04483725
000120 14 a0 ea bd f7 be 19 bc 81 a8 e4 bb a6 7a 88 3c
       -0.11456314 -0.0093839085 -0.006978095 0.016660046
000130 f9 33 85 bd fa 70 47 bc ae 1b 08 3e b1 82 8d 3d
       -0.065040536 -0.012172932 0.13291809 0.06909693
000140 d4 c7 94 3d 95 3e 62 bd f2 83 4f 3d c4 45 6d 3d
       0.07264677 -0.055235464 0.050662942 0.05792786
000150 2e 40 08 3e 47 24 35 3d a5 1e f9 bd 39 b5 d9 3d
       0.13305733 0.04422405 -0.12164048 0.106302686
000160 f2 2b 52 3d 54 08 0f be db ee 47 bd 59 5e c4 bd
       0.05131144 -0.1396802 -0.048811775 -0.09588308
000170 ed 94 1e 3e 7c 5a 93 3d c0 f6 84 3d bd 41 a0 bc
       0.15486498 0.07194993 0.06492376 -0.019562596
000180 22 51 fc bd 29 db ae 3c f0 e4 0f 3e 12 01 18 be
       -0.12320162 0.021344738 0.14052176 -0.14844158
000190 94 1a f6 bd 45 bc b4 3d 09 4c 3b 3d 68 f3 bd bd
       -0.12016788 0.08824972 0.04572681 -0.09274942
0001a0 b9 48 28 3d e9 bb 78 3c dc 19 c0 bd 35 eb 77 3d
       0.04108498 0.01518152 -0.09379932 0.060527045
0001b0 56 67 b3 3d b6 73 2e bd 17 68 f5 3d e3 33 c1 bd
       0.08759944 -0.04259082 0.11982744 -0.09433725
0001c0 8c df 7c bc 87 c1 17 be ad 54 a3 3d 17 13 85 3d
       -0.015434157 -0.14819919 0.07975135 0.06497782
0001d0 cd 52 e5 bd 3b 4b ee bd 9c a2 cd 3d 3f e4 20 bd
       -0.111974336 -0.11635443 0.10040781 -0.039280172
0001e0 04 9d 3a bd 31 c4 bf 3c 22 42 bf bb c8 28 6a 3c
       -0.045559898 0.023408981 -0.005836741 0.01429195
0001f0 69 ca 62 be be 5e 7c 3b 66 08 d5 3c e2 65 ef bd
       -0.22147526 0.003850862 0.026004981 -0.116893545
000200 79 78 36 be 2e 97 8c 3c de 0c f5 3c b1 fc a2 3d
       -0.17819394 0.017161932 0.029913362 0.07958353
000210 70 6b bd 3d 35 6b 64 bc 43 d0 fe bd a0 f4 04 3e
       0.09249008 -0.013941576 -0.124420665 0.12983942
000220 3e ae 24 be 23 aa 46 3e a8 c4 7b bd 51 4d 4e 3d
       -0.16082093 0.1940084 -0.061466843 0.050366703
000230 41 3f 45 3e 52 69 15 3e a8 1f 16 3e 78 2a d4 3b
       0.1926241 0.14590958 0.14660513 0.006474789
000240 53 7f 21 3d 91 78 5a bd 82 55 0b be e0 32 6b 3b
       0.039428066 -0.053337637 -0.13606837 0.0035888478
000250 79 94 ed 3d 85 2e 25 3e 5e c9 42 bd 97 56 fc bd
       0.116005845 0.16131027 -0.04755532 -0.12321203
000260 24 ac 5f be dc 33 b9 3d 9e 82 e5 bd c4 3c 89 3e
       -0.2184301 0.090430945 -0.11206554 0.26804173
000270 a4 c6 36 bd 9c 70 35 bd cd 32 09 bd e7 80 0a be
       -0.044623032 -0.044296846 -0.033495713 -0.13525735
000280 68 ba 89 bc 7a 13 37 3d ab e3 0b bd a5 b2 4f 3d
       -0.016812518 0.04469631 -0.034152668 0.050707478
000290 58 6c 06 3e fe f6 1c 3e a6 16 91 bd 5f d7 82 be
       0.13127267 0.15328595 -0.07084398 -0.2555494
0002a0 d5 dd 8a bd f7 85 f2 3c 41 51 0b be c6 69 d6 bd
       -0.06780592 0.029604895 -0.13605215 -0.104693934
0002b0 0e e7 09 3e 56 12 90 be 40 aa d9 bd f7 0d 66 3e
       0.13467047 -0.2813899 -0.10628176 0.22466265
0002c0 81 34 f3 b9 e7 80 04 3e c5 78 1b bd c6 d4 6a 3d
       -0.0004638769 0.12939797 -0.03795697 0.057331823
0002d0 60 18 aa 3c 10 35 03 3d d3 35 fc 3d 76 ae 30 3c
       0.020763576 0.032033026 0.12314954 0.010783782
0002e0 6b c7 76 3e 96 1b 7c be ca 20 f6 3d b5 55 4c bd
       0.2409951 -0.24619898 0.12017973 -0.049886424
0002f0 7e 20 43 bc ae 15 aa 3d b6 8b 4a bd 45 cc 90 bc
       -0.011909602 0.08304916 -0.049449645 -0.017675528
000300 fd d3 5a bd be 31 8b bd 51 d2 cc bd 6a ac 83 3d
       -0.053424824 -0.06796597 -0.10001052 0.0642937
000310 ae 21 10 3d 52 0b d2 bd c4 7b e8 3d 5d 94 b8 3d
       0.03518837 -0.102560654 0.113517314 0.09012673
000320 a4 2b c1 bd f1 9a af bd 5e 96 e7 bb 35 79 58 bd
       -0.09432152 -0.085744746 -0.0070674857 -0.052849967
000330 47 4a 83 3d 71 9a 2c bc 77 60 38 be fa b6 b3 bc
       0.06410652 -0.010534869 -0.18005548 -0.021937836
000340 b7 8b 18 be 65 07 91 bd 8c ff 89 3d 8e 13 00 be
       -0.14897047 -0.070814885 0.06738195 -0.1250746
000350 7c 80 2b 3d 41 05 d0 bc d6 ef 0c 3e 22 3c 38 3d
       0.04187058 -0.02539313 0.13763365 0.044979222
000360 6b 88 d6 3d 57 78 9b 3c a8 f7 b3 3d ef 4d 56 3d
       0.104752384 0.018978281 0.08787471 0.052320417
000370 e4 85 61 be 4e ac 11 bd cd ed 7c bd 12 37 3f 3d
       -0.22023731 -0.035564713 -0.061750222 0.04668338
000380 68 1c 57 bd 31 9c 8e be b4 f5 76 bd 04 1d 46 bd
       -0.052517325 -0.2785354 -0.060292915 -0.048367515
000390 91 ee 8a 3d 7c fb 81 bd 98 ea 38 3d 39 55 89 3d
       0.06783784 -0.06346795 0.0451456 0.06705708
0003a0 b8 9b 3c bb 8b 01 cd 3c a2 29 d7 3d c9 4e 22 3d
       -0.002877934 0.02502515 0.10505988 0.039625917
0003b0 89 bd 18 3d 0c e0 2f be df b1 b5 3d 60 a8 8f 3d
       0.03729013 -0.17175311 0.08871817 0.07014537
0003c0 29 7a 2e 3d 9b 51 a1 bd 87 33 3b be 79 ab 0b 3e
       0.04259697 -0.07876893 -0.18281375 0.1363963
0003d0 ee eb 3d 3d 09 0b 12 3e c1 2e 3f 3e 75 d3 a7 3d
       0.04636758 0.14262022 0.18670179 0.08194629
0003e0 d8 f0 6b 3d e6 0b f3 3d 60 44 d6 bc 6f 17 fd 3c
       0.057602733 0.11867504 -0.02615565 0.030894963
0003f0 81 b8 cc 3d a7 90 b4 3d bb e8 e1 3d 82 af 00 3e
       0.09996129 0.08816653 0.11030718 0.12566951

conv3.bias f4 [32]
000000 a3 66 56 bb e6 82 55 3c d5 9c b0 3b 92 b5 51 bc
       -0.0032714985 0.013031697 0.0053897896 -0.012799637
000010 47 09 a9 bc 2a 0f bb bb 25 1a 88 3c 7e 6c 5f 3c
       -0.020634307 -0.005708595 0.01661403 0.013636706
000020 49 a1 cb 3b 85 e8 b4 3b 65 7b 0a bc 88 d3 ef bb
       0.006214295 0.0055208826 -0.008452271 -0.0073189177
000030 02 3c 98 bb a2 bd 49 3c 00 fb 42 3c a7 94 fa bb
       -0.0046458254 0.012313278 0.011900663 -0.0076471153
000040 38 fa cb ba e2 c6 7c bb c8 fd 2c 3c 3e 9b 43 3c
       -0.0015562242 -0.0038570692 0.010558553 0.011938868
000050 45 44 ad 3b 52 8a 8f 3c d0 01 3d ba c4 79 80 3c
       0.0052876794 0.017522011 -0.0007210048 0.015683062
000060 80 ef 66 bb 9e f3 16 3b db cc 0b bb 2d a0 87 3c
       -0.0035237968 0.002303339 -0.002133182 0.01655587
000070 d8 26 17 3c 68 be 54 3c 8e df 84 3c 5d cb c1 3c
       0.00922557 0.0129848495 0.01621988 0.023656541

bn3.weight f4 [32]
000000 f1 26 80 3f ee 89 7e 3f c5 ff 7b 3f d5 46 7c 3f
       1.0011884 0.99429214 0.9843715 0.9854558
000010 e0 90 81 3f bd 90 7c 3f 27 8f 7b 3f 64 95 7c 3f
       1.0122337 0.98658353 0.9826531 0.9866545
000020 6b 21 7e 3f 72 21 7f 3f 25 12 79 3f db 6a 82 3f
       0.9926974 0.9966041 0.9729331 1.018886
000030 88 27 7f 3f 47 fa 7d 3f 5f 28 84 3f 1d 38 80 3f
       0.99669695 0.9921002 1.032482 1.0017124
000040 8c 3f 7e 3f e2 50 7f 3f f0 a5 7d 3f 4f 5b 81 3f
       0.99315715 0.9973279 0.99081326 1.010599
000050 f6 19 7f 3f b1 cf 7f 3f d5 6b 81 3f 69 e4 80 3f
       0.9964899 0.99926287 1.0111033 1.0069705
000060 11 6b 7f 3f d4 00 7d 3f 06 8a 7e 3f b1 9f 82 3f
       0.99772745 0.9882939 0.9942936 1.0204984
000070 a4 d8 80 3f ae cc 80 3f 0b 13 82 3f 70 dc 7e 3f
       1.0066113 1.0062463 1.0162061 0.9955511

bn3.bias f4 [32]
000000 c8 0f 59 ba 2c c7 79 3a 10 b3 8a 3b 7a ba 3b bc
       -0.00082802447 0.0009528275 0.0042327717 -0.011458034
000010 c6 27 95 bb 36 0a 75 bc 81 07 61 3c f5 e4 f2 3b
       -0.0045518605 -0.014956048 0.013734699 0.0074125477
000020 d3 dd 0a 3b 76 a4 26 3b 3c bb 4c 3b c5 c5 6e bb
       0.0021189346 0.0025427616 0.003123953 -0.0036433798
000030 9c 1c 67 bc 15 38 72 3c bc 16 64 bc 3b 8a 7e 3c
       -0.014105942 0.014783879 -0.013921436 0.015535886
000040 54 3e 3c bc c6 4d 7a 3b 10 8d 6d 3c 0f 73 5c 3b
       -0.01148947 0.003819333 0.014498964 0.0033637916
000050 09 9e bc 3c a6 20 31 bc c3 6f a6 bb fd bd 31 3c
       0.023024576 -0.010811007 -0.005079241 0.010848519
000060 6a 74 1f 3c a7 cf 92 bb 8a 88 66 bb c8 f2 ae bc
       0.009732345 -0.0044803205 -0.0035176598 -0.021356001
000070 50 01 7e bb 55 b8 87 3c f9 59 78 bc 9d 14 92 3c
       -0.0038758107 0.016567389 -0.01515817 0.017832095

bn3.running_mean f4 [32]
000000 11 b4 1d 3f f6 d7 13 3f fc c6 01 3f 6f 93 06 3f
       0.61602885 0.57751405 0.5069425 0.52568716
000010 e0 ab 0f 3f ec 4d d1 3e 26 22 43 3f 99 62 42 3f
       0.56121635 0.40879762 0.7622398 0.759317
000020 7a 43 5e 3f df 82 dd 3e 31 0a 18 3f c3 32 da 3e
       0.8682171 0.4326391 0.5939055 0.42616853
000030 a0 3c 12 3f 81 c2 ac 3e 27 c1 cb 3e 05 15 02 3f
       0.57123756 0.33742145 0.397958 0.50813323
000040 9f 05 04 3f 40 6b bd 3e 26 61 e5 3e 14 fb 18 3f
       0.5157108 0.36995888 0.4480068 0.59758115
000050 46 df 16 3f 6a c4 23 3f d4 f8 0c 3f 5a 72 f2 3e
       0.5893444 0.6397158 0.5506718 0.47352868
000060 d3 ca 94 3e 18 a7 fe 3e f3 58 bd 3e a3 d1 0f 3f
       0.29060993 0.49736857 0.36981925 0.56179255
000070 04 00 b2 3e a5 8b 29 3f f6 60 23 3f 6e c9 6e 3f
       0.34765637 0.66228706 0.63819826 0.9327611

bn3.running_var f4 [32]
000000 2c fc a0 3f 14 ae 18 3f 34 82 b1 3e 93 0c 21 3f
       1.2576957 0.5964062 0.3466965 0.6290981
000010 30 20 3d 3f fc fb 1f 3f ca 54 8c 3f ac 0f 79 3f
       0.7387724 0.6249387 1.0963376 0.9728954
000020 26 54 2f 3f 54 5f d5 3e 61 8c 5d 3f 8f 0b 11 3f
       0.68487775 0.41674292 0.86542326 0.5665826
000030 db 06 dd 3e 56 a6 cc 3e d8 ec e1 3e 26 a1 36 3f
       0.43169293 0.39970654 0.4412601 0.71339643
000040 3a ac ce 3e d4 2b e1 3e 36 bc ae 3e 39 b0 39 3f
       0.40365773 0.4397875 0.3412797 0.7253452
000050 69 a9 1a 3f d4 e4 2f 3f f5 e8 14 3f 24 04 1c 3f
       0.6041475 0.6870854 0.58167964 0.6094382
000060 9b c7 95 3e 43 ab 25 3f e3 ca fc 3e 26 b0 43 3f
       0.2925385 0.6471445 0.4937354 0.76440656
000070 cf 26 ba 3e 9a 80 74 3f 09 9b a8 3f 20 dc c8 3f
       0.36357734 0.9550873 1.3172313 1.5692177

conv4.weight f4 [64, 32, 3, 3]
000000 5e 8b d3 bd 03 37 69 3d 71 70 84 3b fb 06 c9 3d
       -0.103293166 0.05693723 0.0040417244 0.098157845
000010 f5 dc 62 bd 54 72 4a bb 48 a9 94 bd bf 16 cc bd
       -0.055386502 -0.0030890899 -0.0725885 -0.09965276
000020 f1 54 e9 bd 3b cf d1 3d 96 45 d5 3b 5b a8 7b 3d
       -0.113931544 0.10244604 0.0065085394 0.061439853
000030 02 05 7d 3b ab 0f fc bb 10 14 a1 3c 29 60 8f bd
       0.0038607721 -0.0076922975 0.019662887 -0.07000763
000040 b4 1b 7f 3d 89 1a 05 3e 69 da 61 3c 37 3a f4 bd
       0.06228228 0.12998404 0.013784983 -0.11925166
000050 33 c2 a8 bd 77 08 08 bc fe cb 4c bd 8a 9f d1 bc
       -0.082401656 -0.008302799 -0.04999923 -0.02558877
000060 c9 35 24 bc b4 48 9a bd 84 4a 68 3d 36 f3 c8 bc
       -0.010022589 -0.07533398 0.05671169 -0.024530035
000070 9a ec 10 3e 7b 8b 9a bd f2 63 a2 bd 5d 45 48 3c
       0.14152756 -0.07546135 -0.07929219 0.012223569
000080 a2 4a d4 bd f7 d3 0a 3d f2 d3 c0 bc f8 ac 02 bd
       -0.103657976 0.03389355 -0.023538563 -0.031903237
000090 5c b2 ac bd f6 70 21 bc 33 37 a8 ba 67 f7 1b 3e
       -0.08432457 -0.009853592 -0.0012833833 0.15231095
0000a0 d9 45 b3 3b 03 d1 c6 3d 4d a1 ff bd e8 a3 fe 3c
       0.005470973 0.097078346 -0.124819376 0.031084016
0000b0 45 10 af 3d 23 db 28 bd 89 18 68 bd 69 6a 14 3e
       0.08548025 -0.04122461 -0.056664024 0.14493717
0000c0 49 ca ca bd 20 10 4a 3d 50 37 5b bd 12 de b7 3d
       -0.09901864 0.049331784 -0.053519547 0.089779034
0000d0 30 1c 16 3c cd 35 14 3c 3a 00 0d be fe c4 81 3d
       0.009161994 0.00904603 -0.13769618 0.063364014
0000e0 16 5c bf 3d c4 62 e3 39 9a e1 fc 3d 22 20 b7 3d
       0.09343736 0.000433704 0.123477176 0.08941676
0000f0 f9 92 3b 3c 65 cd c7 bd c7 7d 9f 3c dc ab ce bd
       0.011448615 -0.09755973 0.019469155 -0.10091373
000100 58 ca 4d 3e 06 9c f8 3b 9e 78 70 bd 72 25 1e bb
       0.2009672 0.007586959 -0.05870878 -0.0024131206
000110 e1 d0 29 3d 73 e0 b7 bc 33 3d a0 3e 80 ce ad 3d
       0.041458968 -0.022445893 0.3129669 0.084866524
000120 51 35 77 3d 77 26 9b bd 6f d2 86 3e bc 8c 24 3c
       0.06035358 -0.07575696 0.26332423 0.010043319
000130 fb 72 25 bd 73 bb 03 be 39 d1 72 bd 16 74 bd 3a
       -0.040392857 -0.12864475 -0.05928156 0.0014454152
000140 13 ab 17 3d 61 fa 37 bd 10 4a f4 3d 46 71 cc bd
       0.037028383 -0.044916514 0.11928189 -0.09982543
000150 e5 09 00 3e 48 25 db 3d e2 1e fd 3d db da 28 be
       0.12503774 0.1070047 0.12359406 -0.16489737
000160 cd 13 41 bd c6 43 63 bd 63 bd 47 bd e1 a8 85 3d
       -0.047138024 -0.055484556 -0.048764598 0.06526352
000170 23 51 1e be e1 0d 6d 3d b1 75 16 3d c9 23 ce bd
       -0.15460639 0.057874564 0.036733333 -0.10065419
000180 25 5b 05 3e 0a c7 77 3d 13 9d 59 bc 77 37 74 3c
       0.1302305 0.060492553 -0.013282078 0.014905802
000190 ca 58 5e 3e c9 c8 15 bd 57 de 49 bd 1a 6d 57 3d
       0.21713558 -0.036568437 -0.049284305 0.05259428
0001a0 24 e2 01 bd 74 1d ee bd be ec 93 3d 84 25 8d 3d
       -0.031709805 -0.116267115 0.07222889 0.06891921
0001b0 f6 f6 a3 bd 6c f5 2f bc 93 0e 7d 3c 2e c4 5b bd
       -0.080060884 -0.0107396655 0.015445369 -0.05365389
0001c0 23 48 2a 3d 3f d3 b6 3c bd 11 d2 bd ad 69 7b bd
       0.0415727 0.022317527 -0.102572896 -0.061380077
0001d0 91 f6 cf 3c f2 f6 eb ba 5e 85 48 3e 59 91 31 3d
       0.025386127 -0.0018002673 0.19582126 0.043351505
0001e0 10 08 11 3d 71 7c 33 3d 74 08 90 3d 6e e8 2b bd
       0.03540808 0.04381985 0.07032862 -0.04196971
0001f0 12 c0 a1 bd 7a fd aa 3d 13 2b 69 3b 43 e8 ae bc
       -0.07897963 0.08349128 0.0035578653 -0.021350985
000200 58 58 47 3e 87 43 ea 3d 37 5c 81 3d cc 98 d2 3c
       0.19467294 0.11438661 0.06316417 0.025707625
000210 7e ac 0b 3e 1c ba 10 3d 69 66 6d 3c 18 a8 a2 bd
       0.1364002 0.035333738 0.0144897485 -0.079422176
000220 ee 0c 65 bd 5b a0 0e be 63 ef 61 bc 47 20 1d bd
       -0.055920534 -0.13928358 -0.013789984 -0.03836086
000230 30 a6 b8 3b a7 7f 63 3d 55 12 79 bd aa 18 dd 3d
       0.0056350455 0.05554166 -0.0608085 0.1079572
000240 4b c0 03 ba 30 40 4f 3c 03 47 bc bc 27 4b b1 bd
       -0.00050259073 0.012649581 -0.02298308 -0.08656912
000250 7e 32 a1 bc ed d8 10 be 71 c9 51 be c2 00 8f 3c
       -0.019677397 -0.1414525 -0.20487 0.017456416
000260 fe f4 93 3d f4 21 d4 3d ff 8e 9d bc 8b cb 21 3d
       0.07224463 0.103580385 -0.019233225 0.039500754
000270 8c de b7 3c b2 39 0f 3e 5f 5a d0 bc 11 d7 74 3d
       0.022444986 0.13986853 -0.025433717 0.059775416
000280 45 3b 16 3e 80 a6 00 3d 5a 14 24 3e a1 c8 27 3e
       0.14671047 0.031408787 0.16023389 0.16385128
000290 f3 7d 37 3e af b3 ce ba 02 89 10 3e 7d 34 89 3d
       0.1791914 -0.0015770103 0.14114764 0.066994645
0002a0 5e df a5 bd 4f e5 83 3b b5 c9 3e bd d5 92 7d 3d
       -0.080992445 0.0040251384 -0.04657908 0.061907608
0002b0 0d 62 11 3e 8e 77 e6 3c d5 83 c7 bc e1 e5 31 bc
       0.1419756 0.02813318 -0.024354855 -0.01085803
0002c0 95 cd 75 bc 20 bb d0 bd ee fe a9 3c f6 10 9f bc
       -0.015002628 -0.10191941 0.020751443 -0.019417267
0002d0 73 dc 0e 3e 7f 92 d6 bc a6 54 b8 3d cd e8 0d 3e
       0.13951282 -0.026192902 0.090005204 0.13858338
0002e0 f5 fa ae 3d d0 01 11 3d 07 5d 2f 3e 9a 55 0d 3d
       0.0854396 0.03540212 0.17125331 0.034505464
0002f0 5f fd f9 bb 6b 54 ce bd 54 a9 20 3d f7 8b 56 3c
       -0.007629081 -0.10074695 0.039223984 0.013094894
000300 df 8d ad 3d 93 7c 50 bd bc 7a 83 bd 1b a6 1d be
       0.084743254 -0.050900053 -0.06419894 -0.15395395
000310 7e 34 6e bc 4e 6b c5 3d 09 87 9c 3d 56 61 c5 bd
       -0.014538882 0.09639607 0.076429434 -0.09637706
000320 51 91 a5 bd 73 16 c1 bc 31 96 d1 bd c8 e9 cb bd
       -0.080843575 -0.023570275 -0.10233725 -0.099566996
000330 fd b9 6d 3d e3 6e aa bd 33 10 90 bd 53 b1 5e bd
       0.0580387 -0.08321931 -0.0703434 -0.05436833
000340 1e 3d e2 3d 38 05 3e 3e 9b 80 07 be 03 2e 95 3d
       0.110468134 0.18556678 -0.13232653 0.07284167
000350 cc e6 b1 3c 22 90 7f 3d d2 36 34 bc c5 d8 40 3d
       0.021716498 0.062393315 -0.010999398 0.047081728
000360 30 8b c5 bd ce 5e f3 bc da fe 00 3e 3c 3c ef bc
       -0.096456885 -0.029708292 0.12597218 -0.029203527
000370 65 34 9d bd 8f 27 10 3d 7c 23 96 3b de 1d 44 bd
       -0.07676009 0.035193976 0.004581867 -0.047880046
000380 56 41 08 be e6 81 ca 3a 76 41 08 3e 98 a0 05 3d
       -0.13306174 0.001545009 0.13306221 0.032623857
000390 fe 0f 3e ba 05 0c e1 bd d8 3d d3 3d 35 60 4c be
       -0.0007250308 -0.10988621 0.1031453 -0.19958575
0003a0 99 9b 16 bc 0a c9 a7 3d b9 29 d1 3d 29 ec ad 3c
       -0.009192371 0.08192642 0.10213036 0.021230774
0003b0 5a 58 3c be 23 78 ab 3d 74 fc 0f bd 15 6d bc bc
       -0.18393078 0.08372524 -0.035152867 -0.023001233
0003c0 91 07 1a 3e b0 ab ba bd c9 e6 06 be 47 18 ec 3d
       0.15041949 -0.09114778 -0.13173975 0.11528068
0003d0 95 f7 c3 3d 50 61 44 3c cf 7f 15 be ba 08 8c bd
       0.09568707 0.011986092 -0.14599536 -0.06837602
0003e0 1a 62 82 bd f6 e9 07 3c 20 53 dc bd b0 66 cf 3d
       -0.06366368 0.008295527 -0.10758042 0.10127008
0003f0 41 83 a4 3b fa 4a 2f 3d 09 f2 d3 3d 92 bd 46 bd
       0.0050205295 0.042796113 0.10348899 -0.048520632

conv4.bias f4 [64]
000000 0d ff 3a 3c ef 90 98 3b bd 11 c7 bb 22 81 b2 3c
       0.011413348 0.0046559493 -0.0060751126 0.021790091
000010 b4 44 2b 3b 94 12 17 3c 16 8c 0d 3b 10 ab 9b 3c
       0.002613348 0.009220738 0.002159839 0.019002467
000020 a0 d4 37 3c 79 d5 07 bc 88 63 0b 3c 15 c4 f1 3b
       0.011220127 -0.008290642 0.008507617 0.007378111
000030 a1 6c 3f 3c a5 4e 16 3c 47 fa 10 3c 95 81 87 ba
       0.011683614 0.009174024 0.008848733 -0.0010338301
000040 dc 21 5e 3c 2e ca 53 39 2c d3 9d bb 19 96 b2 3b
       0.013557877 0.00020197846 -0.0048164334 0.005450022
000050 3f 2d 83 bb 34 73 9e 3c 55 f7 55 3b c5 97 16 3c
       -0.0040031965 0.019342043 0.0032648642 0.009191458
000060 9d 28 80 3b a8 69 4c bc 87 0e 25 3c 09 ad c0 ba
       0.0039110915 -0.012476362 0.010074264 -0.0014700006
000070 29 aa ee 3a d8 88 b6 3c 0e a1 e7 ba fb d3 34 bc
       0.0018208671 0.022282049 -0.0017671899 -0.011036868
000080 e0 36 05 3a c9 ca 61 3c 77 e7 88 bb 89 e4 92 b9
       0.00050817244 0.013781258 -0.0041779834 -0.00028017562
000090 45 f7 82 3c 2c 2f 13 bb 51 88 23 3c ee 64 99 3c
       0.015987048 -0.0022458537 0.009981231 0.018724885
0000a0 ae 5f 8a 3c 78 44 ea 3b 2a 63 2f bb a9 02 84 3c
       0.016891327 0.0071492754 -0.0026761987 0.01611455
0000b0 20 7d 30 3b f2 79 6f bb 34 e6 e0 3a ae 60 88 3c
       0.002693005 -0.003654119 0.001715845 0.016647663
0000c0 6b 44 b8 3b 94 12 1a 3c 59 6f 0d bc 79 b4 db 3b
       0.0056233904 0.009403843 -0.008632504 0.0067048636
0000d0 59 3c b3 bb 99 66 3f bc da a7 23 bb 50 88 ae 3b
       -0.0054698405 -0.011682176 -0.0024971873 0.0053263083
0000e0 59 50 d9 bb f5 d0 36 bc bd 68 c4 bb b6 b4 f1 3b
       -0.0066318926 -0.011158218 -0.005993931 0.0073762788
0000f0 08 cb 8b bb 4e cf 04 bc 84 24 39 ba 78 ed a2 3c
       -0.0042661466 -0.008106066 -0.0007062631 0.019888625

bn4.weight f4 [64]
000000 87 a8 86 3f 2c 72 81 3f e0 3d 82 3f 0d c2 84 3f
       1.052018 1.0112967 1.0175133 1.037172
000010 d9 35 80 3f d1 07 82 3f f8 f9 82 3f d4 af 81 3f
       1.0016433 1.0158635 1.0232534 1.0131783
000020 d2 87 80 3f 1c 46 7c 3f 47 1f 81 3f 18 a5 81 3f
       1.0041449 0.9854448 1.008767 1.0128508
000030 67 ad 80 3f ae 50 80 3f d7 57 82 3f b3 66 83 3f
       1.0052918 1.0024621 1.0183057 1.0265716
000040 a5 c5 84 3f 94 b2 81 3f 33 38 81 3f c2 8c 84 3f
       1.0372816 1.0132623 1.0095276 1.0355456
000050 6c e0 80 3f f1 30 85 3f 05 99 7f 3f bc a6 7f 3f
       1.0068488 1.0405561 0.99842864 0.9986379
000060 38 60 80 3f 66 61 81 3f 26 d3 81 3f 7d 6e 81 3f
       1.0029364 1.0107849 1.0142562 1.0111843
000070 dc e7 7e 3f f5 dc 81 3f 36 2d 7a 3f a0 e0 81 3f
       0.9957254 1.0145556 0.97725236 1.0146675
000080 44 97 84 3f 96 29 7c 3f d0 37 80 3f 68 13 80 3f
       1.0358663 0.98500955 1.0017033 1.0005922
000090 8b 2f 80 3f cc 18 81 3f bc de 7e 3f f6 66 7d 3f
       1.0014509 1.0085692 0.99558616 0.9898523
0000a0 00 7c 84 3f c2 a6 7e 3f a1 7a 7e 3f 12 f7 81 3f
       1.0350342 0.994732 0.99405867 1.0153525
0000b0 4f ba 81 3f 47 34 82 3f aa ef 7e 3f 07 cc 85 3f
       1.0134982 1.0172204 0.9958445 1.0452889
0000c0 f1 e4 7b 3f 30 5a 83 3f de c4 82 3f cd 07 7f 3f
       0.9839621 1.0261898 1.0216329 0.9962128
0000d0 5b c3 80 3f 9a fb 82 3f f3 6b 81 3f 81 e1 80 3f
       1.0059618 1.0233033 1.0111068 1.0068818
0000e0 e9 eb 80 3f 15 20 80 3f 3a 8d 81 3f 39 7f 83 3f
       1.0071994 1.0009791 1.0121224 1.02732
0000f0 27 06 83 3f 80 ed 80 3f 6d 2a 80 3f 67 1a 85 3f
       1.0236253 1.0072479 1.0012947 1.0398682

bn4.bias f4 [64]
000000 1b 8f 86 3d 1d cb 47 3d c2 62 8b bd dd ac 71 3d
       0.06570264 0.04877769 -0.06805946 0.059002746
000010 78 3a 77 bd 04 9c 83 3d e5 12 4a bd d4 f6 7f 3d
       -0.060358495 0.06426242 -0.049334425 0.062491253
000020 72 23 8b 3d b7 5a 85 bd 96 a2 82 3d 21 93 7a bd
       0.0679387 -0.06511443 0.06378667 -0.06117547
000030 9d 6e 50 3d 7f 9b 77 bd f5 3e 73 3d fd f5 6c 3d
       0.05088674 -0.060451027 0.059386212 0.05785178
000040 06 ae 18 bd 14 fc 76 3d a9 4f 45 3d a9 40 78 3d
       -0.037275337 0.060298994 0.048171673 0.06060854
000050 96 78 77 bd b0 f5 77 3d 10 59 53 3d c7 de 7c bd
       -0.060417734 0.06053704 0.05159861 -0.061735895
000060 5f 0d 5b bd 14 87 88 3d b6 e2 84 3d ab 1d 6d 3d
       -0.05347955 0.06666389 0.06488554 0.05788962
000070 3d 2e 7c 3d d6 67 54 3d 40 a3 6f 3d aa 08 80 3d
       0.061567534 0.05185684 0.058505297 0.062516525
000080 e4 02 6b 3d cd b7 5d bb 4d 17 c8 bc 34 40 86 3d
       0.057375804 -0.0033831478 -0.024425173 0.065552145
000090 51 f7 75 bd 25 5b 73 bd e8 29 6c bd 61 f3 68 bd
       -0.060050312 -0.059413094 -0.057657152 -0.05687273
0000a0 58 28 54 3d 07 42 51 bd 84 cb 86 3d 6b b1 78 bd
       0.051796287 -0.05108836 0.06581786 -0.060716074
0000b0 cb 22 80 bd 31 0c 78 3d 2a 3a 7b bd 94 26 40 3c
       -0.06256636 0.0605585 -0.061334766 0.011727948
0000c0 a4 4e 33 bd bd c2 07 3d 2f 97 72 3d 26 77 7a 3d
       -0.04377617 0.0331447 0.05922621 0.061148785
0000d0 5f 30 86 3d 47 23 cd bc 86 54 76 3d af 31 48 3d
       0.06552195 -0.025041236 0.0601392 0.048875507
0000e0 fc 03 5c bd 41 c6 46 bc c7 0d 87 bd d9 bc 7a 3d
       -0.053714737 -0.012132228 -0.06594425 0.061215255
0000f0 98 ea 23 3d 9e 04 80 3d 15 0b 82 bd ed f8 41 3d
       0.040018648 0.06250881 -0.0634977 0.047356535

bn4.running_mean f4 [64]
000000 ba e3 2a 3f c9 18 24 3f 49 6c 02 3f 80 11 41 3f
       0.66753733 0.6410032 0.5094648 0.7541733
000010 87 19 00 3f d9 cb 0a 3f 71 8b 44 3f a3 2e 0e 3f
       0.5003895 0.54217297 0.7677527 0.5553991
000020 6b 78 37 3f 59 6c 04 3f 23 87 47 3f 77 76 04 3f
       0.7166812 0.51727825 0.7794058 0.51743263
000030 57 b2 00 3f 3c 47 e5 3e 3e 32 1e 3f 8d 9b 20 3f
       0.50272125 0.4478091 0.61795413 0.6273735
000040 24 6c 21 3f df 30 dd 3e ec 71 f1 3e 56 7a c9 3e
       0.63055634 0.43201348 0.47157228 0.39351147
000050 60 e2 0a 3f 2c bf 42 3f ee fd b4 3e 36 89 33 3f
       0.5425167 0.76072955 0.35349983 0.7013124
000060 4d 0a 98 3e 21 33 11 3f 8c e1 12 3f c8 b0 25 3f
       0.2969536 0.5671864 0.5737541 0.6472287
000070 ac 77 07 3f 10 6e fd 3e 91 bf 1c 3f a4 1a 4a 3f
       0.5291698 0.49498034 0.6122981 0.789469
000080 a2 cc 0c 3f 78 24 ce 3e 7a 51 c0 3e 74 08 da 3e
       0.54999745 0.40262198 0.37562162 0.42584574
000090 0d da f4 3e 2a ed 2b 3f 8f c3 1d 3f bf 18 41 3f
       0.4782261 0.6715876 0.61626524 0.75428385
0000a0 97 80 34 3f be 28 bc 3e 1a 5f 07 3f 74 35 47 3f
       0.7050871 0.36749834 0.5287949 0.7781594
0000b0 2a bc f7 3e bf ff 04 3f 2a c1 2c 3f e3 73 10 3f
       0.48385745 0.5195274 0.67482245 0.5642683
0000c0 7f 05 4c 3f 08 bc 25 3f c1 37 2d 3f 38 25 34 3f
       0.79695886 0.6474004 0.676632 0.7036929
0000d0 95 51 16 3f 4d b4 0e 3f 0f 5b 10 3f 53 2f eb 3e
       0.58718234 0.5574387 0.56388944 0.45934543
0000e0 78 71 f2 3e bd be c8 3e 42 39 0c 3f 3c a2 55 3f
       0.47352195 0.39208022 0.5477487 0.83450675
0000f0 3f d9 e3 3e 87 b2 25 3f bb 2b fd 3e cf 08 25 3f
       0.44501683 0.64725536 0.49447426 0.64466566

bn4.running_var f4 [64]
000000 eb 80 5e 3f 22 9b 58 3f 81 8a 24 3f 33 07 aa 3f
       0.86915463 0.84611714 0.6427384 1.3283447
000010 46 ea 15 3f 31 99 14 3f 9c aa c0 3f 11 28 02 3f
       0.585606 0.5804625 1.5052066 0.50842386
000020 f7 0d 57 3f 17 47 07 3f fe ad 6d 3f f9 ea 2a 3f
       0.84005684 0.5284285 0.92843616 0.6676479
000030 7c 32 d4 3e 5d 91 d4 3e d6 2c 21 3f 47 73 63 3f
       0.41444767 0.41517153 0.6295904 0.88847774
000040 af 60 88 3f e6 ec 1f 3f 36 8b 42 3f 31 3d 13 3f
       1.0654505 0.62470853 0.7599367 0.57515246
000050 de a5 30 3f c3 89 96 3f 69 51 ca 3e 5d 9b 76 3f
       0.69003093 1.1760792 0.39515236 0.96330816
000060 95 c7 d2 3e be eb 5b 3f f4 9e 2d 3f 76 bb a9 3f
       0.41167894 0.8590659 0.6782067 1.3260334
000070 f2 c1 50 3f 89 01 03 3f 74 b2 10 3f eb 85 82 3f
       0.8154594 0.5117422 0.565223 1.0197119
000080 b6 a9 42 3f 61 32 b5 3e e5 58 a6 3e 9f 7a ed 3e
       0.7604021 0.3539 0.32489696 0.46382615
000090 be d3 dc 3e 47 6c 60 3f 86 4b 3a 3f dd 10 48 3f
       0.43130296 0.8766522 0.7277149 0.7815073
0000a0 51 26 6c 3f 36 88 ba 3e 0b ac 51 3f 41 e6 79 3f
       0.92245966 0.36432046 0.8190314 0.97616965
0000b0 dc 81 1f 3f 99 e5 61 3f 6e a4 9b 3f b4 36 5f 3f
       0.62307525 0.88240963 1.2159555 0.87192845
0000c0 09 10 96 3f 80 00 7b 3f fc d4 71 3f 69 e2 8c 3f
       1.1723644 0.9804764 0.94465613 1.1006595
0000d0 c3 e9 3c 3f 79 f4 31 3f f9 2c 36 3f 0f 64 f5 3e
       0.7379419 0.6951366 0.7116237 0.479279
0000e0 7a c7 49 3f 38 9b 10 3f 42 37 68 3f f5 12 b4 3f
       0.7882 0.56486845 0.90709317 1.4068285
0000f0 fd 99 1b 3f 69 1d 6a 3f 6a 65 1d 3f f5 52 62 3f
       0.6078184 0.91451126 0.6148287 0.8840783
