NCC_Code/2022-08-08_22-56-05_model.pt (torch, 115275 bytes, 50 tensors)

conv1.weight f4 [8, 2, 5, 5]
0	0x3e80abc7	0.25131056
1	0x3dd06cbb	0.10176989
2	0x3e079ab5	0.1324261
3	0x3d9b4411	0.07581342
4	0xbdc1df98	-0.09466475
5	0x3e5e9b32	0.2173889
6	0x3de9820b	0.11401757
7	0x3d2e5350	0.04255992
8	0x3e796678	0.24355495
9	0xbddbd44d	-0.107338525
10	0xbec9f619	-0.3944557
11	0xbe95bcb9	-0.29245546
12	0x3dc83291	0.0977527
13	0xbe34af47	-0.17644988
14	0xbe43ddf0	-0.19127631
15	0x3eb2ada7	0.3489811
16	0x3e85642c	0.26052988
17	0x3df96656	0.12177722
18	0x3cca2e2f	0.024680225
19	0x3ea9841d	0.33108607
20	0xbdb750ea	-0.0895098
21	0x3e656295	0.22400887
22	0x3e0052c3	0.12531571
23	0x3e11cc6d	0.14238138
24	0x3d4e2d3b	0.050336104
25	0x3de7755e	0.11301683
26	0x3e58eb5b	0.21183531
27	0x3e512294	0.20423347
28	0x3ce7829d	0.028260523
29	0x3d81a50b	0.063303076
30	0x3d4902b1	0.049074832
31	0x3d557914	0.052117422
32	0xbe7abf79	-0.24487104
33	0xbed74092	-0.4204145
34	0xbd37120c	-0.044694945
35	0xbd82e3d5	-0.06391112
36	0xbead6ddc	-0.3387288
37	0xbe72f514	-0.23726302
38	0xbd6b276c	-0.057410643
39	0xbe060359	-0.13087215
40	0x3e4e3092	0.20135716
41	0x3e53046a	0.20607153
42	0x3dc33688	0.095318854
43	0x3ee9b60c	0.45646703
44	0x3e932a7c	0.2874335
45	0x3db36971	0.08760346
46	0x3d36d9c1	0.04464126
47	0xbda9556d	-0.08268247
48	0xbdfda9ce	-0.12385903
49	0xbe9bb05c	-0.3040799
50	0xbe07feac	-0.13280743
51	0x3d05506c	0.0325474
52	0xbd70431f	-0.05865776
53	0x3ee5b59f	0.44865128
54	0x3e267d1f	0.16258667
55	0xbe8dc1e5	-0.27686992
56	0xbd89a7ae	-0.067214355
57	0x3eb9d23c	0.3629321
58	0x3e065888	0.1311971
59	0xbdd3da3a	-0.10344358
60	0xbe228c8f	-0.15873931
61	0x3eb95d07	0.36203787
62	0x3da4a2a2	0.08038832
63	0x3e5ce850	0.21572995
64	0x3ed4d268	0.41566777
65	0xbe31f988	-0.17380345
66	0xbd46ed0c	-0.04856591
67	0x3dbfbbf8	0.09362024
68	0xbe209571	-0.15682007
69	0x3ccb0131	0.024780842
70	0x3d8528d9	0.06501932
71	0x3dad1468	0.08451158
72	0x3e8f8dc7	0.28037855
73	0x3ea8c722	0.32964426
74	0x3d6d83dd	0.057987083
75	0x3efddbf1	0.49581864
76	0x3e790e4d	0.24321862
77	0x3e8825ff	0.2659149
78	0xbdc3789f	-0.09544491
79	0x3e85fbd3	0.2616869
80	0x3e2447cf	0.16043018
81	0xbd6df46f	-0.05809444
82	0x3c8d7b4c	0.017270707
83	0x3e747088	0.23871052
84	0x3ddc5297	0.1075794
85	0x3e91e8db	0.28497967
86	0x3f01acb6	0.5065416
87	0x3e517dc2	0.20458129
88	0x3ec6cba4	0.3882724
89	0x3e54c7ee	0.20779392
90	0x3e9a25f8	0.30107093
91	0xbe09af7d	-0.1344585
92	0x3e307a4b	0.17234151
93	0x3dd39cf0	0.10332668
94	0x3e42ba6f	0.19016431
95	0xbd398382	-0.04529143
96	0x3da9975e	0.08280824
97	0x3e5b00de	0.2138705
98	0x3e836750	0.2566476
99	0x3dda9c15	0.106743015
100	0xbddbbc21	-0.10729242
101	0x3d886353	0.066595696
102	0x3e1fa4b4	0.15590173
103	0x3e197f65	0.14990003
104	0x3c54fece	0.013000203
105	0xbcbe2e0d	-0.023215318
106	0xbf340689	-0.7032247
107	0xbe8f3d60	-0.27976513
108	0xbe8f2f76	-0.27965897
109	0xbdf7dbc7	-0.12102466
110	0x3e604119	0.21899833
111	0x3e805749	0.25066593
112	0xbd5028aa	-0.05082003
113	0x3d87443c	0.066048115
114	0x3d80bcdd	0.06286023
115	0xbbde2f41	-0.0067805354
116	0x3ee51af8	0.44747138
117	0x3efb6641	0.4910145
118	0x3f138dce	0.5763825
119	0x3daaf2d0	0.08347094
120	0x3cf7ef85	0.030265579
121	0xbd8b3665	-0.06797484
122	0x3d43872e	0.04773634
123	0x3bd24faf	0.0064181904
124	0x3dc001f9	0.09375376
125	0xbd7f69e2	-0.062356837
126	0xbdc6e485	-0.097115554
127	0xbb44192f	-0.0029922237
128	0xbdacc202	-0.084354416
129	0xbb03cbb2	-0.0020110426
130	0xbe8cf27b	-0.27528748
131	0xbd5fd05f	-0.054642078
132	0xbe74ada5	-0.23894365
133	0xbcc9817d	-0.024597878
134	0xbe06ffe1	-0.13183548
135	0x3a74c9d2	0.0009337935
136	0x3ed7a85e	0.4212064
137	0x3cba84e7	0.02276845
138	0xbe1a099b	-0.15042727
139	0x3c15661b	0.009118582
140	0x3e817690	0.25285769
141	0x3de20136	0.11035387
142	0x3eff5113	0.49866542
143	0x3e8c7a0c	0.27436864
144	0x3da7d0b2	0.08194102
145	0x3e868a1f	0.26277253
146	0xbe0254da	-0.12727681
147	0xbd255643	-0.04036547
148	0x3dfb29fb	0.122638665
149	0xbd8d2e96	-0.06893651
150	0xbe4f40bb	-0.20239536
151	0xbf049b04	-0.51799035
152	0xbea3e925	-0.32013813
153	0xbe965c21	-0.29367164
154	0x3dfd6557	0.12372845
155	0xbd3df555	-0.046376545
156	0xbdcb8296	-0.09937017
157	0xbea620a3	-0.32446775
158	0xbe81db0d	-0.25362435
159	0xbd0e140e	-0.034687094
160	0xbe310af3	-0.17289333
161	0x3d1cd82e	0.038292103
162	0x3da1c8de	0.078996405
163	0xbdb4ac87	-0.088219695
164	0xbd8f5aad	-0.06999717
165	0x3e9044e4	0.2817756
166	0x3e0b7311	0.13618113
167	0x3dd2f9d3	0.103015564
168	0xbe367fe5	-0.17822225
169	0xbd76a675	-0.06021734
170	0x3e1278e2	0.14303926
171	0xbe4379c4	-0.19089419
172	0x3ca01e1f	0.019545613
173	0xbc075a71	-0.008261309
174	0x3d3a0874	0.045418218
175	0xbd7c9b2f	-0.061671432
176	0xbd499a49	-0.049219403
177	0xbe1969e1	-0.14981796
178	0xbe3e3e11	-0.18578364
179	0xbeebb7db	-0.46038708
180	0xbdd23357	-0.102636985
181	0xbe3e260a	-0.18569198
182	0xbe20f24b	-0.15717427
183	0xbee11e6f	-0.4396853
184	0xbeb415cc	-0.3517288
185	0x3e39a861	0.18130638
186	0xbd618d8b	-0.055066627
187	0x3e46ee36	0.19426808
188	0x3e7e96ab	0.24862163
189	0xbd8e216e	-0.0693997
190	0xbe3a5d3b	-0.18199627
191	0x3e04a104	0.12952048
192	0x3ca7e113	0.020493066
193	0x3ed83b17	0.42232582
194	0x3ebc624a	0.3679374
195	0xbe84c3b7	-0.2593057
196	0x3c62b973	0.01383816
197	0xbe316c29	-0.17326416
198	0xbe8e99a3	-0.2785159
199	0xbe9dd33f	-0.3082523
200	0x3e069d94	0.13146049
201	0x3e91d837	0.2848527
202	0x3f26ccf8	0.6515651
203	0x3ed532c4	0.41640294
204	0x3ea6c222	0.32569987
205	0xbdf23c6a	-0.11827929
206	0xbd7fd777	-0.062461343
207	0xbd78b35b	-0.06071792
208	0x3d182762	0.037146933
209	0x3dd7e687	0.105420165
210	0xbe920a63	-0.2852355
211	0xbe9ffca7	-0.31247446
212	0xbe86f9b6	-0.2636239
213	0xbc0c174e	-0.008550478
214	0x3bdc633e	0.006725698
215	0x3dff7559	0.12473554
216	0xbe3af3a2	-0.18257001
217	0xbdbba40d	-0.091621496
218	0xbdc964f2	-0.09833707
219	0x3bb53388	0.0055298246
220	0x3d83d4d3	0.064370774
221	0x3daf8176	0.085696146
222	0xbd26a926	-0.040688656
223	0xbe345352	-0.17609909
224	0x3d331416	0.043720327
225	0x3e1b3118	0.15155447
226	0x3e82ec4c	0.25570905
227	0x3e28b625	0.16475733
228	0x3f16f5fc	0.5896909
229	0x3ea6eda7	0.3260319
230	0x3dcaa99f	0.09895634
231	0xbc82f9eb	-0.01598831
232	0x3d0ced07	0.034405734
233	0xbd4326a9	-0.04764429
234	0xbe8dbd67	-0.27683565
235	0x3e1a8867	0.15091096
236	0x3d81075f	0.06300234
237	0xbd1b4609	-0.037908588
238	0xbe87bd8c	-0.265118
239	0xbc28b180	-0.010296226
240	0xbdcb97e6	-0.09941082
241	0x3d888579	0.06666083
242	0xbba22305	-0.0049480223
243	0xbd9a035c	-0.07520172
244	0xbe9d311f	-0.3070154
245	0x3df98570	0.12183654
246	0x3de19ad5	0.1101586
247	0x3d664b0b	0.05622391
248	0x3b96bec1	0.0046003764
249	0xbe30e28f	-0.17273925
250	0xbe3c5d76	-0.18395028
251	0x3ea187fd	0.31549063
252	0x3d709d07	0.058743503
253	0x3f1aa455	0.60407
254	0x3e5e3f19	0.21703757
255	0xbe00d8da	-0.12582722

conv1.bias f4 [8]
0	0x3eb4329a	0.35194856
1	0xbcfb9b10	-0.030713588
2	0x3dfffeeb	0.124997936
3	0x3e12960e	0.14315054
4	0xbe0da0e9	-0.13830914
5	0x3e000b39	0.12504281
6	0x3e68d5ba	0.2273778
7	0x3db24677	0.08704846

bn1.weight f4 [8]
0	0x3f92bb1e	1.1463354
1	0x3f78c0d0	0.9716921
2	0x3f7b40ba	0.9814564
3	0x3f8372f1	1.0269452
4	0x3f6ce94e	0.92543495
5	0x3f8539b6	1.0408237
6	0x3f456435	0.7710603
7	0x3f8bfde0	1.0936852

bn1.bias f4 [8]
0	0xbd8ad693	-0.06779208
1	0xbdba68db	-0.09102031
2	0xbd974e31	-0.07387961
3	0xbe2d7974	-0.16940862
4	0x3e464573	0.1936243
5	0x3cadb6bc	0.021205299
6	0x3cb8daae	0.022565212
7	0xbd3e0edf	-0.0464009

bn1.running_mean f4 [8]
0	0x3f5349ab	0.82534283
1	0x3fdcbc5e	1.7244985
2	0x3f2777de	0.6541728
3	0x3f9d78b4	1.2302461
4	0x3f06259f	0.52401155
5	0x3ee4d0e1	0.44690612
6	0x3f1c4069	0.6103578
7	0x3f1e4d74	0.61836934

bn1.running_var f4 [8]
0	0x4076fef2	3.8593106
1	0x4149132f	12.5671835
2	0x3fe522f1	1.7901288
3	0x3fa47e44	1.2851033
4	0x3f950c9e	1.1644475
5	0x3f3ab220	0.7292805
6	0x3f8c476e	1.0959299
7	0x3fb79a03	1.4343876

conv2.weight f4 [16, 8, 3, 3]
0	0x3f020219	0.5078445
1	0x3ee99f27	0.45629236
2	0x3ee9665c	0.45585907
3	0x3e081ab0	0.1329143
4	0xbe69f9af	-0.22849153
5	0x3e2394b1	0.1597469
6	0x3d11972a	0.035544552
7	0x3e7a4186	0.24439058
8	0x3e94dd2a	0.29074985
9	0xbe17f66f	-0.148401
10	0xbc5f9012	-0.013645189
11	0x3d963196	0.073336765
12	0x3deec80d	0.116592504
13	0xbeadbe5d	-0.33934298
14	0xbdebf13f	-0.115206234
15	0x3d8d1a1d	0.06889746
16	0xbbab1ebd	-0.00522217
17	0x3d079ea8	0.03311029
18	0x3cec4457	0.02884118
19	0x3df79979	0.120898195
20	0x3dd0fd4b	0.10204562
21	0x3d8e69c9	0.06953771
22	0xbbb1a3a4	-0.005421119
23	0xbbe7eb78	-0.0070776306
24	0x3e844cb3	0.25839767
25	0x3e841f9e	0.25805372
26	0xbd4c49c2	-0.04987503
27	0xbe8983a1	-0.26858237
28	0x3da80568	0.08204156
29	0xbe108da6	-0.14116535
30	0xbe20db57	-0.15708672
31	0x3e0270d1	0.12738349
32	0xbdb9b74c	-0.09068164
33	0x3e5dca16	0.21659121
34	0x3e3feb0d	0.18742009
35	0x3e79c905	0.24393089
36	0x3debf196	0.11520688
37	0xbbd7b67a	-0.006583032
38	0xbd50765a	-0.05089412
39	0xbe0ea2d1	-0.13929297
40	0xbecb7626	-0.39738578
41	0xbec7a7e5	-0.3899528
42	0x3e8d92b2	0.27650982
43	0x3e71bb86	0.23606691
44	0x3e0a4d3c	0.13506025
45	0x3dde78bb	0.10862871
46	0x3d939049	0.072052546
47	0x3e7d16a3	0.24715666
48	0xbed1a5a5	-0.4094669
49	0xbed4797c	-0.41498935
50	0xbe5f04af	-0.2177913
51	0xbd9a38e6	-0.07530384
52	0x3e0ef3cf	0.13960193
53	0x3e0fe386	0.14051637
54	0xbdf8a8e7	-0.121415906
55	0x3e176458	0.14784372
56	0x3e43d151	0.19122817
57	0x3d900733	0.07032623
58	0x3e7db71f	0.24776886
59	0x3e39211c	0.18079036
60	0x3cac89cf	0.021061806
61	0xbcd6b785	-0.026210556
62	0xbd741ccb	-0.05959777
63	0xbe55fa12	-0.20896176
64	0x3d9453ed	0.0724257
65	0x3d70a4a4	0.058750764
66	0xbc2f29f8	-0.0106911585
67	0xbdd8b1f4	-0.10580817
68	0xbe6cc30d	-0.23121281
69	0x3ddbedf7	0.107387476
70	0xbd09d874	-0.03365369
71	0x3e0ad3dc	0.1355738
72	0x3ebd9ca8	0.37033582
73	0x3eb7dbaa	0.35909778
74	0x3ec3e424	0.38259995
75	0x3cbebda3	0.023283785
76	0x3e85cf1a	0.26134568
77	0xbe13e045	-0.14441021
78	0x3d561eab	0.05227534
79	0xbe46a319	-0.19398154
80	0xbe716ff2	-0.2357786
81	0x3e3cef1f	0.18450592
82	0xbc442558	-0.011971794
83	0x3e8d24c6	0.27567118
84	0x3db18b51	0.086691506
85	0xbe194e82	-0.14971355
86	0x3dd1d248	0.10245186
87	0xba69c35f	-0.0008917357
88	0x3e27cf45	0.16387661
89	0x3e0e93ed	0.13923617
90	0xbe62497a	-0.22098342
91	0x3e7ab194	0.24481803
92	0x3e40460b	0.1877672
93	0x3e1e8384	0.15479857
94	0x3dd2f0f2	0.10299863
95	0x3cc5e8f5	0.024158934
96	0xbe778aaf	-0.24173997
97	0xbe5e79c0	-0.21726131
98	0xbeb8362c	-0.3597883
99	0xbdadbab6	-0.08482878
100	0xbe23a500	-0.15980911
101	0xbde90f2a	-0.113798454
102	0xbe762c05	-0.2404023
103	0xbd26db78	-0.040736645
104	0xbdf0a225	-0.117496766
105	0xbd695c15	-0.056972582
106	0x3cbe4f62	0.023231212
107	0xbe48f1ad	-0.19623442
108	0x3e0986f6	0.1343039
109	0x3e21e5d7	0.15810333
110	0xbe1e7b0f	-0.1547663
111	0xbc385a0a	-0.011251936
112	0x3cd5ee7b	0.026114693
113	0x3dfecfe2	0.12441994
114	0x3e4b985d	0.1988234
115	0x3ea7e5f8	0.3279264
116	0x3ea78b09	0.32723263
117	0xbe290ff0	-0.16509986
118	0xbdac37bf	-0.0840907
119	0xbd27fd41	-0.041013006
120	0xbde7fabf	-0.11327123
121	0x3e81e0ac	0.25366724
122	0xbce30d45	-0.027716288
123	0x3e625351	0.22102095
124	0xbdd5a4d7	-0.10431831
125	0x3e42fd78	0.19042003
126	0xbe3581d0	-0.17725301
127	0xbe2fea30	-0.17179179
128	0xbe1aad45	-0.1510516
129	0xbe1be83a	-0.15225306
130	0x3de20138	0.11035389
131	0xbdabf7a3	-0.08396842
132	0xbe061113	-0.13092451
133	0xbdfbad43	-0.122889064
134	0x3d24c6a5	0.040228505
135	0xbe3472e6	-0.17621955
136	0xbe5e5fcd	-0.21716233
137	0xbd4a9de1	-0.04946697
138	0xbdbe5909	-0.09294326
139	0xbe62b03e	-0.22137544
140	0xbce172be	-0.027520534
141	0x3e76e9ad	0.24112578
142	0x3ea3b9d9	0.31977728
143	0x3e453cde	0.192615
144	0x3e0d88d7	0.13821732
145	0xbd2d562d	-0.04231851
146	0x3cb71073	0.02234671
147	0x3de573ad	0.11203704
148	0x3e6f8af4	0.2339285
149	0x3d703436	0.058643542
150	0xbe2e64be	-0.17030618
151	0xbe13d1e5	-0.14435537
152	0xbcbd1861	-0.023082914
153	0x3d72315e	0.05912911
154	0x3dbe419e	0.09289859
155	0xbcc41c0d	-0.023939157
156	0xbde15154	-0.1100184
157	0xbe8a78a8	-0.27045178
158	0xbe76e43a	-0.24110499
159	0xbdd7b124	-0.10531834
160	0x3d60d995	0.054895002
161	0x3d6d7f41	0.057982687
162	0xbe1559a2	-0.14584973
163	0x3d19037b	0.037356835
164	0xbe04e23d	-0.12976928
165	0x3ebd0cee	0.36923927
166	0xbe88dba1	-0.26730064
167	0xbde3135d	-0.11087678
168	0xbd9d0e6c	-0.076687664
169	0xbe557c8a	-0.20848289
170	0xbbd67b7d	-0.0065454827
171	0xbbc328e2	-0.0059558013
172	0x3ddb8cc9	0.10720212
173	0x3c3e07c4	0.011598531
174	0xbca76f7b	-0.0204389
175	0xbd8be013	-0.06829848
176	0x39b3af3b	0.00034272097
177	0x3ec75559	0.38932303
178	0x3e56837a	0.20948592
179	0x3edda913	0.43293056
180	0x3e1faf68	0.15594256
181	0xbddc086a	-0.10743792
182	0xbdb3e3f3	-0.08783712
183	0xbd246aca	-0.040140904
184	0x3d99b682	0.07505514
185	0x3ebc3e1c	0.36766136
186	0xbe8df2b3	-0.27724227
187	0xbe55c6ea	-0.20876661
188	0xbe69f1a0	-0.22846079
189	0xbdc4656b	-0.095896564
190	0xbd30a8a9	-0.043129597
191	0xbdbff4fd	-0.093729
192	0x3e34e0ad	0.17663832
193	0x3e898169	0.26856545
194	0x3e229276	0.15876183
195	0x3d9d7390	0.076880574
196	0xbe1747d6	-0.14773497
197	0x3a8dbfde	0.0010814627
198	0x3e7f1518	0.2491039
199	0x3e5933c2	0.2121115
200	0xbcb93aae	-0.022610988
201	0x3e277759	0.16354121
202	0xbd62b7e8	-0.055351168
203	0x3e2fa03a	0.17150965
204	0xbe493e4f	-0.19652675
205	0x3c8a2724	0.016864367
206	0xbeb38c7e	-0.35068125
207	0x3e93676b	0.2878984
208	0xbe0dc37a	-0.138441
209	0xbdd0e685	-0.10200218
210	0x3e11ce71	0.14238907
211	0x3e8c2503	0.27371988
212	0x3de7860a	0.11304863
213	0x3e2d77cd	0.16940232
214	0x3dbeddd3	0.09319653
215	0xbe3318ff	-0.17490004
216	0xbdc6d223	-0.09708049
217	0x3d1b9b2b	0.037989777
218	0x3dae4523	0.085092805
219	0x3ec79c1c	0.3898629
220	0x3ea2f770	0.31829405
221	0xbe09b8ad	-0.13449354
222	0xbb7c83ff	-0.0038530824
223	0x3ea91d5e	0.33030218
224	0x3d0d2b94	0.034465387
225	0x3cc6b572	0.024256442
226	0xbe7fa3e4	-0.24964863
227	0xbe387c85	-0.1801625
228	0xbd747370	-0.059680402
229	0xbe36a319	-0.17835654
230	0xbe3d2a07	-0.18473063
231	0xbe2f9d49	-0.17149843
232	0xbd9024b6	-0.07038252
233	0xbea5cd51	-0.32383206
234	0x3e30e9c5	0.17276676
235	0x3e0ad2c9	0.1355697
236	0xbe076a7d	-0.13224216
237	0x3cc5b8a3	0.024135893
238	0x3d2adbc3	0.041713487
239	0x3e369fcf	0.178344
240	0xbdf642c6	-0.12024455
241	0x3d32e744	0.043677583
242	0xbd02b4c8	-0.031910688
243	0xbe11d010	-0.14239526
244	0xbd896dff	-0.06710433
245	0x3d8873cd	0.06662712
246	0x3e3e6eac	0.18596905
247	0xbe038d78	-0.12846935
248	0xbf0472f1	-0.51737887
249	0xbde1733a	-0.11008306
250	0x3db0392c	0.08604655
251	0x3e6b0841	0.22952367
252	0x3e610c13	0.21977262
253	0xbe17bc9e	-0.14818045
254	0x3de85842	0.11344959
255	0xbc61de85	-0.013785963

conv2.bias f4 [16]
0	0xbda34f92	-0.07974161
1	0xbde7df62	-0.11321904
2	0xbde8ef08	-0.113737166
3	0x3df6376e	0.12022291
4	0xbe20c946	-0.1570178
5	0xbe1394f6	-0.14412293
6	0x3cdf2a0c	0.02724173
7	0xbe329df9	-0.17443074
8	0xbe164bb9	-0.14677323
9	0x3ed81da8	0.42210126
10	0x3c007e3e	0.0078425985
11	0xbd60476b	-0.05475561
12	0x3de31b94	0.110892445
13	0x3d304810	0.043037474
14	0xbd4437aa	-0.047904648
15	0xbe723749	-0.23653902

bn2.weight f4 [16]
0	0x3f817cf9	1.0116264
1	0x3f5ea9c5	0.869778
2	0x3f592006	0.8481449
3	0x3f8059a6	1.0027359
4	0x3f8dd6cf	1.1081179
5	0x3f697d5f	0.91206926
6	0x3f7ed088	0.99536943
7	0x3f730420	0.9492817
8	0x3f5b324e	0.85623634
9	0x3f871b62	1.0555232
10	0x3f63494e	0.8878373
11	0x3f90d5e8	1.1315279
12	0x3f7845be	0.9698142
13	0x3f7dbf84	0.99120355
14	0x3f647a3c	0.89249015
15	0x3f8d6dbf	1.1049117

bn2.bias f4 [16]
0	0x3e79bec7	0.24389182
1	0xbd0c8da8	-0.03431478
2	0xbed997fa	-0.4249876
3	0x3e0868dc	0.1332125
4	0x3d249862	0.040184386
5	0x3da94472	0.08265008
6	0x3e6c34ec	0.23067063
7	0x3ed066c8	0.40703416
8	0xbd9bbdb5	-0.07604543
9	0xbe1cc7cf	-0.15310596
10	0x3dac8f26	0.08425741
11	0xbe320bb0	-0.17387271
12	0x3efb366e	0.49064964
13	0x3e6b0509	0.2295114
14	0xbe5d5fdb	-0.21618597
15	0xbc95dbc1	-0.018293263

bn2.running_mean f4 [16]
0	0x3ecb33f6	0.3968808
1	0x3f69a54a	0.91267836
2	0x3f09c17c	0.5381086
3	0x3f42db8a	0.7611624
4	0x3ec964f3	0.3933483
5	0x3f1d8b18	0.61540365
6	0x3f22fcbb	0.63666886
7	0x3f1bf2c6	0.6091732
8	0x3f55a3de	0.83453166
9	0x3fae0cfc	1.3597713
10	0x3f4193e8	0.7561631
11	0x3f3347ac	0.7003124
12	0x3faf6866	1.3703735
13	0x3f7f234d	0.9966324
14	0x3f840433	1.0313781
15	0x3e663b97	0.22483669

bn2.running_var f4 [16]
0	0x3f84378a	1.0329449
1	0x406448ef	3.5669515
2	0x3f4db31b	0.8035142
3	0x400334b5	2.050092
4	0x3f838cfe	1.0277402
5	0x3ff6b1bc	1.927299
6	0x40047623	2.0697105
7	0x3f794916	0.97377145
8	0x3f690468	0.9102235
9	0x3fad10dc	1.352077
10	0x3f37834e	0.7168473
11	0x4004a479	2.0725386
12	0x3faf153d	1.3678356
13	0x4072efb2	3.7958798
14	0x3f6154ab	0.8801982
15	0x3ee94f2e	0.45568222

conv3.weight f4 [32, 16, 3, 3]
0	0xbc81dca1	-0.015852274
1	0x3e7f5794	0.24935752
2	0x3e2cf92b	0.16891925
3	0x3c7ed835	0.015554477
4	0x3dae8a87	0.08522516
5	0xbe176da4	-0.14787918
6	0x3e37a0e8	0.17932475
7	0x3e6ac3d9	0.22926272
8	0x3e1d2d3e	0.1534929
9	0xbcaf4eb1	-0.021399828
10	0x3d9fb390	0.07797921
11	0x3ddbc2ce	0.107305154
12	0x3c055cb2	0.008139776
13	0x3ce3a784	0.027789839
14	0xbdac1ae1	-0.08403564
15	0x3d5e48f2	0.054268785
16	0xbc9e2c6b	-0.01930829
17	0xbda142bb	-0.07874056
18	0x3e39d8b3	0.1814907
19	0x3d81a301	0.06329919
20	0x3dbb9fe6	0.091613576
21	0xbd9e6adc	-0.077352256
22	0xbd73641d	-0.059421647
23	0xbe200326	-0.15626201
24	0x3e0ae26e	0.13562939
25	0x3d659cd8	0.05605778
26	0x3e23c500	0.15993118
27	0xbdecbc24	-0.115593225
28	0xbe1943ca	-0.14967266
29	0xbe141dda	-0.14464512
30	0xbd01f280	-0.031725407
31	0x3dd67856	0.10472171
32	0x3ded58ba	0.11589189
33	0xbca26c38	-0.019826993
34	0xbce6020f	-0.028077153
35	0xbe4bdc21	-0.19908191
36	0xbde3681d	-0.111038424
37	0xbdae03a6	-0.0849679
38	0xbdf601bb	-0.12012049
39	0xbe2af897	-0.16696392
40	0xbdac9668	-0.08427125
41	0xbdf87a66	-0.12132721
42	0xbed3d944	-0.41376698
43	0xbe69f026	-0.22845516
44	0xbe5cf075	-0.21576102
45	0xbe32fcf4	-0.17479306
46	0xbdc62a71	-0.09676064
47	0xbe2e3911	-0.17013957
48	0x3ddcaf41	0.107756145
49	0xbd9b7645	-0.075909175
50	0xbdaf5af2	-0.08562268
51	0xbe4f64ce	-0.20253298
52	0xbe1d4fcb	-0.1536247
53	0xbe09a3e6	-0.13441429
54	0xbe128462	-0.14308313
55	0x3d362b13	0.044474673
56	0x3e9ee9f8	0.3103788
57	0x3ad1b7fa	0.0016000264
58	0xbd4a4d0a	-0.049389876
59	0xbd1bf682	-0.038076885
60	0x3e834d81	0.25645068
61	0x3e88434c	0.26613843
62	0x3e0f7f3a	0.14013377
63	0x3c6a0724	0.014283929
64	0xbcc4963d	-0.02399742
65	0xbe4c685e	-0.19961688
66	0x3d76f95b	0.060296398
67	0xbd238178	-0.039918393
68	0x3dded37d	0.10880182
69	0x3e6bb0cf	0.23016666
70	0x3e34a4f8	0.17641056
71	0xbcb4c0e9	-0.022064643
72	0xbeaf877a	-0.34283048
73	0xbe472221	-0.19446613
74	0x3d872fb4	0.066008955
75	0xbe182343	-0.14857201
76	0xbdd09147	-0.101839595
77	0xbdb44512	-0.088022366
78	0xbd2bd148	-0.041947633
79	0xbd8ee1ff	-0.06976699
80	0x3d0758fa	0.03304384
81	0xbea0145b	-0.3126553
82	0xbdb9f96a	-0.09080775
83	0xbe25fe2a	-0.16210237
84	0x3e364958	0.17801416
85	0x3e052078	0.13000667
86	0xbbb57785	-0.0055379295
87	0xbd9387cf	-0.07203638
88	0xbd86cc81	-0.06581975
89	0xbd110026	-0.035400532
90	0xbe3ade20	-0.18248796
91	0xb9ca86e0	-0.00038628932
92	0xbd0f303c	-0.03495811
93	0x3e0fd5d3	0.14046411
94	0xbd84c87b	-0.06483551
95	0x3d1afd30	0.037839115
96	0x3e268956	0.16263327
97	0x3e280f64	0.16412121
98	0x3e1e0731	0.15432431
99	0x3de83259	0.11337728
100	0x3dd7e1d2	0.10541119
101	0xbdd1b2cd	-0.10239182
102	0xbe7f2a0e	-0.24918386
103	0xbdcad9a2	-0.099047914
104	0xbe073d05	-0.13206871
105	0xbe139a4f	-0.14414333
106	0xbe3b1bf3	-0.1827238
107	0xbea94a1e	-0.3306436
108	0xbe155ddc	-0.14586586
109	0xbec58686	-0.38579196
110	0xbe805ec4	-0.250723
111	0x3e9aff6c	0.30272996
112	0x3e78fd91	0.24315478
113	0x3e489638	0.19588554
114	0xbc59773c	-0.013273057
115	0xbd114ec7	-0.03547552
116	0xbdc5f6c0	-0.096662045
117	0xbe1721f5	-0.14759047
118	0xbd19177d	-0.037375916
119	0xbd0a638e	-0.03378635
120	0xbdbe8c47	-0.093040995
121	0xbd11677e	-0.03549909
122	0xbe780863	-0.2422195
123	0x3de5e736	0.112257406
124	0x3ddf0692	0.10889925
125	0x3e9bdfb2	0.30444103
126	0xbc09e2ab	-0.008415858
127	0x39788bb2	0.00023703164
128	0x3da1bf2b	0.078977905
129	0x3cbe8fed	0.023261989
130	0xbdc4e79a	-0.09614487
131	0x3c653687	0.013990051
132	0x3e183f99	0.1486801
133	0x3dd5dd49	0.104425974
134	0x3c0e3302	0.008679153
135	0xbdedd79c	-0.1161339
136	0xbdb5101b	-0.088409625
137	0xbd7d2781	-0.061805252
138	0xbdb6a7b4	-0.089187056
139	0xbcabe774	-0.020984389
140	0xbca4130d	-0.020028615
141	0xbe6bfbf5	-0.23045333
142	0xbdb31caa	-0.087457016
143	0xbe103f37	-0.14086615
144	0xbd1139cb	-0.035455506
145	0xbdf39d65	-0.11895255
146	0xbd033ffc	-0.032043442
147	0xbe101441	-0.14070226
148	0xbe7d6658	-0.24746072
149	0xbd9bda39	-0.07609982
150	0xbd1d0a43	-0.038339864
151	0x3b8cd1f7	0.0042974907
152	0x3c912f98	0.01772289
153	0x3d0922f9	0.03348062
154	0xbc9b469a	-0.018954564
155	0xbda5846e	-0.080818996
156	0x3e44c563	0.19215922
157	0x3de4ddf9	0.111751504
158	0xbdd46685	-0.103711165
159	0x3dcd0d79	0.10012335
160	0xbe070098	-0.1318382
161	0x3d7e5859	0.062095974
162	0xbc997049	-0.0187303
163	0x3db58171	0.088625796
164	0xbdc1dfbc	-0.09466502
165	0x3e15be38	0.14623344
166	0xbb1ef2f4	-0.0024253698
167	0x3dece0a7	0.115662865
168	0x3e5e0e8a	0.21685234
169	0x3e305956	0.17221579
170	0x3e07a9df	0.13248394
171	0xbda5f3e3	-0.08103158
172	0xbd69cd3f	-0.057080504
173	0xbd708195	-0.05871733
174	0x3e793562	0.2433677
175	0x3e1093af	0.14118837
176	0x3da14291	0.07874025
177	0xbddc7721	-0.107649095
178	0xbdfe6dd6	-0.12423293
179	0xbdb5af45	-0.08871321
180	0x3e0faa76	0.1402987
181	0x3ea939ec	0.33052003
182	0x3e1e2b6d	0.15446253
183	0x3d74f615	0.059804995
184	0x3d6450d1	0.055741135
185	0x3e0f2941	0.13980581
186	0xbea8dce1	-0.32981017
187	0xbee95302	-0.45571142
188	0xbe8a8081	-0.27051166
189	0x3d57b941	0.052666906
190	0x3dce59d0	0.10075724
191	0xbe4b46e2	-0.19851258
192	0x3e5194bc	0.20466894
193	0x3e524bca	0.20536724
194	0x3e8a0515	0.26957002
195	0xbcf72440	-0.030168653
196	0xbe1c58b7	-0.15268217
197	0xbe1a519d	-0.15070195
198	0xbe072803	-0.13198857
199	0xbdd4782d	-0.10374484
200	0xbd8ee156	-0.06976573
201	0x3d31972e	0.043357067
202	0xbd9d23c1	-0.07672835
203	0xbe033b88	-0.12815678
204	0xbad5d3f7	-0.0016313781
205	0x3dcaee8e	0.09908782
206	0x3e324322	0.17408422
207	0xbe589355	-0.21149953
208	0xbe101f16	-0.14074358
209	0xbe618264	-0.22022396
210	0xbe536abc	-0.20646185
211	0xbe929e0e	-0.2863621
212	0xbe8b3435	-0.27188268
213	0x3d846ba4	0.06465843
214	0x3e2baffc	0.16766351
215	0x3db2eafa	0.087362245
216	0x3e3ff7da	0.18746892
217	0x3e0a24e6	0.13490638
218	0x3e18ce74	0.14922506
219	0xbbc6b16e	-0.0060636317
220	0x3c79bf18	0.015243314
221	0x3e1add78	0.15123546
222	0x3d2aa933	0.041665267
223	0x3e2f66cb	0.17129056
224	0x3e461dc8	0.19347298
225	0x3e83a4ad	0.25711575
226	0x3e59eff4	0.21282941
227	0x3e550543	0.20802788
228	0xbdc9c2d7	-0.09851616
229	0x3ca9b29c	0.02071505
230	0x3d26a7ea	0.04068748
231	0x3d940662	0.0722778
232	0x3e70dfe2	0.23522905
233	0x3e11bd93	0.14232473
234	0xbd831f1f	-0.0640242
235	0xbe5024f7	-0.20326601
236	0xbda925d9	-0.08259172
237	0xbc97d696	-0.01853494
238	0xbdcb4b2d	-0.09926448
239	0xbdeda3ab	-0.11603483
240	0xbe1439a7	-0.14475118
241	0xbdbacefc	-0.091215104
242	0x3e248544	0.16066462
243	0xbd9a6298	-0.075383365
244	0xbe365c45	-0.17808636
245	0xbe72b623	-0.23702292
246	0x3e412f1c	0.18865627
247	0x3cb7e1f3	0.022446608
248	0x3e3a3196	0.18182978
249	0xbc18ec6c	-0.009333711
250	0x3de3afc8	0.11117512
251	0x3dd8e51c	0.10590574
252	0xbc20e580	-0.009820342
253	0x3ce690d7	0.028145237
254	0x3dab60f3	0.08368101
255	0xbe898a8f	-0.26863524

conv3.bias f4 [32]
0	0x3e0a8301	0.13526537
1	0xbe97cc32	-0.29647976
2	0xbf03f71b	-0.5154893
3	0xbe04ee31	-0.12981488
4	0xbeaa28a7	-0.3323414
5	0xbe5c5204	-0.21515661
6	0xbf13e8a0	-0.5777683
7	0xbeaa37b6	-0.3324563
8	0xbe15949b	-0.1460747
9	0xbe2dde7a	-0.169794
10	0xbea53516	-0.32267064
11	0xbeaaf26f	-0.33388087
12	0xbea43bad	-0.3207678
13	0xbd8b1b45	-0.067923106
14	0xbe55baf0	-0.20872092
15	0xbe83e0be	-0.25757402
16	0xbe38c58e	-0.18044111
17	0xbe59369d	-0.2121224
18	0xbe8b193d	-0.27167693
19	0xbe8b5e20	-0.2722025
20	0xbdd05227	-0.10171919
21	0xbd3b7c17	-0.04577264
22	0xbebbb420	-0.36660862
23	0xbe9d5f2a	-0.30736667
24	0xbde8d2ef	-0.113683574
25	0xbed31663	-0.41228017
26	0xbecc6c0f	-0.39926192
27	0xbe8d6a5a	-0.27620202
28	0xbe8a43b0	-0.27004766
29	0xbe9a71a8	-0.30164838
30	0xbe0b7a2e	-0.13620827
31	0x3e761738	0.24032295

bn3.weight f4 [32]
0	0x3f747e9f	0.9550571
1	0x3f7d4a53	0.98941535
2	0x3f806fc4	1.0034108
3	0x3f800681	1.0001985
4	0x3f688ab7	0.9083666
5	0x3f80bedb	1.0058244
6	0x3f809af5	1.0047289
7	0x3f7a8dac	0.97872424
8	0x3f701632	0.9378387
9	0x3f755b39	0.9584232
10	0x3f74a95c	0.9557092
11	0x3f82cfdc	1.0219684
12	0x3f8057eb	1.002683
13	0x3f7f118a	0.9963614
14	0x3f6a9726	0.91636884
15	0x3f74d752	0.9564105
16	0x3f8497ce	1.0358827
17	0x3f7b866e	0.98252
18	0x3f8245d3	1.0177559
19	0x3f59c292	0.85062516
20	0x3f7c70bf	0.98609537
21	0x3f83cdbc	1.029716
22	0x3f78cbcd	0.97185975
23	0x3f7ee62d	0.9956997
24	0x3f86db64	1.0535703
25	0x3f687e57	0.9081778
26	0x3f891fc7	1.0712823
27	0x3f8236cd	1.0172974
28	0x3f5adb3c	0.85490775
29	0x3f80c1cd	1.0059143
30	0x3f6c8b90	0.92400455
31	0x3f703269	0.9382692

bn3.bias f4 [32]
0	0x3e68e1b7	0.22742353
1	0x3efbd575	0.49186292
2	0xbe325e42	-0.17418769
3	0x3ecacc0a	0.39608794
4	0x3e5a0bb5	0.21293528
5	0x3e54500d	0.20733662
6	0xbdf42c5c	-0.119225234
7	0x3e433261	0.19062187
8	0xbef59920	-0.47968388
9	0xbe3c91fc	-0.18415064
10	0xbdfb7c2d	-0.12279544
11	0xbc257a89	-0.010100015
12	0x3cd4028b	0.025880119
13	0x3de0d21c	0.10977575
14	0xbdb9df44	-0.09075788
15	0x3e3de831	0.18545605
16	0x3e392727	0.18081342
17	0x3eddabae	0.43295044
18	0x3e83f27b	0.25770935
19	0xbed29959	-0.4113262
20	0xbd2b0c5b	-0.04175983
21	0x3e9bcc16	0.30429143
22	0xbd354bc9	-0.044261727
23	0xbea015cd	-0.31266633
24	0x3dad918e	0.08475028
25	0x3e909f9a	0.28246766
26	0xbd6834de	-0.056691043
27	0x3dc96cae	0.09835182
28	0xbd1f6737	-0.038916793
29	0xbd6dec1e	-0.058086507
30	0x3f0f62e3	0.56010264
31	0xbd6d4e70	-0.057936132

bn3.running_mean f4 [32]
0	0x3f931880	1.1491852
1	0x3e832fe3	0.25622472
2	0x3f1334ae	0.5750226
3	0x3f130518	0.5742965
4	0x3e92077e	0.2852134
5	0x3efe1917	0.49628517
6	0x3ee984d6	0.45609158
7	0x3e229107	0.15875636
8	0x3f26385f	0.64929765
9	0x3eb506f4	0.35356867
10	0x3ecdab4f	0.4016976
11	0x3edd991c	0.43280876
12	0x3f3c8eed	0.7365559
13	0x3f106142	0.56398404
14	0x3ebe0c06	0.37118548
15	0x3f32ced4	0.69846845
16	0x3ef8731d	0.48525324
17	0x3f40ff3d	0.7538946
18	0x3e30415d	0.17212434
19	0x3e9d9c78	0.3078344
20	0x3e891fd9	0.2678211
21	0x3f1dae62	0.6159421
22	0x3f41a961	0.75649077
23	0x3ebd0a82	0.3692208
24	0x3f3112f6	0.6916956
25	0x3f337966	0.70107114
26	0x3e01388e	0.1261923
27	0x3e82d6b4	0.2555443
28	0x3e8fb0f8	0.28064704
29	0x3ecea90a	0.40363342
30	0x3f8e5ea5	1.1122633
31	0x3f966e85	1.1752478

bn3.running_var f4 [32]
0	0x3fbe8c39	1.4886543
1	0x3f01910b	0.50611943
2	0x3fcc652e	1.5968378
3	0x3fd1ac72	1.6380751
4	0x3f185d87	0.5951771
5	0x3f85c1d4	1.0449777
6	0x3f6a3772	0.9149085
7	0x3e925c5f	0.285861
8	0x3fcce89c	1.6008487
9	0x3f30db72	0.69084847
10	0x3f687834	0.90808415
11	0x3f93b56c	1.153974
12	0x3ffd8619	1.9806548
13	0x3f7b96f1	0.98277193
14	0x3f303f49	0.68846565
15	0x3f927624	1.1442304
16	0x3fa77535	1.3082644
17	0x4049cf08	3.1532612
18	0x3ecf139a	0.40444642
19	0x3ef8210a	0.48462707
20	0x3f28c38c	0.6592338
21	0x400367f9	2.053221
22	0x4005192a	2.079661
23	0x3f75f66d	0.9607914
24	0x3fb26629	1.3937427
25	0x3f63804f	0.8886766
26	0x3e7aac02	0.24479678
27	0x3f2a0358	0.6641135
28	0x3f1b1c7f	0.60590357
29	0x3f319bbc	0.69378257
30	0x403f03d3	2.9846084
31	0x3fb51127	1.414586

conv4.weight f4 [64, 32, 3, 3]
0	0xbe08f234	-0.13373643
1	0xbe82d8b2	-0.2555595
2	0xbe2f9759	-0.17147578
3	0x3e0b5e00	0.13610077
4	0x3cdd9940	0.027050614
5	0x3e69d5b9	0.22835435
6	0xbdc02537	-0.09382098
7	0xbd9b3c72	-0.075798884
8	0xbe5f377d	-0.21798511
9	0xbe4ecb53	-0.2019475
10	0xbe760f2b	-0.24029224
11	0xbe7875c0	-0.24263668
12	0xbdaf4db2	-0.08559741
13	0xbdaacfbf	-0.08340406
14	0xbd9b8115	-0.0759298
15	0xbd8ba731	-0.068189986
16	0xbe117b1d	-0.1420712
17	0xbcde5cfe	-0.027143952
18	0x3dea8ab5	0.114522375
19	0xbd6c401e	-0.057678334
20	0x3dbac792	0.09120096
21	0x3cf90f5c	0.030402832
22	0x3c714b2c	0.014727395
23	0xbe08cc99	-0.13359298
24	0xbe0b4544	-0.13600641
25	0xbe8cd3c8	-0.27505326
26	0xbe5aafd6	-0.21356139
27	0xbdc346e6	-0.09535007
28	0xbdff01b4	-0.12451497
29	0x3d42104e	0.04737883
30	0xbb4ad8b8	-0.0030951928
31	0xbd3f97e1	-0.046775702
32	0xbc9be781	-0.019031288
33	0xbd5d767f	-0.054068085
34	0xbd03b416	-0.032154165
35	0xbe084f54	-0.13311511
36	0x3d29ea53	0.041483235
37	0xbd4f2a7a	-0.05057762
38	0xbcd87cde	-0.026426729
39	0x3e5c185d	0.21493669
40	0x3d970f88	0.07376009
41	0x3cac984f	0.02106872
42	0x3a4bb02e	0.0007770088
43	0xb7ecaecf	-2.8214794e-05
44	0x3c3ee754	0.011651833
45	0x3ccd218b	0.025040409
46	0x3e28611d	0.16443296
47	0x3d2ebe32	0.042661853
48	0xbdb120d7	-0.08648842
49	0xbcfc7acc	-0.030820273
50	0xbdf8d96b	-0.12150844
51	0x3e038fee	0.12847874
52	0x3e9456cf	0.2897248
53	0x3e15225c	0.14563888
54	0xbc9cbeb9	-0.019133912
55	0x3d9bbae4	0.07604006
56	0xbd500034	-0.050781444
57	0xbcc733d1	-0.0243167
58	0xbd63837d	-0.05554532
59	0x3d14a4fe	0.03629016
60	0x3e920b74	0.28524363
61	0x3e3a7d2a	0.18211809
62	0x3e5c0f3c	0.21490186
63	0x3deec0c9	0.116578646
64	0x3da1e7bc	0.07905528
65	0x3d013aeb	0.03155033
66	0x3c25e94a	0.010126421
67	0xbd9d3bfa	-0.07677455
68	0xbd374443	-0.044742834
69	0x3d3e04f2	0.046391435
70	0x3de68d61	0.11257435
71	0x3cff1c43	0.031141406
72	0xbde6f660	-0.11277461
73	0x3c669b0b	0.014075051
74	0x3e1d2787	0.1534711
75	0x3dee41f9	0.11633677
76	0x3ddbfe48	0.1074186
77	0x3c82af13	0.015952623
78	0xbe2c1087	-0.1680318
79	0xbe70ba17	-0.23508488
80	0xbe7c802a	-0.24658266
81	0x3b1db252	0.0024062586
82	0x3d3f8973	0.04676194
83	0x3de6b1b2	0.112643614
84	0x3de68ebd	0.11257694
85	0x3e5435e9	0.2072369
86	0x3dd7b747	0.10533004
87	0x3e47d34c	0.19514197
88	0x3e80c987	0.25153753
89	0x3e869727	0.26287195
90	0xbd141b59	-0.036158893
91	0xbcfb52d5	-0.030679146
92	0xbca7eddd	-0.020499164
93	0xbc4c23ef	-0.012459739
94	0x3cd328fe	0.025776383
95	0xbc34a141	-0.011024774
96	0x3e09ad08	0.13444912
97	0x3de4bdcd	0.11169014
98	0x3d0e57f0	0.034751832
99	0x3dda6f69	0.10665781
100	0x3cb1d212	0.021706615
101	0x3dbb5348	0.09146744
102	0x3d84b973	0.06480684
103	0x3d65337c	0.055957302
104	0x3c9f98a9	0.019481974
105	0xbdc22022	-0.09478785
106	0xbd3952cc	-0.045244977
107	0xbe3b9122	-0.18317083
108	0xbdfc3eda	-0.123166755
109	0xbd129782	-0.03578902
110	0x3ca629ea	0.020283658
111	0x3cf27149	0.029595034
112	0xbcbb0eb4	-0.02283416
113	0x3dec3b6d	0.11534772
114	0x3dd4e396	0.10394971
115	0xbca894ac	-0.020578705
116	0x3e009d39	0.12559976
117	0x3def6e22	0.11690928
118	0x3df87b5f	0.12132906
119	0x3e45ef82	0.19329646
120	0xbc9f3d45	-0.019438395
121	0xbdaec3c7	-0.08533435
122	0xbdab491c	-0.08363554
123	0xbe0dd9fb	-0.13852684
124	0xbdef61a7	-0.116885476
125	0xbe25eb04	-0.16202933
126	0x3d82903e	0.06375168
127	0x3dd650ba	0.10464616
128	0xbbc42780	-0.005986154
129	0xbce83dea	-0.028349835
130	0x3d943428	0.072365105
131	0x3d35b8a7	0.04436555
132	0xbc922f00	-0.017844677
133	0xbc7053b7	-0.014668397
134	0x3d80caff	0.062887184
135	0xbe044f63	-0.12920909
136	0xbe43d7c2	-0.19125274
137	0xbda4659e	-0.080271944
138	0xbd6b33f1	-0.057422582
139	0xbd51ae9b	-0.051191907
140	0xbc9bfd4a	-0.019041676
141	0xbcf60990	-0.030033857
142	0xbe0ae85c	-0.135652
143	0xbd6a485c	-0.057197914
144	0xbe64f322	-0.22358373
145	0xbe98b3bc	-0.29824626
146	0xbe8109e9	-0.25202873
147	0x3d0b9774	0.034079984
148	0xbbe0cdd7	-0.0068604755
149	0xbcfb402d	-0.03067025
150	0xbe91d90e	-0.28485912
151	0xbe4f3def	-0.2023847
152	0xbe007741	-0.12545492
153	0x3d8937b3	0.06700077
154	0x3dd1bc8f	0.10241043
155	0x3d8d16f2	0.06889142
156	0xbdf8b5cb	-0.12144049
157	0xbe3fc59c	-0.18727726
158	0xbe675695	-0.22591622
159	0xbdf767ca	-0.12080343
160	0xbdabc221	-0.083866365
161	0xbe75aa8c	-0.2399084
162	0xbe0dd75b	-0.13851683
163	0xbe110aa9	-0.14164223
164	0xbc2510d1	-0.01007481
165	0x3c8702bb	0.016480794
166	0x3e0ae9ed	0.13565798
167	0x3cd68ff5	0.026191691
168	0xbc881cd3	-0.016615307
169	0xbc8082a5	-0.015687296
170	0xbd02507e	-0.031815045
171	0x3cce45db	0.025179794
172	0x3d4c480e	0.049873404
173	0x3c261df4	0.010138977
174	0xbc28fabc	-0.010313686
175	0x3d757584	0.059926525
176	0x3d1e7cd1	0.038693253
177	0xbe947c5d	-0.29001132
178	0xbe94e774	-0.29082835
179	0xbe10c7b2	-0.14138678
180	0xbd543996	-0.05181273
181	0x3d22f22c	0.039781734
182	0xbc002865	-0.007822131
183	0xbe6a4170	-0.22876525
184	0xbe23ede0	-0.16008711
185	0xbd8d43e4	-0.06897715
186	0x3bc8390a	0.006110315
187	0x3c989376	0.018625002
188	0xbc3c5fcb	-0.011497448
189	0xbdb434b2	-0.08799113
190	0xbe457632	-0.19283369
191	0xbe3a4d4f	-0.18193553
192	0xbe01b001	-0.12664796
193	0xbc85cc06	-0.016332638
194	0xbd8a657f	-0.0675764
195	0xbd8249f9	-0.063617654
196	0x3dae0a8e	0.08498107
197	0x3d8959e7	0.06706601
198	0xbe3b71a4	-0.18305069
199	0xbe314119	-0.17309989
200	0xbdf93b3a	-0.121695
201	0xbe00c7e4	-0.12576252
202	0xbcdb8e6a	-0.026801307
203	0xbc4c3c34	-0.012465525
204	0x3d696a94	0.056986406
205	0x3df35888	0.1188212
206	0xbcc622a4	-0.02418644
207	0x3e59bc21	0.21263172
208	0x3e2d592e	0.1692855
209	0x3e20ba6c	0.15696114
210	0xbd5c9398	-0.053851694
211	0xbe3c4489	-0.18385519
212	0xbe02507c	-0.12726015
213	0x3c16f285	0.009213095
214	0xbd5d8096	-0.054077707
215	0xbb30ec7a	-0.002699642
216	0x3c94e819	0.018177079
217	0x3d978f04	0.07400325
218	0x3c925eff	0.017867563
219	0x3e0175df	0.1264262
220	0x3d82794b	0.06370791
221	0x3d8f40ea	0.06994803
222	0x3dcdb079	0.10043425
223	0x3e6d3067	0.23162995
224	0x3e6ca9c9	0.23111643
225	0xbc9c4445	-0.019075522
226	0xbe30499d	-0.17215581
227	0x3cf7408f	0.030182151
228	0x3c0b1959	0.00848993
229	0x3da66cad	0.08126197
230	0xbc9c651f	-0.019091187
231	0xbd4c42c3	-0.049868356
232	0xbde0c3c0	-0.10974836
233	0x3c13d97a	0.009024018
234	0x3ce16318	0.027513072
235	0xbdd9d352	-0.10636009
236	0xbdea6f21	-0.114469774
237	0x3ce0897e	0.027409311
238	0xbb53b812	-0.003230576
239	0xbcb11b03	-0.021619326
240	0xbe63305a	-0.22186413
241	0xbe731a6f	-0.23740552
242	0xbdc0debd	-0.09417484
243	0xbe32f8b5	-0.17477687
244	0xbe88793a	-0.2665499
245	0xbe36a013	-0.17834501
246	0xbdeaf51b	-0.114725314
247	0xbe0f6708	-0.14004147
248	0xbe062c90	-0.13102937
249	0xbdae3d5c	-0.08507797
250	0xbdbfa305	-0.093572654
251	0xbdf443ed	-0.11927018
252	0x3dc16410	0.094429135
253	0x3defafa3	0.11703422
254	0x3db7c942	0.08973934
255	0x3d939c4f	0.07207548

conv4.bias f4 [64]
0	0xbead9a91	-0.33906987
1	0xbe7c1e97	-0.24621044
2	0xbef055a4	-0.4694034
3	0xbe9c33d3	-0.3050829
4	0xbdbca7ad	-0.09211669
5	0xbeedcc49	-0.4644492
6	0xbe819032	-0.25305325
7	0xbecf554e	-0.4049477
8	0xbe0e0fe8	-0.13873255
9	0xbe9a16bf	-0.3009548
10	0xbe24da78	-0.16098964
11	0xbec99eaf	-0.39378878
12	0xbed5a040	-0.41723824
13	0xbea032c1	-0.31288722
14	0xbde1cca4	-0.1102536
15	0xbeab2d81	-0.33433154
16	0xbe0b92c4	-0.13630205
17	0xbdf88a40	-0.12135744
18	0xbea9d231	-0.33168176
19	0x3d9e2660	0.07722163
20	0xbe29a425	-0.16566522
21	0xbe022d69	-0.12712635
22	0xbe5daad6	-0.216472
23	0xbe161d94	-0.1465972
24	0xbe85da15	-0.26142946
25	0xbe3b4738	-0.18288887
26	0xbf00784c	-0.5018356
27	0xbd12d684	-0.03584911
28	0xbc4f74eb	-0.012662153
29	0xbe82d0d5	-0.2554995
30	0xbec4aa56	-0.38411206
31	0xbe9f17de	-0.31072897
32	0xbe4bfc88	-0.19920552
33	0xbeb67feb	-0.3564447
34	0xbe89a369	-0.26882485
35	0xbf07fe60	-0.5312252
36	0xbe6afb42	-0.2294741
37	0xbe940a2c	-0.2891401
38	0x3c9333b1	0.017968984
39	0x3e5fe3fe	0.21864316
40	0xbec5f982	-0.38666922
41	0xbdde989a	-0.1086895
42	0xbe414565	-0.18874128
43	0xbed6e6de	-0.41973013
44	0xbe2e903e	-0.17047212
45	0xbdc7d598	-0.09757537
46	0xbe4c476b	-0.19949119
47	0xbe6235dc	-0.22090858
48	0xbec64db2	-0.38731152
49	0xbe89b56e	-0.26896232
50	0xbd8cd6d4	-0.06876913
51	0xbe7b0680	-0.24514198
52	0xbd4711ef	-0.048601087
53	0xbe791c11	-0.24327113
54	0xbee57504	-0.44815838
55	0xbeae0f42	-0.33996016
56	0xbdf2f1cf	-0.118625276
57	0xbef0c1d8	-0.4702289
58	0xbe606b4c	-0.2191593
59	0x3d36b1e7	0.044603255
60	0xbf108f54	-0.564687
61	0xbe0ef8cf	-0.139621
62	0xbeaa5b68	-0.33272862
63	0xbd8a6f39	-0.06759495

bn4.weight f4 [64]
0	0x4041daf5	3.028989
1	0x4064193f	3.564041
2	0x404e65e7	3.2249696
3	0x405b8699	3.4300902
4	0x40666004	3.5996103
5	0x404a96f5	3.1654637
6	0x4052f29d	3.296058
7	0x404e2438	3.2209606
8	0x404f93e1	3.2434008
9	0x404f4395	3.2384999
10	0x404deb23	3.2174766
11	0x403b0ad4	2.922536
12	0x406b6bac	3.6784468
13	0x402c21b1	2.6895564
14	0x40602e48	3.5028248
15	0x4063edca	3.5613885
16	0x403aaccb	2.9167964
17	0x40369df2	2.8533902
18	0x404683be	3.101791
19	0x4021439c	2.5197515
20	0x402c272c	2.6898909
21	0x406b4412	3.6760297
22	0x404b071d	3.1723092
23	0x402c663f	2.6937406
24	0x404684b0	3.1018486
25	0x4030acb3	2.7605407
26	0x40283b16	2.6286063
27	0x405eefe6	3.4833922
28	0x4038ddc0	2.8885345
29	0x40289525	2.634103
30	0x405c0a1a	3.4381166
31	0x406d7b3f	3.7106473
32	0x405c4e39	3.4422743
33	0x40669003	3.6025398
34	0x406a8ace	3.664722
35	0x40647175	3.5694249
36	0x405b04b7	3.4221628
37	0x4038f042	2.8896642
38	0x4027a007	2.6191423
39	0x401affcc	2.4218626
40	0x402ca851	2.6977732
41	0x404a70a3	3.1631248
42	0x404a434c	3.1603575
43	0x402b2f3b	2.6747577
44	0x404920bb	3.1426227
45	0x404d75ce	3.2103152
46	0x40143bac	2.316142
47	0x404beff0	3.1865196
48	0x40725668	3.7865238
49	0x4048ac46	3.1355147
50	0x405b39a5	3.4253933
51	0x4049b513	3.151677
52	0x4046a672	3.103909
53	0x405c8dee	3.4461627
54	0x404c09fa	3.188109
55	0x40667005	3.6005871
56	0x403a07ce	2.9067264
57	0x405bf9d1	3.4371226
58	0x405eba0e	3.4801059
59	0x4048805e	3.132835
60	0x4030c433	2.761975
61	0x403c40a2	2.9414449
62	0x404cba49	3.19887
63	0x404c8c0d	3.196048

bn4.bias f4 [64]
0	0xbe217967	-0.15768968
1	0x3dc8f985	0.09813217
2	0x3d01d5d7	0.031698074
3	0x3caf9aa7	0.021436049
4	0x3d1113bf	0.035419222
5	0xbde359c3	-0.11101105
6	0xbde23697	-0.110455684
7	0x3d923897	0.071397
8	0xbd5c2169	-0.0537428
9	0x3e3468d6	0.17618117
10	0xbe242e29	-0.16033234
11	0xbdf12c75	-0.11776058
12	0xbdb7f8fe	-0.08983038
13	0xbd63c26d	-0.05560534
14	0x3d261a7e	0.04055261
15	0xbe2cc4a5	-0.16871889
16	0xbd0343f2	-0.03204722
17	0x3d96d853	0.07365479
18	0xbd478faa	-0.048720993
19	0xbce71495	-0.028208056
20	0x3d5270f7	0.051377263
21	0x3d8e98e5	0.06962756
22	0xbdba7b5a	-0.09105559
23	0xbd904072	-0.07043542
24	0x3ad34be4	0.001612064
25	0x3e42bd88	0.19017613
26	0x3d59ba82	0.053156383
27	0xbe25eb09	-0.1620294
28	0x3e3e2c2a	0.18571535
29	0xbc69c8aa	-0.014269033
30	0xbdd62981	-0.10457135
31	0x3d43412f	0.047669586
32	0x3e696d7a	0.22795668
33	0x3d9f3fb0	0.07775819
34	0x3d8f4dfc	0.06997296
35	0xbde7b3f6	-0.11313622
36	0xbdf7c57a	-0.120982125
37	0x3ca365ae	0.019945946
38	0x3e3c9cd5	0.18419202
39	0xbc70883a	-0.014680916
40	0xbd0aa5f7	-0.033849683
41	0xbd89eee0	-0.06735015
42	0x3dc0d940	0.09416437
43	0xbca85a57	-0.02055089
44	0xbe2380f0	-0.15967155
45	0x3cfb0539	0.030642139
46	0xbd80eaae	-0.062947616
47	0xbe07fe5f	-0.13280629
48	0x3e1ee1bc	0.15515798
49	0x3e2d114c	0.1690113
50	0xbb0dbe0b	-0.0021628167
51	0x3d28e1fa	0.041231133
52	0x3d27db36	0.04098054
53	0x3d3e9eed	0.046538282
54	0x3cf4304f	0.029808192
55	0xbdab00ec	-0.08349785
56	0x3e147ae2	0.14500001
57	0xbe5912ef	-0.21198629
58	0x3e384ada	0.17997304
59	0xbdd1a2f5	-0.1023616
60	0x3def4e72	0.11684884
61	0x3d0b8e42	0.034071214
62	0x3e15e945	0.14639767
63	0x3caa952f	0.02082309

bn4.running_mean f4 [64]
0	0x3df12e88	0.11776453
1	0x3ddb1548	0.106974185
2	0x3df7ce03	0.120998405
3	0x3d9c1fe2	0.07623269
4	0x3e66f845	0.22555645
5	0x3e068135	0.13135226
6	0x3d939403	0.07205965
7	0x3da047c1	0.07826186
8	0x3e5d10d0	0.21588445
9	0x3dd87ed1	0.10571063
10	0x3dc69027	0.09695464
11	0x3deaa385	0.1145697
12	0x3d98b965	0.07457236
13	0x3e94f9ca	0.29096824
14	0x3dcbf002	0.09957887
15	0x3dd2323f	0.1026349
16	0x3e26ec32	0.16301039
17	0x3ed098be	0.40741533
18	0x3e03da93	0.12876348
19	0x3f9cdb15	1.2254359
20	0x3e1e255e	0.15443942
21	0x3e182c27	0.14860593
22	0x3e19550f	0.14973854
23	0x3f30791d	0.68934804
24	0x3e1c7379	0.15278424
25	0x3ee7e469	0.4529145
26	0x3e1ce931	0.1532333
27	0x3d9afdb9	0.07567925
28	0x3e17f09c	0.14837879
29	0x3d9684a7	0.0734952
30	0x3df034a3	0.1172879
31	0x3dd2b3e2	0.10288216
32	0x3e262f79	0.16229047
33	0x3dde6a29	0.10860092
34	0x3da009f6	0.078144
35	0x3d153308	0.03642562
36	0x3da6e06b	0.08148273
37	0x3df27f68	0.11840707
38	0x3e93506a	0.2877229
39	0x3fbc384a	1.4704678
40	0x3e171f38	0.14758003
41	0x3e450c3e	0.19242951
42	0x3e2e0265	0.16993101
43	0x3e5f5df0	0.21813178
44	0x3e726981	0.23673059
45	0x3ebd7a29	0.37007263
46	0x3f1cd0cf	0.61256117
47	0x3e13b7fc	0.14425653
48	0x3db0013c	0.085939854
49	0x3e2e794c	0.17038459
50	0x3dd14d3a	0.10219808
51	0x3ddfc004	0.10925296
52	0x3e834e58	0.2564571
53	0x3d8931cf	0.06698953
54	0x3e873a6a	0.26411754
55	0x3d48e452	0.04904587
56	0x3e4eed9f	0.20207833
57	0x3d808cbf	0.06276845
58	0x3e278c0c	0.16362017
59	0x3ecade65	0.396228
60	0x3d7dd0d9	0.06196675
61	0x3e77626c	0.24158639
62	0x3e329eea	0.17443433
63	0x3e4cf2c7	0.20014487

bn4.running_var f4 [64]
0	0x3e136f4b	0.14397924
1	0x3e4eba3f	0.20188235
2	0x3e83de5a	0.25755578
3	0x3de4b24a	0.111668184
4	0x3e9d3052	0.30700928
5	0x3eb83bd9	0.3598316
6	0x3dd7a730	0.10529935
7	0x3e3eab9b	0.1862015
8	0x3eaec33d	0.3413333
9	0x3e1e31b0	0.15448642
10	0x3e4304eb	0.19044845
11	0x3e3b474c	0.18288916
12	0x3e2befaa	0.16790643
13	0x3f182115	0.5942548
14	0x3e583df4	0.21117383
15	0x3e5ec381	0.21754266
16	0x3e94092f	0.28913257
17	0x3f5033c4	0.8132899
18	0x3e63a2be	0.2223005
19	0x3fe6f71c	1.8044162
20	0x3edf6e76	0.43638963
21	0x3e4f42cb	0.20240323
22	0x3ea5fee1	0.3242102
23	0x3f46ad9b	0.7760865
24	0x3e882d4a	0.26597053
25	0x3f31138e	0.69170463
26	0x3eb19bb8	0.34689116
27	0x3e357617	0.17720829
28	0x3ea5b16f	0.32361934
29	0x3e2830b0	0.16424823
30	0x3eaf14d4	0.34195578
31	0x3e33f30a	0.17573181
32	0x3ea9d36a	0.3316911
33	0x3e743f99	0.23852386
34	0x3de2d383	0.11075499
35	0x3d85c951	0.06532539
36	0x3e00f81c	0.12594646
37	0x3ebd7dea	0.37010127
38	0x3f3a472f	0.7276487
39	0x40143244	2.315568
40	0x3ea25954	0.31708777
41	0x3eaeedd4	0.34165823
42	0x3ea5adc0	0.32359123
43	0x3f321899	0.69568783
44	0x3eadc8a8	0.3394215
45	0x3f1241ba	0.5713154
46	0x3f5ccfe5	0.8625472
47	0x3e6c6f9f	0.23089455
48	0x3e2aba68	0.16672671
49	0x3e8a8447	0.27054045
50	0x3e35681d	0.17715497
51	0x3e231c93	0.15928869
52	0x3f0c2872	0.54749215
53	0x3e06b9ba	0.13156787
54	0x3f0b7765	0.54479057
55	0x3dc0e04f	0.094177835
56	0x3ed2837f	0.4111595
57	0x3de688f2	0.11256589
58	0x3e90f87e	0.28314584
59	0x3f1db194	0.6159909
60	0x3df6ba04	0.120471984
61	0x3eddd1e1	0.43324187
62	0x3e7f892a	0.24954668
63	0x3ec86f51	0.39147428

lin.weight f4 [10, 64]
0	0xbe9d41e1	-0.30714324
1	0xbf6150f5	-0.88014156
2	0x3dce65b1	0.1007799
3	0xbef58ef1	-0.47960618
4	0xbf7c07a5	-0.98449165
5	0x3ea37ca3	0.31931028
6	0xbe7a5d07	-0.2444955
7	0x3fa0b467	1.2555054
8	0xbfa2fde9	-1.2733737
9	0x3f264790	0.64952946
10	0xbf445564	-0.76692796
11	0xbebb566a	-0.36589366
12	0xbf7294a2	-0.94758046
13	0xbc39d1dd	-0.011341539
14	0xbf1a5454	-0.60284925
15	0xbc935aa3	-0.017987555
16	0x3e207f69	0.15673603
17	0xbe8f1255	-0.27943674
18	0xbf1f18ee	-0.62147415
19	0xbe85fd97	-0.26170036
20	0x3e28c0c2	0.16479781
21	0x3e0f58a3	0.13998656
22	0xbf0b5213	-0.5442211
23	0x3f2935bc	0.6609762
24	0xbb15d2cd	-0.0022861243
25	0x3ee53574	0.44767344
26	0x3f7d4de3	0.9894697
27	0xbf8dfcd9	-1.1092788
28	0x3efae789	0.49004772
29	0x3f0cdc30	0.5502348
30	0xbfa59545	-1.2936178
31	0xbfb1c297	-1.3887509
32	0x3ed689ab	0.41901907
33	0xbfa80f33	-1.3129638
34	0x3f30a433	0.6900055
35	0xbf2e756b	-0.68147916
36	0xbea102e2	-0.31447512
37	0x3f2c7df4	0.6737969
38	0x3cfe3d2c	0.031035028
39	0xbee7b978	-0.4525869
40	0x3f83f962	1.031048
41	0xbf18c06c	-0.5966861
42	0x3f8e5585	1.1119848
43	0x3efcf91e	0.4940881
44	0xbf35f0ef	-0.7107076
45	0x3f0e75a2	0.55648243
46	0xbe14416a	-0.14478078
47	0xbe636ba7	-0.22209035
48	0xbefa6eca	-0.4891265
49	0x3f34a934	0.70570683
50	0xbf23ec5f	-0.6403255
51	0xbe6046f2	-0.21902063
52	0x3e0fbb7d	0.14036365
53	0x3fb67f43	1.4257587
54	0x3f00b0b8	0.5026965
55	0x3fd4d5a4	1.6627698
56	0x3e8c9d1e	0.2746362
57	0xbebdc1ad	-0.37061825
58	0x3f417997	0.75576156
59	0xbf8f9324	-1.1216779
60	0x3d0fadfe	0.03507804
61	0x3e40bf10	0.18822885
62	0xbe88441a	-0.26614457
63	0xbb31bf36	-0.0027122027
64	0xbedd0219	-0.43165663
65	0xbf1b7449	-0.6072431
66	0xbefa6db5	-0.48911825
67	0x3fa0dea2	1.2567942
68	0xbfc3cea3	-1.5297436
69	0xbecd1ecc	-0.4006256
70	0xbe828391	-0.25491002
71	0xbf38735e	-0.72051036
72	0x3f37aba4	0.7174628
73	0xbf02a018	-0.51025534
74	0xbe284263	-0.16431575
75	0xbe9c344b	-0.30508646
76	0xbe7974fe	-0.24361035
77	0x3f31d6bf	0.694683
78	0xbf57b940	-0.84267044
79	0x3d344cfd	0.044018734
80	0xbf56d310	-0.83915806
81	0x3e3f079d	0.18655248
82	0xbcf8d7cb	-0.030376336
83	0xbce66f2f	-0.028129188
84	0xbea9a454	-0.33133185
85	0xbf8dd9b2	-1.108206
86	0x3eb15c09	0.3464053
87	0xbe7371d4	-0.2377389
88	0x3fa429b9	1.2825233
89	0x3e8872b5	0.26650015
90	0x3ec52e41	0.3851185
91	0xbd945624	-0.072429925
92	0xbfbcc18c	-1.4746566
93	0xbf251af5	-0.6449426
94	0xbda0f87f	-0.07859897
95	0xbf75154f	-0.9573564
96	0x3c743c0c	0.014906894
97	0xbf16aa8e	-0.58853996
98	0xbfac277a	-1.3449547
99	0xbef7b9d4	-0.48383963
100	0xbea272de	-0.31728262
101	0xbf565f21	-0.83738905
102	0xbfa3caae	-1.2796228
103	0x3e0f2fa1	0.13983013
104	0xbcb48dbc	-0.02204024
105	0x3f9abbcd	1.2088562
106	0xbf10bda2	-0.56539357
107	0xbd929061	-0.07156444
108	0x3f030acb	0.51188344
109	0xbf5b6e80	-0.85715485
110	0xbeb6ab82	-0.35677725
111	0xbf0bbade	-0.5458201
112	0xbfc82900	-1.5637512
113	0x3f241515	0.6409467
114	0xbe88cfa7	-0.26720926
115	0xbeea5912	-0.4577108
116	0xbf10d2f8	-0.5657191
117	0xbf9bd9f5	-1.217589
118	0x3eeb4dd0	0.45957804
119	0xbf5ce098	-0.862802
120	0xbf9f002b	-1.2421926
121	0x3f2caa34	0.6744721
122	0x3f77e0c1	0.9682732
123	0xbf23d92a	-0.6400324
124	0xbf046697	-0.5171904
125	0xbf60c7e2	-0.87804997
126	0xbf388586	-0.7207874
127	0xbf422ce4	-0.7584975
128	0xbf34ac19	-0.705751
129	0xbf206c30	-0.6266508
130	0x3fbb2136	1.461951
131	0x3e088bbd	0.13334556
132	0x3f5eaf13	0.8698589
133	0xbf396bc8	-0.72430086
134	0xbf41131d	-0.7541979
135	0x3ee0bbac	0.43893182
136	0x3d2ee4ce	0.042698674
137	0xbddb26f9	-0.10700793
138	0x3f24bc31	0.6434966
139	0x3f8309ef	1.0237406
140	0xbf58e987	-0.84731334
141	0x3eefd8cf	0.468451
142	0xbf2a4fd3	-0.6652805
143	0xbf02b39a	-0.510553
144	0xbebb740a	-0.36611968
145	0x3ec93be7	0.39303514
146	0x3f9031d0	1.1265202
147	0x3e96994b	0.29413828
148	0xbf445808	-0.76696825
149	0xbf948f62	-1.1606257
150	0xbf380c12	-0.7189342
151	0xbf00c7d0	-0.5030489
152	0x3ea48d6a	0.3213914
153	0x3de7f857	0.11326664
154	0xbef8a819	-0.48565748
155	0xbea9d8f2	-0.3317333
156	0xbeec271d	-0.4612359
157	0xbf4bcc4e	-0.7960862
158	0xbf2bdc70	-0.67133236
159	0x3f87302d	1.0561577
160	0xbe23003c	-0.15918058
161	0x3f198a2a	0.59976447
162	0xbf4b6a9c	-0.7945955
163	0x3fe34fe9	1.7758762
164	0x3f7b1d31	0.9809142
165	0x3f87c28c	1.0606246
166	0x3ecd8a0d	0.40144387
167	0x3e9fa247	0.31178495
168	0xbe943576	-0.28947037
169	0xbec6e151	-0.38843778
170	0xbe94f78d	-0.29095116
171	0xbf725ccd	-0.9467285
172	0xbf3e9383	-0.74443835
173	0xbf4ffa61	-0.8124142
174	0x3ef1cf18	0.47228312
175	0xbeff675f	-0.49883553
176	0x3fb3d78c	1.4050155
177	0xbdcd81ce	-0.10034524
178	0x3f4283ee	0.7598256
179	0xbfaea691	-1.3644582
180	0xbda80d44	-0.08205655
181	0xbefac4ce	-0.48978275
182	0x3f080892	0.5313808
183	0xbf0833f6	-0.53204286
184	0x3e7b6b38	0.2455262
185	0xbeb60b46	-0.35555476
186	0xbe468f0f	-0.1939051
187	0xbf2aa169	-0.6665254
188	0x3f9f46a9	1.2443439
189	0x3f713150	0.9421587
190	0xbeaf8a03	-0.34284982
191	0x3f1ed99b	0.6205079
192	0x3fe39ce5	1.7782255
193	0x3f5a6dfd	0.8532408
194	0x3f0d6078	0.55225325
195	0xbfc0d213	-1.506411
196	0x3f7d81b6	0.9902605
197	0x3e6c861d	0.23098035
198	0xbf3326de	-0.6998118
199	0xbea1f667	-0.31633303
200	0xbe9e7dfd	-0.30955496
201	0xbfe1ffae	-1.7656152
202	0xbf08bdc6	-0.5341457
203	0xbed1d0ce	-0.40979618
204	0xbf691862	-0.9105283
205	0xbd7fb108	-0.06242469
206	0xbd934934	-0.07191697
207	0xbf5ed33b	-0.8704106
208	0x3f5fc57b	0.87410706
209	0x3f47f631	0.78110033
210	0xbdaaf280	-0.083470345
211	0x3ead25e4	0.3381797
212	0xbf06cb81	-0.5265427
213	0x3eb40c4f	0.3516564
214	0xbf35f185	-0.71071655
215	0x3f31e825	0.6949485
216	0xbe653802	-0.22384647
217	0xbe206e4c	-0.15667075
218	0xbf3bfbe8	-0.73431253
219	0xbe4223f3	-0.18959026
220	0xbf47393c	-0.7782171
221	0xbd675362	-0.056476004
222	0xbe0ba7c3	-0.13638215
223	0x3f44db08	0.76896715
224	0xbf751987	-0.95742077
225	0xbf541274	-0.8284066
226	0xbcf97d8d	-0.030455375
227	0xbed91ead	-0.42406216
228	0xbedab6e7	-0.42717668
229	0xbe993519	-0.29923323
230	0xbf443802	-0.7664796
231	0x3e9874f9	0.29776743
232	0x3e9b7bbf	0.30367848
233	0x3fafd56b	1.3737005
234	0xbd639f0b	-0.055571597
235	0x3f3e2608	0.7427678
236	0x3f932a78	1.1497335
237	0x3f6eb392	0.9324275
238	0x3eb9ab7e	0.3626365
239	0xbf1fe6fa	-0.6246182
240	0x3b6e244e	0.0036337557
241	0xbf72a9f7	-0.94790596
242	0xbebee1d0	-0.37281656
243	0xbeb7e732	-0.35918576
244	0x3f17973c	0.5921514
245	0x3f3b62c2	0.7319757
246	0xbf6938bd	-0.911022
247	0xbec337bf	-0.38128468
248	0xbf33760b	-0.70101994
249	0x3fa84c82	1.3148348
250	0xbf3a06c4	-0.72666574
251	0x3e467558	0.193807
252	0xbeb574f5	-0.35440794
253	0xbee03636	-0.4379136
254	0x3ec5b71d	0.38616267
255	0xbefb1cd5	-0.49045435

lin.bias f4 [10]
0	0x3ddfc3d0	0.1092602
1	0x3ce89f86	0.02839638
2	0x3e1c0fb6	0.15240368
3	0x3b4ef3e3	0.0031578473
4	0x3ca40943	0.020023948
5	0xbe12dd43	-0.14342217
6	0xbe4420df	-0.19153164
7	0xbdaff675	-0.0859193
8	0x3d3cbc16	0.04607781
9	0xbdc88540	-0.097910404
