NCC_Code/2022-08-13_11-13-17_model.pt (torch, 115275 bytes, 50 tensors)

conv1.weight f4 [8, 2, 5, 5]
00000000: 49ba 053e 7a77 213c bbf6 f9bc f117 103e
00000010: 3564 a53d 2e51 56bc cb1e 4b3e 9993 b13e
00000020: 9445 943e d491 3a3e b13f a53e 3f0a bc3e
00000030: 1afb 103e 33ab 91bd e66d a4bc 3be9 5cbd
00000040: c21c 7ebe ccc6 d3bd 0c3a ea3d 66cd 423e
00000050: a3da bf3d 2f5b 6fbe 801b 06be 685c 60be
00000060: eb09 183d 48a8 b8bb 51a9 223e 298b 883b
00000070: 81ce 533e a9e9 a6bd 62cc 933e c2c4 b43e
00000080: 8406 8d3e dc5b e23e 8268 713e acac 243d
00000090: 9695 97be 25d2 1b3e 68cd 6b3d 36ce 1d3d
000000a0: a8a5 88bd 7cf0 bd3d 220c f0bc 9d0f ce3c
000000b0: 5279 afbe 1711 cfbe 7208 84be 4548 9fbe
000000c0: 0060 cebe abe6 67be 5cc6 a4be 6398 c33d
000000d0: 6d34 f33c 13a0 1a3e 535d dc3d 79fc 043d
000000e0: ab7d afbd 385e 8abe bb05 0c3f 712a 933e
000000f0: c16e a43d dae5 943e bc99 c93e ec84 563d
00000100: bdd8 32bd b8a0 a0bc ca31 e6be 343b eabd
00000110: 2bda 673e b5f7 5e3d 0913 7a3e c482 d23e
00000120: 1934 c0bc 7bcb ecbd cb3c 8b3e 9f0d 843e
00000130: f79b 8e3e b8ba e23d 832a 09be 980f c8bc
00000140: 2856 813e 5b08 3c3e f1ed 043f d1ef 92bd
00000150: 4bcd 44be d7a9 3c3e 77de c73d 006c 373e
00000160: 34b2 683e 7f91 9d3e da4e 51be 892d 8a39
00000170: 04a4 323d 8a7b 57be 26ac 933c 8a1a 2cbb
00000180: 21b0 933d 1e6f 63bd f559 bb3e 17ad 84bd
00000190: 2e6f 02bc a2d8 7f3e cbaa c1bd 8217 7bbd
000001a0: 28ec 70be a36c 2d3e d7d6 c0bd 0a57 ed3e
000001b0: 5f0d 963e 3a84 a6bd 3cf5 be3b e776 c1be
000001c0: 2445 95be c17b 15be a74e 1b3c 0567 1ebe
000001d0: 5f1a 0bbe 94e9 f83d 45f9 153d 1930 f13c
000001e0: f455 dc3d 2e0f ac3e cbb4 8a3d 5cb8 46bd
000001f0: 9491 563e 45a5 573e d5a7 823e 79d3 33bd
00000200: 447e 38be d61e d0bc b5f3 943e eb5b 113f
00000210: 5a47 6d3e 0be9 943c a8d7 713d ba55 50be
00000220: b337 b6bc de39 53be b0f1 22be 70ed b8be
00000230: bfd4 133c 1a88 293e 5791 743c 2cd0 11be
00000240: 1a6f 8dbd b62b a03d 2006 afbd 6682 8e3e
00000250: 2b8a 163e c71c 4bbe 5f2c 553e 9c7e 063e
00000260: 3a6f 213c 3db1 2fbe 3590 c9be 0a9c 89bd
00000270: d2ec 5dbe efc2 46bd 0ce0 a4bd 91bd 1ebe
00000280: e890 ce3d 640a 6abc fe36 ce3c 586e 53be
00000290: d4c8 c53d 3794 d63d 5f4e ddbd 3b0e 28bd
000002a0: 4b25 873d 9c84 7c3e 372e 873e 93b3 b43e
000002b0: d72c 683e 030e b13e 281c 353e 06db 2bbd
000002c0: 4844 533e 3f43 9cbd afcd ec3c fa61 953e
000002d0: e6cb b0bd eb83 a9bd 96a5 56be 4d5a e4bd
000002e0: ff3c 58be 23cf 8a3d 2e48 f5bd e729 883b
000002f0: e5f9 76bb e722 cdbd 8ef5 d23d cd95 143f
00000300: b9cf b03e 7814 9e3e a50b 9d3e 61bf 0fbd
00000310: 8a61 5c3d 7a4f a73d df01 d53d 2dfb ac3c
00000320: e4a4 18be a0e8 fdbd 6162 10bc edeb 2ebd
00000330: 75cc 95ba e914 34be 0fb0 93bd 7b12 47be
00000340: bf17 2a3e f13d 81bd 7c56 7fbe 7302 0e3d
00000350: 7b9d 9bbe be9a 36be 3f1f e3be 9188 273e
00000360: 8474 4c3e 3ab4 173e 3398 003e c950 493d
00000370: 2077 46bb bfb0 0abd 2998 8dbe 46a6 803d
00000380: 9cbc dabd 7499 e93d a597 b3bd 6df9 6bbe
00000390: 51d3 febd d032 87be b1f7 f53c 1617 18be
000003a0: 65c8 13bd 5516 0bbf 3282 56bd 3dc6 5c3e
000003b0: a5be 9f3d 71c4 873e c282 503d 177b 883e
000003c0: 8c13 cf3e 9cae 6c3e 32e3 593e a379 773e
000003d0: 3bb4 5d3d 3e90 953d 4f96 853e 3e08 153e
000003e0: e077 52be 131a ab3d ff62 28be deea 2a3e
000003f0: 2857 043e b5eb 713e 4f02 153e 8630 08be
0.13059343 0.009855146 -0.030513158 0.14071633 0.080757536 -0.013080878 0.19835965 0.3468292
0.28959334 0.18219692 0.32275155 0.36726567 0.14158288 -0.07112732 -0.020071935 -0.053933363
-0.24815658 -0.10340652 0.11436853 0.19023666 0.093678735 -0.23374628 -0.13096428 -0.2191025
0.037118834 -0.005635295 0.15884902 0.00416698 0.20684244 -0.08150036 0.2886687 0.35306364
0.27544034 0.44210708 0.23575023 0.040203735 -0.29606313 0.15216883 0.057568938 0.038526736
-0.066722214 0.092743844 -0.02930266 0.02515393 -0.34272248 -0.40442726 -0.25787693 -0.31109825
-0.40307617 -0.22646587 -0.32182586 0.0955055 0.029688084 0.15100126 0.10759988 0.03246734
-0.08568891 -0.27025008 0.54696244 0.28743318 0.08028937 0.29081613 0.39375103 0.052372858
-0.04366373 -0.019607887 -0.4495986 -0.11437073 0.22641818 0.05443545 0.24421324 0.4111539
-0.023462342 -0.11562248 0.2719482 0.25791642 0.27853367 0.1107077 -0.13395123 -0.024421498
0.25261045 0.18362562 0.5192557 -0.071746476 -0.19218938 0.18424164 0.09759229 0.17912292
0.22724229 0.30775067 -0.20440236 0.00026355337 0.04361345 -0.2104322 0.018026423 -0.0026260936
0.07211328 -0.05552589 0.3659207 -0.06478327 -0.007961078 0.24984983 -0.09456404 -0.061301716
-0.23527586 0.16935973 -0.094159774 0.46355468 0.29307076 -0.08130689 0.005827574 -0.37786028
-0.29154313 -0.1459799 0.009479201 -0.15468986 -0.13584279 0.121539265 0.036614675 0.02944188
0.10758582 0.3360533 0.06772765 -0.048515663 0.20953971 0.21059139 0.2551867 -0.043902848
-0.18016917 -0.025405329 0.29092184 0.5678088 0.2317175 0.01817753 0.059043556 -0.20345202
-0.022243356 -0.20627543 -0.15912509 -0.3611865 0.009022891 0.16555825 0.01492723 -0.14239568
-0.069059566 0.07820837 -0.0854609 0.2783386 0.14701144 -0.19835196 0.20817707 0.13134235
0.009853179 -0.17157455 -0.39367834 -0.06719215 -0.21672371 -0.048525747 -0.08050546 -0.15502001
0.100862324 -0.014284704 0.025172707 -0.20647562 0.096574455 0.104774885 -0.10805964 -0.041029196
0.0659891 0.24659961 0.26402447 0.35293254 0.22673355 0.34581003 0.17686522 -0.041956924
0.20631516 -0.07630014 0.028906671 0.29176313 -0.086326405 -0.082771145 -0.20961604 -0.11150036
-0.21117018 0.067777894 -0.11976658 0.004155386 -0.003768557 -0.10016423 0.10300742 0.5804108
0.3453348 0.3087499 0.30672947 -0.035094623 0.053803958 0.08169456 0.104007475 0.021115864
-0.14906651 -0.12397885 -0.008812518 -0.042705465 -0.0011428731 -0.17586102 -0.07211315 -0.19440643
0.16610621 -0.063106425 -0.24935335 0.034670305 -0.30393586 -0.17832467 -0.44359776 0.1636069
0.19966322 0.14814845 0.1255806 0.04914931 -0.0030283406 -0.033859964 -0.2765515 0.06281714
-0.10680506 0.11406222 -0.08769158 -0.23044367 -0.12442649 -0.26405954 0.030025335 -0.14852557
-0.036079783 -0.5433095 -0.052370258 0.21559997 0.078000344 0.2651706 0.05090595 0.2665641
0.404446 0.23113483 0.21278074 0.24167494 0.05412696 0.07302903 0.2609124 0.14553925
-0.20553541 0.08354583 -0.16444014 0.16691157 0.12923872 0.23625071 0.14551662 -0.1329976

conv1.bias f4 [8]
00000000: 54e4 b73e d54a f03d 9035 f03d 6a09 bb3d
00000010: 6f10 ba3e e850 f93d 89f4 333d 8f4f 213d
0.35916388 0.11733023 0.11728966 0.09132655 0.36340663 0.12173635 0.04393438 0.039382514

bn1.weight f4 [8]
00000000: b722 813f 79cb 7b3f 2360 6a3f 26c6 833f
00000010: ca6c 893f bb20 6e3f ca82 6c3f 71ae 8a3f
1.0088719 0.9835735 0.91552943 1.0294845 1.0736325 0.9301869 0.9238707 1.0834485

bn1.bias f4 [8]
00000000: fcad 1fbd 8ce8 a3bd 9e84 2e3e 1c0d 87bd
00000010: eacb 813c 7040 d4bb 8eb6 e3bd c8b8 a0bd
-0.038984284 -0.08003339 0.17042777 -0.06594297 0.015844304 -0.006477408 -0.11118804 -0.07847744

bn1.running_mean f4 [8]
00000000: a534 5a3f d75e 933f a0d1 223f e004 403f
00000010: cd6a 2f3f 04f0 d93e f32e 4e3f 3b08 883e
0.8523658 1.1513318 0.6360111 0.7500744 0.6852234 0.4256593 0.8054039 0.2656878

bn1.running_var f4 [8]
00000000: a313 0e40 7499 a940 b02f e23f e265 3d40
00000010: 6759 823f 2ab2 3c3f 1a15 4240 6a8c 1b3f
2.2199485 5.299982 1.7670803 2.9593434 1.0183533 0.73709357 3.032538 0.6076113

conv2.weight f4 [16, 8, 3, 3]
00000000: 373a ae3e b4eb 303e bda0 bfbd 16e9 94bd
00000010: a607 2d3c 922c 48be dea8 e43d dfdd 193e
00000020: f0c6 2cbe 8124 39be e8f4 7d3e 865a 52be
00000030: 74b6 c13e a721 c23d 061b 543d 0e53 a3be
00000040: 4c41 b93e 7f6f e83d bc51 553d 9a8f d03b
00000050: a1fa 12be 5b59 dabd 23ba e03d 8668 d43d
00000060: c054 31be a602 59be 7c85 0bbe 27b7 51be
00000070: 445f 8bbd 5db1 51be dba9 0a3e f545 a33c
00000080: b8f9 583e 41f2 99bd abb0 ea3d a9c8 cc3e
00000090: bfa8 af3c fbb6 913d 1ec5 493d 0bd6 683c
000000a0: b495 443e 2745 423b e05c ca3e f088 983e
000000b0: 7262 753d 815d b43d 86f6 b0bd 8ae2 12be
000000c0: 60ed aa3d f6a8 b13c 1282 abbd 7172 cb3d
000000d0: d131 1cbe a075 93be 69b6 a83e a505 32be
000000e0: 81df 883e 3fc5 8cbd 50d7 c23b bda2 f03d
000000f0: d6c7 bc3c c648 783d 4b0c cabd 82db 493e
00000100: 9776 c4bd 478b 85be 207d d03e 8f46 313e
00000110: 6c64 d93e 5a37 2dbe 4dc1 7b3e 7754 11bd
00000120: aeda ba3d 847c 6f3e 1f2c e23d bba2 7cbd
00000130: ace1 cfbd b666 cebe b1f5 0bbe f58f 9bbd
00000140: b2d1 83bd 4d01 4f3e af90 d03c 26b4 9f3e
00000150: 7ece 22be 018c 043d c43c 293c 0727 6ebd
00000160: 863c 3c3e 3de3 4c3d 8972 79bc 8148 5e3e
00000170: e0c9 47bd 523e a5be 901f 24be c956 1ebd
00000180: 4fe9 f33c 43d6 f93d 19c3 1dbb 4204 aa3d
00000190: 87ed 31be 9f01 1c3d 2c9a 963e e4ff 643e
000001a0: f113 dc3d 7b17 f5bb 8a3d 34be 7c6a 1c3d
000001b0: adbf 0c3d 3393 c63e 992c fbbd a484 ab3d
000001c0: 4e8c 0b3e 7f26 533e 3b81 2e3d 64cb 833e
000001d0: 8c37 2e3e 159a fbbd 557b 273e 9726 1dbd
000001e0: 218b 363e 6c3b ebbd 8530 0bbd 3396 2e3d
000001f0: 5435 483e 9d2b 1c3c d94a d73b 52da 23be
00000200: 75a4 dfbd c20a a33d ed4a 223e ae42 6a3e
00000210: 6f62 b13c 8304 b3bc 965d 3b3e be2c c1be
00000220: 6816 c1bd 21f8 593e 4983 bebd fac8 8cbd
00000230: a483 53be b5a3 9d3e f32d f13d 28a8 de3d
00000240: fa92 a1bc ef8e d23d 75ab 883d 2329 32bd
00000250: 5e6d 9ebd 9ec1 083e 13a5 a03e f64d 3d3e
00000260: cfdc 243d ff0c 6e3e 06fa 1b3e 3094 913e
00000270: 4ec0 56bd 2e7b a3bd 99a8 9fbd 8008 00be
00000280: 3d02 5cbe 5db2 2ebb 7f52 8b3e 9bd0 b63e
00000290: ca10 993d 6265 03be 78fa 1fbe 91a0 b33d
000002a0: 6acb 163e aa1f eb3c eec1 2cbd 6657 aebe
000002b0: c73a e1be 85d1 243d 5cea d5bd aec9 cc3c
000002c0: 9358 08be 24da 783e 69fa 88be 2729 dbbe
000002d0: f9f6 a0bd 4c0a dbbd 0938 c4bc ba91 d53e
000002e0: e430 cc3e 8efc a93e 25df ccbd 0340 42be
000002f0: d376 f3bd 3ebc e7bd 6d5a dcbd 0d86 813d
00000300: 2117 debd c72d 0a3e 33ca 8abd d3a9 4c3d
00000310: 0e83 073e 8db0 973c f7ce 2abd e7fe 46be
00000320: d936 8ebd c100 89be e675 96bd c2b4 593b
00000330: 2709 00be 96b5 89be 3b6c c53c 94b0 ffbd
00000340: 998e a8bc ff53 e63d d486 aabd c96b bebc
00000350: 73ca 65be b43b 50be 9438 323b c30e 213c
00000360: 509b bebc 2026 86be 6ebf 1abe 9b5d b4be
00000370: 4a85 8abe 2683 04be 49f2 e1bd 1a2c 483e
00000380: 3439 443d 50e7 febd f6bf 08be f85a 81bd
00000390: 6bbe c0bd 628a 383e ceca ba3d e3ae 17be
000003a0: 7dd9 17be e8d1 f0bc aa17 013c 2a04 5cbe
000003b0: 36a5 87be 9b5b 06be 6014 35be 22dc eb3d
000003c0: 0e61 7fbe f456 2f3d d24d f2bd 6f32 3fbe
000003d0: dda1 fa3c d7f1 823d da76 96bc c23b 083d
000003e0: 2b2c b93d 226d 323e bd4a c83c 14cd 1a3e
000003f0: 1581 603d e4b1 183d 28c1 4ebe 18da be3e
0.3402879 0.17277414 -0.0935683 -0.0727102 0.010560906 -0.19548252 0.11165021 0.15026043
-0.16872764 -0.18080331 0.24800456 -0.20542344 0.37834513 0.09479075 0.051783584 -0.31899303
0.3618263 0.11349391 0.0520799 0.006364775 -0.1435342 -0.106615745 0.10973003 0.10371499
-0.17317486 -0.21192417 -0.13625139 -0.20480023 -0.0680528 -0.20477815 0.13541357 0.019930819
0.2118901 -0.075169094 0.11459478 0.39996842 0.02144277 0.07114979 0.04926025 0.014211188
0.19197732 0.0029643269 0.39523983 0.29791975 0.059908338 0.08806897 -0.086407706 -0.1434423
0.08346057 0.021687012 -0.08374418 0.09933937 -0.15253378 -0.28800678 0.32951668 -0.17384966
0.2673302 -0.06873559 0.0059460774 0.1174979 0.023044508 0.060616277 -0.09865626 0.19712642
-0.09592932 -0.26082823 0.40720463 0.17312072 0.42459428 -0.16915646 0.24585457 -0.035480943
0.09123741 0.23387343 0.11043572 -0.06167863 -0.10150465 -0.40312737 -0.13667943 -0.07595817
-0.064364806 0.2021534 0.025459616 0.3119213 -0.15899083 0.03236008 0.010329429 -0.058142688
0.18382463 0.0500214 -0.015225061 0.21707346 -0.048776507 -0.3227411 -0.16027665 -0.038656984
0.029774336 0.1219907 -0.0024072586 0.08301593 -0.17375766 0.038087483 0.294145 0.2236324
0.10745991 -0.0074796057 -0.176016 0.03818749 0.034362484 0.3878418 -0.12264366 0.083749086
0.1362774 0.20620154 0.042603713 0.25741112 0.17013377 -0.12285248 0.16355641 -0.03836688
0.17826511 -0.11485943 -0.03398182 0.04262371 0.19551593 0.009531883 0.006570202 -0.16001251
-0.109200396 0.07961036 0.15848894 0.22876999 0.021653382 -0.021852737 0.18297419 -0.37729448
-0.09428102 0.2128606 -0.093023844 -0.06874271 -0.20655686 0.3078896 0.11776342 0.10871917
-0.019723404 0.10281169 0.06673328 -0.043496262 -0.07735704 0.13355109 0.31375942 0.18486771
0.040249642 0.23247145 0.15232095 0.2843337 -0.05242949 -0.07982479 -0.07795829 -0.12503242
-0.21485229 -0.0026656606 0.27211377 0.35706028 0.074739054 -0.12831643 -0.1562289 0.0877086
0.14726034 0.028701622 -0.042177133 -0.34051055 -0.43990156 0.040238876 -0.10445091 0.024998512
-0.13315038 0.24301964 -0.26753548 -0.42804834 -0.07859606 -0.10695323 -0.0239525 0.41712743
0.3988105 0.33200496 -0.10003499 -0.18969731 -0.11887898 -0.11315201 -0.10759435 0.06324396
-0.10844255 0.13494025 -0.06776848 0.049966644 0.13233587 0.018516803 -0.041701283 -0.19433175
-0.06944055 -0.26758388 -0.07346706 0.0033219312 -0.12503491 -0.26896352 0.02409946 -0.124848515
-0.020575808 0.1124649 -0.08326498 -0.023244755 -0.2244051 -0.20335275 0.0027194368 0.00983018
-0.023267418 -0.26200962 -0.15112087 -0.35227665 -0.27054816 -0.12940654 -0.1103254 0.19548073
0.047906116 -0.12446463 -0.13354477 -0.06316179 -0.09411319 0.18021539 0.09120713 -0.14812808
-0.14829059 -0.029396966 0.007879177 -0.21485963 -0.26493233 -0.13120882 -0.17683554 0.115165964
-0.24939367 0.042807534 -0.11831249 -0.18671583 0.03059476 0.063937835 -0.01836722 0.033260114
0.090416275 0.17424443 0.0244497 0.15117294 0.054810602 0.037279025 -0.20190871 0.37275767

conv2.bias f4 [16]
00000000: 1951 c7be 6379 0fbe b661 353e 40c5 c53c
00000010: 738a d4ba 4ab1 14be 9086 70bd 75ae 4c3c
00000020: 2195 05be 0176 aebd 5f82 8abb 320d 83bd
00000030: ea8f ca3d 0889 b33d dc7e aebd 1ae3 e4bd
-0.3892906 -0.14011149 0.17713055 0.024141908 -0.0016215577 -0.14520755 -0.05872208 0.012492766
-0.1304517 -0.08518601 -0.004226967 -0.06399001 0.09890731 0.08766371 -0.0852029 -0.11176129

bn2.weight f4 [16]
00000000: 874d 673f fa61 823f 9cc0 543f ad74 823f
00000010: a1ab 863f 9415 863f 913e 8e3f f133 823f
00000020: d179 753f f03f 813f 7168 803f 22f7 7f3f
00000030: 259b 7e3f 53b0 643f a285 923f c5e5 583f
0.9035267 1.018615 0.831064 1.0191857 1.0521127 1.0475335 1.1112844 1.0172101
0.95889 1.0097637 1.0031873 0.9998647 0.9945548 0.8933155 1.1447031 0.847256

bn2.bias f4 [16]
00000000: 1b5e 84be 0fc7 4e3e 8fe4 9bbd 74b9 d3bd
00000010: 26c4 1dbe 87f9 c63d 8e9d 833e c2ef b6bd
00000020: c833 9e3c d993 0bbe eb71 b63d 1bdf c4bd
00000030: a4c1 ff3d 66b7 ba3d 6339 1f3e 3dd9 113e
-0.25853047 0.20193122 -0.076119535 -0.10338107 -0.15406856 0.09715562 0.25706142 -0.08932449
0.0193118 -0.13630618 0.08908447 -0.096128665 0.12488106 0.09117012 0.15549235 0.14243026

bn2.running_mean f4 [16]
00000000: 7170 ca3e e850 0b3f ae4e 643f 7d14 d73e
00000010: 1428 393f fa4e 143f 4834 423f 8e54 2e3f
00000020: c9f9 d73e 2668 273f 2e0f ca3e 5e7a 9d3e
00000030: a6ac d13e cc30 8f3f de38 f03e d329 cd3f
0.3953891 0.5442033 0.89182556 0.4200782 0.7232678 0.5793301 0.75861025 0.6809777
0.42182758 0.6539329 0.39464706 0.3075742 0.40952033 1.1186767 0.46918386 1.6028389

bn2.running_var f4 [16]
00000000: 0617 de3f b585 7a40 4255 f33e 1f5d 873f
00000010: 3835 b73f 123e 3a40 f867 1940 5e0b f63f
00000020: 1de9 6d3f 2243 733f aa54 5c3f ae86 743f
00000030: 921d 953f 2496 333f 76f7 c23f 5228 a83f
1.7350776 3.9144108 0.47525984 1.0575293 1.4313116 2.9100385 2.3969707 1.9222219
0.9293383 0.9502431 0.8606669 0.95518005 1.1649649 0.7015097 1.5231769 1.3137305

conv3.weight f4 [32, 16, 3, 3]
00000000: 6f90 06be f7e3 973d d84a 713e f9d5 b23d
00000010: bdc9 72be 7b7e 62be ca1f 083d 9bee a9bd
00000020: 97a9 00bd 2b94 4bbd aef0 bdbc bb06 25be
00000030: b1ab 363d ac1f 4f3c 012c acbc db23 d7bd
00000040: 65c7 31be c5ba b93d 2792 063e 4ff7 ae3d
00000050: f01c a33e b71d d33d 99ad 583e 61df 9b3d
00000060: ef32 79bc 9d1c 393d a832 86bc b71b c6bc
00000070: 2749 32bd c654 0bbd 2783 73be 4f25 c1bd
00000080: 3a0a 0bbe 7633 dd3d 53af 993e 7d11 bc3c
00000090: 48f1 483d 2839 2dbd a2dd fc3d 4df2 af3d
000000a0: e6dd f5bd ff6e 00bd e727 213d 7eab ac3d
000000b0: 5459 fb3d e4d9 4c3e fc96 9e3b 16f6 883d
000000c0: 4727 43be 2293 e6bd ccba 09be 41a8 febd
000000d0: 8caa 143d 9e9b 1b3e 889e 653e 76d3 a63d
000000e0: 221d 0a3e ce80 8ebc bca9 b1bd 4d04 093d
000000f0: 9e96 eabd 5a2f 49bd e38a c9bd 9f53 353d
00000100: 2837 183e 9057 7b3d 2225 20be 1bbd 8abe
00000110: 2d30 d8bd 755b 52be 4e68 e3be 42c3 67be
00000120: 28f4 483d ec6a 493e a0e2 7cbc 2cdd 19be
00000130: ea09 abbd 9d8b 6dbe eb2e 493e 5a67 b63d
00000140: e6d7 11be d18b 71bd e2f1 1ebe 305d 7fbc
00000150: b034 993d e81e 61bd c5b4 0d3e 7083 f6bd
00000160: 1c1e f3bc cd95 88bd b4f3 02bd f585 d4bc
00000170: 7749 05be 61a1 24bb 5d26 3fbd 7ba7 9abd
00000180: 88d4 87bd 4919 56bd 859d a4be f041 383e
00000190: 8ba7 fa3c af3a f6bc 2678 a7be 8ae4 94be
000001a0: 1a76 febd 3865 323e d5f4 0b3e edbb 0a3e
000001b0: 1d0c d53d cdb2 023d 625f 5abe c41c 0f3e
000001c0: cc8b 8b3e 571c bc3e 42f6 1d3e 06e9 863c
000001d0: 111d 993e 8809 c8bd a493 3ebd 351e adbd
000001e0: 6846 0fbd c24c b737 cc2c 4ebd 9bfa 0b3d
000001f0: ef3d 623e a88a 5b3d 0e6c 103d ceac fabd
00000200: 17fc 4b3d 3b4a 5c3e 49f5 b43e 3dc0 b23e
00000210: 808e 0ebb c509 9fbe 4d68 66be 9cd1 11be
00000220: 21a9 a4bd 7cd8 f6bd 7035 0e3e 8b3f 81bd
00000230: 63b7 ba3d 0e74 783d 2e49 a43d 7459 f9bd
00000240: 81f3 26bc 4fa8 babc 09dc 07bd a1a8 d9bd
00000250: 77a5 17be 69f7 57bd f8bc 2abe 3942 82be
00000260: b437 a6bd 16d1 ba3d 594b e2bc c5b6 ebbd
00000270: 4c5c 49be 8f01 21be 04db f6bd 96dd 0c3d
00000280: 8e31 c63d 1cdf 813d ba42 efbd 265a 1ebd
00000290: 1ed2 0bbe d8b5 273d 02db 45bc 69d8 9fbc
000002a0: 265c f63c 715a 273c 25ad 053d 7a1c 0abb
000002b0: a2d3 d3bd 3514 8cbc 0725 943d a79d 233e
000002c0: 2a0e 3f3e 3248 87bd e553 233d 483e 3d3d
000002d0: 7c2a 8dbc 412c a03c 0cdf 4d3d 43a7 8ebd
000002e0: 4b64 b4bc 95c5 d13c 7a60 d3bd 7158 8abe
000002f0: aeed eabd a142 9ebd 1d39 5dbe a205 f4be
00000300: b9bb 873d 46e7 07be 5808 12be bd28 b0be
00000310: 30e4 26be da53 a1be d7e8 793d a0c7 f23d
00000320: 4f09 59be 6494 dd3c 8815 073e ac52 4e3e
00000330: 63f9 013e 4eb4 0f3e 5331 04bd 0df5 03bd
00000340: 1dc0 d4bd f3e4 293e b2a0 0c3e 4cb6 063d
00000350: 11de d2bd 9846 8dbd ccbf a8bd 6ecb a13b
00000360: 1458 53bb 79f6 83bb 20e2 553d 363d 583e
00000370: 4e17 1c3e c0da 393e e7ae d23d 6432 003d
00000380: 9f9d 41bb c43d 3ebe faf7 54be e86c 51be
00000390: a85c 0ebe abc5 44be 67f6 4cbe 6409 ad3c
000003a0: a96e af3d 540f ef3d 5f48 2abc 4320 2b3e
000003b0: b6db 133d 0288 f5bd e096 a9bc e942 133d
000003c0: 78f7 633d 9ccf bdbd 82bd cfbd 9cea e8bd
000003d0: e465 46bc 7385 57be 4f1e 2b3e 9bf5 a8bd
000003e0: 5843 a43c b56e 87bd c0af 0fbc 1354 ed3c
000003f0: 9dd8 05be 281c ffbd 0ecc f0bd 877f 18be
-0.13141035 0.07416528 0.23563707 0.08732218 -0.2370977 -0.22118561 0.03323344 -0.082974635
-0.031411733 -0.04970185 -0.023186054 -0.16115849 0.04459733 0.0126418285 -0.021017076 -0.10504886
-0.17361219 0.090688266 0.1314169 0.08543264 0.31858015 0.10308402 0.21159972 0.076109655
-0.015209897 0.045193303 -0.016381577 -0.024183137 -0.043526795 -0.034016393 -0.237805 -0.09430944
-0.1357812 0.10800831 0.30016574 0.022957558 0.04905823 -0.042290837 0.123469606 0.08591137
-0.120052144 -0.031355854 0.039344694 0.08431147 0.12272897 0.20004994 0.004839776 0.06687562
-0.19057952 -0.11258532 -0.13450164 -0.12434436 0.03629546 0.15196082 0.22423756 0.08145802
0.13487676 -0.017395403 -0.086749524 0.033451367 -0.11454509 -0.049117424 -0.09840944 0.0442692
0.1486479 0.061362803 -0.15639165 -0.270974 -0.10556064 -0.205427 -0.44415516 -0.22633079
0.04906097 0.19669694 -0.015434891 -0.15025777 -0.083515 -0.2319779 0.19646804 0.089064315
-0.14242515 -0.05897123 -0.15521958 -0.0155861825 0.074807525 -0.054961115 0.1383849 -0.120367885
-0.029677443 -0.06669197 -0.031970695 -0.025942782 -0.13016306 -0.0025120603 -0.046667445 -0.075514756
-0.06632334 -0.052270208 -0.32151428 0.17993903 0.030597469 -0.03005728 -0.32708853 -0.2908061
-0.1242487 0.17421424 0.13667615 0.1354825 0.10402701 0.0319088 -0.21325448 0.13975817
0.27255094 0.36740372 0.15425971 0.016468536 0.29904988 -0.09767443 -0.04652752 -0.08453027
-0.034979254 2.1851043e-05 -0.05033569 0.034174543 0.22093938 0.05359903 0.0352593 -0.12239991
0.04980096 0.21512692 0.35343388 0.3491229 -0.0021752417 -0.3106214 -0.22500725 -0.14240116
-0.08040071 -0.1205301 0.13887572 -0.06310948 0.091170095 0.060657553 0.080217704 -0.12175265
-0.010189892 -0.022785334 -0.033168826 -0.106278665 -0.14809214 -0.052726183 -0.16673648 -0.2544115
-0.08116093 0.09121911 -0.02762382 -0.1150947 -0.19664115 -0.15723251 -0.12053493 0.03439101
0.096774206 0.06341383 -0.11682649 -0.03866019 -0.13654372 0.040944904 -0.012076141 -0.019512372
0.030073237 0.010214434 0.032635827 -0.0021074102 -0.103431 -0.01709948 0.07233625 0.15978108
0.18657747 -0.06605567 0.03987493 0.046201974 -0.017232172 0.019552352 0.050261542 -0.069654964
-0.02202048 0.02560691 -0.10321136 -0.270206 -0.11471115 -0.07727552 -0.21603818 -0.47660547
0.06627602 -0.13271818 -0.14260995 -0.3440608 -0.16297984 -0.31509286 0.06101307 0.11854482
-0.21194957 0.027048297 0.13191807 0.20148724 0.1269279 0.14033625 -0.0322736 -0.03221612
-0.10388205 0.16591243 0.13733175 0.032888696 -0.10296262 -0.0689823 -0.08239707 0.004937581
-0.0032248544 -0.0040271846 0.052217603 0.211171 0.15243265 0.18149853 0.10287266 0.031298056
-0.0029543412 -0.18578249 -0.2079772 -0.204517 -0.13902533 -0.1921603 -0.2001587 0.021122642
0.085660286 0.116728455 -0.010393231 0.16711526 0.036098205 -0.11988832 -0.020701826 0.035952482
0.055655926 -0.09268114 -0.101435676 -0.11372873 -0.012109254 -0.21047 0.1671078 -0.082499705
0.020051643 -0.066129126 -0.008769929 0.028970754 -0.13070913 -0.12456542 -0.1175767 -0.14892398

conv3.bias f4 [32]
00000000: 0d0e 0cbe 2d11 0bbe 10af 75be 9c2f b5bd
00000010: e6b6 cfbd d0e4 3fbe a23d 66be 6d25 58be
00000020: a1e4 b9bd d70f 3fbe 1e81 3abe f6cf 3bbe
00000030: bb12 82be 55f0 a1bd 8e39 efbd 7e1b 3cbe
00000040: d366 7dbd 5f04 3ebe fc9b 94be f7a7 29be
00000050: 03e5 95be 6c53 9abe c7c6 89bd 18f9 76be
00000060: e442 b3bd 94ba 3bbe 86ae 92be a79f 35bc
00000070: 4d01 febd 76f6 7fbe 53ec fcbd b87f 27be
-0.13677235 -0.13580771 -0.23992562 -0.088469714 -0.10142307 -0.18739629 -0.22484449 -0.21108027
-0.09076811 -0.18658386 -0.18213317 -0.1834105 -0.25404915 -0.07907168 -0.116808996 -0.18369862
-0.06186564 -0.18556355 -0.29025257 -0.1656798 -0.29276285 -0.3014177 -0.06727367 -0.24118459
-0.08752993 -0.18332893 -0.28648776 -0.011085427 -0.12402592 -0.24996361 -0.12349763 -0.16357315

bn3.weight f4 [32]
00000000: e45f 6c3f 3166 6b3f f36b 793f eb98 7f3f
00000010: 1e41 843f d994 753f 3124 623f c521 803f
00000020: 883b 833f 8f41 7f3f 2a79 783f 4d07 7e3f
00000030: a361 833f d8e0 853f db15 663f 5a0a 833f
00000040: eb72 8b3f 744a 873f 532e 793f b705 733f
00000050: d41e 7a3f 2410 863f 8b57 513f d629 8c3f
00000060: 05c5 7f3f 9f94 703f 87be 823f 34e5 733f
00000070: 345a 853f 42aa 713f 652d 833f 8dfe 873f
0.9233382 0.91952807 0.9743034 0.9984271 1.0332372 0.9593025 0.88336474 1.0010306
1.0252542 0.9970941 0.9705988 0.9922989 1.0264171 1.0459242 0.898771 1.0237534
1.0894445 1.0569596 0.9733631 0.94930595 0.9770329 1.0473676 0.81774205 1.0950267
0.9991 0.9397678 1.0214394 0.9527161 1.0418153 0.9440042 1.0248228 1.0624558

bn3.bias f4 [32]
00000000: c3a6 703e 740c 8f3e 7b3d 343d 7edb e63c
00000010: 7c40 c73d 32f7 a43d f231 71bd f85b a53e
00000020: eff4 633c c4bb 18bd 97ed 9e3e 62df ba3d
00000030: 24eb 923a 97c9 313d c89b 5d3e fc79 073e
00000040: b643 f3bc e61a ae3e f2f6 bf3d 53f4 123e
00000050: 41b6 1c3e c3bf 45be 16d6 ee3d ae0d 063d
00000060: cb1e b33e fe3a cf3e 3d0b 4bbe 1e54 d33d
00000070: 2faf 89bd f051 8f3e 925e 103d 37ad a7bd
0.23501115 0.27939188 0.044003945 0.028180834 0.09729096 0.08054961 -0.058885522 0.3229673
0.013913377 -0.037288442 0.31040642 0.09124638 0.0011208993 0.04340514 0.21641457 0.13230127
-0.029695373 0.34004897 0.09373273 0.14351015 0.153039 -0.19311433 0.116619274 0.03272789
0.3498443 0.40474695 -0.19828506 0.103187785 -0.06722867 0.279922 0.03524644 -0.08187335

bn3.running_mean f4 [32]
00000000: 7676 3a3f 2ac3 523f 3241 123e 94df d83d
00000010: 7655 493e 5538 b53e 852c 2a3e 8742 983e
00000020: c9b1 543e 95c0 f23d 4c19 de3d 60fa b03d
00000030: 1232 063f e00c ba3e 19af b03e 1cf9 073f
00000040: 8031 023f 7ba3 623e a604 633e d5f8 323e
00000050: c4d6 993e 8647 9f3e f677 883e 79c8 4b3e
00000060: 6600 a53e 61d4 663e 9896 723e af95 413f
00000070: 4c31 1a3f ddf6 7d3e f778 8f3f 7ae6 bb3e
0.7283701 0.82329047 0.14282683 0.10589519 0.19661507 0.3539454 0.16618545 0.29738256
0.20770945 0.11853138 0.10844669 0.08641505 0.5242015 0.36337948 0.3450859 0.53114486
0.5085678 0.22132675 0.22169742 0.17477734 0.30046666 0.31109256 0.26654023 0.19900693
0.32226866 0.22541954 0.2369026 0.75619024 0.6023147 0.24801202 1.120879 0.36699277

bn3.running_var f4 [32]
00000000: 2cb5 533f ef5b 1d3f 2ca9 8f3e bd8c 623e
00000010: eeda c83e 20f1 673f c9bb 923e 492a 363f
00000020: 104e 0c3f 2468 113e 0be6 513e fc67 ee3d
00000030: efff a03f 5c7d 113f 679e 513f a601 9d3f
00000040: 5a73 543f 5334 153f f80f b23e 2537 be3e
00000050: 689a 143f 0932 683f dd59 da3e fa09 bb3e
00000060: 53c6 c43e f139 d73e 2a2c 0e3f 96b9 de3e
00000070: 84fc a83f 3e66 0c3f aceb 933f 2ebf 363f
0.8269832 0.61468405 0.28058755 0.22124 0.3922953 0.906023 0.28658894 0.7115827
0.54806614 0.14199883 0.2049791 0.11640927 1.2578105 0.5683191 0.8188233 1.2266128
0.8298851 0.58282965 0.34777808 0.37151447 0.58048105 0.9070135 0.42646685 0.3653105
0.3843256 0.42036393 0.5553614 0.43500966 1.3202062 0.5484351 1.1556296 0.7138547

conv4.weight f4 [64, 32, 3, 3]
00000000: 0d2f cbbc b9ca 39bc 0ce4 163c 5670 df3d
00000010: a803 353c d57a 6c3d eaf8 023e d4a4 573e
00000020: 6db7 063e 6f7f a0be 03da 80be dfcf 60be
00000030: 97ca c43b bfd3 953b a7c8 28bd 4b4d 53be
00000040: 81ed 9bbe 04a0 4dbe 71ca d4bc 2d45 773d
00000050: f294 623d 50ea 003d df49 4d3d b3d0 123c
00000060: 8596 483e 9b1c 353d b9f3 44bc 99ba d7bd
00000070: cd4f 9d3d 6200 373c 1234 5fbb d6d6 acbd
00000080: 57ad 8abb 10ab 8b3d c265 ab3c 66cd ca3c
00000090: bece 81be 4f0a 9abe 23c9 9fbe dd49 253d
000000a0: 43ba 7a3d 3d7d 993c 65fc 0cbd aa36 22be
000000b0: 7109 91bd 3bce f1bd 12d9 1dbe 584d 96bd
000000c0: 5582 923d c9c1 2a3d ff3d d33c 75b5 233d
000000d0: e925 393c 3219 34bd dd77 dc3d 1127 a73d
000000e0: c03c f53d f925 7ebd 664a dd3c 368b d43d
000000f0: 5e55 033d 6c8d 013e 8ef2 adbb ed44 823d
00000100: 96d1 7fbb b870 bb3c d70b babd b953 24be
00000110: ca0b 4abd 6fa5 b73d e228 15bd b259 753d
00000120: 20d1 033e fbb4 d33c ae48 b33d 07b7 3dbe
00000130: 22ab 3cbe a5a2 a9be 1d18 cc3d 4fdc b23d
00000140: bfb0 b63d 1af7 cf3d 6cd9 403d da01 133e
00000150: 95e6 1e3e 01e5 0a3e 25e6 ea3d 7920 cb3d
00000160: 8102 8f3d 550a a33d 711e 8dbd eda6 88bd
00000170: 0613 adbd 775b d93d 7771 e13c 7d0e a139
00000180: 0a99 81bc 4615 36bd 7911 aabd df3f 47bd
00000190: 1318 7abd 7dc0 9fbd 74d6 febd e8b2 02be
000001a0: 4a38 01bd 04ac 173d d632 b43d 7308 c03d
000001b0: d814 2f3c c002 2b3d 55f3 debc 1313 c9bc
000001c0: 1fe0 c7bc 7c0d fc3c c50e dd3c de92 d83b
000001d0: 2628 02be 92b5 15bd 144d a4bc 5b85 e4bb
000001e0: 7bec 08be 13d4 10be 9ad2 c6bd 623a 4abd
000001f0: 6b4a 293d 9381 2abe 168d 6dbd eb1f d7bd
00000200: c36f 4bbe 366d 303d b91e 353b a1f6 a43b
00000210: 1bb7 dabd abe4 35be d786 86bd e9a7 a63c
00000220: 1b13 693c 028d 94bc 38d3 e8bd 603e 45be
00000230: 8920 f4bd feeb 73bd 39b9 013d 7270 b33d
00000240: 79fd 25be 14f5 7cbe 32b9 3bbe a658 363c
00000250: ccb7 06bd 6ffd 5a3d 6195 a4be 0091 f2be
00000260: b436 9bbe eeda 653d c145 993d 6e5e eb3d
00000270: bba0 46bd 70e0 96bd a0cf aabd 1a77 1e3e
00000280: e6f3 18bd 4bae 33bb 7dd4 11be 2766 25be
00000290: ff9a 29be 12af 80bd 056a 4bbc 78e4 38bd
000002a0: bb70 873d 687c ce3b 7866 82bd 5f48 633d
000002b0: 92d9 0a3d aea6 973d 1065 973d f541 483e
000002c0: 2739 b13d 927e 05be 9401 0bbd 653d 553d
000002d0: ce5e f2bc 5a98 97bd a3c9 aebc b240 823c
000002e0: 75f8 963c eec2 bb3b ec02 68bd 434f 40be
000002f0: 95e0 a1bd bfc1 e83d da18 763d 01fc d23d
00000300: 4649 3a3c d973 373d ada4 ff3d f93f 793d
00000310: 128f ad3d ebf0 33bd c157 293e fc7f b43d
00000320: 89b1 52bd f770 6dbd 2706 28bc 6ee1 013c
00000330: 921a 553d 545e d8bc 0a3c 6c3c 0a21 aabd
00000340: 8d0b 263c d044 05bd fee5 cdbd a903 29be
00000350: bd83 f6bd 331c ecbd daa5 bbbd 87ff 91bd
00000360: 52e0 243e 8b34 8b3d 0190 ba3d ccee 823d
00000370: 4698 9e3d 2d32 ab3d 0b7a ed3a 3f91 cbbc
00000380: c0f2 aabb 8d12 36be aedf 3bbe ad16 0cbe
00000390: 11d5 c8bd 5420 f7bd 40f6 b4bd 2d2e ccbd
000003a0: 2b67 993d 5049 8fbc ac13 8dbc f6f7 debd
000003b0: ef6d 21bd 09e1 d53d 9bdc 283e 6a9e 673d
000003c0: b906 d8bd c741 acbc 4f73 45bd ca85 23bd
000003d0: e999 73bd beae 453c 1976 92bc 7a0c e6bc
000003e0: 3c4e 193d f0fe bbbd 143d 07be 408b 50be
000003f0: b214 1fbc f8e4 873d 6682 33bc 3f4d c9bd
-0.024802709 -0.011339837 0.009209644 0.10910098 0.011048235 0.05773433 0.12790266 0.2105897
0.13155909 -0.31347224 -0.2516633 -0.21954297 0.006005596 0.0045723612 -0.041206982 -0.20634954
-0.3045464 -0.20080572 -0.025975438 0.060368706 0.055317827 0.031473458 0.050119277 0.008960891
0.19588669 0.044216733 -0.012020999 -0.105336376 0.076812364 0.011169525 -0.0034058136 -0.08439414
-0.0042320895 0.06819737 0.020922545 0.024756145 -0.25353044 -0.3008599 -0.31208143 0.040353645
0.06121279 0.018736476 -0.03442039 -0.15841165 -0.07081879 -0.118069135 -0.15414837 -0.07338971
0.07153765 0.041688714 0.025786398 0.039967973 0.011300542 -0.04396934 0.107650496 0.08161748
0.11974478 -0.062047932 0.027013015 0.10378115 0.032063834 0.12651604 -0.005308456 0.06360803
-0.0039034835 0.022880897 -0.090842895 -0.16047563 -0.04932765 0.08967101 -0.036415942 0.059899993
0.12872744 0.025843134 0.08754097 -0.1852685 -0.18424657 -0.331319 0.09965537 0.08733427
0.089204304 0.10154553 0.04708235 0.14356175 0.15517648 0.1356392 0.11469678 0.09918303
0.069828995 0.07960955 -0.06890572 -0.066724636 -0.08450894 0.10613149 0.027519925 0.00030719108
-0.015820045 -0.04445388 -0.08304114 -0.048644897 -0.061058115 -0.07800386 -0.124432474 -0.1276356
-0.031547822 0.03702928 0.08798759 0.093766116 0.010686122 0.04175067 -0.02721564 -0.024545228
-0.024398861 0.030768149 0.026984582 0.006609305 -0.12710628 -0.036550112 -0.020056285 -0.006973905
-0.1337146 -0.141434 -0.09708138 -0.049372084 0.041330736 -0.16650991 -0.05799588 -0.10504135
-0.19866852 0.0430729 0.002763672 0.0050342833 -0.10679456 -0.17763011 -0.065686874 0.020343738
0.0142257465 -0.018133644 -0.11368412 -0.19262075 -0.11920268 -0.05955123 0.031670783 0.087616816
-0.16209973 -0.24702865 -0.18332365 0.011129534 -0.032890126 0.05346435 -0.32145217 -0.4737625
-0.30315173 0.05611699 0.074840076 0.114926204 -0.04849313 -0.07367027 -0.083403826 0.15475121
-0.037341975 -0.002741712 -0.14241214 -0.1615225 -0.16563033 -0.06283392 -0.012415414 -0.04513976
0.066132985 0.0063014515 -0.063672006 0.05548894 0.033898897 0.074048385 0.07392323 0.1955641
0.08653479 -0.13036564 -0.033937052 0.052060504 -0.029586222 -0.07402106 -0.021336382 0.01589999
0.01842902 0.0057300245 -0.05664341 -0.18780236 -0.07904164 0.11365079 0.060082294 0.10301972
0.011370009 0.044788215 0.12482581 0.060852025 0.08474554 -0.04393093 0.16537382 0.088134736
-0.051438842 -0.05796906 -0.010255373 0.007927282 0.052027293 -0.026412167 0.014418611 -0.08307083
0.01013459 -0.032536328 -0.10053633 -0.16505302 -0.12036846 -0.11528816 -0.09162493 -0.07128816
0.16101196 0.06797131 0.09109498 0.06393203 0.077438876 0.0835918 0.0018118037 -0.024849532
-0.0052169263 -0.17780514 -0.18347046 -0.13680525 -0.09806264 -0.12066713 -0.08836031 -0.09969745
0.07490381 -0.017491013 -0.017221294 -0.108871385 -0.03941148 0.10443313 0.16490404 0.05654756
-0.10548157 -0.021027459 -0.04820567 -0.039922513 -0.059472952 0.012065588 -0.017878579 -0.028082121
0.037428126 -0.09179485 -0.13206893 -0.2036562 -0.009709524 0.06635469 -0.010956382 -0.09829187

conv4.bias f4 [64]
00000000: 8268 0fbe a76e f5bd 2631 043e 8de2 78be
00000010: d752 973d eb83 bfbe ba50 a43d 0de4 1abe
00000020: 4e1a 31be 104a d5bd 337b 6b3d 340a 1fbe
00000030: ff27 793e 8bc2 62be 8f0d 81be c0d1 8dbc
00000040: 8ba9 c3bd cc76 fbbd ea2b 05be fa80 94be
00000050: 93c0 dcbd 9929 0cbe c9f6 e3bd f2ce 9bbe
00000060: 25c7 1cbe a404 093b 2058 79bb b222 4dbd
00000070: 33b3 b0be d29a 9f3d ff05 c0bd aca5 b53d
00000080: a9b7 4fbe 38e0 30be 98e6 c63d d8f8 a4bd
00000090: 58ec afbe fe65 f6bd f2cc 443c d7a5 72be
000000a0: e2b1 87bd ffbf 14be d115 01bd e98c d7be
000000b0: 628f aabe 4c63 77be 5e47 4dbe 58a7 68be
000000c0: 6669 3ebe c195 ffbd 9c62 02bf d90f 08bd
000000d0: c12a b83d 2d4a efbc d477 9ebd 1b28 9dbc
000000e0: 427e 19be 80b7 f53d 49f0 213d f820 9bbe
000000f0: 379e 94be 2cb5 08be 0d9c 93be 1e31 823d
-0.1400471 -0.11983996 0.12909374 -0.24305172 0.07388847 -0.37405333 0.0802321 -0.15126057
-0.1729519 -0.10414517 0.05749054 -0.15531236 0.24331664 -0.22144525 -0.25205657 -0.01731193
-0.09553822 -0.12278518 -0.13005033 -0.2900465 -0.10778918 -0.13687743 -0.11131055 -0.30431324
-0.15310343 0.0020907307 -0.0038046911 -0.050081916 -0.34511718 0.077932015 -0.09376144 0.0886949
-0.20284905 -0.17273033 0.09711951 -0.08055276 -0.34360003 -0.12031172 0.012011753 -0.23696075
-0.06625725 -0.14526366 -0.031514946 -0.42099693 -0.33312517 -0.24158973 -0.20046756 -0.22720087
-0.18594894 -0.12479735 -0.50931716 -0.03321824 0.0899253 -0.029210174 -0.07737699 -0.019184163
-0.1498957 0.119978905 0.039535794 -0.3029859 -0.29026958 -0.13350362 -0.28829995 0.063570246

bn4.weight f4 [64]
00000000: 2554 2540 29b2 2a40 5c94 1640 cd92 4a40
00000010: 4608 2340 10b2 3340 b600 2b40 aabc 3c40
00000020: 7bef 2140 ea65 3e40 4ec8 3e40 233e 2b40
00000030: c6b9 1e40 c6c1 2c40 c206 3240 1097 4740
00000040: e621 2d40 6f5b 3b40 7e09 3040 47e9 2f40
00000050: b0ce 5440 aee9 3240 2b83 2740 15b9 2b40
00000060: 5c16 2140 d03a 1440 9ebd 3040 9aea 4140
00000070: 5988 3a40 e97f 2440 28ea 1a40 7061 3740
00000080: 92c1 1c40 f3a8 4340 3650 0540 8d4c 2740
00000090: 01fa 2340 b347 1340 21d1 3540 bec8 4940
000000a0: 1375 2240 4970 2340 5a1a 2540 b848 3940
000000b0: 0645 3f40 63c4 3f40 1c2a 3b40 e050 1a40
000000c0: d555 4a40 e238 1f40 3d31 4340 cfc5 1c40
000000d0: e210 0a40 aa2e 2a40 7188 2040 06e7 3240
000000e0: cc3a 1c40 aeb8 1140 bab8 1940 b2b1 2a40
000000f0: 586e 2d40 5dfe 0440 6bf4 2240 071f 3540
2.5832608 2.667124 2.3528051 3.16521 2.54738 2.807743 2.6719184 2.9490151
2.5302417 2.9749703 2.9809756 2.6756675 2.4800887 2.699327 2.7816625 3.1185951
2.705194 2.9274557 2.7505794 2.748613 3.3251152 2.7955127 2.6173809 2.6831715
2.5169897 2.3160896 2.7615733 3.029944 2.914572 2.570307 2.4205418 2.865322
2.4493146 3.0571868 2.0830207 2.6140473 2.562134 2.3012512 2.8408892 3.1528773
2.5383956 2.5537283 2.5797334 2.8950634 2.9885879 2.9963615 2.9244452 2.4111862
3.1614888 2.4878469 3.0498803 2.4495733 2.1572804 2.6590981 2.5083277 2.7953506
2.4410887 2.276897 2.4018998 2.6670957 2.7098598 2.078025 2.546168 2.8300188

bn4.bias f4 [64]
00000000: e871 ae3d eaba 243e 2736 fd3d 2e13 b1bb
00000010: 9df9 0dbe a828 87bb 5fdd 243e e9ff 753d
00000020: e4b4 40be 628e 033e 4c69 0bbd 7e55 ffbd
00000030: 61ff db3b 4664 a7bd 157f adbd 8000 4f3e
00000040: 8a7b 023e 76b8 933d 9b84 2a3d 8c50 1b3d
00000050: f985 fb3d 1712 923d 1b31 d6bd 3d42 49bd
00000060: e528 153e 4fbd debd 2597 913d 234c f93d
00000070: 6a34 533c 8083 02be c82b 8b3d 2944 433d
00000080: 4153 4bbd 4a0d 5fbe 9db5 1e3d d7a0 1cbe
00000090: d8fd a73d 1a3b 2a3d f409 0e3c e4f8 d93d
000000a0: d4a6 ea3d f360 1c3d 32a9 a33d e83f cbbd
000000b0: 7e10 8e3d e520 5c3d 89ed b83d 62f8 fc3c
000000c0: 7661 46bd 3ee3 1ebe 11bd 85be 8e93 b93d
000000d0: 76bf 11be d01a 1ebe f6ca 2a3e e75d a7bd
000000e0: a64f c1bd 9b7b 713e 13f7 5abd 6158 303e
000000f0: ca65 d8bd bebd cfbd 0cfa 3a3d be3f cebd
0.0851782 0.16086927 0.12363844 -0.0054038977 -0.13864751 -0.0041247196 0.16100071 0.060058508
-0.18819004 0.12847283 -0.034035966 -0.12467478 0.006713793 -0.081734225 -0.084715046 0.20215034
0.12742439 0.072129175 0.04163037 0.037918612 0.12281413 0.071323566 -0.10458585 -0.049135435
0.14566381 -0.108759515 0.07108907 0.12172725 0.012890914 -0.12745476 0.0679546 0.047672424
-0.049639944 -0.21782413 0.03874742 -0.1529573 0.08202714 0.04156027 0.008669365 0.10643175
0.11457601 0.038178395 0.07991256 -0.099242985 0.069367394 0.05374231 0.09029681 0.030880157
-0.04843279 -0.15516374 -0.2612081 0.09061347 -0.14233193 -0.15439916 0.16678986 -0.08172207
-0.0943902 0.23582308 -0.053458285 0.17221214 -0.1056629 -0.10143612 0.04564862 -0.100707516

bn4.running_mean f4 [64]
00000000: 249f 2a3e ac35 043e 601b 983e 3a21 d63d
00000010: 9beb af3e 3a25 5c3d 3678 e23e 9b64 b23d
00000020: 4a7c 0f3e 1fde 273e 5a90 3f3e 40f9 613e
00000030: e3a3 583f 6d7c 533e 6c7d db3d 4353 003e
00000040: 2642 db3e e4d7 1d3e 8f41 873e 8513 8d3d
00000050: 801a 3d3e cd8b d03d 74d6 6d3e 0d65 0d3e
00000060: 4485 183e a246 f03e 7d6d bb3e 4562 c73e
00000070: f677 183d d3d3 243e 60ae 683e b42d c43e
00000080: ad99 333e 66da 1f3e dec3 ff3e bcbc 2a3e
00000090: 692b 853e 58fa d53e 4b68 623e 5077 9e3d
000000a0: 8a0a 903e 6a3e 8f3e cede ed3e ea27 513d
000000b0: f89a 4f3d 2044 ac3d e415 5e3e 096a 013e
000000c0: 5ed5 a73d d31f ef3d 16ba 993d 822c fc3e
000000d0: d138 853f 8774 a43e c6cc 813e afb3 2d3e
000000e0: b4c9 223e 3d84 133f 4386 bf3e ca50 bf3d
000000f0: bbee 8d3d c444 ca3e 14ac 113e ff38 1c3e
0.1666227 0.12911099 0.29708385 0.10455556 0.3435944 0.05374644 0.4423234 0.08710595
0.14012256 0.16393326 0.1870741 0.22067738 0.8462507 0.20652933 0.10717282 0.12531762
0.42823905 0.15414387 0.26417205 0.06888489 0.1846714 0.10182915 0.23226339 0.13808079
0.14894587 0.4692889 0.3660697 0.3894216 0.03722378 0.1609643 0.22722769 0.3831612
0.17539091 0.15610656 0.49954122 0.16673559 0.26009682 0.4179256 0.22110097 0.07737601
0.2813304 0.27977306 0.4645905 0.051063456 0.0506849 0.08411431 0.21688038 0.12638105
0.081949934 0.11675992 0.07506196 0.49252707 1.0407964 0.32120153 0.25351542 0.16963075
0.15897256 0.57623655 0.3740712 0.09341581 0.069303 0.3950559 0.14225799 0.15256117

bn4.running_var f4 [64]
00000000: a9ae 6a3e d649 383e 32c3 103f fcd5 2d3e
00000010: 78ce c43e eedf dc3d 47a7 1d3f 5c78 243e
00000020: 9fd7 393e f2ad 913e 7f57 633e fc98 ea3e
00000030: 97b7 513f ba30 a43e 959f 653e 241b 373e
00000040: 94c5 383f 623c 9d3e ab87 bd3e 7289 ee3d
00000050: 4453 603e 2022 1a3e a88a d63e 5cf9 933e
00000060: d09b 853e f8cc 0c3f e00e 183f 4709 023f
00000070: 39cb 6a3d 78bd 493e f5ad bf3e 40e2 af3e
00000080: adb9 7a3e 113e 903e dbd6 183f 845c 823e
00000090: c8d1 bd3e f052 113f 8cee 903e 4c64 d43d
000000a0: e4e1 f23e f7d0 d33e 2fcd 103f cb5a c73d
000000b0: ba13 d63d 6464 533e 15cb c93e b8ed 923e
000000c0: 4d03 263e d670 573e 5745 0e3e f656 5f3f
000000d0: 1c9b 883f f4ec 9c3e e1ed d23e e14d 9e3e
000000e0: e138 2b3e a13b 653f cbd2 b13e 141e 043e
000000f0: 52f9 b83d 1de1 c83e 412f 983e ccd7 c13e
0.2291819 0.17996916 0.56547844 0.1697616 0.38438773 0.10784899 0.6158337 0.16061538
0.18148659 0.28453022 0.22201346 0.45819843 0.8192076 0.32068425 0.22424157 0.17881447
0.7217648 0.3071013 0.3701757 0.11647309 0.21906763 0.1505208 0.4190266 0.28901184
0.26095438 0.5500026 0.593977 0.50795406 0.057322714 0.19701183 0.37437406 0.34352303
0.24484892 0.28172353 0.59702843 0.2546121 0.37074113 0.5676718 0.28306997 0.103706926
0.47437966 0.41370365 0.56563085 0.09734114 0.10452981 0.20643765 0.39412752 0.2869699
0.16212197 0.21039137 0.13893639 0.87242067 1.0672336 0.3064953 0.41197112 0.30918792
0.16720916 0.8954411 0.34731135 0.12902099 0.09031929 0.39234248 0.29723552 0.37859952

lin.weight f4 [10, 64]
00000000: 5726 0fbf 132c 333e e549 813e 10e5 34bf
00000010: 7de0 ac3e 9f1a 843f d4a4 6b3e a31e e4bd
00000020: 3758 1ebf 59d1 81bf 9921 63bf 2fdc 52be
00000030: a1b0 b93e 17e0 c4bd 7470 09bf 7d96 3b3f
00000040: 3453 a13e 0898 61bf f732 2e3f c25a 20bf
00000050: 8dcb 36bf 8825 bbbe d41c b2be edf3 97be
00000060: bdd4 3e3f 0c0b d93d 0e8b 6abf 6005 39bf
00000070: da5c 02bf e09c 94be 273f 133f e7d4 36bf
00000080: 795f f5bd 5800 6b3d aa9c ba3e 06b3 02bf
00000090: e406 273e 4e16 34be af48 da3e 1ab1 2c3e
000000a0: 2848 653d 1d0f 5d3f 00a9 fc3e 4f1c cbbb
000000b0: f4ae 713f 30b4 4abf 86c9 543f c6df 243f
000000c0: cc0e 60bf edee c0be 015d d4bd 479b 2b3e
000000d0: 8353 83be 830d 97be 0b93 013f b643 59bf
000000e0: 86b7 16bf ea8e b13e 52e7 0ebf 022a a53e
000000f0: 7e77 3bbf a676 cdbe 1f51 343f 1049 39bf
00000100: 020a 343f c63a 4f3f ad40 8bbe f95b ebbe
00000110: 4abb d6be 7b50 28bf 6e35 e53d d279 95be
00000120: 5297 6bbe ed6f cb3e cedb 28bf 2230 9ebe
00000130: 0451 0e3f 3a48 7c3f 004a 10bf 50fb cdbf
00000140: 0b67 44bf 9e37 92bf 8a99 c93e 9512 133e
00000150: d7c0 b7bf b196 da3e 2a8f 20bf 4bf5 3fbf
00000160: aef1 433b e24d afbd c755 5b3d d250 84be
00000170: 7bdc 0cbf e8c0 85be a7d2 9cbd b7a1 26bf
00000180: 2025 92be ee06 383d bfca 8abe e62f 27be
00000190: c99a 4f3d d40b 08be 7057 27bf a858 783f
000001a0: 9469 153f b137 e4be d94a 3dbf 5b0b 19bd
000001b0: abe7 8ebf 0990 27bf 51b5 0cbf 24c4 43bf
000001c0: f5ad f4be 4888 adbe a62a 8c3e b608 f73e
000001d0: dda8 563e 23d7 06bf 874e e13d b801 eebe
000001e0: 682b 3c3f adf1 6fbf fd8e 293f e096 6fbf
000001f0: f16d f3bd 8dc0 023e 8155 b2be 10de a83e
00000200: e44c a7be 89da abbe 9a74 36bf 9e21 1dbf
00000210: e03e 18be 2f6e 11bf 4b04 0f3f 8ad3 8cbf
00000220: 46ed e8bd c4cc c93e 3530 1cbf 06e9 d03d
00000230: ebac 973c 444c 023e eeda 0a3e 8419 af3d
00000240: 2083 273f 5a2a 593f 5199 babf 3a20 363f
00000250: ec2f cfbe 6779 463f beba 533e 150c 193f
00000260: 76e3 36bf a469 f0be f6b1 323f 6f84 b23e
00000270: fe43 9f3f 1b7a 09bf 4528 233f c353 47bf
00000280: 2d5f debe e9e3 a3be 3526 2f3e 9a5d 1dbf
00000290: f80d 383f 2824 fa3e 8399 e1be a21d a3bf
000002a0: 5392 ef3e b021 8fbc 2487 593e 3562 46bf
000002b0: a600 4fbf 0ced 13bf 274c f2be 1d65 81be
000002c0: 2f66 433f cda3 463e 55cf b6be 416a a43e
000002d0: 97de c73d ef7e f2bd 15a8 e53e 1b0f 163f
000002e0: 5eef 11bf 9115 4e3e c6b7 2bbf 5cf9 59bf
000002f0: b610 4b3f 6d29 9bbe d9b0 38bf a8a8 47bf
00000300: 9305 1f3f 6a71 d0be d2d6 e4be fb38 913f
00000310: f978 503f 8d65 42be e9d5 4fbf 5160 16bf
00000320: 51c8 373f 443e 363d 6a39 0b3f 629f 10bf
00000330: e878 e9be a905 ef3e 6280 e3be 7ca5 25bf
00000340: cd49 db3e ca72 20bf 9d5f 0e3f bebc c33e
00000350: 1ae7 983f 6042 48bf 9436 7bbe b7ec 6fbe
00000360: a421 adbe 01ff 0c3f 0159 0ebf 4b35 1bbf
00000370: b2e4 e2be 28c6 e8be 2a08 7cbe 99b8 df3d
00000380: 2e9b 6a3f 5b34 3abe f776 ebbe eed0 2c3e
00000390: 2d87 b73d e443 87bd c152 be3e 37b7 4bbe
000003a0: aafc 91be 7536 213e b22d df3e 5159 42be
000003b0: 670d dabd f609 7b3e 0226 c5be f387 c9be
000003c0: 4c2f 4abf 7ac1 ccbe d482 42bf 9e0f 4bbe
000003d0: 3152 ad3e b7f0 613f 0db6 26bf da89 bebe
000003e0: fd42 743f fbb2 cdbe 3376 9f3e 7794 e0be
000003f0: 68c1 383f cf86 6a3f b34f 33bf ee6f 2abf
-0.55917877 0.17497282 0.2525169 -0.7066202 0.3376502 1.0320624 0.23012096 -0.11138656
-0.61853355 -1.0142013 -0.8872314 -0.20591806 0.3626757 -0.09613054 -0.53687215 0.732765
0.3150879 -0.88122606 0.68046516 -0.62638485 -0.71404344 -0.36552072 -0.3478762 -0.29678288
0.7454336 0.1059781 -0.9161843 -0.72273827 -0.5092293 -0.29025936 0.5751824 -0.71418613
-0.119811006 0.057373375 0.3644765 -0.5105442 0.16311222 -0.17586634 0.42633578 0.16864434
0.055977017 0.86351186 0.49347687 -0.006198443 0.9440758 -0.79181194 0.8312 0.6440395
-0.8752258 -0.37682286 -0.103693016 0.16758452 -0.25649652 -0.29502496 0.50614995 -0.84868944
-0.58873785 0.34679347 -0.55821717 0.32258612 -0.73229206 -0.40129584 0.7043628 -0.7237711
0.7032777 0.80949056 -0.2719778 -0.45968607 -0.41939765 -0.65747803 0.111918315 -0.29194504
-0.23006943 0.3973383 -0.65960395 -0.30896097 0.5559237 0.9854771 -0.56362915 -1.609232
-0.7671973 -1.1423223 0.39374954 0.14362557 -1.4355725 0.42693093 -0.6271845 -0.7498366
0.002989869 -0.08559777 0.0535486 -0.2584291 -0.55023926 -0.26123738 -0.07657366 -0.6509051
-0.2854395 0.044928484 -0.27107808 -0.16326866 0.050684724 -0.13285762 -0.65367794 0.9701028
0.58364224 -0.4457374 -0.73942333 -0.037364345 -1.116445 -0.65454155 -0.54964167 -0.7647116
-0.4778897 -0.33893037 0.27376288 0.48248833 0.20962854 -0.5267202 0.11001306 -0.46485686
0.7350373 -0.9372814 0.6623381 -0.9358959 -0.11886204 0.12768765 -0.3483086 0.3298192
-0.3267585 -0.33565167 -0.7127167 -0.6137942 -0.14867735 -0.5680875 0.55865926 -1.1002057
-0.11373381 0.39414036 -0.6101106 0.10200696 0.01851507 0.12724406 0.13560078 0.085497886
0.65434456 0.8483025 -1.4578038 0.71142924 -0.4046625 0.77528995 0.20676705 0.5978406
-0.7144083 -0.46955597 0.69802797 0.34866664 1.2442625 -0.53701943 0.6373332 -0.77862185
-0.43431988 -0.3200982 0.17104419 -0.6147095 0.71896315 0.4885571 -0.44062433 -1.2743418
0.46791324 -0.017472118 0.21242958 -0.774936 -0.80860364 -0.5778358 -0.47323725 -0.25272456
0.76327795 0.19398423 -0.35705057 0.32112315 0.097592525 -0.11840617 0.448548 0.586168
-0.5700587 0.20125414 -0.6707729 -0.8514612 0.79322374 -0.30305043 -0.7214485 -0.77991724
0.6211788 -0.40711528 -0.44695145 1.1345514 0.8143459 -0.18984051 -0.81185776 -0.5874072
0.71790034 0.044492975 0.5438448 -0.564932 -0.45600057 0.46684006 -0.44433886 -0.64705634
0.42829743 -0.62675154 0.55614644 0.38229936 1.1945527 -0.7822628 -0.24532539 -0.23430143
-0.33814728 0.55076605 -0.5560456 -0.60628194 -0.44315106 -0.4546368 -0.2461249 0.10923881
0.91643035 -0.18184035 -0.459892 0.16876575 0.089613296 -0.06604746 0.3717251 -0.1989411
-0.2851308 0.1574343 0.4358955 -0.18979384 -0.106470875 0.24515519 -0.3850556 -0.39361534
-0.7897842 -0.3999136 -0.7598088 -0.19830176 0.3385177 0.88257927 -0.6512154 -0.37214547
0.95414716 -0.40175614 0.31144866 -0.4386327 0.72170115 0.9161195 -0.70043486 -0.6657704

lin.bias f4 [10]
00000000: 93ab b5bc 0e22 45bd 6064 043e c2bd 213d
00000010: 5e79 d9bd 645a 9bbe 0d88 57be 12a0 da3d
00000020: e311 363e c1c6 0dbd
-0.02217654 -0.04812818 0.12928915 0.039487608 -0.10618852 -0.303424 -0.21047993 0.10675062
0.1778026 -0.034613375
