NCC_Code/2022-07-08_15-14-01_model.pt (torch, 115275 bytes, 50 tensors)

conv1.weight f4 [8, 2, 5, 5]
00000000: 1ced 943c 49d2 2d3e 10a1 ce3e d631 433e
00000010: 8e6e bc3d 1f21 f43c 16e2 5c3e 43e6 363e
00000020: 5711 6fbe dfae 20be 00b4 423e ebe0 d43d
00000030: e409 36be 1e6c 8cbd b749 c0bd e79b 9fbe
00000040: 9b02 80be 38f1 12be 5a59 dbbd 2037 ddbe
00000050: 1a03 7d3e de60 f2bd 2f26 49bd 71dd cdbd
00000060: 6196 cd3d b557 9b3e 5ddd 473e 51f0 8e3d
00000070: c8c3 423e 551a 213e 8da3 883d fd2a 273d
00000080: 983a 0a3b 3b21 903e 91b3 c63d fa91 d3bd
00000090: 74d5 8bbd eacd 753d 8bcb 7ebd 6214 c1bd
000000a0: dd7d b0bb 45b9 2ebe 2451 4cbe 5a0a eebe
000000b0: adec dabc 7499 61be 1eaa f43d 220e 8b3c
000000c0: f927 00bd 2d71 8dbe 2a0c 4c3e 7cfc 31bb
000000d0: 0739 d3bd c137 6e3e 72c7 d33d 9fc1 b3be
000000e0: 2927 a2bd 7346 993d bdf4 4dbe 45cb 00be
000000f0: 14ef b23e 4fc7 2b3f 7a39 f13e af79 043e
00000100: 7990 a13e 7afa 3ebe 6392 10bf dff0 02be
00000110: c090 23bd 0361 54be e812 bdbd fbfd c63d
00000120: b1ac 3e3c 0635 44be 0b4f 80bd 2774 2b3c
00000130: 96ff 183c 1d5f 40bc 3182 94be 2d9d 0bbe
00000140: 4a14 093e 78f4 0fbd ba33 bebd a362 b03d
00000150: 2996 55be 195a c23e 525a 8c3e 43e4 f83d
00000160: 10e5 893e 796c 71bd 49da b5bd 1502 423e
00000170: f3aa a4be 3900 a8be bac1 b8bd 3c3e 8b3c
00000180: e8c2 58be 0087 573e b947 873e 0bef 3fbd
00000190: 2c73 5fbe 39cb 2dbe edd4 cfbd c580 803d
000001a0: cf11 073e f307 9a3b 5459 6ebe ade4 2b3d
000001b0: c90b c9be e68c bdbe dc1c 1abd 73fb 393e
000001c0: 2482 d7bc cb38 ebbd 3ef3 e93c 1f46 7fbe
000001d0: 85fc 75be d794 1d3c 8015 97be f88c 22be
000001e0: a405 53be 9b07 0bbc 2f24 3f3e bb3a e03e
000001f0: 10a7 df3e 9f76 46be dd6e fe3c 2b58 4ebd
00000200: 4fc7 3cbe 4a2e 1c3e bbad 98be cfc5 b3bd
00000210: 4833 01be 32f5 253e 1bea 4bbe ca3f c63c
00000220: 5f44 d1bd 9d7e 4c3b 2a44 60bd c9f3 8bbd
00000230: 5895 33be e6a8 90bd 7a43 9fbe 8e92 d1bd
00000240: b367 58be 5740 35bd e00c 9c3c 66f4 623d
00000250: 145b 6b3e aa44 4a3e 09fb 60be 3c3c 11bd
00000260: f0ec 503d e0fd b4be adfc cdbd 79c9 1d3d
00000270: 0c3c 1e3b 1580 b5bd d402 233e 5035 523e
00000280: f2be 833e 3c3d 2b3e 32f4 d73d 850e 373e
00000290: f2f0 b83d 6093 283e 8860 013d 3792 0abe
000002a0: dd05 ccbc 5e4f fcbb ba11 3abe 5292 14be
000002b0: 9194 0fbf 9e4b bdbe c85a c4be 5873 7c3e
000002c0: 8810 3b3e b771 83bc 616a a23e 4c0c 463d
000002d0: 5217 2d3e 37c3 093e 6437 b03d 8b97 0a3e
000002e0: ccc4 de3d 4f4e 67be 5e12 f1bd 8767 d33c
000002f0: 6164 a73d 30b9 533e a349 a03d 780f 583e
00000300: 1b9d 363e 5c61 0d3d bcb3 0c3e 776e 62be
00000310: f287 0cbf 1d06 9dbd a808 a8be 5638 15be
00000320: 69d1 46be 0832 a7bd d1a5 4c3e 5147 3c3d
00000330: bc1d 813e 45b7 12be 6301 db3c 423c 6a3e
00000340: 62f4 e73e 7e1a b33d 8f16 65bb 7c81 76bd
00000350: 736a 4dbd 1824 5ebe 33ff 11be 9cae 48be
00000360: 4d02 9bbe a71a 86be 6b94 b93b c071 4e3d
00000370: c888 65be df85 35be 0805 5cbe 1717 22be
00000380: 16de 34be f5f2 ba3d 0bd5 e43c 7aa8 583d
00000390: 4500 883e ffaa 7c3e 1c26 e8bd 75d5 f13d
000003a0: 77ca 9d3d 73e8 ccbd ef7b 563e 6c1c b2be
000003b0: 39d2 a1be 5b33 abbe d594 4abd fbcb d4bd
000003c0: 4880 cc3d 60d8 f63c 8abd 87bd b7fe 42bc
000003d0: 9eee 09be bb26 f6bc cd50 963b 4d47 063d
000003e0: 0484 83be 9a8f 62be 8a66 b63d 3089 1f3d
000003f0: 20b5 a23d b51d 20be 8581 32be a4ec b63c
0.018179469 0.16974749 0.40357256 0.1906198 0.09200774 0.02980095 0.2157062 0.17861275
-0.23346458 -0.15691708 0.19013977 0.10394462 -0.1777721 -0.06856559 -0.0938906 -0.31173632
-0.25001988 -0.1434983 -0.10710402 -0.4320612 0.24708214 -0.11834882 -0.04910868 -0.10052002
0.10038448 0.30340353 0.19518037 0.069794305 0.19019997 0.15732701 0.0667182 0.04081248
0.0021092054 0.28150353 0.09702218 -0.10330577 -0.06827822 0.060010828 -0.062205832 -0.09427716
-0.005386098 -0.17062862 -0.19952828 -0.46492273 -0.026724184 -0.22031194 0.1194651 0.016974512
-0.03128812 -0.2762541 0.19926515 -0.002715855 -0.103136115 0.23263456 0.103407755 -0.3510866
-0.079176255 0.0748414 -0.20112891 -0.12577541 0.34948027 0.67100996 0.47114164 0.12937044
0.31555536 -0.18650237 -0.5647337 -0.12787198 -0.039932966 -0.20740132 -0.09232122 0.09716412
0.0116378525 -0.19160852 -0.06265076 0.010464705 0.00933828 -0.011741427 -0.29005578 -0.13634177
0.13386646 -0.035145253 -0.0928721 0.086125635 -0.20858063 0.37959364 0.2741266 0.121529125
0.26932573 -0.05894134 -0.08879525 0.18946107 -0.32161674 -0.3281267 -0.090213254 0.01699745
-0.21168101 0.21047592 0.26421908 -0.04685883 -0.21821278 -0.16972055 -0.10148034 0.06274561
0.13190387 0.0047006547 -0.23276263 0.04196613 -0.39266804 -0.3702156 -0.03762518 0.18162327
-0.026307173 -0.11485442 0.02855837 -0.24929093 -0.2402211 0.009618006 -0.2950859 -0.15874088
-0.2060762 -0.0084857 0.18666147 0.43794808 0.43682146 -0.19381188 0.031058723 -0.050377052
-0.18435405 0.15252033 -0.29820046 -0.08777963 -0.12617218 0.16206816 -0.19913523 0.024200339
-0.10218119 0.0031203397 -0.054752506 -0.06833608 -0.17537439 -0.07063465 -0.31106168 -0.10233031
-0.21133308 -0.044250812 0.019049108 0.055408858 0.22983962 0.19752756 -0.21970762 -0.035457835
0.05100721 -0.3534994 -0.1005796 0.038522217 0.0024144677 -0.0886232 0.15919048 0.2052815
0.25731617 0.16722578 0.105446234 0.17876633 0.09030332 0.16462469 0.0315862 -0.13532339
-0.02490514 -0.007699891 -0.18170825 -0.14508942 -0.5608607 -0.36971754 -0.3835051 0.24653375
0.18268025 -0.016045434 0.31721786 0.04835157 0.16903427 0.13453375 0.08604315 0.13534372
0.1087738 -0.22588466 -0.117710814 0.025806202 0.08173443 0.20676112 0.07826545 0.21099651
0.17833368 0.034516677 0.13740438 -0.22112451 -0.54894936 -0.07667182 -0.32819104 -0.14572272
-0.19415821 -0.081638396 0.19985129 0.04596645 0.25217998 -0.14327724 0.02673406 0.22874549
0.45303637 0.08745287 -0.0034956073 -0.06018208 -0.050150346 -0.21693456 -0.14257507 -0.19597858
-0.30275193 -0.2619221 0.0056634448 0.05040145 -0.22415459 -0.17726849 -0.21486294 -0.1582912
-0.17662844 0.091283716 0.027933618 0.052895047 0.26562706 0.24674605 -0.11335394 0.11808292
0.07704633 -0.10005274 0.20945714 -0.3478731 -0.316057 -0.3343762 -0.049458344 -0.10390469
0.09985405 0.030132473 -0.066279486 -0.011901549 -0.13469931 -0.030047765 0.004587269 0.03278284
-0.25686657 -0.22125092 0.089062765 0.03894919 0.07944703 -0.15636332 -0.1743222 0.022329636

conv1.bias f4 [8]
00000000: 9082 1a3e 6aee f43d d837 af3e 7454 083e
00000010: 0c16 11be 0448 08be 0723 263d 5621 ea3e
0.15088868 0.119595364 0.34222293 0.13313466 -0.14168566 -0.13308722 0.04056075 0.45728558

bn1.weight f4 [8]
00000000: 2ef9 6e3f f3d4 a03f e1d3 7a3f d5c1 463f
00000010: 7f57 433f c256 823f 85e8 903f e762 823f
0.9334897 1.2564987 0.9797955 0.77639514 0.76305383 1.0182726 1.1320959 1.0186433

bn1.bias f4 [8]
00000000: 434f 003d 7b3d 87bd dbc0 d03a 8b93 d5bc
00000010: 3c15 8c3d 5d75 c33d 67f5 88be ac59 d73d
0.03132559 -0.06603523 0.0015926616 -0.02607133 0.06839988 0.0954387 -0.26749727 0.105151504

bn1.running_mean f4 [8]
00000000: ffb8 283f ee55 f53e e0ef 8c3f 9a4a 0a3f
00000010: 2645 2b3f aa37 c43e f622 c73f 4783 df3f
0.6590728 0.47917122 1.1010704 0.5402008 0.6690239 0.38323718 1.5557544 1.7461938

bn1.running_var f4 [8]
00000000: 46ec 553f 7245 683f 2d4a 823f 6049 0a3f
00000010: b537 163f 6284 4d3f 318f 3641 17a0 1e40
0.8356365 0.90730965 1.0178887 0.5401821 0.5867875 0.80280125 11.409959 2.478521

conv2.weight f4 [16, 8, 3, 3]
00000000: a3eb 5a3c 7bef 993c dfe2 b13d 7996 a03d
00000010: 9bc2 de3d 3af6 01bd f801 173e 8f22 443c
00000020: 21b5 903d 6904 173e 9bd9 613e 33f6 263e
00000030: 54ed 7e3e 9d42 0b3e e51b 01be 9600 543c
00000040: 03b2 0e3e 0738 6b3c 85df c63d 89fc 713e
00000050: 92ee 2b3e 296d 57bd 77d3 91be 80ea 26be
00000060: 01b5 503e be81 02be d5cf d03d 4dfe 37be
00000070: 6e62 a3be b33c b43c 3b8b 683e d6d6 d5bd
00000080: c72c 48be 63ef 183d 76a1 0ebe 1e9a 0a3c
00000090: 74bc 263e e54e a7bd 9f27 5bbd 3454 6abc
000000a0: 092c a53c e9ca 17be 5bc2 07bd b921 ffbd
000000b0: 8554 363e 76dc 0dbe 4727 68be 02e7 aa3d
000000c0: 86b7 0b3e 0d6f c03e 1fa5 e63d 0ff3 843e
000000d0: f0a9 a23e 4e2a d03e 394d 883d 6d93 b5bd
000000e0: 3a09 abbd 6cf2 d1be 204d 8bbd ff96 25be
000000f0: e229 37bb 9cd9 613d 043f 0dbe 143a cd3e
00000100: e7aa d03e 4259 203e 1a80 b23d f8ec 233e
00000110: ccf4 803d 4f00 babd dafb 38bd 446a b7be
00000120: df88 4bbe bf25 303c 9b9e 523d 888e ecbe
00000130: 5cb9 05bf a50a 1dbf 6c65 bfbd a770 563e
00000140: f245 29be b7c5 8e3d 305e 023e 8f25 3d3e
00000150: be52 8d3d 8ee2 613d 46a1 ab3d d77c 8e3e
00000160: fe8e 39bc 3a86 433d c401 9d3c aacf 87be
00000170: 87bf ddbe 5655 d3bd 9c69 6e3d 5992 91bd
00000180: 6702 babe 9cf1 84be be40 dd3d a8c4 f3bd
00000190: 68bf 28be 5596 0fbe 2d2b 44be 190c adbe
000001a0: 3ce2 abbe c3e2 23bd 9643 8d3c aa26 893e
000001b0: 3e3a fbbc 9a5f 77be 38c1 a33c 9e73 c1bd
000001c0: da76 97bd a77c d93d cf5a 74be 2e74 2ebe
000001d0: 7d72 95be 7ac6 d53d 62c1 463e acac 0b3e
000001e0: 1928 bc3d 19bf acbd 1d64 0a3d e836 43be
000001f0: 2876 aabe af2d aebe 8de7 273e c378 ad3d
00000200: 4686 ba3c 8409 70bd 37b7 9bbe e510 86be
00000210: 918e 41be 1c0d 1bbd a55d 1ebe 95fa 6f3d
00000220: 8c6d 1cbd 0400 2bbd 08e8 a5bd 3c4a 3fbd
00000230: c022 36be 498a 833d 3918 7d3d bff8 503b
00000240: 81ac a33d e32e adbd 6ae4 813d fca5 903e
00000250: 7b3c ec3e 39e0 993e f18e d13d edff 443e
00000260: 7904 27be 21c7 f63c 7bd5 343e 7fd5 c53d
00000270: 2b41 fabd a5e0 853c 9f98 4fbe 0d34 d4bb
00000280: 4236 5ebd 2a45 5abe 7a39 093f 23f8 063e
00000290: 42e7 3a3e bddc 813e 6797 45be 0c60 223d
000002a0: e84c 2f3e b0db d73c 051e 4b3c a938 243e
000002b0: 2006 5fbd e619 6c3d cca5 c83d 7aff 0d3d
000002c0: d7a0 153e 29c7 5bbc bda6 813c 2aa0 34be
000002d0: f7aa 91bd fa01 203d 2596 93bc 6f0d c3bc
000002e0: e1c4 42be 9637 09be 4eaa 3fbe e52e 92be
000002f0: 898a b4be e0b5 19bd 900b 303e d33a 9f3e
00000300: 66d5 653e b6e6 6d3d 95d5 173e b640 c03d
00000310: 3215 f83b 2257 1fbe 29a6 803e f5ae 70bd
00000320: 76fd 08bd 6610 a83d 95aa f53d 828b f33d
00000330: ba39 3a3e f2a7 ef3d bd28 9a3e c231 d83e
00000340: 32c0 863e 575a 603d 241e 303e 24e9 e6bd
00000350: 27b3 6ebe bc5e 5d3d 32be c1bd 6f6c f43d
00000360: 740a 2d3d b285 913e fc99 2f3e 3248 dcbd
00000370: 2389 fb3c e58c 183e 5c3b cfbc f4e0 663e
00000380: af9d 743e 3e30 603e 0db2 b63d 1a4f 013d
00000390: 2243 3ebe fe38 1abe a922 bd3c 8153 84be
000003a0: 8b82 57be 8676 1dbd 19af 95bd d880 e0bd
000003b0: 8e17 c8bd ce6c 3ebd 90e2 bbbd 66c8 6ebe
000003c0: 9f12 8d3c 7724 4fbc 52a6 1ebe 66fd 8ebd
000003d0: f7dd a93d d55f 0dbe b5ab dfbd 70c6 dabd
000003e0: 2e8c 5bbe 8368 1eba 1b6a 463d eff5 b13d
000003f0: 5b7a f8bb 3ab2 9d3e f53d 36be 73ff 983e
0.013361844 0.018790951 0.0868585 0.078412004 0.10876962 -0.03172896 0.14746845 0.01197113
0.070657976 0.14747776 0.22055666 0.16304855 0.24895221 0.1359963 -0.12608297 0.012939593
0.13935094 0.01435662 0.09710602 0.23631491 0.16790226 -0.052594338 -0.28481647 -0.16300392
0.20381548 -0.12744805 0.10195891 -0.17968102 -0.31911033 0.0220016 0.22709362 -0.10441367
-0.19548331 0.037337672 -0.1392878 0.008459596 0.16282827 -0.08169345 -0.053504582 -0.014302302
0.0201626 -0.14823498 -0.033144336 -0.12457604 0.17805679 -0.1385363 -0.22671233 0.083448425
0.13644227 0.37584725 0.11261963 0.2596669 0.31770277 0.40657276 0.06655354 -0.0886601
-0.08351369 -0.41005266 -0.0680182 -0.16170882 -0.0027948548 0.05513917 -0.1379357 0.40083373
0.40755388 0.15659049 0.0871584 0.16008365 0.06296691 -0.0908209 -0.04516206 -0.35823262
-0.19876431 0.010751187 0.05142079 -0.46202493 -0.5223596 -0.6134437 -0.093455166 0.20941411
-0.16530588 0.06971305 0.12731242 0.18471359 0.069005474 0.0551477 0.0838037 0.2782962
-0.011325596 0.04773543 0.019165881 -0.26525623 -0.43310186 -0.10319011 0.058206186 -0.07107992
-0.36329958 -0.25965583 0.10803364 -0.119027436 -0.16479266 -0.14022191 -0.19157095 -0.33798292
-0.3357104 -0.04001118 0.017244142 0.2678731 -0.03066742 -0.24157563 0.019989595 -0.0944588
-0.07395716 0.10619479 -0.23862766 -0.17036507 -0.2918891 0.10438247 0.19409707 0.13640088
0.091873355 -0.084348865 0.03378688 -0.19063914 -0.3329327 -0.3401923 0.16396923 0.08470299
0.022769105 -0.058602825 -0.3041322 -0.26184765 -0.18902041 -0.0378543 -0.1546541 0.058588583
-0.03819041 -0.04174806 -0.08100897 -0.046701655 -0.17786694 0.0642286 0.06179068 0.0031886545
0.07991887 -0.084562086 0.06342395 0.28251636 0.46139893 0.3005388 0.10232342 0.19238253
-0.163103 0.030124249 0.17659561 0.09659862 -0.12219461 0.01634247 -0.20273064 -0.0064759315
-0.054250963 -0.21315446 0.5360333 0.13180594 0.1825228 0.25363722 -0.19296037 0.03964238
0.17119181 0.026349872 0.012397294 0.16037239 -0.0544492 0.057641886 0.09797248 0.03466747
0.14612137 -0.013414183 0.015826577 -0.17639223 -0.07112687 0.039064385 -0.01801593 -0.023810117
-0.19020416 -0.1340011 -0.1871731 -0.28551403 -0.35261944 -0.037526965 0.1719191 0.31099567
0.22444686 0.05808135 0.14827569 0.09387343 0.007570886 -0.15560582 0.2512677 -0.058760602
-0.033444844 0.08206253 0.119954266 0.118918434 0.18186083 0.11701955 0.30109206 0.42225462
0.26318508 0.054773655 0.17198998 -0.11274937 -0.23310529 0.054045424 -0.09460105 0.119347446
0.042246297 0.28422314 0.17148584 -0.10755958 0.03070504 0.14897497 -0.02529686 0.2254675
0.23888277 0.21893403 0.08920679 0.031569578 -0.18580297 -0.15060803 0.023087816 -0.25844958
-0.21045892 -0.03844311 -0.07308788 -0.10962075 -0.09770118 -0.046490483 -0.09174073 -0.23318633
0.017220793 -0.012642971 -0.15493134 -0.06981926 0.082942896 -0.13806088 -0.109214224 -0.1068238
-0.21440193 -0.0006042795 0.048441034 0.08689486 -0.0075829453 0.3080004 -0.17797072 0.29882392

conv2.bias f4 [16]
00000000: 4874 493e 882d 1f3e b0f9 863d b1ca 67be
00000010: 923e 0abe 94af 23be 00ce 7ebe 2179 863e
00000020: b8e0 87be f10a 0ebd 05e3 36be 3b45 1dbd
00000030: 59bc acbe 83c6 d33c 5b24 393c 3dd3 85bd
0.19673264 0.15544713 0.06590593 -0.22635914 -0.13500431 -0.15984946 -0.2488327 0.2626429
-0.26538634 -0.034678403 -0.17860039 -0.0383961 -0.33737448 0.025851494 0.011300172 -0.06534431

bn2.weight f4 [16]
00000000: 1dc3 533f fa83 6b3f 389d 563f 3370 7d3f
00000010: a2c5 373f cc84 643f d8bb 793f 5a35 643f
00000020: b6a8 953f aeba 763f 564c 853f cd1b 833f
00000030: a5ff 793f 44a6 8a3f 5e88 823f 0219 933f
0.82719594 0.91998255 0.83833647 0.9899933 0.7178594 0.8926513 0.9755225 0.8914391
1.1692111 0.963786 1.0413921 1.0242859 0.9765571 1.083199 1.0197866 1.1492007

bn2.bias f4 [16]
00000000: c6d6 fa3d 1314 043f cd82 c33e 1c7a 833e
00000010: 46c6 2f3e 0a1b a4bd 3f7d 00be bd4e e23e
00000020: 0bf6 25be 1873 9cbe 24f6 01be d2c2 2dbe
00000030: 69cb 573d 231a ce3e eeb4 583c e290 843e
0.12247996 0.5159313 0.3818573 0.256791 0.17165479 -0.0801297 -0.12547778 0.44200698
-0.16207139 -0.3055656 -0.12691551 -0.1696885 0.05268422 0.40254316 0.013226731 0.25891787

bn2.running_mean f4 [16]
00000000: 2ee6 573f b33a 7c3f e4ae 093f 63b2 663f
00000010: 724b da3e f71c 013f eb38 4a3f 40f1 533f
00000020: 0b2a 7a3e 77ac 293f 501d 2a3f f2da 7b3f
00000030: 41fb d03e c208 db3f 8ca8 b83f a788 493f
0.843356 0.9852707 0.53782487 0.90115947 0.42635685 0.5043482 0.789931 0.82789993
0.244301 0.66278785 0.6645098 0.9838096 0.40816692 1.7112048 1.4426436 0.7872414

bn2.running_var f4 [16]
00000000: 8d4d 843f 78ac bd3f e6f6 5f3f dcc5 cc3f
00000010: 41cb 133f 1252 7c3f 115d ba3f 400b 1b3f
00000020: d9db 313f 9f87 963f 15f9 ab3f fa76 f23f
00000030: 915c 9b3f 7c58 c13f bc9b 983f e682 2c40
1.0336167 1.4818258 0.8748611 1.5997882 0.57732016 0.9856273 1.4559652 0.6056404
0.69476086 1.1760138 1.3435389 1.8942559 1.2137624 1.5105128 1.1922526 2.6954894

conv3.weight f4 [32, 16, 3, 3]
00000000: f01c 1cbe d36f 0fbe 5ade 0fbe 7e3c f7bc
00000010: 9243 5a3d 03a0 383e 1814 313e 1559 79bb
00000020: a9fc 11be d566 f23d ae55 87bd e324 1fbe
00000030: 5f01 e53d 7456 df3d d142 89bd 09dd 8a3e
00000040: bd84 9e3d a3f1 323d 5ae6 2abe 26b0 5abe
00000050: 148a 18be 497e 1d3d 5579 d73d ddae ee3d
00000060: 74fb 1bbd 4ce8 dfbd 5a06 76bc 5d5d e2bd
00000070: 7746 d7bd d2a2 073e 4e6f c53b 52a5 9abe
00000080: c7f1 c7be a840 433c 0a26 8f3e cf68 823e
00000090: 8d92 543e d654 ca3d 2ffc 003d 31b1 f8bd
000000a0: c786 bcbb 318a 153e 7b03 14be 8e55 e5bd
000000b0: f22f 96bd db89 443d 2a26 623e fe3a 073e
000000c0: afd2 9ebd 2ae3 31be 485f d0bb 4b8e 62be
000000d0: d7e7 bcbd c6ca 6cbd 7687 4b3e 7605 7c3e
000000e0: f165 163e 0641 013e 98a2 2ebd ad77 9c3d
000000f0: 9d77 763d d093 1cbe 8f06 0abe e23c 90be
00000100: f93d 2b3d d9d7 933d bc51 cfbc 5202 a2bd
00000110: fb98 373e b848 08be b5ac 9ebc ba53 263d
00000120: 1739 8f3d 2a10 333d dd89 b1bd e4b6 983e
00000130: 399a d93e cc63 a63e 7ddf 9c3d c7e3 6a3d
00000140: 43f0 eabc 753f 6d3d 87a4 6ebd 0ab7 43be
00000150: 3935 cabd 9838 323e e3b7 3f3d 62f0 c13d
00000160: 03d8 443d a6b6 c43d fbef 243e dcf3 a8bc
00000170: eaee e73c 96cd 6fbe 012d 68bd e814 38be
00000180: c174 e63d ba0d f13d 1131 cf3d 09aa 053e
00000190: cdbf 0cbd 9179 97bd 2945 123e 99b9 743b
000001a0: 05ff b6bc 88cd 57be 4f13 f1bd c098 07be
000001b0: a7bc 1a3d 649a b53d 20eb 783e 8cd4 033d
000001c0: 7585 e5bc 7631 b13c f985 90be 5a3e 94be
000001d0: 46db 2f3c fd3d cb3d 6292 73bb c2a9 a53d
000001e0: 1dc3 043e 53cd 033e 4bb1 623e b312 d0bd
000001f0: 263e a1bc 7bcf 283e 127d 633e dbf1 9f3e
00000200: 8dda 023e 5062 67be 963d cbbd 4572 00bc
00000210: d2f1 f3bb c22e 8dbd 9c03 c23d fb59 4e3d
00000220: 6d0b 143e 52e5 21be 28dc 183e 73a7 de3c
00000230: fe15 23be 17aa 86bd eebf 463d db78 e53c
00000240: eba5 35be 4d4d a1be 6d6d fbbd 447b f83d
00000250: 8c69 91bd c4af c83d 7d70 46bc 8864 3ebd
00000260: d7ae 93bd 8370 28be a71b 82be a35a 0fbd
00000270: 8dcf cabd 6e4b 2a3e c92b 4f3e 3b5b fdbd
00000280: 89c6 493e 8dc5 8bbc 5f30 203d 4b68 bebc
00000290: 1b24 b03d a923 8cbe 58ee 9cbe 3302 27be
000002a0: 4345 af3c d6d1 2bbd 2bec e2bd 0514 c9bd
000002b0: 31d8 d13c e522 ce3c 8d24 7b3e 7e56 ff3c
000002c0: b16b c1bd 4dc0 5c3d 5120 12bc c332 17bd
000002d0: 6940 863d b1dd e3bc 05b4 19bd 18e7 5a3e
000002e0: d903 c43d 587a 1ebe b773 253e c3d5 8d3e
000002f0: cb45 393d 8be4 753e ad34 8b3e 91f1 34bc
00000300: 7d3e d33d b0fc c03d 3252 713d 3f0c 63bd
00000310: e5b5 26be 7333 94bd fa17 403e eb94 a6bd
00000320: 4d02 5fbe 2426 563e 46b0 433e f1f7 683d
00000330: 7f1c 50bd 43b4 ddbd 5d09 cabb 0d72 7e3e
00000340: be55 0ebe 6696 eabd e65f 0ebe 99a7 98be
00000350: c2df b0be 2b23 a1bb 4d34 32bd c1a4 a5bd
00000360: b1e5 5f3d 0757 c43d 3cc8 87be 6910 d8bd
00000370: 3485 563c a991 bebe f7ea 3f3d 5fbd 8ebc
00000380: fe0b d4be 8926 363e d909 c7bd fd9d c2bd
00000390: d7f6 68bd 74f5 35be 31a1 44be 3e05 8abe
000003a0: e4a5 0bbe 037f d7bd 5829 563e c960 f13d
000003b0: e4d6 3f3e 3822 e63d 6334 b03e 84eb 283d
000003c0: 4f26 383e eafa 483e b47d 193e d611 5e3d
000003d0: 858c d73d 32b6 133e 5476 aa3d 36e9 d9bd
000003e0: 9b2b bebe 4a19 6ebe 01dc 8dbd f1ff 1cbe
000003f0: 86f6 143d aa38 36be 1ea2 37be 5b03 92bc
-0.15245414 -0.14007501 -0.14049664 -0.030180212 0.053287096 0.1802979 0.17292821 -0.0038047482
-0.14256538 0.1183602 -0.06608139 -0.15541415 0.11181902 0.109051615 -0.06702197 0.2712176
0.077401616 0.043687474 -0.16689435 -0.21356258 -0.14896423 0.038450513 0.10521189 0.11654446
-0.0380816 -0.10932979 -0.015016163 -0.11052964 -0.10511487 0.13245705 0.0060252314 -0.30204254
-0.3905165 0.011917271 0.2795871 0.25470588 0.2075903 0.098794624 0.0314905 -0.121431716
-0.0057533714 0.14603497 -0.14454453 -0.11197959 -0.073333636 0.04798303 0.22084871 0.13206097
-0.077550285 -0.17371812 -0.0063590147 -0.22124593 -0.092239074 -0.057810567 0.19875893 0.24611458
0.14687325 0.1262246 -0.04263553 0.07640014 0.060172666 -0.15290761 -0.13479064 -0.2817145
0.04180715 0.07218904 -0.025307529 -0.07910599 0.17929451 -0.1330899 -0.019369463 0.04060719
0.06993311 0.043716587 -0.086688735 0.29827034 0.42500475 0.32498014 0.076598145 0.05734613
-0.028679019 0.057921845 -0.058262374 -0.19112793 -0.09873433 0.17404401 0.046806227 0.094696775
0.048057567 0.0960515 0.1610717 -0.020624094 0.028312165 -0.23418269 -0.056683544 -0.17976725
0.11252738 0.11770196 0.101167805 0.13053145 -0.034362603 -0.07396234 0.14284195 0.003734207
-0.0223384 -0.21074498 -0.11771261 -0.13241863 0.03777757 0.08867338 0.24308443 0.032185122
-0.028017739 0.02163003 -0.28227213 -0.2895382 0.010733431 0.09923933 -0.0037166108 0.08089019
0.12965055 0.12871294 0.22137944 -0.101598166 -0.019682955 0.16485398 0.2221568 0.3123921
0.12778683 -0.22596097 -0.09923856 -0.007839744 -0.0074445987 -0.06893684 0.09473345 0.05037878
0.14457484 -0.15810135 0.14927733 0.027179455 -0.15926358 -0.06575411 0.048522882 0.02801173
-0.17739074 -0.31504288 -0.12276731 0.12132886 -0.071002096 0.0979915 -0.01211178 -0.046482593
-0.072110824 -0.1644917 -0.25411722 -0.034998547 -0.099028684 0.16630337 0.20231546 -0.123709165
0.19704641 -0.017061973 0.03910863 -0.02324309 0.086006366 -0.27370957 -0.30650592 -0.16309433
0.021395331 -0.041948162 -0.11080202 -0.098182715 0.025615783 0.025163123 0.24525662 0.031169172
-0.09444369 0.05389433 -0.008918838 -0.036913645 0.06555254 -0.027815672 -0.037525196 0.21377218
0.095710464 -0.15476358 0.16157423 0.2770215 0.045232575 0.24012963 0.27188626 -0.011043922
0.10314653 0.09423196 0.05891628 -0.0554316 -0.16280325 -0.07236376 0.18759146 -0.081338726
-0.21778221 0.20912987 0.19110212 0.05687708 -0.050808426 -0.10825398 -0.006165667 0.24848194
-0.13899896 -0.114544675 -0.1390377 -0.29815367 -0.34545714 -0.0049175224 -0.04350691 -0.08088065
0.05466241 0.09586912 -0.26519954 -0.10550005 0.013093282 -0.37220505 0.04685494 -0.017424284
-0.414154 0.17788137 -0.09718675 -0.0950279 -0.05687603 -0.17769414 -0.19202115 -0.26957124
-0.13637501 -0.105222724 0.20914209 0.117860384 0.18734318 0.112369955 0.34414968 0.04124023
0.17983364 0.19626966 0.14989358 0.05421623 0.10524849 0.14424971 0.083233505 -0.106401846
-0.37142643 -0.23251835 -0.06926728 -0.15332009 0.036367916 -0.17795053 -0.17932937 -0.017823866

conv3.bias f4 [32]
00000000: 4efe 15be c8b6 7cbe f983 aabe 020d be3d
00000010: 9f5f 9bbe 1f11 48be b9b5 32be 0e1c a4bc
00000020: fd3d a2be 065b 8dbe 8169 9abe dfdd f8be
00000030: 728c b1be c2ea a5be cb1e f4bd f87b 7cbe
00000040: 25a7 42bd 3d4b 25be 8407 15be c9b7 11bf
00000050: 8037 4cbe 009f f2bc bdb2 06be c2d5 b8be
00000060: f460 18be 56da 97be ca17 97be 46b3 6bbe
00000070: fd4f 64be 3132 e8bd 3400 c7bd b753 8cbe
-0.14647791 -0.246791 -0.33303812 0.09279825 -0.3034639 -0.19537781 -0.17452134 -0.020032909
-0.31687918 -0.27608508 -0.30158618 -0.48606774 -0.34677464 -0.32405668 -0.11919936 -0.24656665
-0.047522683 -0.16141982 -0.14553648 -0.5692106 -0.19943047 -0.029616833 -0.1315412 -0.36100584
-0.14880735 -0.29658765 -0.29510337 -0.23017606 -0.22296138 -0.11337698 -0.097168356 -0.2740762

bn3.weight f4 [32]
00000000: e14b 6c3f c347 673f 2693 673f bf45 7b3f
00000010: 266a 8e3f e83c 723f 9358 753f dd20 653f
00000020: 7d5d 5e3f ed70 7a3f 11b9 623f ecbd 8c3f
00000030: 6ecc 7d3f b8d2 7a3f 11be 7f3f 09ba 6b3f
00000040: 2637 833f f493 723f 80e0 733f 7748 863f
00000050: 5bfa 6b3f a6bb 723f 4d99 6c3f 5eee 5e3f
00000060: fd02 593f 745a 603f 6b7d 883f a171 693f
00000070: 89ea 7d3f bc24 6d3f 4be9 843f 5515 8b3f
0.9230328 0.90343875 0.90458906 0.981533 1.1126144 0.94624186 0.9583828 0.8950327
0.868614 0.9782856 0.8856364 1.099546 0.9914006 0.9797778 0.99899393 0.9208074
1.0251205 0.9475701 0.95264435 1.0490865 0.9217889 0.9481758 0.9242142 0.8708247
0.84770185 0.8763802 1.0663275 0.9118901 0.99186 0.9263418 1.0383695 1.0865885

bn3.bias f4 [32]
00000000: 29bb 883e f632 d8be d44a 2abf 6e4d a6be
00000010: 9865 dcbd 0a75 1a3f f17d 613e e57a a23e
00000020: db91 b73e f07c 873d 7fed f4bd 8034 5cbe
00000030: 6069 8bbe ec61 b03d ef58 1cbe 6020 923e
00000040: 0311 263f 3e66 0dbe 5619 6a3d 492a dbbe
00000050: 2b08 ac3e 9a53 073f 3542 8e3e 90f4 07be
00000060: f8ca 933e 079d 4a3f 1332 46be 7118 fdbd
00000070: bdce 733e 3ea8 27bd 1ecc 383e aa6b c63e
0.26705292 -0.4222638 -0.6652043 -0.3248095 -0.10761565 0.6033484 0.22020699 0.31734386
0.35853466 0.06615627 -0.11959361 -0.21504402 -0.27228832 0.08612427 -0.152683 0.28540325
0.6486971 -0.13808534 0.05715307 -0.428057 0.33599982 0.5286194 0.27784887 -0.13276887
0.2886579 0.79145855 -0.1935504 -0.123581775 0.23809333 -0.040931933 0.18046615 0.38754016

bn3.running_mean f4 [32]
00000000: f201 063f 5022 003f 8061 9c3e a51a eb3e
00000010: 06c6 cf3e c98a 093f 3220 3f3f 6336 9a3e
00000020: dd09 323e 4edf 2c3f aa31 6d3e d983 833e
00000030: c573 783e 9eb6 d83e 6a12 af3e a841 e13e
00000040: b41e 8e3f 801d bf3e c800 993e 4833 173e
00000050: 3004 b53e 7813 a03f d684 4f3e d2de 933e
00000060: 76d7 f83e cce8 f03e 14eb c43e e8d8 e63e
00000070: 3ecd 7b3e eb57 4e3e 5778 af3e ce6a d03e
0.5234672 0.50052357 0.30543137 0.45918766 0.40580767 0.53727394 0.746585 0.3011962
0.17386575 0.67528236 0.23163477 0.2568653 0.24262913 0.42326826 0.34193736 0.43995404
1.110312 0.37327194 0.2988341 0.14765656 0.35354757 1.2505941 0.20265517 0.28880936
0.48601884 0.4705261 0.384606 0.4508736 0.24590012 0.20150726 0.342715 0.40706486

bn3.running_var f4 [32]
00000000: 5573 2b3f c13f 843f 6757 2c3f aff3 543f
00000010: 5d49 933f 261a 973f 4b72 fb3f 963c b43e
00000020: ef7b ad3e e0b9 9b3f 049b 8c3e ae3a 483f
00000030: 08e6 413f d10d 543f ceca 213f 0a41 9b3f
00000040: c89f 913f 53ac 433f aa63 203f c145 aa3e
00000050: 456b 543f ca7a 5840 2ee7 c93e 1731 443f
00000060: a91b 7e3f e0bf 113f 3d65 513f c989 5e3f
00000070: 8071 ef3e 55d4 013f b49b 263f 0c21 953f
0.6697286 1.0331956 0.67320865 0.8318433 1.1506764 1.1804855 1.9644254 0.35202473
0.33883616 1.21661 0.27462018 0.7821454 0.75741625 0.8283358 0.6320008 1.2129223
1.1376886 0.7643482 0.62652075 0.33256343 0.8297618 3.3824944 0.3943419 0.76637405
0.99260956 0.56933403 0.817951 0.86928993 0.4676628 0.5071462 0.65081334 1.165071

conv4.weight f4 [64, 32, 3, 3]
00000000: a449 f3bd a98c 913d 01c1 0b3e a0b1 29be
00000010: 4731 49be a851 6dbd befc 39bd 301c 8abe
00000020: dceb 3abd 9236 d7bd 7489 26bd dde6 cbbc
00000030: 2188 edbd f85a 2dbe 5aed 89be dbcd 8a3d
00000040: 23d4 383e f81d 4c3e 6539 c7bd c6a4 ae3d
00000050: e915 a83c fffd 343e 5d11 1e3e 3a7e 1c3d
00000060: 220e d93d c9c9 9f3d 3366 e53c 6d79 efbd
00000070: 230e 8dbd cdf1 c43b 61e9 edbd 26d7 b2bd
00000080: 9ca7 e03c 5f3a 2e3e d799 223e aaa1 b23d
00000090: 4498 2abb cdcd 7f3d 9ac8 233b bb34 cf3b
000000a0: 6545 05bc 73a0 39bc 4a69 f93d d90a 39bd
000000b0: f4f2 943c 7cc7 643c da77 243c 4d74 1b3d
000000c0: a451 b1bd 167a 47bd f320 ec3c a92a 7bbd
000000d0: bdab f7bd da51 87be 316e 9cbb 5025 c43c
000000e0: 7c5b d13c c370 65bd 7d03 5ebd 41a4 193d
000000f0: 2abd 09bd c09a 193b 063a b2bd 2cbe aa3c
00000100: cfff 673e 4b43 413e ae5a ce3d 3738 bc3d
00000110: b055 4fbd 438b b33d 150b 373d c399 23bd
00000120: 5200 f2bd 6ac1 02be 1eea 4ebc 1f14 79bd
00000130: 8b17 013d 7985 05be ac70 2ebe 3d4e 7bbd
00000140: acfd a73c df97 b53d 705d 16bb 75ea 3a3e
00000150: c2d8 8fbd cc20 81bd 7bd2 933c e300 2739
00000160: da7a 08be b3a6 b7bd 36a9 98be 04f4 f43b
00000170: beaf c83d ea71 1bbe 7bc5 3dbe 37d1 45bd
00000180: 3c67 fe3d 857b 843d 3fb6 6c3d eeba 28be
00000190: 04a8 88be 27c3 98bd 608b 2a3d 2f4c 053e
000001a0: f79d dd3d afa8 89be 8d09 8abe 0944 adbe
000001b0: bd0a e63d 51b7 fc3d de7d f13d 41ab 1abe
000001c0: 29a7 68bd a95e 50be cbd4 0fbe 38c8 98bd
000001d0: f46f 93bd b16c c83d a870 623d 808e bfbc
000001e0: 8d2c 6b3e a373 5e3e 217d 313e b43f a73d
000001f0: 01dd 813d 022b 9f3d 043c d63c a2cf 0abe
00000200: 5b40 6ebe 3677 af3d 3643 b53d 7a67 153e
00000210: 3c06 d1be d5cd edbd d003 0ebe af6c 043e
00000220: a042 383e bed2 ae3d efe9 bdbc 719e 88be
00000230: 33a7 05be 1d86 93bd 5043 0b3e 76c6 ac3d
00000240: 5d3c f13c 7dd0 dfbc 7c48 00bd 8ec7 8abe
00000250: 9b47 b9be 4a78 cebe 629d 79bc 5db1 213c
00000260: 3943 3bbd 1851 023e d4b9 143d ca11 d03c
00000270: 086d fb3d 6e5e 243e d106 993e 0964 08be
00000280: a369 96bd 8c57 e8bb 13e6 033e b7a9 203d
00000290: b147 c93b bce4 313e b769 883e bacf 903e
000002a0: 8323 b43b d57f e83d 2c92 c03c bbf1 683e
000002b0: d296 3b3e 0864 e73d f3d8 1e3e 8f66 003e
000002c0: edba ac3d 1351 90bd a291 82be b5bc 79be
000002d0: ed18 433d 7d1e 603d 8baf 023d 6226 3f3b
000002e0: 485c 27be 58b5 23bd ac9f e1bb 9f1b 453d
000002f0: 9d60 5dbd a713 0bbe a1e1 823d ff24 dd3d
00000300: 110f 5dbe 4e98 d4bd ef78 c4bd 5e13 493d
00000310: 58d7 14be de28 a8bd f93f f63d 7b97 f9bd
00000320: 747e 28be d5e5 dd3d aaf6 1b3e 3e6b 20bd
00000330: a9ca 5d3c bbb1 e8bc 92a5 85bd e8c6 b83d
00000340: 8185 953d 2114 013e ed38 413d a991 c83d
00000350: eb73 c43d 98a7 be3c faa4 a6bc 623c 17be
00000360: 4ab5 c13c 995e 893d c98e 8cbc f105 813b
00000370: eb2b 1a3e 101c 223e ce30 903d 348d cd3d
00000380: f335 65bd 9b8d 8a3c 2d16 60bd 4fc4 e93d
00000390: 6d2f 9abe 5565 80be 1187 513c 893b d5bd
000003a0: 5cae 0dbd 0b7f e1bd 2562 13be 0bdf c03d
000003b0: 9ac9 3c3e 4550 1d3c c0c3 7f3d c1f5 9e3d
000003c0: 3795 843d 7cad ab3d 55eb fa3c 79ba 94bc
000003d0: ec10 a8bd 21ff 8dbd 3af2 003e 80cb 5c3d
000003e0: ff48 053e ce18 173e 1cfa f43c 04c3 423d
000003f0: 3473 c6ba 830c b7bd 838a fd3d d145 2d3d
-0.1187928 0.07106907 0.13647844 -0.16571665 -0.19647704 -0.0579392 -0.04540705 -0.2697463
-0.04563509 -0.10508455 -0.04065843 -0.024890358 -0.1159823 -0.16929233 -0.26938897 0.06777545
0.18049674 0.19933307 -0.09727744 0.08527522 0.02051826 0.17675017 0.15436311 0.038206317
0.10598399 0.07802159 0.028002834 -0.11693082 -0.06887462 0.00601027 -0.11616779 -0.087324426
0.027423672 0.17014454 0.15878998 0.08722241 -0.0026030699 0.062452126 0.0024991394 0.0063234246
-0.008134221 -0.011329758 0.121782854 -0.04517636 0.018182255 0.013963576 0.01003834 0.03795271
-0.0865815 -0.048700415 0.028824305 -0.06131998 -0.12093303 -0.26429635 -0.004773878 0.023943573
0.025556318 -0.05601574 -0.054202545 0.03751016 -0.033627667 0.0023438185 -0.08702473 0.020842634
0.22656177 0.18873326 0.100758895 0.0919041 -0.050618827 0.087667964 0.044688303 -0.03994156
-0.11816467 -0.12769094 -0.01262906 -0.060810205 0.031516593 -0.13039197 -0.17035168 -0.06135391
0.020506702 0.08866858 -0.0022943877 0.18253501 -0.07023765 -0.06305084 0.0180447 0.00015926691
-0.13328114 -0.08967342 -0.29816598 0.007475378 0.09799145 -0.15180174 -0.18532364 -0.048295226
0.12422034 0.06468872 0.05779099 -0.16477558 -0.26690686 -0.07459097 0.041636825 0.13017343
0.10821145 -0.26886508 -0.26960412 -0.3384097 0.11232517 0.12339652 0.117915854 -0.1510439
-0.05680004 -0.2034861 -0.14046018 -0.07460064 -0.07199088 0.09786356 0.05528322 -0.023383379
0.22966214 0.217238 0.17332889 0.08166447 0.06340981 0.07771875 0.026151665 -0.13555768
-0.23266737 0.085676596 0.0885071 0.14590254 -0.4082507 -0.11611525 -0.13868642 0.12932085
0.17994165 0.0853629 -0.023182837 -0.2668338 -0.13052063 -0.072033145 0.13599896 0.08436291
0.029447729 -0.027321095 -0.031319126 -0.27105373 -0.36187443 -0.40326148 -0.015235277 0.009868947
-0.045718405 0.12726247 0.036310032 0.025399107 0.122766554 0.16051647 0.29888013 -0.1331941
-0.07344367 -0.0070905145 0.12880735 0.039224353 0.0061425795 0.17372411 0.26643154 0.28283483
0.0054973974 0.11352507 0.0235072 0.22748463 0.18319252 0.11298376 0.15512447 0.12539123
0.08434091 -0.07046714 -0.25501734 -0.24388392 0.047631193 0.054716576 0.031905692 0.0029167165
-0.16343796 -0.039967865 -0.0068854894 0.048122045 -0.054047216 -0.13581716 0.063906915 0.10798072
-0.21587779 -0.10380612 -0.09593379 0.049090736 -0.14535272 -0.0821092 0.120239206 -0.12187096
-0.16454488 0.108348526 0.15230814 -0.039164774 0.0135370875 -0.028405061 -0.06525721 0.09022313
0.073008545 0.12605335 0.04717343 0.097934075 0.09592422 0.023273274 -0.020342339 -0.14769128
0.023646016 0.06707496 -0.017157929 0.003937476 0.15055816 0.15831017 0.07040559 0.10036698
-0.055959653 0.016913226 -0.05470865 0.11414396 -0.30114308 -0.2507731 0.01278855 -0.10411746
-0.03459011 -0.1101056 -0.14392908 0.09417542 0.1843628 0.009601657 0.06244254 0.077617176
0.06473773 0.08382699 0.030629793 -0.018155323 -0.082063526 -0.069334276 0.12592402 0.05390501
0.13016127 0.14755556 0.029904418 0.047549263 -0.0015140534 -0.08937933 0.12379935 0.04230291

conv4.bias f4 [64]
00000000: 6538 d1bd c0ef b3be 2ff1 7d3d 25ec 3fbe
00000010: 3d39 82be 8e5c 87be 4c89 83be e8c2 b1bd
00000020: c302 fbbe fbf3 88be 9341 96be e983 94be
00000030: 7bc8 a5be 5411 20bf d530 bfbe cdca aebe
00000040: d58b b7be dde5 dabe 18d6 92be 6011 93be
00000050: d9cf c8be f869 9fbe f8f0 69bd b77c 89be
00000060: 0a8b 94be 837b 12be 6e80 98bd 2df4 b7bb
00000070: 1db6 80be 7bd1 80bd 5401 e0bd da15 93be
00000080: 63a7 c6be 214b 123d 1c75 8bbe 3ff2 03bd
00000090: 18f1 a5be bc48 d0be 0eaf 71be 759b b0be
000000a0: f747 84bc dd7c dabe 4587 97be 03f5 e0bd
000000b0: 3757 67be 5355 97be e770 73be 634f a8be
000000c0: ddfb fabd 3a6c 6bbe 55f3 e9be cd6e 7ebe
000000d0: 7a74 7fbe bb82 99be ace0 acbc b03d 7ebe
000000e0: 90ca 2cbe 1259 a2bd 4b42 5fbe 27a7 d3be
000000f0: 2313 c5be 0609 c4be 0f03 92be ef27 b8be
-0.102158345 -0.35143852 0.06199759 -0.18742426 -0.25434294 -0.264378 -0.25690687 -0.086797535
-0.49025545 -0.26748642 -0.29346904 -0.2900689 -0.32379517 -0.6252644 -0.37341943 -0.341391
-0.3584887 -0.42753497 -0.28678966 -0.28724194 -0.39221075 -0.31135535 -0.05711457 -0.26852962
-0.29012328 -0.14304928 -0.07446371 -0.005613825 -0.2513894 -0.06289955 -0.10937753 -0.2872761
-0.3879958 0.03571618 -0.27237785 -0.032213446 -0.32410502 -0.40680492 -0.23601934 -0.34493604
-0.016147597 -0.42673388 -0.2959539 -0.10984232 -0.22591864 -0.29557285 -0.23773538 -0.32873067
-0.1225507 -0.22990504 -0.4569346 -0.24846955 -0.24946776 -0.29982552 -0.021103226 -0.2482822
-0.16874146 -0.07927145 -0.21802633 -0.41338465 -0.38491163 -0.38288134 -0.2851796 -0.35967967

bn4.weight f4 [64]
00000000: 330e 0640 6495 1b40 91a9 1f40 fac5 1a40
00000010: 7938 0340 435c 0940 9745 1940 117b f53f
00000020: e58c 3940 7fc1 1140 3d4a 1f40 0ba7 1f40
00000030: 5d71 1c40 7f52 3240 aaef 3c40 64a4 3040
00000040: 1fbf 0e40 4f8f 0e40 8f9b 1540 78d1 3440
00000050: fcbf 2140 4274 2140 d9c2 f33f eaec 3440
00000060: f946 2f40 9ba6 1e40 11b5 1640 07d8 f83f
00000070: b978 2d40 f787 d73f 7ba7 1040 77a4 1e40
00000080: 5e98 1740 ad3c 0b40 04fc 1b40 5bba 1040
00000090: d12a 0f40 39b1 3540 527e 1c40 9579 2840
000000a0: 0f2b ee3f dc06 1640 b1b2 2840 1107 0f40
000000b0: 0c10 2740 1744 3040 fdc8 1440 4030 1c40
000000c0: 078e 1740 f61b 1240 b5c0 2640 9a7e 0e40
000000d0: f451 ec3f a70d ef3f cec7 0640 4c20 2240
000000e0: 5565 1240 9ddf 2a40 e6b0 f93f 8e2b 2e40
000000f0: 95da 3340 b95f 3140 1196 0640 fee7 2540
2.0946167 2.430993 2.4947245 2.4183335 2.0503218 2.1462562 2.3948724 1.9178182
2.8992245 2.277435 2.4889061 2.4945705 2.4444191 2.7862852 2.952128 2.7600336
2.230415 2.2274969 2.3376195 2.825285 2.5273428 2.5227208 1.9043838 2.82696
2.7387068 2.4789188 2.3548014 1.9440926 2.7104933 1.6838368 2.2602222 2.4787881
2.3686748 2.1755784 2.4372568 2.2613742 2.2369883 2.8389418 2.44521 2.6324208
1.860689 2.3441687 2.6359065 2.2348063 2.6103544 2.7541559 2.3247674 2.440445
2.3680437 2.2829566 2.605512 2.2264771 1.846251 1.8676041 2.105945 2.5332212
2.2874348 2.6698983 1.950711 2.7214084 2.8102162 2.7714674 2.1029093 2.5922847

bn4.bias f4 [64]
00000000: 9b77 383e 0f73 863e f09f a53e 8a34 6f3e
00000010: 1f89 ad3e 7c31 743e af46 27be d735 1a3e
00000020: 59a4 6e3e c4d8 283e 5ed7 52be 57fd 6c3e
00000030: bab9 5f3e b7ec 85be 20db 4abe 755a 903e
00000040: 948f 663e def0 a63d 7306 8dbe f5df 563e
00000050: 5109 32be 7341 453e f6a4 57be c414 873e
00000060: f49d 61be 4dae 313e 664a 773e 859b 53be
00000070: c990 3ebe 2772 4c3e 8d20 79be 36b4 9c3e
00000080: 4324 76be e7ab 3b3e b806 54be 61b3 413e
00000090: ddad 7a3e 0b10 b43e 11b6 473e 6c14 5e3e
000000a0: 8c25 a83e 54e1 9abe 55b6 68be 2bc6 62be
000000b0: 359f 2bbe 7c8e 65be 05ed 28be 9e13 35be
000000c0: f350 c8be d7c4 6ebe 3e0f 5bbe 6ea9 4d3e
000000d0: 83bf 3a3e 2e6a 503e 4825 263e 1418 c0be
000000e0: 72ae 353e a36a 323e 7185 3d3e 531d 173e
000000f0: 05ef 95be 1844 88be 566a 53be c07f 063e
0.18014376 0.26259658 0.32348585 0.23359886 0.33893678 0.23847002 -0.16335557 0.15059601
0.23304881 0.1648894 -0.20589969 0.23143516 0.21848193 -0.26157162 -0.19810152 0.28194013
0.22515708 0.081514105 -0.27543983 0.2098387 -0.17386366 0.19263248 -0.21059021 0.2638303
-0.2203291 0.17351647 0.24149475 -0.20664795 -0.18609919 0.1996542 -0.24328823 0.3060624
-0.2403727 0.18327294 -0.20705688 0.18916084 0.24480386 0.3516849 0.19503047 0.21687478
0.32841146 -0.30250037 -0.22725804 -0.22145908 -0.16759951 -0.22417635 -0.16496666 -0.17683265
-0.3912426 -0.23317276 -0.21392533 0.20084164 0.18237118 0.20353004 0.16225159 -0.3751837
0.17742327 0.17423491 0.18507935 0.1475728 -0.2928392 -0.2661445 -0.20646033 0.1313467

bn4.running_mean f4 [64]
00000000: 160d 9f3e cd60 e53d 122b b03d 0534 3a3e
00000010: 6185 4d3e f888 503e 892b 113e add5 353e
00000020: 851d 5e3d c22e 723d bd86 5d3e 0e19 ee3d
00000030: d5b7 ce3d 222e 223d 9dfa b43d 1ea9 3f3d
00000040: 7c32 353e 6cc1 ee3d 9ee2 253e f2a0 6c3d
00000050: 5454 ba3d f381 e63d 680b d83e cb23 773d
00000060: 684f a23d e517 123e f0a4 533e 2730 e63e
00000070: e7a6 543d a67f 2a3f 1ac5 833d f304 d13d
00000080: 477d 643d f88b 6a3e 28a9 6c3d c694 8e3d
00000090: a6f6 163e 0603 323d df30 8a3d 4aee cf3d
000000a0: 1cf7 0d3f 23ba 853d 84d9 833d d813 823d
000000b0: 4d1a ba3d 422f 893d d43c fd3d 9a18 e13c
000000c0: f65b f53c fd1e 113e b3e6 4d3d 5d0b 253e
000000d0: ae5d 863e 4332 3a3e 39bf df3d 52de 7a3d
000000e0: 1d46 5c3e ebe8 c23d 14b1 133e c97e 5c3d
000000f0: db50 823d 22b2 a33d 010f c43d 0f31 033d
0.3106467 0.11200104 0.08601965 0.18183906 0.20070411 0.2036475 0.14176764 0.17757292
0.05422737 0.059126623 0.2163343 0.116258726 0.10093657 0.039594777 0.08836863 0.046792142
0.1769504 0.11657986 0.16199729 0.057770677 0.090981156 0.112552546 0.42196202 0.06033687
0.07925302 0.14266928 0.20668387 0.44958612 0.051916983 0.66601026 0.064340785 0.10206022
0.055783536 0.22904956 0.057778507 0.0696197 0.14742526 0.043459915 0.06747603 0.10152872
0.55455184 0.065296434 0.06437972 0.06351441 0.09087048 0.06698467 0.12365118 0.027477551
0.029951077 0.14171977 0.05026884 0.16117616 0.26243347 0.18183236 0.10925145 0.061247177
0.21511121 0.09517082 0.14423019 0.05383185 0.06363078 0.079929605 0.09573174 0.032029208

bn4.running_var f4 [64]
00000000: 0dc9 783f 04ea 6f3e 2225 173e 5b73 cd3e
00000010: 22c1 d03e 1154 d33e f049 b23e 351f ac3e
00000020: 7e43 3e3e 11c4 d13d 00a6 d63e 3327 9c3e
00000030: a9bb 493e cd83 cd3d 0f33 933e b583 ad3d
00000040: 0884 be3e c218 953e dc72 b23e dd51 1e3e
00000050: d31c 9d3e 83c6 623e 2515 1b3f d1ae 203e
00000060: 6c4e 073e d8ea 973e 3a42 e43e 9eea 2c3f
00000070: 9e63 de3d a564 e33f 2958 be3d aa10 5a3e
00000080: 95da 1a3e 0a9f 253f 69b5 113e b618 003e
00000090: 5fb8 ac3e 1829 e73d f0df 123e cb83 393e
000000a0: c65c 703f b73b 363e 55e2 133e 5bf5 d53d
000000b0: 0db2 653e aa29 0a3e da87 563e ed0d 363d
000000c0: a073 803d 93d9 893e 71af 043e 798f c63e
000000d0: 009d 1e3f ab69 db3e f3a4 713e 9be2 0a3e
000000e0: b4e7 093f 650f 483e fd7e a43e fe79 0a3e
000000f0: 9386 203e 6f3a 4a3e 037c 0b3e 1a33 a03d
0.9718178 0.23429114 0.14760259 0.40127072 0.4077235 0.41275075 0.34822035 0.3361756
0.18580434 0.10242475 0.41923523 0.30498657 0.19700493 0.10034905 0.28749892 0.08472387
0.37210107 0.2912045 0.34853256 0.15460916 0.30686054 0.22146039 0.6057914 0.15691687
0.1321351 0.2967136 0.44581777 0.675455 0.10858844 1.7765089 0.09294159 0.2129542
0.15122445 0.646958 0.14229359 0.12509426 0.33734414 0.11287135 0.14343238 0.18116681
0.9389156 0.17796217 0.14441808 0.104471885 0.22431202 0.13492456 0.20950261 0.044446874
0.06272054 0.26923808 0.1295755 0.38781336 0.61958313 0.42854056 0.2359808 0.13563006
0.53869176 0.19537123 0.32128134 0.13523099 0.15676336 0.19748853 0.13621525 0.07822247

lin.weight f4 [10, 64]
00000000: ea04 d23e 56b5 07be 104c 4bbf 41bb 603e
00000010: e50d e6be 2de9 0dbd 8cbb 3fbf d80e 2e3f
00000020: 289e 76bf 685b 003f 0667 0cbf 995d d13e
00000030: af24 f13d 2067 193f 153b 49bf 8dcd 05bf
00000040: 6992 1b3f 43f6 17bf 8e6e c83e 62a6 453e
00000050: 433c 52bf dd85 813f f026 0dbe e33a 853e
00000060: 2d87 3ebf c99f 183f 1c60 3f3e 98bb e0be
00000070: 12c7 e4be c3a1 d03e 7db9 fbbe e1cc c53d
00000080: 3fc0 d8be a603 c23e 834f 0fbf e13b debe
00000090: 3848 e13e eadb ecbe 4554 e93e 8400 e2be
000000a0: 178f 8cbe 26ba 443f 5983 4abf c209 a5be
000000b0: 49a5 38bf 1bf4 b2bd d8ab 4dbf a5b0 3dbf
000000c0: 8739 a7bd 1390 0f3e ded1 3dbf c027 ea3e
000000d0: e35e 253f ab92 0c3f 112b ea3e ce6a 243f
000000e0: d6db 193f 8e31 813e 10dc ec3e b03e 8b3f
000000f0: d629 9c3e a075 02be d7d2 10bf e800 9c3f
00000100: ab02 153f 49f5 253f 1aed 463e 5a23 8bbe
00000110: b9e9 0f3f 262a 253f e52e a13e e711 94bf
00000120: ca85 a03f ebe5 dfbe 72c5 a3bd 3ef9 533f
00000130: fab8 33bf 76e8 0fbf b698 45bf ee65 083e
00000140: a963 b43e f33c 963f bdb1 ff3e 07b7 3bbf
00000150: fbe0 543f 9b57 2fbf e2a2 11bf 8496 05bf
00000160: 8ba4 9ebe 09bf 16bf a90f 1f3f b9df a0bd
00000170: 4c1d e6be eb01 24bf 4834 cbbe 6156 0ebf
00000180: d04d b0be 3534 97bd ff16 a6bb 8894 213f
00000190: 4d0a 143f d30c b9be 1454 3b3f af5f 883f
000001a0: fa71 28bd b870 4ebf 9736 9a3e 9dd2 8b3e
000001b0: c1bd 9e3e d75f 63bf 3ba5 c93e b937 833f
000001c0: a1b2 eebe 87d3 febe d412 9dbe 11bf 0d3f
000001d0: 6208 02be 09bd 2abf a7df 49be 2cbd cfbe
000001e0: 4158 173f 74b6 3e3e 8f13 7dbf ae11 74bf
000001f0: 6832 073c 9d59 7b3f f47f 2fbe 9af7 49bf
00000200: 0806 64bf 619b 2abe 858e db3e 4c4a 1d3e
00000210: bd12 943e 187c a4bd f5cd d23e 512a 06be
00000220: 2ba0 43bf 0df0 93bf 5652 343f b7ad 8c3d
00000230: 9095 3dbf a3e6 7c3f a194 0e3e 0cdc b13e
00000240: 151b 0d3f f0d4 8d3d dd16 12be 52b0 0ebf
00000250: 7607 06bf 1a9e 403e dbfc 853f ff78 67bf
00000260: cd56 483d 3c80 5bbf 729b dcbc 1685 1a3f
00000270: 9722 c83f 2fe1 a03e 7d5d fcbd 554a 2dbf
00000280: 0a25 ddbe e50b c8bf e0bd 00bf bcf2 34bf
00000290: f211 613e cd04 323e 1e45 77bf 9da3 9fbf
000002a0: 6545 053f 0ca7 b7be d2b7 19bf d46f 8dbb
000002b0: 1494 5d3f 67ea 683f 0164 c33e 37d0 a93d
000002c0: 4844 583c 4532 803f 7567 0abf 0a9f 58bf
000002d0: c58a 243e afe5 e83e ddc7 cfbf d772 f6be
000002e0: 34e0 20bf 4913 0dc0 07f6 203e 737e 7bbf
000002f0: 782a f83e f4a3 08bf 4a42 4ebe 7a9f 88bf
00000300: 2aee 75bc 5a5a 60bf 84fe 0e3f a90e 85bf
00000310: 7a94 27be 50c7 6fbf 8d12 223f 750e 32bd
00000320: 0c17 873d 6cbd 393f a2ea d5be ce7d 3abf
00000330: ab4c 763f 74f5 51bf a3c3 613f 75b1 813f
00000340: c481 dabe 59bb afbe 55aa 2fbf 9a4d 963f
00000350: 125f 493e ef8d 4ebf fedb abbc 5fb7 793f
00000360: 13f8 9fbd 2b3d 2d3f 7717 eb3c 6006 e6be
00000370: b2b0 a83e 9848 9cbe d759 26bd b1a5 263f
00000380: a3ae abbd f70f 353e 83d3 743f 896d 123f
00000390: d2b0 b7be 7d5a 943f 6f19 39bf 815d dabe
000003a0: 51f4 8bbe 5c69 25be e32a 473f 6cbe 333f
000003b0: f191 ee3e 17ab 563f 3286 77be 2992 40bc
000003c0: 7252 413f f1e7 25bf 4ba7 893f 5701 34bf
000003d0: 4fa1 48be 0aad a0be feb5 713e 8d4e f9be
000003e0: d470 9cbe 04b0 053f 44a1 6d3e bcfd aabe
000003f0: 06db 5abf e251 27bf ca9d 8f3f 2321 cdbb
0.41019374 -0.13252768 -0.7941294 0.21946432 -0.44932476 -0.034646202 -0.7489555 0.679914
-0.9633508 0.50139475 -0.548447 0.40891722 0.11774575 0.5992298 -0.7860578 -0.5226677
0.6077028 -0.5936014 0.39146847 0.19301751 -0.821232 1.0118977 -0.13784385 0.2602149
-0.7442501 0.5961881 0.18689007 -0.43893123 -0.4468313 0.40748414 -0.49164954 0.09658218
-0.42334172 0.3789341 -0.559807 -0.4340506 0.4400041 -0.4626153 0.45572105 -0.44141018
-0.2745292 0.7684654 -0.7910667 -0.32234007 -0.72127205 -0.08737966 -0.8034034 -0.74097663
-0.08165269 0.14019804 -0.74148357 0.45733452 0.6459791 0.549113 0.45735982 0.6422547
0.6010107 0.2523312 0.46261644 1.0878506 0.30500668 -0.12740183 -0.56571716 1.2187777
0.58207196 0.648274 0.19426385 -0.2717541 0.5621601 0.6451744 0.3148109 -1.1567963
1.2540829 -0.437301 -0.07996644 0.8280219 -0.70204127 -0.5621408 -0.77186143 0.13320133
0.35232285 1.173735 0.4994029 -0.7332615 0.8315579 -0.6849305 -0.56889164 -0.52182794
-0.3098491 -0.58885247 0.6213327 -0.07855172 -0.44944227 -0.64065427 -0.39688325 -0.55600554
-0.34434366 -0.073830046 -0.0050686593 0.63117266 0.5782822 -0.36142597 0.7317517 1.06542
-0.04112432 -0.80640745 0.30119774 0.27309123 0.31004146 -0.88818115 0.39383873 1.025138
-0.46620658 -0.49770758 -0.30678427 0.5536967 -0.1269851 -0.66694695 -0.19714223 -0.40574014
0.5911904 0.18624288 -0.9885797 -0.9533948 0.008251764 0.98183614 -0.17138654 -0.78893435
-0.890717 -0.16660835 0.4288217 0.15360373 0.28920546 -0.080314815 0.41172758 -0.1310208
-0.7641627 -1.1557633 0.70438135 0.06869071 -0.7405634 0.98789424 0.13923885 0.34738195
0.5511945 0.0692538 -0.14266534 -0.55737793 -0.52355134 0.18810311 1.046779 -0.90419
0.048910905 -0.85742545 -0.02692959 0.60359323 1.5635556 0.314218 -0.12322519 -0.67691547
-0.4319232 -1.562863 -0.50289726 -0.70682883 0.21979502 0.17384644 -0.9658984 -1.2471806
0.5205901 -0.35869634 -0.6004611 -0.0043163095 0.86554074 0.9098267 0.38162234 0.08291667
0.013199873 1.0015341 -0.5406411 -0.84617674 0.16068561 0.45487735 -1.6232868 -0.4813449
-0.62842107 -2.204302 0.15718852 -0.9823982 0.484699 -0.5337517 -0.20142475 -1.0673668
-0.015010396 -0.87637866 0.5585711 -1.0395099 -0.16365233 -0.936635 0.63309556 -0.04347082
0.06596193 0.7255466 -0.41780573 -0.7284821 0.96210736 -0.82015157 0.8818914 1.013228
-0.42677128 -0.34322622 -0.6861928 1.1742432 0.19665173 -0.80685323 -0.020978924 0.9754543
-0.07810988 0.6767146 0.028697712 -0.4492674 0.32947308 -0.30524135 -0.04061302 0.65096575
-0.08382919 0.17681871 0.9563524 0.5719839 -0.3587709 1.1590115 -0.72304434 -0.42649463
-0.27334836 -0.16153473 0.77799815 0.70212436 0.4659572 0.8385481 -0.24172285 -0.011753597
0.75516427 -0.6480704 1.0754179 -0.70314544 -0.19592784 -0.31382018 0.23604581 -0.48692742
-0.3055483 0.52221704 0.23206049 -0.3339671 -0.85490453 -0.6535932 1.1220028 -0.0062600537

lin.bias f4 [10]
00000000: bfc4 e53d 0fe4 053d 8452 a4bd eddc 093e
00000010: 5b7b a3bd b085 b8be 59f0 b7be 9fec 85be
00000020: 14d6 aebe 431b eebe
0.11219167 0.032688197 -0.08023551 0.13463183 -0.079825126 -0.36039495 -0.35925558 -0.2615709
-0.34147704 -0.46505174
