NCC_Code/2022-08-14_13-22-55_model.pt (torch, 115275 bytes, 50 tensors)

conv1.weight f4 [8, 2, 5, 5]
0.13761546 -0.10429355 -0.032728158 0.058369897 -0.2971481 0.26042023 -0.29537806 -0.25964755
-0.024847079 -0.33519068 -0.15756367 0.023117853 -0.0010000301 -0.08525104 2.7363656e-05 -0.19667846
0.15730396 0.22464263 -0.039153934 -0.19363885 -0.11639402 0.21405277 -0.026794918 0.23637716
-0.0062237196 -0.12026374 -0.094607174 0.14385353 -0.5273754 0.076892234 -0.011596802 -0.15287897
-0.17303504 -0.41949582 -0.32614908 0.24369225 -0.12965178 -0.13978745 -0.32566664 -0.2699638
-0.15964057 0.12420496 -0.24083544 0.37761 0.14622252 0.22921072 -0.2754513 -0.19927861
0.03779134 0.44113898 0.04422071 -0.012572891 0.17952918 -0.19250697 -0.07357643 -0.17853117
0.052378975 0.41245636 -0.13512643 -0.12933111 0.63474536 0.6100812 0.04927462 0.07356049
0.20303208 0.03433291 0.05476398 -0.047969174 0.036369774 0.031422213 -0.29380563 -0.1408348
0.16462448 -0.22072877 0.09256588 -0.275365 -0.26166925 -0.39958882 -0.011354877 -0.0254268
0.14905494 -0.051097713 -0.3209884 0.22600597 0.115094356 0.4076451 0.53203535 0.023721086
0.041705918 -0.03915141 -0.09339764 0.0048987973 0.23679164 0.01158738 -0.08328094 0.11729571
-0.1751606 -0.38353458 0.08211622 -0.15753245 -0.12713629 -0.06811655 -0.0714326 -0.39560428
0.026825737 0.34469664 -0.1446424 -0.08446149 -0.15420353 0.061498906 -0.20577279 0.30924627
0.18049778 0.09359194 0.12190767 -0.056361794 -0.3491493 -0.33649504 -0.013248733 0.04457556
-0.07206075 -0.12382747 -0.34728733 -0.2755075 -0.060118426 0.14210196 -0.05227988 0.108164415
-0.21831782 -0.18810533 -0.36953846 0.33235177 0.15665817 0.2621562 -0.20586357 0.1595411
-0.05982142 0.29557377 0.08824458 0.027408281 -0.016709315 -0.22667561 -0.422412 -0.0415182
-0.394998 0.17461823 -0.26523116 -0.47087446 -0.24025513 -0.089155585 0.05776199 0.11285435
-0.05325457 0.19003916 -0.035040308 0.13090387 -0.068522945 -0.012903833 0.047079887 -0.04198498
0.17539425 0.11071326 -0.048911564 0.05153 -0.26955336 0.13376799 0.101010375 -0.13257474
0.35446167 0.14968096 0.31787136 0.36691537 0.25501823 0.42733797 0.43265903 -0.0006031252
-0.15193373 0.12067 -0.052944403 0.029740747 -0.11425441 0.16034986 0.13850398 0.14998248
0.20364228 -0.054063875 0.100359224 0.23828162 -0.15824015 0.063819215 -0.1152089 0.022184053
0.20086944 -0.17477731 0.037768222 0.28884363 0.7430887 0.7738343 0.5646246 -0.004947511
-0.07476764 -0.7028511 0.0074163256 0.15204147 -0.18197672 0.10525144 -0.0020992141 -0.29639298
-0.010504416 0.2828482 -0.08945872 -0.054280482 0.15222064 -0.123400845 0.08931936 0.03004965
0.02406273 -0.39787087 0.07190413 0.13575813 -0.39183933 0.20738412 -0.041994154 -0.22232203
-0.21163398 0.119008414 0.10111852 -0.28761038 0.32669827 0.097013615 -0.23971699 -0.16772796
0.31288505 -0.06350721 -0.030622574 -0.14502123 -0.116584875 -0.06903651 -0.22529724 0.19738208
-0.044895984 -0.12805411 0.14413989 -0.31824592 -0.32553807 0.3109524 -0.0154889515 -0.23982935
-0.30112115 -0.21379316 0.20212299 0.26678833 -0.12325952 0.036230333 -0.31990057 0.31568715
00000000: 11eb 0c3e db97 d5bd f60d 06bd 4615 6f3d
00000010: cc23 98be cd55 853e cb3b 97be 86f0 84be
00000020: 1a8c cbbc 1d9e abbe 5f58 21be a761 bd3c
00000030: 7113 83ba 1998 aebd 018b e537 1466 49be
00000040: 4a14 213e b808 663e e05f 20bd 4349 46be
00000050: fd5f eebd a630 5b3e 0481 dbbc db0c 723e
00000060: 58f0 cbbb d64c f6bd 68c1 c1bd 574e 133e
00000070: 1302 07bf ad79 9d3d 8300 3ebc 4e8c 1cbe
00000080: 1930 31be 28c8 d6be 03fd a6be 768a 793e
00000090: 70c3 04be 7124 0fbe c7bd a6be b238 8abe
000000a0: d178 23be 2c5f fe3d 919d 76be 1956 c13e
000000b0: 5bbb 153e 37b6 6a3e f407 8dbe b10f 4cbe
000000c0: 18cb 1a3d f8dc e13e c620 353d 87fe 4dbc
000000d0: 7fd6 373e 8c20 45be 3daf 96bd e0d0 36be
000000e0: 568b 563d 7b2d d33e 955e 0abe 606f 04be
000000f0: ac7e 223f 482e 1c3f 2fd4 493d e2a6 963d
00000100: a4e7 4f3e aaa0 0c3d 3250 603d 537b 44bd
00000110: 79f8 143d 94b4 003d b16d 96be ff36 10be
00000120: 5293 283e b906 62be 2e93 bd3d a4fc 8cbe
00000130: 83f9 85be e896 ccbe ce09 3abc dd4b d0bc
00000140: dca1 183e d64b 51bd 9758 a4be 1c6e 673e
00000150: 97b6 eb3d dcb6 d03e 7833 083f b952 c23c
00000160: d3d3 2a3d 3b5d 20bd 4347 bfbd 1786 a03b
00000170: 8279 723e ffd8 3d3c 338f aabd bc38 f03d
00000180: 4d5d 33be a55e c4be 8c2c a83d 3050 21be
00000190: 0430 02be b180 8bbd 414b 92bd a58c cabe
000001a0: a6c1 db3c 147c b03e 231d 14be 25fa acbd
000001b0: 88e7 1dbe 47e6 7b3d 1ab6 52be 8755 9e3e
000001c0: 69d4 383e 22ad bf3d baaa f93d a0db 66bd
000001d0: b2c3 b2be 1449 acbe 3711 59bc dd94 363d
000001e0: 9694 93bd 4299 fdbd a5cf b1be 520f 8dbe
000001f0: bd3e 76bd 2d83 113e 6d23 56bd 4e85 dd3d
00000200: b58e 5fbe af9e 40be 2534 bdbe 032a aa3e
00000210: 006b 203e 5639 863e e6cd 52be be5e 233e
00000220: 4e07 75bd 7255 973e 93b9 b43d 5587 e03c
00000230: f9e1 88bc a71d 68be 6346 d8be fd0e 2abd
00000240: 2e3d cabe 1fcf 323e 61cc 87be 7516 f1be
00000250: 7105 76be 3497 b6bd d697 6c3d 2e20 e73d
00000260: 7721 5abd a099 423e 6d86 0fbd aa0b 063e
00000270: c255 8cbd 996a 53bc d7d6 403d 71f8 2bbd
00000280: 8d9a 333e a2bd e23d 7e57 48bd 1f11 533d
00000290: e602 8abe 7afa 083e 87de ce3d acc1 07be
000002a0: 007c b53e f745 193e 09c0 a23e 55dc bb3e
000002b0: c091 823e 0bcc da3e 7c85 dd3e 0c1b 1eba
000002c0: 8494 1bbe d521 f73d 3bdc 58bd dea2 f33c
000002d0: 37fe e9bd c132 243e fdd3 0d3e 0295 193e
000002e0: 9a87 503e 1572 5dbd 2389 cd3d 1900 743e
000002f0: b509 22be a6b3 823d a5f2 ebbd 55bb b53c
00000300: b8b0 4d3e d3f8 32be dab2 1a3d 50e3 933e
00000310: 103b 3e3f 011a 463f 3d8b 103f bb1e a2bb
00000320: c71f 99bd 0dee 33bf a604 f33b c2b0 1b3e
00000330: 1b58 3abe 118e d73d f892 09bb d2c0 97be
00000340: b71a 2cbc 7bd1 903e 2236 b7bd 3655 5ebd
00000350: badf 1b3e 95b9 fcbd 12ed b63d af2a f63c
00000360: 341f c53c bbb5 cbbe 7942 933d 2e04 0b3e
00000370: 2a9f c8be 815c 543e 1002 2cbd 63a8 63be
00000380: 94b6 58be afba f33d 3a17 cf3d ab41 93be
00000390: ff44 a73e 13af c63d 5f78 75be e1c0 2bbe
000003a0: 7832 a03e 1110 82bd 31dc fabc 7280 14be
000003b0: 0dc4 eebd 0463 8dbd 52b4 66be 871e 4a3e
000003c0: dae4 37bd 9e20 03be 6899 133e 21f1 a2be
000003d0: edac a6be 2735 9f3e 5fc5 7dbc d395 75be
000003e0: 8d2c 9abe 98ec 5abe 54f9 4e3e 7b98 883e
000003f0: 7d6f fcbd 4266 143d 02ca a3be bfa1 a13e

conv1.bias f4 [8]
0.6497814 -1.084799 0.17529841 -0.22811598 0.35919225 -0.5876742 -0.29093888 -0.45843235
00000000: 1358 263f b2da 8abf 6d81 333e 3c97 69be
00000010: 0ce8 b73e d171 16bf f1f5 94be a5b7 eabe

bn1.weight f4 [8]
0.59077436 1.2116008 0.6639412 1.0595449 0.58357286 0.9816887 0.9954756 0.9800116
00000000: fd3c 173f bc15 9b3f 0df8 293f 2b9f 873f
00000010: 0865 153f f34f 7b3f 7dd7 7e3f 0ae2 7a3f

bn1.bias f4 [8]
-0.70894706 -0.2836854 0.108104244 -0.53397113 -0.13600695 -0.35039112 -0.12404289 -0.18599457
00000000: 8e7d 35bf 363f 91be c265 dd3d 55b2 08bf
00000010: 6845 0bbe 7766 b3be 330a febd 5c75 3ebe

bn1.running_mean f4 [8]
1.067121 0.11483675 0.8793209 1.1037682 0.8892059 0.1680071 0.27413025 0.38202348
00000000: 6c97 883f 882f eb3d 2d1b 613f 4748 8d3f
00000010: ffa2 633f 0e0a 2c3e cd5a 8c3e 9598 c33e

bn1.running_var f4 [8]
1.4036041 0.40217504 1.4661987 5.477844 1.2174054 0.27794555 0.7460156 0.5177886
00000000: 4da9 b33f e3e9 cd3e 66ac bb3f 804a af40
00000010: f1d3 9b3f e14e 8e3e e1fa 3e3f cb8d 043f

conv2.weight f4 [16, 8, 3, 3]
-0.026381182 0.00733396 0.17662238 -0.11440146 0.1711573 0.43173394 0.324791 0.033772156
-0.36533827 0.077366 0.33162984 0.43988195 -0.22967161 -0.30126718 -0.18333007 -0.5074673
-0.3148844 -0.11011205 0.055533025 -0.1300501 -0.089317925 -0.06656425 0.112427436 0.15825558
-0.17764215 -0.038730115 -0.18858801 -0.11455968 -0.18327792 0.04293167 -0.034714125 -0.08637162
0.09677342 -0.1020887 -0.119014494 -0.055203572 0.03662377 0.008960679 -0.056366436 -0.058170985
-0.014955554 0.22786732 -0.14747387 -0.023284202 -0.05298353 -0.051527567 -0.25803557 -0.3861355
0.40402743 0.3173461 0.2957874 -0.028253416 -0.08638767 -0.14461525 0.37432128 0.28973943
0.33703297 -0.18128778 0.043962665 0.23833607 0.026529975 0.20667632 0.3257367 -0.06691044
0.21352527 0.054946546 0.10360364 0.019412367 -0.0010431876 0.017314056 -0.00868724 0.027632875
-0.2896731 0.13108048 -0.017727489 0.23601037 -0.06737674 0.052007556 -0.11281529 -0.24745977
-0.06745215 -0.061787374 -0.3312451 -0.3116601 -0.4170851 -0.22536325 -0.13414852 -0.38184026
-0.032020196 -0.02774366 0.114030235 -0.08018323 0.2934022 -0.13387057 -0.039337236 -0.030779485
0.0060415803 0.15076505 -0.1656691 -0.15024096 -0.28104112 -0.3334834 -0.23995401 -0.09363677
-0.102423936 -0.38372415 -0.12157423 -0.2662314 -0.0726076 -0.17153406 0.037495755 0.16172794
0.09953524 -0.014472304 -0.084923536 -0.15135534 0.006708862 -0.24424198 -0.43752366 -0.5266121
-0.20443107 -0.46200588 -0.45871264 -0.46054667 -0.17925012 -0.30520144 0.0034754414 -0.055081643
-0.18913709 -0.12364908 -0.2518058 0.049477402 -0.17930143 -0.107977405 -0.16096215 -0.28654203
-0.014188688 -0.17062001 0.1263764 -0.13116728 -0.08362728 -0.12565653 -0.14972554 -0.017805248
-0.27923748 0.24350813 0.20196038 0.15171377 0.3036702 0.14741908 0.05324787 -0.11127416
-0.011394187 -0.18527237 -0.18530335 -0.08495756 0.27160808 0.20918949 0.12671609 0.20234117
0.4021159 0.36575243 0.028369537 0.17099735 0.24364252 0.03437939 0.054148328 -0.030710736
-0.22051917 -0.09684068 0.07351842 0.031636376 0.17142314 -0.29851514 0.2272117 0.15313062
0.24978302 0.18138345 0.20988205 -0.3066289 0.05115688 0.0870823 -0.16088128 -0.18837647
-0.20035775 0.012620332 -0.15733114 0.12563494 -0.20211813 0.011713166 -0.32537416 -0.25691053
0.081089474 0.069388434 0.122304976 -0.20262456 -0.12399462 -0.19969302 0.06483094 0.21586831
-0.15362656 0.2916148 0.20116468 0.30283108 0.26771578 0.3268911 0.28440142 -0.001347059
0.09909006 -0.005305255 0.15158279 0.23042943 0.16153876 0.022434246 0.13684218 0.050467342
0.2600571 0.05288153 -0.20249622 -0.0002263605 0.028393526 0.11499401 0.02912364 0.11849527
-0.021143058 -0.28771582 -0.39147794 -0.13090996 0.28901786 0.46778196 0.2581546 -0.047580894
-0.19554442 -0.22307627 -0.07632907 0.11438512 0.17417938 0.012189355 -0.03976148 0.29673508
0.15056235 -0.074012786 0.033963554 0.020059053 0.40628013 -0.07880891 -0.09649537 0.19975823
0.32625705 0.31638792 0.299111 -0.16602622 0.1034975 0.2697659 -0.03443234 0.21090886
00000000: 591d d8bc b751 f03b 7fdc 343e 504b eabd
00000010: dc43 2f3e 3b0c dd3e 024b a63e ac54 0a3d
00000020: 9e0d bbbe 1172 9e3d 63cb a93e 3538 e13e
00000030: 092f 6bbe b13f 9abe e1ba 3bbe 61e9 01bf
00000040: 8738 a1be 6d82 e1bd 9976 633d da2b 05be
00000050: 51ec b6bd d652 88bd 5b40 e63d c00d 223e
00000060: d3e7 35be 78a3 1ebd 371d 41be 449e eabd
00000070: 35ad 3bbe 1ed9 2f3d 6630 0ebd 9be3 b0bd
00000080: 2531 c63d e113 d1bd dfbd f3bd 241d 62bd
00000090: ce02 163d d0cf 123c 7ee0 66bd b344 6ebd
000000a0: 2408 75bc 0d56 693e 6403 17be 83be bebc
000000b0: 4205 59bd 920e 53bd 3d1d 84be 8db3 c5be
000000c0: afdc ce3e 307b a23e 7271 973e b573 e7bc
000000d0: 05ec b0bd 0516 14be 0aa7 bf3e ba58 943e
000000e0: 968f ac3e 81a3 39be 3212 343d 5f0e 743e
000000f0: 6455 d93c f5a2 533e f6c6 a63e 5708 89bd
00000100: 5ea6 5a3e a10f 613d 252e d43d af06 9f3c
00000110: 91bb 88ba 35d6 8d3c ed54 0ebc 575e e23c
00000120: 0850 94be f639 063e 3d39 91bc b4ac 713e
00000130: d1fc 89bd e005 553d b40b e7bd 1866 7dbe
00000140: 5a24 8abd c214 7dbd f598 a9be ea91 9fbe
00000150: 2e8c d5be a0c5 66be 3b5e 09be 9180 c3be
00000160: 9c27 03bd ac46 e3bc af88 e93d 1b37 a4bd
00000170: d038 963e 5e15 09be 1520 21bd 4225 fcbc
00000180: 73f8 c53b 2762 1a3e 29a5 29be c4d8 19be
00000190: 9fe4 8fbe 56be aabe 81b6 75be a3c4 bfbd
000001a0: a4c3 d1bd 7e77 c4be e9fb f8bd 7b4f 88be
000001b0: 4bb3 94bd a0a6 2fbe 2695 193d 029c 253e
000001c0: 22d9 cb3d 3e1d 6dbc 64ec adbd e5fc 1abe
000001d0: 03d6 db3b 921a 7abe 1a03 e0be 0dd0 06bf
000001e0: 6156 51be 098c ecbe 62dc eabe c6cc ebbe
000001f0: 588d 37be 5d43 9cbe 3bc4 633b 4a9d 61bd
00000200: 27ad 41be bb3b fdbd b1ec 80be d1a8 4a3d
00000210: cb9a 37be 4223 ddbd 43d3 24be a3b5 92be
00000220: ac77 68bc 03b7 2ebe d168 013e b750 06be
00000230: c844 abbd 1bac 00be a751 19be 50dc 91bc
00000240: 37f8 8ebe 325a 793e b4ce 4e3e db5a 1b3e
00000250: a97a 9b3e 07f5 163e 701a 5a3d b5e3 e3bd
00000260: afae 3abc 0ab8 3dbe 29c0 3dbe 3bfe adbd
00000270: 3710 8b3e c535 563e ddc1 013e 8632 4f3e
00000280: 23e2 cd3e e743 bb3e 3b67 e83c ee19 2f3e
00000290: 6d7d 793e 67d1 0c3d a3ca 5d3d 1595 fbbc
000002a0: c7cf 61be 6854 c6bd d390 963d 2595 013d
000002b0: 8c89 2f3e fad6 98be 2faa 683e 46ce 1c3e
000002c0: 1fc7 7f3e 95bc 393e 52eb 563e 77fe 9cbe
000002d0: e089 513d 3458 b23d 10be 24be c3e5 40be
000002e0: 952a 4dbe 82c5 4e3c 6a1b 21be 72a6 003e
000002f0: 0ef8 4ebe 94e8 3f3c 7197 a6be c789 83be
00000300: 3d12 a63d 861b 8e3d 087b fa3d d07c 4fbe
00000310: e4f0 fdbd 547c 4cbe 15c6 843d 950c 5d3e
00000320: 4850 1dbe 894e 953e 1dfe 4d3e ad0c 9b3e
00000330: 0b12 893e 455e a73e 109d 913e cd8f b0ba
00000340: bbef ca3d b4d7 adbb 8538 1b3e b1f5 6b3e
00000350: 6b6a 253e 06c8 b73c 5b20 0c3e d8b6 4e3d
00000360: 3426 853e 4e9a 583d 2b5b 4fbe 2f5b 6db9
00000370: 8a99 e83c fb81 eb3d b394 ee3c a6ad f23d
00000380: 3534 adbc 7d4f 93be cc6f c8be 430d 06be
00000390: 26fa 933e 1e81 ef3e d72c 843e 2fe4 42bd
000003a0: cc3c 48be 1b6e 64be 6a52 9cbd bf42 ea3d
000003b0: 145c 323e dcb5 473c efdc 22bd a9ed 973e
000003c0: 042d 1a3e 0494 97bd 5e1d 0b3d e252 a43c
000003d0: f303 d03e 9166 a1bd 5d9f c5bd 6c8d 4c3e
000003e0: 2a0b a73e 99fd a13e 1425 993e c702 2abe
000003f0: 7ff6 d33d c21e 8a3e ed08 0dbd 7ef8 573e

conv2.bias f4 [16]
-0.1361186 0.1532569 -0.32592937 -0.36375874 -0.21096313 -0.21473926 -0.2820283 -0.32033184
-0.0061002886 -0.6927088 0.055377115 -0.25797972 -0.07045383 -0.24177594 -0.09917397 -0.016249085
00000000: ad62 0bbe 60ef 1c3e 37e0 a6be 963e babe
00000010: b806 58be 9ce4 5bbe 0366 90be 8902 a4be
00000020: eee4 c7bb 5d55 31bf 1dd3 623d eb15 84be
00000030: 194a 90bd 1d94 77be b91b cbbd cd1c 85bc

bn2.weight f4 [16]
0.72837603 0.86072206 0.9873579 1.1767957 0.93707174 0.97716624 0.99567676 1.1314096
0.73653394 1.1460965 0.48311335 0.9366519 1.2596349 1.0113722 0.98653173 0.94751
00000000: da76 3a3f 4858 5c3f 7dc3 7c3f 3ea1 963f
00000010: efe3 6f3f 9127 7a3f ace4 7e3f 08d2 903f
00000020: 7d8d 3c3f 4ab3 923f a25a f73e 6bc8 6f3f
00000030: b73b a13f a574 813f 588d 7c3f 0490 723f

bn2.bias f4 [16]
-0.109145425 0.1582264 -0.20727822 -0.02754788 -0.34197217 -0.010589709 -0.615866 0.53763497
0.15472162 0.19775684 -0.3580774 -0.12876981 -0.19984813 -0.11650299 -0.47041053 0.19392733
00000000: a387 dfbd 1a06 223e be40 54be 17ac e1bc
00000010: fa16 afbe 7580 2dbc 65a9 1dbf 72a2 093f
00000020: 586f 1e3e c580 4a3e ec55 b7be 3cdc 03be
00000030: fda4 4cbe 1f99 eebd a6d9 f0be e394 463e

bn2.running_mean f4 [16]
0.20939805 4.2980194 0.22680639 0.34125203 0.21987453 0.18964733 0.29568812 0.1548227
0.3644646 0.06635627 0.42962933 0.3711586 0.94219863 0.37281096 0.39531732 0.66538984
00000000: 716c 563e 6089 8940 ef3f 683e 96b8 ae3e
00000010: ca26 613e e932 423e 6f64 973e d889 1e3e
00000020: 1b9b ba3e cce5 873d 60f8 db3e 8008 be3e
00000030: ee33 713f 14e1 be3e 0867 ca3e fd56 2a3f

bn2.running_var f4 [16]
0.23866124 3.391282 2.976072 4.130575 0.5286984 1.3710117 1.4833169 1.1088415
5.029465 0.30642867 0.5694621 3.8478236 4.880907 3.4402335 3.917245 6.8940086
00000000: 9d63 743e c40a 5940 f777 3e40 ac2d 8440
00000010: c758 073f 507d af3f 54dd bd3f 85ee 8d3f
00000020: 61f1 a040 38e4 9c3e 45c8 113f be42 7640
00000030: 6430 9c40 c92c 5c40 24b4 7a40 b89b dc40

conv3.weight f4 [32, 16, 3, 3]
-0.118802615 -0.16312158 -0.063379385 -0.040963054 -0.07145711 0.035604514 0.11764371 -0.03024689
0.0060214964 -0.020931121 -0.20013945 0.13714373 0.04302124 0.12007729 0.06743981 -0.13033563
0.061500676 0.036968946 0.04225135 -0.23868144 -0.027109344 0.118180886 -0.08270031 0.008221567
0.27470592 0.20860767 0.03183357 0.099675454 -0.14971282 -0.0847567 -0.05541163 -0.054732252
0.1057228 0.01021635 -0.02971456 -0.08835327 -0.06588148 -0.056431368 -0.36086044 0.08737405
0.06704125 -0.14056598 -0.009020939 0.3201844 0.27897033 -0.05942312 0.026399305 -0.035271816
0.20708555 -0.004853116 0.33307642 -0.019440185 0.00041337436 0.1653142 -0.11652182 -0.39845318
0.013196456 -0.06859409 -0.4557367 -0.042081043 -0.062419865 -0.026275579 0.11165321 -0.022887027
0.22415498 0.36345562 -0.18825898 0.05558529 -0.047718376 0.13088521 -0.2576145 0.07677195
-0.4524401 -0.6783773 -0.39520383 -0.23367907 -0.17485583 -0.09036409 -0.105398625 -0.03504457
-0.11235036 0.105437234 0.1393747 0.047022026 0.12264062 -0.04209556 0.20184183 -0.08441131
-0.3498674 -0.06899219 -0.14801127 0.02110389 0.0865755 0.034946878 0.05953152 0.070864595
-0.050662756 -0.14432387 -0.078780234 -0.22206153 -0.28346053 0.0962056 -0.3374626 -0.1940186
-0.009432963 -0.323753 -0.042340767 -0.13601841 0.08682476 -0.2185639 -0.14107437 -0.17464076
0.12853734 0.04866485 0.09978328 -0.023667214 -0.03615044 -0.3673555 0.0672496 0.2595377
-0.32283667 -0.40331313 -0.216414 0.008181496 -0.045965686 -0.013005198 -0.07609291 0.00041828727
0.032969907 -0.028253477 0.10995397 0.123970315 -0.12230067 -0.109095745 0.015190799 -0.20121616
-0.10087182 0.224649 -0.35162425 -0.32684338 -0.25992206 0.12364197 -0.3166049 0.06461799
-0.11419989 -0.047333922 -0.067728795 -0.030292569 -0.09434581 0.03294051 -0.110590555 -0.15639044
-0.2984796 0.053960532 0.12941709 -0.10879554 -0.16751488 -0.14282304 -0.25749916 0.19194221
0.13968974 0.16409862 -0.016511528 0.09892065 -0.021111375 -0.042156976 0.13950361 -0.25043586
0.10225892 -0.07883976 0.26528522 0.041130766 -0.033218067 -0.10427982 0.06985548 0.2383515
0.43645492 0.15337567 0.10606399 -0.16590269 -0.20694561 -0.0083121685 0.042303212 0.0044360165
0.01102896 -0.12854701 -0.12223657 0.06213698 -0.017112408 -0.03742803 0.09339388 -0.051591367
-0.05581509 -0.061372813 -0.116193496 0.08994897 0.06637028 -0.1602751 0.016700277 -0.028164314
0.091884844 -0.03186189 -0.009998921 0.22034389 -0.018971363 -0.17399754 -0.21702865 0.2777493
-0.014117399 0.032354724 0.18193118 0.17936571 -0.121693365 -0.06688613 -0.011804225 0.16741508
-0.28492403 -0.43538556 -0.17772947 -0.3454906 -0.42763573 -0.08441442 -0.3464299 -0.25758052
-0.20264384 0.05045447 -0.14508153 -0.18371469 0.12760115 0.13649052 0.20580326 -0.18519482
0.11030129 0.034030817 0.1232199 -0.11293205 -0.0014856127 0.0967764 0.033281233 -0.043349355
-0.025706084 -0.11923662 -0.10453418 -0.1681666 -0.10319016 -0.040865827 -0.18495466 0.16161136
-0.16068813 -0.30745187 -0.20791198 -0.39337635 0.17383634 0.12792182 0.32496467 0.35313734
00000000: c94e f3bd 5809 27be 0dcd 81bd e0c8 27bd
00000010: 1b58 92bd 0ad6 113d 2fef f03d 53c8 f7bc
00000020: f94f c53b be77 abbc 5bf1 4cbe 686f 0c3e
00000030: 0a37 303d 15eb f53d e21d 8a3d b476 05be
00000040: 22e8 7b3d c06c 173d c00f 2d3d e868 74be
00000050: 6a14 debc d208 f23d c85e a9bd c0b3 063c
00000060: 41a6 8c3e 409d 553e eb63 023d a522 cc3d
00000070: 514e 19be ec94 adbd 4ef7 62bd ed2e 60bd
00000080: 3285 d83d 7a62 273c f36b f3bc 8ff2 b4bd
00000090: dfec 86bd 9424 67bd b3c2 b8be 2af1 b23d
000000a0: ec4c 893d 87f0 0fbe 8fcc 13bc 36ef a33e
000000b0: 33d5 8e3e a865 73bd 5b43 d83c 2e79 10bd
000000c0: 3c0e 543e e306 9fbb fe88 aa3e 0641 9fbc
000000d0: 2bba d839 2048 293e fea2 eebd 0e02 ccbe
000000e0: f335 583c 0f7b 8cbd 5256 e9be 2c5d 2cbd
000000f0: f9ab 7fbd e23f d7bc 70aa e43d 937d bbbc
00000100: e288 653e db16 ba3e f6c6 40be 67ad 633d
00000110: 5874 43bd c606 063e 0ce6 83be 9d3a 9d3d
00000120: 3ba6 e7be 22aa 2dbf 2858 cabe 9149 6fbe
00000130: 680d 33be cf10 b9bd 3cdb d7bd e58a 0fbd
00000140: f217 e6bd 7aef d73d 3eb8 0e3e 2b9a 403d
00000150: 012b fb3d 656c 2cbd a0af 4e3e d6df acbd
00000160: d221 b3be c74b 8dbd 4490 17be 11e2 ac3c
00000170: 7f4e b13d 7524 0f3d 53d7 733d 7521 913d
00000180: c083 4fbd a3c9 13be 8857 a1bd 1964 63be
00000190: bd21 91be 7107 c53d e6c7 acbe d0ac 46be
000001a0: b78c 1abc f4c2 a5be 836d 2dbd 6948 0bbe
000001b0: 2ed1 b13d 37cf 5fbe cd75 10be 07d5 32be
000001c0: 4b9f 033e cb54 473d 2d5b cc3d bfe1 c1bc
000001d0: 7c12 14bd 0516 bcbe 29ba 893d 20e2 843e
000001e0: d94a a5be 0f7f cebe a29b 5dbe ae0b 063c
000001f0: 8446 3cbd c113 55bc 99d6 9bbd 914d db39
00000200: 740b 073d d673 e7bc 8c2f e13d 26e4 fd3d
00000210: c678 fabd 976d dfbd d4e2 783c 9c0b 4ebe
00000220: e295 cebd 630a 663e 1808 b4be 0458 a7be
00000230: 8114 85be 0038 fd3d 0a1a a2be 7056 843d
00000240: a2e1 e9bd 37e1 41bd 65b5 8abd 1f28 f8bc
00000250: 6038 c1bd a1ec 063d 4d7d e2bd d124 20be
00000260: 51d2 98be b805 5d3d ea85 043e 32d0 debd
00000270: 0589 2bbe 3440 12be eed6 83be 808c 443e
00000280: d40a 0f3e 7809 283e 2f43 87bc e996 ca3d
00000290: c3f1 acbc cbac 2cbd 09da 0e3e 2139 80be
000002a0: 206d d13d bd76 a1bd 77d3 873e bc78 283d
000002b0: ab0f 08bd a990 d5bd 6410 8f3d 6a12 743e
000002c0: 0577 df3e 830e 1d3e 1438 d93d 65e2 29be
000002d0: 8de9 53be c32f 08bc 2246 2d3d 015c 913b
000002e0: d0b2 343c d4a1 03be 2b57 fabd 5983 7e3d
000002f0: 522f 8cbc 224e 19bd 4a45 bf3d 7851 53bd
00000300: 5d9e 64bd 0f62 7bbd dbf6 edbd 2a37 b83d
00000310: 24ed 873d 281f 24be 05cf 883c d9b8 e6bc
00000320: 1f2e bc3d 9d81 02bd 84d2 23bc d4a1 613e
00000330: d569 9bbc 692c 32be c23c 5ebe 2835 8e3e
00000340: aa4c 67bc 6386 043d 2b4c 3a3e a5ab 373e
00000350: 5f3a f9bd 98fb 88bd 8266 41bc dc6e 2b3e
00000360: 90e1 91be dbea debe b7fe 35be 25e4 b0be
00000370: 12f3 dabe 78e1 acbd 435f b1be 98e1 83be
00000380: de81 4fbe 59a9 4e3d 4190 14be b41f 3cbe
00000390: e0a9 023e 2cc4 0b3e 17be 523e b6a3 3dbe
000003a0: a5e5 e13d e663 0b3d b75a fc3d eb48 e7bd
000003b0: e4b8 c2ba b532 c63d e751 083d 188f 31bd
000003c0: 9195 d2bc 5432 f4bd 0416 d6bd dd33 2cbe
000003d0: 5d55 d3bd ed62 27bd c164 3dbe 737d 253e
000003e0: 6e8b 24be 556a 9dbe e1e6 54be a068 c9be
000003f0: 2702 323e f0fd 023e c561 a63e 6bce b43e

conv3.bias f4 [32]
0.051297314 -0.032266285 -0.03956675 -0.109040864 -0.36651057 -0.09076574 -0.38752657 -0.045515765
-0.286386 -0.17584617 -0.045647364 -0.33523872 -0.19432822 -0.06655509 0.03807905 -0.18753634
-0.24454227 -0.1314185 -0.044958282 -0.1586211 -0.25263968 -0.13506003 -0.23812567 -0.013817155
-0.016227735 0.049089983 -0.1409768 -0.20254147 -0.35265136 -0.034016177 -0.4787504 -0.44711253
00000000: 221d 523d a729 04bd bf10 22bd d150 dfbd
00000010: 46a7 bbbe 63e3 b9bd e269 c6be bd6e 3abd
00000020: 30a1 92be 0511 34be bbf8 3abd 69a4 abbe
00000030: fafd 46be 094e 88bd c7f8 1b3d 8709 40be
00000040: 4a69 7abe 9292 06be 2d26 38bd 926d 22be
00000050: fd59 81be 2d4d 0abe 37d7 73be 5961 62bc
00000060: 07f0 84bc 9412 493d 395c 10be 0867 4fbe
00000070: b88e b4be 8c54 0bbd c61e f5be efeb e4be

bn3.weight f4 [32]
0.78207195 0.60761493 0.75308275 0.91228384 1.0496902 0.72424096 1.1715845 0.89186174
1.0048411 1.0854125 0.9006853 0.9106619 1.0373337 0.7166739 0.87824875 0.7933643
0.9185228 1.0240185 0.79305404 0.7973575 0.9757113 1.0010607 1.1995167 0.87299794
1.1363858 0.81737727 1.054261 0.9524373 1.0919355 1.0910473 1.0585644 1.1737263
00000000: de35 483f a78c 1b3f 08ca 403f 6f8b 693f
00000010: 405c 863f db67 393f 7bf6 953f 0d51 643f
00000020: a29e 803f ccee 8a3f 5093 663f 2321 693f
00000030: 5ac7 843f f177 373f e9d4 603f ec19 4b3f
00000040: 4f24 6b3f 0a13 833f 9705 4b3f 9f1f 4c3f
00000050: 37c8 793f c222 803f c389 993f cb7c 5f3f
00000060: 1775 913f a33f 513f 06f2 863f eed2 733f
00000070: 8bc4 8b3f 70a7 8b3f 0a7f 873f aa3c 963f

bn3.bias f4 [32]
0.21617755 0.25037768 0.2333533 0.44020435 0.008116834 0.052439895 0.13866864 -0.23956026
-0.1308164 -0.22151375 -0.19989932 0.30832782 -0.37447762 0.38389745 -0.5285363 -0.023613775
0.06107371 -0.24023148 0.60257137 0.23513776 -0.16372052 -0.013122108 0.2904051 -0.35237324
0.53601104 0.2830138 0.040187743 -0.08008713 0.5595584 -0.21618833 0.1752812 0.4851339
00000000: a65d 5d3e 8131 803e 2bf4 6e3e 7762 e13e
00000010: 78fc 043c 37cb 563d 27ff 0d3e 494f 75be
00000020: bcf4 05be 80d4 62be 68b2 4cbe 25dd 9d3e
00000030: 88bb bfbe 358e c43e 284e 07bf ad71 c1bc
00000040: 6d28 7a3d 3eff 75be 1e42 1a3f f4c7 703e
00000050: 5aa6 27be 1cfe 56bc faaf 943e 446a b4be
00000060: 0538 093f 2fe7 903e e79b 243d b904 a4bd
00000070: 383f 0f3f 7960 5dbe ea7c 333e 7863 f83e

bn3.running_mean f4 [32]
1.5942742 0.4173976 0.2998874 0.0782417 0.17430134 1.1364993 0.09721855 0.38920152
0.17773113 0.06579797 0.28406942 0.014695496 0.067082815 0.42363092 2.1076322 0.9322213
0.17049281 0.25990736 1.0624889 0.064709 0.05482903 0.0616758 0.084974006 0.26738206
0.27985424 1.0497862 0.44356462 0.04428788 0.03698195 0.1999715 0.16061121 0.031461254
00000000: 2d11 cc3f 23b5 d53e d78a 993e 2f3d a03d
00000010: 0d7c 323e cf78 913f 851a c73d 6c45 c73e
00000020: 26ff 353e 16c1 863d 8c71 913e 61c5 703c
00000030: b762 893d 27e6 d83e 72e3 0640 0ea6 6e3f
00000040: ab95 2e3e 9412 853e a3ff 873f 2786 843d
00000050: 6894 603d c39f 7c3d da06 ae3d 4de6 883e
00000060: 0e49 8f3e 655f 863f e71a e33e 3567 353d
00000070: 637a 173d 54c5 4c3e 4477 243e 84dd 003d

bn3.running_var f4 [32]
0.45879263 0.18714283 0.21301924 0.2969444 0.99195284 0.36615077 0.5729466 2.0653765
1.2865833 0.25254676 0.808389 0.045817036 0.25307065 0.32207248 0.94284904 0.26902673
0.96054924 1.0289694 0.42549768 0.073608994 0.20834623 0.18468112 0.58910644 0.21312523
1.1340703 0.35083643 3.501681 0.13118124 0.17908406 0.674316 0.93144596 0.17133114
00000000: dee6 ea3e 5fa2 3f3e b721 5a3e 1909 983e
00000010: 9ff0 7d3f 1d78 bb3e a1ac 123f 212f 0440
00000020: c3ae a43f cf4d 813e 95f2 4e3f a5aa 3b3d
00000030: 7a92 813e afe6 a43e 8e5e 713f dfbd 893e
00000040: 8ee6 753f 45b5 833f d5da d93e 50c0 963d
00000050: b758 553e 0c1d 3d3e aecf 163f 803d 5a3e
00000060: 3729 913f d5a0 b33e 8b1b 6040 6054 063e
00000070: d061 373e f99f 2c3f 3e73 6e3f 6e71 2f3e

conv4.weight f4 [64, 32, 3, 3]
-0.12686206 -0.27262473 -0.09023349 0.21379398 0.05104556 0.053788744 -0.07174444 0.04997178
-0.040170092 -0.2008314 -0.01173218 -0.09451515 0.04832039 0.11179959 0.31852525 -0.079477146
-0.10595025 0.09480486 -0.04256733 -0.035345476 -0.079967916 -0.22305419 -0.09107187 0.1612666
0.059996292 0.058912896 0.13315901 0.0151584605 0.05948655 -0.024209363 -0.17448768 0.029562429
-0.023366006 0.17759995 0.10451158 0.093943454 0.04846993 0.15339452 0.11364445 -0.28627348
-0.07201682 0.10230653 -0.029883381 0.0691565 0.1349675 -0.17567149 -0.18341675 0.0766726
-0.026342805 0.085181914 0.25541118 -0.18654552 -0.05891029 -0.06263504 -0.021482045 0.030098855
-0.07552716 0.045689162 0.09434628 0.25857306 0.26963574 -0.052604564 -0.083966896 -0.2311288
0.005375975 0.0883258 -0.28707072 -0.1234544 -0.12094347 0.027041204 -0.04550875 0.07786892
0.030094981 0.086202994 0.0017357846 0.19422469 -0.09060173 -0.14224125 -0.03946078 -0.06959056
-0.06777343 -0.23434718 0.17302261 0.07935257 0.14283615 0.082598634 0.008759318 -0.18626228
0.17929995 0.11300551 -0.07009349 0.04385124 -0.09115405 -0.28356072 -0.09517602 0.08497155
0.014932507 0.059587456 -0.07687738 0.06993554 -0.016211309 -0.058363512 0.24906543 0.18664342
-0.0020904646 0.11441487 -0.20597738 -0.33146763 -0.0079260925 -0.06835527 0.11180443 0.22024475
0.14929771 0.09086596 0.13662884 -0.10689105 -0.20232332 -0.053870372 0.0750888 -0.10733105
0.2568437 0.04953241 -0.05928891 -0.020018855 -0.13080066 -0.0017452624 -0.037243016 0.09074387
0.04486516 0.08573728 0.275217 0.18071091 -0.000105408166 0.099581525 0.18046406 0.10864296
0.047730178 -0.009624158 -0.10039716 -0.06388025 -0.38357982 -0.19246754 -0.17758515 -0.06730356
-0.08671725 0.10236409 0.01174009 -0.23432633 0.0008575492 0.07366141 -0.45814452 -0.22601956
-0.4893291 0.21483257 0.21878019 0.18855573 -0.09586702 -0.14138111 0.08872957 -0.07058522
-0.09387767 -0.013892199 -0.0351193 -0.12904002 0.2426908 -0.13967514 0.05907789 -0.14884661
-0.06926548 0.012314167 0.19126678 0.011425576 -0.26019248 -0.22779056 -0.09087337 -0.20351961
-0.28424603 -0.09366517 -0.10877717 -0.18813448 0.0176109 -0.2556072 -0.1703081 0.030798733
0.017336847 -0.08647841 0.0611581 0.203845 0.01008291 -0.18316121 0.026252745 0.063704886
-0.09434273 -0.061518785 -0.12743576 -0.14976527 -0.20189558 -0.091631174 0.062352255 0.039032824
0.062428325 0.107830316 -0.11471906 -0.0811521 -0.11735876 -0.29753622 -0.22831483 0.09456162
0.15821798 -0.1311767 -0.1751633 -0.068303 -0.045327418 0.20438531 0.16838717 0.05680253
-0.022004567 -0.15141973 0.031655446 -0.11215426 -0.18396297 0.15280618 -0.052263103 -0.2674502
-0.16151491 -0.0038871465 -0.05520497 -0.05753804 0.14414908 0.05448352 0.07073633 -0.059401922
-0.004067751 -0.063508175 -0.11201017 0.013947432 0.119870216 0.021134075 -0.0064762253 0.017478095
-0.060543343 -0.116973214 -0.011125082 -0.08024957 -0.2343791 -0.011919792 -0.11700328 -0.15147804
-0.22103697 -0.101469316 5.6726003e-05 -0.038895264 -0.18672079 -0.07756143 -0.2913557 0.16305736
00000000: 21e8 01be 7895 8bbe 56cc b8bd cfec 5a3e
00000010: 2615 513d 9651 5c3d c0ee 92bd 36af 4c3d
00000020: 6589 24bd bfa6 4dbe 5438 40bc 2991 c1bd
00000030: 9aeb 453d 2ff7 e43d be15 a33e eac4 a2bd
00000040: 72fc d8bd 0d29 c23d 155b 2ebd 6bc6 10bd
00000050: 38c6 a3bd 5168 64be e383 babd 1223 253e
00000060: acbe 753d a64e 713d d65a 083e 315b 783c
00000070: 2ba8 733d b752 c6bc e6ac 32be e82c f23c
00000080: 116a bfbc c3dc 353e 2b0a d63d 6d65 c03d
00000090: 6888 463d 7413 1d3e 6cbe e83d 7092 92be
000000a0: 8e7d 93bd 1686 d13d fecd f4bc eca1 8d3d
000000b0: ec34 0a3e 3ae3 33be 9ad1 3bbe 8606 9d3d
000000c0: decc d7bc db73 ae3d 41c5 823e ca05 3fbe
000000d0: eb4b 71bd cd46 80bd 1dfb afbc e091 f63c
000000e0: fcad 9abd 8f24 3b3d 9f38 c13d b063 843e
000000f0: b20d 8a3e e277 57bd d6f6 abbd 07ad 6cbe
00000100: f228 b03b 28e4 b43d effa 92be a9d5 fcbd
00000110: 36b1 f7bd 8485 dd3c 6267 3abd be79 9f3d
00000120: c089 f63c 328b b03d 4483 e33a d6e2 463e
00000130: 668d b9bd b1a7 11be a0a1 21bd 7f85 8ebd
00000140: cccc 8abd b5f8 6fbe d72c 313e 9a83 a23d
00000150: a443 123e 7929 a93d 3e83 0f3c 8abb 3ebe
00000160: 689a 373e 6f6f e73d 2d8d 8fbd 5c9d 333d
00000170: f9ae babd df2e 91be a5eb c2bd 9005 ae3d
00000180: 79a7 743c fa11 743d e371 9dbd 5d3a 8f3d
00000190: 94cd 84bc 940e 6fbd 020b 7f3e 741f 3f3e
000001a0: 2d00 09bb 5852 ea3d bceb 52be 20b6 a9be
000001b0: 71dc 01bc d9fd 8bbd b9f9 e43d d787 613e
000001c0: 80e1 183e ef17 ba3d 6ee8 0b3e b2e9 dabd
000001d0: d82d 4fbe 2ea7 5cbd 28c8 993d 62d0 dbbd
000001e0: 0481 833e 7fe2 4a3d eed8 72bd 95fe a3bc
000001f0: 9cf0 05be 4ac1 e4ba 228c 18bd ecd7 b93d
00000200: 88c4 373d 0797 af3d 3ee9 8c3e 480c 393e
00000210: 940e ddb8 66f1 cb3d 92cb 383e 3380 de3d
00000220: b880 433d a5ae 1dbc 079d cdbd a6d3 82bd
00000230: 9364 c4be 3616 45be e2d8 35be 73d6 89bd
00000240: d098 b1bd 44a4 d13d 8259 403c 3ef3 6fbe
00000250: 27cd 603a cbdb 963d eb91 eabe ac71 67be
00000260: 5889 fabe 12fd 5b3e ea07 603e c114 413e
00000270: ee55 c4bd 36c6 10be d9b7 b53d fc8e 90bd
00000280: f042 c0bd 1b9c 63bc 41d9 0fbd 1123 04be
00000290: f083 783e 0007 0fbe a8fb 713d 3f6b 18be
000002a0: 0fdb 8dbd 5cc1 493c 70db 433e 5732 3b3c
000002b0: f337 85be ee41 69be d11b babd 7267 50be
000002c0: b288 91be 86d3 bfbd 91c6 debd 53a6 40be
000002d0: bc44 903c f2de 82be 3f65 2ebe a04d fc3c
000002e0: 0106 8e3c 981b b1bd ea80 7a3d bebc 503e
000002f0: ca32 253c 9d8e 3bbe ff0f d73c b577 823d
00000300: c336 c1bd 1ffb 7bbd 857e 02be 115c 19be
00000310: b7bd 4ebe 20a9 bbbd 1465 7f3d e2e0 1f3d
00000320: d8b4 7f3d 24d6 dc3d d4f1 eabd 1233 a6bd
00000330: ca59 f0bd ab56 98be 5dcb 69be 86a9 c13d
00000340: e503 223e 2f53 06be 025e 33be 71e2 8bbd
00000350: 3ea9 39bd 624a 513e b06d 2c3e c5a9 683d
00000360: ec42 b4bc c60d 1bbe 24a9 013d 22b1 e5bd
00000370: ca60 3cbe 3979 1c3e d611 56bd 3cef 88be
00000380: 2a64 25be 7fbf 7ebb 9b1e 62bd 02ad 6bbd
00000390: d19b 133e 1d2a 5f3d 35de 903d 6e4f 73bd
000003a0: c54a 85bb 9310 82bd 9765 e5bd c583 643c
000003b0: 847e f53d 5e21 ad3c 8436 d4bb 392e 8f3c
000003c0: 4cfc 77bd a78f efbd fa45 36bc e359 a4bd
000003d0: 1301 70be 3b4b 43bc 6a9f efbd 0f1d 1bbe
000003e0: 8457 62be 25cf cfbd 15ed 6d38 a450 1fbd
000003f0: bc33 3fbe 87d8 9ebd 932c 95be 82f8 263e

conv4.bias f4 [64]
-0.11558069 -0.3324399 -0.26770532 -0.11181994 -0.199231 0.31031296 -0.14436074 -0.16559258
0.05774532 -0.38562497 -0.21717791 -0.08327402 -0.3713044 0.1300161 -0.05738003 0.035749357
-0.06695161 -0.12682725 -0.22676967 -0.38735676 -0.24293458 -0.36493784 -0.44458097 -0.30577078
-0.079600625 0.24501707 -0.14410941 -0.3734747 -0.16366258 -0.34918422 -0.26120365 -0.31346816
-0.13635452 -0.36557132 -0.2573682 -0.18786588 -0.06682221 -0.084633455 -0.15437935 -0.13050811
0.063226044 -0.09531933 -0.21291812 -0.047549147 -0.2651905 -0.21597876 -0.17692319 -0.25068444
-0.28258952 0.24637571 -0.3577843 -0.092213556 -0.2797482 -0.16176946 -0.3040686 -0.2385861
-0.23978564 0.107377335 -0.33657184 -0.14395773 0.17516431 -0.113955475 -0.08513696 -0.14585721
00000000: 92b5 ecbd 9035 aabe ac10 89be da01 e5bd
00000010: 3603 4cbe 57e1 9e3e 4dd3 13be 1a91 29be
00000020: 5b86 6c3d a370 c5be e363 5ebe 928b aabd
00000030: 9c1b bebe f122 053e 5307 6bbd eb6d 123d
00000040: ed1d 89bd 01df 01be 4f36 68be a053 c6be
00000050: d8c3 78be 22d9 babe 1ea0 e3be fd8d 9cbe
00000060: a705 a3bd c1e5 7a3e 6b91 13be 1338 bfbe
00000070: 2a97 27be 46c8 b2be 7cbc 85be e67e a0be
00000080: 85a0 0bbe 2a2c bbbe c4c5 83be ea5f 40be
00000090: 15da 88bd 4e54 adbd 9f15 1ebe eba3 05be
000000a0: a87c 813d c836 c3bd 3507 5abe e5c2 42bd
000000b0: 0dc7 87be 8929 5dbe 5a2b 35be b659 80be
000000c0: 93af 90be ea49 7c3e 812f b7be 76da bcbd
000000d0: 283b 8fbe e5a6 25be e1ae 9bbe ea4f 74be
000000e0: 5e8a 75be a6e8 db3d 2553 acbe a869 13be
000000f0: 465e 333e 7d61 e9bd 495c aebd 985b 15be

bn4.weight f4 [64]
4.2861056 3.67943 4.7107697 3.5942333 3.8268688 2.6271815 4.149218 3.9255333
3.4995563 4.3213515 4.5719285 4.0175667 4.174249 2.2993562 3.2724354 3.0805624
3.2738817 4.0606513 4.0211067 4.5549893 3.7205954 4.3955746 5.1793294 4.959058
2.977179 2.098559 3.2346025 4.36123 2.751779 4.5748544 4.426638 4.027128
3.7952132 4.8232365 4.4434814 4.108816 3.892037 3.7245963 3.8381495 3.4946775
2.3916457 1.644024 4.2651305 2.2079341 3.5474484 3.8430562 4.1884203 3.9396076
4.209684 2.9100463 4.350629 3.9923916 4.5164013 3.0672946 4.365169 4.3578854
3.9121373 2.8356414 4.2907104 1.5756549 2.0302498 2.6980221 4.010921 4.24382
00000000: c727 8940 c87b 6b40 a0be 9640 eb07 6640
00000010: 6beb 7440 be23 2840 65c6 8440 f03b 7b40
00000020: bbf8 5f40 8348 8a40 3d4d 9240 e88f 8040
00000030: 7393 8540 a728 1340 956f 5140 ef27 4540
00000040: 4787 5140 dbf0 8140 e8ac 8040 79c2 9140
00000050: 3c1e 6e40 8ca8 8c40 11bd a540 9ab0 9e40
00000060: 1a8a 3e40 ca4e 0640 ba03 4f40 328f 8b40
00000070: 261d 3040 3565 9240 05a7 8d40 3cde 8040
00000080: c6e4 7240 f457 9a40 0031 8e40 6c7b 8340
00000090: 2217 7940 c95f 6e40 3ea4 7540 cca8 5f40
000000a0: b910 1940 616f d23f f37b 8840 cb4e 0d40
000000b0: 6509 6340 a2f4 7540 8a07 8640 8822 7c40
000000c0: bbb5 8640 333e 3a40 5a38 8b40 5883 7f40
000000d0: 5c86 9040 8e4e 4440 77af 8b40 cc73 8b40
000000e0: 7560 7a40 267b 3540 804d 8940 0faf c93f
000000f0: 9def 0140 65ac 2c40 7759 8040 60cd 8740

bn4.bias f4 [64]
-0.25196823 0.2055494 -0.16740952 -0.2057243 -0.18590432 -0.19722441 0.232173 0.080338635
0.27753636 0.14719221 -0.15409972 -0.28956956 0.11010247 -0.13818853 -0.1649942 -0.1960113
0.34963384 0.11440617 -0.29462814 0.13326056 -0.122262426 0.15667814 -0.25040844 0.2088208
-0.13260354 -0.28984058 -0.36248764 -0.3440005 0.20309961 -0.18351576 -0.25688583 0.081599735
-0.41069475 0.25543225 -0.19145352 0.09221431 0.09885032 -0.13855948 -0.25532374 0.20116065
-0.1078809 -0.24186441 -0.18563937 0.16503055 -0.41346288 0.13949601 0.1806847 0.16095315
-0.14592336 -0.18221797 0.13047506 0.18334338 0.13875489 -0.17232193 0.15276594 -0.13595405
-0.15170701 -0.16356638 0.33050486 0.21999976 0.42445418 -0.12876333 0.19414985 0.22799854
00000000: fb01 81be 8b7b 523e 676d 2bbe 64a9 52be
00000010: b45d 3ebe 32f5 49be c2be 6d3e 9588 a43d
00000020: 3f19 8e3e 8eb9 163e 51cc 1dbe 7642 94be
00000030: 677d e13d 4b81 0dbe 3df4 28be 30b7 48be
00000040: 3503 b33e c84d ea3d 80d9 96be 7575 083e
00000050: b964 fabd 3c70 203e 8935 80be 1fd5 553e
00000060: 39c9 07be fc65 94be fb97 b9be d520 b0be
00000070: 58f9 4f3e 8eeb 3bbe 8a86 83be c31d a73d
00000080: 9546 d2be 04c8 823e 640c 44be dbda bc3d
00000090: 0972 ca3d 89e2 0dbe cbb9 82be 0ffd 4d3e
000000a0: a9f0 dcbd 4eab 77be 3f18 3ebe c5fd 283e
000000b0: 68b1 d3be 0bd8 0e3e 6905 393e e7d0 243e
000000c0: ef6c 15be 5997 3abe 419b 053e 5ebe 3b3e
000000d0: c315 0e3e 2975 30be ad6e 1c3e 8a37 0bbe
000000e0: 1559 1bbe f27d 27be ef37 a93e 9e47 613e
000000f0: 0f52 d93e 89da 03be 38cf 463e 7378 693e

bn4.running_mean f4 [64]
0.031336218 0.06366992 0.013067392 0.05016095 0.015760416 1.8882235 0.028819317 0.048690397
0.08240971 0.024719993 0.022654368 0.102785364 0.024409438 1.247511 0.041182354 0.04643473
0.018799096 0.060773894 0.018402103 0.018162843 0.04051636 0.022704914 0.016002204 0.020586744
0.06044255 1.4145706 0.03315895 0.019899996 0.039538004 0.01631255 0.024469148 0.03403571
0.028707268 0.010441194 0.024394508 0.14092523 0.109640256 0.016483976 0.054736014 0.09166359
0.65670866 0.3050869 0.04505343 0.44508052 0.012153801 0.030695517 0.071991675 0.032561705
0.0134821385 1.4043813 0.01726883 0.023220798 0.017764322 0.10810506 0.028648738 0.013021267
0.024692923 0.55616844 0.013852748 0.102254696 0.80216557 0.02169248 0.029165313 0.03309334
00000000: 685a 003d 6065 823d 9d18 563c 9175 4d3d
00000010: fd1b 813c 4fb1 f13f 7d16 ec3c 956f 473d
00000020: 6cc6 a83d 9581 ca3c a795 b93c 2281 d23d
00000030: 4df6 c73c 71ae 9f3f d4ae 283d 5832 3e3d
00000040: 9000 9a3c 0cee 783d 02c0 963c 3eca 943c
00000050: 7cf4 253d a8ff b93c 0e17 833c 88a5 a83c
00000060: 9b92 773d a610 b53f aed1 073d 5105 a33c
00000070: 9af2 213d e6a1 853c 8673 c83c 0769 0b3d
00000080: 812b eb3c 8b11 2b3c fed6 c73c b44e 103e
00000090: 128b e03d 6709 873c df32 603d 1fba bb3d
000000a0: 0f1e 283f 5a34 9c3e f289 383d 98e1 e33e
000000b0: bc20 473c 2a75 fb3c 5f70 933d 6c5f 053d
000000c0: 30e4 5c3c c4c2 b33f 5d77 8d3c 8b39 be3c
000000d0: 7c86 913c 3066 dd3d c2b0 ea3c 2757 553c
000000e0: d048 ca3c 0e61 0e3f a3f6 623c e96a d13d
000000f0: b95a 4d3f 6eb4 b13c 18ec ee3c e28c 073d

bn4.running_var f4 [64]
0.093823686 0.30490294 0.04436938 0.16106266 0.054223556 1.416996 0.12738645 0.17999062
0.31614202 0.09446649 0.13242367 0.2963335 0.09966022 1.5122428 0.17168187 0.16218284
0.0650121 0.30558008 0.053741246 0.06897589 0.1370608 0.11151016 0.08054211 0.057522684
0.16206801 0.8254615 0.06980216 0.09911851 0.09999038 0.07239429 0.08833104 0.108958855
0.082471974 0.03895992 0.111023076 0.46124056 0.33304626 0.05232122 0.20135158 0.24513996
1.1067498 0.44076568 0.17609549 0.85130715 0.04174311 0.113074556 0.28497922 0.11541199
0.034859996 1.5664256 0.07063209 0.062086254 0.083612315 0.3926747 0.13521561 0.06719589
0.09462775 0.9796517 0.059127305 0.10263997 1.2889866 0.09568422 0.13950093 0.1381696
00000000: a226 c03d 3d1c 9c3e abbc 353d 9ced 243e
00000010: 8519 5e3d 2060 b53f 9871 023e 764f 383e
00000020: 5edd a13e a677 c13d 129a 073e 06b9 973e
00000030: a81a cc3d 2c91 c13f 5fcd 2f3e 4213 263e
00000040: 1025 853d fe74 9c3e c81f 5c3d 3b43 8d3d
00000050: ab59 0c3e 705f e43d 43f3 a43d e89c 6b3d
00000060: 28f5 253e 7251 533f 6ff4 8e3d a5fe ca3d
00000070: c2c7 cc3d 7543 943d e8e6 b43d d225 df3d
00000080: 11e7 a83d 7094 1f3d 1160 e33d b927 ec3e
00000090: 0a85 aa3e c74e 563d 1c2f 4e3e f805 7b3e
000000a0: faa9 8d3f 0aac e13e 6052 343e 44ef 593f
000000b0: d3fa 2a3d a293 e73d cce8 913e 1f5d ec3d
000000c0: 5bc9 0e3d a280 c83f 8fa7 903d 284e 7e3d
000000d0: ef3c ab3d a90c c93e f675 0a3e 009e 893d
000000e0: 32cc c13d 74ca 7a3f 792f 723d e834 d23d
000000f0: 83fd a43f 17f6 c33d 55d9 0e3e 557c 0d3e

lin.weight f4 [10, 64]
0.6071669 0.60065734 -0.69669765 -0.20548286 -0.562142 0.29883644 -0.10024225 1.2326514
0.11511382 1.0816368 -1.2298981 0.37427875 1.445541 -0.38556087 -0.376413 -0.358537
-0.19363353 1.4709928 -0.26640636 0.2102935 -0.9913262 0.8039754 -0.8738753 1.4810537
-0.23529069 0.40273404 0.55954033 1.130477 0.3139198 -0.73944116 0.84483176 1.1911799
0.73758847 -1.0119283 -0.80323106 1.5989423 0.9669487 -0.72978234 0.075935036 0.98702043
-0.6476428 0.47249708 -0.6589328 0.4720111 0.66930467 0.96140134 0.8597257 -0.41025755
-0.3684386 0.06209459 0.78529894 -0.32369772 0.5765182 -0.5619425 0.57105166 -1.032621
-0.6714335 -0.18589853 -0.04816307 -0.08545491 -0.30288127 -0.67134404 0.5945207 -0.6929995
-0.86940765 -1.8929478 -0.4191024 -0.68004376 0.10597515 -0.5866175 0.28167942 1.0075301
-0.68486404 -1.7301853 1.3795563 0.37613207 -1.2779465 -0.25216788 -0.31697327 -0.2956787
-0.44222248 0.20670414 0.9658258 1.6712637 1.0946152 0.80418473 1.335798 -0.24212041
-0.30334064 -0.46630535 -0.4348142 -0.57666886 -0.43074757 1.5942924 -1.2277706 0.029324124
-0.07730033 1.6770327 0.3978107 0.08889662 0.6531444 -0.36344948 -0.74842346 -0.9393801
-0.3392946 -0.19638191 1.1330948 0.3490974 -0.2116677 0.9240302 0.4964944 0.78911
-0.2733037 -0.5076342 -1.330989 0.112510584 1.193213 0.76542914 0.90967125 -0.4218722
1.3125224 -0.699953 -0.830095 0.256937 0.07166299 -0.3002816 0.4559995 0.92231166
1.0016155 0.2691673 2.2511766 0.052440133 -0.19964285 0.07712571 -0.34714693 -2.0683873
0.26386902 -0.6619528 -0.6140666 0.5309422 -1.9520861 1.2042409 -0.17425586 -0.5509628
0.34081015 -0.5269147 -0.9216675 -1.8130808 -0.21064627 -0.5253065 -0.9414496 0.18740335
2.1444626 -0.3149797 -0.5902126 -0.20763151 0.41681188 0.18229862 -0.1438127 -2.0493417
-0.69553363 -0.09938227 -0.6055118 -0.68441087 -1.7097133 -0.056698628 -0.22067635 0.38379872
0.8244525 -0.41872022 -0.5615863 0.27034023 -0.32463574 -1.7715343 -1.1139891 -2.7621245
2.5647166 1.1441647 -0.7377094 -2.627812 -1.311687 0.10537023 -1.4424427 -0.7327213
0.3003037 0.72067964 -0.20410922 0.10285064 0.24339716 0.8179254 1.085179 -1.3443986
-0.14914562 0.3951051 0.8609854 1.5158758 -0.76804376 -0.5513172 1.1145527 -1.5549068
-0.42888466 0.8026875 1.0259502 -0.8333898 0.30969054 -0.013626173 -0.5226343 -0.21864992
0.8223384 -0.8470624 0.26049006 -1.1469691 0.7752986 -0.20878483 -0.6803288 -1.015831
-0.5831932 -0.008675303 -0.18703505 -0.46354106 0.005399208 -0.7686234 0.6367892 0.7572235
-0.06776556 -0.62041205 1.6147811 -0.13086426 0.4120119 -0.32736084 1.6025162 0.008029861
0.5469065 -0.27637404 1.0337269 -0.884364 -0.54891646 -0.7052865 -1.8154789 1.0961431
-0.73139066 0.23204282 1.4158224 0.7225956 -0.65027523 0.011253361 0.053345837 2.41666
-0.3410343 -0.32308668 0.9509406 -0.19621892 0.20581912 -0.0904414 -1.1745828 0.8137644
00000000: 4a6f 1b3f aec4 193f c75a 32bf 196a 52be
00000010: 8ae8 0fbf 1701 993e cf4b cdbd 85c7 9d3f
00000020: cbc0 eb3d 1373 8a3f 4d6d 9dbf 77a1 bf3e
00000030: 7d07 b93f 3c68 c5be 34b9 c0be 2992 b7be
00000040: de47 46be 7e49 bc3f 6a66 88be 2e57 573e
00000050: 8ec7 7dbf 55d1 4d3f 4bb6 5fbf 2b93 bd3f
00000060: 0bf0 70be 2833 ce3e 093e 0f3f 78b3 903f
00000070: 19ba a03e 044c 3dbf e546 583f 9578 983f
00000080: 99d2 3c3f de86 81bf 8da0 4dbf 24aa cc3f
00000090: f389 773f 04d3 3abf d483 9b3d 5fad 7c3f
000000a0: ebcb 25bf 23eb f13e d2af 28bf 70ab f13e
000000b0: 8d57 2b3f 661e 763f fc16 5c3f 470d d2be
000000c0: fca3 bcbe e656 7e3d 5a09 493f b5bb a5be
000000d0: b296 133f 77db 0fbf 7130 123f ed2c 84bf
000000e0: 11e3 2bbf 2f5c 3ebe a446 45bd fc02 afbd
000000f0: 4113 9bbe 34dd 2bbf 8232 183f 6a68 31bf
00000100: 8091 5ebf 1d4c f2bf 9794 d6be 5917 2ebf
00000110: 8009 d93d 912c 16bf 4938 903e bff6 803f
00000120: 4053 2fbf b676 ddbf 4d95 b03f 6294 c03e
00000130: c093 a3bf 261c 81be 524a a2be 3363 97be
00000140: fc6a e2be 40aa 533e 5c40 773f f8eb d53f
00000150: 5a1c 8c3f 0ddf 4d3f 6efb aa3f 6aee 77be
00000160: 774f 9bbe 93bf eebe f89f debe 92a0 13bf
00000170: f28a dcbe c611 cc3f 9627 9dbf 2539 f03c
00000180: a34f 9ebd 02a9 d63f d8ad cb3e 6e0f b63d
00000190: 7934 273f 0d16 babe ae98 3fbf 377b 70bf
000001a0: 06b8 adbe 5718 49be 4009 913f e5bc b23e
000001b0: 6bbf 58be 3e8d 6c3f 8434 fe3e 1d03 4a3f
000001c0: 76ee 8bbe 51f4 01bf d95d aabf f36b e63d
000001d0: 34bb 983f 2af3 433f 37e0 683f a2ff d7be
000001e0: bc00 a83f 1f30 33bf 1b81 54bf 3f8d 833e
000001f0: 0cc4 923d 83be 99be c478 e93e 9e1c 6c3f
00000200: f034 803f 4cd0 893e 4713 1040 77cb 563d
00000210: 2d6f 4cbe 16f4 9d3d 3ebd b1be 7560 04c0
00000220: d719 873e bd75 29bf 7833 1dbf d4eb 073f
00000230: f5dd f9bf 9124 9a3f 2170 32be e60b 0dbf
00000240: ab7e ae3e e2e3 06bf 67f2 6bbf 0813 e8bf
00000250: a8b3 57be 7d7a 06bf d702 71bf aae6 3f3e
00000260: e03e 0940 0545 a1be 2c18 17bf 5b9d 54be
00000270: 5e68 d53e 7dac 3a3e a343 13be 6a28 03c0
00000280: 7e0e 32bf ee88 cbbd d202 1bbf 8d35 2fbf
00000290: e3d7 dabf d23c 68bd fbf8 61be 4481 c43e
000002a0: 520f 533f 7f62 d6be 1fc4 0fbf 096a 8a3e
000002b0: a836 a6be a3c1 e2bf 3297 8ebf a6c6 30c0
000002c0: 5124 2440 fd73 923f 86da 3cbf 122e 28c0
000002d0: 5ce5 a7bf 59cc d73d f6a1 b8bf a093 3bbf
000002e0: 68c1 993e 767e 383f 0202 51be 5ba3 d23d
000002f0: 1b3d 793e 8f63 513f 25e7 8a3f 4115 acbf
00000300: a1b9 18be 374b ca3e 8a69 5c3f 3808 c23f
00000310: 849e 44bf 2023 0dbf aaa9 8e3f 3007 c7bf
00000320: c596 dbbe ee7c 4d3f 5652 833f 0959 55bf
00000330: c28f 9e3e 5040 5fbc 5dcb 05bf c4e5 5fbe
00000340: c584 523f 15d9 58bf f45e 853e e2cf 92bf
00000350: f879 463f b1cb 55be 072a 2ebf c006 82bf
00000360: 264c 15bf dc22 0ebc 1e86 3fbe 4155 edbe
00000370: d7eb b03b 81c4 44bf 9e04 233f 66d9 413f
00000380: abc8 8abd 53d3 1ebf 26b1 ce3f 4801 06be
00000390: 39f3 d23e d79b a7be 401f cd3f ae8f 033c
000003a0: 1002 0c3f e680 8dbe 2a51 843f ae65 62bf
000003b0: ca85 0cbf a88d 34bf 9d61 e8bf 6b4e 8c3f
000003c0: 6b3c 3bbf a29c 6d3e ab39 b53f 06fc 383f
000003d0: 7078 26bf 0460 383c 2a81 5a3d 8faa 1a40
000003e0: 0c9c aebe 9e6b a5be d870 733f 9ded 48be
000003f0: 3fc2 523e 5739 b9bd bb58 96bf dd52 503f

lin.bias f4 [10]
0.05502799 0.10706669 0.2045393 0.04153049 -0.04392534 -0.30286822 -0.31424326 -0.20372093
-0.30286443 -0.3928413
00000000: 0865 613d c845 db3d c072 513e e01b 2a3d
00000010: 0feb 33bd 8b11 9bbe 7ee4 a0be 389c 50be
00000020: 0c11 9bbe 7f22 c9be
