NCC_Code/2022-08-18_19-38-04_model.pt (torch, 115275 bytes, 50 tensors)

conv1.weight f4 [8, 2, 5, 5]
00000000: 0852 5c3e b3a7 af3b 38b9 273e 41cd 833e
00000010: afff 243e 4e9c 69be 79ec e4bd 54d8 e43d
00000020: 6ef2 94be 26d8 3cbe 327a 6a3c 2e2e 76be
00000030: 71b7 6cbe 69c7 a2bd c075 ca3c 1811 fcbd
00000040: 4e14 a2be baa3 b2bd 1fa7 ffbd f77f 15be
00000050: cc78 8dbe fd9c 83be 077d 2dbe 3eae 37be
00000060: b40a 973d cdf5 903c 3400 863e c0a4 523d
00000070: 64dc 3b3d cec4 74bc b2b9 8c3d 5bcd 9fbd
00000080: c2eb 9abe c804 5fba b46f a5bd 7f27 04be
00000090: 1be2 a9be fbad 8dbe 0467 12bf 3138 b2be
000000a0: c6b5 e6bd 1890 c03d fed2 c5ba 9de8 083c
000000b0: b563 93bd 0d81 1f3e c42c 08be fdf4 8ebe
000000c0: 26bf 88be fc91 69be 902a 18be c924 5abd
000000d0: 498d 7b3e cd81 4fbe 3a6b ad3c d974 f13c
000000e0: 8311 5b3e fd14 5fbe f77c dfbd 940f f5bd
000000f0: 9c48 603d 9548 923d 39f0 54be f5ec 6d3e
00000100: 8737 ac3b a44b 0cbf 8ee2 f9be 1732 85be
00000110: dc11 9ebe 36f8 13be 16d4 043f aba6 af3e
00000120: 623a 5a3d 45b6 a73e 960b 1c3e 34f5 d3bc
00000130: 76d7 34bd 6d1e c1bd 3aec 1d3e 4d29 ad3d
00000140: 5c5b f53d 0288 c1bc 024b 7a3e ddef 6f3e
00000150: b117 693e fc5f db3e 6a2d 953e a5b2 ec3e
00000160: c2b1 593d da0e a03d f375 c7bd ef00 78be
00000170: c454 03be c5d4 8fbd 4905 a1bd 8907 123e
00000180: f2fa da3e 1448 663e 8735 9f3d 5a86 253e
00000190: 0648 1a3e 4420 a73d 5ef3 a33d bf7d cdba
000001a0: 01eb 83be 525a 83be c499 52be e3d7 703d
000001b0: 233d 73be e45b 28be e89b 1c3e 2203 02bc
000001c0: 4a62 2fbd 3e78 93bd 25e4 0dbe 8639 6fbe
000001d0: 0bb6 bf3e 4806 5f3d 2d9a 803e 7e92 823d
000001e0: c66e 4fbe 6f6a 49be cb2f 623d f11f c93e
000001f0: e11b a73e 7144 5abd e897 7cbe b71e 913d
00000200: 8b6f 4c3c ceaa e93d 224f c5bc 6e16 1f3d
00000210: 8c24 e2be 68e7 3ebe c071 b13d 5bb2 5fbe
00000220: 6f3f 05be 5f5e 3e3e 01f3 86bc 1e49 8cbe
00000230: 7c20 c13e f842 ae3e 1fbe af3e a50f 013f
00000240: 86cd a93e 79c8 8cbe 49a7 b2bd ff7c 253d
00000250: f098 b03d 51b9 083e 0ecc 9dbe 8bae 94be
00000260: a763 da3b bdb1 8cbe 19fa cd3c 37d2 1dbe
00000270: ef2f d1be a3be a3bd 2bc0 803b b785 c3bd
00000280: f8e6 8a3d 6d0b babd 7d92 4e3e 2477 68bc
00000290: 613f e63b 8f08 f6bc a7a9 dc3d 0e31 153e
000002a0: 4851 073e 35f4 0e3f a8db c1be 9954 93be
000002b0: 017d 32be 06a8 f2bd 4ca3 e6be 6df3 5dbe
000002c0: 1d86 23be 3498 0fbf b512 08be 32ac 45be
000002d0: 410c 3abe 66a4 8abe 3e5f 07be 1ae8 043e
000002e0: 2612 363e f307 dbbe 69a3 963e 0a98 3ebe
000002f0: a9f6 95be 1e50 023d 0dc8 b23e 85b1 ab3d
00000300: f6e8 31bc 31ad 453e 6022 c33d 7507 3fbd
00000310: 1a28 84be 68d9 00be a01f c3bd af9e 43bd
00000320: a892 06be f9b0 5abe 1d90 bf3d d1c9 89bc
00000330: d23d 4abd ffd4 7f3d 5509 9d3d d0f1 e83e
00000340: 6b23 eebd d646 0c3d fd39 f83e 4641 4e3e
00000350: d631 17bb ef84 a33e a40a b93e 7e76 49be
00000360: fb29 0c3c 2e8d 963d aa9a a93e e12a 173e
00000370: fd6c 1ebe c08e efbe 94ee a6be d041 44be
00000380: d563 d8bd efbc 823e cd6c 6b3d d243 723d
00000390: d15f 543e 3c5b ce3d 7cf5 923d d920 863e
000003a0: f8bf 2fbe cc26 d13e 2075 153d 5c01 aebe
000003b0: a08a 6b3e 4d3a a13e 0f87 373e 0a56 ec3d
000003c0: 0322 d23e b8ac 483e 93a8 48bc 88fd a6bd
000003d0: 223f a5bd 718f e6bd 8723 8abc a740 8bbd
000003e0: 05da e5be f7ed a0be e8a2 8dbe dc99 5cbd
000003f0: 6232 70be 5943 80be c046 4ebe ac89 dcbd
0.21515667 0.0053605675 0.16379249 0.25742534 0.1611316 -0.22813532 -0.11177916 0.11174074
-0.2909121 -0.18441829 0.01431136 -0.24041054 -0.23116852 -0.07948191 0.02471435 -0.12307948
-0.31656116 -0.087226346 -0.12483048 -0.14599596 -0.27631223 -0.2570571 -0.16942225 -0.17937562
0.07375088 0.017695332 0.2617203 0.05142665 0.045864478 -0.0149395 0.06871356 -0.0780284
-0.30257994 -0.00085074874 -0.08077946 -0.12905692 -0.33180317 -0.276718 -0.5718844 -0.34808496
-0.11265139 0.09402484 -0.0015092788 0.008356241 -0.07196752 0.15576573 -0.13298327 -0.27921286
-0.26708335 -0.22809595 -0.14859986 -0.053257737 0.24565615 -0.20264359 0.021169294 0.029474663
0.21393399 -0.2178535 -0.10912507 -0.11965862 0.054756746 0.0714275 -0.20794763 0.23234923
0.005255643 -0.5480292 -0.4880566 -0.26014778 -0.30873 -0.14450154 0.5188612 0.34306845
0.053278334 0.32756248 0.15238795 -0.025873758 -0.044150792 -0.094296314 0.15422145 0.08455143
0.11980316 -0.023624424 0.24442676 0.23431344 0.22762944 0.42846668 0.2913621 0.46230045
0.05314804 0.07815333 -0.09739294 -0.24219106 -0.12825304 -0.070230044 -0.07862336 0.14260687
0.4276958 0.22488433 0.077738814 0.16164532 0.15066537 0.08160451 0.08005403 -0.0015677734
-0.2576523 -0.25654846 -0.2056647 0.058799636 -0.2375379 -0.16441303 0.15293849 -0.007935317
-0.042818345 -0.07200669 -0.13856561 -0.23361787 0.37443575 0.05444935 0.25117627 0.063755974
-0.202571 -0.19669507 0.05522136 0.39282182 0.32638457 -0.053287927 -0.24667323 0.070859365
0.012477766 0.114095315 -0.024085585 0.03883975 -0.44168508 -0.18642962 0.08664274 -0.21845381
-0.13012479 0.18590687 -0.016473295 -0.27399534 0.37720096 0.34035468 0.34324738 0.50414497
0.33164614 -0.27496698 -0.08723313 0.04040241 0.086229205 0.13351943 -0.30819744 -0.29039416
0.0066647115 -0.27479354 0.02514367 -0.15412222 -0.40856883 -0.079953454 0.003929158 -0.095469885
0.06782335 -0.090842105 0.20173068 -0.014188562 0.0070265983 -0.030033378 0.10774546 0.14569494
0.132146 0.5584138 -0.37862897 -0.2877548 -0.17430498 -0.11848454 -0.4504646 -0.21674891
-0.15969129 -0.5609162 -0.13288386 -0.19303969 -0.18168737 -0.2707855 -0.13219926 0.12979165
0.1778036 -0.42779502 0.29421547 -0.18612686 -0.2928975 0.031814687 0.34918252 0.083834685
-0.010858765 0.19304349 0.09528041 -0.04663797 -0.25811845 -0.12582934 -0.09527516 -0.047758754
-0.13141882 -0.21356572 0.09353659 -0.016819866 -0.049375363 0.06245899 0.076677956 0.45496988
-0.11627849 0.034247242 0.48481742 0.20142087 -0.0023070476 0.31937358 0.3614093 -0.19674107
0.008554931 0.07351147 0.33125812 0.14762451 -0.15471263 -0.46788597 -0.32603896 -0.1916573
-0.105659164 0.2553477 0.057476807 0.05914671 0.20739676 0.10075995 0.07175729 0.26196936
-0.17163074 0.40849912 0.036488652 -0.33985412 0.230021 0.31489792 0.17922615 0.11539848
0.41041574 0.19597137 -0.0122472225 -0.08153826 -0.08068682 -0.11257828 -0.016862644 -0.06799441
-0.44892898 -0.31431553 -0.2766335 -0.05385767 -0.2345672 -0.25051382 -0.20144176 -0.10768446

conv1.bias f4 [8]
00000000: 338c c63e 3a0c e3bd 1986 313d f64c 2e3e
00000010: a167 8bbe d36c 143e f52b 573e 53d7 3e3d
0.3877884 -0.110863164 0.043340776 0.17021546 -0.272275 0.14494638 0.21012862 0.046592068

bn1.weight f4 [8]
00000000: 288f 653f 2175 863f 5907 723f 5672 583f
00000010: a33d 7a3f ab3a 693f 7ffb 9a3f 91bc 8a3f
0.89671564 1.0504495 0.9454246 0.8454946 0.977503 0.91105145 1.2108 1.0838796

bn1.bias f4 [8]
00000000: 74cf d03d 1c1d 19be f2ec 6a3d b266 553d
00000010: 26b4 ebbd f958 0e3d 2eae d93d 3d08 883c
0.101958185 -0.1495251 0.057354875 0.05209989 -0.1150897 0.03475282 0.10628925 0.01660549

bn1.running_mean f4 [8]
00000000: d9c3 cd3f 93c4 003f 43ea fe3e 5030 a93f
00000010: fd50 263f caa8 7d3f 7c9f 3f3f d38e d23e
1.6075393 0.5029995 0.49788103 1.3217869 0.6496733 0.99085677 0.7485273 0.4112459

bn1.running_var f4 [8]
00000000: 9289 f63f d3e7 9d3f 0122 f73f cd1d b23f
00000010: 37bd f33f 5d09 b040 9883 f53f 4bcc 143f
1.9260733 1.2336372 1.9307252 1.3915344 1.9042119 5.501143 1.9180784 0.58124226

conv2.weight f4 [16, 8, 3, 3]
00000000: d3c4 16be 257e 883e b770 b33b 949a bebc
00000010: 2a06 bd3d 3c55 543e e7a4 4abe 34de 6e3e
00000020: 50a2 873e 1a0e a4bc e839 22be be26 98be
00000030: ba8e d23e 388d 5c3e 05e5 313e 0482 f83d
00000040: 8151 2c3e 195a 53bc c364 8cbd f658 c73e
00000050: 8528 98bd 3ea6 233e e6b5 043e a3bc 383e
00000060: d31d 23be 4da0 b9be 12db 90be 62ab 8cbe
00000070: 7d50 bebd 7b09 73bd 6668 2ebe 9549 143e
00000080: eaea 833d eb78 43bd 53a2 323d 8a12 d13a
00000090: 3ce3 ee3d f88b 8abe 3927 62be 0e10 18bd
000000a0: e578 7dba 5675 cc3d fec6 11be 1895 cc3e
000000b0: 498e 3f3e a55b 06be 9a2f 093d 0de9 cebe
000000c0: 5a64 a93d ec71 8f3e f80d a83e 3885 173e
000000d0: 8609 9abd 28c7 423d 05a7 d33d dcf7 9e3d
000000e0: 2145 0ebd 9784 26bd e22d 263e d89d 81bd
000000f0: 5a1a 803d adb6 05be fa4e eebe f217 943d
00000100: 0f0e cc3c 917f 39be 4f64 4a3e 3207 673e
00000110: e5c2 eabb 084c d0bd 61e0 17be 968b fd3b
00000120: 255b a6bd 70d8 993d d293 263e 6db3 ac3b
00000130: f7f0 17be 3c31 97bd 28c7 d1bd b415 c73d
00000140: 788d dcbe e4f3 a43e 303e a83d f4bb 103e
00000150: bd72 cf3c eafe 8e3c e404 dbbd d50a c53d
00000160: 8793 503e 0807 e8bd 5b8f bb3d b249 b8be
00000170: 36fc 9dbe e8c4 fc3d a422 483e ed4d c2bd
00000180: e246 64be e3c1 203e ba1d 6dbe 98c7 f93d
00000190: f4d7 74be 05f3 cbbd c195 a6bd ecf7 3abe
000001a0: 3473 02be 94aa 133e 8e03 133e dc67 6e3d
000001b0: 8ee2 e0bc 1123 9e3e 0640 a43e d4c0 da3d
000001c0: daf9 f8bd 7de5 21bd ca45 1e3e e482 efbb
000001d0: 6ab5 fabd 8b87 57bc fb31 9abe d7fc 97be
000001e0: 01f8 4a3e 3b31 333d f143 89be a6ad 6a3d
000001f0: 424f 27bd 7c2a 393d 6893 483e 91dc 2fbd
00000200: 208b 043c 70f2 66be 3ea4 013e 1a9d a03e
00000210: 6e75 e1bd 7c44 23be b382 e5be 8837 5c3e
00000220: 3a5d fc3d e93e 363d 0517 9ebe 5098 eabe
00000230: d469 9abd 2383 143e 0f3a ec3d 9437 1b3e
00000240: 4c72 2e3e 5c11 033e 46fa 69bd 08b8 1dbe
00000250: 1c0a 00be 1f57 8abe 1c26 a2bd 8175 4cbe
00000260: 57be 34bd b4c9 833d aa84 a73d 02fd b3be
00000270: 3e59 a6be 7219 7dbe b6fc 3fbe a293 27be
00000280: 52e6 4abe b675 fabc 71e2 493e 6950 cb3e
00000290: 6ed0 8a3c 14fc 94bd c1bc a33d 8c38 833e
000002a0: e5c8 be3d 938e 01bd 5be9 6e3d f2cd d53d
000002b0: c5c0 033e b6a4 9e3c d1be 3b3e 4ede 5f3e
000002c0: b988 383e 44ab 9fbe 95dc d4bd 8157 89bd
000002d0: bc16 923d cfdc 88be 31c0 dcbe 9747 aabd
000002e0: ac7b 0bbe a668 3cbe f6b6 dfbe 4b0b 6c3d
000002f0: 4895 473e c2a0 c7bd ce9f e13c 859c 503d
00000300: f3b8 b63e 0a3d 813e 3c82 e53d cc6f 053d
00000310: 457f 0dba 009a ea3b b012 eebd ed32 25be
00000320: 7556 b43d 893e e0be 6425 8cbe 7568 b23c
00000330: e2bb 423e 4d3d 403e a1a2 8ebc 6583 58be
00000340: 408c 2d3e f1cb 373e 7587 08be 4da7 3d3e
00000350: 6b5b 673d 60c6 5d3e e62a 463e 20fb 243e
00000360: 3174 043e 423f c0bc e96f 28be d859 fd3e
00000370: 2029 483e cffb 173f e827 9fbd c1b5 ba3e
00000380: 9887 66be 7b7c 6b3c 0c5e 3d3e bb33 963d
00000390: fd12 1dbe f972 403d 748c 443e 559f 24be
000003a0: e0ff 99bc 73d5 943e dac1 d83e d91f 0bbe
000003b0: a7a1 44be c827 cd3d cf7c 1e3e b1f8 183e
000003c0: 3582 6b3e bcf2 5d3e d2bf 683e e892 c93d
000003d0: f16a 3b3d 3ed1 b83c 742c d23d 8161 b0bd
000003e0: 49c3 19bd 8b3c 773e d065 a13e a1af b83e
000003f0: 3601 443c 20a9 92be 4996 b13d 362f a73e
-0.1472352 0.2665874 0.005476083 -0.023267068 0.09229691 0.2073564 -0.19789468 0.23326951
0.26491022 -0.020026255 -0.15842402 -0.29717058 0.41124517 0.21538246 0.1737252 0.121341735
0.16827966 -0.012899899 -0.06855156 0.3893506 -0.074296035 0.15981385 0.12960014 0.18040709
-0.15929346 -0.36255112 -0.28292137 -0.27474505 -0.09292696 -0.059335213 -0.17032012 0.14481194
0.06441291 -0.04772274 0.043611836 0.001595096 0.11664435 -0.27059913 -0.22085275 -0.037124686
-0.0009669199 0.099833176 -0.14236066 0.399575 0.18706621 -0.13120897 0.033492662 -0.4041218
0.08271094 0.28016603 0.32823157 0.14796913 -0.07521348 0.04755321 0.10334591 0.07762119
-0.034733895 -0.04065379 0.1622844 -0.063289344 0.06255026 -0.13057967 -0.4654463 0.0723113
0.024909047 -0.18115069 0.19764827 0.22561339 -0.0071643465 -0.10170752 -0.14831688 0.007737587
-0.08122853 0.07511985 0.16267326 0.0052704127 -0.14838015 -0.073824376 -0.10243064 0.097209364
-0.43076682 0.32217324 0.08214986 0.14134198 0.025323266 0.017455537 -0.10694292 0.09621207
0.20368777 -0.11329466 0.09158202 -0.35993725 -0.30856484 0.123422444 0.19544464 -0.094875194
-0.22292665 0.15698962 -0.23155871 0.121962726 -0.23910505 -0.09958462 -0.08134032 -0.18258637
-0.12739259 0.14420539 0.14356825 0.058204517 -0.02745178 0.3088613 0.32080096 0.1068131
-0.121570304 -0.039525498 0.1545631 -0.0073093046 -0.12241633 -0.013154875 -0.30116257 -0.2968509
0.19821168 0.04374812 -0.26809648 0.05729451 -0.04084707 0.045206532 0.19587481 -0.042934958
0.008089811 -0.2255342 0.1266031 0.3136986 -0.11008726 -0.15944093 -0.44826278 0.21505558
0.12322469 0.04449359 -0.30876938 -0.4581933 -0.07539716 0.1450315 0.11534511 0.1515792
0.17035788 0.12799591 -0.057123445 -0.15402234 -0.12503856 -0.27019593 -0.07917425 -0.19966699
-0.044126835 0.06434956 0.081796005 -0.35153967 -0.3248996 -0.24716738 -0.18748745 -0.16364911
-0.19814423 -0.030573707 0.19715287 0.39709786 0.01694509 -0.072746426 0.07994986 0.2562908
0.09315661 -0.03163011 0.058328014 0.104396716 0.12866504 0.01936565 0.1833451 0.21862146
0.18020906 -0.31185353 -0.10393635 -0.06706143 0.071332425 -0.26730964 -0.4311538 -0.08314436
-0.13621396 -0.18399295 -0.43694276 0.057627957 0.1949054 -0.09747459 0.027542021 0.05093052
0.3568798 0.25241882 0.11206481 0.03257732 -0.0005397688 0.0071594715 -0.11624658 -0.16132708
0.08805553 -0.4379771 -0.27372277 0.021778325 0.19016984 0.18773384 -0.017411532 -0.21143873
0.16948032 0.17948891 -0.13332923 0.18520851 0.056483667 0.21657705 0.19352302 0.16111422
0.12934949 -0.023467664 -0.1644894 0.49482608 0.19546938 0.59368604 -0.077712834 0.36466792
-0.22512662 0.01437294 0.18492907 0.073340856 -0.15339275 0.046984646 0.19194204 -0.16076405
-0.018798769 0.290691 0.42335397 -0.13586368 -0.1920229 0.10017353 0.15477298 0.14938618
0.22998889 0.21674627 0.22729424 0.09842473 0.045756284 0.022560712 0.10262385 -0.086123474
-0.037539754 0.24144189 0.3152299 0.36071494 0.011963179 -0.28644657 0.08671243 0.32653207

conv2.bias f4 [16]
00000000: 39d7 24be f556 afbe 9883 95bd a1c4 7fbd
00000010: d023 be3c ec8b 313d bf86 e2bc f31b b53d
00000020: f4e0 ef3d b3ad b9bd 879e 92be f59c 4abe
00000030: eb8d 17be 7db1 97bd 87bf 37be 792f 9ebc
-0.16097726 -0.3424603 -0.0730049 -0.06244338 0.023210436 0.04334633 -0.027652143 0.088432215
0.11712828 -0.090663336 -0.28636572 -0.19786437 -0.14800231 -0.074069 -0.17944156 -0.019309746

bn2.weight f4 [16]
00000000: 6b60 893f af74 803f 93e9 6c3f 7d45 773f
00000010: 1c93 8e3f f1db 5e3f 5f86 8e3f 8f9f 5a3f
00000020: 3629 6d3f e455 843f 4edb 9c3f 4503 643f
00000030: 0eff 433f 5ed9 853f 3f8c 813f 554b 723f
1.073255 1.0035609 0.92543906 0.96590406 1.1138644 0.87054354 1.1134757 0.8539972
0.9264101 1.0338712 1.2254426 0.8906749 0.7656106 1.045696 1.0120925 0.946462

bn2.bias f4 [16]
00000000: 1a78 a73d a629 3fbe f423 8abd e0f3 40be
00000010: c3a4 943b 5469 a8be b2cd dcbd aa28 233e
00000020: eb9b 293c fd50 9b3e a25f 4a3e e0a3 bbbe
00000030: a49d 86bd e8e5 e23d fab4 933e fe23 ddbe
0.081772044 -0.18668231 -0.06745139 -0.18843031 0.0045362427 -0.3289286 -0.10781421 0.15933481
0.010352115 0.30335227 0.19763044 -0.36648464 -0.06573036 0.110790074 0.28849012 -0.43191522

bn2.running_mean f4 [16]
00000000: 72d1 c13e fbe9 063f 33c0 443f 1873 903f
00000010: dfb6 053f 0e1f d83f 06c0 d13e bd67 a13f
00000020: 6af7 813f 4425 ff3e 484a 633f 7c6b e93e
00000030: 311c 383f 8e0a e83e e739 523f b925 f93e
0.37855107 0.52700776 0.7685577 1.1285124 0.52232164 1.6884477 0.40966815 1.2609783
1.015363 0.4983312 0.8878522 0.45589817 0.71918017 0.45320553 0.821196 0.48661593

bn2.running_var f4 [16]
00000000: ccc6 8d3f 4a57 e73f 03ef 753f 2a9b fc3f
00000010: b89d 3e3f 0cb9 e73f 08db 5d3f 14b1 813f
00000020: 7a2b 863f 7c48 493f 7b6c 9f40 8b36 b43f
00000030: d02c 553f 0906 cd3f 30e7 443f db72 fb3e
1.1076293 1.8073514 0.9606783 1.9734852 0.7445941 1.8103347 0.8666234 1.0132165
1.0482018 0.7862623 4.9819922 1.4079145 0.83271503 1.6017467 0.76915264 0.49111065

conv3.weight f4 [32, 16, 3, 3]
00000000: 550b f5bd 5010 49bc c7a4 0f3e 8109 32bd
00000010: fe2d b73d a8ee 24bd 6f53 1f3e 21e3 2d3e
00000020: e2a5 a6bc 4652 373e 4130 f83c 669d 883b
00000030: 9a88 e4bd b478 c43d bf1d 3e3d aa9c 4abe
00000040: 7eb8 f23d 05b0 0c3d 781f 17be 3306 73be
00000050: d9ca a9be 3797 ac3d d857 dd3d 2892 d7bd
00000060: 4ab2 fbbd 245a c0bd fc3f 80be 6069 1d3d
00000070: 1496 8c3d f289 383d 56a0 0b3d 81b8 f2bd
00000080: d5d9 e2bd 7c5f 33bd 9d67 153e 7efd ddbd
00000090: 6698 793d ea39 57bb cd2d e43d 8f58 333e
000000a0: 817b c83d 0607 83bd 94b7 443e ff22 6c3d
000000b0: 57cf 3a3d 6cc6 f2bd 7245 5ebe 1d93 4abe
000000c0: d6d5 d33d 57b3 dcbd 9e2e 5bbd 03cb ed3d
000000d0: ed05 54bd 27b4 6a3d d20c 6ebc c99d 833d
000000e0: 26a6 93bd 6953 95be 3ab2 02be b9c4 e23b
000000f0: feae 243d 3861 afbd f474 063e 23d5 b03c
00000100: 729b 063e e0d6 933c d117 13be d683 7d3d
00000110: 3146 23be c29b 323e 4d4d 3a3e 7f82 833d
00000120: 3cee 44be 7b2f ffbd 084e 11be 84bc a03e
00000130: ac6b e33d 4e38 cb3d 7f34 2bbe c699 83be
00000140: 17b2 07be c7cb bdbe ca87 4cbe 054b c8bc
00000150: 7879 e03c f75f 933e 7c37 b93e e5ba 96be
00000160: 0dc6 26be d555 33be 4db9 50be d10e 09bf
00000170: 54df e7bc f9e3 c8be e3ab b2be b000 87bd
00000180: fba4 20be 412b ce3c 865c 1b3b a8a7 2bbe
00000190: 18ba 13be f5b7 c2bd 9be1 58be f130 28bd
000001a0: 7460 a9be 8354 4fbd c537 cabd 3f31 14bd
000001b0: 3015 003d 3595 223d d34b cbbd ae6b 3c3e
000001c0: 0a96 663e 6bf9 e43d e940 1dbe 027f d83d
000001d0: b1a6 81bd 44cd 66bc 0f15 63bd 0994 a63c
000001e0: b6bb 503d af47 b7bd 06d9 96be 9e02 043e
000001f0: 815c f03d 8c89 2bbd aa40 073e a8a8 4e3e
00000200: 1308 0c3e e89c db3d 175d 1abe 58b3 b4bd
00000210: 7128 2f3e be7c 1c3e 4e19 1e3e dd45 d2bd
00000220: 70fb 9c3d cd73 1cbe 98b9 e53b 64fa 88be
00000230: d890 8ebe fb54 1a3c ffc3 823e 3d6a 663e
00000240: bf42 2bbd 6cda f4bd 8587 723d 22b1 2d3e
00000250: 689a d33d e586 183d 808f 193d 81cc 96bc
00000260: 6377 6e3e e308 423e 9c7c 113e b165 d9bd
00000270: 9c30 fe3c e43e 8e3e d529 f33d 72a1 f33d
00000280: 0949 8cbd d8ad 043e 1599 0c3e b5b1 0b3e
00000290: 27e0 6b3e e30a 48be 7d82 53bd 61c6 8f3d
000002a0: 4639 1c3d 16c3 cabe ff2f d0bd 60d8 cbbc
000002b0: f39c c23d bcf5 183e 3f6e 083e d4dd 663e
000002c0: f583 5cbd ab71 513c bf2e b83d 2f21 b03e
000002d0: cf42 1bbc f3e6 ea3d 9d88 4e3e 057e 003e
000002e0: e9a6 e8bc bfd2 283d eeb1 58bc 5735 18be
000002f0: c23b 1dbc 8e19 063e 0687 80bd 1763 87bd
00000300: 7626 32bc c19b 5e3d df10 3f3e d626 813c
00000310: 6971 33bd 36a6 9cbc 35ca 62be d890 fdbe
00000320: 26b5 bbbe d752 ecbc b823 0d3d 69e2 843d
00000330: 5a52 cebb c272 123d b5af 193d c986 38be
00000340: 000c 99be 9777 98bd 94eb 55bd 62c5 19be
00000350: 3ebe 483d f69b 62be 6736 15be ac28 15bd
00000360: 083f b5bd b8f2 3bbe 07d9 f1bd 43ba 223e
00000370: 503f 0f3e d4e3 e4bc f5ae 3dba 0e41 963a
00000380: 258b 3e3c 492f 413d a83f 9ebd 7606 233d
00000390: ddf4 89bd a11e 06be 2328 40be 373f 0c3d
000003a0: cb9d 053e c92b 4b3e eed0 69bd 45c9 ddbe
000003b0: 45b2 bbbe 3d5d 29be 5531 9e3b d1df b93d
000003c0: 9efa 58be e21a 243c 7fcf 4d3d 9e47 05bc
000003d0: 4f8e 503d 69e0 d7bd 152d 083e 0397 743d
000003e0: c1a5 2dbd f0db 1dbc f30d a73d cfc1 7a3d
000003f0: 5a8f 033e dc5e a53d f934 0d3e ff88 253e
-0.11965052 -0.012271956 0.14027701 -0.043466095 0.08944319 -0.040266663 0.15559171 0.16981174
-0.020342771 0.17902479 0.030296447 0.004169154 -0.11158867 0.09593335 0.046415087 -0.19786325
0.11851595 0.034347553 -0.14758098 -0.23732834 -0.33162573 0.084272794 0.108077705 -0.10525924
-0.12289865 -0.09392193 -0.25048816 0.03843057 0.06864563 0.04505343 0.034088455 -0.118515976
-0.110767044 -0.043792233 0.14590307 -0.108393654 0.060936354 -0.0032840916 0.11141548 0.17514251
0.097891815 -0.06397824 0.19210654 0.057650562 0.04560789 -0.11854252 -0.21706179 -0.19782682
0.1034352 -0.10776394 -0.053511254 0.11610987 -0.051763464 0.057300713 -0.014529424 0.064265795
-0.07209425 -0.291652 -0.127633 0.006920424 0.040205948 -0.08563465 0.13130552 0.021586007
0.13145235 0.018046796 -0.14364554 0.061893307 -0.15944745 0.1744223 0.1819355 0.064213745
-0.19231504 -0.12460228 -0.14189923 0.31393826 0.11104521 0.09922849 -0.16719244 -0.25703257
-0.1325153 -0.37069532 -0.19973674 -0.024449835 0.02740167 0.28784153 0.36175144 -0.29439464
-0.16286488 -0.17513211 -0.20383187 -0.53538233 -0.028304733 -0.3923643 -0.34896764 -0.06591928
-0.15687935 0.02516711 0.0023706271 -0.16763175 -0.14426458 -0.09507743 -0.21179812 -0.0410623
-0.330814 -0.050617706 -0.098739184 -0.036179777 0.031270206 0.039693076 -0.09926572 0.18400452
0.22518173 0.11180385 -0.15356793 0.105711 -0.06330622 -0.014087025 -0.055440005 0.02033426
0.050960265 -0.089492194 -0.2946245 0.12891623 0.11736394 -0.04187922 0.13208261 0.20181525
0.13674955 0.10723287 -0.15074573 -0.088232696 0.17105271 0.1528196 0.1543934 -0.102672316
0.076651454 -0.1527855 0.00701065 -0.26753533 -0.27844882 0.009419675 0.25540158 0.22501464
-0.0418117 -0.11955723 0.059211273 0.16962102 0.10332185 0.03723802 0.037490368 -0.018408062
0.2328773 0.18948703 0.14207691 -0.10615099 0.031029038 0.27782357 0.11873213 0.118960276
-0.06849868 0.12956941 0.13730271 0.13642009 0.23034726 -0.19535403 -0.051638115 0.0702026
0.038140558 -0.39601964 -0.101654045 -0.02488345 0.09502592 0.1493749 0.13323306 0.22545558
-0.05383678 0.012783448 0.08993291 0.34400317 -0.009476378 0.11469831 0.20169301 0.12548073
-0.028399901 0.041216608 -0.0132260155 -0.14864098 -0.009596767 0.13095686 -0.06275754 -0.06610697
-0.010873428 0.054347757 0.1865878 0.015765589 -0.04380933 -0.019122224 -0.22147448 -0.4952457
-0.36661643 -0.028848095 0.034457892 0.06488497 -0.006296438 0.035753973 0.037521083 -0.18020166
-0.29891968 -0.07444685 -0.052226618 -0.15016702 0.049009554 -0.22129807 -0.14571534 -0.03641574
-0.08849913 -0.18354309 -0.11808973 0.15891366 0.13988996 -0.027940668 -0.00072358485 0.001146348
0.011629854 0.047164235 -0.07726985 0.039801084 -0.06736157 -0.13097622 -0.18765311 0.034239974
0.13048474 0.19840921 -0.057084017 -0.4331762 -0.36659446 -0.16539474 0.004827658 0.09075893
-0.21189353 0.010016175 0.05024671 -0.008134751 0.050916966 -0.1054085 0.13298447 0.05971433
-0.042394403 -0.009634957 0.081569575 0.061219987 0.12847653 0.080747336 0.13789739 0.16165541

conv3.bias f4 [32]
00000000: a9ab c9bd 9d86 eabe 467d 24be 6766 a7bd
00000010: 964c 8cbe 40a5 b5bd 4a11 a3be 718c 35be
00000020: 1c52 68bd 4ef9 1fbe 7da5 22bd 937e 85bc
00000030: b47f 8fbe ee1c a9be 052f 92be 39cf 61be
00000040: 3858 f83c 5745 40be f219 04be eaf9 34be
00000050: 2f75 03bf 2cd7 e03c f410 1abe 25a9 f0bd
00000060: 9971 bebe 5906 a4be de87 493d 6946 31be
00000070: 78d8 60be 5d1a c23d 5c86 83be c3d1 56be
-0.09847195 -0.45805827 -0.16063413 -0.081738286 -0.2740218 -0.088694096 -0.31849128 -0.17729355
-0.05671893 -0.15622446 -0.039708603 -0.016295707 -0.28027117 -0.33029884 -0.28551498 -0.22051705
0.030315503 -0.18776451 -0.12900522 -0.1767346 -0.5135068 0.027446352 -0.1504553 -0.11751012
-0.37196043 -0.32036093 0.04920184 -0.17312016 -0.21957576 0.09477685 -0.25688446 -0.20978455

bn3.weight f4 [32]
00000000: bf07 703f 5f65 823f d24e 693f 2c44 6d3f
00000010: a9c3 8f3f 0305 873f ad65 7d3f 107e 603f
00000020: 57b0 853f 8325 843f 32d7 823f 206e 773f
00000030: 1e3e 863f 2283 823f b001 633f 3425 823f
00000040: c731 813f 01d4 7b3f e66a 7d3f 5f3c 703f
00000050: 4a8b 713f 2693 893f 1f8f 873f 87bc 803f
00000060: 8161 7b3f d4ff 5c3f 1ec0 733f d5e5 773f
00000070: 83f4 763f ef98 853f 4148 7d3f 0eaa 853f
0.9376182 1.0187186 0.91135895 0.9268215 1.1231586 1.0548404 0.9898327 0.87692356
1.044444 1.0323948 1.0221922 0.9665241 1.0487707 1.0196269 0.8867445 1.0167603
1.0093316 0.9837037 0.9899124 0.9384212 0.94353163 1.0748031 1.0590552 1.0057534
0.98195654 0.8632786 0.9521502 0.9683507 0.96466845 1.0437297 0.98938376 1.0442522

bn3.bias f4 [32]
00000000: ab12 44be a1ce f6bd a6ed 5f3e d082 563d
00000010: b1be 043f 853e adbc f881 62bc dc3f cb3d
00000020: 38be 63bc eb15 e83c 4ac8 143e 9c7f 9dbc
00000030: ff2a 373e 7704 53bd caac cc3c 5e70 0bbe
00000040: 2251 7e3d 89f6 8e3e 721f 92be 8ed4 f93e
00000050: 16ec 333e 794f 15be 8608 81be 5350 a7be
00000060: 4775 9c3e b9d9 5bbe b97a a53e fb61 3d3e
00000070: c836 933e 50b8 793e c660 e2bb 1543 843e
-0.19147746 -0.1205113 0.21868 0.052370846 0.5185347 -0.021147976 -0.013824932 0.099242896
-0.013900332 0.028330764 0.14529529 -0.019225888 0.17887495 -0.05151793 0.024984736 -0.13617083
0.062089093 0.27922466 -0.28539616 0.4879498 0.17570528 -0.14581098 -0.25201815 -0.3267847
0.30558226 -0.21469773 0.32320192 0.18494408 0.28752732 0.24386716 -0.006908509 0.2583243

bn3.running_mean f4 [32]
00000000: 9322 b53f a935 4d3e cfc0 933e 9302 a03e
00000010: 0a26 673e ab4e 923e a46b 553e cb19 1b3f
00000020: 9ae4 293f 098a 093f c814 1d3f bdbc 883f
00000030: 1ba6 523f 9c47 a93e 81b1 6a3e db25 a33e
00000040: 55dd a23e ce05 043f 429b a83e 4023 093f
00000050: 274f e73d c2a5 723f ec80 cb3e 1a80 3d3f
00000060: fb2d 503e 278d 993e 1af3 573f ecc9 6a3e
00000070: 4026 b83e dc8f 913f fd3a 6b3e be22 0a3f
1.4151176 0.20040001 0.2885804 0.31251964 0.22573105 0.28575644 0.20841843 0.6058623
0.66364443 0.5372625 0.61359835 1.0682598 0.82284707 0.33062446 0.22919275 0.3186482
0.31809488 0.5157136 0.32930952 0.5356941 0.11294394 0.94784176 0.39746797 0.7402359
0.2033004 0.29990503 0.8435532 0.2292859 0.35966682 1.1372027 0.22971721 0.5395926

bn3.running_var f4 [32]
00000000: 00af aa3f ae72 bb3e 7bba 393f 8934 223f
00000010: 6576 cf3e 9b1a 173f a584 e13e cbbf 583f
00000020: ee93 c83f 88aa 8e3f 6117 e13f 10a9 b53f
00000030: 182c ff3f a396 5a3f fecb f03e 9bf2 3f3f
00000040: 2d26 243f 33ce a93f 8f13 473f ff66 9a3f
00000050: 26cb 3e3e bdbe 3440 0843 443f a370 883f
00000060: 345e ab3e 1f93 363f 85be a63f accd e93e
00000070: 6fab 483f d640 b93f 2eb1 f53e 14a7 893f
1.3334656 0.3661093 0.7255017 0.6336141 0.40520015 0.5902497 0.44046512 0.8466765
1.5670145 1.1145792 1.758526 1.4192219 1.9935331 0.85386103 0.47030634 0.7497956
0.6412075 1.3266052 0.7776422 1.2062682 0.18632182 2.8241417 0.7666478 1.0659374
0.3347031 0.7131824 1.3026892 0.45664728 0.78386587 1.4472911 0.4798674 1.0754113

conv4.weight f4 [64, 32, 3, 3]
00000000: 8e27 ae3d aa1a 93bc 93c3 0a3d 6fc9 36bd
00000010: 1abc 6fbd 118b 0dbe c50a adbd 1167 26bd
00000020: 4d80 47be 259f 74be 0a3e a5be a169 7fbe
00000030: 75cf 383d 2164 8a3d eed1 d23d ec80 c3bc
00000040: 179e b0bc f5d3 ff3b 3616 d43d b15f 2b3e
00000050: 6e40 323d c723 f1bd 60fa 113c 8bae 28be
00000060: bfd4 4d3d 8f96 2c3e 580b b43d 6bd8 fbbd
00000070: 3d8a 37be b433 4abc c5a6 d3bb 3b88 583c
00000080: 80d3 d4bd 57de 68bd 8529 cbbd 9e8c 26be
00000090: 00a4 e4bb 3bf1 f7bc d38f cabd 693b dd3d
000000a0: 132f 553e de6f 283e a979 15bc 8761 c6bc
000000b0: 956b a43b ad14 89bd 188b 8abc 7217 8a3c
000000c0: f9a6 4b3b 3658 14be 2677 bcbd 0036 dc3d
000000d0: 0582 3f3d fc8d 393c e2fb 013e db6f 4e3e
000000e0: 04e1 763d f194 68be d962 debd 5132 51bd
000000f0: 438b f8bd 0f8f 193d ff4d 9f3d f6c2 fa3d
00000100: e1d4 2f3e 13a3 983d 2e9f 893c 1c88 f33d
00000110: 45c6 013e 024e fd3d 3635 b5bc dc1b e7bc
00000120: 5bad 133e 8a08 823e e7e3 493e dd14 fe3d
00000130: 6db5 033e b827 073e e670 8c3e 758f a23e
00000140: b4e2 063e 5933 dc3d 3829 713d aba8 b3bc
00000150: f343 94bd 45e3 65bd f9ef acbc 2544 033e
00000160: 154f c13c 3070 b93d 9334 083e ea38 2e3e
00000170: 783d 913e 2944 15bd ecf9 91bd cdee 143d
00000180: 3aa5 083e 21eb 773d b6da 1c3d da74 eebd
00000190: 6c17 9abd 1361 7bbd 760e 243c 3cab 40bd
000001a0: 0550 1cbc 2063 e23d be9f 063d bd45 a63d
000001b0: 6454 d23d eaf6 123e d2b7 193e 483c 09be
000001c0: b9ec 80bd 2fc6 98bb 88c8 0b3e e72e 343e
000001d0: b4fa 0a3e f9f6 6bbe dbb3 35be ae12 f5bd
000001e0: a82e 19bd c0f7 47bd fce5 a2bd 043c 113e
000001f0: 4528 f83d 93bc fe3d 5662 223d 13d5 57bd
00000200: 2277 68be 61df 37bd 5896 233d b53a 593d
00000210: a2c9 3bbc 1081 7ebd 6e4a febd 82e1 01be
00000220: ad39 f7bd 368b fdbd f9c8 b6bd d15a 64bd
00000230: d7cf 3c3d 4352 083b fbb2 8cbc 5886 6abd
00000240: 80de 3e3c 253f 813c d4a2 873d dc02 bbbd
00000250: b576 d4bd b36f 2cbe f6e5 2abe 850d 20be
00000260: 77d4 68bd 3a01 703c 6716 953d bda3 dc3c
00000270: 829d cabb 6af8 7f3b 9586 e6bd c3d2 373d
00000280: e183 a23d 1bd5 39bc 5b08 153e e0b8 453d
00000290: 5259 14bd eab3 adbd 8474 36bd 4995 9ebd
000002a0: f190 cfbc 8732 cb3c 27ec 033e b0fb fcbc
000002b0: 6227 37bc 5b15 79ba 310e 16bd b3fd a8bd
000002c0: 281a a3bd 9939 abbe ed32 e6bd 68d4 20be
000002d0: 67ff 70bd 699e a1bd 0f3d a4bb f448 ebbd
000002e0: 28a8 9dbd 45d8 ecbd 9a54 09be b592 32be
000002f0: 20a8 54be e237 4ebd e02d e5bd fc09 34be
00000300: ef13 683d b700 d5bc 0259 2dbc 463f c23b
00000310: f7d0 35bd 1cdc 11bd 9a0c 06be 6c2a a2be
00000320: c3be 1dbe 8fc2 50bd 5c4c 0abd 0924 08bd
00000330: 4287 02be 9cf1 77be 13c3 c0bd c9e6 c2bc
00000340: b354 96bb efa8 97bc f595 0dbd 667f e03d
00000350: a76f e53d 3444 d23d 1b15 433e 5835 823e
00000360: de4e 22be 83cd 20be 49fb 58be 3c9d 91bd
00000370: 688c e9bd 10e6 20be 0200 09bd 4f93 44bd
00000380: c567 84bd 71d4 0dbe 2742 393c 81c5 063d
00000390: 0666 293d a5d9 b73d def1 143e be50 193c
000003a0: e75b 9fbc 8e30 13bc 2bda 57bd 96b0 8bbc
000003b0: ecf6 51be 030b bbbd 1155 b53b 94e8 033d
000003c0: 050f 8cbd d6a8 c3bd e4b9 10be 48a2 753e
000003d0: 8ab4 173e 32b2 c33d 490d 8dbc 3977 3ebb
000003e0: 7229 123d b168 5b3d 5329 babd ec41 0abe
000003f0: a2b8 59be be89 9fbd 14e6 aa3a ed76 0cbe
0.08503638 -0.01795705 0.03387792 -0.044625696 -0.058528997 -0.13822581 -0.0844932 -0.040625636
-0.19482537 -0.23888834 -0.32273895 -0.24942638 0.04511972 0.06757379 0.10293947 -0.023865186
-0.021559758 0.0078072497 0.10355799 0.16735722 0.043518476 -0.11774402 0.008909792 -0.16472833
0.05025172 0.16854309 0.08791226 -0.12297138 -0.17923827 -0.012341429 -0.0064590895 0.013216074
-0.10391903 -0.056852665 -0.099200286 -0.16264579 -0.006977558 -0.030266395 -0.098907135 0.10802347
0.20818739 0.16448924 -0.009123244 -0.024216427 0.0050177076 -0.06693397 -0.016912028 0.016856883
0.0031074865 -0.14486775 -0.09202413 0.10752487 0.046754856 0.011325356 0.12693742 0.20159857
0.060273185 -0.22713067 -0.108586974 -0.051073376 -0.12135937 0.037489947 0.077785484 0.12244217
0.1717105 0.07452979 0.016799536 0.11891195 0.1267329 0.123683944 -0.0221201 -0.028211527
0.14421599 0.2539714 0.19715844 0.12406323 0.12862177 0.13198745 0.27429885 0.31750074
0.13172418 0.10751981 0.0588772 -0.021931013 -0.07239523 -0.056124944 -0.021110522 0.12818964
0.02359728 0.09054601 0.13301305 0.17013898 0.2836721 -0.036441956 -0.07127747 0.03636055
0.13344279 0.06052697 0.038294517 -0.116433814 -0.075239986 -0.061371874 0.010013213 -0.0470383
-0.0095405625 0.11054063 0.032867186 0.0811877 0.102700025 0.14352003 0.15011528 -0.13401902
-0.06295151 -0.004662297 0.13650715 0.17596017 0.13572198 -0.23043431 -0.1774439 -0.119664535
-0.03739801 -0.048820257 -0.07954022 0.1418305 0.12117056 0.124383114 0.03964456 -0.052693438
-0.22701696 -0.044890765 0.0399383 0.053034503 -0.011461647 -0.062134802 -0.1241654 -0.1268368
-0.12071548 -0.12380068 -0.08925051 -0.05575067 0.04609665 0.0020800985 -0.017175188 -0.057257026
0.011649728 0.01577718 0.06622854 -0.09131405 -0.10374204 -0.16839485 -0.16689286 -0.15630157
-0.056843247 0.01464873 0.072796635 0.026933545 -0.006183327 0.0039057978 -0.11256138 0.044878732
0.0793531 -0.011342312 0.14553969 0.048272014 -0.036217995 -0.084815815 -0.04454471 -0.07743318
-0.025337668 0.024804367 0.12883054 -0.030881733 -0.011178823 -0.00095017784 -0.036634628 -0.08251514
-0.07963973 -0.3344238 -0.11240182 -0.15706027 -0.05883732 -0.078915425 -0.0050121616 -0.11488524
-0.07698089 -0.11564688 -0.13411179 -0.17438777 -0.2076726 -0.050346263 -0.111903906 -0.17581934
0.056659635 -0.026001317 -0.010580303 0.005927953 -0.044388738 -0.035610303 -0.13090745 -0.3167299
-0.15404801 -0.050966796 -0.03376423 -0.03323749 -0.1274691 -0.2421326 -0.094122075 -0.023791688
-0.0045877337 -0.018513171 -0.03456684 0.10961799 0.112029366 0.10266915 0.1905102 0.25431323
-0.15850398 -0.15703396 -0.21189608 -0.07110068 -0.114037335 -0.15712762 -0.033447273 -0.047992047
-0.06465105 -0.13850571 0.011307276 0.0329032 0.041357063 0.08977059 0.1454539 0.009357629
-0.019453002 -0.008983744 -0.052698296 -0.017051976 -0.2050435 -0.0913296 0.0055338223 0.032204226
-0.06838802 -0.09553687 -0.14133412 0.23987687 0.14814964 0.095554724 -0.017218249 -0.0029062761
0.035684057 0.05356664 -0.09089913 -0.1350171 -0.21261838 -0.07789944 0.0013038539 -0.13717242

conv4.bias f4 [64]
00000000: 2cad a23e 4bca 7abc e5b3 57be b0bf 8ebd
00000010: 7827 163c de00 09be aece 8bbe b26c a0be
00000020: c694 eabe 2b6f 40be 51c0 953c b2b0 1bbe
00000030: 2b2f 9dbe bba0 d4be 4cbe 9fbd dc63 88bc
00000040: a87c a0be 1564 d0bd fd71 88be 0d0a 97bd
00000050: 88c8 0abe 7c75 93be ea04 ccbe db45 813d
00000060: 5215 5cbe 44fa 62be 2c32 9abd d68d c0be
00000070: bee5 b1be e4b1 ddbe cd23 aabe 1e11 4fbe
00000080: e57b a8be 93d1 7cbe 680c 96be 0c93 54bd
00000090: 688d 0c3c 77a0 39be d6da cbbe d06a 91be
000000a0: c8d0 983d f28b 81bd 600c 293e a239 233e
000000b0: bc54 98be ecfb d0be 6d5c 03bf 37a7 04be
000000c0: b6ce e1be 2ca1 5dbe 1b02 a3be 40ba cfbe
000000d0: 9661 a5be 12c4 0dbe efad 82be 895a a4bd
000000e0: 42bc 00be 7ce3 863d d4d4 07be cce3 18be
000000f0: 7e5d 98bd 1172 46be 3808 14bf 17ad 93be
0.31772745 -0.015307019 -0.21064718 -0.06970155 0.0091646835 -0.13379237 -0.27306122 -0.31332928
-0.4581663 -0.18792407 0.01828018 -0.15204123 -0.3070005 -0.41528878 -0.07799968 -0.01664918
-0.31345105 -0.10175339 -0.26649466 -0.07374964 -0.13553059 -0.2880057 -0.398475 0.06312152
-0.21492508 -0.22165781 -0.07529101 -0.37608212 -0.34745592 -0.43299782 -0.3323044 -0.20221373
-0.32907024 -0.24689321 -0.2930634 -0.051898047 0.008578636 -0.18127619 -0.39815396 -0.28401804
0.07461697 -0.063255206 0.16508627 0.15939954 -0.29752147 -0.408172 -0.51312906 -0.12954412
-0.4410302 -0.21643513 -0.31837544 -0.40571785 -0.32301015 -0.13844326 -0.25523326 -0.08025081
-0.12571815 0.06586358 -0.13264781 -0.14930648 -0.07439707 -0.1937945 -0.5782504 -0.28842995

bn4.weight f4 [64]
00000000: b32a 1b40 7a18 1540 f0d8 3440 b4e5 2940
00000010: e477 fe3f ba03 3840 af61 4840 3efd 1d40
00000020: fab5 3140 17d0 3640 cccd 0140 5711 1540
00000030: 148f 4440 a7c5 2740 8d95 2040 d074 1240
00000040: df6f 5940 846b 0e40 c7ea 3940 9339 0f40
00000050: 6c88 4840 cf2b 3640 a433 6240 fec7 0040
00000060: d650 4f40 7020 2140 9154 2340 d491 4540
00000070: 2993 3f40 e974 3640 027c 1f40 9417 2d40
00000080: c313 2c40 b256 5540 4ec3 1f40 2bc7 0840
00000090: 4ba8 e53f 1ead 1b40 5f33 3a40 56c2 2f40
000000a0: f655 0f40 91f1 1740 3400 fa3f a37b 1b40
000000b0: bbe2 2540 86da 2640 a947 2740 08d9 0a40
000000c0: b1c8 3c40 c37b 5f40 c557 2940 10f5 1040
000000d0: be98 2440 0ca0 1c40 b82e 0240 1cb3 1640
000000e0: e568 2b40 4107 1540 a757 4f40 0f10 1740
000000f0: f9e9 2e40 e29d 0840 d0b1 3740 5f3c 2540
2.4244812 2.329619 2.8257408 2.654645 1.9880338 2.8752275 3.1309621 2.4685817
2.776732 2.8564508 2.0281858 2.3291833 3.0712328 2.6214387 2.5091279 2.2883797
3.397453 2.2253122 2.9049547 2.237889 3.1333265 2.8464239 3.534402 2.0122066
3.2393088 2.5176048 2.5520365 3.0870256 2.993357 2.8508856 2.4919438 2.704564
2.6887062 3.3334165 2.4962955 2.1371562 1.7941984 2.4324412 2.9093854 2.7462363
2.2396216 2.374119 1.9531312 2.4294212 2.5919635 2.6070876 2.6137488 2.1694965
2.9497492 3.4919288 2.645982 2.2649574 2.5718226 2.4472685 2.0341015 2.354682
2.6782773 2.3285677 3.2397249 2.3603551 2.7330306 2.1346364 2.8702278 2.5818098

bn4.bias f4 [64]
00000000: acfd 6c3e 8c83 923e b682 5f3e c6c3 6abe
00000010: 020f 3ebe 7f0c 4e3e 49f1 29be 1c40 333e
00000020: 6252 29be 0560 553e 458c 9abe 06d2 523e
00000030: cc83 6abe d63d 8fbe 5c8e 5b3e ebf4 873e
00000040: 5daf 203e 8ca3 4abe f773 713e 53c0 033e
00000050: 72c6 8f3e a985 9a3e d6fa df3d 8e05 3a3e
00000060: d44e f9bd 5e5f 17be 5c86 0abe 2241 803e
00000070: ecd9 92be 4ea6 16be c154 2c3e 8574 20be
00000080: 368e 4bbe 4737 4bbe 10c8 9bbe 4009 233e
00000090: e824 1b3e a4ed 8abe de4a 7ebe da8d f4bd
000000a0: b8bb 473e 9cd8 5bbe 013c 333e 6a05 4cbe
000000b0: c5eb 07be d407 fb3d 2c28 52be 65f8 933e
000000c0: 8e7d 66be 9e8c 823e 5394 7ebe d2f7 213e
000000d0: f921 a4be f520 533e 0698 1b3e c7d1 4cbe
000000e0: 638b f5bd 93f0 823e 5ac8 713e c8c0 83be
000000f0: 95bd 7d3e 8546 78be 7dba 9fbe ede4 f2bd
0.23143643 0.28615987 0.21827206 -0.22926244 -0.18560413 0.20121954 -0.16595949 0.17504925
-0.16535333 0.2083741 -0.30185142 0.2058793 -0.22901839 -0.27976865 0.21441025 0.26554045
0.15691896 -0.1978895 0.23579393 0.12866335 0.2808109 0.301801 0.10936515 0.18166181
-0.121732384 -0.14782473 -0.13527817 0.25049692 -0.28681886 -0.14711878 0.16829206 -0.15669449
-0.19878468 -0.19845305 -0.30426073 0.15921497 0.15150797 -0.2713443 -0.24833247 -0.119411185
0.19505203 -0.21469349 0.17503358 -0.1992394 -0.13273533 0.122573525 -0.20523137 0.28900447
-0.22508833 0.25497907 -0.24861269 0.15817192 -0.3205717 0.20618041 0.15194711 -0.20001899
-0.119894765 0.2557417 0.23611584 -0.25733018 0.24779351 -0.24245651 -0.31196967 -0.118600704

bn4.running_mean f4 [64]
00000000: 0e10 563f 7fd7 033f f7da 713d eb36 6c3e
00000010: 9ffe 183f b2da e43d 3297 e63d ebc3 3d3e
00000020: 4198 ac3d 3473 633e 4701 2b3f de5a 773e
00000030: 0b47 b73d 6331 403e 10ea 843e a86c 3a3e
00000040: 3a4f 0a3e bc99 703e d760 753e 4cb4 533f
00000050: a96e 013e 421a 093e 8e0c 083e d0a3 8b3f
00000060: 73e9 b63d c871 3f3e b640 3c3e 6f92 103e
00000070: 97b1 803d 3d76 993d 089a 5a3e f49a ef3d
00000080: 6b8d 413e 8521 8e3d d8e4 773e d4dc 683f
00000090: 7eba 883f ea10 b13e 2fd5 673d eda6 ed3d
000000a0: be52 dc3e 4419 a33e 8ebc 5f3f 2bb4 6b3f
000000b0: 005f 2a3e c257 3f3e 8d25 c03d b4cc cf3d
000000c0: f1d7 d93d 8a94 493d 27ce ca3d d63e 293e
000000d0: c34a 493e dcb0 a03e 6776 9c3e d9a9 113f
000000e0: 4284 0d3e 72eb 6e3e f259 753d 1d89 5a3e
000000f0: 73ed 023e c423 063f 5f15 103e c343 923d
0.8361825 0.51500696 0.05904671 0.23067825 0.5976352 0.11174525 0.11259307 0.18531768
0.08427478 0.22211915 0.66798824 0.24155757 0.08949097 0.1876884 0.25959826 0.18205512
0.13506785 0.23496145 0.23962723 0.82696986 0.1263987 0.13388923 0.13286039 1.0909367
0.08931246 0.18695748 0.1838406 0.1411836 0.062838726 0.07493255 0.21347821 0.11699477
0.18901603 0.06939987 0.2420839 0.90961957 1.0681913 0.34583217 0.056599792 0.11604104
0.43031877 0.31855214 0.87397087 0.9207179 0.16637802 0.1868582 0.09382162 0.10146466
0.10636891 0.049213924 0.09902602 0.16527876 0.19657426 0.31384933 0.30559084 0.5689979
0.13819984 0.23332003 0.05990023 0.21341367 0.12785892 0.52398324 0.14070652 0.07141831

bn4.running_var f4 [64]
00000000: 2259 903f 7cb7 653f a4fc d73d 7aaf ef3e
00000010: 3fb2 5f3f 3a4b 423e c02a 693e 8ab5 983e
00000020: b6c9 573e 17ff f83e 6a0c ad3f dac6 003f
00000030: 5257 213e 3a01 eb3e 62ab 053f 734d 9c3e
00000040: 44ae 863e ae17 d13e 3f69 093f bc34 8a3f
00000050: 8baa 603e ad31 9b3e 3231 723e 49d3 0040
00000060: 147f 3c3e 6bf1 b83e 6e13 743e f0af 8a3e
00000070: 8b99 233e 7e36 563e a21a ba3e 70e1 4a3e
00000080: 8d24 b33e 92ac 273e e685 053f 9b01 dd3f
00000090: 3ec2 0740 e8b5 d03e 6680 c93d 8cfc a93e
000000a0: 79ac 4a3f c41f 073f cb84 f33f 89c8 953f
000000b0: fb77 0a3f 3051 973e 561f 273e 81b4 563e
000000c0: beb2 593e f20f da3d d855 413e baef a73e
000000d0: cc27 ba3e c925 633f 23df 173f 6ea9 333f
000000e0: f93e 8f3e f81e d33e cba0 d13d 1494 ec3e
000000f0: 3f3c 5d3e dcd6 8b3f 0305 8b3e 92ee ee3d
1.1277201 0.897331 0.10546234 0.46813565 0.87381357 0.18974009 0.22770214 0.29826003
0.2107304 0.48632118 1.3519413 0.50303423 0.15755966 0.45899373 0.52214634 0.3052784
0.2630483 0.4083838 0.5367622 1.0797343 0.21940057 0.30311337 0.23651579 2.0128958
0.18407851 0.36121687 0.23835537 0.27087355 0.1597654 0.20919225 0.36348444 0.1981256
0.34988824 0.16374424 0.5215744 1.7266115 2.1212306 0.40763783 0.09838943 0.3320049
0.7916942 0.52782845 1.90249 1.1701823 0.54089326 0.2955413 0.16320547 0.20967294
0.21259591 0.106475726 0.18880403 0.32800084 0.36358488 0.8872953 0.59324855 0.70180404
0.27977732 0.41234565 0.10235747 0.46206725 0.21605013 1.0924945 0.2715226 0.116665974

lin.weight f4 [10, 64]
00000000: 9942 5a3e 52b9 953e 2f4b b63e b8a1 07bd
00000010: d5a4 ecbe ce47 3c3f 757d 97bf e5fd 5d3f
00000020: 8ef8 92bd 8302 113f 15ad 723e 146a 303f
00000030: 682e 48bf 1b93 503f 7f27 91be 4b8e a1be
00000040: 26a8 df3e d617 38be 245b 773e 8f56 6b3f
00000050: 7b7e 7fbc 76b0 8f3e ebf0 c13f f6a5 8c3e
00000060: ef33 9fbf e2f4 50bf abbb 37bf 5a09 d13d
00000070: 35d7 c3be e3f5 3fbf deb7 4c3f e3bb 63bf
00000080: c5b3 93be 1dba 2abf 292d 373f 6884 483f
00000090: 7574 c73e 62b8 68bd 4640 6fbd 7d10 6dbf
000000a0: 7743 9f3e ecce 03be d462 db3e f1a6 46be
000000b0: 59db 64bf c59f 223f 0d02 90be d74b 99be
000000c0: 07fb 08bf 4cf7 54bf 9a84 493e 0052 663f
000000d0: e5d9 473f 8fef 083f db34 1d3f 4dac 82be
000000e0: d81d 9bbf 4fa3 9cbd 8547 913e ce77 303f
000000f0: 590c 10bf 0c88 be3e db11 133f 5eca 9cbf
00000100: 0a46 0b3d aecb dc3e d915 25bd d68a 4c3f
00000110: 9160 38be 02cb 843e 320e f8bd 9bdc 34bc
00000120: 1ea5 a03f f799 143f e559 b5bd 6989 003e
00000130: 66a3 debd ffc5 3ebf 9406 173f 3893 5b3f
00000140: fd5c 88bf 9788 f6be 575c 663f 7215 90be
00000150: c1c4 563f 8336 253f 9a14 a6bf e9a3 46bf
00000160: 417d 1b3f 5871 b83e 0cd8 f23e 66d7 61bf
00000170: f194 6bbe 0059 bb3f 35a0 2ebf 4acf 3f3e
00000180: bcee 27bf e0dc 793f 0ded e9be cfbc 1dbf
00000190: 84da aebe 939d 08be 8227 933f f0b9 733f
000001a0: bebb 953d c34c f5be 6b95 803e c71e f83d
000001b0: 00ec 773f 1f30 83bf ef2d cabe 69b2 2d3f
000001c0: 86e5 12bf 06df 9fbe 267d 97be 7f56 e4be
000001d0: 5491 13bf a7cb 173f ce03 cd3d d9d7 933e
000001e0: 887f 7c3f f7b2 443f b049 773f 892c 35be
000001f0: a6d3 163f 4e3d 0ebf 5e5b 65bf 24d2 913f
00000200: 2fcb b63e 3371 9bbf 9bfb 683f 7800 9a3d
00000210: 43a7 883f 3922 abbe 47d3 ccbe 4c5b 17bf
00000220: beeb a7be 7df3 f6be f927 e7be 73f8 fdbe
00000230: 35e0 86be f390 1bbe 0a61 ecbe ddfe 37bf
00000240: fc2e 573f b177 c63e f171 42bf b893 763d
00000250: c937 273f 2cbc 88bf f44c 873f fd40 b33e
00000260: 558d 7cbe d137 4a3f 158f b63e 1414 6cbf
00000270: 5d4f ef3f 9732 66be 9977 b8bf 2700 ba3f
00000280: 20f8 c43e a85d 8d3f 2841 41be 44c8 673b
00000290: 50a0 5fbf 516b f73f 57f8 82bd 9574 ddbe
000002a0: 71ac 3dbf d066 113f 9d19 1cbf fb6b 073f
000002b0: f4b3 b6be da34 cb3d 0ab9 a73c 43a9 f6be
000002c0: ba07 96be 64ad 393f cc97 b1be 5693 88bf
000002d0: bdd5 9fbd f962 28bf 17fc 2fbf 60cc cf3f
000002e0: bebe 9ebe 9209 42bf a512 b93d dcd9 95be
000002f0: 8e9e 88bf 79f0 383e 20d8 5fbd 796c d0be
00000300: ecc5 8fbf d94b 34bf c748 2ebf 2f13 1bbf
00000310: 2130 9cbe 275c 71bf 0d39 eb3f 18ba 8ebf
00000320: 95df 60bf f1d3 a5bf 3c84 f03e 301c 4dbf
00000330: 2fde da3f 2746 1fbe 8414 0c3f cf27 acbe
00000340: a4f5 5b3f 6f54 b6be 768a 8cbf c705 8ebe
00000350: 5aa7 a1bf 536a b1bf ff5b 3ebf d817 c3be
00000360: 64b5 bd3f ca23 9abe 4835 34bf 063b 633f
00000370: 1b87 b63e 0101 10bf 1043 dc3e f4ba 2b3c
00000380: 228c 85bc 3d2f d8be 07a9 8cbe d15b 3abf
00000390: def1 023f 0219 17bf 87ca 2ebf 242e 81be
000003a0: 56bb a23e c9eb 0bbf 7cfa 8d3e 9ca5 47bf
000003b0: c866 d3be af33 3e3f 3775 babe 243c 5b3e
000003c0: 2d04 143f 9f81 9a3f a80e 26bf e875 c63d
000003d0: 09c1 7bbe a78c 62bf 8501 96be ee3e 0abf
000003e0: aea0 2b3f 17ae 03bf 9ce2 babf b7cc 18bf
000003f0: 30ea 223f 2b3f c7be 3218 693e 26cf da3e
0.21314467 0.2924295 0.35604236 -0.03311321 -0.46219507 0.73547065 -1.1835161 0.8671554
-0.07176314 0.5664446 0.23698838 0.6891186 -0.7819581 0.81474465 -0.28350446 -0.31553873
0.43682975 -0.17977843 0.24155861 0.9192895 -0.01559412 0.28064317 1.5151647 0.27470368
-1.2437724 -0.8162366 -0.71770734 0.10206862 -0.38250127 -0.7498457 0.7996806 -0.8895857
-0.2884809 -0.66690236 0.71553284 0.78327036 0.38956037 -0.056816466 -0.058410905 -0.92603284
0.3110616 -0.12871903 0.42848837 -0.1939962 -0.893972 0.6352504 -0.28126565 -0.29940674
-0.5350804 -0.83189845 0.1967949 0.8996887 0.78066856 0.5349054 0.61408776 -0.2552208
-1.2118483 -0.07648336 0.28374878 0.6893281 -0.5626884 0.3721317 0.5744912 -1.2249258
0.03400234 0.43124145 -0.04030404 0.79899347 -0.18005587 0.25936133 -0.121120825 -0.011038925
1.255039 0.5804743 -0.08855037 0.12552418 -0.108710095 -0.7452087 0.5899441 0.85771513
-1.0653378 -0.48151085 0.8998465 -0.2814136 0.8389397 0.64536303 -1.2975037 -0.7759386
0.60738 0.36023974 0.47430456 -0.88219297 -0.23006035 1.4636536 -0.68213207 0.18731418
-0.65598655 0.97602654 -0.45688668 -0.61616224 -0.3415109 -0.1334136 1.1496432 0.95205593
0.073111996 -0.47910127 0.25113997 0.12115245 0.9684448 -1.024906 -0.3948817 0.6785036
-0.57381475 -0.3122484 -0.29587668 -0.4459724 -0.5764363 0.59295124 0.10010491 0.28875616
0.986321 0.7683558 0.96596813 -0.1769277 0.589167 -0.55562294 -0.8959254 1.1392255
0.35701892 -1.2143921 0.9100892 0.07519621 1.0676044 -0.33424547 -0.40004942 -0.5912368
-0.32797045 -0.48232642 -0.45147684 -0.49603614 -0.2634293 -0.15192012 -0.46167785 -0.71873266
0.8405607 0.38763192 -0.7595511 0.06019947 0.65319496 -1.0682425 1.0570359 0.3501052
-0.24663289 0.7899142 0.35656038 -0.92218137 1.8696095 -0.22480236 -1.4411498 1.4531296
0.38470554 1.1044207 -0.18872511 0.003536717 -0.8735399 1.9329625 -0.06395023 -0.43253008
-0.7409125 0.56797504 -0.6097658 0.5289914 -0.35684168 0.0992219 0.020473976 -0.4817601
-0.2930277 0.725302 -0.34686124 -1.0669963 -0.07804439 -0.6577602 -0.68744034 1.6234245
-0.310049 -0.75795853 0.09036759 -0.29267776 -1.0673387 0.18060483 -0.054649472 -0.40707758
-1.1232276 -0.70428234 -0.680798 -0.60576147 -0.3050547 -0.9428124 1.8376786 -1.1150541
-0.8784116 -1.2955304 0.46975887 -0.80121136 1.7099055 -0.15554105 0.54718804 -0.33624122
0.8592169 -0.35611293 -1.0979755 -0.27738783 -1.2629197 -1.3860573 -0.74359125 -0.3810413
1.4820981 -0.3010543 -0.703938 0.8876194 0.35649952 -0.5625153 0.43019915 0.010481585
-0.016302172 -0.4222354 -0.27472708 -0.7279635 0.5115031 -0.59022534 -0.6827778 -0.25230515
0.3178355 -0.54656655 0.27730167 -0.77987075 -0.41289353 0.7429761 -0.36417553 0.2140966
0.5781887 1.2070807 -0.64866114 0.096904576 -0.24585356 -0.8849587 -0.29298034 -0.54002273
0.6704205 -0.51437515 -1.4600406 -0.5968737 0.6363859 -0.3891538 0.22763136 0.42736167

lin.bias f4 [10]
00000000: a23a 213e 847c 143e a7a8 0fbe 02f0 42bd
00000010: 8f9c 8b3d 4148 56be 2424 a9be e644 8ebe
00000020: d318 bfbe 63c5 41be
0.15745023 0.14500624 -0.1402918 -0.04759217 0.068169706 -0.20926 -0.33035386 -0.2778694
-0.37323627 -0.18922953
